课程设计/AlphaZero简单复现/models/policy_batch_1100.model (torch, 530639 bytes, 15 tensors)

conv1.weight f4 [32, 4, 3, 3]
00000000: 9530 473e 9cbd 6ebd fed3 7f3e 6a36 c3bc
00000010: e37a b2bd 51e9 b0bd 7b43 b23e e832 67be
00000020: a9f5 d73e 90b7 313e 7d1e 0bbd 94d9 3c3e
00000030: 8ca7 4fbc 54a4 b7bd 7348 8ebd 25fe 793e
00000040: 854c a1bd da44 753e cfa4 553d 3956 ebbc
00000050: 081c 2b3c ae6f 5abc bda0 46bd fc69 2abd
00000060: 30f6 5a3c e040 2abd df50 b63d 9d43 2abb
00000070: 99db 753b dec7 37bd 0d29 cabd c4bc f73d
00000080: 9af6 98bc 311f 2639 eab7 103d dab8 2cbd
00000090: fec8 a93e 2ff4 873e 5160 cbbe e562 203e
000000a0: 94eb 88bd 8dcb 9f3e f1b2 77be 63c1 133e
000000b0: 3daf 473e 5ad4 b83d 56ff 213d 2fc4 92bc
000000c0: 3b1c 44be f562 8cbb ca79 aabd b297 fd3d
000000d0: bd59 edbd d5d0 203e a42c acbc f8f8 2eba
000000e0: 7ba5 7fbb 0a02 90bc 5910 5bbd 5b8a 223d
000000f0: 09bb 273d e95f ef3c 0e9e 093d f281 3d3a
00000100: 0383 19be c305 6d3d 2aef 27be 25b9 7b3d
00000110: 654a 12be fb8b 0b3e 3641 6bbd 6ebf 2a3e
00000120: 4f1d 653e f3e0 243e 391f 82bc 8436 9fbe
00000130: 58a2 2fbd e9b9 85be 0d43 b03d dceb 4f3e
00000140: 5eca 61be 0d81 e2bd a6b4 39be 1e1c 51bd
00000150: adf7 813e 79f3 383e 3e59 dc3d d803 fa3d
00000160: 9a79 5abe 72c1 5a3d c99c b9bc cbc3 0dbe
00000170: e68b 8f3c 7234 96bb 8408 5f3c da70 9f3d
00000180: ab23 c43c 7ce4 52bd e908 0a3d 8b89 0cbe
00000190: 67b4 e43d 8243 893d 67b1 3f3c 5517 533d
000001a0: 36d1 693d 2d47 353d e148 063e f892 2cbe
000001b0: ed3e 85bb 8597 d9be 7ea9 ae3e 692c 5abd
000001c0: 41d2 c83e e991 d2be 2d17 b43c 15e4 e43c
000001d0: ea30 d13d 5b74 b13d 0ac2 db3d 4145 56be
000001e0: 825c 053e da4c 14be ad9d 013e 65a2 57bd
000001f0: 1a50 d23d 358d 0c3e 41b7 07bc 6137 de3c
00000200: 8265 c3bd 3d94 92bc aa8d 34bd df6e 393d
00000210: e0d1 d3bc 00e6 21bc ae3d 4f3d e2b4 923d
00000220: c729 71bd 1523 b63d dc61 0a3e cb58 20bc
00000230: 5ce8 ccbd c7bb ddbd 0739 bbbd 9b50 f53d
00000240: 7d19 57be 698a 74bd 4484 47bd e7a2 303d
00000250: cbda 1d3e 7433 d03d 2d34 61bd 0b6a c3b8
00000260: b0ef 573e 5f56 16be d6ed 49bc bac1 20be
00000270: e45b f43d 178b cbbc 2b92 e7bd 0c43 9e3c
00000280: 25d1 88bd 18ef fbbd 24a8 8dbd 6ed9 b63c
00000290: 4a28 103e 0f84 2b3e f83c d7bb 18f0 15bd
000002a0: b166 3a3c 9a68 c2bc b692 c7bd abf9 8c3d
000002b0: 8280 a33d 7aec fe3d f97a 003e 05d5 af3d
000002c0: 84d1 d43d 0612 143e 0a37 143e 08c4 fa3d
000002d0: c98f 783e d8ea 7b3d 5738 9ebd 03bd 98be
000002e0: e0ed c13e 3e38 a43e 01f3 a83e edfb 42bc
000002f0: 544f 6d3b c6db df3d 3992 1fbd 3757 1fbe
00000300: 2439 e9be e605 5d3e e122 033e f1d3 013e
00000310: 1cec 2cbe 207a dfbd 1264 ed3d 622a b53d
00000320: 7ce7 303c 8667 b23b b08d 1c3e 780b 873d
00000330: 20a1 993d ad7e a03d 8799 5bbc 7309 093d
00000340: 1b1c 2a3d e31d ed3d e737 173e c27b 04be
00000350: 4187 a8bd fa47 75bc b607 70bd 58c3 283e
00000360: cad9 d8bc 61bb 94bd 8c34 94bc 01ed b9bc
00000370: 3d1a 35bc 52ea 26be 3db8 bf3c 5d14 6dbc
00000380: 6770 803e b412 49bd 572c 1f3d 5fdf 983d
00000390: 83c3 47bd 1757 dc3e 6e7c f2be b696 d53c
000003a0: a385 12bf 9e7c 843e 274c 883c 8bfe a23d
000003b0: 8577 683d 4438 9a3d 40be 163e 30ea 2ebe
000003c0: bdfd c23d 0b87 16be 3d1f 3e3e 868a 6b3c
000003d0: 04a8 013e 65ed f23d 8c10 653a 561b 94bd
000003e0: bdcc 05bc cea2 05be 1092 e0bc 0cb5 4fbd
000003f0: 8a43 55be 8761 003e a016 9c3e 6dc7 37be
0.19452126 -0.058286294 0.24983212 -0.023829658 -0.08714845 -0.086382516 0.3481711 -0.22578013
0.4217961 0.1735518 -0.033964623 0.18442374 -0.012674224 -0.0896689 -0.06947412 0.24413355
-0.07875923 0.23952046 0.052159127 -0.028727638 0.010443695 -0.013332291 -0.048493136 -0.04160498
0.01336436 -0.041565776 0.08902144 -0.0025980242 0.0037514924 -0.044868343 -0.09871111 0.12096551
-0.018672276 0.00015842613 0.035331644 -0.042168476 0.33161157 0.26553485 -0.3972192 0.15662725
-0.06685558 0.31209984 -0.24189354 0.1442924 0.19500442 0.09024878 0.039550148 -0.017915813
-0.19151394 -0.0042842575 -0.08324011 0.12382449 -0.11589382 0.15704663 -0.02101738 -0.00066746725
-0.0039008546 -0.017579097 -0.053482387 0.039682727 0.040949855 0.029220538 0.033598 0.0007229141
-0.14991383 0.057866823 -0.16399828 0.061455864 -0.14286192 0.13627617 -0.057435237 0.16674587
0.22374462 0.16101436 -0.015884029 -0.3109628 -0.042879432 -0.261184 0.08606539 0.20304817
-0.22049853 -0.11059771 -0.18135318 -0.051052205 0.25384274 0.18061627 0.10759209 0.122077644
-0.2133545 0.05340714 -0.022657769 -0.1384422 0.017522763 -0.0045838887 0.01361287 0.077851966
0.023942789 -0.05148743 0.033699904 -0.13724343 0.111672215 0.06702329 0.011700011 0.051535923
0.057084285 0.04425733 0.13113739 -0.16852939 -0.004066339 -0.42498413 0.34113687 -0.05326501
0.3922291 -0.41126946 0.021983707 0.02794079 0.10214408 0.08664771 0.107303694 -0.20924856
0.1302357 -0.14482442 0.12657805 -0.052645106 0.102691844 0.13725741 -0.008283437 0.027126016
-0.095408455 -0.017892951 -0.044080414 0.04527175 -0.025856912 -0.009881496 0.05059593 0.07163407
-0.058877733 0.0889341 0.13513893 -0.009786795 -0.100052565 -0.10826831 -0.091417365 0.11978265
-0.21005817 -0.05970231 -0.048710123 0.043124106 0.15415494 0.10166064 -0.0549814 -9.3180766e-05
0.21087527 -0.14681385 -0.012324771 -0.15698901 0.11931589 -0.024846597 -0.11307176 0.01931908
-0.06680516 -0.12301463 -0.06916836 0.022320475 0.14077869 0.16749595 -0.0065685473 -0.036605924
0.011377023 -0.023731519 -0.0974478 0.06883558 0.07983495 0.12447448 0.1254691 0.08585552
0.103915244 0.1446 0.1447412 0.12244421 0.242736 0.06150326 -0.0772559 -0.29831704
0.37876797 0.3207416 0.32997897 -0.011900884 0.0036210613 0.1093059 -0.03895781 -0.15560614
-0.45551407 0.21584281 0.12806274 0.12678505 -0.16886944 -0.10911965 0.115913525 0.088459745
0.010797378 0.00544447 0.15288424 0.06593984 0.07501435 0.078366615 -0.013403303 0.033456277
0.04153071 0.11577966 0.14767419 -0.12937835 -0.08228923 -0.014970774 -0.058601104 0.16480768
-0.026471037 -0.07262302 -0.018091463 -0.02269602 -0.011053619 -0.16300324 0.023403281 -0.014470187
0.25085756 -0.049090102 0.038860645 0.0746448 -0.04877044 0.43035194 -0.47360557 0.026072841
-0.57235163 0.25876325 0.016637875 0.079587065 0.056754608 0.07530263 0.14721012 -0.17081523
0.09521053 -0.14699952 0.18566604 0.014376288 0.12661749 0.11861686 0.00087381224 -0.072317764
-0.008166489 -0.13050386 -0.027413398 -0.05070977 -0.20826545 0.12537204 0.30486012 -0.17947169

conv1.bias f4 [32]
00000000: 69c2 92bd a119 013e 5caf 083e 449c 983b
00000010: 884b 12be 8e69 783c d43e 8f3c 9f0b c63d
00000020: 80d7 383d 4660 c1bd d2f1 a23e bee4 14bd
00000030: 4e1a 03be cffc afbc 69e3 413c efb6 803e
00000040: b768 1cbd fd50 7b3e 0121 45bc 85b0 d83c
00000050: 9eb9 963e 4424 98bb 5e6c 6fbd b536 1bbc
00000060: ec15 98bc 7499 4f3e 9e60 8d3e 1296 50bc
00000070: 6dcd 2cbd 13b7 ddbd dbc6 cc3d 266f 14be
-0.07165987 0.12607433 0.13348144 0.0046573 -0.14286625 0.015161885 0.017486013 0.09670185
0.04512739 -0.09442191 0.3182512 -0.036350958 -0.12803003 -0.021482853 0.011834004 0.25139567
-0.0381858 0.24542613 -0.0120317945 0.026451359 0.2943849 -0.004642995 -0.058452956 -0.009473492
-0.01856514 0.20273381 0.27612776 -0.012731092 -0.042188097 -0.10825934 0.09998866 -0.14495525

conv2.weight f4 [64, 32, 3, 3]
00000000: a35e d63d cc1c 0f3e cc3f 1f3e bbbd 253e
00000010: f036 2d3c 15ef 3a3e 686a 82bc 637e a93d
00000020: 4e82 663c 13f3 0b3e a890 e5bd 506f 81bd
00000030: ea98 863c 9e54 e7bc dca4 23be 148e 083a
00000040: feb5 913d 3b1d 433e 9d98 ffbc c4f7 123c
00000050: 3242 d03d 6e3f 5ebd 94bd 0b3d 1ce5 23bc
00000060: 08f4 3ebd 7de2 c7bd 5dfe 3bbd 3b41 583d
00000070: 4553 c93d cc92 81bb 8b2c 433c 34b1 d3bd
00000080: a1af bc3d 63af 1bbe fa8f db3d 3782 debd
00000090: 993a 9f3c 7447 513a 7763 413c 3058 a6b9
000000a0: fa95 40bc bb8a 393c cf88 ecbc 5d06 fa39
000000b0: 1a47 173d 440b 06bd f86e 08bc 7209 3abc
000000c0: 6526 353d 2ef0 bb3d fae7 aebd 88c8 74bd
000000d0: 07d5 debb 9695 11be d757 bd3d 24a5 bb3c
000000e0: 674b 853c 9953 d2bd 4eac ea3c cbd2 df3d
000000f0: 570a b7bc a9ed 0f3e 11a9 353d 0c70 f8bc
00000100: 527a 18be 3305 833d 2ca6 9b3d 8a7c bc3d
00000110: 1b99 74be b6b2 723e 563e 443d 3ab5 bdbd
00000120: 66dd 02bd 5603 663d 5df3 b5bd adc3 a83d
00000130: 7539 993d a723 57bd d79a 71bd 0b8b bd3d
00000140: 929d e83d e44d 59bd 2d70 a43d 2ace a83b
00000150: a35e 58bd 476f 4abd c69f c23c 2fb4 14bd
00000160: 351d 833c 1677 723d cf98 0a3d 46d9 a4bd
00000170: 9a60 373d 7a74 c03d 3595 65bd 4b1a 8cbd
00000180: 7641 583d 7737 ab3d 0272 e13d b4f3 26bc
00000190: 872a 8dbd 44f5 733d c1bf 823d 7b97 643d
000001a0: 90f8 de3d 6061 37bd f3a0 bbbb 5ee5 8f3c
000001b0: 8cf7 163b 4478 0fbd 8dc1 e1bc ba04 eb3c
000001c0: 556a 95bd 7ba6 c13d e734 babd 3c0d 04bb
000001d0: 2691 ce3d be65 54bd 5098 d13b 749e 963d
000001e0: 7bae 4d3e cbd7 2d3c 3dc1 f3bc 5a42 2d3e
000001f0: 9dd4 8bbd 926d 0d3e bb14 92bc a99a 513e
00000200: f755 1c3e c699 4fbd 3016 973d 0a8a 983d
00000210: df84 0cbd ebe0 51be 0933 47bd 5841 2fbc
00000220: 4310 a53c 0566 32bc 678d a4bc eff3 5fbd
00000230: e004 a33d 36d2 86bd 6e24 6d3d 9c41 993d
00000240: 0964 82bd 49e6 85bd 6695 bebd bb63 06bd
00000250: 303c 683d f058 c03c c293 993d 6e9c 5b3e
00000260: 3a5a 183e 112f 533d d17b 5e3d 2004 61bd
00000270: 49f0 e63a 458e 85bc 5a2c a4bd 5bc6 463d
00000280: 20ad 3fbc e962 683d a2d2 9bbc 1e31 743d
00000290: 8027 e7bc effc 2c3e 2da6 1f3e 32aa 61bd
000002a0: 26e1 0ebd 588f b73b 9fba a2bd e58f d7bd
000002b0: c14a 423d 0fc3 233d d8b3 8a3d 7e44 b2bc
000002c0: 473c 59bc 4aa7 a83d f35c d2bc 94cf 2dbe
000002d0: 8d5e a6bd 6d75 28bd dcb0 d1bc f522 923d
000002e0: e928 eebd 233b fbbd 2706 613d 77d6 96bd
000002f0: 6ff4 b83c f65e 4d3e f11b 373e 1bb4 b83d
00000300: 8b2d 303d 8920 ffbc dae7 52bd f3c1 5ebe
00000310: 1b89 c9be 814e 6c3d 04f5 e33d 06dc 2aba
00000320: f59c 983a 9ed1 833d 3f6e 3e3b 019d 753d
00000330: 2149 c2bd c93a fdbc 5b30 863d 2ac3 be3c
00000340: bdff bc3d ad15 84bd 41bd f7bc 6c9c b43d
00000350: 0ae2 713d 3b66 dfbd a842 683d 44e1 28be
00000360: c8d0 353d 6c9d 303e 16c8 6a3b 42d9 d93d
00000370: 9dd0 383d 1ccf 87bd 06bb 623d 26a9 e7bd
00000380: 40e1 0fbc 7783 3abd 0ff9 3e3c 15a7 5dbd
00000390: 9672 15be c0b6 02bb 31ce 033e 1a06 35be
000003a0: c062 373d 9967 743e 4909 b1bd 4693 853d
000003b0: 6d31 8bbc 99e5 593d 64ab cabc f5a2 84bb
000003c0: 3c79 aabd d5fc 6dbe c308 d33d 2435 5dbc
000003d0: 6dc1 8fbd 1f7c 70bd ec62 623d ea80 33bd
000003e0: 2b8c a13c d85e be3d 04a9 113c 017f 9e3d
000003f0: 85ac 483c 2263 543d 7537 82bc 8850 51bd
0.10467269 0.13975829 0.1555168 0.16185658 0.01057218 0.18255265 -0.01591988 0.082760595
0.014069153 0.13666944 -0.112092316 -0.06320059 0.016430337 -0.02823859 -0.15980858 0.00052091596
0.071147904 0.1905412 -0.031200701 0.008970205 0.10168876 -0.05425971 0.034116343 -0.010003354
-0.046619445 -0.09759996 -0.045896877 0.052796584 0.098303355 -0.003954267 0.011912475 -0.10336533
0.09213186 -0.15203623 0.10720821 -0.1086468 0.019437121 0.00079833646 0.011803499 -0.00031727692
-0.011754507 0.01132458 -0.02887383 0.00047688457 0.036933042 -0.032725587 -0.008327238 -0.011354791
0.04422607 0.0917667 -0.0854034 -0.059761554 -0.006800297 -0.14217219 0.0924527 0.022905894
0.016271306 -0.10269851 0.028646614 0.109288774 -0.022343798 0.14055504 0.044350687 -0.030326866
-0.14890411 0.06397476 0.07600054 0.092034414 -0.2388653 0.23700985 0.04791101 -0.09263082
-0.031949423 0.056155525 -0.088843085 0.08240447 0.07481662 -0.052524235 -0.058985557 0.09255036
0.11358179 -0.053052798 0.08029208 0.00515153 -0.052824628 -0.04942253 0.023757827 -0.03630465
0.016005138 0.0591956 0.033837136 -0.08049254 0.04476986 0.09397216 -0.056050498 -0.068409525
0.052796803 0.083601885 0.110080734 -0.010189939 -0.06892877 0.059560075 0.063842304 0.055808526
0.10887253 -0.0447706 -0.0057259738 0.017565425 0.0023035733 -0.035026804 -0.027558113 0.028688777
-0.07295672 0.09455582 -0.090921216 -0.002014949 0.100862786 -0.05185484 0.006396331 0.07354441
0.2008609 0.010610531 -0.02975523 0.16919842 -0.06827662 0.13811329 -0.01783215 0.20469154
0.15267168 -0.05068376 0.07377279 0.07448204 -0.034306403 -0.20495956 -0.048632655 -0.0106967315
0.020149356 -0.010888581 -0.020086957 -0.054675993 0.07959914 -0.06583063 0.05789607 0.07483217
-0.063667364 -0.06538064 -0.09305839 -0.032809954 0.056698024 0.023479909 0.07498886 0.21446392
0.14878169 0.051558558 0.0543173 -0.054935575 0.0017619218 -0.016303191 -0.08016272 0.04852901
-0.011698991 0.056734953 -0.019021336 0.059617154 -0.028217077 0.16893362 0.15590735 -0.05509395
-0.034882687 0.0056018047 -0.079457514 -0.105254926 0.047434572 0.039980944 0.06772584 -0.021761175
-0.013259 0.08235033 -0.025679087 -0.16973716 -0.08123503 -0.04112761 -0.025597028 0.07135574
-0.11628897 -0.12267139 0.054937508 -0.07365125 0.022577493 0.20055756 0.17881753 0.090187274
0.043012183 -0.031143444 -0.051490642 -0.21753673 -0.39362416 0.057692055 0.111307174 -0.00065177714
0.0011643457 0.06436466 0.002905741 0.059964184 -0.094866045 -0.03091182 0.06552192 0.02328642
0.09228466 -0.06449447 -0.03024161 0.088188976 0.05905346 -0.10908171 0.056704193 -0.16492182
0.044388562 0.17247552 0.0035824827 0.10637142 0.045120824 -0.066313 0.05535414 -0.113115594
-0.008781731 -0.04553553 0.01165606 -0.05411442 -0.14594492 -0.0019945353 0.12871625 -0.17678109
0.04477191 0.23867644 -0.08644349 0.06522231 -0.016991341 0.053197477 -0.024739929 -0.0040477463
-0.08323905 -0.23240979 0.103044055 -0.013501439 -0.07019315 -0.05871212 0.05527012 -0.043824114
0.019720158 0.09295434 0.008890394 0.07739068 0.012248163 0.051852353 -0.015895585 -0.05110219

conv2.bias f4 [64]
00000000: ff45 85bd 0be5 933d 8871 56bc 4a13 4abd
00000010: 1521 d93d 3cf6 4dbd 5452 ccba f39b d3bb
00000020: 20cf 163b 6660 313b 0f2b 113d 7643 803b
00000030: 7e2a 653d 7abf e13c 53b6 2bbd e00e cd3c
00000040: e2e7 023d b784 44bc 24c5 f73c e577 bf3d
00000050: b668 e23b 900c 4b3d 1fec 4e3d d5ac 99bd
00000060: 43f6 0c3d dca5 253d 8c9f a53c 345d a63d
00000070: 766b f73c 7360 533d 0c81 303d 881a 863c
00000080: ae0a b73c 1aa2 96bc 1ab0 9bbc 3b91 c5bc
00000090: abff 2a3d 6009 adbb 3668 943d 64c4 e43d
000000a0: 04c9 d13d b83f d1bc e68c 8fbd d125 9cbd
000000b0: 318b 3f3d 8668 89bc 73aa 363c f663 d2bb
000000c0: 506c 543d 3976 1dbc 2486 733c 6b9a bebc
000000d0: fc40 253d 6d4e ad3d a902 17b9 afd4 113d
000000e0: 4f0c 3f3c e390 edbc a378 cd3c 8356 81bc
000000f0: eec4 303d bd18 2bbd 9830 38bd b5f4 89b9
-0.06507491 0.07221421 -0.013088591 -0.0493348 0.10602013 -0.050283656 -0.00155885 -0.0064577996
0.002301164 0.0027065515 0.035441454 0.003914292 0.055948727 0.027557123 -0.041921925 0.025031507
0.031959422 -0.011994532 0.030245371 0.0934904 0.006909455 0.049572527 0.05051815 -0.07503668
0.03441454 0.04044138 0.02021768 0.08123246 0.030202609 0.051605653 0.04309182 0.016370073
0.02234396 -0.018387843 -0.01900487 -0.024117103 0.04174773 -0.0052806586 0.07246439 0.11170271
0.10243419 -0.025543079 -0.07009296 -0.076244004 0.046763603 -0.016773473 0.011149037 -0.0064206077
0.051861107 -0.009610706 0.014863525 -0.023266992 0.040345177 0.08462224 -0.00014401473 0.03560322
0.011660649 -0.028999751 0.025081938 -0.015788322 0.043156557 -0.04177164 -0.044968218 -0.00026312997

conv3.weight f4 [128, 64, 3, 3]
00000000: 3da2 1ebc b3e3 05bd 34b3 883c e3bc 54bd
00000010: 85cb d3bd 699b c93c 8058 473c 80fb e1bc
00000020: 8c39 7f3d 1866 3a3d 6966 c4bb 3fe5 0a3c
00000030: 127c e13c f013 a23c 0d21 e23c 3708 8e3c
00000040: 7cad 92bc ca71 523c f01c 4bbb 5ab2 28bd
00000050: 0b08 39bd 9ca7 463d b433 5a3d 7b4d ff3c
00000060: 51ce 19bd b807 0c3d 6d8c 47bd 9f69 873d
00000070: 5696 4e3d 34fd e33c 1788 c43d c305 803c
00000080: d2c0 503d 90a4 8d3d d34c ac3d cb22 283d
00000090: 0e1c 343d 0836 923d 98a2 1c3d cd5f c4ba
000000a0: 8119 4c3d 3c3d 9a3d ea1c 283d 550e 933d
000000b0: 4003 4a3d d10b 963c f359 333d bb52 1a3c
000000c0: 6012 d43c 49ec 823c 18d3 ba3c 16bb 293b
000000d0: e5ea 07bc ae95 873c 2602 c23b 61f9 6e3c
000000e0: 6156 e33b 8e1a 0f3d d936 bf3c c3fe ae3b
000000f0: b5eb 1d3d 5440 bd3c 7ee6 0c3a 2a6e b43c
00000100: a421 44bc b605 ef3a 9d37 003d c00b a8bb
00000110: 18fc b23c 0517 76bb 149e c63c 163b 273d
00000120: 41b9 933c 3444 9e3c 916b 96bb f866 f13c
00000130: 2457 573c ac86 b2bc 3dcf 913d 086c ca3c
00000140: 43dd 49bc f37e 813d 63be 2a3d 5314 f03c
00000150: 3bbd 863d b8e1 933c 0db1 29ba 4208 553d
00000160: 9e94 a5bc b74c 6f3c 1a17 a33c 54cb 21bd
00000170: da2e 9439 43f2 61bb 0492 d4bc 691f 633d
00000180: a9fd c43c 9b60 473c e249 69bc fd38 e73c
00000190: 660d 1abd a193 db3c 951b 713d b855 893d
000001a0: 9418 99bb 96e9 9bbc 3ffd a33d 4a01 70bb
000001b0: 84d6 7e3c 98bc 4e3c f0c5 a8bc 9448 7f3d
000001c0: e2ea fe3c 1cd5 153d 7704 043d 7a58 b13c
000001d0: 4c8a cf3c 091d 1a3b 5e55 7abc 480b c0bc
000001e0: a08f 95bc 68bd da3c 5dc8 203c 6aca 123d
000001f0: a232 04bc 266a 283c 9c9c 8d3c ab7f 7c3a
00000200: 0468 633c 2750 b83c f46c 483d 9690 193d
00000210: c12f 15bc 88c7 80bb d570 f53c 49ec 903c
00000220: 2bc3 803c 3e26 703c 4d97 933d 2b73 8cb9
00000230: e7f2 8cbc c32a afbb 7501 723d b5de e43a
00000240: 93cd 15bc 9a16 633d 4fde 45bc 7320 e2bb
00000250: a378 973c e126 4f3d 89b4 84bc 5a27 e03c
00000260: 7406 77bd a02c 953d 8e30 18bd 03c1 0c3d
00000270: 88ae 4cbc 58bc f4bc bb7b d1bb f089 8a3d
00000280: 1aca 56bd c51a 053d a519 b6bb 8812 033d
00000290: 668e 953b 401e 53bd 3fbc acbd da0f 923d
000002a0: 909a 6e3c 2f24 453d eae6 b83c 4b33 673c
000002b0: 544b 993c 6226 ef3c 3007 123d a1d8 ed3c
000002c0: cb4b c23c 298b 9f3c 47f3 313d d61f e53b
000002d0: 5586 f83c cb8b 8bbc aa25 213d 1666 5a3c
000002e0: 3e36 0fbb 82bc 99bb 20cd 413a 7f45 203c
000002f0: 316a e6bc 60e0 553d 7d50 9c3d 85c3 4ebd
00000300: 12f1 00bd 004c c5bb b054 863d 055e a0bd
00000310: 258d f1bb 6c8b 293d 3a10 433c a447 973d
00000320: e947 5cbd 5ecd 173d b2c2 013d fcda dabc
00000330: 190a 76bc 4d0a a73d 7465 89bd ad57 fcbc
00000340: 1e69 ad3b c545 ed3c 0856 3d3d de75 2c3c
00000350: f81f 3a3c b96c 0fbd 0826 883c ca04 2bbd
00000360: a409 5ebc 7a79 353d 557b f3bb 748e d23c
00000370: 2ed4 7abb 3788 873c b07d f9bc 99c5 683b
00000380: 5420 f83c 242d 24bc f4e5 a13c 7027 2a3a
00000390: 4e4f ff3c ff89 153d e3de ee3c 74e5 11bd
000003a0: 1289 3a3c 298a 9d3c 0327 2c3d 2f36 783d
000003b0: e387 473d 89ca 03bd ee59 9cbc 9c98 41bc
000003c0: 3ca6 a0bc 67cd c33c 0348 453c d3d3 1b3d
000003d0: d8ba 2b3a 3e1b ed3b 61ed 633d 8973 3b3c
000003e0: 1166 a4bc cf66 293c ff7e 343d d506 cb3c
000003f0: c8a5 84bc 0721 10bd b000 8cbd 3263 753d
-0.009682235 -0.032687854 0.016687013 -0.05193795 -0.10341553 0.024610238 0.012167096 -0.027585745
0.06231074 0.04550752 -0.0059936536 0.008477508 0.027524982 0.019784898 0.02760365 0.017337902
-0.01790499 0.012844512 -0.003099259 -0.041185714 -0.045173686 0.04849969 0.053271964 0.031164875
-0.037550274 0.03418705 -0.048717905 0.066119425 0.05043634 0.027830698 0.095962696 0.015627747
0.050965138 0.069161534 0.084130906 0.041048806 0.043972068 0.07139212 0.038241 -0.0014982164
0.04982901 0.07531211 0.0410432 0.07180468 0.049319506 0.018316181 0.043786954 0.009419139
0.025887668 0.01598181 0.022805735 0.0025898865 -0.008295749 0.016550865 0.0059206663 0.014585824
0.0069377874 0.034937434 0.023341583 0.0053404286 0.038554866 0.023101963 0.0005374922 0.022025187
-0.011970911 0.0018235955 0.031303037 -0.005128354 0.021848723 -0.0037550342 0.0242453 0.040827833
0.018032672 0.019319631 -0.0045904596 0.029468045 0.013143335 -0.021792732 0.07119606 0.024709716
-0.012320819 0.06323042 0.041685473 0.029306566 0.065790616 0.018051967 -0.0006473221 0.05200983
-0.020212468 0.014605693 0.019908477 -0.03950055 0.00028263667 -0.0034476675 -0.025948532 0.055449877
0.024046736 0.012169029 -0.014238806 0.028225416 -0.037610434 0.026803793 0.058864195 0.06705803
-0.0046721194 -0.01903228 0.08007287 -0.0036621862 0.015554074 0.012618206 -0.020602196 0.062325075
0.03111786 0.03658019 0.03223082 0.021648634 0.0253345 0.0023515841 -0.015279142 -0.02344288
-0.018256962 0.026701644 0.009813395 0.03583757 -0.008068712 0.010279214 0.017286591 0.0009632061
0.01387978 0.022499157 0.04893203 0.037491404 -0.009105624 -0.003930036 0.029961029 0.017690795
0.015718063 0.014657555 0.07206593 -0.00026788688 -0.017205669 -0.0053456738 0.05908342 0.0017461391
-0.009143251 0.055441476 -0.012076928 -0.006900841 0.018490141 0.050574187 -0.016199367 0.027362514
-0.06030889 0.07283902 -0.03715568 0.034363758 -0.012492783 -0.029874966 -0.0063929236 0.06764591
-0.052438833 0.032496233 -0.0055572563 0.032000095 0.0045640944 -0.05154252 -0.084343426 0.0713193
0.014563218 0.04813021 0.022571046 0.01411135 0.018712677 0.029193107 0.035651386 0.02903396
0.023717782 0.019475536 0.043444898 0.0069923205 0.030337492 -0.017034432 0.03934256 0.013330003
-0.00218524 -0.0046916613 0.0007392932 0.009782194 -0.028126808 0.052215934 0.076325394 -0.05047943
-0.031479903 -0.006021023 0.065591216 -0.07830433 -0.007371562 0.04139273 0.011905724 0.07386711
-0.053779516 0.037061088 0.031679817 -0.026715748 -0.015017056 0.081562616 -0.06708804 -0.030803526
0.005292072 0.028963933 0.046224624 0.010526149 0.011360161 -0.035015795 0.016619697 -0.041752614
-0.013552103 0.044305302 -0.007430474 0.025702693 -0.0038273442 0.016544444 -0.03045544 0.0035518168
0.030288853 -0.010020528 0.01976297 0.0006490862 0.031165745 0.036508556 0.029159015 -0.035619214
0.011385219 0.019230919 0.042029392 0.06059855 0.048713576 -0.032175574 -0.01908585 -0.01181617
-0.019610517 0.023901654 0.012041095 0.03804381 0.0006550974 0.0072359135 0.055646304 0.01144112
-0.0200682 0.010339453 0.044066425 0.024783531 -0.016192332 -0.035187747 -0.06836069 0.059909053

conv3.bias f4 [128]
00000000: fed6 883c 949b 193d 26fb 21bd bf51 2bbb
00000010: 54d1 4a3b e9ce 4b3d ba51 299a a353 83bb
00000020: 4c22 b1bc ccdf 963c aa0c 363d f0e1 763c
00000030: 382e f73c 2845 01bc 0171 f1bc 708f 963c
00000040: 6aa0 53bc a27a b93c ae77 29b7 1ee2 38b6
00000050: aea5 053d d821 c73b 6976 6b3c d74f 32bd
00000060: a077 01ba 85fd 28bd 6a4a 06b8 88c3 b6b8
00000070: 6295 eeba 3516 853c 1dfb c3a4 b05a e63c
00000080: cfd5 6bbc 2332 b0bc d52d 573c bbd4 e23c
00000090: 3a0b ffbc bd59 47bd 062e 5338 3814 c9b9
000000a0: 66d1 81bd 088a 6eba 4d4c b93c 324d 95bc
000000b0: ea2d d5bb d160 873b 4547 ad3c 519d 02bb
000000c0: 1551 0bbd 620e 2a3c 8f54 24bc 55c8 abb9
000000d0: fbf4 bd3b 05aa 9cbc a835 cdb8 dfce cfbc
000000e0: 657b b9bb de58 09bd 7ae4 07a0 47b7 873c
000000f0: cef5 ec3c 21eb 13bd 8858 da3c 19f7 5cb9
00000100: 8202 ae3c 6334 aa3d a816 483b 40c9 ef3c
00000110: 43e1 33bd 7af1 fcbc 281c e93c 9ce0 15bc
00000120: c5a5 80bc 8393 303d 5166 f6bc 948e dfbb
00000130: 01c3 943c 8fbe 97b8 f64f d03c 351c 3dbb
00000140: 22c3 103d 19b7 523d 7114 b5b1 1fea 2bbb
00000150: 6880 7d3d f025 1a3d 5e60 adbc 1ea5 39bd
00000160: ba4e 0cbd a686 803a 0f0f 143c f545 06bd
00000170: bcf5 1a3c db7f 143d c2f2 6f3c 91ef 883c
00000180: b42c 15b6 8fcf 8fbc 9988 5db5 e260 5fbd
00000190: 77cb 87bd 413d 013c e878 c3b7 6f78 813d
000001a0: 467c 4b3d b8c9 133c 6311 733d 3e38 05ba
000001b0: b5ff 2fbb da81 47bc 484b d93c 2268 42bc
000001c0: 99ea 843c 7285 fe3c 25bb 6f3c 1a5b a1ad
000001d0: a35a c53c febb 21bd eb92 3dbb 5a99 62bc
000001e0: 55ff f23b ed40 27bc e2f3 c6bd bb30 73b7
000001f0: 640a 903d d710 9fbc 55db bfbc 157c f83b
0.016704079 0.037501886 -0.039546154 -0.0026141254 0.0030947523 0.04975787 -3.50144e-23 -0.004007773
-0.0216228 0.018417262 0.04444567 0.015068516 0.030173406 -0.007890023 -0.02947283 0.018378943
-0.012916664 0.022641484 -1.010105e-05 -2.7549754e-06 0.032628708 0.0060770325 0.014371493 -0.043533172
-0.0004938785 -0.0412574 -3.2017393e-05 -8.714857e-05 -0.0018202479 0.01624594 -8.499317e-17 0.028119415
-0.014394238 -0.021508282 0.013133486 0.027689328 -0.031133283 -0.048669565 5.0349183e-05 -0.00038352772
-0.06338768 -0.0009099548 0.02261939 -0.018225286 -0.0065057175 0.0041314145 0.021152148 -0.0019930194
-0.034012873 0.010379406 -0.010029926 -0.0003276492 0.005797026 -0.01912404 -9.785156e-05 -0.025367199
-0.0056604617 -0.033532016 -1.1510541e-19 0.016566886 0.028925803 -0.03611291 0.026653543 -0.00021072886
0.02124143 0.08310773 0.0030531082 0.029270768 -0.043916 -0.030876864 0.028455809 -0.009147789
-0.015704045 0.04310943 -0.030078085 -0.0068224166 0.018159391 -7.2357354e-05 0.025428753 -0.0028855924
0.035342343 0.051444147 -5.2701172e-09 -0.0026232076 0.061890036 0.037633836 -0.021164116 -0.045323484
-0.034254767 0.0009805753 0.009036793 -0.03278156 0.009458002 0.036254745 0.01464528 0.016715797
-2.222875e-06 -0.017555026 -8.252769e-07 -0.054535754 -0.06630605 0.007888139 -2.3302113e-05 0.06321799
0.049679063 0.0090202615 0.059342753 -0.0005081928 -0.0026855294 -0.012176955 0.026525155 -0.0118656475
0.016225146 0.031069491 0.014632021 -1.8344038e-11 0.02409107 -0.039485924 -0.0028926681 -0.013830507
0.007415692 -0.010208351 -0.09714486 -1.4495275e-05 0.07033232 -0.01941721 -0.023420015 0.007583151

act_conv1.weight f4 [4, 128, 1, 1]
00000000: 16b9 a63c 9f9f 003e 9891 dcbd fab9 5b3d
00000010: b9fb 353e ec4d cfbd fab5 3c2a 5eb3 003b
00000020: d31c 70bd c068 e83d 1ab9 3cbd ce4f a13d
00000030: 56c9 843d 1a9c c5bc 31f1 27bd 8f1d e73c
00000040: 03d1 4e3d 4847 093e 73e2 4f3b d289 0080
00000050: 8772 aa3d d332 973d 337e ba3d 2ce9 403e
00000060: c28a 0080 65b7 35bd 995c 02bc 7a89 0000
00000070: a41f 203c 3a36 153d ba89 c928 e1c2 023d
00000080: d33b 65bd 4c6a 703b 23a5 5c3e a758 443d
00000090: 0e1f 0f3e 4357 7abd 410d af3b e609 1907
000000a0: e521 b03d 80b6 903d c5ff 6c3d 1518 32be
000000b0: 0d59 d5bd c469 f13c 4bd7 9b3d c49e 7e3b
000000c0: 372f 183e b5a2 aebd 3ee5 373e 139b a03e
000000d0: 6257 a33d 891e 0cbd f088 0000 aa91 02bd
000000e0: 6112 79bd 289e 86bd d78a 0000 77c1 d5bc
000000f0: d34e a2bd a596 0dbc 75c3 f8bd 8168 c3ba
00000100: 5644 9e3d a627 8c3e be9b 673c a089 113e
00000110: ff6c f33d 2c07 d8bd 3daf bd3d 1824 f23d
00000120: 7d97 03bd f9d8 d5bc 6f30 223d 72c9 3f3e
00000130: a672 363d 8b92 3eb4 d57b aebc a3d2 993e
00000140: 42cc 5b3c fbce 933d 7b89 0080 9388 dbbc
00000150: d824 f2bd 4b36 ef3d 4280 753d 7255 60bd
00000160: bf16 843d b986 8c3d e7a6 a13d 2f5c c3bd
00000170: 46be e0ba dfb8 443c ece3 13bd ab71 a03d
00000180: 878a 0080 837b 103e e439 78bc 4464 3abe
00000190: f781 933c d29e 003e cc71 ebbb accb 103c
000001a0: e8a4 f5bd fb46 67bc 0a74 f23d 208a 0080
000001b0: 3ff8 a53b f689 0080 aef7 eb3d c075 d2bd
000001c0: 245d 073d fc1b fd3d 4888 413e c38a 0000
000001d0: 96de bb3d f1ad a7bc d188 0080 2bdd 67bd
000001e0: 5d5c a7bd 4ffc 823e 7f1a 33bd 5c89 0080
000001f0: 06a0 55bd b7d5 b6bd c658 0a3e e122 14bd
00000200: 79d2 893b f806 43bd 7f04 c33d 5150 f0bc
00000210: ab3d 0dbe 368b 1dbc cf88 0000 0412 e6ba
00000220: 129e d9bd a2ba 14bd cf95 f3ba 2b6d 5fbd
00000230: 07f6 fdbc 0cec 93bd fe55 8e3d 4c04 1abe
00000240: 88c0 e8bd 00e2 cebd a3b8 1316 7390 0080
00000250: 8425 6abb 828b 10bd 95ab 9dbc 22e8 e33d
00000260: f289 0080 0d5a 113d 9847 cebb b988 0080
00000270: 4e54 1e3e fc39 72bc d58a 0000 1cde 053c
00000280: ba73 b9bb 9191 b3bb c68d 803d a450 1cbd
00000290: 4902 1abd 6fcc f03d 63ab 55ba d389 0080
000002a0: 72d1 a83c 24bf f4bd cc31 843d c628 aa3d
000002b0: ad1c 253e acca 013c ca75 30bd 794d 123b
000002c0: 9528 363d 834d 843d e275 473b b447 483d
000002d0: b01d b8bd d9fc 58b9 498a 0000 9b2b e4bb
000002e0: 7495 9dba d58c 8d3d 3a8a 0080 bc26 8fbc
000002f0: adcd 973d 22bc fabd 920c 3a3e d5a3 3ebc
00000300: 8db3 4c3e d05f 7dbd 0a29 5cbc f9d6 d0bc
00000310: 43df 7a3d 9485 b13d 76e6 083e d9d9 e23d
00000320: 745d 96bc fee4 10bc 328e 90bd 84e2 8ebe
00000330: c54f d73d e788 0080 0e3e 4a3e 414c be3c
00000340: f716 c43d c8cb 26bd 228c 0080 898f 0d3c
00000350: 7739 823c fc2f a4bc b64b 63bd 69d4 3d3d
00000360: da32 b43d da26 313c 6039 083d 51a9 903d
00000370: 5df0 0a3c 92ff c1bc 35f8 4b3c 6f77 a5bd
00000380: 0a94 0000 14d9 823d dd52 ee30 86b6 773d
00000390: ac5e 21be 2919 45bd f388 0080 d732 7fbc
000003a0: c3e3 08ba 5a37 923d c99d 29bd 028b 0080
000003b0: 2689 0080 0ca9 0000 e564 38bd 6a9e 323d
000003c0: 03aa 893d 5546 5bbd cc70 25be fa8a 0000
000003d0: 8ce3 fdbc 4ad4 913d 958a 0080 8e85 c3bb
000003e0: 80fe b43b bdb8 093c 15c7 b73d 798a 0080
000003f0: af14 aabb e2d5 7d3d f764 013d 4c17 39bd
0.020351928 0.1256089 -0.10769957 0.053644158 0.17771806 -0.10122284 1.676089e-13 0.0019638161
-0.05862124 0.113481045 -0.046074964 0.0787655 0.06483714 -0.024122287 -0.041001502 0.028212337
0.050492298 0.13406098 0.0031720668 -4.944e-41 0.083226256 0.07382741 0.09106102 0.18838948
-4.9777e-41 -0.04436435 -0.007956647 4.9317e-41 0.009773169 0.036428668 2.2375212e-14 0.031924132
-0.055965256 0.0036684452 0.2154737 0.047936108 0.1397669 -0.061118376 0.005342156 1.151335e-34
0.08600215 0.07066059 0.05786111 -0.17391999 -0.10417376 0.029469378 0.07609423 0.0038851956
0.14861761 -0.08527128 0.17958543 0.31368312 0.07975651 -0.034208808 4.9124e-41 -0.031877197
-0.060808543 -0.06573135 4.9806e-41 -0.026093228 -0.07925191 -0.0086418735 -0.121466555 -0.0014908464
0.07727878 0.27374 0.014136253 0.14212656 0.11886024 -0.10548243 0.0926194 0.118232906
-0.032126892 -0.026104437 0.03959697 0.18729189 0.04454293 -1.7748441e-07 -0.021299282 0.30043516
0.013415398 0.07217213 -4.9319e-41 -0.026798522 -0.11823434 0.116802774 0.05993677 -0.054768987
0.06449651 0.06861634 0.07893162 -0.09539067 -0.001714655 0.012006967 -0.036106035 0.078341804
-4.9694e-41 0.14109616 -0.015150521 -0.18202311 0.018006308 0.12560585 -0.0071851965 0.008837622
-0.11994344 -0.014116044 0.11838539 -4.955e-41 0.0050649936 -4.9491e-41 0.115218505 -0.10276365
0.03304781 0.12358853 0.18899643 4.9778e-41 0.09173314 -0.020468684 -4.908e-41 -0.056607407
-0.08171914 0.2558312 -0.04372644 -4.9275e-41 -0.052154563 -0.089274816 0.13510427 -0.036166076
0.0042059985 -0.047614068 0.09522342 -0.029335173 -0.13793056 -0.00961571 4.9078e-41 -0.0017552976
-0.10625853 -0.0363108 -0.0018584075 -0.05454747 -0.031001104 -0.07222757 0.069499955 -0.15040702
-0.113648474 -0.101017 1.1932827e-25 -5.1819e-41 -0.0035727927 -0.035289295 -0.019246856 0.1112826
-4.9485e-41 0.03548627 -0.0062951557 -4.9047e-41 0.15461847 -0.014784332 4.9804e-41 0.008170631
-0.0056595476 -0.0054799994 0.06277041 -0.038162842 -0.037599836 0.117577426 -0.0008150844 -4.9442e-41
0.020607684 -0.1195052 0.064548105 0.08308558 0.1612422 0.007921856 -0.043081082 0.002232401
0.044472296 0.06460097 0.0030435254 0.048896506 -0.089900374 -0.00020693558 4.9607e-41 -0.006963206
-0.001202269 0.06911627 -4.9586e-41 -0.017474525 0.074122764 -0.12242915 0.18168858 -0.01163574
0.19990368 -0.061858952 -0.013437519 -0.025493132 0.061248075 0.08668056 0.13369164 0.110767074
-0.018355109 -0.0088436585 -0.070583716 -0.27907193 0.10513262 -4.9111e-41 0.19750234 0.02322972
0.09574693 -0.040721685 -5.027e-41 0.0086401785 0.015896542 -0.020042412 -0.055492125 0.04634515
0.08798762 0.010812486 0.033257842 0.070635445 0.008480159 -0.023681436 0.012449314 -0.08079421
5.3106e-41 0.063890606 1.734033e-09 0.060476802 -0.1575877 -0.048119698 -4.9128e-41 -0.015576086
-0.00052219274 0.07139464 -0.04141024 -4.9867e-41 -4.92e-41 6.0643e-41 -0.045018096 0.043608107
0.0672188 -0.05353387 -0.1615631 4.9855e-41 -0.030992292 0.07120569 -4.9714e-41 -0.0059668487
0.005523503 0.008405861 0.08973519 -4.9675e-41 -0.005190454 0.061971553 0.03159043 -0.045188233

act_conv1.bias f4 [4]
00000000: 4e1a 2e3d f458 a1ba ff14 b1bc 05f6 023e
0.042505555 -0.0012309835 -0.021616457 0.12789162

act_fc1.weight f4 [81, 324]
00000000: fdf6 0e3d 7f8a c93c 1fd9 1c3d 636b 923a
00000010: a0bd 5c3c b6eb 78bb 6082 17bc 8dcc ffba
00000020: 4a77 4dbd 516c 1d3d e31c c33c 115f 70bd
00000030: 5cdd 70bd b1a5 fbbc 5cfd b1bb b060 01bd
00000040: 26f0 49bc 928d 99bc e000 903c 551b 1b3c
00000050: 7efa 16bd d165 92bd 718b 5fbd 9f5d a4bd
00000060: 77ee 9d3c 3fb9 963b 1243 8e3b 008a 013d
00000070: 1bc2 3bbd f37a ffbc 7742 f9bd 0fba aebd
00000080: a6ff 66ba fe5d a8bd b1f2 e53b 1a14 24bd
00000090: ff5d c1bc 4e07 89bc f933 d2bd ee15 c5bd
000000a0: 0956 43bd 5480 f4bd 40e9 b4bd bef0 04bd
000000b0: 0b65 dcbc e6e5 4c3d 3c19 30bd 0b2a 4ebd
000000c0: 3be3 4dbd 8e39 26be 2abc b0bd fff8 8dbd
000000d0: f1fa 66bd d661 90bc 16cd db3d 23c0 543c
000000e0: 9191 a8bd 869e 38bd 967e 8abd a7e4 c9bc
000000f0: 9fa1 4cbd 06a8 65bd ad67 dcbc 8fda 823e
00000100: 28c9 6ebd 7666 ec3c f3b9 b3bc c433 afbd
00000110: 097f 0cbd 7dc3 d3bc 2e40 8e3c caab 0dbc
00000120: 2a6a 8a3e 782a 933e aea7 ffbb c663 813b
00000130: 2948 623c 6f99 23bc f44f 1abd 0b70 943c
00000140: 2c84 0c3d 3ee6 12bd 3280 2dbc d8da bfbd
00000150: be42 5e3d bf8f de3c 1577 25bd 9dc0 163b
00000160: 393e 14bc d428 ad3d 883c 943b 9df7 e1bb
00000170: 2c87 c0bc 6c78 0a3d 3af8 983b 8bc8 09bb
00000180: 31cc 143b ce6c c5bd 16b3 c13c 31d5 f63c
00000190: d56a b33b 83cb 67bd e03f 153d 330a 923c
000001a0: 2b06 0f3b 39a3 3abd 35d8 c53c 48ee 3ebc
000001b0: 3e3d f83c eec7 83b9 7730 33bc 5924 3fbd
000001c0: 32a4 513d 571f 2bbd 753f 8f3b e36c 97bd
000001d0: 49c6 5bbc cf60 a13d 7faf c03c d7ef a5bc
000001e0: 29c3 273d b15d 8a3b 6adc 603d 134c f4bc
000001f0: 19de 413c 18ae 43bb 6d98 a8bd 848c 063d
00000200: 1b10 963d e62f 6f3c 906d 8abc 86b3 b13c
00000210: bf35 493d 8722 3f3d 795f c83d 1ef4 e03c
00000220: 4463 3dbc 4bb0 0e3d 41f5 57bb 343a ad3c
00000230: 1284 b73c c221 3abd ed26 b9bc e82c 78bc
00000240: 733a 12be 3045 043c cef4 b6bc f2bb 923a
00000250: 14c2 953d 5839 a539 1982 89bb d93a bfbc
00000260: af1c bcbc 6dd4 cfbd 6c0b 0ebe 3fd6 7e3c
00000270: dfd6 bab9 a141 893d a316 523d 72af b53c
00000280: d92a ffbc 92ff f63c 9626 1c91 e588 6831
00000290: 0897 9032 cb3e 9b35 e971 3d34 024f 7735
000002a0: 630b 8433 d1ef 2934 d480 3631 1030 e431
000002b0: 157f 2236 4e24 7d37 e4c0 cf38 68dc db37
000002c0: bd98 4738 5ffd ff36 e45e 0537 65ae 4434
000002d0: fb3e b330 3e54 1538 831c 0c39 b65c 4639
000002e0: 9024 4339 88e6 eb38 83cb e138 4db3 2e38
000002f0: 80e4 9b35 77a4 6333 1a81 b838 4943 7f38
00000300: 19a7 be39 6cc6 0739 117c 0439 833c 6a38
00000310: 059a 2a37 bca7 1634 00a2 4331 4225 3038
00000320: 914e aa38 0b75 c939 347e 2e38 0b92 4b38
00000330: 6ffc 8f35 8ebd fe33 b64b 3531 c1c1 492f
00000340: 0b6f 2938 7570 ad38 05bb 6139 1787 9d38
00000350: 0400 0137 9d2c aeb4 4e2c 06b3 fc50 39ae
00000360: 3cbd c0ae d5bc 8837 ce01 8737 dc6b 8439
00000370: 5ae9 cc36 c4b4 9a36 5abd 91b5 d7dc 87b3
00000380: 7b05 c6af f9c1 b331 8fb5 2035 aaa5 2637
00000390: 2d0a 7037 682b d535 cf70 8ab5 fc4a 8cb4
000003a0: 69f9 8cb2 1629 4131 f9fa 6f2e cb21 3532
000003b0: dc0f 1433 1faa c530 c80e acb1 34fe f1b1
000003c0: d6fa 1d32 17b2 4730 546c 0825 a067 b83d
000003d0: d962 1e3d 6f2b a93c b758 f83c 3f97 d23c
000003e0: 55c9 303d a716 4f3c 341d f53c f077 623d
000003f0: a5d9 d93c c09e cf3b 18a7 bb3c 58c9 1b3d
0.034903515 0.024602173 0.038293 0.001117092 0.0134729445 -0.0037982292 -0.009247392 -0.0019515917
-0.05016259 0.038433377 0.023817485 -0.058684412 -0.058804855 -0.030718656 -0.005431814 -0.03158635
-0.012325322 -0.018744264 0.017578542 0.009466966 -0.03685998 -0.07148326 -0.05457634 -0.08025669
0.019278748 0.00459972 0.0043414915 0.031625748 -0.04583941 -0.031186556 -0.1217088 -0.085315816
-0.00088118983 -0.082210526 0.0070174565 -0.040058233 -0.023604391 -0.016727116 -0.10263819 -0.096233234
-0.04768947 -0.11938539 -0.088335514 -0.032456152 -0.02690365 0.050023936 -0.042992815 -0.050333064
-0.050265532 -0.16232893 -0.086296394 -0.06932258 -0.05639166 -0.017624777 0.107324764 0.012985262
-0.082308896 -0.045073055 -0.067624256 -0.024645163 -0.04995882 -0.056068443 -0.026904905 0.25557372
-0.058297306 0.028857451 -0.021939253 -0.085547954 -0.034300838 -0.025850052 0.017364588 -0.008646915
0.27034122 0.2874334 -0.0078019714 0.0039486615 0.01381115 -0.009985312 -0.037673905 0.018119833
0.034305736 -0.035864107 -0.010589646 -0.09367913 0.05426287 0.027168153 -0.04039677 0.002300299
-0.009048038 0.08455053 0.0045238174 -0.006895973 -0.023501955 0.03380625 0.004668263 -0.0021024074
0.0022704715 -0.096398935 0.023644965 0.030130954 0.005475382 -0.05659057 0.03643787 0.017827129
0.0021823745 -0.045565818 0.024150947 -0.01165349 0.03030264 -0.00025135226 -0.010936848 -0.046665523
0.05118198 -0.041777935 0.0043715783 -0.07393815 -0.013413974 0.07879793 0.023521183 -0.020255966
0.040957604 0.0042225947 0.054897703 -0.029821431 0.011832737 -0.0029858407 -0.08232198 0.03284885
0.073272906 0.014598822 -0.016897947 0.021692049 0.049123522 0.046663787 0.09783835 0.027460154
-0.011559311 0.034836095 -0.003295258 0.021145917 0.022401843 -0.04544235 -0.02260157 -0.015147425
-0.14280109 0.008073136 -0.022333529 0.0011194928 0.07312408 0.00031513977 -0.004196417 -0.02334349
-0.022962896 -0.10147939 -0.13871545 0.01555401 -0.00035636776 0.06701971 0.05129112 0.022178385
-0.031148361 0.030151162 -1.231812e-28 3.3838259e-09 1.6832487e-08 1.1566675e-06 1.7643437e-07 9.212964e-07
6.1488e-08 1.5826596e-07 2.6557716e-09 6.6411374e-09 2.4213853e-06 1.5088428e-05 9.906458e-05 2.6209469e-05
4.7587546e-05 7.6290885e-06 7.949511e-06 1.8317367e-07 1.3041864e-09 3.5602825e-05 0.00013362062 0.00018917289
0.0001861027 0.00011248613 0.00010766743 4.165182e-05 1.1614902e-06 5.3002136e-08 8.797851e-05 6.0859402e-05
0.00036364121 0.00012948521 0.0001263472 5.5846303e-05 1.016865e-05 1.403086e-07 2.846832e-09 4.199637e-05
8.120866e-05 0.0003842491 4.160237e-05 4.8534985e-05 1.0727798e-06 1.18622765e-07 2.6382003e-09 1.8349679e-10
4.0396157e-05 8.2702296e-05 0.00021527342 7.511506e-05 7.689003e-06 -3.2442486e-07 -3.12396e-08 -4.213606e-11
-8.764764e-11 1.6300395e-05 1.6094094e-05 0.00025257363 6.1068395e-06 4.6106015e-06 -1.085845e-06 -6.326598e-08
-3.6019884e-10 5.231638e-09 5.986885e-07 9.932943e-06 1.4307484e-05 1.588237e-06 -1.0314633e-06 -2.613159e-07
-1.6411564e-08 2.810855e-09 5.4565217e-11 1.054327e-08 3.447336e-08 1.4381988e-09 -5.0075393e-09 -7.0429227e-09
9.195636e-09 7.264886e-10 1.1832823e-16 0.0900414 0.038668487 0.020650594 0.03031574 0.025706885
0.043160755 0.012639678 0.029921152 0.055290163 0.026593039 0.006336063 0.022906825 0.038033813

act_fc1.bias f4 [81]
00000000: fee9 ed3d fde8 6cbc d80e 39be 9272 003e
00000010: 4480 053e eee0 f43d 92c4 f2bd dd27 7abc
00000020: ebc8 a93d bcd5 2abb ab6a 9abd 3bc8 da3d
00000030: 928e 5d3d 8fe0 823e fbf2 963d 8b28 a23d
00000040: 22d6 2ebe 0561 bfbc eeca 24be 8466 0c3e
00000050: f1a3 b93b 09aa 603e 97a4 9dbd dfdf 3b3e
00000060: 0435 7f3c 33cd 143e 064d eebd 0877 a83d
00000070: e350 183d 207e fa3d 032c 003e 07e4 423e
00000080: 6e60 c33d 2df8 333e 6c0e 373d 07ce e03d
00000090: aa5c e23d f1b5 513e c2a5 cbbc f496 773e
000000a0: 8849 65bd 95d0 8e3e 36f6 a6bd 5840 673e
000000b0: fc38 c63d 1194 ad3d 01b3 6d3d c150 193e
000000c0: 4fe1 d93d 5ff2 713e a726 903d 1957 4b3e
000000d0: 6554 6f3c 06ee a23d 8e20 28be a208 ff3d
000000e0: fe63 b63d 4229 673e 8b0d adbd 2b34 073e
000000f0: 469e 59bc 548b 153e f177 04be c5cf 6bbd
00000100: 17dc 02be 380a 073e fcf4 5e3d 9c35 313e
00000110: 83de 103d 4deb 003e 5bf4 18be 68da b9bc
00000120: 5f15 3a3d 9459 88bd 327b 2abe 6633 da3d
00000130: ff9d 923d b4f1 b33d 8ffd 16be 53d6 c2bc
00000140: 7284 bd3d
0.11616896 -0.014459846 -0.18072069 0.12543705 0.1303721 0.119569644 -0.11853899 -0.015268293
0.08290275 -0.0026067337 -0.075398766 0.10682722 0.054091044 0.2556195 0.073705636 0.07917889
-0.17073873 -0.023361692 -0.16093037 0.13710982 0.0056652953 0.21939863 -0.07697409 0.18347119
0.015576605 0.14531402 -0.11635785 0.082258284 0.037186515 0.12231088 0.12516789 0.19032298
0.09539877 0.1757514 0.04469149 0.109767966 0.110528305 0.20479561 -0.024859313 0.24178678
-0.055978328 0.2789351 -0.0815243 0.22583139 0.09678838 0.08475507 0.05803204 0.14972211
0.10638677 0.23627613 0.07038622 0.19857444 0.014607524 0.079555556 -0.16418669 0.124528185
0.08905791 0.22574332 -0.08449849 0.13203494 -0.013282364 0.1460393 -0.12936379 -0.05757119
-0.1277927 0.13187492 0.054432854 0.17305607 0.035368454 0.1258976 -0.14936964 -0.022687152
0.045430537 -0.06657711 -0.16648558 0.10654335 0.071590416 0.087863356 -0.14745162 -0.023783838
0.092537776

val_conv1.weight f4 [2, 128, 1, 1]
00000000: cd37 1f3d 817e a23c 5efb efbb 6b3d 703c
00000010: 9dcd 8b3d 4024 31bd b089 0000 c789 0000
00000020: e1dc 56bb 3fde 343d 992f a0bd b44a ae3b
00000030: 3984 c2bd 98ec 7e3c 0b19 8ab9 e0de 973d
00000040: 3c7d 0fb8 56d2 efbc 8945 032c 1853 76a6
00000050: f523 d7bd 7dd3 55bd 0f85 5b3c d99b 703b
00000060: fc85 e532 f05f cd3c b46a af07 5c0f 06ae
00000070: ad21 163d 8c00 673d 5295 93ba 07ec 87bd
00000080: 23dd 533d 7cbf 593c eba4 313d 4ea8 69bd
00000090: 3a36 77bb dc1b 05bc 5885 1c3c 4fd5 d6ae
000000a0: 43e8 43ad a620 313d 9370 1c3d 63ef a2bc
000000b0: 7520 f33c 1319 f3a8 75d1 8fbd 938a 0080
000000c0: 3f07 973c 256a 22bd 1589 833d 631f 1bba
000000d0: a325 6e3c d7e0 113d d3ea bea3 1f13 583d
000000e0: 39c3 173d de60 afba 058a 0000 9f11 5ebc
000000f0: 91d8 92bd f998 a73c c164 db3c 1689 0080
00000100: d225 c23a b972 83bc 92da 893d 5767 a9ba
00000110: 0756 9eb9 550f a8bc c60a 0abc 919b a13b
00000120: 1c2d 263d 3e81 90bd 83a5 5f3d b5e0 813d
00000130: 2d40 003a 20b4 e4ae ab28 6e3d f960 93bc
00000140: 53a8 28bd 3826 f6bc 0c1f 7da8 e8bd 3c3d
00000150: ca71 44bd 32c1 313c 0f56 3a3d 7b48 0c3d
00000160: 02d8 543d fe15 e33c 427b 403c 148b fb3b
00000170: 8bdc 0a3d c578 36bd 50ba 9abd 4359 b3ba
00000180: 60bc 1e1a e398 07bd a341 3b38 1776 1034
00000190: 5c22 c73c 82bc 903d 8741 1d1a d6bd debd
000001a0: 5bd7 48bd 05f9 f3bc 72b3 61bd 2842 8ca3
000001b0: 7c8f 0080 ff2b a239 b934 323d 957c 8a3c
000001c0: 0027 64bd ba03 f33c c12c 5a3a ed88 0000
000001d0: f0a8 c7bd d915 5cbd 3537 1bb3 6fb2 893d
000001e0: c358 a9bd 6844 bd17 62a2 a9bb 49a2 11b9
000001f0: ca0e 64bd 4a91 a3bc ef56 9e3c 280c f33b
00000200: 7adb e1b8 a50d bbb8 4448 c6b0 985d 183a
00000210: 0e39 333b da26 4d3a 3f8a 0000 269e 0080
00000220: b464 91b6 a12d 863b c86b 5db9 8b65 a1ba
00000230: 4c6c c0ba f4cd 67b8 becd 0103 0947 f93a
00000240: 3289 0080 7d34 8e38 ff89 0080 498b 0000
00000250: 43ef 53bb c15b 4c36 39f3 643a db5b 5b25
00000260: 5b8c 0080 9586 78ba 9292 0000 5a89 0080
00000270: 5dbd 0abb 1716 9039 3289 0080 f547 ffba
00000280: 13c8 5ab9 bc67 c2b4 cc5b 02b8 734f 93b8
00000290: db88 0080 028a 0000 36e4 fab6 2689 0000
000002a0: a889 0000 de01 693a 63df 0d3b 9489 0000
000002b0: 420e 073b d888 0000 deb5 24b9 068f 0000
000002c0: 2e5a a438 99f6 1fb8 d4b5 c73a bb88 0000
000002d0: 3b48 d03a d900 4cb9 d38a 0000 b62b 23bb
000002e0: 6cc1 343b c38a 0000 a68b 0080 e988 0000
000002f0: de56 81b6 6864 193b 370a 3ab3 118f 0000
00000300: 0b89 0080 f588 0080 37c6 703b 968a 0080
00000310: 668a 0080 11ac 8d00 76e6 a121 b28c 6bb9
00000320: 7674 1dbc 1267 e5ba c964 243a 094c 6bba
00000330: 3287 a992 a28a 0080 1e41 a1bb e088 0000
00000340: acb3 57b5 107f 65b5 de89 0000 5b08 f2b9
00000350: cefa 84ba 849d 6b37 b5d3 7638 63c8 dcb9
00000360: 9aeb 99bb 1c98 41bb 7477 5cb3 8fc2 47b3
00000370: d28a 2ebb 560f c2b8 02c9 04b9 ef23 c2b8
00000380: 9989 0000 a103 b914 338a 0080 9889 0000
00000390: 9247 e33a 5e3b 25ba 8e89 0000 f929 cdba
000003a0: 5ae8 09b7 9e83 4cb8 aa54 8fb7 dc8b 0000
000003b0: 438a 0000 6989 0000 aff3 893a b0f2 5bb9
000003c0: fa28 3687 cb66 82b9 428e ec31 b389 0000
000003d0: d10c 88ba b76e 6138 208c 0080 b96a 143c
000003e0: 93a2 1dba 0d8b 0080 bbe5 018a 8589 0000
000003f0: 07b6 32b8 ce28 9b32 153a efbb 553d 06bb
0.038871575 0.019835712 -0.0073236665 0.014663081 0.06826327 -0.04324746 4.9393e-41 4.9425e-41
-0.0032785463 0.044157263 -0.078215785 0.005318964 -0.09497876 0.015559338 -0.0002634007 0.07415557
-3.421049e-05 -0.0292751 1.865482e-12 -8.546101e-16 -0.10504905 -0.052203644 0.013398423 0.0036713986
2.6720038e-08 0.02507016 2.6393788e-34 -3.0481714e-11 0.03665321 0.056397006 -0.0011259711 -0.066368155
0.051724564 0.013290282 0.04337017 -0.057045273 -0.003772153 -0.008124318 0.009553276 -9.7694845e-11
-1.1136039e-11 0.043244027 0.038193297 -0.01988954 0.029678563 -2.6989294e-14 -0.07022373 -4.9711e-41
0.018436072 -0.03965201 0.06422631 -0.0005917458 0.0145353405 0.035614815 -2.0699293e-17 0.05275261
0.037051413 -0.0013380309 4.9512e-41 -0.013554006 -0.07170213 0.020458685 0.026781442 -4.9177e-41
0.0014812297 -0.016045915 0.06731142 -0.0012924474 -0.00030200204 -0.020515123 -0.00842542 0.004931875
0.040570363 -0.07055901 0.054601204 0.063416876 0.00048923754 -1.0400236e-10 0.058144253 -0.017990576
-0.04117615 -0.030047521 -1.40510535e-14 0.046079546 -0.04796008 0.010849284 0.045492228 0.03424881
0.051963814 0.027720448 0.011748137 0.0076764915 0.033901732 -0.04454877 -0.075550675 -0.0013683218
3.2825802e-23 -0.03310479 4.4645403e-05 1.3454006e-07 0.024308376 0.07067205 3.2519772e-23 -0.10876052
-0.049033504 -0.029781828 -0.055102773 -1.5206849e-17 -5.1472e-41 0.00030931827 0.04350731 0.016905108
-0.055701256 0.029664863 0.0008322709 4.912e-41 -0.09749019 -0.053731773 -3.613896e-08 0.06723487
-0.08268883 1.2231107e-24 -0.0051768282 -0.00013888734 -0.055678166 -0.01996674 0.019328563 0.0074172206
-0.00010769717 -8.919396e-05 -1.4426935e-09 0.00058122864 0.002734724 0.0007825919 4.9593e-41 -5.6733e-41
-4.33306e-06 0.004094795 -0.00021116354 -0.0012313587 -0.0014680712 -5.52665e-05 3.8145873e-37 0.0019018363
-4.9216e-41 6.780864e-05 -4.9504e-41 4.9966e-41 -0.0032338656 3.0451777e-06 0.0008733753 1.9026344e-16
-5.035e-41 -0.00094805035 5.258e-41 -4.9272e-41 -0.0021169998 0.00027482279 -4.9216e-41 -0.0019476401
-0.00020864634 -3.6210793e-07 -3.1079908e-05 -7.024305e-05 -4.9094e-41 4.9508e-41 -7.477148e-06 4.92e-41
4.9382e-41 0.0008888523 0.0021648041 4.9354e-41 0.0020607864 4.909e-41 -0.0001570801 5.1307e-41
7.836927e-05 -3.8138216e-05 0.0015236684 4.905e-41 0.0015890667 -0.00019455272 4.9801e-41 -0.002489788
0.0027581109 4.9778e-41 -5.0096e-41 4.9114e-41 -3.8546123e-06 0.0023405794 -4.331579e-08 5.1323e-41
-4.9162e-41 -4.9131e-41 0.003673924 -4.9715e-41 -4.9648e-41 1.3010531e-38 1.0970787e-18 -0.0002246376
-0.009610286 -0.0017502031 0.00062711217 -0.00089758687 -1.0698728e-27 -4.9732e-41 -0.0049210927 4.9101e-41
-8.03552e-07 -8.549405e-07 4.9457e-41 -0.00046164062 -0.0010145546 1.4043766e-05 5.8848138e-05 -0.0004211097
-0.0046972753 -0.0029540127 -5.1331384e-08 -4.6510248e-08 -0.0026633036 -9.2534974e-05 -0.00012663382 -9.257334e-05
4.9361e-41 1.8681658e-26 -4.9577e-41 4.936e-41 0.0017340055 -0.0006303097 4.9345e-41 -0.0015652768
-8.219935e-06 -4.875997e-05 -1.7086353e-05 5.0172e-41 4.9599e-41 4.9293e-41 0.0010524894 -0.00020975876
-1.37042e-34 -0.0002487212 6.884677e-09 4.9397e-41 -0.0010379796 5.374729e-05 -5.0267e-41 0.009058648
-0.00060133 -4.9882e-41 -6.2543316e-33 4.9333e-41 -4.2608033e-05 1.806293e-08 -0.007300625 -0.0020483334

val_conv1.bias f4 [2]
00000000: 3258 6a3d f285 11bc
0.057213016 -0.008882033
