课程设计/AlphaZero简单复现/models/policy_batch_1600.model (torch, 530639 bytes, 15 tensors)

conv1.weight f4 [32, 4, 3, 3]
0	0x3e7bfbb3	0.24607734
1	0xbd7790cb	-0.06044082
2	0x3e96f50c	0.2948383
3	0xbd297538	-0.041371554
4	0xbd8e16a1	-0.0693791
5	0xbdc3fd97	-0.09569853
6	0x3eca7c67	0.39548036
7	0xbe27b290	-0.1637671
8	0x3ee1218e	0.43970913
9	0x3e65804f	0.22412227
10	0xbdb7b656	-0.08970325
11	0x3e411d44	0.1885882
12	0xbd93ed52	-0.07223
13	0xbd0487e9	-0.032356177
14	0xbdb171ee	-0.086643085
15	0x3e5ae651	0.21376921
16	0xbdbf8c9e	-0.093529925
17	0x3e4f2d1a	0.20232049
18	0x3d9d6e2a	0.07687028
19	0xbd6863a3	-0.056735646
20	0x3d935088	0.071930945
21	0xbd0b76b0	-0.034048736
22	0xbd7d5a1b	-0.06185351
23	0xbd1e695b	-0.038674694
24	0x3da075bb	0.07834955
25	0xbc8e5bcb	-0.017377755
26	0x3dd0cb43	0.10195019
27	0xbb2faaaf	-0.0026804616
28	0xbbbfd30c	-0.005854016
29	0xbd1d977a	-0.038474537
30	0xbdda345b	-0.10654517
31	0x3dd783b5	0.10523168
32	0xbc8be36d	-0.017076219
33	0x3ad25937	0.0016048317
34	0x3cd7e0b3	0.026352262
35	0xbd102695	-0.035193045
36	0x3eb12880	0.34601212
37	0x3ea14a4c	0.31501997
38	0xbee17598	-0.4403503
39	0x3e2caa22	0.16861776
40	0xbd947d0d	-0.07250414
41	0x3eab81b5	0.33497396
42	0xbeaf60b3	-0.34253463
43	0x3e20a3c7	0.15687476
44	0x3e0cfbda	0.13767949
45	0x3d0265b9	0.03183529
46	0x3b8a7c1f	0.004226222
47	0x3d826289	0.0636645
48	0xbe203784	-0.15646178
49	0xbd68c612	-0.05682952
50	0xbdaf28cd	-0.08552704
51	0x3e7e1a93	0.24814825
52	0xbdf156c6	-0.11784129
53	0x3deb016c	0.114748806
54	0xbbb5035e	-0.005524083
55	0xbd645dfd	-0.055753697
56	0x3cf92730	0.030414194
57	0xbbee9962	-0.0072814682
58	0xbd96327f	-0.0733385
59	0x399b9491	0.00029674594
60	0x3c90348a	0.017603178
61	0x3cc989e9	0.024601893
62	0xbbe7b624	-0.0070712734
63	0x3c20c2a4	0.009812031
64	0xbe0e6789	-0.13906683
65	0x3d9b30d6	0.07577674
66	0xbe2202b0	-0.15821338
67	0x3d99f6db	0.07517787
68	0xbdfa5711	-0.12223638
69	0x3e0ad6e8	0.13558543
70	0xbd3f0fd2	-0.046645947
71	0x3e3a3433	0.18183975
72	0x3e8a66e0	0.27031612
73	0x3e596e28	0.21233428
74	0xbd037cfd	-0.03210162
75	0xbea582fe	-0.32326502
76	0xbd858c1f	-0.065208666
77	0xbe9406eb	-0.28911528
78	0x3db6fcf0	0.08934963
79	0x3e6cae9c	0.23113483
80	0xbe84df2f	-0.25951526
81	0xbe2b96ad	-0.16756697
82	0xbe1b04de	-0.15138575
83	0xbdc3cba3	-0.09560325
84	0x3eaa5557	0.33268234
85	0x3e36759b	0.178183
86	0x3e359c44	0.17735392
87	0x3e0a0b9b	0.1348099
88	0xbeaa467d	-0.33256903
89	0x3dd75027	0.10513335
90	0x3ccb1cd6	0.024794023
91	0xba3d0454	-0.0007210423
92	0x3ca3d5ef	0.019999472
93	0xbca5d500	-0.020243168
94	0x3c2cb844	0.010541979
95	0x3c6a54ba	0.014302427
96	0xbcc1b2b6	-0.023644786
97	0xbe5ae3f8	-0.21376026
98	0x3d2e3c35	0.042537887
99	0xbe1f8fa7	-0.15582143
100	0x3dd0ec80	0.10201359
101	0x3d4f7e12	0.05065734
102	0xbb68f122	-0.0035544117
103	0x3d58197c	0.05275868
104	0x3d3d6906	0.046242736
105	0x3cf622ac	0.03004583
106	0x3e0bedfd	0.13665004
107	0xbe3551a6	-0.17706928
108	0x3d291236	0.041277133
109	0xbf1945dd	-0.5987223
110	0x3ebcc6f9	0.36870554
111	0xbd41da98	-0.047327608
112	0x3edf8eaa	0.43663532
113	0xbf0389d4	-0.51382184
114	0x3d5f153e	0.054463618
115	0x3d3797bf	0.04482245
116	0x3de4f3b3	0.111792944
117	0x3e008f3b	0.12554638
118	0x3e300470	0.17189193
119	0xbe84055c	-0.2578534
120	0x3dfe47d5	0.124160446
121	0xbe6c724e	-0.23090479
122	0x3e1e2412	0.15443447
123	0xbdeb2af1	-0.114828
124	0x3d60d824	0.054893628
125	0x3e28e5c2	0.16493896
126	0x3ce11305	0.02747489
127	0x3d6eb884	0.058281437
128	0xbd33a6a7	-0.043860104
129	0xbbb086ce	-0.0053871637
130	0xbd09fb29	-0.03368679
131	0x3d44934b	0.047992032
132	0xbd640b11	-0.055674616
133	0xbb593b9a	-0.0033147098
134	0x3dd60d24	0.10451725
135	0x3d8d813f	0.06909417
136	0xbd7e6443	-0.062107336
137	0x3db6d68f	0.089276426
138	0x3e054c8c	0.13017482
139	0xbc732069	-0.01483927
140	0xbdd10fe4	-0.10208109
141	0xbdd976db	-0.10618373
142	0xbdb920cf	-0.09039461
143	0x3e00f1be	0.12592217
144	0xbe42e74a	-0.19033542
145	0xbd883bdd	-0.06652043
146	0xbdbb0660	-0.09132075
147	0x3ddef6ae	0.10886894
148	0x3e648a19	0.22318305
149	0x3dc3dd82	0.09563734
150	0xbd62302b	-0.055221718
151	0xbd180bb7	-0.037120547
152	0x3e4ea8d2	0.20181587
153	0xbdcffc5e	-0.10155557
154	0x3cd9d57b	0.026591053
155	0xbe0441fb	-0.12915795
156	0x3e457c42	0.19285682
157	0xbd33ee37	-0.04392835
158	0xbd579054	-0.052627876
159	0x3d3b281d	0.045692552
160	0xbd0c497b	-0.034249764
161	0xbdfe005b	-0.124024116
162	0xbd18752b	-0.037221115
163	0xbaffc417	-0.0019513395
164	0x3d5549d3	0.052072357
165	0x3e0c0336	0.136731
166	0xbd937f13	-0.07201972
167	0xbd98929a	-0.07449837
168	0xbb9dbd9e	-0.004813864
169	0xbd3ef0d9	-0.04661641
170	0xbe2d12e6	-0.1690174
171	0x3d87e923	0.06636264
172	0x3da15206	0.07876973
173	0x3debcdbe	0.115138516
174	0x3e04fce4	0.12987095
175	0x3dbca8a8	0.09211856
176	0x3dd09dcf	0.101863496
177	0x3e15aa57	0.1461576
178	0x3e17c36b	0.1482064
179	0x3dee515c	0.11636612
180	0x3e845bd9	0.25851324
181	0x3d1aca95	0.037790854
182	0xbdcf5bb1	-0.101249106
183	0xbeab3bf6	-0.33444184
184	0x3ece2bc9	0.4026778
185	0x3e70190c	0.23447055
186	0x3eb1d0aa	0.3472951
187	0x3c5306c9	0.012880036
188	0xbcc3e751	-0.023914011
189	0x3e0c796c	0.13718194
190	0xbd6d90a7	-0.05799928
191	0xbded1582	-0.11576368
192	0xbef8f8b4	-0.48627245
193	0x3e75c92b	0.2400252
194	0x3e094774	0.13406163
195	0x3ddd6e7d	0.108120896
196	0xbe14a0a9	-0.14514412
197	0xbdc7beb5	-0.09753171
198	0x3daa9fce	0.083312616
199	0x3c6ec8c8	0.014574237
200	0x3c2b8ecd	0.010471058
201	0xbd5e17b8	-0.05422184
202	0x3da886b4	0.082288176
203	0x3d0f9962	0.035058387
204	0x3d216c3c	0.03940986
205	0x3bc7c6fc	0.006096719
206	0xbc4d879e	-0.012544541
207	0x3c90413a	0.017609227
208	0x3cdd4613	0.027010953
209	0x3dd22eaa	0.10262807
210	0x3e0e3a91	0.13889529
211	0xbe0c5d74	-0.13707525
212	0xbdb64c54	-0.08901277
213	0xbcca4442	-0.024690751
214	0xbd8b3765	-0.06797675
215	0x3e21abbe	0.1578817
216	0xbd8dc9af	-0.06923234
217	0x3cdddefc	0.027083866
218	0xbd8d1aa1	-0.06889845
219	0x3cbbfa5a	0.022946525
220	0xbcb4871f	-0.022037087
221	0xbe11d62f	-0.14241861
222	0x3cfbae13	0.030722653
223	0xbb8e815b	-0.0043489165
224	0x3e4215dc	0.18953651
225	0xbd398e8f	-0.04530197
226	0x3da973c7	0.08274036
227	0x3dfe5624	0.12418774
228	0xbcaefafa	-0.02135991
229	0x3f0bdc07	0.5463261
230	0xbf034d14	-0.51289487
231	0x3d4cee51	0.050031964
232	0xbf25b31f	-0.6472644
233	0x3eba4967	0.36384127
234	0xbc3b00c8	-0.0114137605
235	0xbabb9864	-0.0014312384
236	0xbccdb026	-0.025108408
237	0x3c9243af	0.01785454
238	0x3d8c7a4e	0.06859265
239	0xbd62aa6e	-0.055338316
240	0x3cb58eaa	0.022162754
241	0xbd36b5cf	-0.04460698
242	0x3dad4ca8	0.08461887
243	0x3c2b76cb	0.010465334
244	0x3df2b2e1	0.11850525
245	0x3de3a380	0.111151695
246	0x3a3599a8	0.00069274986
247	0xbd9c0a31	-0.07619131
248	0xbc3905fd	-0.011292932
249	0xbe0c7548	-0.13716614
250	0xbd134959	-0.03595862
251	0xbd76e3c9	-0.060275827
252	0xbe7997b8	-0.24374282
253	0x3e14c4a9	0.14528145
254	0x3e845d50	0.25852442
255	0xbe4591ae	-0.19293854

conv1.bias f4 [32]
0	0xbd61ccf3	-0.055127095
1	0x3e08a7d8	0.13345277
2	0x3e1fa8eb	0.15591781
3	0x3cb98e39	0.022650825
4	0xbe02af12	-0.12762097
5	0x3c09b816	0.008405706
6	0x3c2a534b	0.010395835
7	0x3dfb7ee9	0.122800656
8	0x3dae9cb0	0.085259795
9	0xbda3cdc4	-0.07998231
10	0x3ea30c46	0.318453
11	0x3c109bca	0.0088262055
12	0xbde3b36b	-0.11118206
13	0xbd060206	-0.032716773
14	0x3c1eabc7	0.00968451
15	0x3e7cdebc	0.24694341
16	0xbd49b835	-0.04924794
17	0x3e858f9a	0.26086122
18	0xbc4fa5b2	-0.012673782
19	0x3d1a52c7	0.0376766
20	0x3e944441	0.28958324
21	0xbc6240b2	-0.01380937
22	0xbd7d0c59	-0.061779354
23	0x3cfd2cdd	0.030905182
24	0xbc636b29	-0.013880529
25	0x3e4eec7c	0.20207399
26	0x3e89c362	0.26906878
27	0xbc1a5357	-0.009419284
28	0xbd468831	-0.048469726
29	0xbde6ab3f	-0.11263131
30	0x3e03b3c7	0.12861548
31	0xbdfc98bc	-0.12333819

conv2.weight f4 [64, 32, 3, 3]
0	0x3e06e6be	0.13173959
1	0x3dda422b	0.10657152
2	0x3e3a49b0	0.18192172
3	0x3ded3093	0.115815304
4	0x3d1ca303	0.038241398
5	0x3e0794f2	0.13240412
6	0x3cef606e	0.029220786
7	0x3d129324	0.035784855
8	0x3dae90be	0.08523701
9	0x3e166b45	0.14689358
10	0xbe07b59b	-0.1325287
11	0xbd3bdb32	-0.045863338
12	0xbca38059	-0.019958662
13	0xbc2ab92e	-0.010420127
14	0xbe2dec42	-0.16984656
15	0xbaf694fc	-0.0018812711
16	0x3d71d355	0.059039433
17	0x3e24a330	0.16077876
18	0xbb9e76f3	-0.004835957
19	0xbc79da38	-0.015249781
20	0x3dd92329	0.106024094
21	0xbdb1c7b4	-0.086806685
22	0x3cde3996	0.027127068
23	0xbd1279d4	-0.035760716
24	0xbd4d9678	-0.050192326
25	0xbdd4306d	-0.10360799
26	0xbd742ad1	-0.059611145
27	0x3d8fee34	0.070278555
28	0x3d9ce077	0.07660001
29	0x3c59666f	0.013269051
30	0x3cbbd7e7	0.022930099
31	0xbde4d47f	-0.11173343
32	0x3ddc16b7	0.1074652
33	0xbe36c11d	-0.17847104
34	0x3ddbdf85	0.10735992
35	0xbdf649ab	-0.1202577
36	0x3d0408b3	0.03223486
37	0x3c8aad16	0.016928237
38	0x3cddc866	0.027073096
39	0x3c71b2f6	0.01475214
40	0xbbee5d55	-0.0072743096
41	0x3cce058f	0.025149135
42	0xbd2a66ce	-0.04160195
43	0x3c2ef963	0.010679576
44	0x3d3013a2	0.042987473
45	0xbd4e7888	-0.050407916
46	0xbcdcd36d	-0.026956284
47	0x3cdc6d2d	0.026907528
48	0x3d0377dd	0.032096732
49	0x3ddf2001	0.10894776
50	0xbdcfccfd	-0.1014652
51	0xbd09d137	-0.03364679
52	0xbc1fd5a0	-0.009755522
53	0xbde86903	-0.113481544
54	0x3dcb2d80	0.09920788
55	0xbd3b21a6	-0.045686387
56	0xbc5ee987	-0.013605482
57	0xbe13e46f	-0.14442609
58	0x3dbae67d	0.091259934
59	0x3d0f5877	0.034996476
60	0x3d70c298	0.05877933
61	0x3de8c268	0.11365205
62	0x3d681acc	0.05666618
63	0xbd3ae11a	-0.04562483
64	0xbe11dce5	-0.14244421
65	0x3db069bc	0.08613917
66	0x3d91f970	0.071276546
67	0x3db54054	0.0885016
68	0xbe41ad5c	-0.18913788
69	0x3e73f895	0.23825295
70	0x3d31f2a1	0.04344428
71	0xbdfb6153	-0.122744225
72	0xbd4d77ae	-0.050162964
73	0x3db1866a	0.086682156
74	0xbd76ca1d	-0.060251344
75	0x3dba7ac7	0.09105449
76	0x3d985eb8	0.07439941
77	0xbd205993	-0.039147925
78	0xbd9f7108	-0.07785231
79	0x3e03e13a	0.12878886
80	0x3e137304	0.14399344
81	0xbd2c4525	-0.04205813
82	0x3df0425c	0.11731407
83	0xbd0009ba	-0.031259276
84	0xbc953531	-0.01821384
85	0xbd91f671	-0.07127083
86	0x3d81d902	0.06340219
87	0xbd88d577	-0.0668134
88	0x3dbefe33	0.093258284
89	0x3d679ab3	0.056544017
90	0x3c293585	0.010327701
91	0xbdd583c0	-0.1042552
92	0x3ca9ecfc	0.020742886
93	0x3db800b3	0.08984508
94	0xbd92a9e8	-0.07161313
95	0xbd638781	-0.05554915
96	0x3d1b5254	0.03792031
97	0x3d9a6047	0.07537895
98	0x3dd5e1b5	0.10443441
99	0xbba6c34a	-0.0050891982
100	0xbdce3e37	-0.1007046
101	0x3d2204d4	0.039555386
102	0x3d237e1b	0.039915185
103	0x3d07556d	0.033040453
104	0x3dce4983	0.10072615
105	0xbd512151	-0.051057164
106	0xbcb99f47	-0.022658957
107	0x3c33fb85	0.01098526
108	0xbce75040	-0.028236508
109	0xbc1386a6	-0.009004271
110	0xbce6bed0	-0.028167158
111	0x3d3883fc	0.045047745
112	0xbdfb7cec	-0.12279686
113	0x3db07c75	0.08617488
114	0xbde32232	-0.110905066
115	0x3cb420b0	0.021988243
116	0x3d093262	0.033495314
117	0xbd7346fb	-0.059393864
118	0xbb97b57b	-0.0046297885
119	0x3d218c96	0.039440714
120	0x3e3cbab9	0.18430604
121	0xbcb6db21	-0.022321286
122	0xbd2c4001	-0.042053226
123	0x3e2e41c3	0.17017274
124	0xbd9ea54b	-0.07746371
125	0x3e01a69e	0.12661216
126	0xbd373d8b	-0.044736426
127	0x3e5b48d9	0.21414508
128	0x3e078ff8	0.13238513
129	0xbd0bf1cd	-0.034166146
130	0x3d85e29b	0.06537362
131	0x3db8c4f8	0.09021944
132	0xbcb85254	-0.022500195
133	0xbe3325e6	-0.17494926
134	0xbdb35b43	-0.08757641
135	0xbc6e268d	-0.014535558
136	0x3d44b19d	0.048020948
137	0xbc049fb5	-0.008094718
138	0x3c52a07b	0.012855644
139	0xbd59f641	-0.05321336
140	0x3d9ef1c5	0.07760958
141	0xbddd50a6	-0.10806398
142	0x3d8b078c	0.06788549
143	0x3dc55cf4	0.0963687
144	0xbd792f30	-0.060836017
145	0xbd8c3913	-0.068468235
146	0xbdd7948c	-0.1052638
147	0xbcd639cc	-0.026150607
148	0x3d18f55b	0.037343364
149	0xbbdfa26b	-0.0068247817
150	0x3d30134c	0.042987153
151	0x3e43444c	0.19069022
152	0x3e1082bc	0.14112371
153	0x3d7d6f73	0.061873864
154	0x3d58af0b	0.05290131
155	0xbdabfa60	-0.083973646
156	0x3b88cc35	0.004174734
157	0xbc2bf4a7	-0.010495341
158	0xbd8a8cc3	-0.067651294
159	0x3cc0712d	0.023491466
160	0xbafddd0f	-0.0019368249
161	0x3d7f0693	0.06226213
162	0xbcd1b318	-0.025598094
163	0x3d4061fb	0.04696844
164	0xbcc543c0	-0.024080157
165	0x3e24abf6	0.16081223
166	0x3e29b738	0.16573799
167	0xbd0f5f28	-0.035002857
168	0xbd63f965	-0.055657763
169	0xbb55198f	-0.0032516455
170	0xbe06baee	-0.13157246
171	0xbde4a7bd	-0.11164806
172	0x3d2d62a0	0.042330384
173	0x3cb73e57	0.022368593
174	0x3d80bc7c	0.062859505
175	0xbd0fb97d	-0.035089005
176	0xbc7cac16	-0.015421888
177	0x3d3d44cd	0.04620819
178	0x3c034822	0.008012803
179	0xbe566a57	-0.20939003
180	0xbdb40d8e	-0.08791648
181	0xbd28a715	-0.041174967
182	0xbbe60b93	-0.0070204227
183	0x3da51082	0.08059789
184	0xbde21ccf	-0.11040651
185	0xbddc6aba	-0.10762544
186	0x3d4c218d	0.049836684
187	0xbd4d01c9	-0.05005053
188	0x3d19e366	0.03757038
189	0x3e5cb1e7	0.2155224
190	0x3e163cf3	0.14671688
191	0x3dcc8207	0.09985738
192	0xbbd422c1	-0.0064738696
193	0xbb9e4166	-0.0048295734
194	0xbd9a10c2	-0.075227275
195	0xbe494d71	-0.19658448
196	0xbec65c39	-0.38742235
197	0x3dc41f69	0.095763035
198	0x3df6e0a8	0.120545685
199	0xbc89cac8	-0.016820326
200	0xbb438aaa	-0.002983729
201	0x3d158ed1	0.036513153
202	0xbb64ad58	-0.003489336
203	0x3cfbee4f	0.030753283
204	0xbde23700	-0.11045647
205	0xbd810132	-0.06299056
206	0x3daa18a0	0.08305478
207	0xbc76fb75	-0.0150746
208	0x3dad0aaf	0.08449303
209	0xbd8651e7	-0.065585904
210	0xbd3b2357	-0.045688
211	0x3da99c01	0.082817085
212	0x3d59fd7b	0.053220253
213	0xbd9e0402	-0.07715608
214	0x3d68e9b1	0.05686349
215	0xbe33db64	-0.1756416
216	0x3cc66b41	0.024221065
217	0x3e344520	0.17604494
218	0xbcfa3387	-0.030542148
219	0x3dfa0064	0.12207106
220	0x3ceb79f9	0.028744685
221	0xbd5b5554	-0.053548172
222	0x3d41923a	0.047258593
223	0xbdb7de91	-0.08977998
224	0xbd1b3a88	-0.037897617
225	0xbd3a0612	-0.045415945
226	0x3c94509a	0.01810484
227	0xbd180b2e	-0.037120037
228	0xbe002e32	-0.12517622
229	0xbb9484bb	-0.0045324243
230	0x3dffa351	0.12482322
231	0xbe43fe81	-0.19140054
232	0x3d5b8e34	0.053602412
233	0x3e6dd828	0.23226988
234	0xbda66dad	-0.08126388
235	0x3d64f26a	0.055895247
236	0xbcbea4d0	-0.023271948
237	0x3d22fc71	0.039791528
238	0xbcdb0981	-0.02673793
239	0xbaf2d460	-0.0018526427
240	0xbdb015ba	-0.08597894
241	0xbe6d18e7	-0.2315403
242	0x3db40603	0.08790209
243	0x3ba1aa5d	0.004933639
244	0xbd570d82	-0.052503116
245	0xbcfb81c2	-0.030701522
246	0x3d886042	0.06658985
247	0xbd17a8f4	-0.03702636
248	0x3c85f35d	0.016351396
249	0x3da84507	0.08216291
250	0x3c19dade	0.009390561
251	0x3da23f1c	0.079221934
252	0x3cb897d4	0.022533335
253	0x3d173d3e	0.03692364
254	0xbcbe555e	-0.023234066
255	0xbd84f692	-0.06492342

conv2.bias f4 [64]
0	0xbd875476	-0.066079065
1	0x3d9298a3	0.071580194
2	0xbd0537c1	-0.032523874
3	0xbd31e6c7	-0.043432977
4	0x3df18213	0.11792388
5	0xbd479066	-0.048721693
6	0x3ca71c5d	0.020399267
7	0xbc6d542c	-0.0144854
8	0x3c10657e	0.00881326
9	0x3b5612fe	0.0032665129
10	0x3d19a495	0.037510473
11	0xbc22d3fc	-0.009938236
12	0x3d76b153	0.060227703
13	0x3d17c8ac	0.03705661
14	0xbd3ef53d	-0.046620596
15	0x3d031f06	0.032012008
16	0x3d168e00	0.036756516
17	0xbd3494f8	-0.04408738
18	0x3ca3be6e	0.019988265
19	0x3dd3898c	0.10328969
20	0x3b716119	0.0036831556
21	0x3d53eceb	0.051739614
22	0x3d54d66a	0.051962294
23	0xbd85b728	-0.06529075
24	0x3d0d5327	0.03450313
25	0x3d36f5c1	0.044667963
26	0x3d343fc7	0.044006135
27	0x3dba11a1	0.09085394
28	0x3cbd82cc	0.023133658
29	0x3d765c77	0.060146775
30	0x3d42d397	0.04756507
31	0x3d0f6a1a	0.035013296
32	0x3cc82944	0.02443374
33	0xbb3b7f70	-0.0028609894
34	0x3b7e2171	0.0038777257
35	0xbd0ad7fb	-0.03389738
36	0x3d0f0bf6	0.034923516
37	0x3c303c0a	0.010756502
38	0x3d8ae729	0.067823716
39	0x3deae754	0.114699036
40	0x3dd1ad70	0.10238159
41	0xbcb99aac	-0.022656761
42	0xbd93bd11	-0.07213796
43	0xbd95c982	-0.07313825
44	0x3d5e9fce	0.05435162
45	0xbd4b6491	-0.049656454
46	0x3cbf748c	0.023371004
47	0xbbacd55e	-0.005274459
48	0x3d6801f4	0.056642488
49	0xbb64872f	-0.0034870615
50	0x3c97bae0	0.018521726
51	0x3b9611d5	0.0045797625
52	0x3d71ecfc	0.059063897
53	0x3da047ae	0.07826172
54	0xbb32b0b3	-0.0027265965
55	0x3d1bd3bd	0.038043726
56	0x3c376f50	0.011195973
57	0xbcbfe987	-0.023426784
58	0x3ce27be4	0.027646966
59	0xbc8bf689	-0.01708533
60	0x3ced3e54	0.028960384
61	0xbd16674d	-0.03671961
62	0xbd5dfbb8	-0.054195136
63	0x3b0da6cb	0.002161431

conv3.weight f4 [128, 64, 3, 3]
0	0xbb907898	-0.004408907
1	0xbd01e0da	-0.031708576
2	0x3c482e58	0.01221808
3	0xbd271d2e	-0.040799312
4	0xbd9039fb	-0.07042309
5	0x3ca8fab9	0.020627366
6	0x3cd7fe16	0.026366275
7	0xbcc72749	-0.024310725
8	0x3d8292ae	0.06375633
9	0x3d23bf4c	0.039977357
10	0xbc8917f5	-0.016735056
11	0xbc376fe8	-0.011196114
12	0x3b378d9f	0.0028007997
13	0x3c464e7e	0.012103675
14	0x3ca53e37	0.020171268
15	0xbcc15adb	-0.023602894
16	0xbccf9d9c	-0.025343709
17	0xbcb2ded0	-0.02183476
18	0xbd454de0	-0.04816997
19	0xbd9cafec	-0.07650742
20	0xbda631c5	-0.081149615
21	0xbd19ba8a	-0.037531413
22	0x3d7a77bc	0.061149344
23	0x3cb4b758	0.022060081
24	0xbd0116ee	-0.031516008
25	0xbd1d37bb	-0.038383227
26	0xbd90fd33	-0.07079544
27	0x3d2fe226	0.04294028
28	0x3cd9fe4a	0.026610512
29	0x3ccd7f8e	0.025085237
30	0x3db7940a	0.08963783
31	0xba2c723a	-0.00065783004
32	0x3d811243	0.06302311
33	0x3c47323f	0.012157976
34	0x3d6a0cc1	0.05714107
35	0x3bc33a5d	0.005957885
36	0x3cb09069	0.021553235
37	0x3d5985fc	0.053106293
38	0x3cd31b7d	0.025769943
39	0xbcd5c568	-0.026095107
40	0xbb9c0dbb	-0.004762379
41	0x3d5115b5	0.051046092
42	0xbca00ee6	-0.019538354
43	0x3cc686cf	0.024234204
44	0x3bb0bc08	0.005393509
45	0x3cfd8aac	0.030949913
46	0x3d83ca79	0.06435103
47	0x3c295fcd	0.010337782
48	0x3d2523cb	0.040317338
49	0x3d46c613	0.048528742
50	0x3ccf5144	0.025307305
51	0x3d4430cb	0.047898095
52	0x3d6de44e	0.058079056
53	0x3d664edf	0.05622756
54	0xbcaeadaa	-0.021323044
55	0x3bbd32c5	0.0057738745
56	0xbae467c8	-0.0017425949
57	0x3c3efb8d	0.011656654
58	0x3d63323a	0.05546782
59	0xbc34e778	-0.011041515
60	0x3d7f0bc8	0.062267095
61	0x3d5f6de6	0.054548167
62	0x3d199632	0.037496753
63	0x3d1c0d01	0.03809834
64	0xbc2ced9b	-0.010554696
65	0x3c78097d	0.015138981
66	0x3d35eceb	0.044415396
67	0xbc2f5ada	-0.010702813
68	0x3c0cb5ae	0.008588238
69	0xbb431ac8	-0.0029770602
70	0x3cc076f7	0.023494227
71	0x3ccb641f	0.024828015
72	0xbbbdc14f	-0.0057908664
73	0x3cfb16f7	0.030650599
74	0xbc7727e1	-0.0150851915
75	0x3c54d277	0.012989632
76	0xbd3ac4d8	-0.04559788
77	0xbcc25aa6	-0.023724865
78	0x3d62e41f	0.055393334
79	0x3c732535	0.014840414
80	0xbcdcc29e	-0.02694827
81	0x3d67a071	0.056549493
82	0x3d42a265	0.047518153
83	0x3c844ab1	0.016148897
84	0x3ccc92f4	0.024972416
85	0x3cb40b4a	0.02197804
86	0xbb400804	-0.0029301653
87	0x3d898ff2	0.067169085
88	0x3c121593	0.0089162765
89	0x3cbad0ad	0.022804582
90	0x3d363f35	0.044493873
91	0xbcdb1c9f	-0.026747046
92	0x3b5d3dfb	0.0033758867
93	0xbca8b009	-0.020591753
94	0xbcf20bc1	-0.02954662
95	0x3ced6542	0.028978948
96	0x3cbd86a7	0.023135496
97	0x3d40d640	0.047079325
98	0x3b4e2aa7	0.0031458528
99	0x3d63a942	0.05558134
100	0xbcd16a24	-0.025563307
101	0x3dc934b2	0.09824504
102	0x3bad22d3	0.0052836924
103	0x3db53adf	0.088491194
104	0xbcedf259	-0.029046224
105	0x3d676bc8	0.056499273
106	0x3d6691af	0.05629128
107	0x3d88854c	0.06666049
108	0x3c0d8b17	0.008639119
109	0x3c349de5	0.011023973
110	0xbbeff7c0	-0.0073232353
111	0x3d6bfd85	0.057614822
112	0x3c899823	0.016796177
113	0x3d05964c	0.032614037
114	0x3cf56a2b	0.029957851
115	0x3cccb38d	0.02498796
116	0x3d027005	0.03184511
117	0xbc32d777	-0.010915629
118	0xbbc4242e	-0.0059857583
119	0xbcef4a85	-0.029210338
120	0xbd406445	-0.046970624
121	0x3bc67f47	0.006057653
122	0xbd09d4f0	-0.03365034
123	0x3d44f0a5	0.04808106
124	0x3b255588	0.0025227983
125	0x3d17c454	0.037052467
126	0x3d922ffc	0.071380585
127	0x3cd75500	0.026285648
128	0x3d270371	0.040774766
129	0x3d996e86	0.07491784
130	0x3da7d70b	0.08195313
131	0x3d237abf	0.03991198
132	0x3d7a7f31	0.061156455
133	0x3cf82fba	0.030296195
134	0x3d2b2e4f	0.04179221
135	0x3cee3abf	0.029080747
136	0xbb86b7b3	-0.004111254
137	0x3cc906be	0.024539348
138	0x3d894f49	0.067045756
139	0xbb832596	-0.0040022833
140	0xbd4ce11f	-0.05001938
141	0xbcc32f27	-0.023826195
142	0x3d2ebe61	0.04266203
143	0xbc7b8353	-0.015351134
144	0x3b71b8eb	0.0036883901
145	0xbd192369	-0.037387285
146	0x3d462046	0.048370622
147	0xbd259b3e	-0.040431254
148	0x3b348b73	0.0027548939
149	0x3d9a62ff	0.07538413
150	0xbcc352cc	-0.023843192
151	0x3d9caa4f	0.07649671
152	0xbd92bee3	-0.07165315
153	0x3d5f9738	0.054587573
154	0xbdb12526	-0.086496636
155	0x3dcb2d23	0.099207185
156	0xb9d71ad9	-0.00041028
157	0xbd289218	-0.04115495
158	0x3d79d20f	0.060991343
159	0x3deefa1e	0.116688
160	0xbd9ec637	-0.0775265
161	0x3e0bab38	0.13639534
162	0xbd16a459	-0.036777828
163	0x3d070a2a	0.032968678
164	0x3c697b49	0.014250585
165	0xbc719970	-0.014746055
166	0xbdd9403a	-0.10607953
167	0x3dac825b	0.08423301
168	0x3c77deee	0.015128834
169	0x3d50cbe6	0.050975703
170	0x3cfd7e58	0.030944034
171	0xb77f4bed	-1.5216862e-05
172	0x3d67e925	0.05661883
173	0x3c9c47cf	0.01907721
174	0x3d571037	0.052505698
175	0x3d160dcd	0.036634255
176	0x3ca1fb42	0.01977313
177	0x3d02d343	0.031939756
178	0x3d7a9b04	0.06118299
179	0x3bfcb0b1	0.007711493
180	0x3b7d5013	0.0038652464
181	0xbce11cd8	-0.027479574
182	0x3d2d4cde	0.042309634
183	0xb98aa52c	-0.00026444474
184	0xbcdc047c	-0.026857607
185	0xba3b9f31	-0.0007157205
186	0xbcdd806b	-0.027038774
187	0xbc499c35	-0.012305309
188	0xbce0dc9f	-0.02744895
189	0x3d458d68	0.04823056
190	0x3d225e5e	0.039640777
191	0xbd43ffc2	-0.04785133
192	0xbc65a1d7	-0.014015636
193	0xbc6549dc	-0.01399466
194	0x3d8d39e6	0.06895809
195	0xbd77e8f6	-0.060524903
196	0x3cbd5abf	0.02311456
197	0x3d5b2f07	0.053511646
198	0x3c5ad4ea	0.013356427
199	0x3d7094c3	0.05873562
200	0xbd7b18a0	-0.06130278
201	0xbc10a677	-0.008828751
202	0x3ca9fd15	0.020750562
203	0xbd4ead11	-0.050458018
204	0xbbe80b72	-0.0070814425
205	0x3dcb37e0	0.09922767
206	0xbd5706c4	-0.052496687
207	0xbd28f1c4	-0.04124619
208	0x3bbe1838	0.005801227
209	0x3d20d2e4	0.03926362
210	0x3d6d6ec0	0.057966948
211	0x3d4d050c	0.05005364
212	0x3b7cd2b2	0.0038577733
213	0x3bab8411	0.0052342494
214	0x3d0a663d	0.03378891
215	0xbd8157b6	-0.06315558
216	0xbcbb7511	-0.02288297
217	0x3d3684e5	0.04456033
218	0xbc8931c8	-0.01674737
219	0x3cd5ca80	0.026097536
220	0xba8a4fab	-0.0010552307
221	0x3c7e86af	0.015535041
222	0xbc911e1f	-0.017714558
223	0xbc4e2581	-0.012582184
224	0x3d0917f0	0.033470094
225	0xbc4af735	-0.01238804
226	0x3c1e4dae	0.009662075
227	0x3b2cbb45	0.0026356739
228	0x3d3d4f53	0.046218228
229	0x3cfca230	0.030839056
230	0x3cae9c7e	0.021314856
231	0xbc44c074	-0.012008775
232	0x3cf2f7b2	0.029659126
233	0x3d0dd7b6	0.034629546
234	0xbc0ef26c	-0.00872479
235	0x3db231e2	0.08700921
236	0xbc3d6516	-0.011559745
237	0xbc5a8d25	-0.013339316
238	0xbd63d1c2	-0.055619963
239	0x3d66c386	0.05633881
240	0xbcaa1265	-0.020760724
241	0x3d0dc531	0.034611885
242	0xbcacdc5f	-0.021101175
243	0x3d0ab572	0.033864446
244	0xbc8e8965	-0.0173995
245	0x3caffd77	0.021483166
246	0x3d586992	0.052835055
247	0xbc27fec0	-0.010253608
248	0xbc92359a	-0.017847825
249	0x3c6ef991	0.014585868
250	0x3d377419	0.044788454
251	0x3d0d6e11	0.034528796
252	0xbd0dce49	-0.034620557
253	0xbdb5cd54	-0.08877054
254	0xbd14ee97	-0.03636035
255	0xbb8469d4	-0.004040936

conv3.bias f4 [128]
0	0x3c4d35c8	0.0125250295
1	0x3cfeb9ed	0.031094516
2	0xbcc251c3	-0.023720628
3	0xbc472c12	-0.012156503
4	0x3b3143f5	0.0027048562
5	0x3d497c59	0.049190853
6	0x159f35f9	6.430474e-26
7	0xb63e3849	-2.8344969e-06
8	0xbd225a5e	-0.039636962
9	0x3bfa6a58	0.0076420717
10	0x3d435c0f	0.047695216
11	0x3c54e63c	0.012994345
12	0x3cdf44a8	0.027254418
13	0x3bc4175c	0.00598423
14	0xbc27ab48	-0.010233708
15	0x3c3948b4	0.011308838
16	0xbd013e1e	-0.03155338
17	0x3c565a7b	0.013083096
18	0xa7dcba38	-6.1264165e-15
19	0xa266fdbd	-3.130514e-18
20	0x3cf30642	0.02966607
21	0x3c01e3a8	0.007927813
22	0x3b4dcae5	0.0031401452
23	0xbd478ea0	-0.048720002
24	0xb531228a	-6.59879e-07
25	0xbd2252ac	-0.039629623
26	0x9c885210	-9.020938e-22
27	0xac7827c2	-3.526499e-12
28	0x3bcfe563	0.0063444837
29	0xbc14ee26	-0.009089982
30	0xbae87d33	-0.0017737508
31	0x3c94e2d5	0.018174568
32	0x3c39f2e3	0.011349413
33	0xbcde8625	-0.027163574
34	0x3c3e160b	0.011601935
35	0x3c8f2391	0.017473014
36	0xbd13cd7d	-0.03608464
37	0xbce63606	-0.028101932
38	0xb74d9d10	-1.2255521e-05
39	0xb185ab77	-3.8903027e-09
40	0xbd771366	-0.060321234
41	0xbb7a1af5	-0.003816304
42	0x3d4d5fed	0.05014031
43	0x3b30b84c	0.0026965318
44	0x3a9400bc	0.0011291723
45	0x3b723e14	0.003696327
46	0x3ca09a23	0.019604748
47	0xaa17ad36	-1.3471589e-13
48	0xbc468bb2	-0.012118267
49	0x3cd0d05c	0.025489978
50	0xbb2ec14c	-0.0026665507
51	0x3c707bdf	0.014677971
52	0xbbc3ad6b	-0.005971601
53	0xbbc57484	-0.0060258526
54	0xad05f596	-7.614706e-12
55	0xbc3b8af2	-0.011446701
56	0xbb634c3f	-0.0034682897
57	0xbcb9f1e5	-0.022698352
58	0x3c3b61ae	0.011436863
59	0x3c9736b7	0.018458707
60	0x3d0d6b12	0.03452594
61	0xbd225314	-0.03963001
62	0x3ceed5ab	0.02915462
63	0x3a6a8604	0.00089463615
64	0x3ca06656	0.019580048
65	0x3d9aedc6	0.07564883
66	0x3cb0492e	0.02151927
67	0x3c84be78	0.016204104
68	0xbca7da04	-0.0204897
69	0xbbf89f63	-0.0075873598
70	0x3c4c2929	0.012460985
71	0xbcb4ffa5	-0.022094557
72	0xbb5dd823	-0.0033850751
73	0x3d350659	0.044195507
74	0xbc375384	-0.011189345
75	0xbc7b2c9c	-0.01533046
76	0xbcb0d477	-0.021585686
77	0xae2278c4	-3.6941797e-11
78	0x3c1b6446	0.009484356
79	0xbbc2412c	-0.0059281792
80	0x3d45bd3c	0.04827617
81	0x3d3edfd2	0.04660017
82	0x935fcc4a	-2.824728e-27
83	0x3cac5e9b	0.021041205
84	0x3d8cae22	0.06869151
85	0x3d162574	0.03665681
86	0xbcdc253d	-0.026873225
87	0xbca881fd	-0.020569796
88	0xbd2ddcea	-0.04244701
89	0xbc866a15	-0.016408006
90	0x3c57a4b7	0.01316183
91	0xbdb1ca38	-0.08681148
92	0xbbedfe4d	-0.007262981
93	0x3d5eaafb	0.05436228
94	0x3c943b5e	0.018094715
95	0x3c8eb33c	0.01741945
96	0xa39cc157	-1.6995436e-17
97	0x3b5a279e	0.0033287774
98	0xa3746dea	-1.3250542e-17
99	0xbd2c2727	-0.042029526
100	0xbd67ae31	-0.056562606
101	0xb99dff83	-0.00030135745
102	0xaa4c795c	-1.8160945e-13
103	0x3d80e162	0.06292988
104	0x3d67ca00	0.056589127
105	0x3b3fb211	0.0029250423
106	0x3d650c65	0.055920023
107	0xb1a6a5d7	-4.8500897e-09
108	0xb7d6b03d	-2.5592855e-05
109	0xbadff861	-0.0017087572
110	0x3ced456e	0.02896377
111	0xbc5cba5d	-0.013472167
112	0x3cdc5521	0.026896061
113	0x3cc6fa45	0.02428926
114	0x3ce9c9bc	0.028538577
115	0xbb62b235	-0.0034591083
116	0x3cb1e9d6	0.021717947
117	0xbca42c5a	-0.02004068
118	0xb62e5447	-2.5977076e-06
119	0x3c9040cf	0.017609028
120	0x3c45d61d	0.012074974
121	0xba5de29d	-0.0008464249
122	0xbdd1a534	-0.10236588
123	0xa88c4e7d	-1.5577161e-14
124	0x3d972bf0	0.07381427
125	0x3bda47ca	0.00666139
126	0xbd20e1bf	-0.03927779
127	0x3b7fa5e0	0.0039008781

act_conv1.weight f4 [4, 128, 1, 1]
0	0x3c9fbf18	0.0195003
1	0x3e011a96	0.12607798
2	0xbdf37182	-0.11886884
3	0x3d56c6e2	0.052435763
4	0x3e0a213d	0.13489242
5	0xbdd6d2f4	-0.10489455
6	0x3b70df37	0.003675414
7	0x3a9e0eda	0.001205887
8	0xbdbd3375	-0.0923833
9	0x3dfb97c1	0.12284804
10	0xbd3fe7c7	-0.0468519
11	0x3d9e4ffb	0.07730099
12	0x3d87209c	0.065980166
13	0xbcb34cf3	-0.021887278
14	0xbd38be43	-0.045103323
15	0x3c2f882b	0.010713617
16	0x3d80620d	0.06268702
17	0x3e084471	0.13307358
18	0x39702902	0.0002290346
19	0x800089d2	-4.944e-41
20	0x3dad8059	0.08471746
21	0x3d98a77d	0.07453821
22	0x3ddfa63b	0.10920378
23	0x3e50c970	0.20389342
24	0x80008ac2	-4.9777e-41
25	0xbd8e3f3a	-0.06945653
26	0xbaa53a20	-0.0012605824
27	0x0000897a	4.9317e-41
28	0x3cccda93	0.025006568
29	0x3d68000f	0.05664068
30	0xba1ac73c	-0.0005904322
31	0x3d324d1e	0.043530576
32	0xbd780dfe	-0.06056022
33	0x3be7b383	0.00707096
34	0x3e875b9a	0.26437074
35	0x3d438147	0.04773071
36	0x3e025493	0.12727575
37	0xbdccb7c4	-0.09995988
38	0x3a4d7917	0.0007838173
39	0x000088c1	4.9058e-41
40	0x3dcf0dab	0.10110029
41	0x3d8beecc	0.06832656
42	0x3dc3977e	0.09550379
43	0xbe388e91	-0.18023135
44	0xbe11e650	-0.14248013
45	0x3d0992ff	0.033587452
46	0x3d9afa0c	0.07567224
47	0xb970b464	-0.00022955384
48	0x3e19c3cc	0.15016097
49	0xbdb5dc4f	-0.08879911
50	0x3e60cc1d	0.21952863
51	0x3ea3ee15	0.3201758
52	0x3da08135	0.07837144
53	0xbd0238b6	-0.031792365
54	0x000088f0	4.9124e-41
55	0xbcf6eb61	-0.030141534
56	0xbd6952aa	-0.0569636
57	0xbd761ef3	-0.06008811
58	0xbd832c79	-0.06404967
59	0xbce61310	-0.028085262
60	0xbd9f42ac	-0.077763885
61	0xbce262f4	-0.027635075
62	0xbe21db30	-0.1580627
63	0x3bc68cae	0.006059251
64	0x3e07df12	0.13268688
65	0x3e8db233	0.27675018
66	0x3b8453ad	0.0040382952
67	0x3e1340a3	0.14380126
68	0x3dfec45e	0.12439798
69	0xbde5d84d	-0.11222897
70	0x3dfc346e	0.12314688
71	0x3e0cc519	0.13747062
72	0xbcfafa6b	-0.030636987
73	0xbcdccd72	-0.026953433
74	0x3c903f33	0.01760826
75	0x3e0f3d42	0.13988212
76	0x3d941519	0.072305866
77	0x9d69338f	-3.0863948e-21
78	0x3c0a11c3	0.008427086
79	0x3ea54b6f	0.32284114
80	0x3c55933f	0.0130355945
81	0x3d93a330	0.0720886
82	0x8000897b	-4.9319e-41
83	0xbd23f0a8	-0.04002443
84	0xbdfa79e6	-0.122302815
85	0x3deccfd6	0.11563079
86	0x3d747467	0.059681322
87	0xbd86983e	-0.06572007
88	0x3d84630a	0.06464203
89	0x3db4c053	0.088257454
90	0x3daee139	0.085390516
91	0xbdc96a33	-0.09834709
92	0x38d9cc7e	0.00010385456
93	0x3b8ce6ce	0.004299975
94	0xbd1895b1	-0.03725213
95	0x3d9dd8bf	0.07707357
96	0x80008a87	-4.9694e-41
97	0x3e174b0e	0.14774725
98	0xb98a9003	-0.00026428708
99	0xbe3e8613	-0.18605833
100	0xbc9756b3	-0.018473959
101	0x3de12909	0.10994155
102	0xb8beeadc	-9.103652e-05
103	0x3c00844f	0.007844045
104	0xbe00111e	-0.1250653
105	0xbca287cd	-0.019840145
106	0x3df1b473	0.11801996
107	0x80008a20	-4.955e-41
108	0x3a30e50f	0.00067479996
109	0x800089f6	-4.9491e-41
110	0x3dc4a4e5	0.09601764
111	0xbe28fe1e	-0.16503188
112	0x3d11efcf	0.03562909
113	0x3df89904	0.121385604
114	0x3e305f65	0.1722389
115	0xbc0b4390	-0.008499995
116	0x3dbbc3c2	0.09168197
117	0xbca83818	-0.02053456
118	0x800088d1	-4.908e-41
119	0xbd970586	-0.073741004
120	0xbda9c0e9	-0.08288748
121	0x3e844016	0.25830144
122	0xbd24068d	-0.04004531
123	0x8000895c	-4.9275e-41
124	0xbd5e1840	-0.054222345
125	0xbdbcc650	-0.092175126
126	0x3e08cce2	0.13359407
127	0xbd1ba268	-0.03799668
128	0x3ce5b368	0.02803965
129	0xbd2ff96b	-0.042962473
130	0x3dcb7870	0.09935081
131	0xbc73aeb6	-0.014873197
132	0x3da95714	0.08268562
133	0xbbfc9a41	-0.007708818
134	0xbb0a7fee	-0.002113338
135	0xb3518aa9	-4.8787715e-08
136	0xbe76e78d	-0.24111767
137	0x3c94a687	0.018145813
138	0x3c03de52	0.008048611
139	0xbd2bdd7f	-0.041959282
140	0xbcf0b413	-0.029382741
141	0xbc444405	-0.011979108
142	0x3d94c2a6	0.07263689
143	0xbe39006c	-0.18066567
144	0xbe3a775f	-0.18209599
145	0xbde4dd95	-0.11175076
146	0x000089f0	4.9483e-41
147	0x80009073	-5.1819e-41
148	0x3b15cb2e	0.00228567
149	0xbd15f408	-0.03660968
150	0x3b214bff	0.0024611948
151	0x3e4ccd3f	0.2000017
152	0x800089f2	-4.9485e-41
153	0x3c558fb4	0.01303475
154	0xb5627776	-8.43654e-07
155	0x800088b9	-4.9047e-41
156	0x3e894317	0.26808998
157	0xbd5b90fe	-0.053605072
158	0x3b5e9fa3	0.0033969663
159	0x3d297aba	0.041376807
160	0x3d26aae0	0.040690303
161	0x3cdb99de	0.026806768
162	0x3e116ba7	0.14201222
163	0xbcfcd039	-0.030861007
164	0xbe387cf0	-0.1801641
165	0x3db29697	0.08720129
166	0xb62d8353	-2.585545e-06
167	0x800089d3	-4.9442e-41
168	0x3d34b946	0.044122003
169	0xbe62d3f2	-0.22151163
170	0x3d845532	0.06461562
171	0x3db45872	0.08805932
172	0x3e9626f7	0.29326603
173	0x3cc7415d	0.02432316
174	0xbd1f88ae	-0.038948707
175	0xb9e36d62	-0.0004337831
176	0x3db761b6	0.08954184
177	0x3d9f812c	0.077883095
178	0x3c0d90ed	0.00864051
179	0x3d5a3f3f	0.053282972
180	0xbdc3ea12	-0.0956613
181	0x39da6a6b	0.00041659488
182	0x00008a49	4.9607e-41
183	0xb92f2825	-0.00016704256
184	0xb6a3a263	-4.876683e-06
185	0x3d896bca	0.06710012
186	0xbdc23cea	-0.09484275
187	0xbba5e87c	-0.0050631147
188	0x3de56eff	0.112028114
189	0xbe654c60	-0.22392416
190	0x3ebe882b	0.37213263
191	0x3bb30af8	0.005463954
192	0x3ee3f747	0.44524595
193	0xbdc3213d	-0.09527824
194	0x3d916ea9	0.07101185
195	0xbb59567c	-0.003316312
196	0x3d87da4b	0.06633433
197	0x3dbed140	0.09317255
198	0x3e2c1cbe	0.1680784
199	0x3e2eb1a9	0.1705996
200	0xb9f199fa	-0.00046081824
201	0x3ad47a0a	0.0016210687
202	0xbdd176d4	-0.10227743
203	0xbe14255b	-0.14467375
204	0x3e598ec6	0.2124587
205	0x800088e7	-4.9111e-41
206	0x3e882e84	0.2659799
207	0x3d928d69	0.07155878
208	0x3df2a9ef	0.118488185
209	0xbcf141fe	-0.029450413
210	0x80008c22	-5.027e-41
211	0x3ce82c53	0.028341448
212	0x3cf18f0f	0.029487161
213	0xbb4b9179	-0.003106205
214	0xbd438cc9	-0.047741685
215	0x3d0cc28e	0.03436523
216	0x3e510eb4	0.20415765
217	0x3d8ecc5e	0.06972574
218	0x3d727274	0.059191182
219	0x3d979b5f	0.074026816
220	0x3de0e448	0.10981041
221	0xbcfeb270	-0.031090945
222	0x3cd1328e	0.025536802
223	0xbdbfb33f	-0.0936036
224	0x0000940a	5.3106e-41
225	0x3d8c4f6c	0.06851086
226	0x8796c4b5	-2.2685106e-34
227	0x3d89a95a	0.06721754
228	0xbe19507f	-0.14972113
229	0xbd8543f4	-0.06507102
230	0x800088f3	-4.9128e-41
231	0xbbf8d474	-0.0075936858
232	0x3bbf43ac	0.0058369245
233	0x3e0efe78	0.1396426
234	0xbd1c04ad	-0.038090397
235	0x80008b02	-4.9867e-41
236	0x80008926	-4.92e-41
237	0x0000a90c	6.0643e-41
238	0x3d5859f1	0.05282015
239	0x3d6516a1	0.055929784
240	0x3dab463b	0.08363005
241	0xbd452c02	-0.048137672
242	0xbe21f7b3	-0.15817146
243	0x3c1deeca	0.009639451
244	0xbce2bf21	-0.027679028
245	0x3da6e8f4	0.08149901
246	0x80008a95	-4.9714e-41
247	0xbcb75cc7	-0.022383107
248	0x3c927c66	0.017881583
249	0xbb25313c	-0.0025206348
250	0x3df3b1cb	0.11899146
251	0x80008a79	-4.9675e-41
252	0x3bb0e8fa	0.0053988667
253	0x3d845301	0.06461144
254	0x3ddfd13f	0.109285824
255	0xbd09485d	-0.033516277

act_conv1.bias f4 [4]
0	0x3d167ccd	0.036740113
1	0x3bf666c0	0.007519573
2	0xbc3834c2	-0.011243047
3	0x3e0130ee	0.12616321

act_fc1.weight f4 [81, 324]
0	0x3d4f1659	0.05055842
1	0x3cc26569	0.023729997
2	0x3d1a9d88	0.03774789
3	0xbbeae712	-0.007168659
4	0x3c99cd1e	0.018774565
5	0xbb19a0fe	-0.0023441906
6	0x39ea53d3	0.00044694412
7	0x3c483437	0.01221948
8	0xbd8094c5	-0.062783755
9	0x3d296f03	0.041365635
10	0xbb66e000	-0.003522873
11	0xbd4cf4f0	-0.050038278
12	0xbd7481c5	-0.05969407
13	0xbcb3483f	-0.021885036
14	0xbc75eab1	-0.015009568
15	0xbc93a9c8	-0.018025294
16	0x3b9ac41b	0.0047230846
17	0x3c670b3d	0.0141018005
18	0x3cbdddc4	0.023177035
19	0x3cd76867	0.0262949
20	0xbd3068aa	-0.043068565
21	0xbd530cd1	-0.051525895
22	0xbd4797a5	-0.048728604
23	0xbd93c414	-0.07215133
24	0x3d38200e	0.044952445
25	0x3a0fd7b3	0.0005487159
26	0x3b6f3e6c	0.0036505712
27	0x3d0d1984	0.03444816
28	0xbd2fdf87	-0.04293778
29	0xbccd4481	-0.02505708
30	0xbda6d965	-0.081469335
31	0xbd4d810a	-0.05017189
32	0x39ef150c	0.00045601313
33	0xbd98b468	-0.07456285
34	0x3c0581df	0.008148639
35	0xbd3e784e	-0.04650145
36	0x3ae4f1f9	0.0017467133
37	0xbccfe42b	-0.025377354
38	0xbdaf6110	-0.08563435
39	0xbdd07d5f	-0.10180163
40	0xbcdd032f	-0.026979057
41	0xbd833e2c	-0.06408343
42	0xbdb5c6c0	-0.08875799
43	0xbce1e48a	-0.027574796
44	0xbc98d48e	-0.018656041
45	0x3d65ad9d	0.056073774
46	0xbd89de08	-0.06731802
47	0xbd51aa1a	-0.051187612
48	0xbd7c2fa1	-0.06156886
49	0xbe300ce3	-0.17192416
50	0xbd19088a	-0.03736166
51	0xbd2f7a97	-0.04284152
52	0xbd673b8f	-0.056453284
53	0x3a6eef2d	0.00091146195
54	0x3dd06758	0.10175961
55	0x3c9c227d	0.019059414
56	0xbd90937c	-0.070593804
57	0xbdbf47f7	-0.09339898
58	0xbd29ab2b	-0.041423004
59	0xbd1ea17e	-0.03872823
60	0xbca9cc79	-0.020727383
61	0xbd52f83d	-0.05150627
62	0xbd334418	-0.04376611
63	0x3e8d9da3	0.2765933
64	0xbdad23d0	-0.08454096
65	0xba45fc58	-0.0007552556
66	0xbceb45c6	-0.028719794
67	0xbdcd3f37	-0.10021823
68	0xbbf8a136	-0.007587577
69	0xbc980ea0	-0.018561661
70	0x3b829c74	0.003985936
71	0x3c149509	0.009068736
72	0x3e94cda6	0.29063147
73	0x3e944e7e	0.28966135
74	0xbd4db47c	-0.05022095
75	0xbb1fb755	-0.002437075
76	0x3bc1ad0a	0.0059105204
77	0xbc5e216f	-0.013557776
78	0xbccdf8d5	-0.025143066
79	0x3d0371ed	0.03209107
80	0x3c7a1e9f	0.01526609
81	0xbc8bfc13	-0.017087972
82	0xbae1bb02	-0.001722187
83	0xbc84ae9e	-0.016196545
84	0x3d45f529	0.048329506
85	0x3d223ba0	0.039607644
86	0xbcf479ee	-0.029843297
87	0x3a12c7b1	0.00055992143
88	0xbd025564	-0.031819716
89	0x3db3662a	0.087597206
90	0xbb973bee	-0.0046152985
91	0xbc351992	-0.01105346
92	0xbb8748f2	-0.004128569
93	0x3cc0b589	0.023524063
94	0x3c6af423	0.014340433
95	0x3d09c200	0.03363228
96	0xbcdcb5d1	-0.026942166
97	0xbd4b336e	-0.049609594
98	0xbc144591	-0.009049789
99	0x3d5187db	0.051154952
100	0x3c7a5265	0.015278433
101	0xbd1aa989	-0.037759338
102	0x3c3c94be	0.011510072
103	0x3d1d1714	0.038352087
104	0x3c4eb19b	0.012615587
105	0x3ca35b7e	0.019941088
106	0x3d129015	0.03578194
107	0x3cb196da	0.021678377
108	0x3d04b345	0.032397527
109	0xbd041c06	-0.032253288
110	0xbd349c56	-0.044094406
111	0xbd3ca578	-0.04605624
112	0xbb51e38f	-0.0032026505
113	0xbd51e231	-0.051241104
114	0xbc850ea3	-0.01624233
115	0xbbe9f563	-0.007139848
116	0xbd3fcb67	-0.04682484
117	0xbae5347e	-0.0017486957
118	0xbbd38fe0	-0.00645636
119	0xbc99cb17	-0.018773599
120	0x3d630cf7	0.055432286
121	0x3c24e7dd	0.010065046
122	0x3ce1c01a	0.027557421
123	0xbb9b7038	-0.004743602
124	0x3d072db1	0.03300256
125	0x3d19e809	0.0375748
126	0xbdb2a62d	-0.08723102
127	0x3d39d8bf	0.04537272
128	0x3df73c71	0.12072075
129	0x3c846695	0.016162196
130	0xbd026ba6	-0.031840943
131	0xbcba7d5c	-0.022764854
132	0xbc54ee39	-0.01299625
133	0x3c92f5ee	0.017939534
134	0x3dc1abe8	0.09456617
135	0x3c372623	0.011178526
136	0xbb97510f	-0.0046178172
137	0x3c8a52bc	0.016885154
138	0x3cf27ead	0.02960142
139	0xbc9747a1	-0.018466773
140	0xbd32780e	-0.043571524
141	0xbd875f42	-0.06609966
142	0xbc003c76	-0.007826915
143	0x3ce3fc36	0.027830224
144	0xbe6d4d7c	-0.23174089
145	0xbc09e317	-0.008415959
146	0xbca9c72c	-0.020724855
147	0xbc6e12bc	-0.014530834
148	0x3cb12a7e	0.021626707
149	0xbc7606eb	-0.015016298
150	0xbcb6d5a5	-0.02231867
151	0xbb865a3d	-0.0041001127
152	0xbccd68f5	-0.025074461
153	0xbd8f9c82	-0.07012273
154	0xbdc0ed7d	-0.09420297
155	0x3cad7739	0.021175014
156	0x3c841375	0.01612256
157	0x3cef8f24	0.02924306
158	0x3d34cee1	0.044142608
159	0x3ad86d02	0.0016511979
160	0xbc3467ef	-0.011011108
161	0x3d03cc53	0.03217728
162	0x80008966	-4.9289e-41
163	0x04a8878e	3.9621098e-36
164	0x0cac5c35	2.655629e-31
165	0x1e395009	9.810369e-21
166	0x16a49e67	2.6595595e-25
167	0x1c66b7fd	7.6338416e-22
168	0x11b4cd88	2.852566e-28
169	0x14d384a0	2.1357867e-26
170	0x027aeff6	1.8435965e-37
171	0x8421724f	-1.8977947e-36
172	0x21a772f8	1.1346792e-18
173	0x282216d1	8.997754e-15
174	0x2d5b5372	1.2467237e-11
175	0x297788a8	5.4963548e-14
176	0x2b0680b8	4.7784996e-13
177	0x255dd401	1.9240524e-16
178	0x24c8ed0e	8.713776e-17
179	0x15bd3534	7.642043e-26
180	0x02f01c75	3.5281164e-37
181	0x2a5ef508	1.9802573e-13
182	0x2e6f6c2e	5.443839e-11
183	0x2fb73dd5	3.333144e-10
184	0x2f565ad2	1.9495452e-10
185	0x2ddd8865	2.5185362e-11
186	0x2d1f51e0	9.0562835e-12
187	0x29c64cb4	8.806272e-14
188	0x1c98ab64	1.010282e-21
189	0x11563274	1.689717e-28
190	0x2cd03a54	5.9181913e-12
191	0x2cb8ae14	5.248921e-12
192	0x315cdaa8	3.2138505e-09
193	0x2e5a18c3	4.9589454e-11
194	0x2e1a0b56	3.5025614e-11
195	0x2b5251c4	7.472046e-13
196	0x25e1924f	3.913042e-16
197	0x1524f3cd	3.331186e-26
198	0x04ff031a	5.995306e-36
199	0x2a919de8	2.5866744e-13
200	0x2d2c27eb	9.785932e-12
201	0x3160b96e	3.2701695e-09
202	0x2b83a73f	9.35453e-13
203	0x2b401861	6.8245935e-13
204	0x20e4db0e	3.876966e-19
205	0x1915c24e	7.742359e-24
206	0x04c5bb24	4.648634e-36
207	0x000025d9	1.3577e-41
208	0x2afa8944	4.4504168e-13
209	0x2d0aa246	7.880424e-12
210	0x2fcb82a5	3.7018313e-10
211	0x2cac00f8	4.8886416e-12
212	0x26b7f326	1.2764081e-15
213	0x9d86cca4	-3.56811e-21
214	0x94ac1703	-1.7376638e-26
215	0x0000893a	4.9228e-41
216	0x8000847a	-4.7524e-41
217	0x27a8f9c3	4.690016e-15
218	0x289945db	1.7016707e-14
219	0x300b0c23	5.058515e-10
220	0x2716a55c	2.0906323e-15
221	0x25fe421e	4.410678e-16
222	0x9e97c00a	-1.6067172e-20
223	0x9178e10f	-1.9633102e-28
224	0x80000511	-1.817e-42
225	0x85b06964	-1.6589675e-35
226	0x1cc0cdeb	1.2758723e-21
227	0x264808b9	6.940076e-16
228	0x278e231a	3.9450975e-15
229	0x22fa64ce	6.7869367e-18
230	0x9e9e937a	-1.6789896e-20
231	0x9dcfe774	-5.503176e-21
232	0x08f94f83	1.50048355e-33
233	0x0406e721	1.5857753e-36
234	0x800088e6	-4.911e-41
235	0x898fa0c4	-3.457718e-33
236	0x11246fa2	1.2971718e-28
237	0x0adca06c	2.1245573e-32
238	0x091b4daa	1.8693964e-33
239	0x08d6dbc5	1.2931324e-33
240	0x0d0f2e5a	4.412107e-31
241	0x02a51a6f	2.4259743e-37
242	0x800088cb	-4.9072e-41
243	0x3db56d35	0.0885872
244	0x3d693560	0.056935668
245	0x3b7db65f	0.0038713438
246	0x3cc33bf9	0.023832308
247	0x3d03af26	0.032149456
248	0x3d194b05	0.03742506
249	0xbc410e23	-0.011783156
250	0x3d475e2d	0.048673797
251	0x3d08b3ee	0.03337472
252	0x3c161004	0.009159092
253	0xbb153c9b	-0.002277172
254	0x3ca3f1db	0.020012787
255	0x3cb0b0f9	0.021568762

act_fc1.bias f4 [81]
0	0x3de06361	0.10956455
1	0xbc55dbd7	-0.013052902
2	0xbe2dda87	-0.16977893
3	0x3de35df2	0.11101903
4	0x3df5137f	0.11966609
5	0x3dd7f1cc	0.10544166
6	0xbde88f9a	-0.11355515
7	0xbc8bfb56	-0.01708762
8	0x3da28e72	0.079373255
9	0xbba756f4	-0.005106801
10	0xbd8fb756	-0.070173904
11	0x3dd1c487	0.10242563
12	0x3d575f00	0.052580833
13	0x3e7a031e	0.24415252
14	0x3d8ff794	0.07029644
15	0x3da5cdac	0.080958694
16	0xbe28d8ec	-0.16488999
17	0xbca6f292	-0.020379338
18	0xbe1c45fa	-0.15261069
19	0x3e0907cb	0.13381879
20	0x3ba3e59c	0.005001737
21	0x3e5692c8	0.2095443
22	0xbd9b5dd4	-0.07586256
23	0x3e32f331	0.17475583
24	0x3c21a8b7	0.009866885
25	0x3e0e0f9d	0.13873143
26	0xbddc6211	-0.10760892
27	0x3d96e7e3	0.07368448
28	0x3d201a59	0.039087627
29	0x3dec8ee4	0.11550692
30	0x3df3a032	0.11895789
31	0x3e439fb7	0.19103895
32	0x3db57921	0.08860994
33	0x3e2adb6f	0.1668527
34	0x3d34db01	0.04415417
35	0x3dcfb993	0.10142817
36	0x3dcbf583	0.09958937
37	0x3e4bf33a	0.19917002
38	0xbcca428c	-0.024689935
39	0x3e73a1e5	0.23792227
40	0xbd5bc4db	-0.053654533
41	0x3e8c691a	0.27423936
42	0xbda32c4a	-0.07967432
43	0x3e5dd58c	0.21663493
44	0x3db915f2	0.09037389
45	0x3d9effdf	0.07763647
46	0x3d5f5537	0.054524627
47	0x3e11dd84	0.14244658
48	0x3dd0471d	0.10169814
49	0x3e6e6a16	0.23282656
50	0x3d8869a9	0.06660778
51	0x3e43bd31	0.1911514
52	0x3c8319cf	0.016003517
53	0x3d96c097	0.07360952
54	0xbe1f37ee	-0.15548679
55	0x3dfb5c11	0.1227342
56	0x3dadd366	0.08487587
57	0x3e5dfd49	0.21678652
58	0xbda3fd20	-0.08007264
59	0x3dfdbe36	0.123897955
60	0xbc63e65d	-0.013909903
61	0x3e0df015	0.13861115
62	0xbdf5ff8c	-0.12011632
63	0xbd59e926	-0.053200863
64	0xbdf3b3d5	-0.118995346
65	0x3dfb3477	0.12265866
66	0x3d519fb2	0.051177688
67	0x3e277d6d	0.1635644
68	0x3d0cfdff	0.034421917
69	0x3dfc45d6	0.12318008
70	0xbe0bdb1e	-0.13657805
71	0xbcad5588	-0.021158949
72	0x3d37497d	0.04474782
73	0xbd7c225a	-0.061556198
74	0xbe1d183a	-0.15341273
75	0x3dc9cb18	0.0985319
76	0x3d8846e5	0.06654147
77	0x3daa342e	0.08310734
78	0xbe0b2bcf	-0.1359093
79	0xbcb7dab8	-0.02244316
80	0x3db783eb	0.08960708

val_conv1.weight f4 [2, 128, 1, 1]
0	0x3d3384df	0.043827888
1	0x3cc1d5a6	0.023661446
2	0x3d1cc3aa	0.038272537
3	0x3c9a51d1	0.018837841
4	0x3df0b3da	0.11753054
5	0xbd6c02af	-0.057619747
6	0x000089b0	4.9393e-41
7	0x000089c7	4.9425e-41
8	0xbddfed9f	-0.109339945
9	0x3d915b2b	0.07097467
10	0xbda86a60	-0.082234144
11	0x3c0e1a9d	0.008673337
12	0xbdc6216a	-0.09674342
13	0xbd1479ef	-0.036249097
14	0x3dd97a1d	0.106189944
15	0x3e1dadaa	0.15398279
16	0xbd28b9e0	-0.04119289
17	0xbcd11369	-0.02552195
18	0x000089b0	4.9393e-41
19	0x80008905	-4.9153e-41
20	0xbdca4437	-0.09876292
21	0xbd495fd3	-0.04916365
22	0x3c79de08	0.01525069
23	0x3db48832	0.0881504
24	0x1403df6b	6.657871e-27
25	0x3e61bef7	0.22045504
26	0x0000895c	4.9275e-41
27	0x80000ed6	-5.322e-42
28	0x3d260239	0.040529463
29	0x3b42f6fe	0.002974927
30	0xbb343ac2	-0.0027500843
31	0xbe8d1ebf	-0.2756252
32	0x3db3be1a	0.08776493
33	0x3ba6c90e	0.0050898856
34	0x3dd0d3a7	0.101966195
35	0xbd6d9252	-0.05800087
36	0xbd28bb82	-0.041194446
37	0xbb9ce7f7	-0.0047883946
38	0x3b28281d	0.0025658675
39	0x8000ad36	-6.2136e-41
40	0x3d1c2f53	0.03813107
41	0x3d87e4f4	0.06635466
42	0xbc66e0ad	-0.014091653
43	0x3d48a86f	0.048988756
44	0x3d449a09	0.047998462
45	0xbd3ba9f1	-0.045816366
46	0xbd886283	-0.066594146
47	0x80008a93	-4.9711e-41
48	0x3d95b0ea	0.07309134
49	0xbcb204ce	-0.021730807
50	0xbdbf109e	-0.09329341
51	0xbd89f22e	-0.06735645
52	0x3c835406	0.016031276
53	0x3c9690b0	0.01837954
54	0x0000895b	4.9274e-41
55	0x3d1727c3	0.036903154
56	0x3cb7a364	0.022416778
57	0x3e10c5bb	0.14137928
58	0xbd534253	-0.051576924
59	0xbb9d636f	-0.004803113
60	0xbe132ca2	-0.14372495
61	0x3d5bf36b	0.05369894
62	0x3b2b1213	0.0026103302
63	0x3bd53bae	0.0065073585
64	0x3d988a4f	0.07448255
65	0xbd88b623	-0.06675365
66	0x3dc11b4c	0.094290346
67	0x3d1e7fe1	0.038696174
68	0x3c85366e	0.016261306
69	0x3d09e23e	0.033663027
70	0x3cb56ea7	0.02214749
71	0x3d21cf6e	0.03950446
72	0x3cf89acf	0.030347256
73	0xbda26787	-0.079299025
74	0x3dd03d7d	0.10167978
75	0x3de7e652	0.11323227
76	0xbe645046	-0.22296247
77	0x80005a37	-3.2363e-41
78	0x3dc0aee5	0.094083585
79	0xbd88a7d9	-0.066726394
80	0xbcd3b2ff	-0.025842188
81	0xbc91a5a5	-0.01777918
82	0x80008a20	-4.955e-41
83	0x3dd2fdc7	0.103023104
84	0xbd861526	-0.065470025
85	0x3cb8ae94	0.022544183
86	0x3d4d412d	0.050110985
87	0xbdbd0582	-0.09229566
88	0x3da88fe4	0.0823057
89	0x3d019bb0	0.031642616
90	0x3cdaf20b	0.026726743
91	0x3d5c4e12	0.05378539
92	0x3cdd37cc	0.027004145
93	0xbc284eb6	-0.010272672
94	0xbdab1ec2	-0.08355476
95	0x3ab64772	0.001390679
96	0x00008940	4.9236e-41
97	0xbad691be	-0.0016370339
98	0x2c75469d	3.4855792e-12
99	0x3d89610f	0.067079656
100	0x3df88a54	0.12135759
101	0x3dd71ed0	0.10503924
102	0x0000898f	4.9347e-41
103	0xbddce9ab	-0.10786756
104	0xbda01770	-0.0781697
105	0xbdd2a2af	-0.10284936
106	0xbd49b768	-0.049247175
107	0x000088ec	4.9118e-41
108	0x80008f7c	-5.1472e-41
109	0x2f464b17	1.8034672e-10
110	0x3c81a3c8	0.015825167
111	0x3d3b95cf	0.045797165
112	0xbd0ad69d	-0.033896077
113	0x3d018144	0.031617418
114	0xbc03e5d0	-0.008050397
115	0xbc83f16d	-0.016106332
116	0xbdc5c34d	-0.09656391
117	0xbd8dd190	-0.069247365
118	0x939a0db7	-3.888859e-27
119	0x3dd1c513	0.10242667
120	0xbdc1082d	-0.094253875
121	0x3de3c62d	0.111217834
122	0xbdd2cc5c	-0.10292885
123	0xafb34e6e	-3.2615638e-10
124	0xbd8552d2	-0.06509937
125	0x3d277ac6	0.04088857
126	0x3cf5078f	0.02991083
127	0xbbe72282	-0.007053674
128	0x3b822e23	0.003972785
129	0x3bb26d1a	0.005445135
130	0x3c692f8f	0.01423253
131	0x3b4a049c	0.0030825501
132	0xbdf2eb21	-0.118612535
133	0x3c1d892c	0.009615224
134	0x00008a3f	4.9593e-41
135	0x80009e26	-5.6733e-41
136	0xbda28242	-0.07935001
137	0xbd4b5cc1	-0.049649004
138	0x39bf1acb	0.0003645032
139	0x3c296846	0.010339802
140	0xbbc73291	-0.006079026
141	0x3dc178d1	0.09446872
142	0x3c3e5217	0.011616251
143	0xbc027aa5	-0.007963811
144	0xbc6347d0	-0.013872102
145	0xbbbf9eb7	-0.0058477777
146	0x800089ff	-4.9504e-41
147	0x00008b49	4.9966e-41
148	0xbc95dfd9	-0.018295215
149	0xbb49bf2f	-0.003078412
150	0xbd7362f5	-0.059420545
151	0xbcc7b531	-0.024378391
152	0x80008c5b	-5.035e-41
153	0x3cf12fb9	0.029441701
154	0x000092e9	5.2701e-41
155	0x8000895a	-4.9272e-41
156	0xbd1ee735	-0.038794715
157	0xbdb8db34	-0.09026185
158	0xbb657d5d	-0.003501735
159	0xbdbb45ab	-0.091441475
160	0x3d878f14	0.06619087
161	0x3b063070	0.0020475648
162	0x3dee13f4	0.116248995
163	0xbb9c887b	-0.004777012
164	0x3e36162f	0.177819
165	0x3e1a5e21	0.1507497
166	0xa526b701	-1.4460209e-16
167	0x00008926	4.92e-41
168	0x3dabc22a	0.08386643
169	0xbd0fb535	-0.035084922
170	0xbd89aefa	-0.06722827
171	0x3bba6f04	0.0056895036
172	0x3d1894cc	0.03725128
173	0xbb4ca374	-0.0031225355
174	0xb8c23812	-9.261085e-05
175	0x800093f5	-5.3077e-41
176	0x3e180499	0.14845504
177	0xbc148149	-0.009064027
178	0x3c9f6fb6	0.019462448
179	0x3c7b0f95	0.015323539
180	0x3b811566	0.0039393185
181	0xb1cef3b6	-6.023096e-09
182	0x00008ad3	4.9801e-41
183	0xb71c6148	-9.320975e-06
184	0xb97ba740	-0.00023999531
185	0x3ae3f6a4	0.001739223
186	0xbe4c96ca	-0.19979396
187	0x3bc6277c	0.0060471874
188	0xbcc266fa	-0.023730744
189	0x3dcf9714	0.10136238
190	0x3de85069	0.11343462
191	0xbc8874f8	-0.016657338
192	0x3e363a78	0.17795742
193	0x3ddb0bca	0.10695608
194	0x3da47b2a	0.08031304
195	0xbb53041c	-0.0032198494
196	0x3d00ee6c	0.031477377
197	0x3c459b66	0.012060976
198	0xbcb26e0f	-0.021780996
199	0xbcf4e461	-0.029894056
200	0xb808d953	-3.2627326e-05
201	0xbb4ae830	-0.0030961148
202	0x3e0ecc6a	0.13945165
203	0xbda3034d	-0.07959614
204	0xbd8b68ef	-0.06807124
205	0x80008aa2	-4.9732e-41
206	0xbdd8293a	-0.10554738
207	0x3dd6dbbd	0.104911305
208	0x3d5f1206	0.054460548
209	0x3ba2146a	0.004946281
210	0x000089de	4.9457e-41
211	0x3d8c0b0c	0.068380445
212	0x3bd0f3b4	0.006376708
213	0x3c94c0e2	0.01815838
214	0x3bfc0be6	0.007691848
215	0xbe555739	-0.20834054
216	0xbd029665	-0.03188171
217	0xbd80500a	-0.06265266
218	0x3d0116ce	0.03151589
219	0xbe139db7	-0.14415632
220	0x3cb4ea19	0.022084283
221	0x3dc407f5	0.0957183
222	0xbb011123	-0.0019694052
223	0x3c34d133	0.011036205
224	0x00008999	4.9361e-41
225	0x3cfbc755	0.030734697
226	0x80008a33	-4.9577e-41
227	0xbbde35b5	-0.0067813047
228	0x3c6a7cfe	0.014312027
229	0xbe050b68	-0.12992632
230	0x0000898e	4.9345e-41
231	0xba1ea68c	-0.0006052039
232	0x3c673961	0.014112801
233	0x3cc97ea4	0.02459652
234	0xbad1aceb	-0.0015996968
235	0x00008bdc	5.0172e-41
236	0x00008a43	4.9599e-41
237	0x00008969	4.9293e-41
238	0xbddc7034	-0.107635885
239	0xbdb00ba7	-0.085959725
240	0x3c995dc8	0.018721476
241	0x3bdbc60f	0.00670696
242	0x3da7d1c5	0.08194307
243	0xbb506acb	-0.0031801935
244	0xbb09cb0a	-0.0021025562
245	0x3c4b93e3	0.012425396
246	0x80008c20	-5.0267e-41
247	0x3de75b07	0.11296659
248	0x3a2b47cb	0.00065338303
249	0x3cb55dc2	0.022139434
250	0x3d4803ca	0.04883174
251	0x00008985	4.9333e-41
252	0x3b1cc619	0.0023921786
253	0x3b7b3f5b	0.0038337323
254	0xbd791b21	-0.060816888
255	0xbbe8a1a3	-0.0070993467

val_conv1.bias f4 [2]
0	0x3d782228	0.06057945
1	0x3c7ef71f	0.015561848
