课程设计/AlphaZero简单复现/models/policy_batch_1700.model (torch, 530639 bytes, 15 tensors)

conv1.weight f4 [32, 4, 3, 3]
000000 85 b2 80 3e da 94 b7 bd 7e 34 99 3e 0f 21 8f bd
       0.251362 -0.08963938 0.2992286 -0.06988727
000010 f3 d7 8c bd 9f a3 c1 bd 8f 85 c7 3e ef 5d 25 be
       -0.068771265 -0.09455036 0.38969085 -0.16149114
000020 a7 80 da 3e 16 68 4f 3e 9d 0a 99 bd dd 5c 37 3e
       0.4267628 0.2025455 -0.074727274 0.17906518
000030 e4 df 82 bd 3a 17 00 bd 53 3c 90 bd e2 43 4c 3e
       -0.0639036 -0.03127215 -0.07042756 0.1994777
000040 a1 6c b4 bd da 61 4b 3e b9 5a 7e 3d 2e 0c 0c bd
       -0.08809782 0.19861546 0.06209824 -0.034191303
000050 4c 55 3b 3d 36 9d 8e bc b1 b2 10 be 26 dc 0e bd
       0.045735642 -0.017408948 -0.14130665 -0.03487792
000060 72 a7 0e 3d 59 ef 04 bd ab d2 91 3d ec df 37 3c
       0.034827657 -0.032454822 0.0712026 0.011222821
000070 0a 0b c9 3b 53 54 a9 bc 8f 6b c1 bd 23 9a ed 3d
       0.006135349 -0.020670092 -0.09444343 0.11601665
000080 eb 8c 9a 38 66 58 8e 3c a9 06 25 3d fc db 7d bc
       7.36954e-05 0.017376136 0.040289555 -0.015494343
000090 b7 ea b9 3e 0c 8b a2 3e 2f a2 e0 be e7 14 30 3e
       0.36311886 0.3174671 -0.43873736 0.17195474
0000a0 fc ae 7c bd 64 74 aa 3e 6d 79 b6 be c2 cf 16 3e
       -0.061690316 0.33291924 -0.35639516 0.14727691
0000b0 46 e1 14 3e b3 fc 54 3c dd 37 65 3c da eb 79 3d
       0.1453906 0.012999701 0.01399037 0.06101594
0000c0 90 da 15 be 32 29 38 bd 68 c2 af bd 8c a4 73 3e
       -0.14634156 -0.044961162 -0.08582002 0.23793238
0000d0 b3 d9 df bd a8 26 cb 3d 89 81 2f bd 6e a4 50 bd
       -0.10930195 0.099194825 -0.042848144 -0.050938062
0000e0 9c 98 0b 3c 81 5a fc bc 7e 25 db bc 85 19 b9 bc
       0.008520272 -0.030804874 -0.026751276 -0.022595176
0000f0 39 8b bd 3c cc f5 07 3c 8d d8 1f 3c 01 e2 7e 3c
       0.023137676 0.008298349 0.00975622 0.015556813
000100 cf 47 07 be e6 49 a9 3d 64 0f 22 be 32 ba 9b 3d
       -0.13210987 0.08266048 -0.15826184 0.07603873
000110 ec 5f f7 bd 2e a3 0a 3e 8e d8 3c bd d6 5f 3b 3e
       -0.120788425 0.1353881 -0.04610496 0.18298277
000120 52 2b 86 3e 02 7e 50 3e 85 b5 31 bd d2 e3 a5 be
       0.26204926 0.20360568 -0.043386 -0.32400376
000130 be 40 85 bd e7 98 99 be 58 7a c4 3d 70 c0 74 3e
       -0.06506489 -0.29999468 0.09593648 0.23901534
000140 26 c1 8a be 42 09 2a be 5d fa 22 be 56 62 dc bd
       -0.27100486 -0.16605094 -0.15915819 -0.107609436
000150 51 32 b3 3e 93 f6 3c 3e 79 25 3c 3e 4f 18 01 3e
       0.34999326 0.18453436 0.1837367 0.12606929
000160 fc 68 ad be 0c 8c c5 3d 1f 03 a6 3c 66 7a 07 bc
       -0.3386916 0.096458524 0.02026516 -0.008268928
000170 8c b1 3c 3d 4b b8 a9 bc 94 07 ee 3c e5 d3 c0 3c
       0.04606776 -0.02071776 0.029056348 0.02353854
000180 3a e9 89 bc 99 a3 5b be b4 d2 45 3d ea 95 1f be
       -0.016834844 -0.21449126 0.048296645 -0.15584531
000190 73 02 d2 3d 76 b1 52 3d d5 a5 c1 bb d2 db 4d 3d
       0.102543734 0.05143877 -0.0059096613 0.050258465
0001a0 bf 87 36 3d 84 5a e7 3c 40 8f 0a 3e 37 25 36 be
       0.04456305 0.028241403 0.13531208 -0.17787634
0001b0 70 1e 22 3d 5e 6c 26 bf e6 ae c4 3e c7 90 55 bd
       0.03957981 -0.65009105 0.38414687 -0.052140024
0001c0 b1 e8 dc 3e 39 13 f6 be 55 8b 89 3d 76 da 17 3d
       0.4314628 -0.4806154 0.067160286 0.037073575
0001d0 e4 21 e1 3d 65 90 04 3e 19 7b 3c 3e 0a 52 9c be
       0.10992792 0.12945707 0.18406333 -0.3053134
0001e0 85 f5 04 3e 85 4e 6f be 6a 13 0d 3e f4 6e 05 be
       0.12984283 -0.23369797 0.13776937 -0.13030607
0001f0 e5 d4 61 3d 0b 81 29 3e 1e d5 de 3b 67 98 96 3d
       0.055134673 0.16553132 0.006800308 0.07353287
000200 fd 16 f2 bc 5b 9f 3e bb ec 9b 49 bd 6f 04 58 3d
       -0.029551977 -0.0029086682 -0.049220964 0.052738603
000210 9f 5c c5 bd 52 f5 52 3a 66 ba a0 3d 38 94 86 3d
       -0.09636807 0.000804742 0.07848053 0.06571239
000220 86 2d 86 bd 5f 96 ab 3d 4a bd 02 3e 1e f3 8e bc
       -0.06551652 0.083782904 0.1276752 -0.017449912
000230 6d 7e da bd d9 43 df bd b7 61 bf bd 9d 5b f8 3d
       -0.10668645 -0.10901613 -0.093448095 0.12126849
000240 e5 c3 59 be 15 3b 4a bd 20 dc 92 bd 8b 64 c8 3d
       -0.21266134 -0.04937275 -0.07170892 0.09784802
000250 b3 91 6a 3e 27 f6 cc 3d 03 92 8d bd 33 b7 0f bd
       0.22907142 0.10007887 -0.06912615 -0.03508682
000260 aa f5 61 3e 33 40 f5 bd 40 f8 09 bc 6f d9 05 be
       0.2206637 -0.11975136 -0.008421004 -0.13071226
000270 1f 7d 59 3e ec 3b 3f bd 7d 68 88 bd c2 b4 50 3d
       0.21239136 -0.046688005 -0.066605546 0.050953634
000280 b6 d3 4a bd 42 92 fa bd fc a0 b9 bd 64 7e ec bc
       -0.04951831 -0.12234928 -0.090639085 -0.028868861
000290 73 2c 44 3d 6c a7 00 3e ec 59 9c bd ae 6d 72 bd
       0.047893953 0.12563866 -0.07634339 -0.05918663
0002a0 a6 38 f8 bc 63 02 67 bd a6 c7 1d be 2f 88 7f 3d
       -0.03030045 -0.05639876 -0.15408191 0.062385734
0002b0 9b 13 9a 3d 12 ad e3 3d 85 85 00 3e f9 51 b4 3d
       0.07523271 0.11116995 0.12550934 0.088046975
0002c0 f3 63 c6 3d 66 f4 11 3e 03 1f 14 3e b6 73 e5 3d
       0.096870326 0.14253387 0.14464955 0.11203711
0002d0 d4 3e 81 3e bb 94 5b 3d b0 2e d3 bd 85 2d a4 be
       0.25243247 0.053608637 -0.10311639 -0.3206598
0002e0 e1 d1 cf 3e 92 ca 70 3e fc b2 ae 3e dd f2 0e 3d
       0.40589812 0.23514774 0.3412093 0.03489958
0002f0 5f 8e fe bc c4 ab 03 3e 58 38 88 bd 3b 85 f9 bd
       -0.031073747 0.12858492 -0.06651372 -0.12183615
000300 85 1b 0a bf c8 bf 71 3e 1b 80 03 3e 9c bd cb 3d
       -0.5394824 0.23608315 0.12841837 0.099482745
000310 ac a3 f6 bd 95 aa b7 bd 13 37 a4 3d 9d 80 83 3c
       -0.12042937 -0.08968083 0.08018317 0.016052539
000320 dc ce e0 3b 04 d6 9a bd d7 3d 9a 3d cf 72 f1 3c
       0.006860597 -0.075603515 0.07531326 0.02947369
000330 49 ed 36 3d 54 94 e8 3c 77 9b 11 3c c6 e8 b8 3c
       0.044659887 0.02839104 0.008887163 0.022571933
000340 a6 20 03 3d e9 fb da 3d bf 5a 16 3e ce a2 04 be
       0.032013558 0.10692579 0.14683054 -0.1295273
000350 29 be a8 bd 1b 4b 8d bc 83 fb 77 bd e2 3a 28 3e
       -0.08239395 -0.017247727 -0.060542595 0.16428712
000360 bb 82 6f bd 63 e0 98 3c 21 2c e3 bd 85 60 31 3d
       -0.058474284 0.018661683 -0.11092401 0.04330494
000370 a6 62 8b 3b a6 12 16 be cb 69 9e 3c 27 70 d1 3b
       0.004253703 -0.14655551 0.019337555 0.0063915434
000380 2d f0 38 3e 26 a9 70 bd 3a ad 9a 3d 7a c0 0b 3e
       0.1806037 -0.058755063 0.075525716 0.13647643
000390 40 75 30 bd a8 69 0a 3f bc a4 fb be c9 98 4a 3d
       -0.04308057 0.5406747 -0.4914912 0.049462114
0003a0 a3 cd 24 bf 21 98 bc 3e 30 ce 15 bd 5a 70 c6 bb
       -0.64376277 0.36834815 -0.03657359 -0.006055874
0003b0 6c 69 06 ba dc da 12 bb f6 fb 80 3d fc df 7c bd
       -0.00051274034 -0.0022408282 0.06298058 -0.061737046
0003c0 9f 1b 25 3d 23 ad 2e bb fd 11 c6 3d 9b 25 80 3c
       0.040309545 -0.002665349 0.096714 0.015642932
0003d0 de cf 00 3e ca 5d f3 3d 72 69 95 3b 27 9e 8f bd
       0.12579295 0.11883123 0.004559689 -0.07012587
0003e0 ff 67 97 bb 64 a4 01 be 58 28 cc bc fb 22 48 bd
       -0.0046205516 -0.12660366 -0.024921581 -0.048861485
0003f0 c0 e0 8a be 69 aa 10 3e 5d 72 83 3e a4 a3 2e be
       -0.27124596 0.14127506 0.2567319 -0.17054611

conv1.bias f4 [32]
000000 8f 1d 23 bd e0 38 02 3e b0 41 17 3e cc 2a 9c 3c
       -0.03982311 0.12717009 0.14771152 0.019063376
000010 30 e8 05 be 81 16 01 3c ae fe fd 3b d8 f6 e6 3d
       -0.13076854 0.0078789005 0.0077513075 0.112775505
000020 ff 82 9c 3d f3 bd a7 bd b7 01 a3 3e e0 ca ed 3a
       0.07642173 -0.08190527 0.31837246 0.0018142127
000030 2c dc d5 bd 24 a8 d8 bc 77 f7 26 3c fe 47 78 3e
       -0.10442385 -0.026447363 0.010190836 0.24246213
000040 2c 9a 38 bd 80 8a 83 3e 4a 36 ea 39 6c c9 26 3d
       -0.045068905 0.25691605 0.00044672407 0.040719435
000050 0c 2b 91 3e 4d ec 7a bc a4 37 7b bd ee 54 0c 3d
       0.28353155 -0.015315128 -0.06133236 0.034260683
000060 2d d4 ab bc 93 ed 4c 3e c5 7c 8a 3e f1 58 9c bc
       -0.020975197 0.20012502 0.27048317 -0.01908538
000070 a8 d0 3a bd 45 26 cc bd 5d 78 0c 3e b3 be 03 be
       -0.045609146 -0.09968237 0.1371779 -0.12865715

conv2.weight f4 [64, 32, 3, 3]
000000 1b d1 f5 3d 6d ee c3 3d 94 5a 1f 3e 19 c8 cd 3d
       0.12002774 0.095669605 0.15561897 0.10047931
000010 e3 d8 64 3b af e3 e4 3d 48 c0 94 3c 5c e1 19 3d
       0.0034919314 0.1117624 0.018158093 0.037568435
000020 28 25 72 3d f3 62 13 3e 6b 8c 08 be 87 eb 3d bd
       0.059117466 0.14393215 -0.13334815 -0.046367195
000030 a2 24 7b bc bd 05 04 bb 6c f3 2f be 2b ee 01 3b
       -0.015328558 -0.0020145022 -0.17182702 0.0019825797
000040 49 af 5b 3d b2 bf 23 3e f1 dd 2b bc 38 33 a2 bc
       0.05363396 0.15991095 -0.010489927 -0.019799814
000050 5d 60 ce 3d 09 0b b7 bd c6 66 f8 3c 5d ed 37 bd
       0.100769736 -0.08937652 0.030322444 -0.0449041
000060 e9 d4 1e bd 2f 99 a9 bd 82 d5 2f bd 75 15 8e 3d
       -0.038777266 -0.082811706 -0.042928226 0.06937686
000070 a4 a3 89 3d a2 fd 78 3b af e7 58 3c 1e cb dc bd
       0.06720665 0.0037992974 0.013238831 -0.10780929
000080 ad 97 ea 3d 43 61 32 be 4f c3 ef 3d 97 73 fa bd
       0.11454711 -0.17419915 0.11707174 -0.12229078
000090 16 c3 04 3d cf f1 83 3c 09 57 c0 3c 77 a6 9a 3c
       0.03241261 0.016106514 0.023479002 0.018878205
0000a0 85 42 b8 bb 41 1f d8 3c c9 dd 25 bd ad a3 6b 3c
       -0.005623164 0.02638209 -0.040494714 0.014382285
0000b0 25 30 14 3d 03 0d 5b bd fe 69 08 bd 4b 11 c9 3c
       0.036178727 -0.053479206 -0.033304207 0.024544379
0000c0 8e 44 b9 3c 70 b4 dc 3d a8 5d e9 bd 16 1a 21 bd
       0.022615697 0.10776603 -0.11394817 -0.039331518
0000d0 e5 6a 60 bc 1c e0 ef bd 40 8a c1 3d cf 45 5e bd
       -0.013697361 -0.11712667 0.09450197 -0.054265793
0000e0 72 17 0f bc 80 52 15 be b4 dd ee 3d 8f 6c 14 3d
       -0.008733617 -0.14582253 0.1166338 0.036236342
0000f0 fe 87 91 3d a5 19 f7 3d 1a e5 85 3d a0 da 2e bd
       0.071060166 0.12065438 0.06537838 -0.042688966
000100 35 c0 21 be 4e f7 ab 3d 5c 29 a8 3d a5 46 dc 3d
       -0.15795977 0.08396779 0.08211014 0.10755662
000110 a4 ba 42 be ec 3a 73 3e 95 3b 27 3d 5a 58 e6 bd
       -0.1901651 0.23752946 0.040828306 -0.112473205
000120 1d e7 4c bd f0 9b 9f 3d 00 4b 8c bd 7c 70 a8 3d
       -0.050025094 0.077934146 -0.068502426 0.0822458
000130 c5 8d 8d 3d e4 a6 2f bd ce 45 8c bd e9 c9 10 3e
       0.06911806 -0.04288377 -0.06849252 0.14139523
000140 a2 5d 04 3e 11 b1 51 bd d7 1f f9 3d 4b 5c 04 bd
       0.12926343 -0.051194254 0.12164276 -0.03231458
000150 7b 1c 50 bc c8 36 90 bd f9 3b 8e 3d 9f 09 7b bd
       -0.012702103 -0.07041699 0.069450326 -0.061288472
000160 bb 17 f7 3d 7f b6 71 3d 7e 80 3a 3c 3d b5 c3 bd
       0.12065073 0.059011932 0.011383174 -0.09556053
000170 e2 fd 01 3d ab ec d0 3d d7 56 5e bd e4 fe 33 bd
       0.031736262 0.10201391 -0.054282036 -0.043944255
000180 c7 24 2d 3d 5f 90 b5 3d 43 44 e7 3d ac ed 35 bc
       0.0422714 0.08865427 0.11292317 -0.011104029
000190 f9 1b dc bd a5 5a e0 3c 6a a8 d1 3c 08 f3 d2 3c
       -0.10747523 0.027386973 0.025593001 0.025750652
0001a0 bb 11 af 3d ac 0d 76 bd 2e 0b 79 bc 9e c7 ee 3b
       0.08548304 -0.060071632 -0.015200419 0.00728698
0001b0 51 ab 97 bc e5 11 87 bb 8e 24 ad bc 6e b9 72 3d
       -0.018514307 -0.0041220062 -0.021135595 0.05925887
0001c0 aa 9d 08 be 38 4b a9 3d 0d 07 cc bd 05 c3 5d 3c
       -0.13341394 0.082663 -0.09962282 0.013535266
0001d0 82 2b a2 3c 84 5f 86 bd 14 5c 0e bc a3 33 11 3d
       0.019796137 -0.06561187 -0.008688945 0.035449635
0001e0 0c df 2d 3e 5e 1f fd bc f6 0b 56 bd 39 84 27 3e
       0.16979617 -0.030898746 -0.0522575 0.16359033
0001f0 c1 e3 94 bd 92 39 00 3e 7d 43 3e bd a3 ab 59 3e
       -0.07270003 0.12521961 -0.04645108 0.2125688
000200 33 29 02 3e 96 b6 e9 bc d5 52 7d 3d 6b e2 b6 3d
       0.12711029 -0.028529447 0.061846573 0.089299046
000210 c5 0f 8f bc 5d 38 3e be cd 94 c7 bd e9 b1 f8 bb
       -0.017463574 -0.18576188 -0.09745178 -0.007589568
000220 f7 a8 3c 3d 93 8c 0f bc ff 65 e3 3c a5 e1 2b bd
       0.046059575 -0.008761543 0.027758596 -0.04196324
000230 1e a9 a8 3d ef 87 dd bd af 2d 90 3d 16 5d a4 3d
       0.082353815 -0.10816943 0.070399635 0.08025567
000240 1e c0 7f bd 89 b9 95 bd 77 0d e2 bd 2a 29 e0 bc
       -0.062439077 -0.07310779 -0.110377245 -0.027363379
000250 e2 89 26 3d 5c b3 15 bc 00 0b 43 3d b1 43 4c 3e
       0.04065884 -0.009137001 0.047617912 0.19947697
000260 dd fc 07 3e 02 ea 70 3d 3f e9 6d 3d d9 70 ad bd
       0.13280053 0.058816917 0.05808377 -0.084687896
000270 3e dc 35 3c bf f9 61 3b 20 55 82 bd b6 bb d8 3c
       0.011099873 0.0034481136 -0.063638926 0.026456695
000280 2c 69 ce bb 5f 9a 7b 3d f5 ca 24 bd e7 bc 05 3d
       -0.0062991586 0.061426517 -0.040232617 0.032650854
000290 75 b3 15 bd 7d e8 20 3e aa ea 2b 3e fb 6c 44 bd
       -0.036548097 0.15713687 0.16788736 -0.047955494
0002a0 d9 74 82 bd 37 bd ae bc dc 05 0c be 74 74 fb bd
       -0.06369943 -0.021330459 -0.1367411 -0.12278071
0002b0 04 89 22 3d d3 af 2b 3c 31 a3 87 3d ae 50 18 bd
       0.03968145 0.0104789315 0.06622923 -0.037186317
0002c0 ce 5c 8d bc 48 06 20 3d d5 29 6e 3a d4 39 68 be
       -0.017256167 0.03906849 0.0009085213 -0.2267831
0002d0 d0 ca b1 bd a4 78 1d bd a4 6d fe bb f5 e6 b7 3d
       -0.086812615 -0.03844513 -0.007764535 0.089795984
0002e0 4b b1 da bd ba 78 e3 bd 61 ec 57 3d df 3d 44 bd
       -0.10678347 -0.11107011 0.052715663 -0.047910567
0002f0 e3 a7 29 3d 2f c2 4e 3e 7c fe 1a 3e fa 75 d7 3d
       0.041419875 0.20191263 0.1513614 0.10520549
000300 be b4 e5 bc e6 f7 56 39 8a f8 b2 bd 61 92 3a be
       -0.028040286 0.0002050098 -0.08738811 -0.18219902
000310 42 f7 bc be e6 67 9a 3d cf e6 f2 3d c1 11 ed bc
       -0.36907393 0.07539348 0.118604295 -0.02893913
000320 10 b8 e8 bb 24 99 da 3c 68 01 65 bc 37 cd 9b 3c
       -0.00710202 0.026684351 -0.013977386 0.019018753
000330 19 bf f2 bd 8d 14 9a bd 15 50 8e 3d eb 7a 85 bc
       -0.11852855 -0.07523451 0.06948868 -0.016293963
000340 f7 05 af 3d a7 49 9c bd 2d b3 01 bd b2 0f 90 3d
       0.085460596 -0.076312356 -0.031665016 0.07034244
000350 34 ff 40 3d bb f7 98 bd 0b 8d 6a 3d 3f 38 3c be
       0.04711838 -0.07469126 0.057263415 -0.18380831
000360 61 6f 8b 3c 39 ff 3a 3e fa ce d7 bc ac 5e f1 3d
       0.017020883 0.18261422 -0.026343811 0.11785635
000370 27 aa 0e 3d e0 79 63 bd 6c c0 49 3d 57 48 c1 bd
       0.03483024 -0.05553615 0.049255773 -0.09437626
000380 c5 8e 68 bd b9 98 1a bd 43 72 a2 3c da 61 19 bd
       -0.05677678 -0.037743304 0.019829875 -0.037446834
000390 6e 91 ed bd 4a b0 1b bb 6f d5 03 3e e3 87 47 be
       -0.11600004 -0.00237562 0.12874387 -0.1948543
0003a0 5e 0f 4c 3d a6 fc 6b 3e a6 61 aa bd a6 1c 82 3d
       0.049819343 0.23045596 -0.08319406 0.063531205
0003b0 25 c2 c4 bc 41 dd 50 3d 21 1a 94 bc a4 d5 c8 bb
       -0.024018357 0.050992254 -0.018078865 -0.0061289836
0003c0 c1 66 9e bd 98 74 72 be 36 46 bb 3d a6 14 be 3b
       -0.077344425 -0.2367729 0.09144251 0.0058008013
0003d0 5c fd 4d bd 7c 70 02 bd a3 21 95 3d cf c8 f3 bc
       -0.05029045 -0.031845555 0.07281806 -0.029758839
0003e0 34 74 6b 3c da f5 a0 3d 60 1f 60 3c a8 dd 91 3d
       0.014370967 0.078593925 0.013679355 0.07122356
0003f0 fd 6b 96 3c 6f 25 0a 3d 6a 9c 13 bd 86 a0 81 bd
       0.01836204 0.033727106 -0.03603784 -0.063294455

conv2.bias f4 [64]
000000 9f c8 60 bd 5e bd 8b 3d ba c2 e5 bc 81 be 15 bd
       -0.054878827 0.06823228 -0.028046954 -0.03655863
000010 46 b0 ee 3d 74 22 32 bd f5 70 90 3c 7d 02 63 bc
       0.11654715 -0.04348989 0.017631987 -0.013855574
000020 04 e1 20 3b 3f 6d b3 bb 43 c1 0d 3d 14 62 31 bc
       0.0024548182 -0.0054756696 0.034608137 -0.010826606
000030 87 40 6b 3d 61 5e 15 3d 7f b3 44 bd cc 35 0a 3d
       0.057434585 0.03646696 -0.048022743 0.03374271
000040 33 f5 05 3d a9 ff 32 bd a9 a2 84 3c 72 74 de 3d
       0.032704543 -0.043700848 0.016190844 0.10862054
000050 0d 83 2d 3b 03 95 69 3d 93 00 2b 3d 19 34 91 bd
       0.0026475817 0.057026874 0.041748594 -0.07090015
000060 8f c2 09 3d 3c e9 31 3d a7 43 35 3d 2a 84 b4 3d
       0.03363281 0.04343532 0.04425397 0.08814271
000070 4d a4 c4 3c 9f e7 6d 3d 5a 73 49 3d e1 d5 09 3d
       0.024004126 0.05808222 0.049182273 0.033651236
000080 43 4b c6 3c da 6e a3 3a c7 05 e6 3b c2 23 0e bd
       0.02420581 0.001246895 0.0070197317 -0.03470207
000090 5b 16 17 3d b9 d6 44 3c 24 53 82 3d 15 57 e7 3d
       0.036886554 0.0120140845 0.06363514 0.112959065
0000a0 05 43 c6 3d 5d a7 9f bc 6b ea 8e bd c3 60 98 bd
       0.09680752 -0.019488985 -0.069783054 -0.07440331
0000b0 33 57 52 3d 1a dd 55 bd 7d 2a bd 3c c1 c3 3a bb
       0.05135269 -0.052212812 0.023091549 -0.0028498026
0000c0 8e 51 55 3d f6 bc 0e bc c9 e0 76 3c f5 2e f4 3b
       0.05207973 -0.008712044 0.015068241 0.007451887
0000d0 11 b4 5b 3d 37 65 9b 3d e9 0a 9a bb 60 3c 1d 3d
       0.05363852 0.075876646 -0.0047010076 0.038387656
0000e0 f6 cc 14 3c 79 e7 c0 bc 7d a4 c7 3c db b7 76 bc
       0.00908207 -0.023547875 0.024370426 -0.015058483
0000f0 cd 71 b8 3c 89 16 2d bd 03 3a 6f bd 11 92 a6 3b
       0.022515202 -0.04225782 -0.058404934 0.0050833304

conv3.weight f4 [128, 64, 3, 3]
000000 43 e1 c0 ba 9f 06 47 bc 86 f5 16 3c 92 fb d1 bc
       -0.0014715571 -0.012147575 0.009213811 -0.025632653
000010 1b 5f 94 bd 2e 1e 08 3d e5 13 b8 3c ce 25 11 bd
       -0.072447024 0.033231907 0.022470424 -0.035436444
000020 3b 26 89 3d 79 76 2a 3d 69 d2 8e bc f6 5d 37 bb
       0.06696745 0.04161689 -0.017434316 -0.002797959
000030 2a 6d 58 3b a2 21 15 3c d9 4e 1c 3c 38 e8 f8 bc
       0.0033024051 0.009102257 0.009540283 -0.030384168
000040 7b eb b5 bc 9a dd f5 bc 54 a1 42 bd b7 b0 98 bd
       -0.022207012 -0.030012894 -0.047517136 -0.07455581
000050 03 8e ba bd 1f b1 f4 bb 04 8a de 3d 3a 42 35 3c
       -0.09109118 -0.0074674035 0.10866168 0.011063153
000060 bf 47 1e bd 13 c5 e2 bc 55 df 65 bd 02 fe 01 3d
       -0.03864264 -0.027681863 -0.05612119 0.03173638
000070 47 3f 97 3c 30 bb 2e 3d c6 42 3a 3d 98 2f 15 bc
       0.01846279 0.042658985 0.045473836 -0.0091055855
000080 c5 a7 92 3d bf e8 8c ba fe f8 5f 3d 53 76 85 3a
       0.07160906 -0.0010750516 0.054680817 0.0010182358
000090 82 d5 90 3c c2 bf 5b 3d ad de df 3c 90 80 12 bd
       0.017679933 0.05364967 0.02732786 -0.035767138
0000a0 1d 79 9a bc 2e 09 40 3d 6c 91 2e bd 89 3d 6f 3c
       -0.01885658 0.046883754 -0.042619154 0.0146020735
0000b0 f0 6f 74 3c 59 12 e2 3c 4b 68 83 3d 7b b5 e4 3b
       0.014919266 0.02759664 0.06416377 0.006979642
0000c0 74 9f 1f 3d 0b 8a 4a 3d e8 eb cc 3c 9f a0 56 3d
       0.038970426 0.049448054 0.025014833 0.052399274
0000d0 22 ad 82 3d 22 c2 6d 3d 7c a1 ac bc aa a4 af 3c
       0.06380679 0.058046468 -0.021073096 0.021440823
0000e0 6d 6f 0e 3b a8 ab 44 3c 3b 8d 78 3d 2b 4b aa bc
       0.0021733895 0.012003817 0.060681563 -0.020787796
0000f0 f4 4e 8f 3d f6 d1 4f 3d 3e e0 24 3d 86 a4 54 3d
       0.06997481 0.050737344 0.040252917 0.051914714
000100 36 5f 44 3c 1a 50 b3 3c 82 10 8f 3d 41 07 4c 3c
       0.011985591 0.021888781 0.069855705 0.012452901
000110 98 06 5f 3c 30 10 84 3b d4 61 ca 3c b3 f4 fa 3c
       0.013612412 0.00403025 0.024704851 0.03063426
000120 4a 13 c1 3c f5 7b 41 3c df 10 e2 bc 77 1f 35 ba
       0.023568768 0.011809339 -0.027595935 -0.00069092907
000130 3a a5 5b bc 43 02 41 bd dc 66 24 3d 22 0f 1d 3d
       -0.013406092 -0.047121298 0.040137157 0.03834451
000140 f1 79 d6 bb 29 37 5f 3d 12 71 3e 3d df 90 b7 3c
       -0.0065452983 0.054495964 0.04649455 0.022407947
000150 e3 e1 4c 3c dc a0 b3 3c 32 6e 89 bb 6a 0f 8f 3d
       0.012505027 0.02192729 -0.0041940445 0.06985362
000160 68 d6 77 ba 77 cd ac 3c e6 2b 30 3d a8 e4 25 bd
       -0.0009454251 0.021094067 0.043010615 -0.040501267
000170 0d b8 3f bb ec d8 91 bb 9e 53 6b bd 74 5d 8e 3c
       -0.002925399 -0.004450908 -0.05745279 0.017378546
000180 15 6e 0b 3d 73 b5 3a 3d 53 f0 c7 3c 5c 6c 6c 3d
       0.03404053 0.0455832 0.024406588 0.057720527
000190 77 8c 0a 3d a3 e4 f1 3d 97 52 0d 3a cd 27 81 3d
       0.033825364 0.11811187 0.000539103 0.063064195
0001a0 ac 8e 8a bc 4f 04 08 3d 47 b9 5a 3d 50 6c f2 3c
       -0.016913734 0.033207234 0.05339935 0.029592663
0001b0 5e 24 df 3b 6b d7 a3 3c d6 14 a4 bb 90 63 68 3d
       0.006809755 0.02000018 -0.0050073666 0.056735575
0001c0 2b 33 1e 3c 7e f4 15 3d 7e a7 eb 3c 32 4e d4 3c
       0.009655754 0.03661012 0.02876639 0.025916193
0001d0 9c 0d 00 3d 43 35 34 bc 1a d2 54 bb e2 25 bb bc
       0.03126298 -0.010999027 -0.0032473863 -0.022845212
0001e0 3f 6b 30 bd a8 2f 2a 3c 95 79 0d bd 5e 59 37 3d
       -0.043071028 0.010387339 -0.034539778 0.04476296
0001f0 9c c0 85 3b d4 cd 26 3d c2 57 95 3d 0f 4c d8 3c
       0.0040817987 0.040723637 0.07292129 0.026403455
000200 51 61 29 3d c8 9e 96 3d 37 54 b0 3d a0 b5 30 3d
       0.041352574 0.07354504 0.08609813 0.04314196
000210 7b b4 81 3d 76 02 13 3d 5b 49 19 3d c4 f2 1c 3d
       0.06333252 0.03589102 0.037423473 0.038317457
000220 fb 50 39 bc 59 42 15 3d 38 13 6a 3d 63 99 d0 3b
       -0.011310811 0.036440227 0.057147235 0.0063659414
000230 99 cf 69 bd 8e 19 6c bc 70 04 ea 3c e4 f8 c1 bb
       -0.057082746 -0.01441039 0.02856657 -0.0059195627
000240 f9 cc 8d 3b 0c cd 6f bc eb 69 39 3d fb de 9d 3c
       0.004327413 -0.014636289 0.045267027 0.019271364
000250 6b 9c 2c 3c 60 68 79 3d d2 23 83 bc 69 ce a4 3d
       0.01053534 0.060890555 -0.016008291 0.08047182
000260 56 0a 67 bd f3 a1 d6 3d 32 79 de bd 04 82 90 3d
       -0.05640634 0.10480108 -0.1086296 0.070560485
000270 6d c7 a4 3b 24 40 49 bd 8b 0c 05 3d 87 df 00 3e
       0.005028656 -0.049133435 0.032482665 0.12585269
000280 2c e6 ac bd 2f 81 dc 3d 4a 4e 10 bd 71 71 1e 3d
       -0.08442339 0.10766827 -0.035230912 0.038682405
000290 8b 8e 5d 3d db b4 ba bc 94 87 db bd db 0f a4 3d
       0.054091018 -0.022791317 -0.10719219 0.08010837
0002a0 33 29 e6 3c 2a 54 62 3d 59 88 92 3c c9 16 e0 3a
       0.028095817 0.055256046 0.017887281 0.0017096634
0002b0 2e 8f 82 3d 19 ef 02 bc a0 7e 54 3d 81 c8 23 3d
       0.063749656 -0.007991576 0.05187857 0.039986137
0002c0 35 00 d8 3c 5d a0 a6 3c 69 ad 7e 3d c1 13 d8 bb
       0.026367286 0.020340139 0.062177096 -0.0065941517
0002d0 e3 78 6d 3c 20 59 14 bd a2 c4 1f 3d 4e ed 3b bb
       0.014494154 -0.03621781 0.039005883 -0.002867538
0002e0 d3 55 18 bd ee 36 05 3d 45 c7 9b bc cc fa dd bc
       -0.037191223 0.03252309 -0.019015918 -0.027097128
0002f0 4c d1 87 bc 16 96 31 3d 17 f9 64 3d ce ec 0f bd
       -0.016579293 0.043356024 0.055901613 -0.035137944
000300 21 47 1e bb 15 5d 69 bc a7 5f 70 3d 75 8d 8c bd
       -0.0024151283 -0.014243384 0.05868497 -0.06862918
000310 c1 d3 7b 3c c8 fc 50 3d f7 2f c1 3c 0f b5 89 3d
       0.01537031 0.05102232 0.023582442 0.06723987
000320 b5 60 93 bd 6d 0b f8 bb b6 05 c1 3c fc 9c 6a bd
       -0.0719618 -0.0075697214 0.023562293 -0.05727862
000330 83 54 93 bc 5c 4c e5 3d b8 c7 88 bd 44 1c 69 bd
       -0.017984634 0.11196205 -0.06678718 -0.05691172
000340 ed e0 8d bc f5 b4 1d 3b e7 7f 50 3d 4f 32 2d 3d
       -0.017319167 0.0024064158 0.050903227 0.042284306
000350 53 e1 34 3b 3e 47 36 bb 6f 94 3b 3d 43 db 96 bd
       0.0027600124 -0.002781346 0.045795854 -0.073660396
000360 6f 2d 8f bc c1 70 04 3d 41 88 f5 bb e3 72 cb 3c
       -0.01747772 0.032334093 -0.0074930494 0.024835056
000370 d2 4f 87 ba 2e 6f 9e 3c bb 6b 76 b9 75 7b 04 bc
       -0.0010323471 0.019340124 -0.00023500521 -0.008086075
000380 b3 1b 2b 3d 04 ec 21 bc 0a b8 10 3c 48 91 20 3b
       0.041774463 -0.009882931 0.008832941 0.0024500657
000390 cf 96 48 3d 85 3b e5 3c ca 29 ae 3c ed 66 0c bc
       0.048971947 0.027982483 0.021260161 -0.008569461
0003a0 3d c4 0c 3d 7f c3 04 3d af 85 7f ba ae e7 e9 3d
       0.034366835 0.032413002 -0.00097473984 0.114211425
0003b0 5f a2 b5 3c d6 14 5a bc 60 fd 36 bd 8c 78 65 3d
       0.022172151 -0.013310632 -0.04467523 0.056023166
0003c0 02 e6 59 bc 10 7f 85 3c 8f ea 1b bc 84 cb 09 3d
       -0.013299467 0.01629594 -0.009516372 0.033641353
0003d0 05 8b 91 bc 07 26 de 3c d9 98 53 3d c2 b3 1a bc
       -0.017766485 0.027117742 0.05165944 -0.009442272
0003e0 62 29 b6 bc bb 47 8a 3c 01 7f 23 3d 2f ea 14 3d
       -0.02223653 0.016879907 0.039916042 0.036356147
0003f0 13 1d 0d bc bd eb af bd ea f6 68 bc 9b 37 1d bc
       -0.008612889 -0.085898854 -0.014219025 -0.009595777

conv3.bias f4 [128]
000000 62 86 4a 3c 66 37 ee 3c 9b 57 e5 bc 34 a6 55 bc
       0.012361141 0.02907915 -0.027995875 -0.013040114
000010 16 2b 17 3c 17 31 4a 3d 7e a6 8f 81 c5 16 2b b4
       0.009226581 0.049363222 -5.276881e-38 -1.59339e-07
000020 e9 b5 11 bd d9 28 4b 3c 84 fe 47 3d 56 5f 33 3c
       -0.035573874 0.012399876 0.04882671 0.010948023
000030 57 a8 d7 3c f4 ca 6a 3b e0 45 12 bc 1c d0 45 3c
       0.026325388 0.0035826536 -0.008927792 0.012073543
000040 fc af 06 bd a1 a1 fc 3b 62 e9 4f a1 71 cf 6a 99
       -0.032882676 0.0077096974 -7.044321e-19 -1.2139409e-23
000050 34 a7 ec 3c 2e ce c1 3b 6b c1 89 ba 60 a9 3b bd
       0.028888322 0.005914471 -0.0010509914 -0.045815825
000060 ef 6a 4e b3 24 75 4a bd a4 b9 90 0a 21 1d 56 a7
       -4.8060368e-08 -0.04942812 1.3936526e-32 -2.9714257e-15
000070 ab e5 3e 3c 32 08 3e bc 26 38 09 b6 b0 98 8f 3c
       0.011651437 -0.011598634 -2.0447274e-06 0.017528862
000080 55 58 45 3c d7 20 ed bc 23 7a 71 3c 9d cb 8f 3c
       0.012044986 -0.028946323 0.014738592 0.017553145
000090 a8 cc 24 bd d6 9f e3 bc a6 e0 97 b5 bd 20 24 ae
       -0.040234238 -0.027786177 -1.1315758e-06 -3.731836e-11
0000a0 6f 86 7a bd 5d 23 c5 bb b4 24 66 3d 17 68 05 3b
       -0.061163362 -0.0060161785 0.056187347 0.0020356232
0000b0 29 3f 1e bb 53 22 c5 3b 23 9b a2 3c 39 d5 80 ba
       -0.0024146533 0.0060160547 0.019849366 -0.000982917
0000c0 c6 9d 7a bc f5 75 ee 3c 56 05 c2 bb 33 19 84 3c
       -0.015296405 0.02910898 -0.0059210462 0.016125297
0000d0 9e d6 00 bc d2 77 6e bb 75 a1 1b a8 2f 9a 05 bc
       -0.007863669 -0.0036387336 -8.639239e-15 -0.008154436
0000e0 b4 61 1f bb 48 2f c3 bc 45 d5 7b 3c 9b 76 9f 3c
       -0.002431971 -0.023826256 0.015370672 0.019465735
0000f0 aa 3d 1f 3d a4 9c 39 bd c0 19 f1 3c 4a 24 7b 39
       0.038877167 -0.0453154 0.029431224 0.00023950744
000100 cb 0e 9b 3c d8 3f a2 3d 17 de 31 3c 28 a9 79 3c
       0.018927952 0.079223335 0.010856173 0.015238084
000110 42 16 86 bc aa d8 3a bb db 12 98 3c c3 d4 d9 bc
       -0.016368035 -0.002851049 0.018563678 -0.02659071
000120 08 37 f3 ba 21 a0 38 3d cf 4a 6b bd 22 71 ab bc
       -0.0018555829 0.045074586 -0.05744439 -0.02092797
000130 ec 6b 7c bc 7f af da a9 18 3c 32 3c 54 54 35 bc
       -0.01540659 -9.7115885e-14 0.010878585 -0.011067469
000140 49 84 7b 3d bd a5 3b 3d f5 4f a1 bb d9 80 29 3c
       0.061405454 0.045812357 -0.0049228617 0.010345661
000150 25 8d 92 3d 66 40 0f 3d a6 39 e7 bc 6c 7a dd bc
       0.071558274 0.034973525 -0.028225731 -0.027035914
000160 ac 77 29 bd eb 5d 97 bc 94 31 6a 3c c2 3c ad bd
       -0.041373894 -0.0184774 0.014294047 -0.08458854
000170 e0 8f ac bb bf f2 6e 3d f1 47 9e 3c 20 28 70 3c
       -0.0052661747 0.05833697 0.019321414 0.014658004
000180 04 8b 70 9b cb bf 94 3b 69 14 8d 9b d1 5e 30 bd
       -1.9897253e-22 0.004539465 -2.3339683e-22 -0.043059174
000190 98 f7 6d bd f8 0c 91 bb f9 80 a4 a4 74 65 82 3d
       -0.058097452 -0.004426595 -7.134215e-17 0.06367007
0001a0 21 41 70 3d 36 49 63 39 80 74 62 3d 6a 61 47 ae
       0.05865586 0.0002167568 0.055286884 -4.5333882e-11
0001b0 b0 fd 89 b6 04 9d 50 ba cd 03 10 3d 89 c9 b1 bc
       -4.1124513e-06 -0.00079579675 0.035159875 -0.021702545
0001c0 a7 4d fe 3c 81 c9 b6 3c 95 a9 0f 3d 2b 7a 12 bb
       0.031042887 0.022312881 0.035073835 -0.002235065
0001d0 fc 6c b4 3c f5 f2 95 bc e7 d5 2c b4 f0 d3 05 3a
       0.022024624 -0.018304328 -1.6096566e-07 0.00051051285
0001e0 3c 87 61 3c ec c4 e3 bb d8 c4 c0 bd 51 fc 2e a2
       0.013765153 -0.006950965 -0.09412545 -2.3714972e-18
0001f0 4a 5b 9a 3d 51 66 05 3c 33 b4 14 bd 15 e1 86 3b
       0.07536943 0.00814207 -0.036304664 0.0041161873

act_conv1.weight f4 [4, 128, 1, 1]
000000 32 c5 9c 3c 7d b3 01 3e 34 b7 f5 bd 43 37 54 3d
       0.019136999 0.12666126 -0.11997834 0.051810514
000010 ad 90 01 3e 1a 2d d8 bd 7d ac 50 3b a9 da 82 3a
       0.12652846 -0.105554774 0.0031841092 0.0009983379
000020 c2 1b bc bd 4e a1 fe 3d 04 e0 43 bd 82 65 9d 3d
       -0.09184982 0.1243311 -0.04782106 0.07685377
000030 19 be 86 3d 51 53 b8 bc 46 da 37 bd 71 9d 32 3c
       0.06579227 -0.022500666 -0.044885896 0.010901795
000040 c2 0d 8b 3d bf 74 08 3e a5 4b ac 38 d2 89 00 80
       0.067897335 0.13325785 8.215689e-05 -4.944e-41
000050 86 4c ad 3d f5 47 98 3d 86 fc e1 3d de 02 5c 3e
       0.08461861 0.074356 0.11034493 0.21485469
000060 c2 8a 00 80 0b 71 77 bd 74 64 21 ba 7a 89 00 00
       -4.9777e-41 -0.06041054 -0.0006156631 4.9317e-41
000070 26 b2 bd 3c a1 e4 73 3d af 54 84 b8 91 4b 05 3d
       0.023156237 0.05954421 -6.310024e-05 0.03254277
000080 c4 61 79 bd be 92 b7 3b 6d e8 93 3e ce a5 3f 3d
       -0.060884252 0.00560221 0.28888264 0.046788983
000090 71 4e f0 3d 4a 17 c8 bd 54 77 c8 39 c1 88 00 00
       0.117337115 -0.09770067 0.0003823588 4.9058e-41
0000a0 28 54 d4 3d 6a 0e 8c 3d ea 58 d3 3d 37 d7 38 be
       0.10367614 0.06838687 0.103196934 -0.18050848
0000b0 5c 41 1a be d4 17 06 3d 8c d3 99 3d 82 a6 21 3b
       -0.15063995 0.032737568 0.075110525 0.0024665897
0000c0 48 c6 18 3e 28 f2 b7 bd 44 6a 5d 3e c8 d9 a4 3e
       0.14919388 -0.089817345 0.21622568 0.32197404
0000d0 a4 cc 9f 3d ce e5 fd bc f0 88 00 00 42 a1 f1 bc
       0.07802704 -0.030993368 4.9124e-41 -0.029495839
0000e0 59 8c 63 bd db bb 72 bd c9 8c 8d bd 93 97 ec bc
       -0.055553768 -0.059261184 -0.06911618 -0.02888087
0000f0 6b fc a3 bd 23 99 d0 bc b0 13 2f be 44 9d bf 3b
       -0.08007129 -0.025463646 -0.17097354 0.005847605
000100 ff 2b 00 3e 12 92 91 3e 7b 53 d5 3b 4c dd 12 3e
       0.12516783 0.28431755 0.006510196 0.1434223
000110 9f c3 00 3e 8d 8c e5 bd ec ec 05 3e 72 a6 1e 3e
       0.12574624 -0.112084486 0.1307866 0.15493181
000120 4b 69 f6 bc b2 c3 e2 bc a7 78 a3 3c ef 0e 07 3e
       -0.030079504 -0.027681205 0.019954992 0.1318929
000130 46 5a 95 3d 33 78 45 92 fb 67 ae 3c 19 07 a2 3e
       0.07292609 -6.2310396e-28 0.021289816 0.3164604
000140 25 2e 6e 3c 46 f5 92 3d d8 fd 12 37 5f fb 25 bd
       0.014537369 0.071756884 8.761381e-06 -0.04052293
000150 a7 d2 fb bd cb 4b eb 3d 99 b1 75 3d 97 35 86 bd
       -0.12296038 0.11489066 0.059983823 -0.0655319
000160 ed 1c 82 3d 9b 5e b8 3d 7b ee a9 3d 57 67 bd bd
       0.063531734 0.090024196 0.0829744 -0.09248226
000170 b3 85 0d ba 3f 28 9d 3b 33 1c 1c bd db 64 9d 3d
       -0.0005398646 0.0047960575 -0.03811283 0.07685252
000180 87 8a 00 80 64 21 19 3e f7 bb 62 b8 06 77 3e be
       -4.9694e-41 0.14954144 -5.4057655e-05 -0.18600091
000190 75 7a b8 bc af 35 e1 3d ae 7e 89 b7 95 20 e3 3b
       -0.02251933 0.109965675 -1.6390662e-05 0.0069313743
0001a0 1e ca 00 be 66 34 f0 bc 84 dd f0 3d 20 8a 00 80
       -0.12577102 -0.02932186 0.11761001 -4.955e-41
0001b0 48 6e a1 39 f6 89 00 80 48 bd a3 3d 06 b3 2e be
       0.0003079048 -4.9491e-41 0.07995087 -0.1706048
0001c0 ee 99 15 3d ac 84 f8 3d b5 8e 2e 3e 4e 90 f2 bb
       0.036523752 0.1213468 0.17046626 -0.0074024564
0001d0 af 8e ba 3d 4c 03 a8 bc d1 88 00 80 84 73 93 bd
       0.09109246 -0.020509385 -4.908e-41 -0.07199767
0001e0 9d 0f ab bd 5d 27 86 3e d4 0a 1d bd 5c 89 00 80
       -0.08352587 0.26201907 -0.038340405 -4.9275e-41
0001f0 7c ed 61 bd 57 3b bc bd d2 59 0c 3e a9 c5 1f bd
       -0.055158123 -0.09191006 0.13706139 -0.039006863
000200 50 b5 e5 3c ae 91 32 bd c8 c8 ca 3d 64 e0 76 bc
       0.028040558 -0.043595962 0.09901577 -0.015068147
000210 91 8c b2 3d f0 05 1f bc df d0 8f ba c8 1b 45 b0
       0.08718217 -0.009706005 -0.0010972283 -7.170766e-10
000220 b5 f2 81 be 62 67 89 3c 83 c3 09 3c 66 b9 2e bd
       -0.25380483 0.01677293 0.00840843 -0.04265728
000230 cd 70 e0 bc 21 d9 8c bc a3 62 94 3d 4e 71 2f be
       -0.027397538 -0.017193379 0.07245376 -0.17133066
000240 39 5b 39 be 7d 89 e1 bd f0 89 00 00 73 90 00 80
       -0.18101205 -0.11012552 4.9483e-41 -5.1819e-41
000250 a3 fc 81 3b 7b 37 0f bd 85 48 3b bb 04 cb 50 3e
       0.003966884 -0.03496502 -0.002857716 0.20389944
000260 f2 89 00 80 cc 30 3f 3b 28 de cd b2 b9 88 00 80
       -4.9485e-41 0.0029173372 -2.3966166e-08 -4.9047e-41
000270 0e 6b 8d 3e 15 e4 72 bd aa 79 2f 37 67 ce 1c 3d
       0.2762074 -0.059299547 1.045914e-05 0.038282778
000280 78 bf 32 3d d9 0d fa 3c 70 9e ef 3d 21 ff f6 bc
       0.04363963 0.030524181 0.117001414 -0.030150952
000290 29 df 31 be 71 52 f9 3d 1b 24 8b b4 d3 89 00 80
       -0.17370285 0.121739276 -2.5917038e-07 -4.9442e-41
0002a0 63 aa 17 3d 90 2f 62 be 26 e4 7a 3d 0a 74 b4 3d
       0.037027728 -0.22088456 0.061252736 0.08811195
0002b0 4b 09 9b 3e 6d 73 c2 3c aa b0 18 bd 40 c5 92 ba
       0.30280527 0.02373668 -0.037277855 -0.0011197701
0002c0 9e f4 ca 3d 9c 43 a2 3d 90 4a b7 bb c0 a3 30 3d
       0.09909938 0.07923052 -0.0055936053 0.043124914
0002d0 38 d0 cc bd 6d 87 dd 38 49 8a 00 00 eb 9a 22 b8
       -0.10000652 0.00010563326 4.9607e-41 -3.876809e-05
0002e0 a2 35 20 b5 b7 0a 7f 3d f7 2f 91 bd 7f 0c 99 bb
       -5.968269e-07 0.062266078 -0.07089227 -0.004670679
0002f0 f6 6d f2 3d 33 21 69 be 0f 80 cc 3e e9 b1 95 3b
       0.1183738 -0.22766571 0.3994145 0.0045683277
000300 39 1e f4 3e 94 c1 99 bd e2 5b 9b 3d e8 5e 21 bb
       0.47679308 -0.07507625 0.07585885 -0.002462322
000310 6f a5 8c 3d 68 54 c1 3d fc 61 22 3e 4b 62 32 3e
       0.068674915 0.09439927 0.1585769 0.17420308
000320 22 8e e4 b8 71 44 cf 3a 7e e0 d1 bd 84 ba 13 be
       -0.000108983615 0.0015813244 -0.102478966 -0.14426619
000330 05 ef 67 3e e7 88 00 80 cd 95 8a 3e b8 a1 ab 3d
       0.22649772 -4.9111e-41 0.27067414 0.08380455
000340 c3 72 02 3e ec 60 e6 bc 53 9e 0a 33 3b 44 c3 3c
       0.1273909 -0.028122388 3.2274624e-08 0.023836246
000350 27 61 f9 3c 20 9f de ba de 34 4e bd 69 80 49 3d
       0.030441834 -0.0016984679 -0.050343387 0.049194727
000360 11 64 5c 3e 68 54 93 3d 39 ee 74 3d ae 35 97 3d
       0.21522547 0.071938336 0.0597975 0.073832855
000370 51 db e5 3d 0c d2 cf bc 46 16 d8 3c 1e 92 c5 bd
       0.11223472 -0.025368713 0.026377808 -0.0964701
000380 0a 94 00 00 a8 fd 8b 3d 0d 89 00 00 71 be 85 3d
       5.3106e-41 0.068354905 4.9165e-41 0.065304644
000390 e6 77 1c be bb 40 84 bd f3 88 00 80 ed bf d7 bb
       -0.15280113 -0.06457659 -4.9128e-41 -0.0065841586
0003a0 50 1f a0 3b e0 bb 1f 3e e2 35 16 bd 02 8b 00 80
       0.0048865452 0.15599012 -0.03667248 -4.9867e-41
0003b0 26 89 00 80 0c a9 00 00 ef 6f 71 3d ed 30 5f 3d
       -4.92e-41 6.0643e-41 0.05894464 0.05449002
0003c0 f4 9c b9 3d 43 8e 43 bd 4d 9b 1b be 33 31 c5 3b
       0.090631396 -0.047743093 -0.15195961 0.006017828
0003d0 1c 72 d4 bc 34 33 a8 3d 95 8a 00 80 90 c7 a7 bc
       -0.025933318 0.08212891 -4.9714e-41 -0.020480901
0003e0 b2 68 92 3c dc d7 4c bc 07 f6 e7 3d 79 8a 00 80
       0.017872188 -0.012502637 0.11326223 -4.9675e-41
0003f0 e1 18 bc 3b d3 2c 83 3d 30 be ec 3d 98 fa 12 bd
       0.0057402705 0.06405034 0.11559713 -0.035883516

act_conv1.bias f4 [4]
000000 22 d1 10 3d 1d ab 39 3c 08 ff 0e bc 40 46 02 3e
       0.035355695 0.0113323005 -0.008727796 0.12722111

act_fc1.weight f4 [81, 324]
000000 94 2b 57 3d 51 7f ba 3c 5c 1f 10 3d bf ae 80 bc
       0.052531794 0.022765787 0.035186157 -0.015708325
000010 8e 47 08 3d 35 fb 2a bc 37 94 0d 3b 3d a0 40 3c
       0.033271365 -0.010435869 0.0021603236 0.011756954
000020 ee a2 70 bd 8e a9 30 3d 7e d6 81 bb cf 26 30 bd
       -0.05874913 0.04313045 -0.003962337 -0.04300576
000030 3e 8a 73 bd d2 15 ab bc c6 1b 7a bc b0 43 72 bc
       -0.05945801 -0.020884428 -0.015265411 -0.014786646
000040 97 c1 2f 3a 80 74 5e 3c 44 a7 b5 3c 59 b4 e9 3c
       0.00067045673 0.01357758 0.022174485 0.02852838
000050 2b 60 52 bd 51 f3 37 bd 28 0d 36 bd b7 78 89 bd
       -0.051361244 -0.04490978 -0.04444614 -0.06712478
000060 f5 2c 31 3d 81 ac 3f 3c ca e2 4b 3a 54 b5 fa 3c
       0.043255765 0.011698843 0.00077776297 0.030604042
000070 8a ec f6 bc 28 82 ba bc a4 e2 b6 bd 64 b7 4f bd
       -0.030142087 -0.022767141 -0.08929947 -0.050712004
000080 d6 bd d5 b9 dc ad a2 bd d3 82 0d 3c 3b 1f 3e bd
       -0.00040767965 -0.07943317 0.008637148 -0.046416502
000090 c9 37 0f 3c 53 09 9e bc 16 cc 9b bd a8 ee ab bd
       0.008741328 -0.019291556 -0.07607286 -0.083951294
0000a0 72 09 db bc d2 4a 65 bd 0a d2 a9 bd 79 b1 de bc
       -0.026737902 -0.055979557 -0.08292015 -0.027184235
0000b0 0e b1 65 bb e3 47 71 3d 43 82 97 bd 03 11 50 bd
       -0.003504816 0.058906447 -0.07397892 -0.050797474
0000c0 82 76 44 bd e3 da 39 be eb b1 37 bd 65 14 40 bd
       -0.04796458 -0.18149905 -0.04484741 -0.04689445
0000d0 94 93 6e bd 32 8c 5a bc e2 42 d0 3d d9 e0 63 3c
       -0.05824621 -0.013339089 0.10169007 0.013908588
0000e0 4b 04 82 bd e8 0e c9 bd e9 b0 03 bd 2d a1 eb bc
       -0.06348475 -0.09817296 -0.032151137 -0.028763378
0000f0 71 56 0d bd 7d 0e 22 bd f1 53 34 bd ab b4 8d 3e
       -0.034506265 -0.0395646 -0.044025365 0.276769
000100 69 3b b0 bd 9f b9 89 bc d4 13 d8 bc 7a 3f d0 bd
       -0.086050816 -0.016812144 -0.026376642 -0.10168357
000110 14 04 b6 ba 5e ce 87 bc b1 75 7a bb 6e 37 56 3c
       -0.0013886713 -0.016577896 -0.0038217122 0.013074739
000120 6f 86 95 3e 22 1c 97 3e a2 7e 4f bd 9f 11 01 ba
       0.29204127 0.2951365 -0.050657876 -0.0004923585
000130 25 72 09 3b e8 51 c2 bc 1c 1b 92 bc d1 dc 02 3d
       0.0020972576 -0.023720697 -0.017835192 0.03194887
000140 1b 66 6b 3c 6d a3 10 bd 21 7c 68 bc 8a eb dd bc
       0.014367606 -0.035312105 -0.014189751 -0.027089853
000150 ba 29 8c 3d 98 a6 f3 3b 11 01 17 bd 68 c3 88 bc
       0.06843896 0.007435631 -0.03686625 -0.01669474
000160 71 52 2f bd 98 54 f9 3c ec f1 07 bd 23 29 1b bd
       -0.04280323 0.030435845 -0.0331897 -0.037881028
000170 3a 49 0f bc 9f 7c f5 3b 4a 40 e6 3b 43 a0 9f 3c
       -0.008745486 0.0074916626 0.007026707 0.019485598
000180 e5 5a 48 bd 54 e8 81 bd 35 4e 2e bd 9c 40 68 3d
       -0.04891481 -0.06343141 -0.042555053 0.05670224
000190 59 1c 03 3c 7a 4d c3 bc 09 22 2f 3b 71 b4 cd 3c
       0.008002364 -0.023840655 0.0026723167 0.025110455
0001a0 4c 06 08 3b f6 9a 63 3c d3 0b 28 3c e7 5e 22 ba
       0.0020755706 0.013891926 0.010256725 -0.0006193951
0001b0 17 7b 39 3d 19 6d 75 bd 03 7c 13 bd f8 12 75 bc
       0.045283403 -0.059918497 -0.03600694 -0.014958136
0001c0 17 1b 44 bc 2d ba 84 bd 2d 96 b3 b9 34 4a 3d bc
       -0.011969349 -0.06480823 -0.0003425343 -0.011553336
0001d0 2d e7 66 bd ec 2c d4 b9 e2 fb 30 bc b5 91 0b bd
       -0.05637281 -0.0004046926 -0.010802241 -0.034074504
0001e0 a2 c7 7c 3d 57 fc ac 3c 8f da c8 3c 8d c4 41 bc
       0.061713822 0.021116419 0.02451828 -0.0118266465
0001f0 5b 90 43 3d 58 6f 64 3c 14 bd 8c bd a0 38 22 3d
       0.04774509 0.013942562 -0.06872001 0.039604783
000200 3b 7e 0d 3e 04 e9 2e 3c dc 8c 67 bc 3c a7 07 3c
       0.13817684 0.010675672 -0.014132705 0.008279618
000210 a0 7b 8c 3b e8 c5 db 3c 92 06 e7 3d dd c9 e2 bc
       0.004287198 0.026827767 0.1128055 -0.027684147
000220 2b ae 3d 3c d0 8e d7 3c 18 32 42 3d 06 15 1e bd
       0.011577169 0.026313215 0.047411054 -0.03859427
000230 78 22 18 bd ae e6 d5 bc 94 91 39 bc 66 03 c9 3c
       -0.037142247 -0.026110973 -0.011326212 0.024537753
000240 79 73 5f be da 83 16 ba ae 7c 6d 3c cf a0 8d bc
       -0.21821393 -0.00057416933 0.014495058 -0.017288594
000250 4d 17 c1 3b eb ac 11 bd 25 c1 fc bb ef 51 c4 3a
       0.0058926702 -0.035565298 -0.0077134543 0.0014978031
000260 2a bd 19 bd 4d 3b 06 be 44 de ba bd cd f7 f9 3b
       -0.037533917 -0.13108559 -0.09124425 0.007628417
000270 73 14 27 3d 84 28 24 3d 1b a9 e2 3c 25 97 8e bc
       0.040790986 0.0400777 0.027668526 -0.017406056
000280 45 f6 f7 bc 75 85 3d 3c 66 89 00 80 c6 89 00 00
       -0.030268798 0.011567463 -4.9289e-41 4.9424e-41
000290 cb 2e 00 80 85 cc 9d 12 b7 41 ac 87 9b d6 d6 8e
       -1.6786e-41 9.958511e-28 -2.5918307e-34 -5.296173e-30
0002a0 3c 89 01 02 64 5f 3f 05 18 89 00 00 8e 89 00 80
       9.516808e-38 8.998297e-36 4.918e-41 -4.9345e-41
0002b0 8f bd 44 18 d0 68 97 21 3f 41 9e 28 ba 65 55 23
       2.5428109e-24 1.0259902e-18 1.756982e-14 1.15682946e-17
0002c0 d3 b6 73 25 ad 5f a3 1d a9 39 bc 1c b8 50 bc 04
       2.1138833e-16 4.3244667e-21 1.2455701e-21 4.4272716e-36
0002d0 bd 88 00 00 15 04 99 24 20 d8 11 2a c8 0d d4 2b
       4.9052e-41 6.636009e-17 1.295357e-13 1.5067331e-12
0002e0 d9 c7 45 2b 64 e2 4e 29 f3 b8 3f 28 e0 9f ab 23
       7.0265804e-13 4.593755e-14 1.0642734e-14 1.8607567e-17
0002f0 2c 1e 02 8f d4 17 88 01 ca 74 e2 27 69 c5 e0 27
       -6.415306e-30 4.99927e-38 6.2854224e-15 6.238652e-15
000300 2d b9 ff 2d 55 44 01 2a a6 36 9e 29 a5 d8 d9 25
       2.9072378e-11 1.1481209e-13 7.0260895e-14 3.7790303e-16
000310 92 0c 50 1e d8 2b 4b 05 c1 a2 00 00 61 bb d1 24
       1.1014028e-20 9.553067e-36 5.8385e-41 9.0956734e-17
000320 f3 a2 73 28 7f 06 00 2e ed 73 2d 26 12 9f cb 25
       1.3524544e-14 2.91096e-11 6.017854e-16 3.5322677e-16
000330 f3 b8 63 17 65 cd cd 8b a6 89 00 00 76 89 00 00
       7.3581095e-25 -7.927217e-32 4.9379e-41 4.9312e-41
000340 b1 07 6d 25 f4 7f 30 28 73 08 e9 2b d5 46 b8 27
       2.0559079e-16 9.797708e-15 1.6557991e-12 5.1147055e-15
000350 78 0e b5 1f 51 2e 15 92 0f 2e 1a 04 3a 89 00 00
       7.668042e-20 -4.70732e-28 1.8123762e-36 4.9228e-41
000360 1e 89 00 80 91 9c db 20 d0 a5 3d 22 19 1c 2a 2c
       -4.9188e-41 3.720365e-19 2.5702057e-18 2.417405e-12
000370 85 9a 55 20 d3 b0 bc 1e a4 38 5e 93 e6 bb 9c 81
       1.8092928e-19 1.9978407e-20 -2.8048265e-27 -5.757497e-38
000380 6e 89 00 80 bc 89 00 00 c4 22 a9 0f 6b 4a fc 1e
       -4.93e-41 4.941e-41 1.6678078e-29 2.6712316e-20
000390 5c d2 b4 20 53 64 8a 1a b1 2e 7d 93 55 09 d0 92
       3.063239e-19 5.7237545e-23 -3.195611e-27 -1.3128946e-27
0003a0 08 89 00 80 4c 89 00 00 e6 88 00 80 b9 88 00 00
       -4.9158e-41 4.9253e-41 -4.911e-41 4.9047e-41
0003b0 70 b7 5c 01 87 75 00 80 df 88 00 80 33 89 00 80
       4.0539228e-38 -4.2161e-41 -4.91e-41 -4.9218e-41
0003c0 05 1d 00 00 fc 88 00 00 cb 88 00 80 9f df b3 3d
       1.041e-41 4.9141e-41 -4.9072e-41 0.08782887
0003d0 93 46 65 3d 8c 3c f9 3b 18 d6 74 3c 59 76 1e 3d
       0.055975508 0.0076060947 0.014943622 0.038687084
0003e0 70 15 1a 3d 64 0d 57 bc e3 14 3b 3d 7c 75 24 3d
       0.0376181 -0.013125751 0.045674216 0.040151104
0003f0 5c d1 9c 3c 92 ad 98 bb d5 5b a8 3c 31 6d 9c 3c
       0.0191428 -0.004659363 0.020551601 0.019095035

act_fc1.bias f4 [81]
000000 61 51 db 3d 81 d3 40 bc 7e c0 2c be 6a 0f dd 3d
       0.10708881 -0.011769176 -0.16870305 0.107939556
000010 d5 f6 ee 3d 26 b0 d3 3d 53 1d e9 bd 43 d7 82 bc
       0.11668173 0.10336332 -0.11382546 -0.015971785
000020 10 5b 99 3d 22 15 c6 bb 6d c8 96 bd 65 53 d3 3d
       0.07488072 -0.0060449997 -0.07362447 0.103186406
000030 d0 e7 62 3d 63 6c 79 3e ba c1 94 3d 7d c1 a1 3d
       0.055396855 0.24357753 0.07263513 0.07898233
000040 ec 19 2a be 46 8f a4 bc c8 23 1d be cd 2a 09 3e
       -0.16611451 -0.02008785 -0.1534568 0.13395233
000050 0a 3b 7e 3b 9a 8c 57 3e 50 80 94 bd d1 ea 30 3e
       0.0038792514 0.21049729 -0.07251036 0.17277075
000060 5d 22 33 3c f5 0f 0d 3e e4 bd db bd 51 96 92 3d
       0.010933486 0.13775618 -0.10729578 0.07157577
000070 c1 c7 28 3d 32 91 e8 3d 7c 7e ef 3d fa a5 43 3e
       0.041206125 0.11355819 0.11694047 0.19106284
000080 13 5a b1 3d f5 de 29 3e 45 cd 3d 3d ad 0f cb 3d
       0.086597584 0.16588958 0.04633834 0.09915099
000090 b2 e3 c5 3d 90 eb 4a 3e e7 6f b7 bc f3 63 74 3e
       0.0966257 0.19816422 -0.022392226 0.23866253
0000a0 8f 7e 5a bd 95 3f 8c 3e 27 29 9f bd 36 d4 5d 3e
       -0.053343352 0.2739226 -0.07771521 0.21662983
0000b0 ba 30 b4 3d f3 57 9c 3d d0 61 67 3d b0 b1 0f 3e
       0.08798356 0.076339625 0.056489766 0.14032626
0000c0 d2 51 cc 3d 92 83 6d 3e 64 18 7f 3d 52 21 43 3e
       0.099765435 0.23194721 0.06227912 0.1905568
0000d0 ec bb 97 3c be c9 93 3d 90 9a 20 be c6 d4 fa 3d
       0.018522225 0.07216214 -0.15683961 0.122476146
0000e0 26 c7 ac 3d ae ec 5c 3e 61 a2 a1 bd 3f 68 fa 3d
       0.08436422 0.21574661 -0.078922994 0.122269146
0000f0 f7 7a 4d bc 22 6a 0e 3e 21 a4 f6 bd 31 26 5b bd
       -0.012541524 0.13907674 -0.12043024 -0.05350322
000100 b7 3a fa bd 77 16 f9 3d b1 d0 56 3d c2 26 25 3e
       -0.1221823 0.12162488 0.052445117 0.16128066
000110 10 0f 14 3d 43 22 fb 3d 77 e3 0b be 93 5d b0 bc
       0.036147177 0.12262394 -0.1366099 -0.021528995
000120 23 c8 29 3d 08 86 7d bd c8 b8 1c be 3d 04 c7 3d
       0.04145063 -0.0618954 -0.15304863 0.09717605
000130 c3 07 84 3d 96 62 a9 3d 37 2f 0b be e7 41 b7 bc
       0.06446793 0.08270757 -0.1359223 -0.022370292
000140 8d 16 af 3d
       0.08549223
