课程设计/AlphaZero简单复现/models/policy_batch_1000.model (torch, 530639 bytes, 15 tensors)

conv1.weight f4 [32, 4, 3, 3]
00000000: 33e3 403e 6fb3 97bd 9230 783e 7cf9 52bd
00000010: f95a b5bd 3db4 07be d9b0 af3e 6580 6ebe
00000020: 5f7e d43e 1683 2d3e 1194 bbbc 43e6 353e
00000030: ac05 15bc 9f06 9abd f9d9 83bd 25eb 783e
00000040: b834 afbd 532b 6d3e b4c3 973d b276 2cbd
00000050: 433a cb3c ba65 9ebc 3a2e 34bd c5e3 72bd
00000060: 2345 083c faef a8bd 0209 bf3d 798b a53a
00000070: ca8d 863b d546 3ebd 84b5 bcbd 184e fb3d
00000080: 3ef9 96bc 1c78 c53b 840e 143d 1346 2ebd
00000090: 91b6 a03e 50c9 883e a9a7 ccbe e521 233e
000000a0: 94ef 5ebd a593 a13e 4e19 66be b135 173e
000000b0: 61a4 3d3e c8d2 cc3d 6c30 493d ea09 ecbc
000000c0: dde5 4abe f68d a6bb d860 a8bd d3bd 013e
000000d0: c4c5 d7bd fbfd 213e 642d 94bc e6eb 1e3b
000000e0: e6b4 6039 8193 82bc e5b0 1abd 4dcb 453c
000000f0: 4284 033d 9c2e 423c 7e2a 8a3c 534f 973a
00000100: c874 18be 6637 683d db5f 26be 9ddc 803d
00000110: ca48 14be 8207 103e 4436 5dbd 646c 2c3e
00000120: 97b9 5b3e 569f 1e3e c7ae b7bc 9437 97be
00000130: 7e9c 24bd 7b47 78be 2b5d 993d 2be9 4b3e
00000140: ca66 60be 7f7e e6bd 9f22 48be be31 3bbd
00000150: f29c 7a3e 4cbf 3c3e e298 e93d d0a6 e33d
00000160: b37d 66be 20fa 243d d8b6 09bd 03a1 18be
00000170: 7ef8 54bb d24b c5bc 9b59 543c 5069 8c3d
00000180: 1e90 d73b f128 75bd f887 053d f763 04be
00000190: 9296 f03d 97ee 9d3d a5f8 903c 8d76 583d
000001a0: 8e74 813d 1cef 4c3d 0747 073e 4991 27be
000001b0: 8fac d93b 3956 dabe 2bdc a33e 84a7 41bd
000001c0: 849b cc3e 9e41 c5be f68c 1a3c 7307 e93c
000001d0: 8596 c13d 7eb1 c53d fc36 a93d 41bb 34be
000001e0: ed77 0d3e 63fe 0abe 3fa4 f53d 2a38 f7bc
000001f0: d08c eb3d 756a 203e 2f1c bebc f90e 903a
00000200: a5b5 11bd 1d06 14bc 79d3 ebbc 36d8 1f3d
00000210: 8b18 16bb a829 d9bb 6663 cf3c 790c 963d
00000220: a00c 68bd 9b2f b83d b409 0c3e 78d7 f3bb
00000230: 34a7 c8bd 5c38 ddbd 0702 b8bd e9bf fa3d
00000240: 1428 6ebe 5436 95bd abc8 3dbd ba1f 133d
00000250: 7800 213e ffca f43d f4c8 82bd 0323 5b3c
00000260: ecd7 403e 9e34 07be b78e 11bc a8ca 0fbe
00000270: dfb7 f23d df04 a0bc 2caa ffbd 039f 2b3d
00000280: 7a4d 95bd 33eb 03be 9b24 42bd 5f02 7f3b
00000290: e7bf 243e 0837 1e3e e162 2f3c 55fd 2fbd
000002a0: 0733 8e3c 41d9 a3bc fbc7 75bd e6ca 8d3d
000002b0: 434c a23d 46c1 ff3d fd36 003e bc54 ac3d
000002c0: 60d6 d33d 23f2 133e 1caa 123e 04ab f93d
000002d0: bece 753e 785b 733d 814c 86bd 3157 a1be
000002e0: b4f3 bd3e 4924 a03e 1051 a73e 3e24 babc
000002f0: d568 da3c 10c6 d53d b22f 47bd 3725 2cbe
00000300: 6957 f6be 7c87 5f3e 1111 113e 1b16 063e
00000310: bfa9 33be f834 e8bd 8de2 f13d 9dd4 b63d
00000320: 7ca4 ee3c 08b7 7c3c 4876 193e 85a3 833d
00000330: 27ea 903d de6d b93d e370 8f38 36d7 013d
00000340: 264b 263d 8bc2 f03d 6082 133e a407 07be
00000350: a0fa a7bd 4c53 93bc 2d73 77bd 883f 293e
00000360: d15b 98bc 822c 5fbd 869a 0d3c a93a 43bd
00000370: 6a47 fcbb fb1e 3cbe 9266 153d 08f6 c2bc
00000380: 3937 873e 7fdd 20bd b305 2e3d 1133 983d
00000390: b23f 02bd 2d08 cf3e 63cf eabe 24f1 f83c
000003a0: c36b 0dbf e3b5 803e cda9 253d 6d34 a13d
000003b0: d1e8 793d cef7 913d 3c23 233e 4720 42be
000003c0: dbb3 ea3d cf14 14be b72b 3c3e 656b 8c3c
000003d0: 4f2c 033e 5a00 f73d 6244 803a 43ed 95bd
000003e0: db63 0ebc c5f2 06be 98a3 eebc 0ddc 54bd
000003f0: 1273 51be 7152 ff3d 81c1 9b3e 83e5 28be
0.1883667 -0.07407271 0.24237278 -0.051507458 -0.08855242 -0.13252349 0.34314612 -0.23291166
0.41502663 0.16944537 -0.022897752 0.17763619 -0.009095591 -0.07520794 -0.06438059 0.2430845
-0.08554977 0.23161058 0.07410374 -0.042105384 0.024808055 -0.019335616 -0.043989398 -0.05929925
0.008317265 -0.08248897 0.0932789 0.0012630067 0.004106258 -0.04645427 -0.09214309 0.122707546
-0.018429395 0.006026281 0.036146656 -0.042547297 0.31389287 0.2671609 -0.39971665 0.15930898
-0.0544277 0.31557956 -0.2247059 0.14766575 0.18519737 0.10001141 0.049118444 -0.028813321
-0.19814248 -0.005082841 -0.082215965 0.12670068 -0.10535768 0.15819542 -0.01808805 0.0024249493
0.00021429695 -0.015939476 -0.037766356 0.012072396 0.032108553 0.011851933 0.016865965 0.0011544026
-0.14888299 0.056693457 -0.16247503 0.06292079 -0.14480892 0.14065364 -0.05400683 0.16838223
0.21457516 0.1549047 -0.022422208 -0.2953459 -0.040188305 -0.24246018 0.074884735 0.19913165
-0.21914211 -0.11254596 -0.19544457 -0.045701735 0.24473932 0.18432349 0.11406113 0.11115801
-0.22508888 0.0402776 -0.03362164 -0.14905171 -0.0032496746 -0.024084006 0.012960817 0.06856024
0.0065784594 -0.059853498 0.032600373 -0.12928759 0.11747469 0.07711523 0.017696688 0.052847434
0.06321059 0.05003272 0.13210689 -0.16364016 0.006642885 -0.42643908 0.32003912 -0.047278896
0.399624 -0.38526624 0.009433022 0.028445935 0.094525374 0.096529946 0.082624406 -0.17649557
0.1381528 -0.13573603 0.11994218 -0.030178148 0.11501467 0.1566561 -0.023206798 0.001099079
-0.03557362 -0.009034661 -0.028787361 0.039024554 -0.0022902812 -0.0066272803 0.025315952 0.07326598
-0.056652665 0.08993455 0.13675576 -0.0074414574 -0.097975165 -0.10801765 -0.08984762 0.12243635
-0.23257476 -0.07285753 -0.04633395 0.03591893 0.15722835 0.11952781 -0.06385985 0.013375047
0.18832368 -0.13203666 -0.0088841235 -0.14042151 0.11851477 -0.019533573 -0.124836296 0.041899692
-0.07290168 -0.1288269 -0.04739819 0.0038911325 0.1608883 0.1545068 0.010704727 -0.042966206
0.017358316 -0.020001056 -0.06000517 0.069234654 0.07924702 0.12488036 0.12520976 0.08414599
0.10343623 0.14447837 0.14322704 0.12190822 0.24004647 0.059413403 -0.06557561 -0.31511834
0.37099993 0.31277683 0.32679033 -0.02272236 0.026661316 0.10438168 -0.04862947 -0.16811071
-0.48113564 0.21829027 0.14166667 0.1309437 -0.17545222 -0.11338228 0.11810789 0.089272715
0.029131167 0.015424497 0.14986527 0.06427673 0.07075911 0.09054159 6.839798e-05 0.03169938
0.04059901 0.11755856 0.14405203 -0.13186508 -0.082021 -0.017984055 -0.060412575 0.16528141
-0.018598469 -0.054485805 0.008642798 -0.047663365 -0.007698943 -0.18371193 0.03647477 -0.023798957
0.2640932 -0.039273735 0.042485904 0.07431615 -0.031799026 0.40435925 -0.45861349 0.030388422
-0.55242556 0.2513877 0.040445138 0.078713275 0.061013047 0.07127343 0.1593141 -0.18957625
0.11460086 -0.14461063 0.18376051 0.017141053 0.12809871 0.12060614 0.0009786005 -0.07320645
-0.0086908 -0.13178547 -0.029130742 -0.05196767 -0.20454052 0.12466896 0.3042107 -0.16493802

conv1.bias f4 [32]
00000000: 0f73 8dbd 1b86 fd3d 03a0 f83d baa7 383b
00000010: 7dd7 12be d6fe 853b 3d0f a43c 0d15 a33d
00000020: 4832 2f3d b9fa bdbd 930c a53e 2882 19bd
00000030: 86a2 0abe 1217 d5bc 9654 903b 5b13 7d3e
00000040: dc27 2cbd c0df 783e 12ec 52bc 1e3d bf3c
00000050: 1560 973e 57c7 adbb a9bc 76bd d519 71bb
00000060: 1827 f9bc 5f4f 453e 8276 8c3e e162 79bc
00000070: 7c89 36bd e4d6 dcbd d877 bf3d 6e63 18be
-0.06906711 0.12379094 0.12139895 0.0028176145 -0.14340015 0.0040892167 0.020026797 0.079629995
0.04277256 -0.09276337 0.32236156 -0.037477642 -0.1353856 -0.026011977 0.0044046147 0.24714415
-0.0420302 0.24304104 -0.012873666 0.023344573 0.29565492 -0.005303304 -0.060238514 -0.0036789079
-0.03041415 0.19268559 0.27434164 -0.0152213285 -0.04456471 -0.10783175 0.0934903 -0.1488168

conv2.weight f4 [64, 32, 3, 3]
00000000: 4e00 e03d 0fea 173e f92f 253e f671 323e
00000010: c183 0e3c 5623 423e 84d3 873a 1349 ca3d
00000020: a23a af3c d883 163e 4829 cfbd 7de4 65bd
00000030: d12f 683c 7c78 e2bc cb08 21be 02c3 92bb
00000040: 8577 953d a9fe 4a3e a403 14bd 97ae 8ebb
00000050: 2226 b73d ed0d 3abd 927b 3e3d 0f18 b3ba
00000060: e68b 2ebd cc74 bcbd 9411 4fbd db27 573d
00000070: b9b3 cc3d ecea 86bc 8b22 cc3c 2798 ebbd
00000080: 7e18 b73d 6976 21be f2af c23d 8744 ebbd
00000090: 11f1 963c 15f3 45bb 67ef d93b 10cc d8ba
000000a0: 16ee 2bbc 0c1f ee3b 5d45 f0bc 8593 d63a
000000b0: 3a8a ee3c 578e 08bd fd65 b439 1aea a6bc
000000c0: eaf3 473d e78f bf3d 0a77 b4bd def3 5cbd
000000d0: 989a 63bc 0b92 1abe 9b74 b03d f71e 303c
000000e0: 5c8e 713c 40bf dbbd 9046 843c 0abd dc3d
000000f0: 9064 3cbc 9899 0f3e 3691 423d b2b0 95bc
00000100: da1f 21be 486a 923d 00e1 a43d f46b bf3d
00000110: ac5c 7fbe ba3c 6b3e acff 2a3d c553 a4bd
00000120: 553a 10bd 4bd1 593d 69c9 c1bd 83b0 a63d
00000130: 987d 8d3d f176 56bd 6688 60bd 9dd8 c93d
00000140: fe15 ed3d 8779 42bd a87f 7c3d 025b ccbb
00000150: 41f8 59bd 447c 2cbd 970f e93c cddf 18bd
00000160: b57f c73c d7ee 513d 57c9 1d3d 0586 a7bd
00000170: e06b 263d e944 be3d 3c09 4dbd 87e1 94bd
00000180: b0d6 623d 1731 b63d 65dc d63d c857 afbb
00000190: 4493 91bd 0b31 523d 7740 963d 23fe 823d
000001a0: 4321 fb3d f6b3 4dbd 2e1c e5ba f1ff 5c3b
000001b0: 4a11 533b 442a fabc ee5a 3ebd 42e4 8e3c
000001c0: 693f aabd 83a0 b63d 59e8 c8bd a985 c2ba
000001d0: eb3c d03d ee7a 4abd e5f4 ad3b f48c 883d
000001e0: 8876 543e ff28 c03b 26f7 13bd 7ae9 373e
000001f0: 2ee3 8cbd 95f1 0c3e 56ba 0ebc 8963 5a3e
00000200: acb5 1f3e 12c6 48bd 66f2 8c3d 5e96 903d
00000210: b2f2 08bd 5abb 55be e0d9 39bd 0d86 ebbb
00000220: 3947 033d eeb9 33bc 9c39 98bc 79ca 51bd
00000230: 9b89 843d 4f4a 84bd 1a73 833d 652d 813d
00000240: 790d 80bd 2e1f 6bbd 9d76 c5bd 887f f9bc
00000250: bfcd 883d 9fdb b83c 4ddc b33d 0efa 5f3e
00000260: 007e 163e 7b6e 5f3d f394 5c3d d267 41bd
00000270: 1eb8 26ba a851 afbc b38c a1bd 745e 2f3d
00000280: e8f6 8dbc a887 7d3d 702c 47bc 67dd 7a3d
00000290: e0a4 03bd 1c0f 393e 6db0 243e d092 6bbd
000002a0: 5acc 0fbd 9c3f b2ba 66ca a2bd d4ea c1bd
000002b0: eff2 613d bafc f93c b370 9b3d 1fac a1bc
000002c0: dfac 47bc 8efb 9c3d 7e3c ebbc e9fd 2dbe
000002d0: e51f a3bd b4e8 25bd 0b39 00bd 7023 933d
000002e0: 4338 f5bd 23fb febd 43bd 633d 77c0 a2bd
000002f0: 820c 893c 1b36 553e fc4c 423e 239a a93d
00000300: e1c3 3d3d 7a1b dbbc 78e2 41bd ef5e 71be
00000310: cc12 c7be 8464 4a3d e1d0 dc3d 69a1 263c
00000320: 1110 833b 073e 7e3d 22dd 013c 1735 883d
00000330: 0cdd c9bd c978 f4bc 5deb 573d 327d cd3c
00000340: d7c6 ca3d 8ce6 9cbd 742b 93bc ba27 b33d
00000350: 1e90 763d 6ac6 d3bd e46d 813d bcfa 31be
00000360: 7a69 563d 79b7 313e 9cbd 6a3b 9027 da3d
00000370: 96ae 073d 5bc8 9fbd f524 5e3d a2c4 f1bd
00000380: 7329 16b9 fe2b 20bd f3b1 b93c e9f3 40bd
00000390: c2a1 11be ec35 e93b acd8 0a3e e412 2ebe
000003a0: c3f1 473d 5a3c 753e be97 abbd d74a 853d
000003b0: 1814 99bc 776b 6b3d 12ee d7bc 41d4 63bb
000003c0: 3782 a5bd e804 6fbe 49be d73d c660 7fbc
000003d0: 0755 99bd cbb0 60bd 7484 663d f4f0 24bd
000003e0: 4bc6 a63c 40a3 b53d b60c c33b 5347 8d3d
000003f0: ec42 7c3c e574 693d 467c abbc 9dc9 2cbd
0.10937558 0.1483538 0.16131581 0.17426285 0.008698405 0.18958792 0.0010362719 0.09877219
0.021390263 0.14698732 -0.10115296 -0.056126107 0.014171557 -0.027645342 -0.1572601 -0.004478813
0.07298187 0.19823708 -0.036136284 -0.004354309 0.0894282 -0.045423437 0.046504565 -0.0013663786
-0.042613886 -0.09201965 -0.050553873 0.052528244 0.09995217 -0.016469441 0.024918815 -0.1150363
0.089402184 -0.15767826 0.09506215 -0.1148768 0.018425496 -0.0030204703 0.0066508534 -0.0016540308
-0.010493776 0.0072668847 -0.02932995 0.0016370869 0.029118646 -0.03333887 0.00034408263 -0.0203753
0.0488166 0.09353619 -0.088117674 -0.053943507 -0.0138918385 -0.15094773 0.08615991 0.01074957
0.014743414 -0.107298374 0.016146928 0.10778244 -0.011498585 0.14023435 0.047501765 -0.018272731
-0.15734807 0.07149178 0.08050728 0.09346762 -0.24937695 0.22972384 0.041747734 -0.0802379
-0.03521188 0.053178113 -0.09462244 0.08139136 0.06908721 -0.052359525 -0.05481758 0.09855769
0.1157646 -0.04747918 0.06164518 -0.006236435 -0.05321527 -0.042110696 0.028449817 -0.037322808
0.024352888 0.051253166 0.03852209 -0.08179859 0.04063022 0.09290487 -0.050057635 -0.072695784
0.055380523 0.08896082 0.10491256 -0.0053510405 -0.07108167 0.051316302 0.073365144 0.06396129
0.122622035 -0.050220452 -0.0017479712 0.003372189 0.003220635 -0.030537732 -0.046473436 0.017442826
-0.08312876 0.08917334 -0.09809942 -0.0014840859 0.10167869 -0.04943364 0.0053087347 0.0666751
0.20748341 0.005864262 -0.03612437 0.17960158 -0.068792686 0.13764031 -0.008711418 0.21327032
0.15596646 -0.04901702 0.06882171 0.0705993 -0.033434577 -0.2087225 -0.045373797 -0.007187611
0.032050345 -0.010969622 -0.018582158 -0.051218484 0.06471559 -0.06459486 0.06418438 0.063074864
-0.0625257 -0.057402782 -0.09641764 -0.03045632 0.06679868 0.022565661 0.087822534 0.21872732
0.14696503 0.05454872 0.053852987 -0.04721815 -0.0006359833 -0.021401241 -0.07888164 0.042814687
-0.017329648 0.06189695 -0.012156591 0.061246302 -0.03213966 0.1807217 0.16082926 -0.05751306
-0.035106994 -0.0013599279 -0.07948761 -0.09468618 0.05516332 0.030516017 0.07589855 -0.019735394
-0.012187212 0.07665168 -0.028715368 -0.1699139 -0.07965068 -0.040505126 -0.0313044 0.071844935
-0.11973622 -0.12450244 0.055600416 -0.07946866 0.016729597 0.20821421 0.1897468 0.08281352
0.046329383 -0.0267465 -0.047335118 -0.2357137 -0.38881528 0.049412265 0.10782028 0.010170319
0.003999718 0.062070873 0.007926257 0.06650751 -0.098566145 -0.029842751 0.052714694 0.025084112
0.09901207 -0.07661161 -0.017965056 0.087478116 0.060196035 -0.10340579 0.06319788 -0.17380804
0.052346684 0.17355146 0.0035818582 0.10652077 0.033125482 -0.07801887 0.054234464 -0.11805083
-0.00014320556 -0.039104454 0.02266786 -0.04710761 -0.14221862 0.0071170237 0.13559216 -0.16999394
0.048814546 0.23948804 -0.08378552 0.06508415 -0.01868634 0.057475533 -0.026358638 -0.0034763964
-0.08081477 -0.23341715 0.10534341 -0.015587037 -0.07486921 -0.054856103 0.05627866 -0.040268853
0.020358225 0.08869028 0.005952443 0.0689837 0.015396815 0.056996245 -0.020933282 -0.04218446

conv2.bias f4 [64]
00000000: e737 87bd 29e0 933d 2b48 aebb 6074 4cbd
00000010: 04ef e33d 15fa 45bd edbd d8bb f408 e9bb
00000020: 7a0f 3fbb a67b 743a 1902 193d d4f5 233b
00000030: c210 613d 2a31 da3c f9ef 24bd 2d7e d03c
00000040: cdd1 033d 268e 29bc 2b2a e03c 18cf c13d
00000050: acd1 dc3b ec2e 473d 327a 5e3d 112f 95bd
00000060: c299 0e3d 8cb3 2a3d 7585 573c 2a69 a03d
00000070: b90a 043d 6724 453d c75e 2a3d 80b8 773c
00000080: ec16 b53c 12b3 93bc 5368 bfbc 6aef babc
00000090: 337d 243d 0401 ecbb a4cd 933d 73a8 e13d
000000a0: 9a73 ce3d 3ecc cabc 3da2 87bd e291 9abd
000000b0: 3aa4 463d 3844 5abc 5042 493c cb6c ddba
000000c0: 1a5e 493d 0422 8dbb 84ad 563c 942b e9bc
000000d0: 62c5 293d b00c a03d 4319 203b 22a1 0f3d
000000e0: be94 1a3c 0310 e5bc 18f0 ef3c 3d9e 80bc
000000f0: 8b4e 3b3d c516 2bbd 0910 32bd 221a 61ba
-0.066024594 0.072204895 -0.0053186617 -0.04991567 0.11129573 -0.0483342 -0.006614438 -0.007111663
-0.0029153512 0.00093262864 0.037355516 0.002501835 0.054947622 0.026634771 -0.04026792 0.02545079
0.032182503 -0.010348832 0.027363857 0.09463328 0.006738862 0.048628733 0.054315753 -0.07284368
0.034814604 0.041675135 0.013154377 0.078325585 0.03223679 0.04813042 0.041594293 0.015119672
0.022105657 -0.018029723 -0.023365175 -0.02281924 0.04015846 -0.0072022695 0.07216957 0.11018457
0.10080643 -0.024755593 -0.06622741 -0.07547356 0.048496462 -0.013321929 0.012283877 -0.0016893385
0.049162008 -0.0043070335 0.013102893 -0.028463162 0.041448005 0.0781492 0.002442912 0.035065778
0.009434877 -0.027961737 0.02928929 -0.015700454 0.0457292 -0.04176976 -0.043472324 -0.0008586963

conv3.weight f4 [128, 64, 3, 3]
00000000: c2c5 71bc d2ba 0fbd 94df 6c3c aaf6 82bd
00000010: fb9c e1bd bf78 ab3c 8f4c 823c 8023 27bd
00000020: 42cd 8a3d 023c 3e3d 9f2f 3bbb 88b5 f03b
00000030: 1f0e fb3c ce34 913c aab5 c83c 2798 a63c
00000040: 88e0 8cbc 2c4d 4c3c d0ed 9aba 2704 e4bc
00000050: ca39 52bd 90f8 7b3d a0d6 5f3d cbd0 f33c
00000060: a6a5 34bc b42c 033d ee86 59bd 25a9 7d3d
00000070: 582f 613d 709e d63c a86f ce3d 933e 9a3c
00000080: a51c 4d3d 0db2 953d 328b a63d 6f18 253d
00000090: 6c8b 223d 822c 963d 05a1 1d3d fd24 603b
000000a0: 84c5 783d 2ec5 a33d 15a0 223d 0ca1 9d3d
000000b0: 7033 4c3d 6f6b 693c 0d78 273d 39ae 903c
000000c0: f38b ab3c 991b 613c 4107 d83c 3c39 e03b
000000d0: d798 f4bb 1c76 883c 4c9d 1d3c 48f8 b83c
000000e0: 2284 833c b09e 1f3d 50a6 203c 5f49 343b
000000f0: 66cf 563d 4e7c 943c 4d94 48bb 9061 b03c
00000100: 3656 5dbc 9546 20ba 99eb f33c 8f72 28bc
00000110: ca18 9b3c e498 6abb 9e55 ac3c cc7d 1e3d
00000120: 20d3 e53c 3398 c03c 6b1e f3bb 8b7f f13c
00000130: c7fd 5e3c 6c44 99bc 3b23 8b3d edc4 0e3d
00000140: bc52 5bbc 57de 7f3d a965 1b3d 2268 ff3c
00000150: 28b9 8c3d f364 c23c fa90 d7ba 04c4 2e3d
00000160: 9629 a5bc 0f2b f33b 9483 9a3c 6cd4 15bd
00000170: 40c5 33bb 15a9 dcbb 5476 c2bc 6c9e 5c3d
00000180: a21f c33c 9cda 6b3c 2921 89bc 9462 fa3c
00000190: 7906 1dbd 6d41 fa3c cc72 863d 80e4 853d
000001a0: 40a9 c7bb eabc 89bc dc0c 9d3d b281 90bb
000001b0: e6c6 643c c5f4 6b3c 915f b3bc 5a0b 8b3d
000001c0: 313a 193d 8085 143d ae26 0d3d c351 d13c
000001d0: 0882 c33c aad3 923b b993 83bb 8b69 85bc
000001e0: 0908 9fbc c4e9 143c 0d88 a73b 6084 2d3d
000001f0: 7795 e7bb 60f2 223c 4ed4 b13c 10f2 403c
00000200: dfae 503c d6ac ae3c 9c17 043d 7b1c 143d
00000210: 36f0 1ebc f290 6d3b 24f5 0b3d ad78 643c
00000220: b5d5 833c 8383 3f3c 76f7 923d 921a 6aba
00000230: 6bf7 91bc aeba 91bb 4868 723d 7f90 db3a
00000240: eef1 e83a c78a 863d cb46 8cbc 1bc7 55ba
00000250: 931c 183c fd4c 4b3d 21bb a0bc 9e07 053d
00000260: da79 75bd fd68 853d eae2 fabc c5e4 0b3d
00000270: e309 a63b 3b4a 43bc 49da a0bc 39e3 863d
00000280: 03ee 5bbd b976 a23c c5eb 1cbc 1c6e 013d
00000290: 08ad e93a 0cb1 7bbd b7c9 a2bd 1cf0 953d
000002a0: a17f 9a3c 446e 593d 3248 ae3c 01a3 8c3c
000002b0: f563 7c3c ee2d 123d 9e49 123d 7aa2 e03c
000002c0: 61fb c03c 8c8a 813c d5e2 203d 9d10 133c
000002d0: eecc ed3c ec58 5ebc 5b2e 173d 2e9d 813c
000002e0: b988 27ba 4f3d d9bb 292a 9cba 54d2 9f3b
000002f0: a079 e0bc 366e 693d 031b 9c3d 2d3e 55bd
00000300: 1338 fcbc 941b 26bc 9ae7 8e3d c80b a1bd
00000310: 13d7 bbbb 6957 173d c24a 9e3c e240 a73d
00000320: 0fa8 4ebd 810a 483d 00ec f53c febe d9bc
00000330: 6d7e 39bc e830 ab3d 4ba3 6fbd b3b1 e5bc
00000340: c0e6 383c 56c5 eb3c 51a0 353d b430 173c
00000350: b3e5 133c 7a7d 2abd a42a 913c 3b74 26bd
00000360: 0779 76bc 09d8 2f3d bc0f 26bc cae9 df3c
00000370: 9f38 92bb a039 853c 4e44 05bd b381 22bb
00000380: 91d7 f93c f1d5 3cbc 6056 a83c b5e2 c7b8
00000390: ae94 0f3d 7c09 2a3d bf58 ea3c 714b 0dbd
000003a0: 470f 393c 83da a13c b927 043d e0c3 373d
000003b0: 2b00 ce3c 01d7 dabb b101 02bc eccd 423a
000003c0: aea5 91bc 2209 493c 8b95 63bb b405 173d
000003d0: d740 7b3b 22d7 0c3c a222 7c3d 46ba 7a3c
000003e0: 2d00 c1bc 62d8 8a3c b37c 4b3d 3ef7 cc3c
000003f0: 32c4 cfbb 2e07 18bd 3ae0 80bd 0aa1 3b3d
-0.014756622 -0.035090275 0.014457602 -0.06394704 -0.1101627 0.0209316 0.015905647 -0.04080534
0.06777431 0.046443947 -0.002856232 0.007345859 0.030646382 0.017725375 0.024500687 0.020336224
-0.017196909 0.012469571 -0.0011820141 -0.027834011 -0.051324643 0.061516345 0.05464804 0.029762646
-0.011025822 0.032025054 -0.053107195 0.061928887 0.05497679 0.026198596 0.100798905 0.018828666
0.050076146 0.07309351 0.08132018 0.040306505 0.039683744 0.07332708 0.03848364 0.0034201734
0.06073524 0.079965934 0.039703447 0.07696733 0.049853742 0.014246806 0.040885974 0.0176612
0.020940756 0.01373949 0.026370646 0.0068427604 -0.007464509 0.016657881 0.009620022 0.022579327
0.016054217 0.038969696 0.009805277 0.0027509553 0.052443884 0.01812568 -0.0030605972 0.021530896
-0.013509324 -0.0006114033 0.029775428 -0.010281219 0.018932719 -0.0035796696 0.02103692 0.038694188
0.028054774 0.023510074 -0.0074193976 0.029479763 0.01361031 -0.018709384 0.06793829 0.03485577
-0.013386425 0.0624679 0.037938748 0.031177584 0.06871253 0.023729777 -0.0016446405 0.042667404
-0.020161431 0.0074209045 0.01886157 -0.036579534 -0.0027430803 -0.0067340233 -0.023738064 0.05386202
0.023818795 0.014395382 -0.016739445 0.030564584 -0.03833625 0.030548776 0.065648645 0.065377235
-0.006093174 -0.016813714 0.07668468 -0.004409992 0.013963437 0.014401619 -0.021896156 0.067892745
0.03740901 0.036260128 0.034460716 0.025551682 0.023865715 0.0044807987 -0.0040154126 -0.016285678
-0.019413011 0.009088937 0.005112654 0.04236257 -0.007067378 0.009945482 0.02170768 0.011776462
0.012737005 0.021322649 0.03224908 0.036159974 -0.009700825 0.0036249724 0.03416933 0.013944787
0.016093114 0.01168907 0.07176106 -0.0008930351 -0.017818173 -0.004447303 0.05918148 0.0016751437
0.0017772296 0.065694384 -0.0171236 -0.0008154974 0.009284156 0.04963397 -0.01962048 0.032477967
-0.05993066 0.065141656 -0.03062578 0.03415372 0.0050670966 -0.011919553 -0.019635336 0.06586308
-0.053693783 0.019832002 -0.009577696 0.03159915 0.0017828057 -0.061448142 -0.0794863 0.07321188
0.018859686 0.053083673 0.02127466 0.01716757 0.015404691 0.035688333 0.035714738 0.027421225
0.023557367 0.015813135 0.039278824 0.008976129 0.029028382 -0.013571005 0.036909442 0.01582202
-0.00063909177 -0.006629623 -0.001191442 0.004877368 -0.027401745 0.05698987 0.076223396 -0.05206125
-0.030788457 -0.010138411 0.06977768 -0.07863575 -0.005732426 0.036948595 0.019322757 0.08166672
-0.050453242 0.048838142 0.03001976 -0.02658033 -0.011321646 0.083589375 -0.058505338 -0.028038835
0.011285484 0.02878062 0.044342343 0.00922792 0.0090269325 -0.04162357 0.017720528 -0.04063819
-0.015043504 0.042930637 -0.010135587 0.027333159 -0.004462316 0.01626283 -0.032535844 -0.0024796545
0.030498298 -0.011525617 0.020549 -9.531287e-05 0.0350539 0.04151295 0.02860677 -0.034495775
0.011295146 0.019757515 0.032264445 0.044864535 0.025146564 -0.0066784625 -0.007934974 0.00074311974
-0.017779198 0.012270244 -0.0034726586 0.036870673 0.0038338208 0.008596214 0.061556466 0.0153032
-0.023559654 0.016948882 0.04967947 0.025020238 -0.006340527 -0.037116222 -0.06292768 0.045807876

conv3.bias f4 [128]
00000000: c067 883c bf59 233d e3c5 24bd e05e b2ba
00000010: e0b4 b23b a63e 4b3d c5fc 6da4 c148 1d87
00000020: 73ae 73bc b91a 803c 5178 323d d0e3 933c
00000030: 8388 053d 1809 febb 7302 00bd 4a11 873c
00000040: 0c11 c1bb ed57 c83c 7b45 95b8 8319 0ab8
00000050: 8548 0c3d 3213 063c 3316 6d3c 5418 36bd
00000060: 50c1 73ba 6d71 19bd d3de 9586 d0f1 deb9
00000070: 6d5c 2dbb cf2c 733c 40d8 6cab f921 ec3c
00000080: 2205 7dbc 772b a3bc 9a4e 303c c430 023d
00000090: 68d5 d9bc 91d9 5abd 8b9f d238 10fa 94ba
000000a0: 8065 7cbd ce19 b63a a107 b63c cefb abbc
000000b0: 4981 84bc 4257 db3b 52cc c43c 3192 0c9d
000000c0: 2b85 fabc 69c6 f83b 2308 2bbc 7493 08bb
000000d0: 16dd 073c 2783 b2bc e12e ecb9 238e e2bc
000000e0: 7898 cbbb 223d ffbc 648e f7a7 4ff1 7e3c
000000f0: 070d 033d 4bb8 23bd 4d81 aa3c 02ab ca94
00000100: 39eb c83c f410 b43d 5de8 543b c6b3 023d
00000110: 67bc 2bbd bb94 eebc b8d3 e43c e396 1abc
00000120: 136d 95bc d3f2 2e3d e1f5 e1bc d1e8 aabb
00000130: f739 903c 5e8c 93b9 a6be c43c c5eb 8139
00000140: 4185 163d dc75 653d a736 4bb4 1e8c 3ebb
00000150: 5005 7f3d ab92 243d f623 9fbc e7bb 19bd
00000160: 5f4f 04bd 94b1 073b 0885 463c 7198 e9bc
00000170: 30a4 663c 9d35 203d 8761 5d3c 6b43 a13c
00000180: 0961 beb7 b5fe 7ebc 8add 04b7 9709 6fbd
00000190: 743c 82bd c0ee 043c 1ee1 09b9 637d 823d
000001a0: 3df1 513d 4d95 5f3c 6f83 7e3d 4382 c6ba
000001b0: f596 89bb a735 71bc e0a4 cb3c 0745 d7bb
000001c0: d94a 963c 3873 093d 4c98 8f3c 72b4 88b1
000001d0: cf31 d93c fa7d 19bd 5d44 b9bb 4905 67bc
000001e0: e531 cc3b 3a48 16bc 9a0c aebd 59e1 cbb8
000001f0: 77cc 8e3d 2964 88bc 8846 afbc 4409 db3b
0.016651034 0.03988051 -0.040227782 -0.0013608597 0.005453691 0.049620293 -5.1605287e-17 -1.1832748e-34
-0.014873135 0.015637742 0.043571774 0.018052965 0.03260089 -0.007752549 -0.031252336 0.016487736
-0.0058919247 0.024455989 -7.1178154e-05 -3.2925524e-05 0.034248848 0.008183287 0.014470625 -0.044456795
-0.000929852 -0.037461687 -5.637498e-35 -0.00042523304 -0.0026452795 0.014842226 -8.414415e-13 0.028824793
-0.015443118 -0.019918187 0.010760928 0.031784788 -0.026591018 -0.053430144 0.000100432975 -0.0011366028
-0.061620235 0.0013893188 0.022220435 -0.020994093 -0.01617493 0.0066937516 0.024023209 -1.8604425e-21
-0.030581078 0.0075920117 -0.010438952 -0.0020839842 0.008292457 -0.021791054 -0.00045048355 -0.027655667
-0.006213244 -0.03115708 -6.871065e-15 0.015560462 0.031994846 -0.039970677 0.020813609 -2.0464238e-26
0.024526225 0.08792296 0.0032487132 0.031909727 -0.04192772 -0.029123655 0.027932987 -0.009435388
-0.018240487 0.042712044 -0.027583065 -0.005215742 0.017605765 -0.00028142607 0.02401669 0.0002478046
0.036748175 0.056020603 -1.892573e-07 -0.0029075216 0.062260926 0.040178936 -0.019426327 -0.037532713
-0.032302257 0.002070521 0.012116678 -0.028515073 0.014077231 0.03911363 0.013512022 0.019685468
-2.269495e-05 -0.015563657 -7.919394e-06 -0.058358755 -0.06359187 0.008113563 -0.00013149201 0.06371572
0.051255453 0.013646436 0.062137064 -0.0015145022 -0.0041989037 -0.014722264 0.024858892 -0.006569508
0.018346237 0.033557147 0.017528675 -3.978635e-09 0.026513008 -0.037473656 -0.0056539015 -0.014100381
0.006231534 -0.009172494 -0.08498497 -9.7217686e-05 0.06972592 -0.016649323 -0.021395937 0.006684454

act_conv1.weight f4 [4, 128, 1, 1]
00000000: 3e6d a03c d552 fd3d ed5e d5bd 13a5 573d
00000010: f769 2f3e cef7 cdbd c100 842e d6e7 63b9
00000020: a7e0 07bd a872 e33d ffb5 3cbd f00b 9f3d
00000030: dc7f 833d 22c0 bdbc 803a 1ebd e481 e63c
00000040: dce9 3b3d e6d3 073e cef1 853b d289 0080
00000050: 4293 aa3d 0ffd 943d 9f11 b23d 59ad 353e
00000060: c28a 0080 6dde 28bd 4a89 0080 7a89 0000
00000070: 4bb5 23ba 8b1c ee3c 855b e72d e367 fa3c
00000080: 6db2 66bd 247d 3a3b 1c53 4a3e 0d14 413d
00000090: 6d6e 0b3e 2d79 89bd d18a d13b ab85 d696
000000a0: 2bd4 a83d 3cea 7c3d a0ed 5d3d 9cc0 2dbe
000000b0: 771b b4bd 58f4 e73c 05e5 993d d51f 4c3b
000000c0: 5267 073e e110 aabd 68c0 293e e59a 9d3e
000000d0: 1fa1 a03d 6004 0dbd f088 0000 f104 04bd
000000e0: 8aa4 7abd ecc2 81bd d78a 0000 b7f6 d8bc
000000f0: 1c44 9bbd 5363 55bb 0a32 bfbd cc89 0000
00000100: 67f3 6a3d 04fa 873e bfe2 683c 1568 103e
00000110: 0303 ed3d adda d0bd 4d3f b13d ee2d df3d
00000120: 0a33 04bd 9314 d4bc e901 213d 79ad 3b3e
00000130: 6e83 0e3d 6320 47b6 9b43 e0bc fab0 963e
00000140: e165 5e3c 60c9 903d 7b89 0080 5305 ddbc
00000150: 77d0 efbd 15cc eb3d b9cc 6f3d 86fa 43bd
00000160: a787 843d c94f 833d c0d3 9e3d 1b05 a8bd
00000170: 7959 4bbb a74c 383c 6515 13bd 3712 9d3d
00000180: 878a 0080 5624 0d3e 044c b7bc f2e0 37be
00000190: d233 9c3c 2e3c f93d 6e2a 33bc b572 0b3c
000001a0: 8e1c f3bd 77e8 64bc f18d f03d 208a 0080
000001b0: d5a7 c93b f689 0080 f79d d73d 9904 9fbd
000001c0: bc1a 0d3d 86a8 fa3d 231f 3c3e c38a 0000
000001d0: 814d ba3d e780 97bc d188 0080 94af 55bd
000001e0: fa29 a7bd 5d7f 803e a4a7 34bd 5c89 0080
000001f0: 3451 56bd ba92 b1bd 93ba 043e c6cd 13bd
00000200: 856f 953a 92e3 45bd 61d6 bf3d ac2b 05bd
00000210: 5a13 aabd 9351 56bc cf88 0000 f188 0080
00000220: 18fc debc 7b1e 8cbc 4a8b a5bb 717f 69bd
00000230: dd0a f6bc 7b33 20bd aa6e 8c3d 7c60 e9bd
00000240: 3dff a4bd 92f6 cdbd 8758 ea28 7390 0080
00000250: e5d6 36ba f399 09bd 97fa 0fbc 5e24 db3d
00000260: f289 0080 63d1 083d 5a89 0000 b988 0080
00000270: 7298 073e 9061 e53b d58a 0000 1ea9 573c
00000280: b057 23bc 0e69 4dbc dd8b 853d 6232 1ebd
00000290: a866 c4bc 4ba9 f03d 4611 bbba d389 0080
000002a0: 6956 f73c a950 7cbd e9d8 9c3d 34b2 a63d
000002b0: 62cd 1b3e c931 5e3b 69d9 34bd 6c89 0000
000002c0: f8d6 933d b36f 833d ff7f 833b 8633 2f3d
000002d0: 3d54 b7bd aa17 b0b9 498a 0000 6d36 8abc
000002e0: d765 03bb b210 8d3d 3a8a 0080 5c04 a7bc
000002f0: 4941 943d 8eb0 d9bd 07eb 313e 359c 0080
00000300: db94 303e 7078 71bd d663 a6bc 3b67 e4bc
00000310: 6df2 703d 2021 ae3d c217 f83d a213 e33d
00000320: 717c d6bc b0f4 33bc 9fbc 70bd 7806 35be
00000330: b2da b93d e788 0080 b8a8 323e 769d ec3c
00000340: b646 c63d d9a9 31bd 228c 0080 dfd7 6d3c
00000350: ec84 473c 8b7d b6bc a200 64bd a7db 173d
00000360: 3e7c a93d b60a 3c3c e5ae af3c e313 8b3d
00000370: 29cd 963b 48fd 9538 b57b 1d3c 31d7 a5bd
00000380: 0a94 0000 935f 773d 2369 2434 bb67 6e3d
00000390: dbac 0bbe 2058 60bb f388 0080 bed1 91bc
000003a0: 404f 5dbb 6c8e 8c3d 2c34 2abd 028b 0080
000003b0: 2689 0080 0ca9 0000 c0bf 31bc 7c07 123d
000003c0: d89f 8b3d 6564 59bd d396 d2bd fa8a 0000
000003d0: 7a7d 02bd a907 8f3d 958a 0080 4b28 763c
000003e0: 3b07 263b 59bc 1c3c fff3 b43d 798a 0080
000003f0: d49e 01bc c806 7c3d ae06 023d 0a6f 43bd
0.01958334 0.123693146 -0.10418496 0.05264766 0.17130266 -0.100570306 6.002799e-11 -0.00021734773
-0.03317323 0.11105853 -0.046072003 0.07765949 0.064208716 -0.023162905 -0.03863001 0.028138109
0.045877323 0.13264427 0.0040876633 -4.944e-41 0.083288684 0.072748296 0.08694767 0.17741908
-4.9777e-41 -0.041227747 -4.925e-41 4.9317e-41 -0.00062449713 0.029066345 2.6302302e-11 0.030567115
-0.056322504 0.0028455937 0.19758266 0.047138263 0.13616343 -0.067125656 0.006394722 -3.465792e-25
0.08243593 0.06174682 0.054181695 -0.16968006 -0.08794301 0.028314754 0.07514385 0.0031146903
0.13223007 -0.08304001 0.16577303 0.30782238 0.078432314 -0.034428 4.9124e-41 -0.032231275
-0.061192073 -0.063360065 4.9806e-41 -0.02648483 -0.0758135 -0.0032560423 -0.09335716 4.9432e-41
0.057361033 0.26557934 0.014214217 0.14102204 0.1157284 -0.10197959 0.08654652 0.10897432
-0.032275237 -0.025888717 0.039308462 0.18327893 0.03479331 -2.9672162e-06 -0.027375987 0.29431897
0.0135740945 0.07069659 -4.9319e-41 -0.026980078 -0.117096834 0.11513535 0.058544848 -0.04784634
0.06471186 0.06411702 0.07755232 -0.08204099 -0.0031028672 0.011248744 -0.035909075 0.0766949
-4.9694e-41 0.13783392 -0.022375114 -0.17956904 0.019067679 0.121696815 -0.010935409 0.008511235
-0.11870681 -0.01397144 0.11745823 -4.955e-41 0.0061540403 -4.9491e-41 0.10528176 -0.07764549
0.034449324 0.122391745 0.18371253 4.9778e-41 0.09096814 -0.018494083 -4.908e-41 -0.052169397
-0.08162303 0.2509717 -0.044105187 -4.9275e-41 -0.052323535 -0.08670564 0.12961797 -0.036084913
0.0011401033 -0.04831273 0.093670614 -0.032512352 -0.08304472 -0.013080972 4.9078e-41 -4.9125e-41
-0.027219817 -0.017104378 -0.005052005 -0.057006303 -0.030034477 -0.039111596 0.06857045 -0.11395356
-0.08056495 -0.10056795 2.6017611e-14 -5.1819e-41 -0.0006974771 -0.033594083 -0.008787773 0.10700296
-4.9485e-41 0.03340281 4.9272e-41 -4.9047e-41 0.13241747 0.0070001557 4.9804e-41 0.013162879
-0.009969637 -0.012537254 0.065208174 -0.038622268 -0.023974732 0.1175104 -0.0014272116 -4.9442e-41
0.03019257 -0.06160036 0.0765856 0.08139458 0.15215066 0.0033904186 -0.04415265 4.9298e-41
0.072187364 0.06417789 0.004013061 0.042773746 -0.08951614 -0.00033586967 4.9607e-41 -0.016871655
-0.0020049715 0.0688795 -4.9586e-41 -0.02038782 0.07239015 -0.10629378 0.17374812 -5.6037e-41
0.17244284 -0.05895275 -0.020311277 -0.027881255 0.058824945 0.08502412 0.121139064 0.11087729
-0.026182385 -0.010983631 -0.058773633 -0.17678249 0.09074916 -4.9111e-41 0.17447174 0.028883677
0.09681456 -0.04337487 -5.027e-41 0.0145168 0.012177687 -0.02227666 -0.055664666 0.03707471
0.082756504 0.011477163 0.0214457 0.067909025 0.0046020937 7.152051e-05 0.009612014 -0.08097685
5.3106e-41 0.06039388 1.5311939e-07 0.058204394 -0.13640158 -0.0034232214 -4.9128e-41 -0.017800208
-0.003376916 0.06863102 -0.04155366 -4.9867e-41 -4.92e-41 6.0643e-41 -0.010848939 0.03565167
0.06817597 -0.05307426 -0.10282674 4.9855e-41 -0.031857945 0.06983883 -4.9714e-41 0.015024255
0.00253339 0.00956639 0.08835601 -4.9675e-41 -0.007911403 0.061529905 0.03174465 -0.047713317

act_conv1.bias f4 [4]
00000000: 34a9 343d 20d1 f8ba 36aa bcbc 264e 023e
0.044106677 -0.0018983223 -0.023030382 0.12725124

act_fc1.weight f4 [81, 324]
00000000: f443 293d 4587 e83c 679f 293d 832b b43c
00000010: b793 7e3c 9f45 bfbb de43 dc39 0a5f 04bc
00000020: 290c 41bd ede3 433d 4fa2 f43c 8b0c 80bd
00000030: fc9a 62bd c3c6 3ebc 1308 dbba 5cae 06bd
00000040: e1c4 f93b 4e1b c4bc a994 893c 7c74 28bb
00000050: 4ac8 1fbd c041 8fbd 17ae 96bd 639d 5ebd
00000060: 631b 573c 2182 beba 6f04 913c cc20 e13c
00000070: 1056 66bd 73dc 73bd 05b8 e0bd 0f1e b9bd
00000080: 7885 c4bc 0d5a 7dbd d45d 543c 6828 45bd
00000090: 484e 05bd 7a97 4cbc c848 bbbd b883 e1bd
000000a0: a371 77bd dae0 fdbd f366 babd b2e2 30bc
000000b0: b65d 45bc 99fe 283d 437c 2fbd 3e90 41bd
000000c0: e640 09bd df9f 26be ead7 cfbd 13a6 78bd
000000d0: 0e77 95bd 69d0 76bb b01f d43d 2f1e 803c
000000e0: 13c9 94bd baa8 27bd bff2 79bd 6a40 26bd
000000f0: 1504 4abd 0bec 51bd c192 07bd 3ff1 843e
00000100: 7f44 83bd 5af9 e23c f770 94bc 59d3 c0bd
00000110: 3917 f9bc 5743 4bbd 3e57 de3c b40b 87b9
00000120: 2bfc 883e 04cd 913e 28b3 79bc 27ea 643c
00000130: f12b 75ba d886 81bb 71b8 a1bc ac91 c53c
00000140: 823e 333d ee98 d5bc 6b67 0bbd 8392 b0bd
00000150: fdcd 4f3c c9d2 903c f02d 1ebd 8d71 97bb
00000160: c3ff b2bc 79b1 c83d df16 553b 7b17 953a
00000170: 5f14 c7bc a382 a33c 7978 86bd ec61 cabb
00000180: b68d 033b bc43 c8bd 7b36 b33b 814e c43c
00000190: 26db 863c 4be6 1dbd 04d1 fc3c 34bf 9d3c
000001a0: 1a74 7bbc c98d 50bc 201c 193d 3e29 dfbc
000001b0: 1b94 bd3c 4208 233d c751 ab3b 8c63 28bd
000001c0: ba99 243d 8e4a cebc 0573 093a ce3a 82bd
000001d0: 213e 88bc bf1e 883d 8d0e 19bb a0a9 2cbd
000001e0: 672c 0a3d b462 fa3b bd39 3d3d 05c7 5fbc
000001f0: 304a 0abd 4014 21bc 6d60 8dbd 5c70 093d
00000200: 549d 283d b21a 08bc 4d6d 1bbd a3c1 1a3d
00000210: f00b 083d be4f 143d 64ed 7a3d f758 123d
00000220: 044d e0bc ab4f 62bb 1188 c3bc b7b6 52bb
00000230: 3138 0a3d 4cb6 2fbd ca9f cebc d986 d0bc
00000240: e1d5 23be c160 3dbc 4039 02bd bf58 cb3b
00000250: b87a 4a3d bf6b 3b3c 18d8 ea3c 810b 95bc
00000260: 7613 f3bc 51ea f9bd e927 44be e6e4 be3b
00000270: 7255 84bc dfb0 573d 7298 033d ef3b 293c
00000280: 52ab 2abd d0dc 823c 1795 67a1 ae66 e734
00000290: 8d28 9435 a498 ab37 6b14 c636 377a a337
000002a0: 79f2 4836 ac1b d136 f226 e234 d51c 3e35
000002b0: 6d79 0238 8d4c df38 d111 e539 7eee 2d39
000002c0: 43b0 8939 5dd1 9338 a92b a538 a97d e036
000002d0: 2474 4a34 8afc 5839 0609 0b3a d26c 2c3a
000002e0: 05d1 313a 2007 f739 410a 013a 951b 8a39
000002f0: c856 cd37 8a21 3136 7520 d739 3e8e 9139
00000300: 490c 8f3a 227c 073a 5819 083a bf8d 9d39
00000310: a321 be38 a593 b236 aa8a ae34 2bad 7d39
00000320: d882 bc39 c5ad 973a e439 6039 3654 8839
00000330: 7626 6c37 2995 4b36 f05d ab34 a6d8 3333
00000340: 31dd 6739 ad0b c439 3ca6 443a a636 b839
00000350: 57f9 7d38 5ca6 bcb6 2532 96b5 3fae cfb2
00000360: 48b4 d5b2 ac6a 0039 8aaf e238 a88c 633a
00000370: ef97 3d38 2d9d 1f38 6939 9ab7 34c5 53b6
00000380: 91cf aeb3 aa10 1235 04ae 4537 5a95 b038
00000390: a941 e238 31c3 8e37 4f68 91b7 aa65 90b6
000003a0: 6a1c a4b5 02dc cd34 b35b 0233 6e55 5835
000003b0: de28 e435 f018 cb33 496f d0b4 5cc6 22b5
000003c0: 5710 1a35 11fe dd33 5007 d02c ff83 b13d
000003d0: b32a 3e3d 57e5 553c 9d53 283d 88c9 063d
000003e0: 7e52 fd3c 5332 973c d7bb d63c 931e 753d
000003f0: 0fb2 153d 307a 223b 7d0b 103d c357 b03c
0.04132457 0.028384814 0.041411784 0.021993404 0.015538148 -0.005837157 0.00042012235 -0.0080793
-0.047130737 0.04782479 0.029862551 -0.062523924 -0.055323586 -0.011644068 -0.001671078 -0.032881126
0.0076223467 -0.023938801 0.01679452 -0.0025704196 -0.03900937 -0.06994963 -0.07357424 -0.054349314
0.013129088 -0.0014534631 0.01770231 0.02748146 -0.05623442 -0.05953641 -0.10972599 -0.09038936
-0.023989424 -0.061853457 0.0129618235 -0.048134238 -0.032545358 -0.012487287 -0.09144741 -0.110114515
-0.060411107 -0.12396403 -0.09101667 -0.010796236 -0.012046268 0.04125843 -0.042843115 -0.0472567
-0.033509158 -0.16271923 -0.10148604 -0.060705256 -0.072980985 -0.0037660843 0.103576064 0.015639393
-0.07264914 -0.040932395 -0.061022516 -0.040588774 -0.0493203 -0.0512505 -0.03309894 0.25965306
-0.06409549 0.02770679 -0.018120272 -0.09415311 -0.030406581 -0.049624767 0.02714121 -0.00025757926
0.2675489 0.28476727 -0.015240468 0.013971842 -0.0009352556 -0.003952842 -0.019741269 0.024117313
0.043760784 -0.0260739 -0.034034174 -0.08621695 0.012683389 0.017678635 -0.03861803 -0.0046216906
-0.021850472 0.09799475 0.0032514853 0.0011374796 -0.024301706 0.019959753 -0.06565947 -0.006176224
0.002007348 -0.09778544 0.005469141 0.023963215 0.01646192 -0.038549703 0.030861385 0.019256212
-0.015347505 -0.012729117 0.037380338 -0.027241345 0.023141911 0.039802797 0.0052282545 -0.04111056
0.040185668 -0.025182035 0.00052432745 -0.06358872 -0.016631188 0.06646489 -0.002335462 -0.042153955
0.03373375 0.007641161 0.04619764 -0.01365829 -0.033762157 -0.009831488 -0.069031574 0.03355442
0.041165665 -0.008307146 -0.037946034 0.037782323 0.03321451 0.03620886 0.06126155 0.035729375
-0.027380474 -0.003453235 -0.023868592 -0.0032152364 0.033744995 -0.04289846 -0.025222678 -0.025454925
-0.15999557 -0.011558712 -0.03179288 0.0062056477 0.04943344 0.011439263 0.028667495 -0.018193962
-0.029672366 -0.122028954 -0.1915585 0.0058256267 -0.016154025 0.05265891 0.032127805 0.010329231
-0.04166729 0.015974432 -7.8463163e-19 4.3101812e-07 1.1038661e-06 2.0455867e-05 5.903237e-06 1.9488025e-05
2.994346e-06 6.231907e-06 4.2124117e-07 7.082247e-07 3.1107502e-05 0.00010647727 0.00043691558 0.00016587411
0.00026262001 7.048503e-05 7.8759454e-05 6.690349e-06 1.8854968e-07 0.00020693443 0.0005303774 0.0006577495
0.00067831605 0.0004711682 0.00049224874 0.0002634196 2.4478315e-05 2.6394578e-06 0.00041032178 0.00027762534
0.0010913695 0.00051683385 0.0005191765 0.00030050983 9.066171e-05 5.3220015e-06 3.2510917e-07 0.0002419247
0.0003595564 0.0011572173 0.0002138387 0.00026002683 1.4075651e-05 3.033618e-06 3.191958e-07 4.1873726e-08
0.00022112277 0.00037392732 0.00075015775 0.0003513593 6.0552116e-05 -5.6222034e-06 -1.1190465e-06 -2.417721e-08
-2.4878446e-08 0.0001224677 0.000108092165 0.0008680322 4.520261e-05 3.8054935e-05 -1.8384964e-05 -3.1556237e-06
-8.1402625e-08 5.441349e-07 1.1782631e-05 8.420153e-05 0.0001078875 1.7018612e-05 -1.733392e-05 -4.3033697e-06
-1.2227222e-06 3.8344302e-07 3.0351384e-08 8.0590587e-07 1.6999218e-06 9.45746e-08 -3.882399e-07 -6.0638354e-07
5.739325e-07 1.0337329e-07 5.9125274e-12 0.086677544 0.04642744 0.013055167 0.041095365 0.03290704
0.030923124 0.018456614 0.026212616 0.05984361 0.036546763 0.0024792068 0.035167206 0.021526223

act_fc1.bias f4 [81]
00000000: 3e87 f43d 8528 76bc 593e 3dbe 05e4 003e
00000010: 6fb9 053e 6495 f93d 09d6 f6bd 604f 78bc
00000020: 6cc0 b33d 27b4 51bb bd2f 99bd be35 d93d
00000030: e21c 633d 8795 843e de8d 973d 68cf 9f3d
00000040: feb2 2fbe 6881 c9bc e280 25be 25b2 0b3e
00000050: 4cb7 0d3c f15e 603e 85fb 9ebd ff75 3c3e
00000060: aaa3 953c 8a07 163e 4a24 f5bd ff95 a73d
00000070: 31a9 213d c195 fb3d 171e 013e 2440 433e
00000080: fd72 c53d 5272 353e 7732 3c3d e944 dd3d
00000090: 7a00 e43d 0299 553e 9623 dbbc 1fcc 793e
000000a0: 89b5 5fbd 7ed5 8f3e 12da a5bd 8470 6a3e
000000b0: e92f cb3d 7643 b13d 312d 6c3d 12fc 173e
000000c0: e363 da3d 68b2 743e 596c 913d b453 4b3e
000000d0: 1eed 703c 09b7 a53d a0f0 29be 33b6 fc3d
000000e0: d8e0 bd3d 56dc 683e 3c79 b2bd a07e 083e
000000f0: 5e1b 45bc 6263 153e d6df 07be c374 70bd
00000100: 5e57 02be 0f75 063e 2302 633d 83a0 323e
00000110: 39dd 153d 6aa1 003e c687 18be 3f18 bbbc
00000120: 9508 423d d2c4 8abd 1b50 2cbe 3a4a d93d
00000130: 0e30 953d 6963 b23d 6a1c 1cbe eafe cebc
00000140: 635b c83d
0.11939858 -0.015024309 -0.18480815 0.12586983 0.13059019 0.12186697 -0.12052543 -0.015155643
0.08776936 -0.0031998248 -0.074798085 0.10605954 0.055447467 0.2589533 0.07400106 0.078032315
-0.17158124 -0.024597839 -0.16162446 0.13642175 0.008649658 0.21911217 -0.07762817 0.18404387
0.018266518 0.14651313 -0.11969812 0.08182906 0.039467994 0.12284423 0.12609135 0.19067436
0.09641073 0.17719391 0.045946565 0.10804159 0.111329034 0.20859149 -0.026750367 0.24394272
-0.054616485 0.2809257 -0.08098234 0.22894484 0.099212475 0.08655445 0.057660285 0.14842251
0.10663583 0.23896182 0.07100744 0.19856149 0.014704971 0.08091552 -0.16595697 0.12339439
0.09271401 0.22740301 -0.0871453 0.13329554 -0.012030451 0.14588693 -0.1326898 -0.058705103
-0.1272864 0.13130592 0.05542196 0.17444043 0.036587927 0.12561575 -0.14895543 -0.02283871
0.047371466 -0.06775822 -0.16827433 0.10609861 0.07284556 0.08710367 -0.15245214 -0.025268037
0.09783056

val_conv1.weight f4 [2, 128, 1, 1]
00000000: 0487 243d f815 ab3c 8259 3fbc 13f2 763c
00000010: a1cf 903d bd94 3abd b089 0000 c789 0000
00000020: c07f 81bb 5aa2 3a3d ef6a a8bd 4100 b63b
00000030: 7b65 c9bd 5c4e 883c 9fe0 8dba 1d20 9e3d
00000040: 926c 5ab9 2bd6 febc 4323 2230 111d aaac
00000050: c861 dcbd be6a 60bd 9349 673c 9a1a b53b
00000060: 2198 8735 dd85 d93c 7b31 3718 893d d2b1
00000070: febf 1b3d 68e8 773d d79a d2ba afcb 8cbd
00000080: c28d 623d 212a 733c 1c45 403d f007 73bd
00000090: 92c0 e9bb b839 20bc 67c1 313c e183 a7b2
000000a0: e831 4cb1 e1ed 373d 50cf 223d 9b0c d7bc
000000b0: c8e0 fa3c dd50 59ae 3320 97bd 938a 0080
000000c0: 4076 9d3c 60c2 2abd 6d74 893d 003b 87ba
000000d0: 8adb 753c d38a 1b3d 5eff d3aa bbb1 5f3d
000000e0: 6857 1f3d a5db 64bb 058a 0000 0580 8bbc
000000f0: 7d20 9cbd 9511 ad3c cbf0 0d3d 1689 0080
00000100: 2fb9 423b 2164 8dbc 787e 8f3d 2223 53bb
00000110: b8df 6aba 91ab dfbc b69c 1fbc 90a1 af3b
00000120: 32ec 2a3d 9019 95bd 3cff 6a3d 4875 883d
00000130: c3da b53a 8f18 b6b2 c6ea 753d 3811 9cbc
00000140: c162 33bd f52b 06bd 475b eead 6f7f 473d
00000150: 2cbb 4dbd f554 433c e9f7 423d ab21 123d
00000160: 368d 5d3d 32af e83c 441b 5f3c 8a07 183c
00000170: 512d 103d c9c3 3fbd 112e a2bd 870d c1ba
00000180: 7093 9824 a1e3 27bd 3475 5739 b0e7 bb35
00000190: 2c36 cd3c 71e1 963d 7a18 4724 a044 e5bd
000001a0: 4149 53bd 231a fcbc b79e 69bd 5608 a5aa
000001b0: 7c8f 0080 adcf 9b3a 50b9 373d 583c 973c
000001c0: 8dc3 74bd ed74 fc3c 0022 803a ed88 0000
000001d0: d896 cebd ce6f 68bd 77da c1b5 9cf1 8c3d
000001e0: 8ad6 aebd 3732 4523 dd92 0cbc 32a8 f6b9
000001f0: 4b48 71bd fd37 b2bc 2499 a23c b6aa fc3b
00000200: d3c0 7cb9 6389 9ab9 021e f0b3 b153 973a
00000210: cb33 ac3b 68d0 073b 3f8a 0000 269e 0080
00000220: 7cba 38b8 54e3 073c 4298 71ba 2e2e 67bb
00000230: 33e8 8abb f253 56b9 09ec ae92 1d14 8d3b
00000240: ed8a 0000 8e35 be39 ff89 0080 498b 0000
00000250: cdc6 eabb dad1 8c37 194e 243b bfc5 bd2b
00000260: 5b8c 0080 5442 45bb 9292 0000 5a89 0080
00000270: b22c 96bb 1936 5c3a 3289 0080 fd6f a9bb
00000280: 22aa 21ba 1b68 8cb6 59d5 60b9 3c40 b3b9
00000290: db88 0080 028a 0000 7824 94b8 2689 0000
000002a0: a889 0000 203c 043b 3632 a63b 9370 e205
000002b0: 8377 8e3b d888 0000 4108 24ba 068f 0000
000002c0: a4fe 4939 a880 69b9 13c4 723b bb88 0000
000002d0: 6fe5 643b f764 08ba d38a 0000 e8b8 a2bb
000002e0: 4636 c63b c38a 0000 a68b 0080 3e34 2780
000002f0: 6f64 dcb7 1fad 923b a52f ebb5 118f 0000
00000300: 0b89 0080 f588 0080 a598 ec3b 968a 0080
00000310: 668a 0080 4947 e211 b3db 1a29 f4a8 70ba
00000320: 1db1 87bc a2b9 9dbb 7d9a bf3a 3d23 17bb
00000330: 6d89 7920 a28a 0080 db90 25bc e088 0000
00000340: ce32 4eb7 6b52 66b7 de89 0000 7f14 9aba
00000350: 0f7b 47bb f43d d538 cb90 2439 e599 7dba
00000360: 8949 1bbc d2b7 a4bb 2457 f1b5 c046 abb5
00000370: 4793 c1bb 8a2b 09ba c32d 16ba e7be 08ba
00000380: 9989 0000 a867 cd21 338a 0080 632d 5481
00000390: 7c21 553b 6cdb abba 8e89 0000 b266 84bb
000003a0: 5fb7 bdb7 66b4 8bb9 19ab a0b8 dc8b 0000
000003b0: 438a 0000 6989 0000 c584 013b 0462 77ba
000003c0: b7b0 2e98 2f31 24ba 6775 e834 b389 0000
000003d0: c63f 32bb 78b6 7739 208c 0080 6994 713c
000003e0: 3848 d9ba 0d8b 0080 720e d798 8589 0000
000003f0: 5695 6eb9 0d74 5e35 9dbf 56bc 8df9 99bb
0.040167823 0.020884499 -0.011679055 0.015072363 0.07070852 -0.045552004 4.9393e-41 4.9425e-41
-0.0039519966 0.045564987 -0.08223521 0.0055542295 -0.09833809 0.016638927 -0.0010824389 0.07720969
-0.00020830546 -0.031107983 5.8985367e-10 -4.8349176e-12 -0.10760838 -0.054789297 0.014116663 0.005526853
1.0102559e-06 0.026553089 2.3677177e-24 -6.1188e-09 0.038024895 0.060524374 -0.0016067874 -0.06874787
0.055310972 0.014841587 0.046940908 -0.05933374 -0.007133552 -0.009779386 0.010849333 -1.950133e-08
-2.9714275e-09 0.044904593 0.03974849 -0.026251128 0.030624762 -4.941191e-11 -0.073791884 -4.9711e-41
0.019221425 -0.041689277 0.067116596 -0.0010317266 0.0150059555 0.03797419 -3.7658326e-13 0.054612856
0.038901716 -0.0034920957 4.9512e-41 -0.017028818 -0.07623384 0.021126548 0.034653466 -4.9177e-41
0.0029712429 -0.01725966 0.07006544 -0.0032216986 -0.00089597283 -0.027303489 -0.009741953 0.005359836
0.04172916 -0.07280266 0.057372317 0.066629946 0.00138744 -2.1198757e-08 0.06003835 -0.01905118
-0.04379535 -0.032756764 -2.7098003e-11 0.048705515 -0.05022733 0.011922111 0.047599707 0.03567664
0.054089747 0.028403852 0.0136173405 0.009279141 0.035199467 -0.046817575 -0.07918943 -0.0014728763
6.616926e-17 -0.04098857 0.0002054766 1.4000016e-06 0.025050245 0.07367218 4.317198e-17 -0.1119473
-0.051583532 -0.030774182 -0.057036128 -2.9315672e-13 -5.1472e-41 0.0011887454 0.044854462 0.018461391
-0.059756804 0.030817473 0.0009775758 4.912e-41 -0.10087365 -0.05674725 -1.4443202e-06 0.06882021
-0.08537014 1.0690025e-17 -0.008579937 -0.00047046092 -0.058906835 -0.021755213 0.019848414 0.00771078
-0.00024104425 -0.0002947553 -1.1181329e-07 0.0011545328 0.0052551976 0.0020723585 4.9593e-41 -5.6733e-41
-4.4042696e-05 0.008293945 -0.00092161086 -0.0035275328 -0.004239106 -0.00020439902 -1.1039131e-27 0.004305376
4.9837e-41 0.00036279525 -4.9504e-41 4.9966e-41 -0.007164812 1.678702e-05 0.0025070964 1.3484143e-12
-5.035e-41 -0.003009935 5.258e-41 -4.9272e-41 -0.004582965 0.0008400395 -4.9216e-41 -0.0051708207
-0.00061670144 -4.1844446e-06 -0.00021441783 -0.000341894 -4.9094e-41 4.9508e-41 -7.063983e-05 4.92e-41
4.9382e-41 0.002017744 0.0050719036 2.1294291e-35 0.004347743 4.909e-41 -0.00062573334 5.1307e-41
0.00019263715 -0.0002226854 0.003704314 4.905e-41 0.0034926792 -0.0005203033 4.9801e-41 -0.00496589
0.0060489504 4.9778e-41 -5.0096e-41 -3.600325e-39 -2.6272812e-05 0.004476204 -1.7522731e-06 5.1323e-41
-4.9162e-41 -4.9131e-41 0.007220345 -4.9715e-41 -4.9648e-41 3.5700446e-28 3.4385428e-14 -0.00091804494
-0.016563946 -0.004813389 0.0014618185 -0.0023061775 2.1136591e-19 -4.9732e-41 -0.010105337 4.9101e-41
-1.2290386e-05 -1.3728258e-05 4.9457e-41 -0.0011755376 -0.003043834 0.00010168171 0.00015694198 -0.0009674116
-0.009477981 -0.005026796 -1.798126e-06 -1.2761084e-06 -0.0059074494 -0.0005232623 -0.0005728865 -0.0005216435
4.9361e-41 1.3918778e-18 -4.9577e-41 -3.8970814e-38 0.003252118 -0.0013111657 4.9345e-41 -0.0040405625
-2.2615945e-05 -0.00026646553 -7.661264e-05 5.0172e-41 4.9599e-41 4.9293e-41 0.0019762975 -0.0009436908
-2.2578191e-24 -0.00062634324 4.329879e-07 4.9397e-41 -0.0027198656 0.0002362373 -5.0267e-41 0.014744856
-0.0016577309 -4.9882e-41 -5.5590783e-24 4.9333e-41 -0.0002275308 8.287032e-07 -0.013107208 -0.004698938

val_conv1.bias f4 [2]
00000000: dd82 6b3d 3c25 76bc
0.057497848 -0.015023526
