课程设计/AlphaZero简单复现/models/policy_batch_1550.model (torch, 530639 bytes, 15 tensors)

conv1.weight f4 [32, 4, 3, 3]
000000 0f 9f 70 3e 63 fe 97 bd 6a 68 8f 3e f9 d5 69 bd
       0.23498176 -0.07421567 0.2800935 -0.057088826
000010 31 76 a3 bd 98 93 ec bd 70 31 c4 3e df 75 39 be
       -0.079815276 -0.11551589 0.38318968 -0.1811137
000020 fd 1a da 3e a2 9c 5c 3e 50 11 bb bd cd 94 45 3e
       0.42598715 0.21544126 -0.091341615 0.19295044
000030 3e 5d 8a bd a0 2f 67 bd 6c 6e 96 bd b7 b5 5a 3e
       -0.06756066 -0.056441903 -0.0734528 0.21358381
000040 27 98 d9 bd 27 ae 4f 3e 37 6b 82 3d df f2 3f bd
       -0.10624724 0.20281278 0.06368106 -0.04686248
000050 7e 94 91 3d 19 03 0e bd dd e7 1c bd 7e b1 2e bd
       0.07108401 -0.034670923 -0.03830706 -0.04264974
000060 c0 d0 99 3d e2 92 5d bc 26 66 d2 3d f8 ea 1f 38
       0.07510519 -0.013523789 0.102733895 3.8127386e-05
000070 eb b4 bd bb 26 13 19 bd 00 8e d7 bd 48 b5 d5 3d
       -0.0057893894 -0.037371777 -0.10525131 0.10434967
000080 6d 28 89 bc ce 8f 63 3b bd b9 d7 3c 0b 7f 0c bd
       -0.01674291 0.0034723165 0.026333684 -0.034300845
000090 0b f1 af 3e 83 e7 9c 3e fb b8 e1 be 5c 68 38 3e
       0.3436359 0.3064538 -0.4408644 0.1800856
0000a0 b1 30 a1 bd 1d 79 a9 3e 12 b9 a9 be e4 a0 1b 3e
       -0.07870615 0.33100215 -0.3314901 0.15198094
0000b0 cb 1e 23 3e d7 ae fc 3c b7 3c 01 3c 85 0d 71 3d
       0.15929715 0.030845089 0.007888011 0.058850784
0000c0 56 70 23 be e0 a0 41 bd 4c f5 9f bd 37 b2 7f 3e
       -0.15960822 -0.047272563 -0.078104585 0.24970327
0000d0 af 49 d4 bd a7 05 07 3e bb 29 1d bc 5a b0 57 bd
       -0.103656165 0.1318575 -0.009592469 -0.052658416
0000e0 77 b7 da 3c b5 f2 9e bc 32 e8 ae bd a0 f6 55 3c
       0.026698811 -0.019402841 -0.085403815 0.013059288
0000f0 35 07 14 3d e9 f3 09 3d cf 55 bd 3b ae 67 48 3c
       0.036139686 0.033679876 0.0057780514 0.01223175
000100 68 71 0d be ae 39 9e 3d 39 bd 1e be 35 39 9e 3d
       -0.13812792 0.07725845 -0.1550187 0.07725755
000110 c3 4a f4 bd 23 81 0d 3e 2f 9e 38 bd d7 e9 3c 3e
       -0.11928322 0.13818793 -0.04507273 0.18448578
000120 c5 c5 8a 3e de 3b 49 3e 28 97 01 bd 2d 85 9f be
       0.2710401 0.19651744 -0.031638294 -0.31156293
000130 5a ff 6b bd 31 c6 93 be 5b 91 c1 3d 6a c3 70 3e
       -0.05761657 -0.28862146 0.094515525 0.23512045
000140 9f e0 88 be 29 b6 1c be 1c e5 1c be 6f 66 af bd
       -0.26733872 -0.15303864 -0.15321773 -0.085644595
000150 b6 85 a6 3e 78 5d 30 3e bd 87 34 3e cc e4 0d 3e
       0.32523888 0.17223155 0.17629905 0.1385681
000160 93 95 9f be 9b 95 d8 3d d4 cd c3 3c 7d f7 a6 bb
       -0.31168804 0.1057541 0.023901857 -0.005095421
000170 89 12 9a 3c bf cf a2 bc 76 4b 72 3c ef e3 a0 3c
       0.018807666 -0.019874452 0.014788499 0.019639937
000180 43 3f 49 bc 28 50 52 be 60 d4 1c 3d a8 dc 21 be
       -0.012283149 -0.2053839 0.038288474 -0.1580683
000190 74 15 ca 3d 8a 85 47 3d 64 1b ab bb 8f b2 4c 3d
       0.09867373 0.048711337 -0.005221771 0.049974974
0001a0 53 c8 36 3d 86 b7 e8 3c 08 ec 08 3e 34 e6 36 be
       0.044624638 0.028407823 0.13371289 -0.17861253
0001b0 6e d5 08 3d d1 2d 16 bf ae 7c b6 3e f0 d6 74 bd
       0.033406667 -0.5866366 0.35641998 -0.059775293
0001c0 57 a5 df 3e 34 3a 03 bf c0 51 83 3d 30 0e 08 3d
       0.43680832 -0.51260686 0.06412077 0.033216655
0001d0 6d ee c6 3d cd 32 df 3d 65 ab 25 3e 5c 32 62 be
       0.09713445 0.10898361 0.16178663 -0.22089523
0001e0 1d a3 03 3e b5 01 7f be 78 f0 14 3e cc 7c f8 bd
       0.12855192 -0.24902995 0.14544857 -0.12133178
0001f0 4f 6f 6e 3d 95 07 25 3e 37 de c1 3c 04 06 7f 3d
       0.05821162 0.16116174 0.02366553 0.062261596
000200 28 8a 1a bd e9 c0 16 3b e1 9f c5 bc 7a db 3c 3d
       -0.037729412 0.0023003167 -0.024124088 0.046107747
000210 0d 20 5a bd f0 48 84 bb ff d1 ed 3d c1 1e 95 3d
       -0.053253222 -0.004037015 0.11612319 0.072812565
000220 cd 24 70 bd c7 ca bb 3d a3 6f 09 3e e1 1a 36 bc
       -0.058628846 0.09169536 0.13421492 -0.011114807
000230 6d 34 cb bd 4d b7 d3 bd a3 fa b3 bd ee d5 02 3e
       -0.09922109 -0.10337696 -0.087880395 0.1277692
000240 08 cd 4a be 99 56 96 bd 52 83 a9 bd b2 f6 c1 3d
       -0.19804776 -0.07340736 -0.082770005 0.094708815
000250 bf eb 5f 3e bb f2 be 3d 54 79 49 bd 62 36 34 bd
       0.21867274 0.09323641 -0.049187973 -0.043997176
000260 31 56 51 3e 3f 4a db bd 9a 15 e1 3c de 84 04 be
       0.20443036 -0.10707521 0.02747612 -0.1294131
000270 c6 fe 4c 3e 05 39 50 bd 0c 95 8b bd f5 29 18 3d
       0.20019063 -0.050835628 -0.06815538 0.03714939
000280 79 f7 18 bd 4f 55 fe bd b1 27 2b bd 1e f9 7e 3b
       -0.037345383 -0.12418615 -0.0417859 0.003890581
000290 ac 96 70 3d 1c 56 1a 3e 6b 82 97 bd 51 ab a3 bd
       0.058737442 0.1507191 -0.07397922 -0.079916604
0002a0 69 87 95 bc a9 f0 2c bd 51 46 35 be 85 39 86 3d
       -0.018253045 -0.0422217 -0.17702605 0.0655394
0002b0 95 28 a0 3d d3 ae ea 3d 6c 10 04 3e 66 19 bb 3d
       0.078202404 0.11459126 0.1289689 0.09135704
0002c0 ff 6d cf 3d e4 31 15 3e bf 6a 17 3e fd 77 ed 3d
       0.10128402 0.14569813 0.14786814 0.115951516
0002d0 c4 02 84 3e 6d ad 39 3d fa d5 8e bd 66 85 a6 be
       0.2578336 0.045331407 -0.069744065 -0.3252365
0002e0 0b 35 cf 3e 2b 42 7a 3e 38 76 b2 3e f9 61 81 3c
       0.40470156 0.24439304 0.3485582 0.015793787
0002f0 74 10 93 bc 97 4a 13 3e f3 66 62 bd c1 9e ee bd
       -0.017952181 0.14383923 -0.05527396 -0.11651374
000300 cb 2b f5 be bf d2 6d 3e 9b fa 0d 3e b3 8f e5 3d
       -0.47884974 0.23224925 0.1386513 0.11209049
000310 4e 51 14 be 1c 68 ba bd 9c 19 ae 3d 6f ad a8 3c
       -0.1448414 -0.091018885 0.08500978 0.020590512
000320 79 86 8a 3b 7a f0 9c bd 98 9f b8 3d be 9a 5d 3d
       0.004227456 -0.07663055 0.09014815 0.05410265
000330 a6 d0 25 3d ee 3e f1 3b c7 18 8d bc 21 7c 93 3c
       0.040482186 0.007362238 -0.017223729 0.018003525
000340 4b 50 e1 3c 8f f2 d2 3d 3f 1a 0f 3e 8c 61 0b be
       0.027504107 0.10300171 0.13974856 -0.1361143
000350 b3 95 b4 bd 17 64 c7 bc 15 7e 8a bd 7a 07 22 3e
       -0.08817615 -0.024339719 -0.067623295 0.15823165
000360 22 8e 83 bd 9d 05 eb 3b 2f af 81 bd 38 49 9d 3c
       -0.06423594 0.0071723 -0.06332242 0.019199952
000370 2e b6 3d bd ef 24 08 be e9 d5 11 3d e3 c5 e3 3a
       -0.04631632 -0.13295339 0.03560439 0.00173777
000380 fb 7d 3e 3e 79 a6 50 bd 88 47 b3 3d 49 c4 f6 3d
       0.18602745 -0.05094001 0.08753878 0.12049157
000390 df d8 87 bc d7 47 0a 3f 97 10 08 bf 2e da 7f 3d
       -0.016582904 0.5401587 -0.53150314 0.06246393
0003a0 07 78 23 bf d3 0b bc 3e 96 f5 9b bc c7 e3 d7 3b
       -0.6385502 0.3672777 -0.019038003 0.0065884325
0003b0 5a 30 90 bc 2e 5d 0b 3d a7 ef a7 3d 72 de 98 bd
       -0.01760118 0.03402441 0.08200007 -0.07464303
0003c0 c1 34 0f 3d 53 4b 87 bd d9 35 db 3d 1d 37 22 3c
       0.03496242 -0.06606164 0.1070363 0.009900835
0003d0 f3 06 ef 3d 85 a6 e0 3d 47 38 07 38 41 61 9f bd
       0.11671247 0.10969261 3.223892e-05 -0.077822216
0003e0 98 02 50 bc b2 0e 0c be bb 79 18 bd 0f 44 7c bd
       -0.012695931 -0.13677481 -0.037225466 -0.061588343
0003f0 01 48 61 be 51 63 0b 3e 4b a1 87 3e 81 4f 4c be
       -0.22000124 0.13612105 0.26490244 -0.19952203

conv1.bias f4 [32]
000000 3e dd 80 bd d9 e5 05 3e 82 01 1e 3e 26 1b 9d 3c
       -0.062921986 0.13075961 0.15430263 0.019177984
000010 bf 69 03 be 59 b1 2d 3c 00 05 3c 3c 49 ff f8 3d
       -0.12833308 0.010601365 0.0114758015 0.12158067
000020 57 01 a4 3d ed 7f a7 bd c8 51 a2 3e fa 9f 87 3b
       0.08008068 -0.08178697 0.3170302 0.0041389437
000030 f4 eb e6 bd d9 9c 04 bd f5 24 f1 3b 5c 38 80 3e
       -0.11275473 -0.032376144 0.007359142 0.25043
000040 64 5a 30 bd 3e ab 85 3e 5f 14 86 bc 84 51 0a 3d
       -0.043054953 0.2610721 -0.016367136 0.033769146
000050 cf ca 93 3e 03 25 44 bc db c8 6a bd 64 1d dd 3c
       0.28865668 -0.011971715 -0.057320457 0.026991554
000060 16 7c 4f bc 16 90 4e 3e 89 0d 8b 3e 02 1a 27 bc
       -0.012663862 0.20172152 0.27158764 -0.010199072
000070 f0 c8 40 bd ad cb e5 bd 78 6a 00 3e 47 49 00 be
       -0.04706663 -0.11220489 0.12540615 -0.12527953

conv2.weight f4 [64, 32, 3, 3]
000000 b2 43 f9 3d 09 22 e7 3d db 9e 30 3e 4e f9 fa 3d
       0.12171115 0.112857886 0.17248099 0.12254582
000010 22 f0 d2 3c 0e 6d 08 3e 91 8a 96 3c 3c 4f 46 3d
       0.02574927 0.13322851 0.01837662 0.048415408
000020 86 68 98 3d a6 00 17 3e 98 74 04 be 02 be 40 bd
       0.07441811 0.14746341 -0.12935102 -0.047056206
000030 e9 50 ab bc 2e 2e 33 bc da b2 26 be bf d3 46 b9
       -0.020912604 -0.010936303 -0.16279164 -0.00018961633
000040 fd 47 86 3d 18 65 2a 3e 18 c5 15 bc 5f ac 57 bc
       0.065566994 0.16640127 -0.009141229 -0.013163655
000050 4c 5f ce 3d 4d 7d b1 bd 97 f5 d3 3c fd 73 04 bd
       0.1007677 -0.08666477 0.025873942 -0.032337178
000060 3b b6 51 bd 27 6e d6 bd 61 ee 60 bd 9d fc 59 3d
       -0.05119918 -0.10470229 -0.054914836 0.053219426
000070 7b 4d a8 3d 1b c8 51 3c f6 cd eb 3c ea 6e e5 bd
       0.08217903 0.0128040565 0.028784733 -0.11202796
000080 c3 d8 d3 3d e1 1c 38 be a5 d1 e5 3d 94 fc fd bd
       0.103440784 -0.17979766 0.11221627 -0.12401691
000090 a2 f5 e3 3c 31 4b 3d 3c 58 84 af 3c c0 c2 5e 3c
       0.027827088 0.011553572 0.021425411 0.013596237
0000a0 43 90 0b bc 9e 56 ca 3c 2f e2 1f bd e2 e9 2f 3c
       -0.008518281 0.024699505 -0.039034065 0.010736914
0000b0 3c 68 2f 3d 37 5d 6f bd d6 5e fb bc 95 c4 a1 3c
       0.042824015 -0.058438506 -0.03068487 0.019747058
0000c0 ad 8b 0f 3d 60 8a d6 3d 70 f4 ca bd d0 c4 25 bd
       0.035045315 0.10475612 -0.09909904 -0.0404709
0000d0 52 df 08 bc 29 c0 fd bd 24 44 d1 3d f2 d3 3f bd
       -0.008354025 -0.12390167 0.10218075 -0.046832986
0000e0 d5 b2 3b bc ff 2a 13 be bd 54 9d 3d 13 f8 45 3d
       -0.011456211 -0.1437187 0.07682178 0.048332285
0000f0 c2 ed 1a 3d 83 55 00 3e 53 4d 7b 3d d2 80 1a bd
       0.0378244 0.1253262 0.06135304 -0.03772051
000100 c2 f5 10 be dd 78 99 3d 4f d4 9e 3d c0 9a be 3d
       -0.14156249 0.07493756 0.077553384 0.0930686
000110 38 91 49 be 4e 2e 7a 3e 5d 0a 31 3d 16 ae 04 be
       -0.19684303 0.24431726 0.043222774 -0.12957034
000120 8d a2 53 bd 8a 14 a3 3d 8b d6 8d bd a6 ca bc 3d
       -0.051668692 0.07962902 -0.069256864 0.092183396
000130 df be 8b 3d 55 c9 4b bd 11 db a6 bd cb de f7 3d
       0.06823515 -0.049752552 -0.08147252 0.12103041
000140 47 db 10 3e e7 89 35 bd 81 83 f4 3d cf e2 04 bd
       0.14146148 -0.044320967 0.11939145 -0.032442864
000150 95 e1 01 bd b5 af 91 bd c3 75 6d 3d 2d 81 86 bd
       -0.031709272 -0.071135916 0.057973634 -0.06567607
000160 da 04 a4 3d 92 f5 81 3d 07 d3 81 3c 69 68 c3 bd
       0.08008738 0.06345667 0.015847696 -0.09541399
000170 e0 ab c8 3c b3 7b bc 3d 46 25 8c bd 3c ca 66 bd
       0.024496019 0.09203281 -0.06843047 -0.05634521
000180 a9 8a 2b 3d b8 d4 98 3d 47 d4 d4 3d 27 b7 76 bc
       0.041880284 0.07462448 0.10392051 -0.015058315
000190 84 a8 c1 bd 40 56 0e 3d 3f 60 28 3d cb cd 13 3d
       -0.0945597 0.034750223 0.041107412 0.03608493
0001a0 2a ca c8 3d 27 a0 5b bd 3d ca ad bc 46 ea 4d 3c
       0.09804185 -0.05361953 -0.021214599 0.012568062
0001b0 1e 17 14 bd cf 01 96 bc a4 b4 e9 bc b7 64 11 3d
       -0.03615486 -0.01831141 -0.028528519 0.03549644
0001c0 a8 17 04 be 77 df b8 3d fc aa e3 bd 14 df 80 3c
       -0.12899649 0.090269975 -0.11116597 0.015731372
0001d0 88 74 46 3d 4a d9 7c bd 58 84 79 bb 45 1f 2c 3d
       0.048450977 -0.06173066 -0.0038073268 0.04202201
0001e0 15 5a 3c 3e 67 ae 60 bc 9b ca 23 bd fa b1 30 3e
       0.18393739 -0.013713456 -0.03998814 0.17255393
0001f0 56 f4 95 bd 95 64 05 3e f1 01 3f bd 1a fe 5b 3e
       -0.07321994 0.1302665 -0.04663271 0.21483651
000200 9d cf 0e 3e 40 bc 31 bd e3 c1 9d 3d 19 e2 c4 3d
       0.13946386 -0.04339242 0.077029966 0.09613437
000210 8f 5e b9 bc 87 ee 3c be 12 54 b0 bd 56 07 4e bc
       -0.022628097 -0.18450366 -0.08609785 -0.012574991
000220 4c 01 46 3d c9 47 f7 bb a9 3a 3a 3c 08 17 6c bd
       0.04834108 -0.0075463993 0.011366525 -0.05763915
000230 39 a3 ac 3d 9e 62 ce bd 7d a3 86 3d 74 e8 ba 3d
       0.0842957 -0.100774035 0.06574152 0.09126368
000240 2a 1a 70 bd 1c 36 91 bd 54 c6 d5 bd d6 1e c5 bc
       -0.058618702 -0.07090399 -0.10438219 -0.024062555
000250 44 3a 25 3d a4 bf 9f ba 1d 60 20 3d ae 68 48 3e
       0.04033877 -0.0012187851 0.03915416 0.19571182
000260 d2 03 18 3e 32 69 7f 3d 43 5d 59 3d ea 2d b0 bd
       0.14845207 0.06235618 0.053067457 -0.086025074
000270 66 87 18 bb af bd 1b bc cc 12 92 bd 27 fb d4 3c
       -0.0023274063 -0.009505673 -0.071324915 0.025998665
000280 c0 90 35 bb 25 ae 61 3d a7 74 f1 bc 6b c5 5a 3d
       -0.0027704686 0.055097718 -0.02947457 0.05341093
000290 39 a7 e1 bc e0 fe 26 3e 65 bf 32 3e 5f 17 12 bd
       -0.027545558 0.16308165 0.17455824 -0.03566682
0002a0 d7 7c 52 bd 32 1f 4a 3b 3e 0d 03 be 31 a9 e5 bd
       -0.051388588 0.0030841348 -0.1279802 -0.11213911
0002b0 f4 dd 46 3d e5 3c a0 3c ee 66 7f 3d 96 45 15 bd
       0.048551515 0.019560287 0.06235402 -0.036443315
0002c0 3d ab 53 bc 77 0a 65 3d 00 79 2f 3c c0 ba 57 be
       -0.012919244 0.055918183 0.010710001 -0.21067333
0002d0 7d 79 ba bd 67 8f 2e bd 58 29 0b bc 24 8b 9e 3d
       -0.09105203 -0.042617228 -0.008493744 0.07741383
0002e0 ef b7 e2 bd 59 b8 df bd 38 8f 55 3d bf 36 5a bd
       -0.11070239 -0.109238334 0.052138537 -0.053274866
0002f0 63 f5 12 3d 02 1c 5e 3e 6f 44 1c 3e 6f a7 cc 3d
       0.03587855 0.21690372 0.1526048 0.09992873
000300 c1 64 ca 3b 1a ac 8d bc e0 de a7 bd a6 0b 4a be
       0.0061765616 -0.017293978 -0.08196807 -0.19731006
000310 4f 10 c1 be 2e 43 ce 3d a8 b6 eb 3d 16 21 5c bc
       -0.37707755 0.10071407 0.11509448 -0.013435623
000320 b2 ab 47 bb 65 21 15 3d 74 bd 0e bb 68 99 f3 3c
       -0.0030467329 0.0364088 -0.0021780403 0.029736236
000330 0a 61 ea bd d1 a0 52 bd e4 8f bb 3d d4 8d d6 bc
       -0.1144429 -0.051422898 0.09158304 -0.026190676
000340 25 69 b0 3d 52 6c 81 bd b7 0e 4c bd 00 dc a4 3d
       0.08613805 -0.063194886 -0.04981872 0.08049774
000350 8c 6e 6b 3d 58 0c a6 bd 83 dc 65 3d 23 8c 33 be
       0.057478473 -0.08107823 0.0561185 -0.17533927
000360 ff 3b e2 3c 34 8b 33 3e be b0 e2 bc d1 5a f6 3d
       0.027616499 0.1753357 -0.027672168 0.120290406
000370 d3 ad 13 3d 54 44 85 bd 4b c1 5d 3d ad 0b b9 bd
       0.036054444 -0.06507173 0.054139417 -0.0903543
000380 f7 3c 24 bd d2 d9 3b bd 31 df 67 3c 0f 31 19 bd
       -0.040097203 -0.045862027 0.014152334 -0.0374003
000390 99 3e 04 be 4a ee 1f bc 4f da 04 3e 81 40 42 be
       -0.12914504 -0.009761402 0.12973903 -0.18969919
0003a0 4d 42 56 3d 07 48 73 3e 91 ca a8 bd 14 cb 64 3d
       0.052309323 0.23757945 -0.082417615 0.055857733
0003b0 43 ac a8 bc e3 4b 0d 3d c8 46 c3 bc 0f 0b c3 ba
       -0.020589953 0.0344962 -0.023837462 -0.0014880615
0003c0 56 bd ae bd d5 03 6e be c6 c9 b9 3d 3f 20 19 b9
       -0.08532207 -0.2324365 0.09071688 -0.0001460323
0003d0 d2 fa 69 bd c0 e2 17 bd 2c 41 87 3d 12 33 1e bd
       -0.057123967 -0.03708148 0.066042274 -0.038622923
0003e0 75 ed 98 3c 04 66 aa 3d b9 2d 67 3c d4 6b a7 3d
       0.018667916 0.08320239 0.014110022 0.081748635
0003f0 d9 10 a6 3c ca 03 27 3d 69 a5 a4 bc 4f b8 89 bd
       0.020271705 0.040775098 -0.020098405 -0.06724607

conv2.bias f4 [64]
000000 3d 46 8d bd ce 24 97 3d b8 26 01 bd af 27 41 bd
       -0.068981625 0.07380067 -0.031531066 -0.047156986
000010 b1 ed f2 3d fd ec 4b bd 00 92 b8 3c 5a a6 49 bc
       0.11861742 -0.049786557 0.022530556 -0.012307728
000020 d0 22 1b 3c 29 70 f4 3a 35 50 20 3d 48 97 1e bc
       0.009468749 0.0018649149 0.03913899 -0.009679623
000030 04 0d 7e 3d 39 ef 0f 3d 1e 3f 3b bd 22 f3 04 3d
       0.06202413 0.03514025 -0.04571449 0.032458432
000040 b7 f6 05 3d 4d 22 2d bd ee 62 98 3c d5 e7 d5 3d
       0.03270599 -0.04226904 0.01860186 0.10444609
000050 65 af 85 3b 14 8b 51 3d 1a ce 51 3d a5 8e 89 bd
       0.0040797465 0.051158026 0.051221944 -0.067166604
000060 83 f2 10 3d c1 ee 36 3d 9c 52 29 3d e4 ac b9 3d
       0.035387527 0.044661287 0.041338548 0.090661794
000070 4d 9e b4 3c 64 4e 73 3d 63 9a 40 3d 08 24 f9 3c
       0.02204814 0.05940093 0.047022235 0.030412689
000080 08 89 cb 3c 9e bb 81 bb ac 57 b4 3a 11 13 07 bd
       0.024845615 -0.0039591333 0.0013759038 -0.032977168
000090 34 db 1f 3d 7e e9 cd 3b 38 86 8b 3d f1 3a ed 3d
       0.039027408 0.006283938 0.068127096 0.11583508
0000a0 b9 29 d1 3d ef 92 bf bc a9 98 94 bd 6b 85 94 bd
       0.10213036 -0.023385493 -0.0725568 -0.0725201
0000b0 d6 14 66 3d 1b d0 45 bd 51 32 a3 3c 56 cc e8 bb
       0.056172214 -0.048294168 0.019921454 -0.007104437
0000c0 cf 6f 63 3d 0f ae 2a bb a9 4a 8e 3c 59 c0 0c bb
       0.05552655 -0.0026043688 0.017369585 -0.0021476953
0000d0 de a1 78 3d 27 2e 9e 3d ef 03 b3 bb d5 9d 1c 3d
       0.060701244 0.077236466 -0.0054631154 0.038236458
0000e0 b6 4a 25 3c ac 5d c9 bc f9 31 ce 3c 9a f1 91 bc
       0.010088613 -0.024580799 0.025170313 -0.0178154
0000f0 68 28 ec 3c 48 2f 0f bd 33 15 45 bd 37 f8 d2 3a
       0.028827861 -0.0349572 -0.04811592 0.0016095702

conv3.weight f4 [128, 64, 3, 3]
000000 09 79 c8 bb 8e 32 15 bd 0d 9d 34 3c e9 8a 3c bd
       -0.006117944 -0.036425166 0.011023772 -0.046030913
000010 fd 6b 93 bd 83 29 68 3c ab 78 ba 3c 74 8d c8 bc
       -0.071983315 0.014170053 0.022762617 -0.024481513
000020 83 20 8d 3d 95 59 0a 3d 6f 34 b0 bc 39 31 37 bc
       0.06890967 0.03377684 -0.021509377 -0.011181169
000030 f0 9a 3f 3c aa 19 9c 3c a3 dc 8a 3c 4b 0a 88 bc
       0.011694655 0.019055206 0.01695091 -0.01660647
000040 ce c4 95 bc 65 30 55 bc 67 10 46 bd fe db a3 bd
       -0.01828232 -0.013012026 -0.048355486 -0.080009446
000050 4e b9 9d bd 03 e3 62 bd 54 f6 50 3d 70 a4 9b 3c
       -0.0770136 -0.055392276 0.051016167 0.018999308
000060 4e 0d 1d bd 61 18 29 bd 89 fb 97 bd 34 ec 37 3d
       -0.038342766 -0.041283015 -0.074210234 0.044902995
000070 75 cb 07 3d 19 4f ad 3c 93 c5 b9 3d 31 a7 71 3b
       0.033153016 0.02115588 0.090708874 0.0036873335
000080 2a c1 5a 3d 17 ef 8f 3c 9c 84 5f 3d 2e ed 76 bb
       0.05340687 0.017570062 0.054569826 -0.0037677991
000090 d2 31 b5 3c 00 8e 4f 3d fe e5 9d 3c 20 e0 74 bc
       0.022118483 0.05067253 0.019274708 -0.014946014
0000a0 ad d4 e8 b9 c0 a1 3c 3d c1 7d 2b bc f7 f6 b7 3c
       -0.00044408944 0.046052694 -0.010466994 0.02245663
0000b0 8c 3b d4 ba 32 c1 f2 3c fb 65 83 3d f1 83 4f 3c
       -0.0016192063 0.029633138 0.064159356 0.012665735
0000c0 73 52 2a 3d e7 80 3c 3d ea f4 bd 3c c1 7f 4c 3d
       0.041582536 0.04602137 0.023188073 0.049926523
0000d0 d1 5b 78 3d 8d 24 62 3d d6 c0 93 bc e7 3a cc 3b
       0.060634438 0.05521064 -0.018036287 0.0062326076
0000e0 92 54 e2 bb da 2a 2f 3c cd f2 66 3d 71 42 a8 bb
       -0.006907054 0.010691369 0.056383897 -0.0051348736
0000f0 79 ac 58 3d 7c c2 47 3d c7 f5 21 3d 7a bf 15 3d
       0.052898858 0.04876946 0.039541032 0.03655956
000100 6d d3 56 bc 60 76 fb 3b 1f 70 2c 3d ef 59 32 bc
       -0.013111931 0.0076740235 0.042099115 -0.0108857
000110 93 cf de 3a 06 74 13 bc 31 ff 77 3c 20 a7 b6 3c
       0.0016999118 -0.00899983 0.015136526 0.022296488
000120 63 0c fe bb c0 68 be 3c 5f 81 fb bb 79 be 7b 3b
       -0.0077529415 0.023243308 -0.0076753343 0.003841309
000130 74 6b 40 bd 4d 78 ba bc 2f d3 6b 3d c8 47 a2 3c
       -0.046977475 -0.022762442 0.057574447 0.019809619
000140 bb 6b db bc f4 0d 63 3d 1a 17 32 3d 66 66 64 3c
       -0.026784768 0.05543323 0.043479063 0.013940429
000150 f9 8f db 3c 20 9e a2 3c 00 63 ff 3a 83 1c 96 3d
       0.02680205 0.01985079 0.001948446 0.07329657
000160 65 ad 09 3c f8 cc b2 3c 96 0d 16 3d c9 70 e6 bc
       0.008403157 0.021826252 0.03663405 -0.028129952
000170 a1 7b cf 3b 36 74 b5 bb 9e eb b1 bc 7b 72 19 3d
       0.0063318764 -0.005537535 -0.021718796 0.037462693
000180 aa e0 c9 3c 57 15 62 3d d2 9b 77 3b 46 70 46 3d
       0.024643261 0.055196133 0.0037782085 0.048446916
000190 b8 2b 0c bd db 48 bd 3d 7f e9 b5 3b 72 c9 af 3d
       -0.03422138 0.09242412 0.0055515165 0.085833445
0001a0 b7 55 b8 bc dc c0 55 3d 3e 7e 42 3d 75 2b 9f 3d
       -0.02250181 0.05218588 0.047483675 0.07771961
0001b0 8c d4 cd 3b 64 49 12 3c fa fc 31 bc c2 aa 6c 3d
       0.006281441 0.0089286305 -0.010863537 0.057780035
0001c0 fb 84 99 3c 94 be 0c 3d eb b5 03 3d 34 dd cf 3c
       0.018740168 0.034361437 0.032155912 0.025374033
0001d0 60 24 08 3d d2 08 05 bc 4c e8 47 bb 55 4c 0b bd
       0.033237815 -0.008119779 -0.003050345 -0.034008343
0001e0 e3 b6 3f bd 50 3a be 3b 32 ac 05 bd 7d e8 39 3d
       -0.046805274 0.0058052912 -0.03263492 0.045387734
0001f0 03 35 d5 ba 5e 3c 01 3d 85 20 8d 3d 59 4c ca 3c
       -0.0016266409 0.03155171 0.06890968 0.024694609
000200 8c db 1d 3d ca 9f 95 3d bc 92 a5 3d 7a 25 2e 3d
       0.038539454 0.07305868 0.08084628 0.04251621
000210 b9 7f 83 3d 88 e7 fb 3c 73 ef 2e 3d f9 31 f6 3c
       0.064208455 0.030750051 0.042708825 0.030053126
000220 ea e6 67 3a 0b cd 6d 3c 3d a3 8a 3d 1c 16 c6 3a
       0.00088463596 0.014514218 0.067694165 0.001511279
000230 fa a3 1d bd ef 81 d8 bc 03 01 2e 3d 32 a2 0e bc
       -0.03848646 -0.026429145 0.042481434 -0.008705663
000240 c1 b3 65 bb 7c 68 34 bd 5b da 4d 3d 96 74 38 bd
       -0.0035049769 -0.044044957 0.050257068 -0.04503306
000250 48 7b d5 3b 90 65 b1 3d 5f 82 c5 bc 52 ba bb 3d
       0.0065149404 0.0866195 -0.024110017 0.09166397
000260 fe 67 86 bd 02 56 7a 3d 1f 8d b3 bd 37 de ed 3d
       -0.06562804 0.06111718 -0.08767151 0.1161465
000270 e3 12 02 bc 8e f7 37 bd 34 0e 12 3d 13 af d2 3d
       -0.007939073 -0.04491382 0.035658076 0.10287299
000280 71 33 8f bd a4 61 0c 3e aa 1b 0b bd ba be 02 3d
       -0.069922335 0.13709122 -0.03396193 0.031920172
000290 1a 11 bb bb 3d e2 62 bc 58 ba d7 bd 24 b6 8e 3d
       -0.005708826 -0.013847885 -0.10533589 0.06968334
0002a0 78 2d 71 3c 89 22 34 3d 33 da 0a 3d 45 61 87 ba
       0.014720313 0.043978248 0.033899497 -0.0010328671
0002b0 55 bb 4e 3d 7c 83 ac 3c 3e 94 45 3d 4a 3b 03 3d
       0.050471622 0.02105879 0.048237078 0.032038964
0002c0 d3 62 ac 3c 61 79 02 3d db ad 78 3d bc fe cb 3b
       0.021043217 0.031854037 0.060712676 0.006225435
0002d0 93 cb 29 3c ba f2 cf bc 25 77 2c 3d 82 a5 44 3c
       0.010363477 -0.025384296 0.042105813 0.012002351
0002e0 14 b7 0f bd 6a 15 a7 3b 30 cb b7 bc a6 64 21 bc
       -0.035086706 0.0050989883 -0.022435755 -0.009850657
0002f0 80 a5 17 bd 41 9c 3b 3d a3 5c 19 3d 20 b8 44 bd
       -0.037023067 0.045803312 0.03744186 -0.048027158
000300 40 a6 1f bc 07 fa 80 bc 81 8c 8b 3d 42 4e 6f bd
       -0.009744227 -0.015744222 0.06813908 -0.05842424
000310 a7 b6 d6 3c 5e 8b 63 3d 2c 12 16 3c 88 8e 6f 3d
       0.026210142 0.055552833 0.009159606 0.058485538
000320 92 10 61 bd 88 fe 15 bc 91 58 bd 3c 21 9f 3b bd
       -0.054947443 -0.009154923 0.02311352 -0.045806054
000330 2d 4c 28 bc c0 be ca 3d e9 d9 77 bd 79 c2 39 bd
       -0.010272068 0.09899664 -0.06051055 -0.04535148
000340 cd 15 f9 3b 68 73 2b 3d 03 04 65 3d 5a 1f 21 3d
       0.007601476 0.041858107 0.05591203 0.03933654
000350 8c a6 aa b9 b9 0e 21 3c 6f da 18 3d 34 7e 88 bd
       -0.00032549014 0.00983017 0.03731769 -0.06664696
000360 56 95 b9 bc 23 97 2d 3d d3 26 a8 bc eb 30 f1 3c
       -0.022654217 0.042380463 -0.020526325 0.029442271
000370 1e 85 8c 3b 88 37 88 3c c1 91 98 bc cc 61 01 bc
       0.0042883297 0.016628042 -0.018624188 -0.007896852
000380 42 0b 07 3d 1f e6 54 bc 48 4f 33 3c 83 03 5e b8
       0.03296972 -0.012994318 0.010944195 -5.2932195e-05
000390 87 29 42 3d 68 1a fd 3c 55 a9 b6 3c 75 1d 25 bc
       0.047402885 0.03089638 0.02229754 -0.010077824
0003a0 2b f8 ef 3c 8b bb 0a 3d 27 59 68 bc b9 25 93 3d
       0.02929314 0.03387026 -0.014181412 0.071849294
0003b0 78 b4 a6 bc c7 94 ea bc 29 b1 63 bd f4 ee 2b 3d
       -0.020349726 -0.028635396 -0.055588875 0.04197593
0003c0 cc e0 01 bc 9e a3 19 3d 57 9d a4 bc 86 dc 10 3d
       -0.007927131 0.037509553 -0.020094557 0.035366558
0003d0 f6 69 76 bc cc cc 77 3c 70 cb 5d 3d 80 b7 f5 bb
       -0.0150399115 0.015124511 0.05414909 -0.0074986815
0003e0 b7 34 84 bc 7d 3c 42 3c 3d 43 30 3d 78 4f 18 3d
       -0.016138418 0.011855242 0.043032873 0.037185162
0003f0 2e 8d 18 bd 2c 10 b4 bd 07 16 33 bd a1 4a 95 bc
       -0.037244014 -0.08792147 -0.04372218 -0.018224062

conv3.bias f4 [128]
000000 e8 27 50 3c 7b 9c fd 3c e7 74 e4 bc 03 8e 37 bc
       0.012704827 0.030958405 -0.027887775 -0.011203292
000010 b5 da e3 3a ac 93 52 3d 88 2c a7 1b 71 1a 01 b7
       0.0017383905 0.051410362 2.765661e-22 -7.695156e-06
000020 9a 4b 15 bd b5 93 f8 3b ef 1d 46 3d 78 4f 5b 3c
       -0.036449052 0.0075859674 0.04836839 0.013385646
000030 14 b2 e5 3c e8 31 95 3b c0 12 1c bc 9d 81 2d 3c
       0.028039016 0.0045530684 -0.009525955 0.010589984
000040 47 83 e1 bc 2f 8c 80 3c 78 e0 05 aa 72 53 2d a5
       -0.027528418 0.015691845 -1.1890651e-13 -1.503363e-16
000050 4a aa f2 3c 21 f8 11 3c c7 af 01 3c 18 3b 49 bd
       0.029622216 0.008909256 0.007915444 -0.04912862
000060 e5 28 dc b5 83 1c 39 bd f5 7d 07 a2 18 82 25 ae
       -1.6403179e-06 -0.045193207 -1.8362593e-18 -3.7632203e-11
000070 a2 59 06 3c d4 89 bd bb 95 d3 69 af be b7 92 3c
       0.008200081 -0.0057842527 -2.1266396e-10 0.01790988
000080 d7 ee 0c 3c a9 d9 ca bc 26 51 36 3c b9 0a 9a 3c
       0.008601866 -0.024761992 0.011127746 0.018803941
000090 50 b1 12 bd 8a e9 c9 bc 91 a8 eb b7 66 d9 a3 b2
       -0.03581363 -0.024647493 -2.8092678e-05 -1.9074559e-08
0000a0 e8 d9 81 bd ff cc 4c bb f5 5a 4a 3d 40 24 f3 3a
       -0.063403904 -0.0031250117 0.04940315 0.0018550232
0000b0 c5 cb 63 37 61 26 b7 3b 35 59 a7 3c 88 12 ac ac
       1.3577698e-05 0.005589292 0.02042828 -4.8905914e-12
0000c0 a2 12 37 bc fe 8a d1 3c 9a 28 df ba 94 d6 76 3c
       -0.011173876 0.025578972 -0.001702565 0.015065808
0000d0 40 49 bc bb 39 e4 eb bb 88 e3 a2 ae aa 64 53 bc
       -0.005746037 -0.007198837 -7.407325e-11 -0.012902418
0000e0 a0 d0 80 bb 9a d9 c7 bc c8 82 02 3c e9 c3 9c 3c
       -0.00393112 -0.024395753 0.007965751 0.019136386
0000f0 33 05 0a 3d 8f 48 28 bd 95 0d 00 3d f4 29 ba 3a
       0.033696365 -0.041084822 0.031262953 0.0014203177
000100 5a cd a8 3c 94 1f 98 3d 8f c7 7f 3c 47 ba 8f 3c
       0.020605732 0.07427898 0.015611543 0.017544879
000110 2c 1a b8 bc 72 f5 31 bb cb 41 43 3c b4 29 a3 bc
       -0.022473417 -0.0027154353 0.011917542 -0.019917347
000120 f4 17 89 bb 4e 2a 38 3d 8e 08 15 bc ce 49 71 bc
       -0.0041837636 0.04496222 -0.009096278 -0.014727069
000130 2c 49 93 bc 1f 7d 97 af cf 0d 2b 3c 30 62 e8 bb
       -0.017979227 -2.7555644e-10 0.010440304 -0.007091783
000140 8d 67 31 3d aa b0 44 3d d1 2a b3 97 77 f0 ac 3c
       0.043311644 0.048020042 -1.1578412e-24 0.021110756
000150 09 08 8c 3d 5b c9 13 3d b1 36 df bc 86 fe 94 bc
       0.0683747 0.0360807 -0.027247759 -0.018187772
000160 c5 2b 2e bd 62 ae 4a bc 91 98 53 3c 5b 08 b1 bd
       -0.04252221 -0.012370678 0.012914793 -0.08644172
000170 c1 ca f2 bb 71 c3 5e 3d 40 e4 99 3c f3 4f 8a 3c
       -0.007409424 0.054385606 0.018785596 0.016883826
000180 d8 6a 32 a6 bd fa 65 3b f4 e8 f9 a5 51 15 32 bd
       -6.1900956e-16 0.0035092079 -4.335247e-16 -0.04347736
000190 fa c4 6b bd 80 1e 05 3a de 4c 2c ac 7e 66 82 3d
       -0.0575609 0.0005078092 -2.448534e-12 0.06367205
0001a0 d5 49 6d 3d a3 02 69 3b ba 6d 6a 3d 82 05 ce b2
       0.05793174 0.003555455 0.05723355 -2.3984061e-08
0001b0 c0 62 4b b8 53 8c 12 bb 3a 50 d3 3c ba 6c 56 bc
       -4.849094e-05 -0.0022361472 0.025795091 -0.013087446
0001c0 7b a7 d3 3c 5a bb c6 3c 97 a2 f9 3c ca 39 84 bb
       0.025836697 0.024259258 0.030473037 -0.0040352093
0001d0 df 93 b8 3c d1 ab af bc 8f ee e4 b6 34 23 61 3c
       0.022531448 -0.021444233 -6.8227014e-06 0.013741303
0001e0 a5 76 4d 3c e8 53 90 ba 17 d0 e6 bd e3 d3 9c aa
       0.012540494 -0.0011011334 -0.11270159 -2.7858193e-13
0001f0 41 80 98 3d f4 87 6c 3b 64 09 26 bd d4 8a ac 3b
       0.074463375 0.0036091777 -0.0405363 0.005265573

act_conv1.weight f4 [4, 128, 1, 1]
000000 bb fc 99 3c 70 c5 ff 3d 81 7b ee bd 4b 18 53 3d
       0.01879727 0.1248883 -0.1164465 0.05153684
000010 75 af 0a 3e 20 71 d5 bd 49 66 7d 3b 9e f6 a8 3a
       0.13543494 -0.104219675 0.0038665703 0.001289088
000020 32 42 b6 bd 61 d9 f9 3d 39 f7 40 bd a6 95 9c 3d
       -0.088993445 0.12199665 -0.04711077 0.07645731
000030 5f df 85 3d e0 4d c8 bc 37 40 31 bd 0f 8f fa 3b
       0.06536745 -0.024451196 -0.04327413 0.0076464484
000040 95 b0 6e 3d 44 ea 06 3e 5a 29 ac 39 d2 89 00 80
       0.05827387 0.13175303 0.00032837206 -4.944e-41
000050 6f 9a ab 3d 47 c7 96 3d b8 9b da 3d 65 e7 4a 3e
       0.08379065 0.07362228 0.10674232 0.19814833
000060 c2 8a 00 80 4e 62 74 bd 35 a6 d4 ba 7a 89 00 00
       -4.9777e-41 -0.059664063 -0.001622385 4.9317e-41
000070 85 b4 bd 3c b4 25 5a 3d 85 44 f2 38 9f 60 21 3d
       0.023157367 0.053258613 0.00011552222 0.039398786
000080 b7 a7 76 bd 84 37 bf 3b 21 fa 87 3e f8 b3 3f 3d
       -0.06021854 0.0058354754 0.2655802 0.04680249
000090 1d d7 07 3e cb 78 c0 bd 22 47 84 3a c1 88 00 00
       0.13265653 -0.093980394 0.0010092 4.9058e-41
0000a0 08 9f bf 3d 07 35 8b 3d 62 5d b2 3d 17 14 37 be
       0.09356505 0.067972235 0.087092176 -0.17878757
0000b0 07 28 10 be a3 71 05 3d 4a 7b 99 3d 91 66 93 b9
       -0.14077769 0.032579076 0.07494219 -0.00028114443
0000c0 b4 81 1a 3e 79 c7 b4 bd fe ab 5e 3e f3 a9 a2 3e
       0.1508854 -0.08827109 0.21745297 0.31770286
0000d0 cb 1b 9e 3d 1a 66 03 bd f0 88 00 00 45 d1 f8 bc
       0.07720145 -0.032079794 4.9124e-41 -0.030373225
0000e0 54 66 6b bd 8f 70 70 bd a3 d1 8c bd 77 fa e8 bc
       -0.057470635 -0.058701094 -0.068759225 -0.028439743
0000f0 1f 91 9e bd 54 47 e1 bc f9 e0 1b be ad 0f c9 3b
       -0.077425234 -0.027499832 -0.15222539 0.006135902
000100 bc 46 fe 3d f5 8b 8d 3e 19 fb 88 3b 5d 55 12 3e
       0.12415835 0.2764584 0.004180324 0.14290376
000110 8d 52 ff 3d 26 6e e3 bd 6f 67 f7 3d cf d0 09 3e
       0.12466917 -0.111049935 0.12080275 0.1345856
000120 f9 9c fc bc be bc de bc 3c 7d 98 3c 88 7d 11 3e
       -0.03083657 -0.027189609 0.018614404 0.14208043
000130 64 d1 91 3d 1b 1f a1 a0 21 bb 1d 3c 67 1d a8 3e
       0.07120016 -2.7295045e-19 0.009627135 0.32834932
000140 0e 6a 6d 3c 50 c2 91 3d 7b 89 00 80 72 8a 27 bd
       0.014490617 0.0711714 -4.9319e-41 -0.040903516
000150 54 a6 f8 bd 78 52 eb 3d 11 53 70 3d 0d 13 83 bd
       -0.121410996 0.11490339 0.05867297 -0.06400118
000160 44 69 88 3d ac 4a b1 3d f1 a5 aa 3d 93 c1 c7 bd
       0.06660703 0.08656821 0.08332432 -0.09753718
000170 2a 02 b0 ba 6b 51 b6 3b 6a 22 19 bd 27 87 9b 3d
       -0.0013428379 0.005563905 -0.037386335 0.07594138
000180 87 8a 00 80 88 74 16 3e 94 84 f1 b9 e6 75 3d be
       -4.9694e-41 0.1469289 -0.0004606588 -0.18502006
000190 30 b0 9d bc 65 9d e2 3d 8b e5 2d b9 ce e7 f4 3b
       -0.019249052 0.11065177 -0.00016584077 0.0074739223
0001a0 60 a4 fd bd bf 41 94 bc c3 27 f0 3d 20 8a 00 80
       -0.12384868 -0.018097756 0.11726334 -4.955e-41
0001b0 61 27 69 3a f6 89 00 80 7b 93 c9 3d 65 e8 25 be
       0.00088941125 -4.9491e-41 0.09842583 -0.16201933
0001c0 39 5b 11 3d 10 b0 f6 3d 3b 98 30 3e 86 3c 12 bc
       0.035487387 0.120453 0.17245571 -0.008925563
0001d0 32 7c ba 3d f6 37 a8 bc d1 88 00 80 d5 9c 98 bd
       0.091057196 -0.020534497 -4.908e-41 -0.07451788
0001e0 44 a9 a9 bd 52 b4 82 3e 91 ec 21 bd 5c 89 00 80
       -0.08284238 0.25528198 -0.039532248 -4.9275e-41
0001f0 85 2e 5e bd cb 17 ba bd 47 aa 07 3e ca 89 1c bd
       -0.054243583 -0.090865694 0.1324855 -0.038217343
000200 61 4e e5 3c 29 f2 28 bd e1 77 c8 3d 57 ec 69 bc
       0.027991476 -0.041246567 0.0978849 -0.014277539
000210 f1 b6 96 3d 54 06 d1 bb 61 78 2e bb e6 19 5f b4
       0.07359112 -0.006378928 -0.0026622044 -2.0777915e-07
000220 9d 63 6d be e1 a2 79 3c 9c 49 0d 3c 7a 62 26 bd
       -0.2318253 0.015236587 0.008623507 -0.04062126
000230 48 1b ed bc 35 f9 f9 bb 41 7c 92 3d 2e cd 41 be
       -0.028943673 -0.0076285847 0.07152606 -0.18925926
000240 18 33 2e be be 43 dc bd f0 89 00 00 73 90 00 80
       -0.17011678 -0.10755108 4.9483e-41 -5.1819e-41
000250 43 dd d8 3a fb f0 10 bd 6e 07 b6 3b 6e e4 4b 3e
       0.0016545433 -0.035386067 0.005555085 0.19911358
000260 f2 89 00 80 d8 ed 94 3c a7 89 41 b6 b9 88 00 80
       -4.9485e-41 0.018179819 -2.8839365e-06 -4.9047e-41
000270 f0 be 85 3e 61 44 48 bd 5c 4f 9e 9c ed 2e 27 3d
       0.26122236 -0.048893336 -1.0476077e-21 0.040816236
000280 d3 db 21 3d 36 9b cc 3c 37 92 15 3e 1d d2 f3 bc
       0.03951628 0.024976354 0.14606558 -0.029763276
000290 fe df 27 be 8a f6 a8 3d 4b 59 c1 b6 d3 89 00 80
       -0.1639404 0.082501486 -5.7622433e-06 -4.9442e-41
0002a0 65 17 34 3d c4 e9 60 be 0a 9f 6d 3d 19 eb b1 3d
       0.043967623 -0.21964175 0.058013 0.086874194
0002b0 f7 c6 91 3e 8d 76 cb 3c f1 15 1d bd 52 73 33 ba
       0.2847211 0.024836803 -0.038351003 -0.0006845492
0002c0 ef 4f bc 3d ef fe 9a 3d 30 7c 69 3c a5 69 5f 3d
       0.091949336 0.07568156 0.0142508 0.05454411
0002d0 4a eb bb bd 16 ae 30 3a 49 8a 00 00 03 1c 92 b9
       -0.09175737 0.0006739808 4.9607e-41 -0.0002786816
0002e0 dc 43 2a b7 76 d5 84 3d ce 4b d3 bd 94 c8 86 bb
       -1.0148589e-05 0.06486027 -0.10317193 -0.0041132662
0002f0 0c 3f df 3d ab 0a 66 be f9 3c b5 3e 66 bb be 3b
       0.10900697 -0.22465007 0.3539808 0.0058206795
000300 bc 68 d9 3e 11 68 9e bd 79 98 87 3d 06 c1 45 bb
       0.42462718 -0.07734693 0.06620879 -0.0030174865
000310 11 d6 86 3d 34 5c bb 3d 5b b8 2a 3e 51 77 2b 3e
       0.06583799 0.09148446 0.16671889 0.16744734
000320 a9 38 48 ba fe 01 eb 3a 7c e4 ce bd 67 4a 18 be
       -0.00076378376 0.0017929671 -0.10102174 -0.14872132
000330 5f 26 56 3e e7 88 00 80 01 94 87 3e 39 03 ac 3d
       0.20913075 -4.9111e-41 0.26480106 0.08399052
000340 5e 5c ea 3d da a6 e8 bc 22 8c 00 80 af e3 f9 3c
       0.11443399 -0.028399874 -5.027e-41 0.030504076
000350 13 76 ef 3c ed 54 25 bb d7 ac 3b bd 46 c9 e7 3c
       0.029231107 -0.0025227622 -0.04581913 0.028294217
000360 91 ee 47 3e cf 8d 88 3d 76 f3 68 3d 38 07 9b 3d
       0.195246 0.06667673 0.056872807 0.07569736
000370 30 43 d7 3d 5a dc 05 bd 28 05 d0 3c 6e 1c b6 bd
       0.10510862 -0.032680847 0.025393084 -0.08892141
000380 0a 94 00 00 a8 0f 8a 3d 4c 79 8f 8d 3c 04 88 3d
       5.3106e-41 0.067412674 -8.842257e-31 0.06641433
000390 bf 91 17 be e5 68 87 bd f3 88 00 80 e9 9b e7 bb
       -0.14801691 -0.06611804 -4.9128e-41 -0.0070681465
0003a0 6d f5 e1 3b a4 de 06 3e 62 33 18 bd 02 8b 00 80
       0.006895712 0.13170868 -0.037158377 -4.9867e-41
0003b0 26 89 00 80 0c a9 00 00 7c 50 2b 3d 08 8b 62 3d
       -4.92e-41 6.0643e-41 0.041824803 0.05530837
0003c0 ee cd a2 3d 87 75 3f bd 22 d6 20 be 39 7c 3a 3c
       0.07949434 -0.046742942 -0.15706685 0.011382156
0003d0 01 36 dd bc 57 00 a7 3d 95 8a 00 80 60 5d c0 bc
       -0.02700329 0.08154362 -4.9714e-41 -0.023482025
0003e0 e5 ae 93 3c 08 2a 80 b9 7a 2a e1 3d 79 8a 00 80
       0.018027732 -0.00024445378 0.1099443 -4.9675e-41
0003f0 77 10 bd 3b 19 e1 81 3d 62 2d d4 3d 24 a2 05 bd
       0.005769785 0.06341762 0.103602186 -0.032625332

act_conv1.bias f4 [4]
000000 ff e9 17 3d 83 85 fe 3b 46 70 49 bc 05 87 02 3e
       0.03708839 0.0077673807 -0.0122948345 0.12746818

act_fc1.weight f4 [81, 324]
000000 e6 f8 4d 3d 27 dc be 3c db f4 1a 3d a6 55 ee bb
       0.050286196 0.023298336 0.03783117 -0.0072733937
000010 14 68 9b 3c 11 68 a3 ba 93 79 ef 38 c5 ad 50 3c
       0.018970527 -0.0012466927 0.00011419053 0.012736742
000020 1c 9f 84 bd e5 f0 29 3d 11 0e 62 bb f2 f8 4c bd
       -0.0647566 0.0414895 -0.0034493248 -0.0500421
000030 b2 9d 7e bd c5 6c b7 bc 3d b9 8c bc 83 68 8f bc
       -0.06216211 -0.022390733 -0.017178172 -0.01750589
000040 bc 18 8e 3b 46 ed 71 3c 9b 1f bb 3c bb 4c da 3c
       0.0043364447 0.014766043 0.02284222 0.026647916
000050 cf d0 32 bd 48 42 51 bd f7 7d 44 bd ba af 9a bd
       -0.043656167 -0.0510886 -0.047971692 -0.075530484
000060 91 56 3f 3d 96 49 d7 b9 c8 02 75 3b 9b 07 0d 3d
       0.046713416 -0.0004106282 0.003738569 0.03443108
000070 9f 75 32 bd 31 76 c8 bc aa 0c a4 bd 92 dc 4d bd
       -0.043569203 -0.02447042 -0.08010228 -0.05025918
000080 fa 89 8f 3b d3 fa 9f bd 98 0c 06 3c 0a 62 36 bd
       0.0043804618 -0.07811513 0.0081817135 -0.04452709
000090 a6 43 a4 3a 28 c0 d2 bc 14 7f af bd 6d 8c d1 bd
       0.0012532368 -0.025726393 -0.0856916 -0.10231862
0000a0 78 7d c3 bc 8d 2e 84 bd a6 40 b2 bd c0 c3 f3 bc
       -0.02386354 -0.06454191 -0.08703737 -0.029756427
0000b0 91 b1 ac bc e2 a7 6a 3d 82 e8 89 bd 50 81 60 bd
       -0.021080764 0.05728901 -0.067338005 -0.054810822
0000c0 f6 ac 81 bd 4a fe 2f be d6 44 12 bd 44 0f 2f bd
       -0.06331818 -0.17186847 -0.03571018 -0.042739168
0000d0 5b a2 66 bd c0 e8 f6 3a bd 44 d3 3d 8a 3f 88 3c
       -0.056307178 0.0018837675 0.10315845 0.01663186
0000e0 63 d5 94 bd db 47 c0 bd b3 00 2d bd 5e 25 1c bd
       -0.07267263 -0.09388705 -0.042236995 -0.038121574
0000f0 17 f7 a9 bc fb da 53 bd e0 9b 38 bd 27 7d 8d 3e
       -0.020747704 -0.051722508 -0.04507053 0.27634546
000100 f7 2f bf bd 6e 78 64 ba bb 9c e6 bc a9 cf cd bd
       -0.093353204 -0.0008715455 -0.028150907 -0.10049374
000110 43 14 da bb a1 76 99 bc e2 69 68 3b c5 ce 1e 3c
       -0.0066552474 -0.018733324 0.0035463502 0.009692852
000120 62 35 94 3e de b8 95 3e b6 57 4d bd b4 c1 73 bb
       0.28946978 0.29242605 -0.050132476 -0.0037194313
000130 c8 2a cc 3b fe d6 70 bc 67 6c ce bc 7d 8f 02 3d
       0.006230686 -0.014699696 -0.025198175 0.031875122
000140 be bd 77 3c 02 85 9b bc 77 b2 31 bb 06 eb 7d bc
       0.015120922 -0.018984322 -0.002711443 -0.0154979285
000150 f5 92 4a 3d 97 01 30 3d 80 c8 07 bd 76 a4 14 3b
       0.049456555 0.042970266 -0.033150196 0.0022681034
000160 f6 1c 10 bd f8 d7 bb 3d 67 76 d2 bb 53 56 22 bc
       -0.03518387 0.09172052 -0.006422806 -0.009908277
000170 40 cb a5 bb 9a a6 d6 3c c2 17 8b 3c 0f 12 14 3d
       -0.0050596297 0.026202489 0.016979102 0.036150035
000180 81 7a df bc 42 e1 4f bd 04 c2 2f bc fb 54 4d 3d
       -0.027280094 -0.050751932 -0.010727409 0.05012987
000190 17 73 2c 3c 50 7e 2b bd ed 93 29 3c 4a c9 ef 3c
       0.010525486 -0.041868508 0.01035021 0.029270787
0001a0 df e3 85 3c 26 c6 9e 3c e4 dd 1a 3d 68 81 b9 3c
       0.016344009 0.019381594 0.037809268 0.022644714
0001b0 99 95 df 3c 4d bc 10 bd 60 ca 39 bd 1b 6a 72 bd
       0.027293013 -0.035335828 -0.045359015 -0.05918322
0001c0 d1 b7 2e bb 67 18 79 bd e1 03 64 bc 5f b8 04 bc
       -0.0026659856 -0.060814288 -0.01391694 -0.008100598
0001d0 9a 9f 42 bd a9 3f 73 ba ae 01 05 bc 42 a0 cd bc
       -0.04751549 -0.00092792005 -0.008118076 -0.025100831
0001e0 fa 66 68 3d e1 55 ca 3a 4f e3 cf 3c 4f 9e 34 bc
       0.05673883 0.0015436971 0.025376944 -0.011024072
0001f0 5c ce 11 3d 48 6c 2d 3d 6d f0 b0 bd 9f fd 2c 3d
       0.03559719 0.042339593 -0.086396076 0.04223406
000200 1b d2 fd 3d c1 1b 82 3c 00 12 02 bd ac 56 03 bd
       0.1239359 0.015882375 -0.031755447 -0.03206508
000210 07 74 8c bc bb d3 86 3c a8 34 c8 3d 88 5e ff 3b
       -0.01714517 0.016458383 0.097756684 0.0077932514
000220 af 63 e9 ba 32 32 8e 3c ee 58 03 3d 2b 2e a5 bc
       -0.0017806197 0.01735792 0.03206723 -0.020163616
000230 50 32 42 bd 76 ab 93 bd fd f6 18 bc 3f 05 04 3d
       -0.047411263 -0.07210438 -0.00933623 0.032231566
000240 d0 2b 6a be fb fa d2 bb b4 c6 9e bc 0e 01 90 bc
       -0.22868276 -0.0064386106 -0.019381858 -0.017578628
000250 c2 96 a9 3c c7 a9 9b bc c6 fc d8 bc c3 42 b7 bb
       0.02070177 -0.019001855 -0.02648772 -0.0055926754
000260 9e 06 e2 bc 24 f1 ac bd cc 9c da bd 64 19 b4 3c
       -0.027591046 -0.084444314 -0.10674438 0.021984763
000270 27 84 7c 3c bf 1a fb 3c 45 1d 3c 3d c0 f4 f9 38
       0.015412367 0.030652402 0.04592635 0.000119188335
000280 8d 91 59 bc f4 2d 07 3d 66 89 00 80 f2 d0 88 0b
       -0.013279331 0.03300281 -4.9289e-41 5.269968e-32
000290 3b 40 10 12 fc 45 8e 21 f9 4b e2 1a 34 82 f9 1f
       4.551756e-28 9.640819e-19 9.359415e-23 1.05671005e-19
0002a0 c0 3b 90 16 24 5d 4f 19 e0 26 03 0a 1c 89 92 8a
       2.3302162e-25 1.0720459e-23 6.314732e-33 -1.4110863e-32
0002b0 47 ef 8e 24 5d 19 45 2a f3 2a f9 2e 01 7c 7b 2b
       6.1988035e-17 1.7505915e-13 1.13308384e-10 8.9345203e-13
0002c0 a3 a7 da 2c 55 7d d4 27 bc 14 59 27 c9 2a 1d 1a
       6.214544e-12 5.8977706e-15 3.012604e-15 3.25014e-23
0002d0 c5 60 23 0a 45 1d 45 2c f4 72 e6 2f 81 89 0f 31
       7.866365e-33 2.8011632e-12 4.1918435e-10 2.08874e-09
0002e0 20 a3 b4 30 ee 02 68 2f 3b 9b bf 2e ed 3a c9 2b
       1.3143087e-09 2.1101318e-10 8.713249e-11 1.4298264e-12
0002f0 9c ec 23 20 d6 2e 34 16 17 3c 81 2e 08 52 5d 2e
       1.3884925e-19 1.4555063e-25 5.876915e-11 5.032244e-11
000300 58 fe 89 32 9b c2 d3 2f 87 8a 9c 2f f0 1e 24 2d
       1.6064561e-08 3.8518952e-10 2.8474664e-10 9.32919e-12
000310 97 4d 4b 28 63 db 94 19 7d 9b 8a 0b 23 c4 7d 2c
       1.1285588e-14 1.5391451e-23 5.338962e-32 3.606234e-12
000320 7f c8 c4 2e c6 27 8d 32 be de 3e 2d 83 d8 14 2d
       8.948663e-11 1.6432647e-08 1.0849708e-11 8.460901e-12
000330 8f e3 ca 23 2a c9 eb 1c 87 58 84 0b 1c 6b 0a 84
       2.1997259e-17 1.5602995e-21 5.097775e-32 -1.6271004e-36
000340 fb f9 c8 2c 43 d0 a3 2e c9 f5 1f 31 97 81 56 2e
       5.7120953e-12 7.4493765e-11 2.3277258e-09 4.8773065e-11
000350 99 58 06 29 f5 3a c7 a0 69 05 09 99 ad 60 08 80
       2.9830823e-14 -3.3750926e-19 -7.0838266e-24 -7.69365e-40
000360 2b c9 e3 02 9d 16 e4 29 09 b8 ab 2a 0f f4 55 31
       3.3470117e-37 1.0129157e-13 3.0503402e-13 3.113431e-09
000370 8f 57 46 29 47 00 49 28 9c b8 d6 a1 44 27 52 96
       4.4040777e-14 1.11578015e-14 -1.455007e-18 -1.6976055e-25
000380 1e 45 63 04 53 fb 0c 8c 6a 64 35 20 57 72 a5 28
       2.6715459e-36 -1.0860838e-31 1.536452e-19 1.8368267e-14
000390 1f 09 c1 29 cf 05 9b 25 79 42 dd a1 ef a9 0b a1
       8.572504e-14 2.689215e-16 -1.4993138e-18 -4.7319937e-19
0003a0 12 59 84 0e fa a8 0f 0b 7d 5f 0e 00 69 ca 31 8f
       3.2626284e-30 2.7667922e-32 1.319952e-39 -8.7657565e-30
0003b0 db 1f 07 16 27 fd 39 10 eb 1c c9 0e 44 95 bd 0e
       1.0915265e-25 3.6679838e-29 4.9578173e-30 4.6735835e-30
0003c0 d9 96 52 12 0e c1 d1 09 cb 88 00 80 20 fc b4 3d
       6.645025e-28 5.0496468e-33 -4.9072e-41 0.088371515
0003d0 3d e6 6a 3d b5 95 6e 3b f2 0d ce 3c 3a 20 fb 3c
       0.05734848 0.003640515 0.025153134 0.030655015
0003e0 04 fa 1d 3d 8f 5d 4f bc e3 b2 4c 3d be 5b 03 3d
       0.03856851 -0.012656583 0.049975287 0.032069914
0003f0 49 56 21 3c f5 91 3d bb ad 5c a7 3c 5d 54 a3 3c
       0.009847232 -0.0028926108 0.020429933 0.019937688

act_fc1.bias f4 [81]
000000 2f c7 e1 3d 23 13 5b bc f1 7b 2d be 5a 8c e9 3d
       0.110243194 -0.013371262 -0.16941811 0.11403723
000010 d6 9a f9 3d a6 f2 db 3d 4a 01 e6 bd 81 ee 80 bc
       0.12187736 0.10739641 -0.112307146 -0.015738728
000020 d1 fd a4 3d 87 3d 93 bb ae 36 8f bd d6 4d ce 3d
       0.08056224 -0.0044934186 -0.06992851 0.1007344
000030 25 28 53 3d 6c d4 7a 3e 2a 9a 8c 3d 91 ae 9f 3d
       0.051551957 0.24495095 0.06865342 0.07796968
000040 2a 9c 28 be b2 bb ae bc 61 10 1d be 18 14 06 3e
       -0.16465822 -0.021329734 -0.1533828 0.13093603
000050 89 79 4f 3b 4a 7a 56 3e 67 26 9d bd 5c e8 33 3e
       0.0031658134 0.20945087 -0.0767334 0.17569107
000060 11 c0 2a 3c 1d 21 0d 3e 2e 70 db bd 24 2b 9a 3d
       0.010421769 0.13782163 -0.10714756 0.0752776
000070 3a 3d 1a 3d 77 84 ee 3d 24 3f f8 3d 16 5d 43 3e
       0.037656046 0.116463594 0.12121418 0.19078478
000080 3c 4e bb 3d 15 ff 2b 3e 8f 5a 2e 3d 93 2a d3 3d
       0.091457814 0.16796525 0.042566832 0.10310855
000090 f6 f1 cf 3d 76 63 4d 3e 1e ef cc bc 0c 0b 74 3e
       0.10153572 0.20057473 -0.025016364 0.23832339
0000a0 a4 a8 5c bd e3 0f 8d 3e 1a 34 a6 bd b7 59 5f 3e
       -0.053871766 0.27551183 -0.08115406 0.21811567
0000b0 4a 27 bc 3d af 05 a0 3d d1 80 5b 3d 99 c8 12 3e
       0.09187181 0.07813584 0.053589646 0.14334334
0000c0 7e 22 d5 3d b2 f2 6e 3e 9b f6 8e 3d 53 5e 43 3e
       0.104069695 0.23334768 0.0698063 0.1907895
0000d0 97 c8 72 3c 12 fd 99 3d 9a a7 1f be e1 28 f6 3d
       0.014818332 0.075189725 -0.15591279 0.12019516
0000e0 a0 7f ab 3d 57 1f 5f 3e c4 2b a7 bd de f1 fe 3d
       0.08373952 0.21789299 -0.081626445 0.12448476
0000f0 7f 85 81 bc a4 0c 0c 3e b6 89 f4 bd d6 c5 5a bd
       -0.015810726 0.13676697 -0.11940329 -0.053411327
000100 ab 9f f5 bd 2c 89 fb 3d da 49 4e 3d f4 9a 29 3e
       -0.11993345 0.12282023 0.0503634 0.16563016
000110 38 8f 06 3d 66 dd f8 3d 28 32 0d be ca 4c aa bc
       0.032851428 0.121516034 -0.13788664 -0.020788569
000120 1d e5 38 3d dd 6f 81 bd a3 4c 1d be 21 8c cb 3d
       0.045140374 -0.06320164 -0.15361266 0.09938837
000130 9d 19 8b 3d 7a f0 aa 3d c1 50 0b be ce f4 b8 bc
       0.06791995 0.083466485 -0.13605024 -0.02257767
000140 2c e1 b9 3d
       0.09076151
