课程设计/AlphaZero简单复现/models/policy_batch_1200.model (torch, 530639 bytes, 15 tensors)

conv1.weight f4 [32, 4, 3, 3]
000000 35 9c 4b 3e ad b4 85 bd 53 f3 80 3e ee 26 c1 bc
       0.19883807 -0.06528602 0.25185642 -0.023578133
000010 18 04 82 bd 8a 5a 8d bd be 0b b8 3e a1 ef 5f be
       -0.06348437 -0.069020346 0.3594646 -0.21868755
000020 e4 f7 da 3e 78 02 32 3e cb c8 29 bd c8 9a 3b 3e
       0.4276725 0.17383754 -0.041451257 0.18320763
000030 1f e6 ac 3b a2 a3 a7 bd 9f a7 6e bd 0c c3 76 3e
       0.005276456 -0.08185507 -0.058265325 0.24097842
000040 38 69 81 bd 28 a9 6c 3e fd e1 6c 3d 0e 06 6b bc
       -0.06318897 0.23111403 0.057832707 -0.014344705
000050 bf 5a f4 3c b9 c1 65 bc 9d f4 44 bc 10 34 15 bd
       0.029828427 -0.014023238 -0.012021211 -0.036426604
000060 9c 4e ee 3c f2 e5 b1 bc bb d2 a0 3d 29 3c d1 b9
       0.029090218 -0.021716092 0.07852694 -0.0003990841
000070 50 a8 cb 3b 39 69 0e bd fb 0d cd bd ae 70 f3 3d
       0.006215133 -0.034768317 -0.10012432 0.11886726
000080 15 13 54 bc 12 01 5f 3b 77 36 1b 3d dd fa 04 bd
       -0.012944003 0.0034027738 0.03789374 -0.032465804
000090 75 41 af 3e 0b 48 87 3e 4b 90 cf be e8 fc 29 3e
       0.34229627 0.26422152 -0.40539774 0.16600382
0000a0 bd c6 8d bd 7a 4e 9f 3e 7d e6 68 be 5d 16 12 3e
       -0.06922672 0.3111456 -0.22744174 0.14266343
0000b0 ef 6d 48 3e 33 c2 8e 3d 90 2a 22 3d d1 94 31 bc
       0.19573186 0.06970634 0.039591372 -0.010838703
0000c0 70 e2 3b be ba 44 3f bc 3f f4 b1 bd 54 03 12 3e
       -0.18348098 -0.0116741005 -0.08689164 0.14259082
0000d0 a0 71 c7 bd 7f 77 1b 3e c2 81 bd bc 85 10 34 bc
       -0.09738469 0.15182303 -0.023133162 -0.010990267
0000e0 87 d4 3c 3c b2 b0 df bc 70 a4 a1 bd 35 d5 1d 3d
       0.01152528 -0.027305935 -0.07892692 0.03853341
0000f0 91 a3 82 3d e8 de dc 3c 33 52 cc 3c 71 40 2f bb
       0.06378854 0.026961759 0.02494154 -0.002674129
000100 55 9b 1c be 1b c9 69 3d 09 9c 2b be e8 99 74 3d
       -0.1529363 0.057076555 -0.16758741 0.05971709
000110 b9 83 11 be 8e f5 0c 3e 25 4d 5c bd 9d fc 2e 3e
       -0.14210404 0.13765547 -0.05378451 0.17088552
000120 88 f0 71 3e e5 0d 2c 3e 9a b5 a4 bc 06 d8 a5 be
       0.23626912 0.16802175 -0.020106126 -0.32391375
000130 b9 b3 5d bd b6 aa 87 be bc 3e bb 3d 85 3d 4f 3e
       -0.054126475 -0.2649743 0.09142825 0.20238312
000140 d1 9e 78 be a3 ff f4 bd 73 95 3c be 0f 0d 62 bd
       -0.24279334 -0.11962821 -0.18416385 -0.055188235
000150 32 c4 87 3e 70 d6 3f 3e 8b 7d e9 3d ff f1 03 3e
       0.26516873 0.18734145 0.114008985 0.12885283
000160 8b 54 6f be e4 fb 74 3d 9a ce db ba 7d 7f f0 bd
       -0.23372094 0.059810534 -0.0016769946 -0.117430665
000170 b4 fd db 3c 88 b2 48 3c 9b c0 36 3c d7 b1 87 3d
       0.026854374 0.012249596 0.011154319 0.06625717
000180 40 5c f1 3c e7 ad 80 bd 15 04 12 3d 6b a1 0e be
       0.029462934 -0.06283169 0.035648424 -0.13928764
000190 90 0b e6 3d 2a d6 80 3d 2d 69 15 3c c7 57 5e 3d
       0.11232674 0.062908486 0.009119314 0.05428293
0001a0 c5 5b 5c 3d ed 1b 2b 3d b0 07 08 3e 44 16 31 be
       0.053798456 0.04177468 0.13284183 -0.1729365
0001b0 af bd e8 bb d3 2a eb be ca fd b1 3e b6 35 43 bd
       -0.00710269 -0.4593111 0.34763938 -0.047658645
0001c0 0a 69 cc 3e 8d cf d5 be c3 1b ce 3c ab 41 fd 3c
       0.39923888 -0.4175991 0.025159722 0.030915102
0001d0 f8 1a e1 3d eb c4 a7 3d 50 79 e9 3d 0f 04 6b be
       0.10991472 0.08191856 0.11400092 -0.22950767
0001e0 93 a9 fa 3d 87 07 1d be 37 cf fe 3d f0 6d 68 bd
       0.12239375 -0.15334903 0.12441867 -0.05674547
0001f0 b4 36 b8 3d fa b8 0b 3e c8 2c 89 bc 77 18 2c 3d
       0.08994809 0.13644782 -0.016744986 0.04201552
000200 aa 29 d9 bd 79 90 87 bc 51 58 79 bd a2 be 45 3d
       -0.1060365 -0.016548382 -0.06087524 0.048277505
000210 b7 64 82 bd d4 43 2c bc c9 e8 9b 3d 8a b0 92 3d
       -0.06366866 -0.010514218 0.076127596 0.071625784
000220 fa 21 7b bd 44 82 b4 3d 64 04 0b 3e 27 3f 3a bc
       -0.0613117 0.08813909 0.13575894 -0.011367596
000230 49 c6 cd bd ee f4 d9 bd 27 e8 bb bd e2 0a f8 3d
       -0.100475855 -0.1064242 -0.09175139 0.12111451
000240 45 18 45 be 1f 65 86 bd 40 66 80 bd 06 86 54 3d
       -0.1924754 -0.06562256 -0.06269503 0.051885627
000250 5f 95 38 3e f7 00 d3 3d 10 ee 58 bd 46 3a a3 bc
       0.1802573 0.103029184 -0.05296141 -0.019925248
000260 8f 2d 57 3e ed 40 15 be 0a 39 c9 bc 70 70 29 be
       0.21013473 -0.14575548 -0.024563331 -0.16546798
000270 25 98 08 3e 86 34 09 bd bb f3 f9 bd 1a 70 d2 3b
       0.13339289 -0.033497356 -0.12204691 0.006422055
000280 27 8a 55 bd 1c b5 0f be ec 95 51 bd ad 6a 15 3d
       -0.052133705 -0.14033931 -0.051168367 0.036478687
000290 13 b2 f1 3d 79 a2 3d 3e c2 d3 ba bc 4f 92 b3 bc
       0.11801543 0.1851901 -0.022806052 -0.021920351
0002a0 29 38 d5 3b 39 3d 48 ba 86 39 f5 bd 9e b2 89 3d
       0.006506939 -0.00076385174 -0.11973862 0.06723522
0002b0 09 07 a1 3d 88 a6 f7 3d 64 f1 fd 3d 6c 75 ad 3d
       0.0786267 0.1209231 0.12399557 0.08469662
0002c0 26 14 ce 3d b0 64 11 3e 7a c4 11 3e ee 0d f2 3d
       0.10062437 0.14198565 0.14235106 0.11819063
0002d0 aa 54 79 3e 76 2f 7a 3d 69 ed 7a bd fe 61 97 be
       0.24348703 0.06108042 -0.06126157 -0.2956695
0002e0 d9 68 c3 3e d6 57 a1 3e ad c1 a9 3e 6c 27 b8 bc
       0.3816593 0.31512326 0.33155575 -0.022479735
0002f0 1f f6 1b 3c 98 58 e8 3d 4c a0 5f bd 2f 3b 0a be
       0.009519129 0.11345023 -0.05459623 -0.13499139
000300 ce e5 ea be 92 9a 68 3e 26 3c 01 3e 88 c0 fa 3d
       -0.45878452 0.22715214 0.12620601 0.12243754
000310 1d 4b 18 be cd 74 de bd 7b 87 e7 3d 3c dc c1 3d
       -0.14872403 -0.10862122 0.11305138 0.094658345
000320 97 81 d3 3c 1a 9a 38 bc 1a 0c 1d 3e da be 9c 3d
       0.02581863 -0.011267209 0.15336648 0.076535895
000330 be 12 88 3d 5b df b4 3d 27 98 0d bc 1d da ee 3c
       0.066442 0.08831664 -0.008642233 0.029156739
000340 ce cf 18 3d ec 4e e2 3d c0 6b 15 3e 52 18 06 be
       0.037307553 0.110502094 0.14591885 -0.13095215
000350 f2 b6 ac bd 47 a6 82 bc 58 6b 75 bd 67 1b 27 3e
       -0.084333315 -0.015948428 -0.059916824 0.16319047
000360 f7 57 05 bd 61 0a b2 bd f2 f5 26 bd b2 12 48 bd
       -0.032554593 -0.08693386 -0.040761895 -0.048845954
000370 16 81 b9 bc 52 f8 13 be 86 fb 8a 3c 30 f3 43 bc
       -0.02264456 -0.14450195 0.016965639 -0.011959836
000380 cf 39 76 3e 84 ce 34 bd e9 2f 36 3d c7 c8 9b 3d
       0.2404549 -0.04414226 0.044479284 0.076066546
000390 51 f6 77 bd 7b 2a e2 3e 7c c4 ee be 6f ba 09 3d
       -0.06053764 0.44173035 -0.4663428 0.033625063
0003a0 4c 14 14 bf a7 e9 87 3e b6 ff 74 3c 22 86 9c 3d
       -0.5784347 0.2654545 0.014953544 0.07642771
0003b0 2c c1 80 3d 35 57 a0 3d a3 65 2c 3e be c3 1a be
       0.062868446 0.078291334 0.16835646 -0.15113732
0003c0 9d 9b be 3d 33 bc 01 be b5 6c 50 3e 85 48 6a 3c
       0.09307025 -0.12669449 0.20353968 0.014299517
0003d0 8a 68 01 3e 0a d7 f1 3d 29 9e 41 3b 19 32 90 bd
       0.12637535 0.118085936 0.0029543734 -0.07040805
0003e0 9a d1 d3 bb 50 23 03 be 4e 0d cf bc bc 77 48 bd
       -0.0064641954 -0.1280644 -0.025274899 -0.048942313
0003f0 ce b6 53 be ac 9d f0 3d b0 fe 9b 3e ed 93 33 be
       -0.20675203 0.117488235 0.3046775 -0.17536898

conv1.bias f4 [32]
000000 7b cd a0 bd 57 b5 fa 3d 4a a5 0c 3e 0f 2f 24 3c
       -0.07851692 0.12241619 0.13734928 0.010020985
000010 e4 32 13 be 78 49 a7 3c 62 8c 68 3c 95 70 dd 3d
       -0.14374882 0.020420775 0.014193626 0.10812489
000020 50 30 5f 3d df f2 b4 bd 9f 8d a1 3e 55 ea 08 bd
       0.054489434 -0.088353865 0.3155336 -0.0334266
000030 75 a3 04 be 59 dd 83 bc 2f b3 22 3c 54 26 84 3e
       -0.12952979 -0.016096758 0.009930416 0.25810492
000040 7f 76 1e bd cc d5 81 3e 31 c7 19 bc e3 e7 f7 3c
       -0.038687225 0.25358427 -0.00938587 0.03026194
000050 5c 1a 97 3e 05 d6 bd bb 9c 10 67 bd 7c a0 57 ba
       0.29512298 -0.0057933354 -0.056412324 -0.0008225513
000060 e1 0b 97 bc b6 55 4e 3e c6 d4 8d 3e e2 95 ea bb
       -0.018438281 0.20149884 0.27701396 -0.0071589807
000070 d1 54 21 bd 9d f4 ca bd 58 b2 d7 3d 48 20 13 be
       -0.039387528 -0.099099375 0.10532063 -0.14367783

conv2.weight f4 [64, 32, 3, 3]
000000 cd 05 d6 3d 6d 83 0f 3e db a7 19 3e 6e 77 24 3e
       0.10450325 0.14014979 0.15005438 0.16061184
000010 96 73 8f ba 59 59 34 3e 5c 25 46 bc 42 48 b0 3d
       -0.0010944481 0.17612208 -0.012093868 0.08607532
000020 2c d8 e5 3c 4a 23 10 3e 80 f5 ef bd 80 14 79 bd
       0.02805718 0.14075962 -0.11716747 -0.060810566
000030 43 2e 39 3c 3a 7e e7 bc e3 d0 23 be 70 19 ca 3a
       0.011302534 -0.028258432 -0.15997653 0.0015418958
000040 54 4f 9e 3d c6 c3 3a 3e 3c 6d f2 bc 3d 69 8e 3b
       0.077299744 0.18238744 -0.029593103 0.0043460415
000050 9b 89 c5 3d a9 5c 75 bd 32 66 ea 3c 05 af 8b bc
       0.09645387 -0.05990282 0.028613184 -0.01705123
000060 52 36 6a bd ba ee c2 bd f2 a8 4f bd 31 1c 47 3d
       -0.05718071 -0.0951819 -0.05069823 0.04861087
000070 18 69 c3 3d 6c 50 82 bb 79 fc 83 3c 3c 4e ce bd
       0.095415294 -0.003976872 0.0161116 -0.10073516
000080 08 67 be 3d b0 fc 1d be 52 4d e1 3d b3 6e ef bd
       0.092969954 -0.15428424 0.11001076 -0.11691036
000090 80 39 b2 3c ab 62 2c 3b 27 bb 80 3c 5e 08 5f ba
       0.021755934 0.0026303928 0.015714241 -0.0008508022
0000a0 5c 8c 26 bc 85 d6 8e 3c a0 10 06 bd 6e 71 31 3b
       -0.0101653 0.017436275 -0.0327307 0.0027075666
0000b0 6b d5 21 3d 30 ec 46 bd 38 93 b1 bb 9e ea e3 bb
       0.03951017 -0.04856509 -0.005419161 -0.006955459
0000c0 71 7c 59 3d 69 09 d1 3d 4a 36 a7 bd 62 7b 83 bd
       0.053097192 0.10206873 -0.08164652 -0.06420018
0000d0 eb 19 23 bb fc f1 0a be 43 88 b6 3d da 7f aa 3c
       -0.0024887274 -0.13568872 0.089127086 0.020812918
0000e0 28 c8 44 bb 9d d6 eb bd f6 f0 f3 3c 69 0a c3 3d
       -0.003002653 -0.115155436 0.029777985 0.0952347
0000f0 f8 bc f7 bc 19 d0 15 3e f0 a0 07 3d 53 93 18 bd
       -0.030241475 0.14630164 0.033112466 -0.037249874
000100 1b 32 0f be 2f 6b 7a 3d ec 1a 98 3d b3 24 c9 3d
       -0.13983957 0.061137374 0.0742701 0.09821453
000110 fa ea 6a be 13 8e 6d 3e 67 ee 47 3d 73 1d ce bd
       -0.22941199 0.23198728 0.048811343 -0.10064211
000120 5b 87 23 bd 0c 7a 91 3d 08 a1 9c bd 47 26 b4 3d
       -0.039924007 0.07103357 -0.07647902 0.08796363
000130 7e 19 95 3d da b4 39 bd 26 08 89 bd 79 b2 ca 3d
       0.07280253 -0.04533849 -0.06691007 0.09897322
000140 4e e8 eb 3d de 10 54 bd 78 d0 95 3d a0 a4 84 3b
       0.11518918 -0.0517739 0.07315153 0.004047945
000150 ba 1c 71 bd f0 0c 4f bd 12 88 ac 3c 05 dd 49 bd
       -0.058865286 -0.050549448 0.021060977 -0.049283046
000160 6c 83 52 3c 77 78 55 3d 70 1f c6 3c 8a 53 ab bd
       0.012848716 0.052116837 0.024184912 -0.08365543
000170 21 4c 32 3d eb 2c cb 3d 47 0e 57 bd 4f 71 88 bd
       0.043529633 0.09920677 -0.05250385 -0.06662237
000180 72 1c 4c 3d b4 7c bd 3d 5a 34 eb 3d 92 03 95 bc
       0.049831815 0.09252301 0.11484595 -0.018190179
000190 03 f8 93 bd eb 17 7d 3d 1a 1e 71 3d 82 91 4e 3d
       -0.07225039 0.061790388 0.058866598 0.050431736
0001a0 29 8d f0 3d 0f 87 4a bd 5f 30 e5 bb 6c 9d cb 3c
       0.11745674 -0.04944521 -0.0069942917 0.024855338
0001b0 67 9c 9a bc 5e fd 1e bd 0d 3d c3 bc c8 b3 ce 3c
       -0.018873407 -0.03881585 -0.023832822 0.02523221
0001c0 da b2 a0 bd ea c2 a6 3d 3c a9 cc bd ad bb e7 3b
       -0.07846613 0.08142646 -0.099932164 0.0070719332
0001d0 c9 eb d9 3d 0e ba 63 bd da a3 34 3b 06 dc 95 3d
       0.106406756 -0.055597357 0.0027563483 0.07317357
0001e0 01 a2 4c 3e 35 36 c4 3b d0 ae 0b bd 76 6a 28 3e
       0.19983675 0.0059879073 -0.03410226 0.16446862
0001f0 3a a8 8a bd 49 1c 0c 3e fb b6 df bc 1a 43 53 3e
       -0.06770368 0.13682665 -0.027308932 0.20631066
000200 9d 7b 21 3e b9 62 47 bd 79 af 99 3d a7 30 8e 3d
       0.15769811 -0.048678134 0.07504172 0.069428734
000210 21 a5 d6 bc d1 fa 4e be ff 26 6a bd f1 d9 9e bc
       -0.026201786 -0.20212866 -0.057166096 -0.019391032
000220 7c fd c0 3c 93 52 9c bb 73 a1 5e bc 56 68 4c bd
       0.02355837 -0.004770586 -0.013588297 -0.04990419
000230 be 7e b2 3d f0 01 ab bd f8 38 6e 3d 52 43 af 3d
       0.087155804 -0.08349979 0.0581598 0.08557762
000240 dd ca 87 bd 8c 74 94 bd fd ae c7 bd 55 73 18 bd
       -0.0663049 -0.07248792 -0.09750173 -0.037219364
000250 12 c8 55 3d 01 fd 96 3c 1e ec 80 3d 4e a9 5d 3e
       0.052192755 0.018431189 0.06295036 0.21646616
000260 d9 44 17 3e f2 cf 54 3d ef 83 76 3d b0 b5 63 bd
       0.14772357 0.051956125 0.060184415 -0.055593193
000270 b4 4b c7 b9 3e 30 17 bc b3 3e 8c bd 35 bb 4f 3d
       -0.0003801264 -0.00922781 -0.068478964 0.050715644
000280 46 d8 43 bc 4e d9 58 3d 18 13 db bc 05 54 8b 3d
       -0.011953419 0.052941613 -0.026742503 0.06803135
000290 b4 c2 12 bd fa c1 2c 3e 94 f9 24 3e 15 9a 4c bd
       -0.035830215 0.16870871 0.16110831 -0.04995163
0002a0 96 3f fc bc af 9a d6 3b 20 9b a9 bd d1 ba e4 bd
       -0.030792039 0.0065492014 -0.08281541 -0.11168445
0002b0 2a 3c 48 3d 81 a8 30 3d 45 2b 87 3d 39 1f ca bc
       0.048885502 0.043129448 0.0660005 -0.024673091
0002c0 d2 29 7c bc 55 56 9b 3d 12 e1 6b bc 21 b2 2e be
       -0.01539083 0.07584826 -0.014396923 -0.17060138
0002d0 6c ae ac bd d2 ff 3d bd 11 94 c1 bc eb 31 9e 3d
       -0.08431706 -0.046386547 -0.023630174 0.07724365
0002e0 3b 32 f0 bd 77 ca fc bd 8e ba 52 3d c2 c5 96 bd
       -0.11728331 -0.123433046 0.051447444 -0.07361938
0002f0 c5 1a e2 3c 95 61 52 3e a7 ff 2c 3e 41 02 d1 3d
       0.027600655 0.20545037 0.16894399 0.10205508
000300 6c 3e 07 3d 98 58 13 bd 9e e6 5a bd 7e ad 54 be
       0.033018515 -0.03597316 -0.05344259 -0.20769307
000310 7a d2 c9 be 2c de 8a 3d 1e 2a ec 3d fe 30 1c bb
       -0.39418393 0.06780657 0.11531471 -0.0023832913
000320 21 f9 3c 3c ba 28 5e 3d 29 a8 62 3a 78 59 8a 3d
       0.011534006 0.05423806 0.00086462736 0.06755346
000330 d7 26 af bd bc b6 04 bd 32 42 9b 3d 66 3a ec 3a
       -0.0855233 -0.03240083 0.07580985 0.0018022775
000340 13 4b bd 3d 8c 92 81 bd b6 3f e2 bc 1c fc b1 3d
       0.09242835 -0.0632678 -0.02761827 0.08690664
000350 69 76 87 3d 83 cf d5 bd d2 cb 6d 3d 06 f9 2a be
       0.06614382 -0.1043997 0.058055706 -0.16696557
000360 5e 1d 1a 3d 89 d1 31 3e 92 75 c0 3b 07 d1 cc 3d
       0.037625663 0.17365088 0.0058733905 0.10000806
000370 1a 20 38 3d 1e 0a 97 bd 28 26 70 3d 41 32 e3 bd
       0.04495249 -0.073749766 0.05863014 -0.110935695
000380 c3 0b 68 bc fb 5d 53 bd ad 2b 2d 3b d4 b3 4c bd
       -0.01416296 -0.0516033 0.0026423738 -0.049976185
000390 95 0b 14 be 37 6c ea bb 29 24 07 3e 20 10 3d be
       -0.14457543 -0.0071540135 0.13197388 -0.18463182
0003a0 84 47 39 3d 9a 3e 78 3e 8f fe ad bd bf ae 7f 3d
       0.04523422 0.2424263 -0.08495819 0.06242251
0003b0 4b be 8f bc 08 c2 4f 3d 57 4e e0 bc 10 48 e7 bb
       -0.017546793 0.050722152 -0.027381105 -0.007058151
0003c0 cb 02 a2 bd 26 3b 6e be 89 fa d3 3d 9c 80 18 bc
       -0.07910689 -0.23264751 0.1035052 -0.009308007
0003d0 57 71 85 bd 33 ae 61 bd d1 50 62 3d 24 2d 0f bd
       -0.065157585 -0.05509777 0.055252854 -0.03495516
0003e0 bd 6c d1 3c af 8f be 3d 8b b6 60 3c 36 91 a6 3d
       0.025564546 0.09304749 0.013715397 0.081331655
0003f0 e5 5d 1c 3c 6a 5a 44 3d 8f 45 8b bc a7 f4 66 bd
       0.009543871 0.047937788 -0.017000942 -0.056385662

conv2.bias f4 [64]
000000 49 b6 81 bd 4f 95 90 3d 4e dd 87 bc 32 50 4f bd
       -0.06333596 0.07059728 -0.016585018 -0.05061359
000010 5f d9 da 3d d4 f9 42 bd 66 05 98 3b 14 60 9c bb
       0.106859915 -0.047601536 0.0046393154 -0.0047721956
000020 7e 9f 05 3c 86 fc 47 3b 75 b8 10 3d 40 4a 3d 3b
       0.008155702 0.0030515506 0.035332162 0.0028883368
000030 5c 9d 64 3d 8c 48 00 3d 12 b3 2a bd f8 cc e1 3c
       0.055814132 0.031319186 -0.04167468 0.027563557
000040 ce 80 14 3d df 23 b3 bc 6c a3 f8 3c 6c cc c4 3d
       0.03625565 -0.02186769 0.030351363 0.09609303
000050 23 87 fc 3b b7 c6 5d 3d d2 bc 3c 3d d4 a0 9e bd
       0.0077065392 0.054144587 0.04607851 -0.07745519
000060 f1 75 0b 3d bf 80 1d 3d 55 fe a9 3c de 4a a2 3d
       0.034048025 0.03845286 0.020751158 0.07924436
000070 c1 f0 d6 3c c1 2a 5e 3d 1c e9 31 3d 8c 76 a9 3c
       0.026237847 0.054239992 0.0434352 0.02068641
000080 78 33 c0 3c c4 d5 80 bc 60 38 7b bc 79 02 c8 bc
       0.023462042 -0.015726931 -0.015333265 -0.024415242
000090 3b 6a 2c 3d 86 e4 0a bb bf bb 8e 3d f8 15 eb 3d
       0.042093497 -0.002119334 0.069694035 0.114787996
0000a0 8c 8b cf 3d c7 2e c5 bc 18 22 98 bd 11 ad 9a bd
       0.10134038 -0.024070157 -0.07428378 -0.07552541
0000b0 2b fc 3c 3d d9 d3 b3 bc 63 20 d4 3b 34 14 2b bc
       0.046138924 -0.021951603 0.0064735874 -0.0104418285
0000c0 15 5b 68 3d 2a 12 15 bc 21 97 8c 3c 4c ff 2f bc
       0.056727488 -0.009098569 0.017161908 -0.01074202
0000d0 7e 59 3a 3d a1 ef ad 3d eb f4 0e bb 2e 48 13 3d
       0.045495503 0.08492971 -0.0021813463 0.035957508
0000e0 d5 fd 2f 3c c6 f2 11 bd 6a 36 b8 3c 5e ff 18 bc
       0.010741671 -0.035631917 0.022486884 -0.009338228
0000f0 ff 3f 21 3d 4a 17 2b bd f5 b9 47 bd 59 ea 6c 3b
       0.039367672 -0.041770257 -0.048761327 0.0036150424

conv3.weight f4 [128, 64, 3, 3]
000000 e9 69 5f bc b1 eb 2e bd c8 f6 18 3c 16 13 6a bd
       -0.013636091 -0.04270524 0.009336181 -0.057147108
000010 04 d3 b9 bd 7b a0 ae 3c 99 12 92 3b 55 2e e2 bc
       -0.09073451 0.021316757 0.0044577834 -0.027609983
000020 7e eb 80 3d 07 97 3a 3d 8c 7f 26 bc 7f ac 04 3c
       0.062949166 0.045554187 -0.0101622455 0.008097767
000030 4d 85 da 3c aa 64 9b 3c 12 00 d2 3c 31 9a b2 3c
       0.02667489 0.018968899 0.0256348 0.02180204
000040 76 e3 a1 bc 30 b8 89 3c fe c8 ee b9 81 1d 40 bd
       -0.019761782 0.01681146 -0.00045544648 -0.046903137
000050 13 61 20 bd 19 4c 3c 3d 97 20 78 3d 4f d8 d9 3c
       -0.039155077 0.04597101 0.060577955 0.026592402
000060 f3 e0 f0 bc 26 65 41 3d 5b fe 3f bd 96 32 73 3d
       -0.02940414 0.047215603 -0.04687343 0.059374414
000070 e4 7e 3d 3d 1f ef d6 3c ce 5c c0 3d ef 33 86 3c
       0.04626359 0.026237069 0.09392701 0.016382186
000080 43 e3 58 3d 6b 5f 8f 3d bf 66 a9 3d 65 f4 1f 3d
       0.05295111 0.070006214 0.082715504 0.039051432
000090 a4 15 2d 3d 3b a3 92 3d 10 a6 05 3d 05 d0 dc bb
       0.042256966 0.0716004 0.032629073 -0.006738665
0000a0 b9 79 04 3d 4d 85 87 3d 0f e1 15 3d 27 9f 82 3d
       0.032342646 0.06617222 0.036591586 0.06378012
0000b0 52 7b 38 3d d2 26 73 3c 89 08 82 3d bc dd 0d 3c
       0.045039482 0.014840798 0.06349284 0.008658823
0000c0 87 af e3 3c 21 8d 83 3c a3 51 94 3c 17 88 03 bc
       0.027793659 0.016058506 0.018105334 -0.008028052
0000d0 e0 65 3f bc d6 39 ab 3c 65 cb e1 3b 9e ec a9 3c
       -0.011682004 0.020901602 0.0068907016 0.02074271
0000e0 59 72 31 3b 05 09 2f 3d 1c f6 17 3d b2 16 28 3c
       0.0027076213 0.04273321 0.037099943 0.010259317
0000f0 44 62 45 3d 59 92 c4 3c d0 85 71 bb 94 68 a8 3c
       0.048189417 0.023995565 -0.003685344 0.02055768
000100 a2 74 3b bc 59 0d 01 3a 0d 3c 07 3d 1a 79 3a bb
       -0.011441382 0.00049229484 0.033016253 -0.002845353
000110 80 94 b6 3c b8 42 a8 3a 7b ae da 3c a0 a9 2c 3d
       0.022287607 0.0012837267 0.026694527 0.042153955
000120 75 a5 8c 3c 4c c0 a1 3c f7 01 d4 3a ba 5a 18 3d
       0.01716874 0.019745015 0.0016174902 0.0371959
000130 2b 8b 2c 3c c1 a8 c4 bc a7 59 a2 3d 05 bf b8 3c
       0.010531227 -0.02400625 0.07927256 0.022552023
000140 8c ae 94 bc f4 d6 83 3d bb fe 38 3d 33 20 b5 3c
       -0.018149637 0.064374834 0.045164805 0.02211008
000150 93 fd 7f 3d 61 3f c8 3c 7d c5 5d bb dc 6d 74 3d
       0.062497687 0.024444284 -0.0033839636 0.059675083
000160 2a f2 bc bc 24 3a 8c 3c a1 b3 a3 3c a5 ac 1d bd
       -0.023064692 0.017117567 0.019983115 -0.038494725
000170 63 5e 1c 39 f8 fe 76 ba 86 85 eb bc 74 08 6a 3d
       0.00014912481 -0.00094221486 -0.028750192 0.057136968
000180 78 d0 d5 3c a7 4e 2e 3c 58 4a 1f bc 90 0e e7 3c
       0.026100382 0.010638869 -0.009722315 0.028205186
000190 b1 57 2e bd bc bd e7 3c f0 0f 5b 3d 5f 08 95 3d
       -0.042564098 0.028288715 0.053481996 0.07276987
0001a0 b8 81 18 bb d1 5a 46 bc c6 e6 a2 3d 6a 00 fa 3a
       -0.0023270678 -0.012106613 0.07954173 0.001907361
0001b0 bd 2e 55 3c 0b e4 12 3c b0 86 9a bc 26 84 80 3d
       0.013011632 0.0089655025 -0.018863052 0.06275205
0001c0 e7 c4 ef 3c 56 67 18 3d 5b 00 00 3d 15 69 aa 3c
       0.029268695 0.037207924 0.03125034 0.02080206
0001d0 44 06 e4 3c 21 a1 29 3c 69 10 1f bc b0 7f 09 bc
       0.027835019 0.0103533575 -0.009708502 -0.0083922595
0001e0 63 38 6b bc 85 62 c0 3c d4 a3 34 3b 54 54 1a 3d
       -0.014356705 0.023484478 0.002756347 0.037678078
0001f0 ad 55 84 bc c2 db 67 3c 6d 8e f4 3c 7c 5b 15 3c
       -0.016154135 0.014151515 0.02985307 0.00911605
000200 41 66 97 3c cb 20 19 3d f6 e2 5e 3d f0 f1 10 3d
       0.018481376 0.03738479 0.054415666 0.03538698
000210 db 98 df ba b1 35 64 bc 7b 67 dd 3c 4a ac ad 3c
       -0.0017059104 -0.013928817 0.027026882 0.021200318
000220 47 a3 3c 3c 03 52 82 3c 3f e5 94 3d 59 54 c0 3a
       0.011513538 0.015908247 0.07270288 0.0014673575
000230 5b a0 8d bc 35 3c 25 bc fd 3a 7f 3d 57 07 48 3b
       -0.017288378 -0.010085155 0.062312115 0.0030521953
000240 1b b4 5d bc 41 7a 42 3d 12 fd 95 bc 18 d0 74 bb
       -0.01353171 0.04747987 -0.01830915 -0.003735548
000250 28 69 59 3c 0f 13 68 3d 9a d2 8b bc 83 d3 49 3d
       0.0132697 0.0566588 -0.017068196 0.04927398
000260 4b 12 7b bd e3 d6 90 3d 26 41 b6 bc aa 67 1d 3d
       -0.061296742 0.070722364 -0.022247862 0.03842894
000270 3d 12 bc bc b5 e4 0c bd 0e 44 44 bc 83 96 63 3d
       -0.022957915 -0.0343978 -0.011979116 0.05556346
000280 eb bd 25 bd 32 cb b4 3c 8a 69 78 bb 6b a9 0f 3d
       -0.040464323 0.022069547 -0.0037904703 0.03507368
000290 be 2c 2a 3b 7e 94 3d bd ef 93 ac bd 65 38 90 3d
       0.002596661 -0.04628419 -0.084266536 0.070420064
0002a0 dc 43 fa 3b ef 73 42 3d 15 ca d9 3c 63 07 80 3c
       0.007637484 0.047473844 0.026585618 0.015628522
0002b0 98 2f bd 3c dd 69 ff 3c 65 14 14 3d ca ec f0 3c
       0.023093984 0.03117841 0.036152262 0.029409785
0002c0 cf 71 d1 3c 9f 9b a4 3c 53 d9 3c 3d bb d2 fa 3b
       0.025566963 0.020093737 0.046105694 0.0076545156
0002d0 96 88 e5 3c aa fa 93 bc 14 b4 27 3d da c9 39 3c
       0.02801923 -0.018063862 0.04094322 0.011339629
0002e0 02 84 8b bb 46 89 d4 bb 4f 3b 60 3a 3f 22 47 3c
       -0.00425768 -0.006486091 0.00085537595 0.012154161
0002f0 1b 22 f3 bc af 2c 42 3d 50 1c 9b 3d 11 f3 27 bd
       -0.029679349 0.047405895 0.075737596 -0.04100329
000300 b1 28 04 bd 07 0d 4f bc 61 e7 93 3d b3 ad 98 bd
       -0.03226537 -0.012637383 0.072218664 -0.074550055
000310 c1 cd 59 3b d8 ee 4e 3d 45 de 0f 3d 97 9d a1 3d
       0.003323421 0.050520748 0.035124082 0.07891386
000320 77 0a 64 bd b5 67 ee 3c 56 58 8e 3c be 3b e8 bc
       -0.055674043 0.029102186 0.017376106 -0.0283488
000330 ea 76 31 bc 66 df 9b 3d 81 c4 6e bd 2a 1a 18 bd
       -0.010831574 0.07610969 -0.05829287 -0.037134327
000340 70 8a b5 3b ed 3d df 3c 98 7f 4f 3d ea eb a6 3c
       0.0055401847 0.027251208 0.050658792 0.020376164
000350 1e 36 bb 3b d2 96 d3 bc ec c0 8c 3c 32 8b 48 bd
       0.0057132384 -0.025828753 0.017181836 -0.048960872
000360 f6 e2 4f bc d2 da 3c 3d a3 2e 2c bc ba a9 ed 3c
       -0.012688389 0.04610712 -0.010509166 0.029011596
000370 52 f7 82 bb b2 58 a1 3c ff d0 f7 bc e9 32 6e 3b
       -0.003996768 0.019695614 -0.030251024 0.0036346263
000380 95 90 f9 3c 47 e6 46 bc bc df 93 3c 62 97 bd 39
       0.03046445 -0.012139863 0.01805102 0.00036161678
000390 45 ef 0d 3d 3b 0a 04 3d 45 b6 ed 3c 18 20 11 bd
       0.034652013 0.03223632 0.029017577 -0.035430998
0003a0 20 cd 4a 3c 4f d4 af 3c 61 97 e3 3c c4 59 62 3d
       0.012378007 0.021463541 0.027782144 0.05526139
0003b0 70 24 0b 3d 18 42 31 bd 0b de 1c bd 4d 00 c1 bc
       0.033970296 -0.043275923 -0.038297694 -0.023559714
0003c0 58 ba fc bc ca 3e 2e 3d 09 15 90 3c e8 57 13 3d
       -0.030850574 0.04254035 0.017588155 0.035972506
0003d0 0a 57 4c bb 17 87 11 3c 8c 55 65 3d b7 e9 27 3b
       -0.003117981 0.008882306 0.055989787 0.0025621483
0003e0 f7 fa b8 bc cb 61 34 3c 8e 7e 40 3d fb 62 e1 3c
       -0.022580607 0.011009644 0.046995692 0.027513018
0003f0 5c 01 63 bc b0 8b f9 bc b2 11 97 bd bf 8e 67 3d
       -0.013855305 -0.030462116 -0.07376422 0.056532618

conv3.bias f4 [128]
000000 ea af 8e 3c dd 07 16 3d 96 99 0f bd a6 f5 0f bb
       0.017417867 0.036628593 -0.03505858 -0.0021966486
000010 d8 9a e6 3b bd 99 47 3d c5 f3 55 ba be e8 bd ba
       0.007037502 0.0487306 -0.00081616297 -0.0014488918
000020 32 87 c5 bc 87 10 94 3c cb 07 35 3d 56 81 5c 3c
       -0.024112318 0.018074287 0.044196885 0.01345857
000030 42 67 ec 3c 5e 4a 1a bc 27 6a dc bc 2a 66 93 3c
       0.02885783 -0.009417145 -0.026906086 0.017993052
000040 de a9 9d bc f5 c5 a8 3c e2 20 15 b5 8e ab 91 b3
       -0.019246038 0.020602206 -5.5554676e-07 -6.783294e-08
000050 88 cc 01 3d 0f 9e ab 3b 49 71 84 3c ba 6c 2c bd
       0.031689197 0.005237348 0.0161673 -0.042095877
000060 21 82 4c b9 ac 12 34 bd b7 83 64 a5 4e ec 0b b7
       -0.00019503433 -0.04396312 -1.9820474e-16 -8.340065e-06
000070 c3 18 c6 3b 7f 18 6e 3c 7a 6e 9b 99 6f 50 ed 3c
       0.0060454323 0.0145322075 -1.6071245e-23 0.028969018
000080 31 bd 3a bc 63 ca a7 bc 45 56 91 3c 30 51 c9 3c
       -0.011397646 -0.020482248 0.017741332 0.024574846
000090 83 f0 37 bd 07 28 27 bd bf 5f 0f bb 31 2d a2 b8
       -0.044907104 -0.040809657 -0.0021877137 -7.7331795e-05
0000a0 f4 89 85 bd 2b fa 00 bc 47 55 09 3d ab b7 83 bc
       -0.06520453 -0.007872145 0.033528592 -0.01607879
0000b0 16 9c ab bb 3d 78 71 3b 79 fd a0 3c bc 0d 02 ba
       -0.0052371128 0.003684535 0.019652115 -0.0004961153
0000c0 c1 2b 09 bd 48 16 58 3c 1f ad 63 bc 50 ba 45 3b
       -0.033488993 0.013188906 -0.013896256 0.0030170865
0000d0 c1 64 22 3b 19 a1 96 bc 41 6f 2b b7 7e 28 b2 bc
       0.0024779292 -0.018387364 -1.0218298e-05 -0.021747824
0000e0 a5 db a1 bb bd b3 08 bd cf 0e 30 91 fa d4 87 3c
       -0.0049395137 -0.033374537 -1.3888515e-28 0.016581047
0000f0 27 5f 03 3d 0d cc 38 bd 33 d6 c5 3c 83 54 1d af
       0.032073166 -0.045116473 0.02414999 -1.4309091e-10
000100 db 17 aa 3c 95 e2 90 3d ac b9 36 3b 57 0c fd 3c
       0.020763328 0.07074467 0.0027881665 0.030889673
000110 be 32 27 bd 49 6d 06 bd 64 95 00 3d 97 2a 1c bc
       -0.040819876 -0.032819066 0.03139247 -0.009531639
000120 1e b4 4e bc 4d b0 2d 3d a0 ba fa bc 76 90 98 bb
       -0.0126161855 0.04240446 -0.030606568 -0.004655893
000130 ee ee b5 3c e4 2e 23 b7 1d 2a 0b 3d 00 12 ff bb
       0.022208657 -9.726475e-06 0.03397571 -0.007784128
000140 68 15 0d 3d 63 10 48 3d c0 45 cf ad 25 e1 1b bb
       0.034444243 0.048843753 -2.356415e-11 -0.002378532
000150 e9 ac 7a 3d 4f 91 18 3d 98 62 b9 bc ec 2a 20 bd
       0.061200056 0.037247952 -0.022630021 -0.039103433
000160 90 39 12 bd 08 7a 68 3b 56 0e f2 3b ce c3 29 bd
       -0.035699427 0.0035473127 0.007386963 -0.0414465
000170 be 9e e1 3b f3 39 09 3d bd 49 74 3c c3 03 59 3c
       0.0068853786 0.03350253 0.014910159 0.013245526
000180 19 80 95 b3 1f 3f 7e bc a2 02 f4 b2 d7 c9 54 bd
       -6.961654e-08 -0.015517979 -2.8406536e-08 -0.051950302
000190 d7 66 8c bd 98 40 01 3c e9 87 f0 b5 a8 29 7f 3d
       -0.06855553 0.0078889355 -1.7920948e-06 0.062295586
0001a0 bb 4a 45 3d 4a 13 10 3c c5 76 6e 3d a3 1c d5 b8
       0.04816697 0.008793661 0.058218736 -0.000101619655
0001b0 fd c9 b6 ba 3e 21 17 bc 2e 22 28 3d c5 a6 4c bb
       -0.0013945695 -0.009224234 0.04104822 -0.0031227332
0001c0 c6 3b 91 3c a3 b8 f5 3c 46 9f 65 3c 84 2b a1 a7
       0.017728698 0.029995268 0.0140150245 -4.4733656e-15
0001d0 22 ea bf 3c 9b 91 1b bd 4d b0 8d ba 64 8f 58 bc
       0.023427073 -0.037980657 -0.0010809988 -0.013217781
0001e0 1f 10 f5 3b ee 10 1a bc 2d b2 cf bd f9 9a 66 b5
       0.0074787284 -0.00940345 -0.10141406 -8.590719e-07
0001f0 87 27 8f 3d 26 48 a5 bc 13 4c bb bc 1f c0 e8 3b
       0.06989961 -0.020176005 -0.022863423 0.0071029807

act_conv1.weight f4 [4, 128, 1, 1]
000000 e4 dd a7 3c 82 6b 02 3e 09 00 e3 bd c0 be 5c 3d
       0.020491548 0.12736323 -0.11083991 0.05389285
000010 ae 12 42 3e 44 9a d2 bd f9 8a a5 3b 7c 37 f0 3a
       0.18952438 -0.1028333 0.005051967 0.0018327083
000020 7e 96 93 bd 2b 6c f6 3d ca 6d 3f bd 21 87 a2 3d
       -0.072064385 0.1203235 -0.046735562 0.0793593
000030 8f 85 86 3d 68 44 b7 bc e9 c7 2b bd 02 fd 0c 3d
       0.06568443 -0.022371486 -0.041938696 0.034420975
000040 18 0e 55 3d d3 52 0a 3e 4c 6a 0f 3b d2 89 00 80
       0.052015394 0.13508157 0.0021883426 -4.944e-41
000050 b6 8a ad 3d 00 07 99 3d 1d 05 cb 3d d3 92 4b 3e
       0.08473723 0.07472038 0.09913085 0.19880228
000060 c2 8a 00 80 57 6f 44 bd fa ec c8 bb 7a 89 00 00
       -4.9777e-41 -0.047957744 -0.0061317654 4.9317e-41
000070 17 c3 7c 3c 53 32 31 3d ba 2c ab 20 e9 4f 15 3d
       0.015427372 0.043260884 2.8998124e-19 0.03645316
000080 df 9e 63 bd 27 d4 81 3b ec 90 76 3e 30 d1 45 3d
       -0.055571433 0.003962058 0.24078721 0.0482952
000090 95 2e 11 3e b4 3a 8c bd 3a 70 7a 3b c1 88 00 00
       0.14177926 -0.06847134 0.0038213865 4.9058e-41
0000a0 d1 63 b1 3d 4d 72 9f 3d 75 80 81 3d 21 d8 33 be
       0.086616166 0.07785473 0.06323329 -0.17562915
0000b0 b4 13 ee bd 62 8a f6 3c d9 be 9c 3d d7 7f 56 ba
       -0.11624852 0.030095283 0.07653589 -0.0008182502
0000c0 ef 30 2a 3e 36 32 b1 bd 1d 9c 45 3e bf 1b a3 3e
       0.16620229 -0.08652155 0.19297834 0.31857106
0000d0 c3 d7 a4 3d bd c9 09 bd f0 88 00 00 7e 89 01 bd
       0.08048966 -0.03363966 4.9124e-41 -0.031625263
0000e0 4f cb 76 bd 1a 22 87 bd d7 8a 00 00 ec a6 d9 bc
       -0.060252484 -0.06598301 4.9806e-41 -0.026568852
0000f0 5e f5 a7 bd eb a1 25 bc 7d 1f 08 be cb 2f 92 ba
       -0.08201097 -0.010109405 -0.13293262 -0.001115316
000100 0a 5a b1 3d 63 15 92 3e 29 c1 65 3c d3 a7 12 3e
       0.08659752 0.28531942 0.014023104 0.14321832
000110 a9 21 fb 3d 78 a3 dc bd c5 52 ce 3d d5 f0 04 3e
       0.122622795 -0.10773367 0.10074381 0.12982495
000120 7d b5 02 bd c8 02 d9 bc 46 e2 34 3d 66 88 46 3e
       -0.031911362 -0.026490584 0.044161104 0.1938797
000130 9f d8 57 3d 62 54 33 b1 6a 22 9a bc 42 c3 a0 3e
       0.05269682 -2.6095894e-09 -0.018815238 0.3139897
000140 45 f0 71 3c aa f3 94 3d 7b 89 00 80 b7 60 d9 bc
       0.014766757 0.07273038 -4.9319e-41 -0.026535375
000150 07 12 f6 bd 21 05 f1 3d ef 90 79 3d bc bf 73 bd
       -0.12015157 0.117685564 0.060929235 -0.059509024
000160 a5 08 94 3d 94 e8 9b 3d dd 89 a7 3d eb 0e f1 bd
       0.07228211 0.0761272 0.08180592 -0.117704235
000170 cc 1b 36 3a 86 49 68 3c 6e ca 16 bd 3f 9c a2 3d
       0.0006946891 0.014177686 -0.036814146 0.07939958
000180 87 8a 00 80 a3 97 14 3e 2d 3d 0c bc fd 0f 3c be
       -4.9694e-41 0.1451097 -0.008559507 -0.18365474
000190 f8 d8 27 3c 0b fe 07 3e cc 72 7e bb 4a 41 0e 3c
       0.0102446005 0.13280503 -0.0038825748 0.008682558
0001a0 89 d3 fa bd a1 1c 79 bc 93 0e f4 3d 20 8a 00 80
       -0.122473784 -0.01520458 0.11916842 -4.955e-41
0001b0 f8 a0 79 3b f6 89 00 80 df 1f 01 3e 6f 6c 07 be
       0.003809033 -4.9491e-41 0.12609814 -0.13224958
0001c0 ff 72 0b 3d 25 32 fe 3d be 8d 4b 3e c3 8a 00 00
       0.034045216 0.12411908 0.19878289 4.9778e-41
0001d0 cf fd bc 3d 5d c7 a7 bc d1 88 00 80 df 2b 7c bd
       0.09228098 -0.020480806 -4.908e-41 -0.061565276
0001e0 6b 46 a9 bd e8 d1 85 3e 5c fb 2f bd 5c 89 00 80
       -0.08265384 0.26136708 -0.042964324 -4.9275e-41
0001f0 dd 9e 58 bd c4 dc b7 bd 0f dc 11 3e cb cb 16 bd
       -0.05288588 -0.089776546 0.14244102 -0.036815446
000200 83 f4 f9 3b 09 d5 38 bd 80 46 bd 3d 3a 0b da bc
       0.007628025 -0.04512504 0.092419624 -0.026616681
000210 8c 0f 1f be cb 3c 11 bc 6a 3d 13 bc d7 fa d4 b9
       -0.15533274 -0.008864592 -0.00898681 -0.0004062268
000220 60 f1 48 be 87 7f 59 bb 11 12 8d ba 08 92 51 bd
       -0.19623327 -0.0033187584 -0.001076283 -0.051164657
000230 f1 cc fc bc 4b 3f 8f bd 32 ab 8c 3d d2 9c 2c be
       -0.030859442 -0.06994494 0.068685904 -0.16856697
000240 30 c1 0b be 5c e7 c9 bd a1 e7 0d 83 73 90 00 80
       -0.13647914 -0.098585814 -4.1702073e-37 -5.1819e-41
000250 83 aa 68 bb ba fc 0b bd 29 de 0f bc f9 c8 07 3e
       -0.0035502024 -0.034176566 -0.008780994 0.13260259
000260 f2 89 00 80 5b 6e ef 3c 2a 23 ed ba b9 88 00 80
       -4.9485e-41 0.029227426 -0.0018092145 -4.9047e-41
000270 cb 44 46 3e a6 77 15 bd d5 8a 00 00 fe 94 c4 3c
       0.1936218 -0.03649106 4.9804e-41 0.023996826
000280 b8 28 ec b7 e1 39 6f 3a 54 31 bd 3d 7a 11 15 bd
       -2.8152353e-05 0.0009125751 0.09237924 -0.03639362
000290 5c 95 80 bd c7 10 ec 3d 35 18 cb b9 d3 89 00 80
       -0.06278488 0.115266375 -0.00038737213 -4.9442e-41
0002a0 9e b7 bb 3c 6f 21 28 be c8 3d 9e 3d 94 d9 a2 3d
       0.022914704 -0.16419004 0.077266276 0.07951656
0002b0 63 d0 4d 3e c5 4e d2 3b 98 f7 2a bd 33 71 f7 bb
       0.20099024 0.0064180815 -0.04174003 -0.007551336
0002c0 6a 70 56 3d a2 05 82 3d 14 b6 a7 ba b4 6c 2e 3d
       0.0523533 0.063487306 -0.0012795352 0.042584136
0002d0 c4 0a b5 bd a7 cc 0a 3c 49 8a 00 00 f8 d3 86 bb
       -0.08839944 0.0084716445 4.9607e-41 -0.004114624
0002e0 45 d7 14 ba 69 99 89 3d 3a 8a 00 80 56 11 78 bc
       -0.00056778296 0.06718714 -4.9586e-41 -0.015140852
0002f0 9e 3a 9d 3d fd c1 2a be e8 12 65 3e 3d 54 c5 bb
       0.07677196 -0.16675563 0.22370493 -0.006022005
000300 cc 2f 82 3e 58 17 6f bd 72 69 f0 bb 1b c6 b9 bc
       0.2542709 -0.05837187 -0.007336789 -0.022677472
000310 a1 04 73 3d 84 78 aa 3d ad bb 0a 3e 09 b3 ed 3d
       0.059330586 0.08323768 0.13548155 0.11606414
000320 24 cf 32 bc bd 5a 03 bc 50 74 ca bd 03 99 a5 be
       -0.010913644 -0.008017239 -0.09885466 -0.323433
000330 f4 af 00 3e e7 88 00 80 a7 37 65 3e 76 ab b4 3d
       0.12567121 -4.9111e-41 0.22384511 0.08821766
000340 ca ba c3 3d 67 45 1c bd 22 8c 00 80 2b 2e 82 3b
       0.095571116 -0.038152125 -5.027e-41 0.003972789
000350 91 15 8f 3c 1b e1 87 bc 02 3e 5e bd b2 08 71 3d
       0.017466338 -0.01658683 -0.054258354 0.058846183
000360 a3 48 e3 3d b7 39 0c 3d 9e d8 2f 3d d9 b8 ac 3d
       0.11097839 0.03423473 0.04293119 0.084336944
000370 9d ea ca 3c b5 90 61 bd 9c 38 64 3c 2d d7 a6 bd
       0.024770075 -0.055069644 0.013929512 -0.0814651
000380 0a 94 00 00 29 b9 70 3d ea 15 02 2c 80 83 72 3d
       5.3106e-41 0.058770332 1.8486276e-12 0.05920744
000390 ef aa 36 be 94 05 9a bd f3 88 00 80 4a 0e 6a bc
       -0.17838643 -0.07520595 -4.9128e-41 -0.014285633
0003a0 18 9e 60 3a 4a 7f 98 3d 43 5b 1d bd 02 8b 00 80
       0.00085684797 0.074461535 -0.038417112 -4.9867e-41
0003b0 26 89 00 80 0c a9 00 00 fa 56 2b bd 70 93 3d 3d
       -4.92e-41 6.0643e-41 -0.041830994 0.046283185
0003c0 96 ee 87 3d f6 83 52 bd 1a f1 2b be fa 8a 00 00
       0.066373035 -0.05139538 -0.16791192 4.9855e-41
0003d0 33 a4 f6 bc e4 88 8c 3d 95 8a 00 80 de 10 4e bd
       -0.030107593 0.06862047 -4.9714e-41 -0.050309055
0003e0 3a 21 d6 3b b6 f9 d7 ba 7d b1 a9 3d 79 8a 00 80
       0.0065347226 -0.0016477618 0.08285806 -4.9675e-41
0003f0 9d 55 83 bb b1 d5 73 3d 9d 62 8f 3d 09 3f 34 bd
       -0.0040080086 0.059529964 0.07001231 -0.044005428

act_conv1.bias f4 [4]
000000 e0 c6 2e 3d b3 61 0e 3c 06 6b a1 bc b2 44 03 3e
       0.04267013 0.0086902855 -0.019704353 0.12819174

act_fc1.weight f4 [81, 324]
000000 90 93 21 3d 48 4b fa 3c 75 f3 24 3d 9f 3a a8 bb
       0.039447367 0.030553475 0.04027124 -0.0051339413
000010 98 cf 6b 3c 97 d8 50 3c 1e ac ba 3b a7 eb b8 3b
       0.014392756 0.012746952 0.0056967875 0.0056433263
000020 ee d6 58 bd b9 f2 27 3d ef 88 83 3b 28 02 7a bd
       -0.052939348 0.041002963 0.0040141265 -0.061037213
000030 6a 2c 85 bd b8 3c 1e bd c5 82 c6 bc 0c 41 ca bc
       -0.06502612 -0.038632125 -0.024232278 -0.02468922
000040 7a d5 e9 ba 4b 7c cd bb a6 46 04 3d 86 c7 99 3c
       -0.001784011 -0.0062709204 0.032293938 0.018771898
000050 37 3e 5a bd 4e 3d 8a bd 38 36 55 bd 29 89 a6 bd
       -0.05328199 -0.06749974 -0.05205366 -0.0813163
000060 a8 df 79 3c 33 e0 93 3c 29 6c 9c 3c 34 d3 16 3d
       0.015251078 0.018051242 0.019094544 0.036822513
000070 01 cc 41 bd 43 48 b7 bc 5f b2 bf bd 66 1b a8 bd
       -0.047313694 -0.022373324 -0.093601935 -0.08208351
000080 66 e2 85 3c dd 57 b5 bd b7 fe 9f bb ed 65 d7 bc
       0.016343307 -0.08854649 -0.0048826593 -0.02629372
000090 7a 69 4f bc d4 17 d1 bc 8b bc c0 bd a5 dc d7 bd
       -0.012659425 -0.025524057 -0.09410962 -0.105401315
0000a0 f4 f8 03 bd 6f 01 f0 bd 0b 73 ab bd a2 6c e2 bc
       -0.032219842 -0.117190234 -0.08371552 -0.02763969
0000b0 94 ef 24 bd 24 5d 5a 3d c1 a6 40 bd 28 2b 5c bd
       -0.040267542 0.053311482 -0.04703403 -0.053752095
0000c0 36 e9 a5 bd 4f 62 21 be f2 33 63 bd db 9b 85 bd
       -0.08101122 -0.15760158 -0.05546946 -0.06523868
0000d0 2b 6f 4e bd 6c 5e 6a bc a9 15 ef 3d 3d de 63 3c
       -0.050398987 -0.0143047385 0.11674053 0.013907966
0000e0 78 09 b0 bd 07 79 4c bd 9d 90 87 bd be e0 fb bc
       -0.08595556 -0.04992011 -0.0661938 -0.030746814
0000f0 94 c3 34 bd 0e a4 8e bd 2d 2f e5 bc 92 08 8a 3e
       -0.04413183 -0.06964885 -0.027976597 0.26959664
000100 f5 2e 6e bd 5a 2d c3 3c 77 2c ad bc 42 89 ac bd
       -0.05815025 0.023825336 -0.021139367 -0.08424617
000110 f9 e0 4d bc 32 ec 9b bc a9 ab fa 3b 98 7c 43 3b
       -0.012565845 -0.019033525 0.007649858 0.0029828902
000120 94 5b 8d 3e b3 db 93 3e b7 bc 44 bc dc 49 84 3b
       0.2760893 0.28878555 -0.012007884 0.004037125
000130 a4 1c 5e 3c 99 25 21 bc da fa 1a bd 33 da ce 3c
       0.013556633 -0.009835624 -0.037836887 0.02525053
000140 7c a0 b9 3c e6 88 cb 3a 3d b7 7c bc 78 6b 19 bd
       0.022659533 0.001552847 -0.015424547 -0.037456006
000150 39 b9 75 3d 57 cb 97 3d 40 a1 5e bd d5 53 05 bd
       0.059991095 0.07411831 -0.054353 -0.03255065
000160 c9 3a ba bc ce 7f 21 3d c6 1e 9b bb fa 61 99 bb
       -0.02273311 0.039428525 -0.004733893 -0.004680869
000170 7f 34 1b bd 9e 1e 70 3d ec 36 00 3d 29 8d 8d 3d
       -0.03789186 0.05862295 0.031302378 0.0691169
000180 03 f6 f2 bb 95 0e 85 bd 5d 05 d6 ba 62 b4 30 3d
       -0.007414581 -0.06496922 -0.0016328503 0.043140776
000190 61 5f 4e 3c 12 72 21 bd b4 0d ab 3c 9e 99 5e bc
       0.012595982 -0.039415427 0.020880558 -0.01358643
0001a0 ad f5 bc 3c 0a 63 c3 3c 9b a8 b1 3c 07 19 6a bc
       0.023066366 0.023850936 0.021686843 -0.014288194
0001b0 07 e0 de 3c b4 7a 91 bc 90 9d c4 bc b5 81 85 bd
       0.027206434 -0.017758705 -0.024000913 -0.0651888
0001c0 a9 a0 07 3d d0 05 70 bd 63 de 08 3b 1f a1 a9 39
       0.0331122 -0.058599293 0.0020884506 0.00032354236
0001d0 c4 1a 47 bd 6c 7e 1e 3d 98 86 8c 3b eb de f4 bc
       -0.04860951 0.038694784 0.0042885058 -0.029891452
0001e0 d3 43 1e 3d 50 47 04 bc 55 df 15 3d 83 a1 17 bd
       0.0386389 -0.008073643 0.03658994 -0.037019264
0001f0 e7 82 07 3d 19 cf 41 3d 21 a0 e4 bd 6f d6 f0 3c
       0.033083823 0.047316644 -0.11163355 0.029399125
000200 94 16 98 3d 55 2d 1b 3c 5e b5 04 bd f7 70 6f 39
       0.074261814 0.009471257 -0.032399528 0.00022834899
000210 fd 10 06 3c 8a 92 d2 3c ea 31 ee 3d 97 ef fd bb
       0.008182761 0.02570464 0.11630614 -0.0077495086
000220 a4 5e f6 bc b9 08 8a 3c 0b 24 a5 3b 08 96 86 3c
       -0.030074425 0.016849862 0.005039697 0.016428962
000230 92 07 92 3b c7 af 45 bd a2 29 a3 bc 12 74 82 3c
       0.004456469 -0.048263337 -0.019917313 0.015924487
000240 38 f5 4a be 61 dd 57 bc 6a fe d7 bc 92 5e 35 bc
       -0.19820106 -0.013175339 -0.026366431 -0.011069911
000250 00 59 72 3d 7f aa 3e bc 09 2b 9d bc ea ed ea 3a
       0.05916691 -0.011637329 -0.01918556 0.0017923687
000260 06 b8 06 bd 01 79 ee bd 17 c5 1b be 1d 0c 8f 3c
       -0.032890342 -0.116441734 -0.15211903 0.01746183
000270 df b8 b7 3c 08 9a b0 3d 29 b4 b5 3d 1f 2f 2f 3d
       0.02242702 0.08623129 0.088722534 0.042769548
000280 b6 40 00 3c c6 b4 56 3d 43 a4 03 00 b2 eb 0b 2c
       0.007827928 0.052418493 3.34432e-40 1.9883925e-12
000290 3d af fe 2d d3 f1 85 32 ad 57 72 30 c4 bc 21 32
       2.8954278e-11 1.5593207e-08 8.816368e-10 9.414354e-09
0002a0 bc da 3a 2f 9f 41 28 30 2b 30 99 2b b3 75 b7 2c
       1.6994312e-10 6.1211297e-10 1.0884673e-12 5.21424e-12
0002b0 7d 3c 65 33 00 45 5e 35 37 17 39 37 6c 93 e3 35
       5.337323e-08 8.280185e-07 1.1032264e-05 1.6955723e-06
0002c0 4e fa 7d 36 7a 5b 95 34 50 ed 8b 34 ee 36 5b 30
       3.7845634e-06 2.781997e-07 2.6063435e-07 7.9749796e-10
0002d0 69 42 2f 2b 82 be 2f 36 52 29 92 37 c8 30 fc 37
       6.226465e-13 2.6187922e-06 1.7423798e-05 3.0063457e-05
0002e0 82 3c e7 37 27 0d 63 37 96 9a 3e 37 10 06 35 36
       2.7565522e-05 1.3533317e-05 1.1360875e-05 2.697463e-06
0002f0 07 13 4d 32 d5 73 1b 2f 63 2a 17 37 91 33 d8 36
       1.1936897e-08 1.413832e-10 9.01017e-06 6.4433048e-06
000300 62 e7 96 38 88 76 8c 37 51 3a 83 37 4d cd 9a 36
       7.195656e-05 1.6744496e-05 1.5643573e-05 4.613458e-06
000310 14 27 d2 34 90 38 1e 30 90 b1 0c 2c 24 1d 52 36
       3.914398e-07 5.7560445e-10 1.9993764e-12 3.13094e-06
000320 69 d9 16 37 09 a3 9e 38 5c 16 77 36 a5 6c 87 36
       8.9913165e-06 7.564395e-05 3.6818883e-06 4.0359614e-06
000330 c0 a9 c4 32 ff 0e 78 30 0c 51 ed 2b 3e 1d 39 29
       2.2894596e-08 9.0243185e-10 1.6862358e-12 4.1103615e-14
000340 67 42 5a 36 d7 de 14 37 37 05 0f 38 ca 7e 00 37
       3.2523183e-06 8.873371e-06 3.4098714e-05 7.658915e-06
000350 1d db bf 34 95 0f 9b b1 45 30 1a af 19 f1 0c a7
       3.5735948e-07 -4.512865e-09 -1.4023367e-10 -1.9559602e-15
000360 8a 1c 75 a8 41 65 5a 35 74 7f 7f 35 05 4e 2b 38
       -1.36064205e-14 8.135867e-07 9.518037e-07 4.084224e-05
000370 07 61 a7 34 4e 44 56 34 53 7c 86 b2 ce 15 39 af
       3.117677e-07 1.9955152e-07 -1.565619e-08 -1.6833399e-10
000380 7f a9 b8 a9 95 84 96 2c 3e 10 eb 31 76 a4 dd 34
       -8.2006443e-14 4.277976e-12 6.8412467e-09 4.128412e-07
000390 4f a3 3e 35 5e 72 46 33 09 3c 81 b2 b2 1e 87 b1
       7.101816e-07 4.6204484e-08 -1.5044877e-08 -3.9325068e-09
0003a0 25 5e ca ad 57 c3 cf 2b 91 ab 40 27 99 84 79 2d
       -2.300655e-11 1.4762452e-12 2.6738359e-15 1.4183454e-11
0003b0 bc 66 cd 2e 66 53 2d 2c 52 aa e7 ac ce 97 09 ad
       9.34057e-11 2.4631074e-12 -6.5843242e-12 -7.821256e-12
0003c0 aa 97 96 2d 73 6c c8 2a 42 51 b1 16 13 16 ac 3d
       1.7120378e-11 3.5602389e-13 2.8647173e-25 0.08402648
0003d0 be f2 4b 3d a1 79 65 3c a5 8d 09 3d e8 93 bf 3c
       0.049792044 0.014006049 0.03358235 0.023385957
0003e0 13 07 2e 3d 5b 42 88 3c 42 9f f1 3c e9 5b 4c 3d
       0.042487215 0.016633203 0.029494885 0.04989234
0003f0 53 29 36 3c 9f a2 8e 3b f2 78 c7 3c 83 8f b3 3c
       0.011118251 0.004352882 0.024349663 0.021919018

act_fc1.bias f4 [81]
000000 8a 9d f1 3d 05 29 6d bc 67 86 35 be 57 b0 fb 3d
       0.11797626 -0.014475112 -0.17727052 0.122894935
000010 0d cd 02 3e b4 95 ec 3d 15 1e ef bd 69 37 70 bc
       0.12773533 0.11551991 -0.116756596 -0.014661648
000020 1b 2f ac 3d 7b ea 64 bb b3 54 98 bd 3a 13 d7 3d
       0.08407422 -0.00349298 -0.0743803 0.10501714
000030 10 29 5b 3d 17 1a 82 3e 10 34 92 3d a7 bd a3 3d
       0.053505957 0.2541053 0.071388364 0.07995158
000040 04 a3 2c be c1 c3 be bc a5 42 21 be d5 54 09 3e
       -0.1685906 -0.023286702 -0.15748079 0.13411267
000050 da 47 5d 3b bc 3e 5e 3e eb b2 9d bd ee a5 3b 3e
       0.003376475 0.21703619 -0.077001415 0.18325016
000060 6f 60 46 3c 5a 07 12 3e af 24 e9 bd 16 b8 a2 3d
       0.0121079525 0.14260617 -0.1138395 0.07945268
000070 bb 32 16 3d 6e 5d fb 3d b6 ad fc 3d 5a 52 43 3e
       0.036669474 0.1227368 0.1233782 0.19074383
000080 90 bc c1 3d cc f2 31 3e d3 3b 2f 3d 33 80 e0 3d
       0.094597936 0.17377776 0.042781662 0.10961952
000090 44 8e db 3d 39 f9 51 3e 15 8a c9 bc bb 2f 76 3e
       0.107204944 0.20505227 -0.024601975 0.24041645
0000a0 09 b8 77 bd 11 98 8e 3e 0e 89 a7 bd 5b ae 66 3e
       -0.060478244 0.27850392 -0.08180438 0.22527449
0000b0 e1 b6 c3 3d 5b a0 a8 3d 2a cb 61 3d 23 06 18 3e
       0.09556366 0.082337104 0.055125393 0.14846091
0000c0 3e f3 d9 3d fa 1d 71 3e e7 cc 8e 3d 6a 2b 49 3e
       0.10642098 0.23546591 0.06972676 0.19645467
0000d0 39 f7 6d 3c d0 44 a0 3d f4 9d 25 be 20 e9 fd 3d
       0.0145242745 0.07825625 -0.16173536 0.12397981
0000e0 a5 32 b4 3d 5b fa 64 3e 20 3c a8 bd 8a c7 06 3e
       0.08798722 0.22361128 -0.08214593 0.13162056
0000f0 71 1c 76 bc 14 91 13 3e 7c 04 02 be 6f 77 67 bd
       -0.015021429 0.14410812 -0.12697023 -0.056510385
000100 c1 ed 00 be fa c8 04 3e d2 c1 53 3d 5c 54 2f 3e
       -0.12590696 0.12967291 0.051698513 0.17122024
000110 93 95 10 3d 05 c4 00 3e 95 81 16 be d8 51 b9 bc
       0.035298895 0.12574776 -0.14697869 -0.022622034
000120 33 18 3f 3d 8a fc 85 bd e6 9e 23 be 78 6e d3 3d
       0.046653938 -0.06542309 -0.15978584 0.103238046
000130 00 6e 90 3d b4 cf af 3d 4b 1d 12 be 26 b7 c6 bc
       0.07052231 0.08584538 -0.14268987 -0.024257254
000140 1a 37 be 3d
       0.092878535
