课程设计/AlphaZero简单复现/models/policy_batch_300.model (torch, 530617 bytes, 15 tensors)

conv1.weight f4 [32, 4, 3, 3]
0	0x3e3bf800	0.18356323
1	0x3d0025c6	0.031286024
2	0x3e79b6a6	0.24386081
3	0xbd2db89c	-0.042412385
4	0x3d4eda84	0.05050136
5	0xbe191c7a	-0.14952269
6	0x3ea551d3	0.3228899
7	0xbe6ff800	-0.23434448
8	0x3ea83544	0.32853138
9	0x3d8a9aee	0.06767832
10	0xbb368dac	-0.002785544
11	0x3e1f6d63	0.15569071
12	0x3c9e91fb	0.019356718
13	0xbd6055eb	-0.054769438
14	0xbceb4929	-0.028721409
15	0x3e8c7d14	0.27439177
16	0xbe273169	-0.16327442
17	0x3e36b9e7	0.17844354
18	0x3d1b2dde	0.03788554
19	0x3d8fe801	0.07026673
20	0xbdc70a13	-0.097187184
21	0x3cd4fe65	0.026000211
22	0x3d17a29d	0.037020314
23	0xbd71c025	-0.059021134
24	0xbc4ff7a2	-0.012693318
25	0x3d0b6f54	0.034041718
26	0x3da59bfb	0.080863915
27	0x3c2b10dc	0.010441031
28	0x3c8c9ef6	0.017165642
29	0xbd63b85d	-0.055595744
30	0xbdc7bfb2	-0.0975336
31	0x3e018403	0.12648015
32	0xbd29708a	-0.04136709
33	0x3ba7ebc6	0.005124542
34	0x3d2e288c	0.042519137
35	0xbd83671c	-0.06416151
36	0x3e772e8a	0.24138847
37	0x3e5f512c	0.21808308
38	0xbea9e6b3	-0.33183822
39	0x3dde7d1e	0.10863708
40	0x3bb5065a	0.005524439
41	0x3e70b975	0.23508246
42	0xbe7c69e3	-0.24649768
43	0x3d2dc3db	0.04242311
44	0x3df3f471	0.11911858
45	0x3dd631b7	0.10458701
46	0x3df9c616	0.12195985
47	0xbdf7ec55	-0.12105624
48	0xbe5dead1	-0.21671607
49	0x3d855bcc	0.065116495
50	0x3d13cbf9	0.036083195
51	0x3d6dbceb	0.058041494
52	0xbe2a8858	-0.16653574
53	0x3e850cb7	0.25986263
54	0x3dcf34a2	0.10117461
55	0x3dadef43	0.08492901
56	0xbd8853ee	-0.06656633
57	0x3d97a976	0.07405369
58	0x3c7b37cf	0.01533313
59	0xbd97d0b4	-0.07412854
60	0xbac6a150	-0.0015154276
61	0x3cbea244	0.023270734
62	0xbd9c7261	-0.076390035
63	0xbab76f67	-0.0013994992
64	0xbe0b0c1f	-0.13578843
65	0x3d4dc392	0.05023534
66	0xbe24f49a	-0.16108933
67	0x3d9d8a38	0.07692379
68	0xbe259a78	-0.16172206
69	0x3e1a6440	0.15077305
70	0xbd256d91	-0.040387694
71	0x3e253b10	0.16135812
72	0x3df511a8	0.11966258
73	0x3e1074d0	0.1410706
74	0x3d34d67e	0.04414987
75	0xbe3c402b	-0.18383853
76	0xbd371873	-0.04470105
77	0xbe13eda1	-0.14446117
78	0x3cbaf319	0.022820996
79	0x3e024123	0.1272016
80	0xbe608ad7	-0.21927963
81	0x3d3d4a9a	0.046213724
82	0xbd31b149	-0.043381963
83	0xbd3c989a	-0.04604397
84	0x3dbcae51	0.09212936
85	0x3d5fdd50	0.05465442
86	0xbbd52495	-0.006504605
87	0x3d91540a	0.07096107
88	0xbe1eb0af	-0.15497087
89	0xbdcf9f3b	-0.10137793
90	0xbd667da3	-0.05627216
91	0xbcec0444	-0.028810628
92	0xbdbfa5cd	-0.09357796
93	0xbe488314	-0.19581252
94	0xbdabf86b	-0.08396991
95	0xbd8547e3	-0.06507852
96	0x3c8308e4	0.01599545
97	0x3c041e5a	0.008063877
98	0x3c3477d2	0.0110148955
99	0xbdbad930	-0.091234565
100	0x3e1efe81	0.15526773
101	0x3def4bdb	0.1168439
102	0x3d39c40e	0.045352988
103	0x3d978587	0.07398515
104	0x3dac217f	0.084048264
105	0x3dabf29e	0.08395885
106	0x3e217070	0.15765548
107	0xbe129599	-0.1431488
108	0xbc024455	-0.007950862
109	0xbea51596	-0.3224303
110	0x3e665e1f	0.22496842
111	0xbde14158	-0.109987915
112	0x3e828278	0.25490165
113	0xbe89383f	-0.26800725
114	0x3c37e481	0.011223913
115	0x3d61a68c	0.055090472
116	0x3e1d63b6	0.15370068
117	0x3b25263b	0.002519979
118	0x3d7a49e1	0.061105613
119	0xbde54a35	-0.111957945
120	0x3df57a6d	0.119862415
121	0x3d9749c8	0.073871195
122	0x3d5bb5dd	0.053640235
123	0x3d9c1249	0.07620675
124	0x3dfe16c4	0.12406686
125	0x3e6bd8fe	0.23031995
126	0xbccc7e4d	-0.024962569
127	0xbcd5cd3a	-0.026098836
128	0x3ac4057e	0.001495525
129	0x3c8ad0fa	0.01694535
130	0x3c772175	0.01508366
131	0x3d36cad7	0.044627037
132	0xbd444495	-0.047916967
133	0xba99db3c	-0.001173831
134	0x3d33eb57	0.04392561
135	0x3d81841d	0.06324027
136	0xbd78ccd3	-0.06074221
137	0x3de5d5ab	0.112223946
138	0x3dfbe32c	0.12299189
139	0xbc8bb5a6	-0.01705439
140	0xbda5cfe8	-0.080962956
141	0xbdfe4899	-0.12416191
142	0xbdcfa3c5	-0.101386584
143	0x3e0d14e2	0.13777497
144	0xbe0900a1	-0.13379146
145	0xbdc38528	-0.09546882
146	0xbd3205ff	-0.04346275
147	0x3dab66d4	0.08369222
148	0x3c46a970	0.012125358
149	0x3d79f36b	0.061023157
150	0xbdc4fd28	-0.09618598
151	0xbdbac6bd	-0.091199376
152	0x3d8803ad	0.06641326
153	0xbe0f03c9	-0.13966288
154	0xbca6e0dc	-0.020370893
155	0xbe00e64e	-0.12587854
156	0x3dd8ef30	0.105924964
157	0x3d09c503	0.03363515
158	0xbd806580	-0.062693596
159	0x3dcf7297	0.10129278
160	0xbd9eef1e	-0.07760452
161	0xbe1bbc6a	-0.15208593
162	0x3b477edf	0.0030440611
163	0x3d2b26e2	0.04178513
164	0x3e105cea	0.14097944
165	0x3d9c71cb	0.07638892
166	0x3d9caf39	0.076506086
167	0xbd74a461	-0.059727076
168	0xbbe4105c	-0.006959958
169	0xbd6c0c91	-0.05762917
170	0x3ca2ba8f	0.019864349
171	0x3db96850	0.09053099
172	0x3dc5b26a	0.096531704
173	0x3e16c46f	0.14723371
174	0x3e077c1f	0.13230942
175	0x3dac6249	0.08417184
176	0x3dde7ff0	0.10864246
177	0x3e1b28aa	0.15152231
178	0x3e11b7f7	0.14230333
179	0x3e026ce1	0.12736847
180	0x3e8d7e54	0.27635443
181	0x3dcc4069	0.09973223
182	0xbcd95265	-0.026528547
183	0xbe91e855	-0.28497568
184	0x3eb13fad	0.34618893
185	0x3eab8f59	0.33507803
186	0x3e895f6a	0.26830608
187	0xbd133fad	-0.035949398
188	0x3c396ee1	0.0113179395
189	0x3d47f741	0.048819784
190	0xbd8de1ad	-0.0692781
191	0xbe2bd8c8	-0.16781914
192	0xbec3d4ea	-0.38248378
193	0x3e7d774c	0.2475254
194	0x3e14ab88	0.14518559
195	0x3e22c276	0.15894493
196	0xbe16363e	-0.14669129
197	0xbd76cc51	-0.060253445
198	0x3d887214	0.06662384
199	0x3de093b3	0.109656714
200	0xbdc95551	-0.09830726
201	0xbd9a3c9a	-0.0753109
202	0x3df1bd9f	0.118037455
203	0x3dbfc6eb	0.093641125
204	0x3d13bca0	0.03606856
205	0x3c962777	0.018329365
206	0xbcad673c	-0.02116739
207	0x3d12b0a7	0.035813
208	0x3d669426	0.05629363
209	0x3e0c7230	0.13715434
210	0x3e111c68	0.14170992
211	0xbdfdd101	-0.1239338
212	0xbda48f8a	-0.080351904
213	0xbd129aec	-0.035792276
214	0xbd8d96f0	-0.06913555
215	0x3e1f2e08	0.15544903
216	0xbce3bbe0	-0.027799547
217	0xbda65f3b	-0.081236325
218	0x3d9b9a51	0.07597793
219	0xbcdabcaf	-0.0267013
220	0xbd5a5ebc	-0.053313002
221	0xbe941e1f	-0.2892923
222	0x3d652664	0.055944815
223	0xbda2ba91	-0.07945741
224	0x3e5d5c35	0.21617205
225	0x3cfa9962	0.030590717
226	0xbd2ca32f	-0.04214781
227	0x3dd5cd96	0.10439603
228	0xbd64f10c	-0.055893943
229	0x3e340f44	0.17583948
230	0xbe4216c0	-0.18953991
231	0x3d51bb2c	0.05120389
232	0xbe84c63b	-0.25932488
233	0x3e355c2d	0.17710944
234	0x3c960fcc	0.01831808
235	0xbd9f0db2	-0.07766284
236	0x3de6e2e5	0.112737454
237	0xbd88557f	-0.06656932
238	0x3d5d1d76	0.053983174
239	0xbdc6ef5f	-0.09713625
240	0x3e12a4d2	0.14320686
241	0xbdde2ccb	-0.10848387
242	0x3dc218b5	0.09477369
243	0x3c964115	0.01834158
244	0x3e10e29f	0.14148949
245	0x3e10e8bb	0.1415128
246	0xbc557fc4	-0.01303095
247	0xbd891a8e	-0.06694518
248	0x3bbbd7c2	0.0057325074
249	0xbe1dd6a0	-0.15413904
250	0xbcf2f8d6	-0.02965967
251	0xbd2ddff3	-0.042449903
252	0xbe8fca67	-0.28084108
253	0x3e2f0294	0.17090827
254	0x3e6a2683	0.22866254
255	0xbe2f37f1	-0.17111184

conv1.bias f4 [32]
0	0xbdb09ba6	-0.086234376
1	0x3e0a8339	0.1352662
2	0x3d9579d7	0.0729863
3	0xbc3ddc34	-0.011588145
4	0xbe0ba53d	-0.13637252
5	0xbd70b2d1	-0.058764283
6	0x3a165b62	0.0005735663
7	0x3de3eeb0	0.111295104
8	0x3bfcba75	0.007712657
9	0xbdeedc05	-0.11663059
10	0x3e9f2e49	0.3109
11	0xbdaeb652	-0.085308686
12	0xbe1077f5	-0.1410826
13	0xbd489ac0	-0.048975706
14	0xbbebdc72	-0.00719791
15	0x3e615b65	0.2200752
16	0xbbcaac85	-0.0061851167
17	0x3e489ef6	0.19591889
18	0xbcb75216	-0.022378009
19	0x3c438549	0.011933633
20	0x3e842834	0.25811923
21	0xbce870cb	-0.028374096
22	0xbdc969c0	-0.09834623
23	0xbda584e3	-0.08081987
24	0xbd025532	-0.03181953
25	0x3e3e991e	0.18613097
26	0x3e7b5072	0.24542406
27	0xbc3fd578	-0.01170861
28	0xbd60af2f	-0.054854568
29	0xbe02999c	-0.1275391
30	0x3cfc3e00	0.030791283
31	0xbe0c4d10	-0.13701272

conv2.weight f4 [64, 32, 3, 3]
0	0x3db062bc	0.08612582
1	0x3dd8a339	0.10578007
2	0x3e17eb3c	0.14835829
3	0x3e2f3e16	0.17113528
4	0xbc848a64	-0.016179271
5	0x3e3ae6d7	0.18252121
6	0xbd1462aa	-0.036226906
7	0x3d96c5e1	0.07361961
8	0xbdfac87c	-0.122452706
9	0x3dd79cf2	0.10527982
10	0xbdad8121	-0.08471895
11	0xbd8b8aa3	-0.06813552
12	0x3d6bd3e2	0.057575114
13	0xbd43a0cf	-0.04776078
14	0xbdcd95ed	-0.10038362
15	0x3cac9bbe	0.021070357
16	0x3d89a9f1	0.06721867
17	0x3e4b2ec3	0.19842057
18	0xbd762d7f	-0.060101982
19	0xbc5a87b4	-0.013338018
20	0x3d97877b	0.07398888
21	0xbd452a15	-0.048135836
22	0x3d659f77	0.05606028
23	0x3bcd2678	0.0062606893
24	0xbd286de1	-0.041120414
25	0xbd813de8	-0.06310636
26	0xbcdb0894	-0.026737489
27	0x3da995b2	0.08280505
28	0x3dff0419	0.124519534
29	0x3d01abb1	0.03165788
30	0xbc0e0bfe	-0.008669851
31	0xbd0cab8f	-0.0343433
32	0x3cc6bc06	0.024259578
33	0xbe247214	-0.16059142
34	0x3b4ef0d0	0.003157664
35	0xbda2506b	-0.07925495
36	0x3ccd89d1	0.02509013
37	0xbc8533f8	-0.016260132
38	0x3c1e96d4	0.009679515
39	0xba959a61	-0.0011413806
40	0xbc3b38e0	-0.011427134
41	0x3c1ac0df	0.009445398
42	0xbcbe1314	-0.023202457
43	0x3b9ecd9e	0.004846289
44	0x3c9c9518	0.019114062
45	0xbd12f94c	-0.03588228
46	0x3c3ef544	0.011655156
47	0x3d02f621	0.031973008
48	0x3d84a517	0.06476801
49	0x3dc00980	0.09376812
50	0xbcdd79ea	-0.027035672
51	0xbdaca27a	-0.084294274
52	0xbc9fb2ad	-0.019494379
53	0xbde27531	-0.11057509
54	0x3d830545	0.063974895
55	0x3cffee54	0.031241573
56	0xbcaa7d77	-0.02081178
57	0xbda3e91b	-0.08003446
58	0xbd1eb813	-0.038749766
59	0x3d1794dc	0.037007198
60	0xbc2f9a48	-0.010717936
61	0x3c741549	0.014897653
62	0xbb0abc83	-0.002116949
63	0x3c5acaa2	0.0133539755
64	0xbe1422fa	-0.14466467
65	0xbcb7b1db	-0.022423675
66	0x3dc1fb9d	0.094718195
67	0x3d98b736	0.0745682
68	0xbe8d94d2	-0.27652603
69	0x3e6653c3	0.2249289
70	0x3d352d2a	0.044232525
71	0xbd8d1aab	-0.06889852
72	0x3bbf1ff2	0.0058326656
73	0x3d770649	0.06030873
74	0xbdc9c7a9	-0.09852535
75	0x3db45a2d	0.08806262
76	0x3dc50b9b	0.09621354
77	0xbd05b13a	-0.03263972
78	0xbc2e632f	-0.010643764
79	0x3d81e2d4	0.06342092
80	0x3d95cf1e	0.07314895
81	0xbdb1550c	-0.086587995
82	0x3d390a32	0.04517574
83	0x3c6e5f31	0.014549063
84	0xbda034a4	-0.078225404
85	0xbd02d169	-0.03193799
86	0x3c75461b	0.014970328
87	0xbd885c2e	-0.06658207
88	0x3bdd97df	0.006762489
89	0xbd55fe3a	-0.052244402
90	0x3d836654	0.06416002
91	0xbd66fb56	-0.056392036
92	0x3d91d951	0.07121528
93	0x3dab9b56	0.08379237
94	0xbd585bbf	-0.05282187
95	0xbd440528	-0.04785648
96	0x3d156e1b	0.036481958
97	0x3db58525	0.08863286
98	0x3de1dda6	0.11028604
99	0xbd0f28de	-0.034951083
100	0xbcad6a90	-0.021168977
101	0x3d412b64	0.04716052
102	0x3da2ddef	0.07952487
103	0x3de4b5c4	0.111674815
104	0x3de0371c	0.10948011
105	0xbc05c0b2	-0.008163618
106	0x3d92c9ae	0.071673736
107	0x3b9f6227	0.0048639956
108	0x3ce858ba	0.02836262
109	0x3ce28871	0.027652951
110	0xbdbcc071	-0.09216393
111	0x3c9f4931	0.01944408
112	0xbd0a28df	-0.033730384
113	0x3c9cf00c	0.019157432
114	0xbdb41b1e	-0.08794235
115	0xbcf56349	-0.02995457
116	0x3db14043	0.08654835
117	0xbdb023b9	-0.086005636
118	0xbd0a9018	-0.033828825
119	0x3daf7274	0.08566752
120	0x3e447706	0.19186029
121	0xbcfa2029	-0.030532913
122	0xbda277bc	-0.07932994
123	0x3e18d746	0.1492587
124	0xbd324f99	-0.04353294
125	0x3dd41659	0.10355825
126	0x3a5f0933	0.00085081457
127	0x3e59574b	0.21224706
128	0x3e1f1104	0.15533835
129	0xbc9aa918	-0.018879458
130	0x3d2fd141	0.04292417
131	0x3d8c9853	0.06864991
132	0xbd6974c8	-0.056996137
133	0xbe622d00	-0.22087479
134	0xbdb857a4	-0.09001091
135	0xbce950ca	-0.028480906
136	0x3d2eab92	0.04264409
137	0xbb65aa2b	-0.0035044055
138	0x3c48f7b4	0.012266088
139	0xbcc312ec	-0.023812734
140	0x3d96b28f	0.07358276
141	0xbcf543f2	-0.029939625
142	0x3db791f7	0.089633875
143	0x3d4c9220	0.049944043
144	0xbdbc1b77	-0.09184926
145	0xbd9a6532	-0.07538833
146	0xbddb1ee5	-0.10699252
147	0xbd3f5075	-0.04670759
148	0x3d596a61	0.053079966
149	0x3c793096	0.015209338
150	0x3dbb852a	0.091562584
151	0x3e42a18b	0.19006936
152	0x3e14af4b	0.14519994
153	0x3d5d6b90	0.054057658
154	0x3d82b21e	0.063816294
155	0xbd127c51	-0.03576309
156	0xbc57a60e	-0.013162149
157	0xbcb06a62	-0.021535102
158	0xbd71f994	-0.059075907
159	0x3d312774	0.043250516
160	0xbcb4232a	-0.021989424
161	0x3cf50ab4	0.02991233
162	0xbc8a742d	-0.0169011
163	0x3d95c579	0.073130555
164	0xbdb32396	-0.08747022
165	0x3e1bc243	0.15210824
166	0x3e3610a0	0.1777978
167	0xbd880982	-0.066424385
168	0x3ccd9af9	0.02509831
169	0x38c70378	9.4897056e-05
170	0xbcbf9134	-0.023384668
171	0xbdc67ade	-0.09691404
172	0x3d864a5e	0.06557153
173	0xbc83565a	-0.016032387
174	0x3dbdd6b2	0.092694655
175	0x3b82619b	0.0039789206
176	0xbd3f6891	-0.04673058
177	0x3da6f7b8	0.08152717
178	0xbd7ece64	-0.06220855
179	0xbdcd213c	-0.100161046
180	0xbda17c24	-0.07885006
181	0xbd56d423	-0.052448403
182	0xbcec848b	-0.028871795
183	0x3d89127c	0.06692979
184	0xbdee986c	-0.11650166
185	0xbdaae174	-0.08343783
186	0x3d5482b4	0.05188246
187	0xbd94cc62	-0.072655454
188	0x3cf16e6b	0.029471597
189	0x3e0a5725	0.13509806
190	0x3e57d950	0.21078992
191	0x3cccea0f	0.025013952
192	0x3d7927e8	0.060829073
193	0xbcd95958	-0.02653186
194	0xbe125506	-0.14290246
195	0xbe564d5c	-0.20927948
196	0xbebed960	-0.3727522
197	0xbc4bcb33	-0.012438583
198	0x3d7ef3b9	0.06224415
199	0x3d5c706b	0.053818148
200	0x3d06e78e	0.03293567
201	0x3dc39cf5	0.095514216
202	0x3d496671	0.04916996
203	0x3da4050e	0.080087766
204	0xbd4f2ed1	-0.050581757
205	0x3c8a62b7	0.016892774
206	0x3d3f673e	0.04672932
207	0x3d3dabbd	0.04630636
208	0x3d9aae82	0.07552816
209	0xbd8abf0d	-0.06774721
210	0x3c9514a3	0.018198317
211	0x3dbeec68	0.09322435
212	0x3d7588fd	0.059945095
213	0xbdde8e35	-0.108669676
214	0x3d76692b	0.06015889
215	0xbe1f40c1	-0.15552045
216	0x3da04542	0.0782571
217	0x3e16bff7	0.14721666
218	0x3d02959b	0.031880956
219	0x3de5e7ad	0.11225829
220	0x3d326b01	0.043559078
221	0xbddc8fa5	-0.107695855
222	0x3d729d0c	0.059231803
223	0xbdab4692	-0.083630696
224	0xbd8361ab	-0.06415113
225	0xbd5535d1	-0.052053276
226	0x3d18b971	0.037286226
227	0x3c39ec11	0.0113477865
228	0xbe02f821	-0.12789966
229	0x3c99fc1c	0.018796973
230	0x3e1ede04	0.1551438
231	0xbe0cfb38	-0.13767707
232	0x3d157742	0.036490686
233	0x3e4294c9	0.1900207
234	0xbdd9533f	-0.10611581
235	0x3d55b7f4	0.052177384
236	0xbd0b875f	-0.034064647
237	0x3d7b5e9d	0.061369527
238	0xbce1f783	-0.027583843
239	0x3c96adc5	0.018393407
240	0xbd5408ab	-0.05176608
241	0xbe520d8c	-0.2051298
242	0x3dce73d7	0.100806884
243	0xbcc3099d	-0.023808295
244	0xbdba1a5c	-0.09087059
245	0xbd061dd5	-0.032743294
246	0x3d9c21ba	0.0762362
247	0xbd284bfc	-0.04108809
248	0x3d404ce5	0.046948332
249	0x3db28abc	0.08717868
250	0xbc32f40a	-0.010922441
251	0x3d21b94a	0.039483346
252	0xbcacd40e	-0.02109721
253	0x3d998f7a	0.07498069
254	0xbd0e1eff	-0.03469753
255	0xbd2b8236	-0.041872226

conv2.bias f4 [64]
0	0xbd4c08c3	-0.049813043
1	0x3d9069e1	0.07051445
2	0x3c81d3cf	0.015848069
3	0xbd30012b	-0.042969864
4	0x3de777bd	0.11302135
5	0xbd630e8c	-0.055433795
6	0xbab328ea	-0.001366881
7	0xbc312af5	-0.010813464
8	0xbccf824f	-0.02533069
9	0x3c64c257	0.01396235
10	0x3d0c89e5	0.034311194
11	0x3d05ec24	0.032695904
12	0x3d4e348a	0.050343074
13	0x3cdffabb	0.027341237
14	0xbd2dfe7b	-0.04247902
15	0x3c9af9b1	0.01891789
16	0x3cc0fcce	0.023558047
17	0xbb1e0c7c	-0.0024116328
18	0x3bf81947	0.0075713727
19	0x3dca012a	0.09863503
20	0xbb9c56dc	-0.0047710966
21	0x3d19a59a	0.037511446
22	0x3d99c0d7	0.075074844
23	0xbd480c5f	-0.048839923
24	0x3d06a7ba	0.0328748
25	0x3d486644	0.048925653
26	0x3be0985c	0.0068541
27	0x3db0bea3	0.08630111
28	0x3d0f1b4d	0.034938145
29	0x3d348c47	0.04407909
30	0x3d2ea80a	0.042640723
31	0xbb492bc4	-0.0030696252
32	0x3c79b176	0.015240064
33	0xbc42f5f9	-0.011899465
34	0xbce32d98	-0.027731702
35	0xbccda417	-0.025102658
36	0x3cf533dd	0.029931957
37	0xbcb11a11	-0.021618875
38	0x3d892a66	0.0669754
39	0x3dc4d672	0.09611215
40	0x3dcbe0d7	0.09954994
41	0xbce6a005	-0.028152475
42	0xbd51d625	-0.051229615
43	0xbd8a0026	-0.067383096
44	0x3d8dbbd2	0.069205895
45	0x3c2be4ff	0.010491609
46	0x3cc7cb10	0.02438882
47	0xbc09901c	-0.008396175
48	0x3c5d9062	0.013523193
49	0x3bdebb17	0.006797205
50	0xbc03e72f	-0.008050724
51	0xbd4d015d	-0.05005013
52	0x3c9aa06f	0.018875329
53	0x3d4d54bc	0.050129637
54	0xbb8ecd68	-0.0043579824
55	0x3d080d75	0.03321596
56	0x3c2131ea	0.009838561
57	0xbc8dbf42	-0.017303113
58	0x3d1d0daa	0.03834311
59	0xbd165538	-0.036702365
60	0x3d28d963	0.04122294
61	0xbd1471fa	-0.03624151
62	0xbced5b12	-0.02897409
63	0xbc875053	-0.016517794

conv3.weight f4 [128, 64, 3, 3]
0	0xbcba3e35	-0.02273474
1	0xbcb6ef36	-0.022330862
2	0x3cb9a1c5	0.022660146
3	0xbd9fb410	-0.07798016
4	0xbe0c0f6b	-0.13677756
5	0xbc3d1e83	-0.011542919
6	0x3bff7d3d	0.007796912
7	0xbd19800d	-0.037475634
8	0x3d961580	0.073283195
9	0x3d45a6d5	0.048254807
10	0x3b72dd98	0.003705835
11	0x3c9bb78d	0.019008422
12	0x3cc6200e	0.024185207
13	0x3c392346	0.011299914
14	0x3c7fb3f0	0.015606865
15	0xbb0d3ca9	-0.002155105
16	0xbc2f5912	-0.010702388
17	0x3b212013	0.0024585768
18	0x3d2508a9	0.040291462
19	0x3b3abf19	0.002849525
20	0xbc8068bb	-0.01567494
21	0x3c74bf49	0.014938184
22	0x3ce29744	0.02766002
23	0xbbc3ba19	-0.0059731123
24	0x3d039dab	0.032132786
25	0x3d579c67	0.05263939
26	0xbc78b0a1	-0.01517883
27	0x3d99ce8c	0.07510099
28	0x3d8478fc	0.064683884
29	0x3d194dd2	0.03742773
30	0x3dcb2c80	0.09920597
31	0x3be0436c	0.006843975
32	0x3d84573d	0.06461952
33	0x3d5fd8be	0.05465006
34	0x3d8f119a	0.06985779
35	0x3d2aaf3e	0.04167103
36	0x3d315592	0.043294497
37	0x3dd0f878	0.10203642
38	0x3d47a677	0.048742738
39	0x3c71682c	0.014734309
40	0x3e0c6a26	0.13712367
41	0x3da85ba0	0.08220601
42	0x3d781a5b	0.06057201
43	0x3dd7c283	0.10535147
44	0x3d4a98b7	0.049462046
45	0x3d4015bf	0.04689574
46	0x3d1dd584	0.038533702
47	0x3d542df7	0.051801648
48	0x3cb929e4	0.022602983
49	0x3c9ecf21	0.019385876
50	0x3d503cd7	0.05083927
51	0x3cd1c9f5	0.025608996
52	0xbca56f0a	-0.02019455
53	0x3c88e41e	0.016710337
54	0x3ca84bfb	0.020544043
55	0x3d0df15a	0.034654
56	0xbba6e71f	-0.0050934698
57	0x3c0f185a	0.008733833
58	0x3c9e22af	0.019303648
59	0xbc974543	-0.018465644
60	0x3d59fe55	0.053221066
61	0xbbac0780	-0.0052499175
62	0xbc6e1834	-0.014532138
63	0x3d07c7bc	0.033149466
64	0xbc58dd64	-0.013236377
65	0xbc218e08	-0.009860523
66	0x3c9bc0bc	0.019012801
67	0xbd0f66ed	-0.035010267
68	0x3c373fb8	0.011184625
69	0xba59483c	-0.0008288657
70	0x3c0bb308	0.008526571
71	0x3c4a554e	0.01234944
72	0x3ce66842	0.028125886
73	0x3ca6f799	0.020381736
74	0xbbf65d28	-0.0075184293
75	0x3b35c836	0.0027737743
76	0x3cdbb7b0	0.026820987
77	0xbcb1f8b1	-0.02172503
78	0x3d47c7f7	0.048774686
79	0x3d1cc67a	0.03827522
80	0xbc14e993	-0.009088892
81	0x3d6615b8	0.056173056
82	0x3d039f1e	0.032134168
83	0x3d4d398f	0.05010372
84	0x3d5f3da6	0.054502152
85	0x3c9a9f5d	0.018874818
86	0x3bffdd51	0.0078083654
87	0x3d08947d	0.033344734
88	0xbca2074c	-0.01977887
89	0xbcbcdc8d	-0.023054386
90	0x3ca3f891	0.020015987
91	0xbcd5d503	-0.026102548
92	0xbb372bcd	-0.0027949691
93	0xbc79cd29	-0.015246668
94	0xbc71064b	-0.014710973
95	0x3cfbcbe7	0.030736877
96	0x3b0018f8	0.0019546133
97	0x3c935fe8	0.017990068
98	0xbcfef465	-0.031122396
99	0x3d276628	0.04086891
100	0xbd0b5d22	-0.034024365
101	0x3d147334	0.03624268
102	0x3cb6d8da	0.0223202
103	0x3d2aa947	0.04166534
104	0x3cfc37e5	0.030788371
105	0x3c573b3e	0.013136683
106	0x3d235034	0.03987141
107	0x3cbf4759	0.02334945
108	0x3c98a34a	0.01863255
109	0x3cb27c0a	0.021787662
110	0xbc9b99c3	-0.018994218
111	0x3d70a705	0.058753032
112	0x3d6b8b13	0.05750568
113	0x3d13ad48	0.036053926
114	0x3d1b3e70	0.037901342
115	0x3cd41c08	0.025892273
116	0xbbf1d083	-0.007379593
117	0x3cb83bbb	0.02248942
118	0x3c4de14f	0.012565925
119	0xbc388685	-0.011262541
120	0xb94f2a13	-0.00019756732
121	0x3c83e730	0.01610145
122	0x3b966297	0.0045893895
123	0x3cf8928f	0.030343322
124	0xbc535623	-0.012898955
125	0x3ca42ace	0.020039942
126	0x3ccc2941	0.024922015
127	0x3d0db1ae	0.034593277
128	0x3c915d78	0.017744765
129	0x3d462266	0.04837265
130	0x3d261fe9	0.040557776
131	0x3d0bf195	0.034165937
132	0x3c284d16	0.010272285
133	0x3aa1feb4	0.0012359233
134	0x3d445650	0.047933877
135	0x3c70d929	0.0147002125
136	0x3cd3fb21	0.025876584
137	0xbb8578a0	-0.0040732175
138	0x3d3d48bb	0.04621194
139	0x3b56532b	0.003270338
140	0xbc98edbb	-0.018668046
141	0x3c81b719	0.015834378
142	0x3d4f8776	0.050666295
143	0xbcd58320	-0.026063502
144	0x3a04436d	0.00050454476
145	0x3d292f74	0.04130502
146	0x3cef8584	0.02923847
147	0x3d03f646	0.032217287
148	0xbc5f447f	-0.013627171
149	0x3d1125fe	0.035436623
150	0xbc975989	-0.01847531
151	0x3caba6af	0.020953504
152	0x3cca670b	0.024707338
153	0x3b47d098	0.0030489322
154	0x3d18d55e	0.037312858
155	0x3d2b6692	0.041845866
156	0x3d8481fa	0.064701036
157	0x3d5b9061	0.053604487
158	0xbd922625	-0.07136182
159	0x3cd673a9	0.026178198
160	0xbd6f1749	-0.058371816
161	0x3a8b93d4	0.0010648915
162	0x3c91191f	0.017712174
163	0x3d11b5fb	0.03557394
164	0xbc9d54c1	-0.019205453
165	0xbc8af102	-0.016960625
166	0xbca6c527	-0.020357681
167	0x3d3c8ef7	0.04603478
168	0x3cdd1bec	0.026990853
169	0x3cf1e763	0.02952928
170	0xbaaab2ae	-0.0013023221
171	0x3d22d84b	0.039757054
172	0x3cad2a0a	0.02113821
173	0x3d15ba86	0.036554836
174	0x3d3d1e8c	0.04617171
175	0x3d4749c1	0.04865432
176	0x3cfd6074	0.030929781
177	0x3d08a427	0.033359673
178	0x3d1d9bb9	0.038478587
179	0x3b8487f0	0.0040445253
180	0x3d0a7be4	0.033809558
181	0xbca8766f	-0.020564286
182	0x3c15e982	0.009149911
183	0x3be62baa	0.007024248
184	0x3c6c3aee	0.014418347
185	0xbcaeb5dd	-0.021326954
186	0x3be47209	0.006971602
187	0xba48376a	-0.0007637652
188	0xbcff4e32	-0.031165216
189	0x3d0bb3e4	0.034107104
190	0x3d528767	0.05139866
191	0xbd809ae9	-0.06279547
192	0xbc30e4b6	-0.010796716
193	0x3c8ef874	0.017452456
194	0x3d279a02	0.040918358
195	0xbc9d9e0c	-0.019240402
196	0xbb9decd0	-0.00481949
197	0x3d0034e3	0.031300437
198	0x3d3c6f8b	0.046004813
199	0x3d032f74	0.032027677
200	0x3c0d3971	0.008619652
201	0x3c94a113	0.018143212
202	0x3cc82b89	0.024434822
203	0xbbb0a761	-0.005391047
204	0x3c57eafe	0.013178585
205	0x3d779800	0.060447693
206	0xbd259bc2	-0.040431745
207	0xbc2f11cd	-0.010685396
208	0x3cd6b806	0.026210796
209	0x3d16dee6	0.036833666
210	0x3c84609d	0.01615935
211	0x3c5ac1af	0.013351842
212	0x3bd02eb6	0.0063532246
213	0xbd1089c7	-0.035287645
214	0x3cc77cd1	0.02435151
215	0xbd39fe92	-0.045408793
216	0xbc050bdc	-0.008120503
217	0x3d07b2e2	0.03312958
218	0xbcaf23ef	-0.02137944
219	0x3ca34efa	0.01993512
220	0xbcdd2c8c	-0.02699878
221	0x3ab12208	0.001351417
222	0xbcc0c75c	-0.023532562
223	0xbcb8af51	-0.022544535
224	0x3c3604b5	0.011109521
225	0xbb9ce406	-0.0047879247
226	0x3c9f45d6	0.01944248
227	0xbc135b17	-0.0089938855
228	0x3c5793f9	0.013157838
229	0x3d742b88	0.059611827
230	0x3cda4c13	0.026647603
231	0xbd05efde	-0.03269946
232	0x3c602bc6	0.013682311
233	0x3c387de1	0.011260481
234	0x3d1daf85	0.038497467
235	0x3d4c84ac	0.049931213
236	0x3c314659	0.010819995
237	0x3c93adf0	0.018027276
238	0x3c55f33d	0.013058481
239	0x3d1025ac	0.035192177
240	0xbc38359a	-0.011243248
241	0x3ccbe978	0.0248916
242	0xbc9222fb	-0.017838946
243	0x3d1fbecf	0.03900033
244	0x3a1cef89	0.0005986621
245	0x3c7f2921	0.015573771
246	0x3d1e6eb4	0.038679793
247	0x3d2fb53d	0.04289745
248	0xbca41f0f	-0.020034341
249	0x3c93ca19	0.018040704
250	0x3d36f644	0.04466845
251	0x3c7629b9	0.015024596
252	0x3b534614	0.0032237815
253	0xbbdc3156	-0.0067197485
254	0xbbfd40da	-0.007728678
255	0x3d1661c0	0.036714315

conv3.bias f4 [128]
0	0x3ca1d3b4	0.019754268
1	0x3d631995	0.05544432
2	0xbd075e77	-0.033049073
3	0x3be3b98e	0.00694961
4	0x3ca990c6	0.020698916
5	0x3d3ef69c	0.046621904
6	0xba11697f	-0.0005547031
7	0xb8005975	-3.060089e-05
8	0xbc9a6d39	-0.01885091
9	0x3cbccbcb	0.023046395
10	0x3d2aada4	0.041669503
11	0x3d1a5d84	0.03768684
12	0x3d32b698	0.043631166
13	0xb902bc87	-0.00012467998
14	0xbca4f745	-0.020137439
15	0x3c117afe	0.008879421
16	0x3ccbf9d6	0.024899404
17	0x3d28cb33	0.04120941
18	0x3be96ed2	0.0071238065
19	0xbcb04732	-0.021518324
20	0x3d267fb0	0.040649116
21	0x3cb0214d	0.021500254
22	0x3c8f3bea	0.017484624
23	0xbccf798e	-0.025326516
24	0xbba4fbd0	-0.005034901
25	0xb9a5bd55	-0.00031612316
26	0xb7a61c6c	-1.9801977e-05
27	0xbce55c77	-0.027998192
28	0xbcbf2bf0	-0.02333638
29	0x3c8eea70	0.017445773
30	0xbb166443	-0.0022947944
31	0x3d167731	0.036734764
32	0xbc9c0a9b	-0.019048026
33	0xbcb9d600	-0.022685051
34	0x3cebc218	0.028779075
35	0x3d9ce754	0.0766131
36	0x3ca6f5c3	0.02038086
37	0xbdb14895	-0.08656422
38	0x3b8c1569	0.004275013
39	0xbca6e4b7	-0.020372732
40	0xbd408380	-0.04700041
41	0x3b480853	0.003052254
42	0x3be5927a	0.0070059868
43	0xbb93fd09	-0.004516248
44	0xbd08de1f	-0.033414956
45	0x3ba12694	0.004917929
46	0x3d24d94d	0.040246297
47	0xb9b8f264	-0.0003527581
48	0xbc9f1276	-0.019417983
49	0x3c95160b	0.018198987
50	0x3ca77c90	0.020445138
51	0xbb3576a7	-0.002768913
52	0x3cf68de9	0.030096965
53	0xbcf962aa	-0.030442555
54	0xbcd0e5d0	-0.025500208
55	0xbd15ff96	-0.0366207
56	0xbc02bd6c	-0.007979732
57	0xbce4c13f	-0.027924178
58	0xba0b3134	-0.0005309761
59	0x3c3f6074	0.011680711
60	0x3d10d6f3	0.03536124
61	0xbcdd32ec	-0.02700182
62	0x3bcfccc9	0.006341551
63	0xb89d9dca	-7.515734e-05
64	0x3c4c7a87	0.012480385
65	0x3e1658fe	0.14682385
66	0x3b7b8f29	0.003838489
67	0x3d5a5409	0.0533028
68	0xbd22efc5	-0.039779443
69	0xbce553f5	-0.027994135
70	0xbb8fd18f	-0.004388995
71	0x3a8d0b0b	0.0010760737
72	0xbcdc80fe	-0.026916977
73	0x3d3541dd	0.044252265
74	0xbd04dc6d	-0.032436777
75	0x3c1d3813	0.009595889
76	0x3c3e8009	0.011627206
77	0xbc2823c7	-0.010262436
78	0x3be34832	0.0069360966
79	0x3d869b04	0.06572536
80	0x3cbb0b55	0.022832552
81	0x3daae914	0.083452374
82	0xbafbefe8	-0.0019221278
83	0xbb7b30a9	-0.0038328564
84	0x3d743367	0.059619334
85	0x3d602008	0.054718047
86	0xbb70a0fb	-0.0036717046
87	0xbcf12e48	-0.029441014
88	0xbce303ec	-0.027711831
89	0x3c17b38a	0.009259114
90	0x3d0ee156	0.034882866
91	0xbcd97f9c	-0.026550107
92	0x3cb44a35	0.02200804
93	0x3d175bcb	0.036952775
94	0x3c12b547	0.008954353
95	0x3d499236	0.049211703
96	0xbc22c1d3	-0.009933907
97	0xbc8f45fd	-0.017489428
98	0xbb41f779	-0.0029596968
99	0xbd6c75d1	-0.057729546
100	0xbd2721db	-0.04080377
101	0x3c5cab5e	0.0134685915
102	0xbc4e538a	-0.012593159
103	0x3d8bf434	0.068336874
104	0x3d4d20b8	0.05008003
105	0x3cb3c1b9	0.02194296
106	0x3d9f3549	0.07773835
107	0xbce1d13b	-0.02756559
108	0xbc637280	-0.013882279
109	0xbcc8b51a	-0.024500418
110	0x3cd5ef0a	0.02611496
111	0xb8c134e4	-9.212809e-05
112	0x3cba0ee0	0.022712171
113	0x3d451912	0.048119612
114	0x3d0bab95	0.03409918
115	0xbb422208	-0.0029622335
116	0x3d1639d5	0.036676247
117	0xbd128a6a	-0.035776533
118	0xbd0ab320	-0.033862233
119	0xbc9518a8	-0.018200234
120	0x3a8780c6	0.001033806
121	0x3c577c03	0.013152125
122	0xbd0b33c8	-0.03398493
123	0xbc6e1986	-0.014532452
124	0x3d8b3c5b	0.06798621
125	0xbd009788	-0.03139451
126	0x3bd3ea12	0.0064671123
127	0x3b4eb1f6	0.0031539178

act_conv1.weight f4 [4, 128, 1, 1]
0	0x3c72fdce	0.01483102
1	0x3dd1046a	0.1020592
2	0xbd837004	-0.0641785
3	0x3d3b7925	0.04576983
4	0x3dafaf1c	0.08578321
5	0xbdabd73a	-0.083906606
6	0x39144eac	0.00014143687
7	0xbc1cba9f	-0.009565978
8	0xbce54d96	-0.027991097
9	0x3db263c5	0.08710436
10	0xbd273b40	-0.04082799
11	0x3d853321	0.06503893
12	0x3d588d93	0.05286939
13	0xbc6c543b	-0.014424379
14	0xbc989c94	-0.01862935
15	0x3c729aa6	0.014807379
16	0x3a278819	0.00063908246
17	0x3dee9e87	0.116513304
18	0x3c15bf33	0.009139824
19	0x1a6f7602	4.9519368e-23
20	0x3d921180	0.07132244
21	0x3d6f8595	0.058477003
22	0x3d54a222	0.051912434
23	0x3d1747e6	0.036933802
24	0x20b179b7	3.006551e-19
25	0xbcbb4bf7	-0.022863371
26	0x132e7020	2.201717e-27
27	0xb53b6859	-6.9814774e-07
28	0xbc2439f0	-0.010023579
29	0x3cf36be1	0.029714527
30	0x3a649cc4	0.00087208697
31	0x3c8eb3bf	0.017419694
32	0xbd6b4baf	-0.057445224
33	0xba21cf41	-0.0006172546
34	0x3dbbf082	0.091767326
35	0x3d151a31	0.03640193
36	0x3d8143dd	0.06311772
37	0xbd466170	-0.048432767
38	0xbc108046	-0.008819645
39	0xb7f6f8b3	-2.9441295e-05
40	0x3d48aaa3	0.048990857
41	0x3c5e7dca	0.013579795
42	0x3c35b090	0.011089459
43	0xbe04667c	-0.1292972
44	0xbd8aa67f	-0.06770038
45	0x3cbdaa69	0.023152547
46	0x3d841d96	0.064509556
47	0x3c2dbdab	0.010604302
48	0x3ca7f0f2	0.020500634
49	0xbd8602a1	-0.0654347
50	0x3d97cce0	0.07412124
51	0x3e516a93	0.20450811
52	0x3d821c12	0.0635301
53	0xbd0f8920	-0.035042882
54	0xa0418c66	-1.639419e-19
55	0xbd060c3b	-0.032726508
56	0xbd7eea16	-0.06223496
57	0xbd22bc6c	-0.039730474
58	0x05990c17	1.4392492e-35
59	0xbcc6f06a	-0.02428456
60	0xbd38a030	-0.04507464
61	0xbbdc07ba	-0.0067147883
62	0xbd5d40c9	-0.054016862
63	0x0c82f04f	2.0174302e-31
64	0x3c6e3453	0.014538842
65	0x3e4c75dd	0.19966836
66	0x3c6c5ab4	0.014425922
67	0x3dfef6a5	0.124493875
68	0x3daf6f89	0.085661955
69	0xbd8b5298	-0.06802863
70	0x3c9164b8	0.017748222
71	0x3c7ab91e	0.015302924
72	0xbd05e7e6	-0.03269186
73	0xbcad1a1c	-0.021130614
74	0x3c879e87	0.016555084
75	0x3daa1dd2	0.08306469
76	0x3ad68f73	0.0016369655
77	0xbb93ee59	-0.0045144972
78	0xbd057468	-0.032581717
79	0x3e1af638	0.15132987
80	0x39a2716e	0.0003098356
81	0x3d6bf778	0.05760905
82	0x0559d998	1.02432566e-35
83	0xbce11196	-0.027474206
84	0xbdc25a4d	-0.0948988
85	0x3dcd28fe	0.10017584
86	0x3d327b81	0.043574814
87	0xbd035ea3	-0.032072674
88	0x3cb218a7	0.02174027
89	0x3d2cbac1	0.04217029
90	0x3d7726ab	0.06033961
91	0xbd324cb1	-0.04353017
92	0xbb6d28b3	-0.0036187589
93	0x3b793685	0.003802688
94	0xbcec3d0c	-0.028837703
95	0x3d6bb915	0.057549555
96	0x867e4efc	-4.783012e-35
97	0x3dbbff9f	0.09179615
98	0xbd828ce5	-0.0637453
99	0xbe18fd1c	-0.14940304
100	0x3cb78062	0.022400085
101	0x3d31df1c	0.043425664
102	0xbd09f130	-0.03367728
103	0x3bc89837	0.006121661
104	0xbdc85a6d	-0.09782872
105	0xbbdce57d	-0.0067412243
106	0x3dd6bbbf	0.104850285
107	0x071a47fd	1.1606828e-34
108	0x3c2a02e5	0.010376667
109	0xa046f9b1	-1.6853868e-19
110	0x3d32832b	0.043582123
111	0xbd1d2b1c	-0.03837119
112	0x3cdfd20b	0.027321836
113	0x3de06051	0.10955871
114	0x3dc8c5d4	0.09803358
115	0x05c49930	1.8488024e-35
116	0x3da851d7	0.08218735
117	0xbc555c14	-0.013022441
118	0x9da32df8	-4.319327e-21
119	0xbd5865e7	-0.052831557
120	0xbd94e010	-0.07269299
121	0x3e388d81	0.1802273
122	0xbcf3123c	-0.02967178
123	0x34dbcae0	4.093954e-07
124	0xbd35035b	-0.044192653
125	0xbd88b271	-0.0667466
126	0x3d8e1947	0.06938415
127	0xbcdc2ab6	-0.026875835
128	0x3d077c2d	0.033077408
129	0x3d47594f	0.048669156
130	0xb12806eb	-2.445115e-09
131	0x3c8eeb93	0.017446315
132	0x3d2d0933	0.0422451
133	0xbd53d4c3	-0.051716577
134	0x0d3a08cb	5.732626e-31
135	0xb33d6358	-4.4095344e-08
136	0xbd7d6337	-0.061862197
137	0x3d6b69aa	0.057473816
138	0x3c41362f	0.0117927035
139	0xba8ffa1c	-0.0010984573
140	0xbd010154	-0.031495407
141	0x3d46fbe2	0.048580058
142	0x2aaae0a8	3.0353953e-13
143	0xbcc40b81	-0.023931267
144	0x85a5f2bb	-1.560569e-35
145	0xbd073f8e	-0.033019595
146	0x0b28b777	3.2493647e-32
147	0x853e86a3	-8.958486e-36
148	0xbd084526	-0.03326907
149	0xbd2310e1	-0.03981102
150	0xbd9aafca	-0.0755306
151	0x3d1c37e2	0.03813923
152	0x8f92fdb9	-1.4494442e-29
153	0x3ca4a4fa	0.020098198
154	0x0fe08cd2	2.2142347e-29
155	0x92777041	-7.807782e-28
156	0xbc66a62c	-0.014077704
157	0x3d5c1f16	0.053740583
158	0x8588734a	-1.2831729e-35
159	0xbd3582d3	-0.044314217
160	0xbc61bf44	-0.013778511
161	0xbbccca20	-0.006249681
162	0x3cbe5f6e	0.023238864
163	0x84808ac9	-3.022011e-36
164	0x38666da4	5.4938384e-05
165	0x8404bdec	-1.5603733e-36
166	0xb7a4a59c	-1.9627441e-05
167	0x860b9680	-2.6253564e-35
168	0xbc0fc1bb	-0.008774216
169	0xbd033454	-0.032032326
170	0xbb1cc204	-0.0023919353
171	0xb9747527	-0.00023313296
172	0xbc72be6d	-0.014815909
173	0x8f82ac59	-1.2885376e-29
174	0xbd308502	-0.043095596
175	0x85a0fd95	-1.5139479e-35
176	0x3d3b13b2	0.04567308
177	0xbc301065	-0.010746096
178	0x3cdb6ee9	0.026786285
179	0x24e65085	9.9883005e-17
180	0xbd16c7e4	-0.036811724
181	0x3b86432b	0.0040973625
182	0x07a8197e	2.5292813e-34
183	0xbd3260c1	-0.043549303
184	0xbc00e939	-0.007868105
185	0xb8c7ba11	-9.523717e-05
186	0x8988505c	-3.281638e-33
187	0x8e7afdb9	-3.0937042e-30
188	0x3ce29369	0.027658181
189	0xbd9a49ee	-0.07533632
190	0x3c58eb91	0.013239757
191	0x05cad2fe	1.9073495e-35
192	0x36968d15	4.4867725e-06
193	0xbb388c0a	-0.0028159642
194	0xbd7c25fe	-0.06155967
195	0xb820a4a1	-3.8300295e-05
196	0xbb93e385	-0.0045132064
197	0x290d3544	3.135449e-14
198	0x089dc3f8	9.495166e-34
199	0xbce8567c	-0.028361551
200	0xbd8b10ca	-0.06790312
201	0xbc8e905d	-0.017402822
202	0xbcbc34cb	-0.022974392
203	0xbbf834b6	-0.007574643
204	0x3ce88a7a	0.028386343
205	0x2b7f5854	9.071678e-13
206	0x3d0cdf15	0.034392435
207	0xb927b11c	-0.0001599234
208	0xbc83f6d2	-0.016108904
209	0x3ccd275c	0.025043182
210	0x841e4c09	-1.8607724e-36
211	0x3d6eec27	0.05833068
212	0xbbcc99ce	-0.006243921
213	0x3d1d6555	0.038426716
214	0xbcf30eb3	-0.029670095
215	0xbce5c664	-0.028048702
216	0xbd17fd22	-0.03710664
217	0x3c9a16f4	0.018809773
218	0xbd29e3b7	-0.04147693
219	0xbc9e6233	-0.019333934
220	0x3d3a1d7c	0.045438275
221	0x3c264a8f	0.010149612
222	0x3ce36f66	0.02776308
223	0xbd1acc86	-0.037792705
224	0x050d1d0a	6.635122e-36
225	0x3c19874a	0.009370634
226	0x3c618500	0.01376462
227	0x064d65c1	3.8630972e-35
228	0xbd8b70c8	-0.06808621
229	0x3bd1a82b	0.006398221
230	0xb1a8c21b	-4.9115108e-09
231	0x3bf4b8cf	0.00746832
232	0xbd22dabd	-0.039759386
233	0xbd3bc29c	-0.04583989
234	0xbc0a8e97	-0.008456848
235	0x0596a9f4	1.4168363e-35
236	0x8a9c77b6	-1.5067284e-32
237	0x02833522	1.9279217e-37
238	0xb8f4c2d5	-0.00011671117
239	0xbd501bf7	-0.05080792
240	0x3b92a1cd	0.0044748546
241	0x3d0be235	0.034151275
242	0x3ca3ec1a	0.020010043
243	0x0607bca0	2.5529258e-35
244	0x3bdc4f80	0.0067233443
245	0xbce9d320	-0.028543055
246	0x064f9104	3.9038914e-35
247	0x3d1e6db5	0.038678844
248	0x87acd238	-2.600324e-34
249	0x86466b84	-3.731865e-35
250	0xa04080db	-1.6305667e-19
251	0x8533d63b	-8.4558875e-36
252	0xbb462cb6	-0.0030239052
253	0x8fa71a26	-1.6477543e-29
254	0x3b85517d	0.004068552
255	0xbd53cfca	-0.051711835

act_conv1.bias f4 [4]
0	0x3d54cfbe	0.05195593
1	0xbd875e9d	-0.06609843
2	0xbcf6eb2e	-0.03014144
3	0x3e00ee14	0.1259082

act_fc1.weight f4 [81, 324]
0	0x3c4ba70d	0.012429965
1	0x3bf94493	0.0076070516
2	0x3b8a1ae9	0.0042146337
3	0xbc9248ea	-0.017857034
4	0xbce4c2cc	-0.027924918
5	0xbc89a87e	-0.016803976
6	0xbc94d1b9	-0.01816641
7	0xbcea416d	-0.02859565
8	0xbd3b0546	-0.045659326
9	0x3d2c2b0b	0.042033236
10	0x3d1a3e14	0.03765686
11	0xbd2d2ddc	-0.042280063
12	0xbd504d56	-0.050855003
13	0xbceecefa	-0.029151428
14	0xb9399f9a	-0.00017702431
15	0xbd0517c5	-0.03249337
16	0x3c505d0b	0.012717496
17	0xbd29f7d3	-0.04149611
18	0x3c35514e	0.011066748
19	0x3c0a1a49	0.008429118
20	0xbca38545	-0.019961009
21	0xbd0f0ba7	-0.034923222
22	0xbc1a84c0	-0.009431064
23	0xbd0cb565	-0.03435268
24	0x3bcb999d	0.0062133805
25	0xbc864c95	-0.016393939
26	0x3c65b672	0.014020549
27	0x3cc03234	0.023461439
28	0xbd0e77ea	-0.034782328
29	0xbc832e4d	-0.016013289
30	0xbc3ca6f4	-0.011514414
31	0xbcb0f0ab	-0.021599134
32	0xbc8b6b21	-0.017018856
33	0xbd07a4e0	-0.03311622
34	0x3cd81f55	0.026382128
35	0xbd55e3fd	-0.05221938
36	0xbd0dcff9	-0.034622166
37	0xbd107ed7	-0.035277214
38	0xbd1602ee	-0.036623888
39	0xbc8dedcc	-0.017325304
40	0xbc882057	-0.016616983
41	0xbca75ea7	-0.020430876
42	0xbd5a748c	-0.053333804
43	0xbc7f0474	-0.015565027
44	0xbcf0c70b	-0.029391786
45	0x3a59b3e2	0.00083046977
46	0xbd60d191	-0.054887358
47	0xbc197a53	-0.009367543
48	0xbca60f45	-0.020270953
49	0xbd1febb7	-0.039043155
50	0xbd40fdcc	-0.04711704
51	0xbca4dc68	-0.02012463
52	0xbd51e633	-0.051244926
53	0xbd222b6b	-0.039592188
54	0x3d788ade	0.06067931
55	0x3c4cef1e	0.012508182
56	0xbd35d8b9	-0.044396136
57	0xbd234b22	-0.039866574
58	0xbd02cfe0	-0.031936526
59	0x3b209c76	0.002450732
60	0xbd1acd11	-0.037793223
61	0xbd1f6d9b	-0.038922887
62	0xbd83724a	-0.06418283
63	0x3e8b425b	0.27199063
64	0xbcb9ce66	-0.022681426
65	0x3c5b7147	0.013393707
66	0x3bc03c17	0.0058665383
67	0xbdc0b095	-0.0940868
68	0xbcdf56c4	-0.027263053
69	0xbc89016a	-0.016724307
70	0x3d2ce57e	0.04221105
71	0x3c402e7b	0.011729832
72	0x3e8da3b0	0.27663946
73	0x3e7d71c1	0.24750425
74	0xbd332ede	-0.043745868
75	0x3cfa3be3	0.030546134
76	0xbcc105bf	-0.02356231
77	0xbc71fa03	-0.01476908
78	0xbc5e7319	-0.013577246
79	0x3b4a57d7	0.003087511
80	0x3cf74d1a	0.030188132
81	0xb897aa60	-7.231976e-05
82	0xbae5a449	-0.0017520274
83	0xbb2afbb1	-0.0026089961
84	0xbbcdbdf4	-0.0062787477
85	0x3ad9c183	0.0016613457
86	0xbad5b975	-0.0016305881
87	0x3a9ca29a	0.0011950315
88	0x39c26693	0.00037078987
89	0xb371e89e	-5.632375e-08
90	0xba0410f4	-0.00050379266
91	0xb996a927	-0.00028736258
92	0xbc1d5d29	-0.009604731
93	0x3aa5f1da	0.0012660578
94	0xba9f0f61	-0.001213532
95	0xbaa3c223	-0.001249377
96	0xbabebbd4	-0.0014551827
97	0xbaeae335	-0.0017920496
98	0xb8af3f47	-8.3564366e-05
99	0xba07d84f	-0.0005182074
100	0x3b25ebbf	0.0025317518
101	0xbc649657	-0.013951859
102	0xbbaef810	-0.00533963
103	0xbb4f43f9	-0.0031626208
104	0x3bb99261	0.0056632017
105	0xbc128e8c	-0.008945119
106	0xbaa10598	-0.0012284992
107	0x3873ad62	5.809719e-05
108	0x399ceb37	0.00029929887
109	0x3bbf9a6b	0.0058472655
110	0xbc26d641	-0.010182918
111	0xbbc26c2c	-0.0059333052
112	0xbc082d94	-0.008311648
113	0xbc8f866d	-0.017520154
114	0x3bee8e8d	0.007280177
115	0xb9de5ecb	-0.00042413766
116	0xb94bbbfc	-0.00019429618
117	0xbb06aa77	-0.0020548382
118	0x3b6eaafe	0.0036417837
119	0x3b9e17aa	0.0048245983
120	0xba9abec8	-0.0011806125
121	0xbc8968dd	-0.016773636
122	0xbc7283ad	-0.014801902
123	0x3bb5bd14	0.0055462215
124	0xbb6ab57f	-0.0035813747
125	0xb935e1c9	-0.00017345617
126	0xbb52808c	-0.0032120077
127	0xbb85ebaf	-0.0040869336
128	0x3aab93af	0.0013090278
129	0xbc9049cf	-0.01761332
130	0xbb816dbf	-0.0039498503
131	0xbc23d69e	-0.009999899
132	0x3b82b7e2	0.0039892057
133	0x3a5e696f	0.0008484339
134	0xb8e8df05	-0.00011104163
135	0xbaf3295c	-0.0018551755
136	0xbae70bf7	-0.0017627467
137	0xbc533f87	-0.012893564
138	0xbc889287	-0.016671432
139	0xbc405595	-0.011739154
140	0xbbad9016	-0.0052967174
141	0xbc2070c3	-0.0097925095
142	0xbbc9fc55	-0.0061641135
143	0x3837621e	4.372198e-05
144	0xba317222	-0.0006769021
145	0xbb2d3de6	-0.00264346
146	0xb859c366	-5.191881e-05
147	0xbc2dea62	-0.010614963
148	0xbc4e8843	-0.0126057295
149	0xbc06d37d	-0.008229134
150	0xbc25c8e5	-0.010118698
151	0xb840335e	-4.5824207e-05
152	0x3632096a	2.6529547e-06
153	0x338dd396	6.6043114e-08
154	0xb8d810ec	-0.000103028346
155	0xb98c5c55	-0.00026771674
156	0xb9497734	-0.0001921326
157	0xb9e3bd74	-0.00043437968
158	0xba458ec7	-0.0007536229
159	0xb9f751b0	-0.00047172373
160	0x3530721e	6.573117e-07
161	0x07279f6f	1.2610537e-34
162	0x040ec65f	1.6783107e-36
163	0x04b40fc5	4.233228e-36
164	0x04660090	2.7036628e-36
165	0x03ddcbae	1.3035975e-36
166	0x83ee8ae2	-1.4020269e-36
167	0x85f128a7	-2.2678464e-35
168	0x8438fa2e	-2.1743973e-36
169	0x843f0355	-2.2453472e-36
170	0x8494f34a	-3.501806e-36
171	0x841bd3ec	-1.8317472e-36
172	0x05e86b85	2.1856672e-35
173	0x068b16fa	5.231975e-35
174	0x84a173d0	-3.7957275e-36
175	0x8891f91f	-8.785438e-34
176	0x86166d27	-2.8292057e-35
177	0x0640859c	3.6209347e-35
178	0x87966bad	-2.2632778e-34
179	0x0536723d	8.578581e-36
180	0x06ba12e2	6.999317e-35
181	0x21aabd16	1.1569699e-18
182	0xa5e890c4	-4.0343682e-16
183	0x2859cba6	1.2090079e-14
184	0xa64bfedf	-7.077519e-16
185	0xa7afb4ed	-4.8768417e-15
186	0xa78bf541	-3.8846155e-15
187	0xa1a9da20	-1.1509623e-18
188	0x04cc7a0a	4.8072245e-36
189	0x85a31bdd	-1.5338682e-35
190	0x2bad5042	1.2314665e-12
191	0xadcc2011	-2.3206355e-11
192	0xac9d9ba2	-4.479487e-12
193	0xab11bd58	-5.1777116e-13
194	0xac550e0f	-3.0276925e-12
195	0x2dba51ab	2.118202e-11
196	0xa8f911a9	-2.7652212e-14
197	0x8aa52a5f	-1.590486e-32
198	0x8718063a	-1.1437039e-34
199	0x298ca460	6.2457635e-14
200	0xabe21bd3	-1.6065989e-12
201	0xab4d3cf0	-7.29152e-13
202	0xad9932b2	-1.74166e-11
203	0x2c4ae819	2.8834767e-12
204	0x2d5364c3	1.2016335e-11
205	0x288d2f4e	1.567466e-14
206	0x8339b9f6	-5.4580086e-37
207	0x861a7626	-2.9050983e-35
208	0x2b0c1e83	4.9780335e-13
209	0xae7554fc	-5.5782032e-11
210	0xae1e9d2c	-3.6064637e-11
211	0xad53d993	-1.20422726e-11
212	0xad545343	-1.2069293e-11
213	0x2e47453d	4.5308857e-11
214	0x2b509169	7.409824e-13
215	0x06b50e8c	6.810601e-35
216	0x877ff9f1	-1.9257519e-34
217	0xab8500b9	-9.450419e-13
218	0x2f8a44f9	2.5151062e-10
219	0xadf9e7f9	-2.841104e-11
220	0xaf8a962c	-2.5208757e-10
221	0xaf1661c1	-1.367715e-10
222	0xb0094dd5	-4.9950916e-10
223	0x2997de5b	6.7443196e-14
224	0x84ba01d6	-4.3730076e-36
225	0x0ee0a407	5.5378216e-30
226	0x3175e142	3.5780237e-09
227	0xb293c024	-1.7200428e-08
228	0x33c5087d	9.1750714e-08
229	0xb460cffa	-2.0937287e-07
230	0xb3e96441	-1.0868144e-07
231	0x3223df0a	9.538562e-09
232	0x2933792c	3.9851084e-14
233	0x057bedb1	1.184562e-35
234	0x29d4a166	9.4426894e-14
235	0x374b1a58	1.21058765e-05
236	0xb83dfbb9	-4.5295546e-05
237	0xb606c939	-2.0084683e-06
238	0xb8227574	-3.8733197e-05
239	0x382d95a6	4.1385785e-05
240	0x370d9c91	8.440708e-06
241	0xb3c75dc5	-9.283716e-08
242	0x8591114b	-1.3642087e-35
243	0x3d85faf9	0.0654201
244	0x3d515cc1	0.051113848
245	0x3ca8d383	0.02060867
246	0x3d100c36	0.035167895
247	0x3cc7446e	0.024324622
248	0x3d17e48c	0.037083194
249	0x3ccb9428	0.02485092
250	0x3ce71311	0.028207334
251	0x3d69a41f	0.057041284
252	0x3d4529d3	0.04813559
253	0x3c0cfc18	0.008605026
254	0x3d0b3808	0.033988982
255	0x3c7d876a	0.01547418

act_fc1.bias f4 [81]
0	0x3e0a0ba9	0.1348101
1	0xbcc36162	-0.023850147
2	0xbe4fff3a	-0.20312205
3	0x3e0bb65f	0.13643788
4	0x3e130762	0.14358285
5	0x3e0a59db	0.1351084
6	0xbe04ff93	-0.12988119
7	0xbcd1f688	-0.02563025
8	0x3dd9f75e	0.10642885
9	0xbca1b363	-0.019738859
10	0xbd92936f	-0.07157027
11	0x3de1dc3a	0.11028333
12	0x3d5176bf	0.051138636
13	0x3e866ad9	0.26253393
14	0x3d965e84	0.07342246
15	0x3db051c5	0.08609346
16	0xbe35c92e	-0.17752525
17	0xbd1b480e	-0.037910514
18	0xbe32646c	-0.1742112
19	0x3e195409	0.14973463
20	0x3c8868e5	0.01665158
21	0x3e6ee552	0.23329666
22	0xbdb5cdf0	-0.0887717
23	0x3e46e7b5	0.19424327
24	0x3cddf7b0	0.027095646
25	0x3e1fd11e	0.15607116
26	0xbe046719	-0.12929954
27	0x3db0e3f8	0.086372316
28	0x3d1259b5	0.035730083
29	0x3e023316	0.127148
30	0x3e0eeb57	0.13956963
31	0x3e4d3e88	0.20043385
32	0x3dd57c6b	0.104241215
33	0x3e4715d0	0.19441915
34	0x3d4529dd	0.048135627
35	0x3decb372	0.11557664
36	0x3deff7a1	0.11717153
37	0x3e596397	0.21229397
38	0xbd23821b	-0.039919
39	0x3e847057	0.25866958
40	0xbd3239cd	-0.043512154
41	0x3e932bd6	0.28744382
42	0xbdb68deb	-0.089137875
43	0x3e741b35	0.23838504
44	0x3dcfd00b	0.10147103
45	0x3db62f5f	0.08895754
46	0x3d73be25	0.059507508
47	0x3e1f0541	0.15529348
48	0x3dee8a9b	0.11647531
49	0x3e801c13	0.2502142
50	0x3da8642c	0.08222231
51	0x3e581f35	0.21105655
52	0x3bad5e37	0.0052907723
53	0x3dbc2d16	0.09188287
54	0xbe34e70e	-0.17666265
55	0x3e0da01f	0.13830613
56	0x3dd338e6	0.10313587
57	0x3e7b5dd4	0.24547511
58	0xbdcd1c4f	-0.10015165
59	0x3e0fbd4a	0.14037052
60	0xba94fe2e	-0.0011367255
61	0x3e1daa5d	0.1539702
62	0xbe0f7c6c	-0.14012307
63	0xbda2b08e	-0.079438314
64	0xbdfbee34	-0.12301293
65	0x3e11d285	0.14240463
66	0x3d5962a4	0.053072587
67	0x3e340704	0.17580801
68	0x3d14e7a6	0.03635373
69	0x3e0b9777	0.13631998
70	0xbe1c80c3	-0.15283494
71	0xbcff28ef	-0.031147448
72	0x3d442bf5	0.047893483
73	0xbdadd4a3	-0.08487823
74	0xbe38eb45	-0.18058498
75	0x3dd1148f	0.10208999
76	0x3d985bbf	0.07439374
77	0x3db8831e	0.090093836
78	0xbe243266	-0.1603485
79	0xbcf0d400	-0.029397964
80	0x3de47507	0.11155134

val_conv1.weight f4 [2, 128, 1, 1]
0	0x3d33b074	0.04386945
1	0x3cc47c40	0.023985028
2	0xbd26f068	-0.040756613
3	0x3c84f432	0.016229723
4	0x3d9f2d42	0.07772304
5	0xbd56833b	-0.052371245
6	0x0fe3f085	2.2476573e-29
7	0x074efd99	1.5572243e-34
8	0xbbd5c2ca	-0.006523465
9	0x3d4b0e7d	0.049574364
10	0xbdc0b3a3	-0.09409263
11	0x3bcc722c	0.0062391963
12	0xbddd1edf	-0.10796904
13	0x3ca338ba	0.01992451
14	0xbd3b62c7	-0.0457485
15	0x3db03e14	0.086055905
16	0xbcc71366	-0.024301242
17	0xbd15ffbb	-0.036620837
18	0x3a891902	0.0010459723
19	0xbb8dd21c	-0.0043280255
20	0xbdeb1cd2	-0.114801064
21	0xbd7f8c84	-0.062389866
22	0x3c850f8d	0.016242767
23	0x3c875377	0.016519291
24	0x3c3ed883	0.0116483
25	0x3cfdd6b7	0.030986173
26	0x37e67f91	2.747754e-05
27	0xbb797b27	-0.003806779
28	0x3d2be973	0.04197068
29	0x3d95dd2e	0.07317577
30	0xbb88701a	-0.004163754
31	0xbd9ac6fd	-0.07557485
32	0x3d87a331	0.06622923
33	0x3ca388e3	0.019962734
34	0x3d6dd018	0.05805978
35	0xbd871053	-0.065949105
36	0xbd206bd9	-0.03916535
37	0xbc83bfe3	-0.01608271
38	0x3c7a1e86	0.015266066
39	0xbc4459fa	-0.011984343
40	0xbb69f8bc	-0.0035701236
41	0x3d4b876e	0.049689703
42	0x3d353dd8	0.044248432
43	0xbd6287cb	-0.055305284
44	0x3d087a30	0.033319652
45	0xbb8b4704	-0.004250409
46	0xbdaca8f0	-0.0843066
47	0x872d1b1b	-1.3023039e-34
48	0x3cb0239f	0.02150136
49	0xbd435df2	-0.047697015
50	0x3d9ab784	0.07554534
51	0xbb954df8	-0.0045564137
52	0x3c85eb24	0.016347475
53	0x3d38cbfa	0.045116402
54	0xbb59a9c2	-0.0033212756
55	0x3d75875b	0.05994354
56	0x3d35a227	0.044344094
57	0xbd38216f	-0.04495376
58	0x3039c5df	6.75838e-10
59	0xbd00aa20	-0.031412244
60	0xbdb81656	-0.08988635
61	0x3cbcabfe	0.023031231
62	0x3d8ddfe6	0.06927471
63	0x1c57316d	7.1201414e-22
64	0x3c9bf82e	0.01903924
65	0xbcabfbad	-0.020994032
66	0x3d9fd2aa	0.07803853
67	0xbd1656bb	-0.036703806
68	0xbc83e58c	-0.016100667
69	0xbd70fbcd	-0.058833886
70	0xbc6bac18	-0.014384292
71	0x3bdb9d5a	0.0067021074
72	0x3d385c39	0.045009825
73	0xbda22fd0	-0.07919276
74	0x3d8637d9	0.06553621
75	0x3d9bd7b3	0.07609501
76	0x3cb58599	0.02215843
77	0xbc601ce5	-0.013678764
78	0x3d860585	0.065440215
79	0xbcb607d0	-0.022220522
80	0xbd53b6df	-0.05168807
81	0xbd2930ae	-0.04130619
82	0xbb2aa13d	-0.0026036047
83	0x3d6788ea	0.056527056
84	0xbd68eb79	-0.05686519
85	0x3c7b9f33	0.01535778
86	0x3d5c329e	0.05375921
87	0x3d231552	0.039815255
88	0x3d76c21c	0.06024371
89	0x3cf86c57	0.030325098
90	0x3ca5ce22	0.020239893
91	0x3c7cd7a6	0.015432274
92	0x3d1f7da9	0.0389382
93	0xbd5b261b	-0.053503137
94	0xbdb809bb	-0.08986231
95	0xbaeb4590	-0.0017949808
96	0x3a8ae4d4	0.001059676
97	0xbd9515cc	-0.07279548
98	0x3c3e3496	0.011609217
99	0x3a288eef	0.000642999
100	0x3cde7a4b	0.027157923
101	0x3da8b7c4	0.082381755
102	0x39d43558	0.00040475535
103	0xbdf7c68a	-0.12098415
104	0xbd721fce	-0.059112363
105	0xbd09a850	-0.03360778
106	0xbd802701	-0.062574394
107	0xbb3d0eaa	-0.0028847852
108	0x0494b49a	3.496049e-36
109	0x3d2cb363	0.042163264
110	0x3d4769fe	0.048685066
111	0x3cbf9783	0.023387676
112	0xbd93d315	-0.07217995
113	0x3d0bd7d9	0.034141395
114	0x3ac554ae	0.0015055144
115	0xacbb26fc	-5.319188e-12
116	0xbde26e5d	-0.110562064
117	0xbd869626	-0.06571607
118	0xbc9c6f80	-0.019096136
119	0x3d960e03	0.07326891
120	0xbdbe7f02	-0.093015686
121	0x3a65c1c4	0.000876453
122	0xbd07d16a	-0.033158697
123	0xbc43f7f1	-0.011960969
124	0xbd8c5f8f	-0.06854164
125	0xbce06609	-0.027392404
126	0x3cae9e79	0.0213158
127	0x3c0c389c	0.008558419
128	0xbb072730	-0.0020622723
129	0xbbe623ab	-0.007023295
130	0xbbf0de79	-0.0073507396
131	0x3bec19fc	0.007205246
132	0x3cf6677e	0.030078646
133	0x3ce28c8a	0.027654905
134	0x070276d5	9.815035e-35
135	0x83b06da7	-1.0369525e-36
136	0xbc9c43a8	-0.01907523
137	0x3d603b32	0.054743953
138	0xbd3a972a	-0.045554318
139	0xbd6e3e35	-0.058164794
140	0xbd92a29a	-0.0715992
141	0xbbd6298f	-0.006535716
142	0xb5cd9c01	-1.5319093e-06
143	0x3d1bda12	0.038049765
144	0x3726f1fb	9.9507115e-06
145	0x3cf87a92	0.030331884
146	0x05699bad	1.09842005e-35
147	0x0685a4b8	5.027107e-35
148	0xbd75ddff	-0.060026165
149	0x3ac651bd	0.0015130561
150	0x3d29b4d2	0.04143221
151	0x3af8b8d3	0.001897598
152	0x85d3368a	-1.9862379e-35
153	0xbd8555bc	-0.06510493
154	0x84314d49	-2.0841738e-36
155	0x06b9a3f0	6.983015e-35
156	0xbd13616e	-0.035981588
157	0x3c85bb5e	0.016324695
158	0x2eb7231a	8.328112e-11
159	0xbd8f5700	-0.06999016
160	0xbc33c0ee	-0.010971291
161	0xbb2459bf	-0.0025077907
162	0xbd0d8465	-0.03455009
163	0xbcb71c95	-0.022352496
164	0x06839cf4	4.9507345e-35
165	0x8a0bf77f	-6.7391554e-33
166	0xbcd033b3	-0.025415277
167	0x126804d9	7.3212267e-28
168	0xb4a92200	-3.150344e-07
169	0x3c92e068	0.01792927
170	0x3d495976	0.049157582
171	0x371c43a1	9.314071e-06
172	0x3d028ba1	0.03187144
173	0x85493dd0	-9.462328e-36
174	0xbcc725aa	-0.024309952
175	0x85730e03	-1.14283786e-35
176	0x3b0a4c2f	0.0021102538
177	0xbcbefc01	-0.023313524
178	0x3d21e5ff	0.039525982
179	0x063d941e	3.5655768e-35
180	0x3ce9a6be	0.028521892
181	0xbbe93306	-0.007116678
182	0x86303285	-3.3139037e-35
183	0xbd007f8f	-0.03137165
184	0x3d49afbc	0.04923986
185	0x2264ac24	3.0990892e-18
186	0x850417a5	-6.210953e-36
187	0xb73c2acf	-1.121564e-05
188	0xbb861405	-0.004091742
189	0x3ccf2488	0.025285974
190	0xbcc3ac1f	-0.023885785
191	0x0522db8b	7.657527e-36
192	0x215a9207	7.405454e-19
193	0x893ec0ac	-2.2961012e-33
194	0x3d33eb7c	0.043925747
195	0xa2ae22ee	-4.7199778e-18
196	0xa47d9b84	-5.4992357e-17
197	0x38e0dd9e	0.00010722432
198	0x3a5b268f	0.00083599327
199	0xbd1c7179	-0.038194153
200	0xbd92316a	-0.07138331
201	0xbd92779d	-0.07151721
202	0x3c6430eb	0.013927679
203	0xbce8dec2	-0.028426532
204	0x3a0dc777	0.0005408446
205	0x06141f8a	2.7858877e-35
206	0xbd8e0d56	-0.069361374
207	0xb482c884	-2.436028e-07
208	0xbc7526cf	-0.014962866
209	0xbc9acc6f	-0.01889631
210	0x07a851d3	2.5325922e-34
211	0xbc67a1cd	-0.014137697
212	0xbd680230	-0.05664271
213	0x3c979f4b	0.018508574
214	0x3b0ba4db	0.0021307978
215	0xbc114941	-0.008867563
216	0xbd7dfb79	-0.0620074
217	0xbcaa9553	-0.020823156
218	0xbc8ce736	-0.017200094
219	0xbbdabd49	-0.0066753966
220	0xbd4af526	-0.049550198
221	0xbd4f8dbc	-0.050672278
222	0xbcfe0aa0	-0.031010926
223	0xbd4d0290	-0.050051272
224	0x853e0aee	-8.9357645e-36
225	0x3a11d00d	0.0005562313
226	0x29790230	5.5291004e-14
227	0xb6316e78	-2.6439357e-06
228	0x3c8ed85c	0.017437153
229	0xbc177d82	-0.009246232
230	0x8606a262	-2.53219e-35
231	0xbd4f2cda	-0.050579883
232	0xb9aebbf4	-0.00033327902
233	0xbcc09db0	-0.023512691
234	0xbb8482e3	-0.004043923
235	0x83d495e1	-1.2494651e-36
236	0x0792a29a	2.2063207e-34
237	0x07eb0749	3.5363152e-34
238	0x3c2e1dee	0.010627253
239	0xbd4ef5c9	-0.050527368
240	0xb8007288	-3.0624244e-05
241	0xbbefa3e1	-0.007313237
242	0x3c8d32b2	0.017236087
243	0x9239a054	-5.8573327e-28
244	0xbd10bb5c	-0.03533493
245	0x3c420ab1	0.011843369
246	0x043586ae	2.133829e-36
247	0x3d5ee501	0.054417614
248	0xbcc9621f	-0.02458292
249	0x05b92a2e	1.7412811e-35
250	0xb562555c	-8.4315775e-07
251	0x0ac15f61	1.8621102e-32
252	0xbc9addf8	-0.018904671
253	0x3c7b58e7	0.01534102
254	0xbd80c9c7	-0.06288486
255	0xbd3047dc	-0.04303728

val_conv1.bias f4 [2]
0	0x3d6ead10	0.058270514
1	0xbd7bd4d5	-0.06148227
