课程设计/AlphaZero简单复现/models/policy_batch_550.model (torch, 530617 bytes, 15 tensors)

conv1.weight f4 [32, 4, 3, 3]
0	0x3e1986b8	0.14992797
1	0xbcf8d2c4	-0.030373938
2	0x3e6cc0fe	0.23120496
3	0xbd577032	-0.052597232
4	0x3af0f4ab	0.0018383464
5	0xbdd270c5	-0.10275415
6	0x3eaa3852	0.33246094
7	0xbe86f3db	-0.26357922
8	0x3ecd706b	0.4012483
9	0x3d9062c2	0.070500866
10	0xbcb18ad2	-0.02167264
11	0x3e107305	0.14106376
12	0x3d0b4dc0	0.034009695
13	0xbdb7f311	-0.08981908
14	0xbbf70aed	-0.0075391443
15	0x3e844107	0.25830862
16	0xbdc574f6	-0.09641449
17	0x3e5ffaa4	0.21872956
18	0x3dbeec47	0.0932241
19	0x3d0612f0	0.032732904
20	0xbccb0385	-0.024781952
21	0x3ccd9ca2	0.025099102
22	0x3ce269ec	0.027638398
23	0xbd15c964	-0.036569014
24	0x3d04721b	0.032335382
25	0x3b7470c6	0.0037298664
26	0x3df14034	0.11779824
27	0xba4e18a8	-0.00078619504
28	0x3a82f846	0.0009992204
29	0xbd8dc000	-0.06921387
30	0xbdcba26b	-0.09943088
31	0x3df09f4f	0.11749136
32	0xbd39c347	-0.045352247
33	0x3a2c082c	0.0006562497
34	0x3d036a20	0.03208363
35	0xbd8dbbce	-0.069205865
36	0x3e86ef25	0.26354328
37	0x3e7cf33f	0.24702166
38	0xbeba3a04	-0.36372387
39	0x3e1a7ce9	0.15086712
40	0xbcf441e3	-0.029816573
41	0x3e95c26e	0.292499
42	0xbe7d2314	-0.24720412
43	0x3dfa72b7	0.12228911
44	0x3dfa86c6	0.12232737
45	0x3df6617f	0.12030315
46	0x3d52753d	0.05138134
47	0xbdc4142c	-0.0957416
48	0xbe4674cc	-0.19380492
49	0x3c914491	0.01773289
50	0xbd887ce0	-0.06664443
51	0x3dc6d873	0.09709253
52	0xbe04b72d	-0.12960501
53	0x3e53782c	0.2065131
54	0x3cc73a6e	0.024319854
55	0x3d044ddf	0.032300826
56	0xbd32719b	-0.043565374
57	0x3caef19a	0.021355439
58	0x3b6f5f28	0.0036525223
59	0x3c068368	0.008210041
60	0x3ce0c813	0.027439153
61	0x3d0d821f	0.03454792
62	0xbd165f7c	-0.036712155
63	0x3ababdd0	0.0014247242
64	0xbe10d124	-0.14142281
65	0x3d66ee12	0.056379385
66	0xbe2c4e2c	-0.16826695
67	0x3d7d1dc9	0.061795983
68	0xbe23e1ec	-0.16004151
69	0x3e11f826	0.14254817
70	0xbd50f083	-0.05101062
71	0x3e291ed5	0.16515668
72	0x3e29ae3a	0.16570368
73	0x3e2d87e5	0.16946371
74	0xbbaa324a	-0.005193983
75	0xbe65c578	-0.2243861
76	0xbd824974	-0.06361666
77	0xbe6e7154	-0.23285419
78	0x3cb58197	0.02215652
79	0x3e473a82	0.19455913
80	0xbe6731f3	-0.22577648
81	0xbd36dcda	-0.044644214
82	0xbdff6b32	-0.12471618
83	0xbcf817b0	-0.030284733
84	0x3e103089	0.14081015
85	0x3dd69082	0.104767814
86	0x3d6bb24e	0.05754309
87	0x3d8f7b0f	0.070058934
88	0xbe4b0978	-0.19827831
89	0xbcd0dfcd	-0.025497342
90	0xbda39392	-0.07987131
91	0xbce6b093	-0.028160369
92	0xbdc4f775	-0.09617511
93	0xbdea7285	-0.11447624
94	0xbd91d2c8	-0.071202815
95	0x3cba8422	0.022768084
96	0x3d044552	0.03229267
97	0xbc8dc276	-0.01730464
98	0x3d6909a0	0.056893945
99	0xbdd86420	-0.10565972
100	0x3e11788e	0.14206144
101	0x3dd68484	0.10474494
102	0x3d2078ac	0.03917758
103	0x3d90169d	0.07035563
104	0x3da5ce37	0.08095973
105	0x3d98c69d	0.074597575
106	0x3e1c1e62	0.15245965
107	0xbe168bc1	-0.1470175
108	0xbc98d1dc	-0.018654756
109	0xbee34c57	-0.4439418
110	0x3e8ce805	0.27520767
111	0xbdaca7aa	-0.08430417
112	0x3eaee3a2	0.34158045
113	0xbeb4a809	-0.3528445
114	0x3d0091c0	0.031388998
115	0x3d08c70e	0.03339296
116	0x3e08bd7e	0.13353536
117	0x3ced4d3d	0.028967494
118	0x3d780bf1	0.060558263
119	0xbe0a8c12	-0.13529995
120	0x3e180496	0.148455
121	0x3c7ab40e	0.015301717
122	0x3dd25918	0.102708995
123	0xbc1d1095	-0.009586473
124	0x3e13def1	0.14440514
125	0x3e45bf9f	0.19311379
126	0xbca8a6d4	-0.020587362
127	0x3c6dda00	0.014517307
128	0x3ce4b3ec	0.027917825
129	0xbbbd9bbd	-0.0057863877
130	0xbd6b1111	-0.057389323
131	0x3d81f616	0.06345765
132	0xbcebb78b	-0.028774044
133	0xbb06401d	-0.0020484992
134	0xbb4c65fa	-0.0031188712
135	0x3d8a92fb	0.067663155
136	0xbd7e3545	-0.06206252
137	0x3dca95ba	0.09891839
138	0x3e07bebe	0.13256356
139	0xbc4af895	-0.012388368
140	0xbdb410ab	-0.08792242
141	0xbdebc449	-0.11512048
142	0xbdc3aee4	-0.09554842
143	0x3e083bae	0.13304016
144	0xbe10d70a	-0.14144531
145	0xbd8fd137	-0.070223264
146	0xbd09b949	-0.033623967
147	0x3da95cf4	0.082696825
148	0x3da1ecbf	0.07906484
149	0x3da2665d	0.079296805
150	0xbdcacff2	-0.09902944
151	0xbccf834e	-0.025331166
152	0x3e0c206b	0.13684241
153	0xbe09dcf8	-0.13463199
154	0x3c1c4ad5	0.009539326
155	0xbe02ffd2	-0.127929
156	0x3dff097e	0.12452982
157	0x3c9f444d	0.019441748
158	0xbdb5bed6	-0.0887429
159	0x3dd7ff05	0.10546688
160	0xbda518e7	-0.0806139
161	0xbe2c42a2	-0.16822293
162	0x3a828cd1	0.000996018
163	0x3d7f9d56	0.062405907
164	0x3e0c87e3	0.13723712
165	0x3dc03932	0.09385909
166	0x3d8fbe91	0.070187695
167	0xbd6a337a	-0.057177998
168	0x3b9ebbfc	0.004844187
169	0xbdbc71ff	-0.092014305
170	0x3ca72e71	0.020407887
171	0x3da3802c	0.07983431
172	0x3db795cb	0.089641176
173	0x3e0c7bad	0.13719054
174	0x3e02db89	0.12779059
175	0x3dad684c	0.08467159
176	0x3dd9a14d	0.10626469
177	0x3e16f4a9	0.14741768
178	0x3e13099a	0.14359131
179	0x3e003885	0.1252156
180	0x3e7b97f0	0.24569678
181	0x3da661e2	0.081241384
182	0xbd4fbd54	-0.050717667
183	0xbeaa7faa	-0.33300525
184	0x3eb48f7a	0.35265714
185	0x3ea239b1	0.3168464
186	0x3e889539	0.26676348
187	0xbd33c2cc	-0.043886945
188	0x3c4adec4	0.012382213
189	0x3d7464e3	0.059666526
190	0xbd83d322	-0.06436755
191	0xbe521c03	-0.20518498
192	0xbee2c6dc	-0.44292343
193	0x3e52b644	0.20577341
194	0x3e189e9d	0.14904256
195	0x3de4f04b	0.11178645
196	0xbe4b5afd	-0.19858928
197	0xbd9f93bc	-0.0779185
198	0x3dfd54c3	0.12369683
199	0x3dc9ee8e	0.09859954
200	0xbcafa18b	-0.021439334
201	0xbd15db15	-0.036585886
202	0x3e194787	0.14968692
203	0x3d90e496	0.07074849
204	0x3da3a096	0.07989614
205	0x3d4d4777	0.050116982
206	0xbd0b25cf	-0.033971604
207	0x3d14e42b	0.03635041
208	0x3d458d1c	0.048230276
209	0x3e009884	0.1255818
210	0x3e148dbe	0.14507195
211	0xbe03b4ce	-0.1286194
212	0xbda50eac	-0.08059439
213	0xbcacaaeb	-0.021077594
214	0xbd7ba4bb	-0.061436396
215	0x3e269966	0.16269454
216	0xbc2d0fcb	-0.010562847
217	0xbde0d809	-0.109787054
218	0x3d770128	0.060303837
219	0xbd646304	-0.05575849
220	0xbd0074e4	-0.031361476
221	0xbe8999b5	-0.26875082
222	0x3d16ab8e	0.0367847
223	0xbd873316	-0.06601541
224	0x3e8b1890	0.27167177
225	0xbc9c17b4	-0.019054271
226	0x3cbeb174	0.023277976
227	0x3d9c664c	0.07636699
228	0xbd83017f	-0.0639677
229	0x3e98abbe	0.2981853
230	0xbe942a41	-0.28938487
231	0x3cd96a76	0.026540022
232	0xbed84421	-0.42239478
233	0x3e75d186	0.24005708
234	0xbc58b458	-0.013226591
235	0x3c881459	0.016611265
236	0x3dbdd7ec	0.092696995
237	0x3cb1fedc	0.021727972
238	0x3e08eb26	0.13370952
239	0xbe0fa7d9	-0.14028873
240	0x3e20c894	0.15701514
241	0xbe113c34	-0.14183122
242	0x3e1b72ad	0.15180464
243	0x3caa5a87	0.02079512
244	0x3e0b4d34	0.1360367
245	0x3e07373d	0.13204665
246	0xbb6058ef	-0.0034232696
247	0xbd90cb7a	-0.0707006
248	0xbaf9eec3	-0.0019068349
249	0xbe11dc28	-0.14244139
250	0xbd01ac15	-0.03165825
251	0xbd4922d3	-0.049105477
252	0xbe84ec92	-0.2596174
253	0x3e0d40d0	0.13794255
254	0x3e85f3e0	0.26162624
255	0xbdd786b9	-0.10523743

conv1.bias f4 [32]
0	0xbd95d91b	-0.073168
1	0x3e02a025	0.12756403
2	0x3dbed49e	0.09317897
3	0xbc12fa5d	-0.008970824
4	0xbe0e0cb7	-0.13872038
5	0xbcb9d4c4	-0.022684462
6	0x3c96cad6	0.018407267
7	0x3dc0d508	0.094156325
8	0x3b970cd2	0.0046096826
9	0xbde7ed29	-0.113245316
10	0x3e9e283d	0.30890074
11	0xbd63684e	-0.055519395
12	0xbe1afe90	-0.1513617
13	0xbd20d77a	-0.039267994
14	0x3b7c9beb	0.0038545083
15	0x3e658c9d	0.22416921
16	0xbc92964d	-0.017893935
17	0x3e64365e	0.22286364
18	0xbbc0a5ea	-0.0058791535
19	0x3c12fa2a	0.008970777
20	0x3e8d5777	0.27605793
21	0xbc4f65af	-0.012658521
22	0xbdad4386	-0.08460145
23	0xbcf19135	-0.029488185
24	0xbd17861b	-0.036993127
25	0x3e3e7a38	0.1860131
26	0x3e85b8ca	0.26117545
27	0xbcee6335	-0.02910004
28	0xbd5abd09	-0.053402934
29	0xbdce0226	-0.100590035
30	0x3d59fda4	0.053220406
31	0xbe14ccdd	-0.14531274

conv2.weight f4 [64, 32, 3, 3]
0	0x3db4a28b	0.08820065
1	0x3e115e14	0.14196044
2	0x3e1ca701	0.15298082
3	0x3e4a21af	0.19739412
4	0xbd68c2a0	-0.056826234
5	0x3e52c4d5	0.20582898
6	0xbbbe7228	-0.0058119483
7	0x3dd3d70d	0.10343752
8	0xbd9cf861	-0.07664562
9	0x3e126bb7	0.14298902
10	0xbdbbfca3	-0.09179046
11	0xbd6e8b16	-0.05823811
12	0x3d0e5c61	0.03475607
13	0xbcead5f7	-0.02866648
14	0xbe13a496	-0.14418253
15	0x3cdcc954	0.02695147
16	0x3d8340b2	0.06408824
17	0x3e5de86c	0.21670693
18	0xbd47d8b8	-0.048790663
19	0xbac94ba4	-0.0015357626
20	0x3db538d9	0.088487335
21	0xbd41c1e6	-0.047304057
22	0x3d71d1eb	0.059038084
23	0x3b5cf253	0.0033713772
24	0xbd23cc71	-0.039989892
25	0xbd92e5a1	-0.071727045
26	0xbcdc7c39	-0.026914703
27	0x3d852f5b	0.06503173
28	0x3e00bb8e	0.12571546
29	0x3a23a375	0.00062423135
30	0x3c801987	0.015637172
31	0xbe0b654c	-0.1361286
32	0x3d90f81a	0.070785716
33	0xbe57e9b0	-0.21085238
34	0x3d8ae00b	0.06781014
35	0xbde617cb	-0.11235007
36	0x3c9087a5	0.017642805
37	0xbc45eeec	-0.012080889
38	0x3c2bdb63	0.010489318
39	0xbaf7d737	-0.0018908744
40	0xbc22a080	-0.0099259615
41	0x3c83b80b	0.01607897
42	0xbc909355	-0.017648378
43	0x3c868acd	0.016423607
44	0x3d46a9d4	0.048501804
45	0xbd2bde99	-0.041960333
46	0xb99d25aa	-0.00029973435
47	0xbd05d0f7	-0.032669988
48	0x3d501e1d	0.05080997
49	0x3d8ea194	0.06964412
50	0xbd5f494e	-0.05451327
51	0xbd995164	-0.07486227
52	0xbd058cc1	-0.032604937
53	0xbe11fdf1	-0.14257027
54	0x3d9862f2	0.07440747
55	0x3cb3eb4f	0.02196279
56	0x3a23e6ea	0.00062523654
57	0xbd907e85	-0.07055382
58	0xbd8dd155	-0.069246925
59	0x3dc5983d	0.09648178
60	0xbcb134ac	-0.021631561
61	0x3ddcb2aa	0.10776265
62	0x3d0b3a3b	0.03399108
63	0x3b4c6d9c	0.0031193262
64	0xbe3e9e93	-0.18615179
65	0x3c29b4ae	0.010358019
66	0x3d918d9a	0.071070865
67	0x3db7fc95	0.08983723
68	0xbe9a2f15	-0.30114046
69	0x3e6d2046	0.23156843
70	0x3cd26081	0.025680782
71	0xbd8b6b71	-0.06807602
72	0xbc2c758f	-0.010526075
73	0x3d5e8858	0.054329246
74	0xbdc30b65	-0.09523658
75	0x3db2111c	0.086946696
76	0x3da87f79	0.082274385
77	0xbd441c7e	-0.047878735
78	0xbcf7a2d0	-0.030229002
79	0x3dc483db	0.09595462
80	0x3deb0b52	0.114767686
81	0xbd5a2a40	-0.05326295
82	0x3d8b9aff	0.068166725
83	0x3c978e41	0.01850045
84	0xbd983b28	-0.07433158
85	0xbcf8c9ce	-0.030369665
86	0x3c82d10b	0.01596882
87	0xbd0ff4f5	-0.03514572
88	0x3d13f7b3	0.036124896
89	0x3c31f7cf	0.010862305
90	0x3d4aa696	0.049475275
91	0xbda1766d	-0.07883916
92	0x3d7fdb85	0.06246521
93	0x3d9dc241	0.077030666
94	0xbd62f130	-0.055405796
95	0xbd605cfd	-0.05477618
96	0x3d645d05	0.055752773
97	0x3db210fd	0.086946465
98	0x3de954b5	0.1139311
99	0xbcb4d5f8	-0.022074685
100	0xbd4c2621	-0.04984105
101	0x3d6a0552	0.05713398
102	0x3dc40110	0.09570515
103	0x3d927a52	0.07152237
104	0x3df11131	0.11770857
105	0xbd3e8dd3	-0.046521973
106	0x3d07b915	0.033135492
107	0x3b8b879d	0.0042581097
108	0x3d13fdec	0.03613083
109	0x3c92c3c1	0.017915608
110	0xbd8c9dd9	-0.068660446
111	0x3d22e0d5	0.039765198
112	0xbd8e66b4	-0.06953183
113	0x3d79d16c	0.060990736
114	0xbdaf1fc3	-0.0855098
115	0xbc027714	-0.007962961
116	0x3dc91d28	0.09820014
117	0xbd831db9	-0.064021535
118	0x3ac123d9	0.0014735415
119	0x3db5210c	0.08844194
120	0x3e430e75	0.19048484
121	0xbca3184e	-0.01990905
122	0xbd392be2	-0.045207866
123	0x3e2152b8	0.15754211
124	0xbd85b155	-0.06527964
125	0x3df71ba8	0.12065822
126	0xbb52a55b	-0.0032142017
127	0x3e57246f	0.21009992
128	0x3e1d7303	0.15375905
129	0xbd5ddb8b	-0.05416445
130	0x3d6cc281	0.05780268
131	0x3d9790eb	0.07400688
132	0xbd81566c	-0.06315312
133	0xbe6a755f	-0.22896336
134	0xbd2ab0ff	-0.041672703
135	0xbc319240	-0.010838091
136	0x3d49b622	0.04924596
137	0xbc13349d	-0.008984712
138	0x3c94afe2	0.018150274
139	0xbd178a49	-0.036997113
140	0x3db8a48e	0.09015761
141	0xbd200804	-0.039070144
142	0x3dca69e3	0.098834775
143	0x3d5a8e8a	0.053358592
144	0xbda44926	-0.080217645
145	0xbd485457	-0.048908558
146	0xbdb4fcaa	-0.08837254
147	0xbd2f0c40	-0.042736292
148	0x3d85c5d7	0.065318756
149	0x3cc1513f	0.023598311
150	0x3dc5969a	0.096478656
151	0x3e51d8a0	0.20492792
152	0x3e0e84cd	0.13917847
153	0x3d8611ba	0.0654635
154	0x3d4e25ce	0.050329022
155	0xbce9e9f4	-0.02855394
156	0xbc3282be	-0.010895429
157	0xbc8c317f	-0.017113445
158	0xbd8ea088	-0.06964213
159	0x3d3a0a5e	0.045420043
160	0xbcb8212e	-0.022476759
161	0x3d652186	0.055940174
162	0xbb48d7cd	-0.0030646205
163	0x3d8bed1f	0.06832337
164	0xbd792980	-0.060830593
165	0x3e28f607	0.16500102
166	0x3e3461dc	0.17615455
167	0xbda1211c	-0.07867643
168	0xbc9e9def	-0.019362418
169	0x3c96ce82	0.018409017
170	0xbd3dcc96	-0.046337686
171	0xbdad90f7	-0.084749155
172	0x3d625e2c	0.05526559
173	0xbabc58b5	-0.0014369698
174	0x3de47b20	0.11156297
175	0xbc8ed86b	-0.01743718
176	0xbc92445a	-0.017854858
177	0x3dcac377	0.09900563
178	0xbd1da96d	-0.038491655
179	0xbe235dbf	-0.1595373
180	0xbd8e4cd6	-0.06948249
181	0xbd4e1864	-0.05031623
182	0xbcbaddd6	-0.022810858
183	0x3d8c9fce	0.06866418
184	0xbdedddcc	-0.1161457
185	0xbdc83fff	-0.09777831
186	0x3d824fea	0.06362899
187	0xbdb9dd0b	-0.09075364
188	0x3cd852f4	0.026406743
189	0x3e4193c0	0.18904018
190	0x3e5eec04	0.2176972
191	0x3d8a24b9	0.067452855
192	0x3d5b8271	0.053591195
193	0xbd0ad16b	-0.033891123
194	0xbde51a6e	-0.11186682
195	0xbe6726d1	-0.22573401
196	0xbeb6a353	-0.35671481
197	0x3d830435	0.06397287
198	0x3daa9f90	0.083312154
199	0x3cef4f95	0.029212752
200	0x3c9c2b82	0.019063715
201	0x3da78417	0.08179491
202	0x3c7a587f	0.015279888
203	0x3d982828	0.07429534
204	0xbdea2c1f	-0.11434197
205	0xb965d9a6	-0.00021920222
206	0x3d9b7a12	0.075916424
207	0x3cf3fc4e	0.029783394
208	0x3dcff624	0.101543695
209	0xbdabe251	-0.08392776
210	0x3c55a329	0.013039389
211	0x3d5ec17b	0.054383736
212	0x3d7db3c8	0.06193903
213	0xbe02c16f	-0.12769102
214	0x3d664756	0.056220375
215	0xbe4321f8	-0.19055927
216	0x3d85d124	0.06534031
217	0x3e2c7b0f	0.16843818
218	0x3c5d23ff	0.013497352
219	0x3dc9fb80	0.09862423
220	0x3d60cef1	0.054884855
221	0xbdac32ca	-0.08408125
222	0x3ce4f4b2	0.027948711
223	0xbdb18186	-0.08667283
224	0xbcb351d9	-0.021889614
225	0xbd1a18a5	-0.03762116
226	0x3d0fe5e3	0.035131346
227	0xbcb9ab0f	-0.022664575
228	0xbe0b5f90	-0.13610673
229	0x3c85be30	0.01632604
230	0x3e1914fd	0.14949413
231	0xbe0da2a5	-0.13831575
232	0x3d35f28d	0.044420768
233	0x3e6a765e	0.22896716
234	0xbdb0e6f4	-0.08637801
235	0x3d52cce7	0.05146494
236	0xbc66b4d3	-0.014081198
237	0x3d6ec148	0.058289796
238	0xbc9d7fc6	-0.019225966
239	0x3b9d6167	0.004802871
240	0xbd6a4309	-0.057192836
241	0xbe6d54a8	-0.23176825
242	0x3deed9f7	0.11662667
243	0xbcba4ec8	-0.022742644
244	0xbd96f3d8	-0.07370728
245	0xbd33aa73	-0.043863725
246	0x3d80d1fd	0.06290052
247	0xbcb9cb5f	-0.022679983
248	0x3d114c17	0.035472956
249	0x3dafeb5c	0.08589813
250	0x3c74aca4	0.014933739
251	0x3d211397	0.039325323
252	0xbae56889	-0.0017502467
253	0x3d7663f1	0.060153905
254	0xbcc17af6	-0.023618203
255	0xbd1f6414	-0.0389138

conv2.bias f4 [64]
0	0xbd4f0e9c	-0.050551042
1	0x3d8ea13a	0.06964345
2	0xbb80d352	-0.0039314413
3	0xbd403058	-0.046921104
4	0x3dde9805	0.10868839
5	0xbd507629	-0.050893936
6	0xbbd13973	-0.0063850223
7	0xbc1ca26a	-0.009560207
8	0xbceaeb27	-0.028676583
9	0x3bbaa99c	0.0056964885
10	0x3d14f362	0.03636492
11	0x3c3bf0ea	0.011471013
12	0x3d2fdb69	0.042933855
13	0x3cc6d590	0.024271756
14	0xbd37ef3e	-0.044905894
15	0x3c97e40d	0.01854136
16	0x3cb8aff6	0.022544842
17	0x3bd69bff	0.006549358
18	0x3d116b01	0.035502438
19	0x3dc74790	0.09730446
20	0xbb1a7ba0	-0.0023572221
21	0x3d276476	0.04086729
22	0x3d8e0879	0.0693521
23	0xbd7ec866	-0.062202834
24	0x3d09f8b4	0.033684447
25	0x3d347730	0.04405898
26	0x3bd8ab69	0.0066122306
27	0x3da77588	0.08176714
28	0x3cfe9810	0.031078368
29	0x3d552718	0.052039236
30	0x3d605c7e	0.054775707
31	0xbbc51cc1	-0.0060153906
32	0x3c95f3d1	0.018304737
33	0xbc9645d0	-0.018343836
34	0xbd19185c	-0.037376747
35	0xbd033752	-0.03203518
36	0x3cd52ab4	0.026021339
37	0xbc91ca20	-0.017796576
38	0x3d8565fd	0.06513593
39	0x3dbb4296	0.0914356
40	0x3dc79942	0.097460285
41	0xbcc8d094	-0.02451352
42	0xbd803a6d	-0.06261144
43	0xbd9683a3	-0.073493265
44	0x3d821927	0.06352454
45	0xbaf37008	-0.0018572817
46	0x3c92f155	0.017937342
47	0xbbd452d4	-0.0064796004
48	0x3cb96d65	0.022635171
49	0x3a1ed5c2	0.0006059074
50	0xbb509291	-0.0031825642
51	0xbd477d05	-0.048703212
52	0x3cdeefac	0.027213894
53	0x3d715385	0.05891754
54	0xbb32762e	-0.0027231085
55	0x3d045901	0.032311443
56	0x3c305bed	0.010764104
57	0xbca86eaf	-0.02056059
58	0x3d03f998	0.032220453
59	0xbd0e2f3c	-0.034713015
60	0x3d2256d3	0.039633583
61	0xbd268f2a	-0.040663876
62	0xbd25c39d	-0.040469754
63	0xbc1ce045	-0.009574954

conv3.weight f4 [128, 64, 3, 3]
0	0xbcaaa2ff	-0.020829676
1	0xbd164200	-0.036684036
2	0x3c93bac4	0.018033393
3	0xbd9657d7	-0.07340973
4	0xbe066dc0	-0.13127804
5	0xbb9fcd1d	-0.0048767463
6	0x3c8d8fd5	0.017280499
7	0xbd624d34	-0.055249408
8	0x3da40c16	0.08010118
9	0x3d426399	0.047458265
10	0x3a5bc1ec	0.00083830836
11	0x3c1be05a	0.009513939
12	0x3ce154bf	0.02750623
13	0x3c8a03b3	0.016847467
14	0x3c84f491	0.0162299
15	0x3af64169	0.0018787804
16	0xbc4df91c	-0.012571599
17	0x3bff8184	0.007797422
18	0x3cd83a2c	0.026394926
19	0x3a7349dd	0.0009280721
20	0xbd54f941	-0.05199552
21	0x3d935a0c	0.071949095
22	0x3db4ce1c	0.08828375
23	0x3ca2e40d	0.019884134
24	0x3bb4d3c6	0.0055184094
25	0x3d5a8e73	0.053358506
26	0xbd62c6a6	-0.055365227
27	0x3d827dfc	0.06371686
28	0x3d785f52	0.06063778
29	0x3d013288	0.03154233
30	0x3ddc9d22	0.10772158
31	0x3cb294fe	0.02179956
32	0x3d7046e0	0.05866134
33	0x3d937c61	0.07201458
34	0x3dabb300	0.08383751
35	0x3d36c521	0.04462159
36	0x3d12ef87	0.035872962
37	0x3db70279	0.089360185
38	0x3d270de0	0.040784717
39	0x3c265741	0.010152639
40	0x3dd1a110	0.10235798
41	0x3dc6c737	0.09705966
42	0x3d177108	0.03697303
43	0x3dc73dad	0.097285606
44	0x3d53db37	0.05172273
45	0x3d182169	0.037141237
46	0x3d23770a	0.039908446
47	0x3d2afeda	0.04174695
48	0x3cb679e6	0.022274923
49	0x3ca0bd56	0.019621532
50	0x3d2d6cd3	0.04234011
51	0x3cc04a54	0.023472942
52	0xbc650ec5	-0.013980572
53	0x3c7ea806	0.01554299
54	0x3c339689	0.010961183
55	0x3d0b25bb	0.03397153
56	0xbc20fac7	-0.009825415
57	0x3c772fef	0.015087112
58	0x3c81ec6c	0.015859805
59	0xbc59198a	-0.013250718
60	0x3d6c6f49	0.057723317
61	0x3a867955	0.0010259548
62	0xbc17e889	-0.009271749
63	0x3cd393d4	0.025827326
64	0xbc8de8c3	-0.017322903
65	0xbbcf4686	-0.0063255457
66	0x3ccb2553	0.024798071
67	0xbcdbd732	-0.026836012
68	0x3c5a7f47	0.013336009
69	0xbb619be1	-0.0034425186
70	0x3c026bd8	0.007960282
71	0x3cced735	0.025249103
72	0x3cc626ba	0.024188388
73	0x3ccae1f9	0.024765955
74	0xbc693f95	-0.014236351
75	0x3c79b9f2	0.015242087
76	0x3cf603b2	0.030031059
77	0xbcc1f596	-0.023676675
78	0x3d468623	0.048467766
79	0x3d1ec75c	0.038764343
80	0xbc834364	-0.016023345
81	0x3d656bcd	0.05601101
82	0x3d1ac715	0.037787516
83	0x3d2dfef3	0.042479467
84	0x3d41f3db	0.0473517
85	0x3cb64a53	0.022252237
86	0xbb154390	-0.0022775866
87	0x3cf8341b	0.030298283
88	0xbcc34e9e	-0.023841199
89	0xbc8ef2c7	-0.01744975
90	0x3ca3a924	0.019978113
91	0xbcfb4fba	-0.030677665
92	0xbc1a8d43	-0.0094330935
93	0xbc191638	-0.009343676
94	0xbc837dd7	-0.016051216
95	0x3d1bb007	0.03800967
96	0x3c39928c	0.011326443
97	0x3c85d4fd	0.016336912
98	0xbcba3439	-0.02272998
99	0x3d4e89c3	0.05042435
100	0xbd5b8ce1	-0.05360115
101	0x3c973a61	0.018460454
102	0x3d3fff33	0.046874236
103	0x3d8477e3	0.06468179
104	0x3c022130	0.007942483
105	0xbc845e2d	-0.016158188
106	0x3d9fe22c	0.07806811
107	0xb9ef82ac	-0.0004568299
108	0x3c638840	0.013887465
109	0x3c9fb4a9	0.019495325
110	0xbcc8824a	-0.02447619
111	0x3d78fcbe	0.06078791
112	0x3d72d77c	0.059287533
113	0x3d008c8e	0.031384043
114	0x3d2e1089	0.042496238
115	0x3d059134	0.03260918
116	0x3c0ec9ae	0.008715076
117	0x3c6023bb	0.013680394
118	0x3c014697	0.007890365
119	0xbc77e934	-0.015131284
120	0x3a8fd05c	0.001097213
121	0x3c8e182b	0.017345509
122	0x3b795c46	0.0038049384
123	0x3d3029a8	0.043008476
124	0xbc4a8645	-0.012361114
125	0x3c937de0	0.018004358
126	0x3cb09afe	0.021558281
127	0x3cf05587	0.029337658
128	0x3c6afbd0	0.014342263
129	0x3d408c79	0.047008965
130	0x3d114db5	0.035474498
131	0x3d06573e	0.032798044
132	0x3c1c3c95	0.009535928
133	0x3b8ac81b	0.00423528
134	0x3d23f028	0.040023953
135	0x3c30e2e7	0.010796285
136	0x3cc1dbbe	0.023664352
137	0x3b02ac4d	0.0019939125
138	0x3d643cc4	0.055722013
139	0x3b168a18	0.0022970494
140	0xbc89e98e	-0.016835
141	0x3b73b159	0.0037184565
142	0x3d609d79	0.054837678
143	0xbc6a9626	-0.014318025
144	0xbc31144d	-0.010808063
145	0x3dd9fd0a	0.106439665
146	0x3bc1f4bf	0.0059190686
147	0x3d15e242	0.03659273
148	0x3cc62ac2	0.02419031
149	0x3d682064	0.056671515
150	0xbd0fb4a7	-0.035084393
151	0x3d81289e	0.06306575
152	0xbd027930	-0.031853855
153	0x3d00b7bd	0.031425226
154	0xbc8c91ee	-0.017159428
155	0x3da388f5	0.07985107
156	0x3cea2a9d	0.028584773
157	0x3d2adfd3	0.04171736
158	0xbce5824f	-0.028016238
159	0x3dd4929b	0.10379525
160	0xbda1b45e	-0.078957304
161	0x3b67ef81	0.0035390558
162	0x3bb0af6e	0.0053920066
163	0x3d2b7ed4	0.041869
164	0xbc339842	-0.010961594
165	0xbd8b74a1	-0.068093546
166	0xbd4096be	-0.04701876
167	0x3dae9fbe	0.08526562
168	0x3d0d8ee1	0.034560088
169	0x3cec0cbc	0.028814666
170	0x3cc9dc3b	0.024641147
171	0x3cde7a81	0.027158024
172	0x3c816f6e	0.015800204
173	0x3d115795	0.035483915
174	0x3d2d234f	0.04227
175	0x3d178e1e	0.037000768
176	0x3cbdd813	0.023174321
177	0x3cb9cf20	0.022681773
178	0x3d0046f2	0.03131766
179	0xba8e71c5	-0.0010867646
180	0x3cf8a92a	0.030354101
181	0xbc9426aa	-0.018084843
182	0x3c95b9ee	0.018277135
183	0x3c892ed5	0.016745964
184	0x3c871280	0.016488314
185	0xbc633555	-0.013867696
186	0xbab53c6f	-0.0013827215
187	0xbb2bd95a	-0.002622208
188	0xbce4e7e1	-0.0279426
189	0x3d685d13	0.056729387
190	0x3d803433	0.06259956
191	0xbd8a2c25	-0.06746701
192	0xbc684c8d	-0.014178407
193	0x3c113c8b	0.008864532
194	0x3d62e8aa	0.055397667
195	0xbd4154bc	-0.04719995
196	0x3b830d63	0.0039993986
197	0x3d1e3278	0.03862235
198	0x3d719639	0.058981154
199	0x3d6d1794	0.057883814
200	0xbca4019b	-0.020020297
201	0x3cff45e9	0.031161265
202	0x3ce25f44	0.027633317
203	0xbc69a837	-0.014261297
204	0xbca97730	-0.020686716
205	0x3ddc009f	0.10742306
206	0xbd904969	-0.07045252
207	0xbcb19abd	-0.02168023
208	0x3c8c1afd	0.017102713
209	0x3ce6df80	0.028182745
210	0x3d0c8659	0.03430781
211	0xbc077754	-0.008268196
212	0xba58f6f8	-0.00082765473
213	0xbd3d861d	-0.04627048
214	0x3c1246ad	0.008927983
215	0xbd4962f7	-0.049166646
216	0xbc52a281	-0.012856127
217	0x3d16ca3c	0.03681396
218	0xbc8be0d2	-0.017074976
219	0x3cbb4fa1	0.022865118
220	0xbc88acca	-0.016683955
221	0x3bd05225	0.0063574486
222	0xbd10febd	-0.035399187
223	0xbc6a21ee	-0.014290316
224	0x3c9804a4	0.0185569
225	0xbc4bedc8	-0.012446828
226	0x3c940568	0.018068984
227	0xbbc5291f	-0.006016865
228	0x3cb4e311	0.02208093
229	0x3d63c133	0.05560417
230	0x3ce8e253	0.028428232
231	0xbd033e91	-0.03204209
232	0x3c72e8e7	0.014826036
233	0x3c49f6be	0.012326894
234	0x3d078857	0.03308901
235	0x3d30b55d	0.04314171
236	0x3c16d944	0.009207074
237	0x3c7fc6d8	0.015611373
238	0x3c3a076f	0.011354311
239	0x3cf6fa68	0.0301487
240	0xbc1d7213	-0.009609717
241	0x3caf2859	0.021381544
242	0xbc772b14	-0.015085954
243	0x3d0811f4	0.033220246
244	0x3bbba2ab	0.0057261786
245	0x3c158099	0.009124898
246	0x3d6980d8	0.05700764
247	0x3d27e8f7	0.040993657
248	0xbca0c623	-0.019625729
249	0x3c60a4a4	0.013711128
250	0x3d58f5ff	0.052968975
251	0x3c9d72dd	0.01921981
252	0xbb4a2a71	-0.003084805
253	0xbc5be3a4	-0.013420973
254	0xbcb0980f	-0.021556882
255	0x3d2b436a	0.041812338

conv3.bias f4 [128]
0	0x3c864e1b	0.016394665
1	0x3d48bb91	0.049007002
2	0xbd052413	-0.032505106
3	0x3b530d53	0.0032203987
4	0x3ca20625	0.01977832
5	0x3d4f9f98	0.05068931
6	0xb6721f2d	-3.6078957e-06
7	0xb0a27ddc	-1.1822823e-09
8	0xbc8b66a8	-0.017016724
9	0x3c8255d2	0.015910063
10	0x3d2c5808	0.04207614
11	0x3d01575a	0.031577446
12	0x3d26c7d5	0.04071792
13	0x3ac20808	0.0014803419
14	0xbc4df396	-0.012570282
15	0x3c0f8c7e	0.008761523
16	0x3c79d5cd	0.015248728
17	0x3d1188d3	0.035530876
18	0x3b24363f	0.0025056747
19	0xbbe1689e	-0.0068789264
20	0x3d1d092c	0.038338825
21	0x3c89288d	0.016742969
22	0x3c1f607a	0.009727592
23	0xbd1c2c2e	-0.03812807
24	0xbb749c37	-0.0037324557
25	0xbb760e06	-0.003754498
26	0xb04b68a2	-7.399966e-10
27	0xbc5ae521	-0.013360293
28	0xbca3c48e	-0.019991186
29	0x3c8a80b6	0.016907077
30	0xb86b4c7e	-5.6099605e-05
31	0x3d11cc61	0.0355953
32	0xbc93b19c	-0.018029027
33	0xbcefc4a5	-0.029268572
34	0x3cc37a9e	0.02386218
35	0x3d770915	0.060311396
36	0x3c26ef9a	0.010188961
37	0xbdbf5933	-0.09343185
38	0x3b1ec2f1	0.002422508
39	0xbc484b4a	-0.012224982
40	0xbd6eeaae	-0.058329277
41	0x3be2acce	0.0069175726
42	0x3c2bce19	0.010486149
43	0xbbaf50bc	-0.0053502005
44	0xbd0535e3	-0.032522094
45	0x3ae8ac2c	0.0017751507
46	0x3d0fb975	0.035088975
47	0xb50b4e37	-5.189535e-07
48	0xbccf9046	-0.02533735
49	0x3c9e20cb	0.019302746
50	0x3c801f0b	0.015639802
51	0xbc403a83	-0.0117327
52	0x3cc4697c	0.02397608
53	0xbcea5074	-0.028602816
54	0xbc4cc1d2	-0.012497382
55	0xbd0e9564	-0.03481044
56	0xbbfa1cdf	-0.0076328362
57	0xbd02878f	-0.03186756
58	0xb6fd70e0	-7.553128e-06
59	0x3c465529	0.012105265
60	0x3d0e0df0	0.03468126
61	0xbcd44a54	-0.025914349
62	0x3bc29526	0.00593819
63	0xb2e9be0d	-2.7211195e-08
64	0x3c387b76	0.011259904
65	0x3df9b2fd	0.121923424
66	0x3b7436a4	0.0037264014
67	0x3d25cba3	0.040477406
68	0xbd33114a	-0.04371766
69	0xbcc8fd7e	-0.024534937
70	0xbb80c76d	-0.0039300234
71	0xbc11e247	-0.008904046
72	0xbccd4ba5	-0.025060484
73	0x3d332fc0	0.04374671
74	0xbcfb7f73	-0.030700421
75	0x3c07644c	0.008263659
76	0x3c2152c8	0.009846397
77	0xbbb22342	-0.005436332
78	0x3bfe108a	0.0077534365
79	0x3d2ce7ca	0.04221324
80	0x3cc8ee4b	0.02452769
81	0x3d9915d3	0.07474866
82	0xb9c8a53d	-0.00038270085
83	0xbb6f28f3	-0.0036492913
84	0x3d80030e	0.06250583
85	0x3d450a8f	0.048105773
86	0xbc09a149	-0.00840027
87	0xbce41298	-0.027840897
88	0xbcf11ada	-0.02943175
89	0x3b6c5cb9	0.003606601
90	0x3cc52a66	0.024068069
91	0xbcccf837	-0.025020702
92	0x3c9e200d	0.019302392
93	0x3d1d76b7	0.038443293
94	0x3c23e117	0.010002396
95	0x3d219c60	0.03945577
96	0xbb5f51e6	-0.0034075915
97	0xbca3b8bf	-0.019985555
98	0xba88ced1	-0.0010437613
99	0xbd513538	-0.051076144
100	0xbd3e5f85	-0.046477813
101	0x3c5cdd8d	0.013480556
102	0xbbb8898a	-0.0056316303
103	0x3d889f72	0.06671037
104	0x3d5ac766	0.053412817
105	0x3c95de6b	0.018294534
106	0x3d939acc	0.072072595
107	0xbc871bac	-0.016492687
108	0xbc37fa73	-0.011229145
109	0xbcb75a16	-0.022381824
110	0x3ce5b139	0.028038608
111	0xb9497bd8	-0.00019214989
112	0x3cb8542d	0.022501076
113	0x3d2db8de	0.04241263
114	0x3ce3189f	0.027721701
115	0xb99495f8	-0.00028340495
116	0x3d082350	0.0332368
117	0xbd0c4051	-0.034241024
118	0xbcc9f105	-0.02465106
119	0xbc8e7cf4	-0.017393567
120	0x3b58fd16	0.0033109835
121	0xb935fb44	-0.00017355109
122	0xbd635817	-0.05550393
123	0xbbc4fc0f	-0.006011493
124	0x3d8c8b91	0.06862558
125	0xbc9d755a	-0.019220997
126	0xbb47271f	-0.0030388308
127	0x3b2898d1	0.0025725851

act_conv1.weight f4 [4, 128, 1, 1]
0	0x3c92bcf6	0.01791237
1	0x3decf34d	0.115698434
2	0xbdadbe43	-0.08483555
3	0x3d505646	0.050863527
4	0x3de3ed6f	0.11129271
5	0xbdc130c5	-0.0943313
6	0x373ae8b7	1.1140647e-05
7	0xbba0a822	-0.0049028555
8	0xbce4caa7	-0.027928663
9	0x3dc799d6	0.09746139
10	0xbd370bbd	-0.04468893
11	0x3d96eb3e	0.07369088
12	0x3d730ec9	0.059340272
13	0xbc832ed8	-0.016013548
14	0xbce98925	-0.028507778
15	0x3c946fea	0.018119771
16	0x3cc576ff	0.024104593
17	0x3e02147d	0.12703128
18	0x3beb265b	0.007176203
19	0x800089d2	-4.944e-41
20	0x3d9f0f92	0.07766642
21	0x3d88a041	0.06671191
22	0x3d822fdf	0.06356787
23	0x3db77645	0.08958105
24	0x80008ac2	-4.9777e-41
25	0xbcb1ed3f	-0.021719573
26	0x8000894a	-4.925e-41
27	0xab18904f	-5.4201516e-13
28	0xbc0ed1fa	-0.0087170545
29	0x3cf2a03a	0.029617418
30	0x383908fd	4.4115808e-05
31	0x3cbb42d5	0.022859016
32	0xbd6a86eb	-0.057257574
33	0xb971256d	-0.00022997493
34	0x3dfd7cd4	0.12377325
35	0x3d31051c	0.043217763
36	0x3dd264d1	0.102731355
37	0xbd87a8ed	-0.06624017
38	0xba3a531b	-0.00071077206
39	0xb29a58a8	-1.7968276e-08
40	0x3d84481d	0.06459067
41	0x3cd66a6a	0.026173789
42	0x3cda1d8b	0.026625415
43	0xbe1ea505	-0.15492637
44	0xbd8a022d	-0.06738696
45	0x3cbef4d7	0.023310108
46	0x3d92007e	0.07129
47	0x3c0bcf3c	0.008533295
48	0x3d5166ea	0.051123537
49	0xbd9c4f14	-0.076322705
50	0x3dc3822e	0.09546314
51	0x3e862269	0.26198128
52	0x3d957a7a	0.07298751
53	0xbd0f193c	-0.034936175
54	0x000088f0	4.9124e-41
55	0xbd05b34b	-0.03264169
56	0xbd7e266c	-0.06204836
57	0xbd5cf062	-0.053940184
58	0x00008ad7	4.9806e-41
59	0xbcd91080	-0.026497126
60	0xbd802b72	-0.062582865
61	0xbb934a64	-0.004494952
62	0xbd5c1e7e	-0.053740017
63	0x000089cc	4.9432e-41
64	0x3b0043b8	0.0019571614
65	0x3e71bc9d	0.23607107
66	0x3c6bbbf0	0.0143880695
67	0x3e096dda	0.13420811
68	0x3dd302d2	0.10303272
69	0xbdb54a3d	-0.088520505
70	0x3baf643e	0.005352526
71	0x3d15999e	0.036523454
72	0xbd059c92	-0.03262002
73	0xbcca4fa7	-0.024696184
74	0x3c9d8d9b	0.019232562
75	0x3deafa09	0.11473472
76	0x3adf0da6	0.0017017617
77	0xbaa38242	-0.0012474733
78	0xbd05d8da	-0.03267751
79	0x3e64cbf0	0.22343421
80	0x3bf5205f	0.0074806656
81	0x3d86f520	0.06589723
82	0x8000897b	-4.9319e-41
83	0xbce0581c	-0.027385764
84	0xbddeeca7	-0.108849816
85	0x3de27df4	0.1105918
86	0x3d57d73f	0.05269551
87	0xbd02d1e9	-0.031938467
88	0x3cfdd720	0.030986369
89	0x3d508cf7	0.050915685
90	0x3d8abd22	0.067743555
91	0xbd3054ac	-0.0430495
92	0xbbc366f0	-0.005963199
93	0x3c08d92b	0.008352558
94	0xbd09db21	-0.033656243
95	0x3d8dfdc3	0.06933167
96	0x80008a87	-4.9694e-41
97	0x3df336bf	0.11875676
98	0xbd58c212	-0.052919455
99	0xbe2efdda	-0.17089024
100	0x3cd956ac	0.026530586
101	0x3d83923b	0.064243756
102	0xbce1f4a2	-0.02758247
103	0x3bfd7285	0.007734599
104	0xbde15a36	-0.110035345
105	0xbc4d9ccc	-0.01254959
106	0x3de6bf4b	0.11266955
107	0x80008a20	-4.955e-41
108	0x3c1af351	0.009457425
109	0x800089f6	-4.9491e-41
110	0x3d817476	0.06321041
111	0xbd1c8115	-0.03820904
112	0x3d03bccb	0.03216247
113	0x3df352e8	0.118810475
114	0x3e006879	0.12539853
115	0x00008ac3	4.9778e-41
116	0x3db4108f	0.08792221
117	0xbc8b6257	-0.017014666
118	0x800088d1	-4.908e-41
119	0xbd57e9d7	-0.05271324
120	0xbda2a96d	-0.07942472
121	0x3e5a76ef	0.21334432
122	0xbd44f76c	-0.048087522
123	0x299dfe87	7.016354e-14
124	0xbd4caf21	-0.049971703
125	0xbda36997	-0.07979124
126	0x3dab7cf9	0.08373446
127	0xbd07b9f0	-0.03313631
128	0x3cdd1bdb	0.026990822
129	0x3d179e8e	0.037016444
130	0xa2c1d075	-5.2533467e-18
131	0x3c6c8e2b	0.014438192
132	0x3d10d95f	0.03536355
133	0xbcfb77a9	-0.030696707
134	0x000088cf	4.9078e-41
135	0xa6218960	-5.6044274e-16
136	0xbd2459ae	-0.040124588
137	0x3d44729c	0.047960863
138	0x3ba802c4	0.005127283
139	0xba577e7d	-0.00082204473
140	0xbc90c904	-0.017673977
141	0x3d114089	0.035461936
142	0x91f10ff1	-3.803292e-28
143	0xbca0dd03	-0.019636637
144	0x00008962	4.9284e-41
145	0xbca22ac4	-0.019795783
146	0x000088fa	4.9138e-41
147	0x80009073	-5.1819e-41
148	0xbcb72e82	-0.022361044
149	0xbc61c451	-0.013779716
150	0xbd70dee0	-0.0588063
151	0x3cd23414	0.025659598
152	0x800089f2	-4.9485e-41
153	0x3c8543b8	0.016267642
154	0x0000895a	4.9272e-41
155	0x800088b9	-4.9047e-41
156	0xbc38c275	-0.011276831
157	0x3d3002c8	0.042971402
158	0x00008ad5	4.9804e-41
159	0xbcd0cf91	-0.0254896
160	0xbc2cf541	-0.01055652
161	0xbb85f9eb	-0.0040886304
162	0x3c8aca9f	0.01694232
163	0x80008ba7	-5.0098e-41
164	0x33ad5897	8.072055e-08
165	0x00008967	4.929e-41
166	0xb0b263d9	-1.2979583e-09
167	0x800089d3	-4.9442e-41
168	0xba3e28f4	-0.00072540273
169	0xbcd26aae	-0.025685634
170	0xbaf804ba	-0.0018922307
171	0xb4981b2a	-2.833197e-07
172	0xbc4a1e8e	-0.012336386
173	0x00008a40	4.9595e-41
174	0xbc943542	-0.018091802
175	0x0000896c	4.9298e-41
176	0x3d1db239	0.038500044
177	0xbb646c0d	-0.0034854442
178	0x3caa2a35	0.020772079
179	0x83bdba7b	-1.1151235e-36
180	0xbcf3dd84	-0.029768713
181	0x3b541796	0.003236269
182	0x00008a49	4.9607e-41
183	0xbd1454a7	-0.036213543
184	0xbbca51ea	-0.0061743157
185	0xb40fb41d	-1.3383438e-07
186	0x80008a3a	-4.9586e-41
187	0x8000897c	-4.932e-41
188	0x3c49e3d4	0.012322385
189	0xbd8148cb	-0.06312712
190	0x3c1abba6	0.009444153
191	0x80009c35	-5.6037e-41
192	0x2da4cd69	1.8735862e-11
193	0xb83b6dd0	-4.4686545e-05
194	0xbd4f0a30	-0.050546825
195	0xb126edcf	-2.4291358e-09
196	0xba28f43c	-0.0006445085
197	0x0b21907b	3.1116167e-32
198	0x00008901	4.9148e-41
199	0xbca849dc	-0.020543031
200	0xbd6ab91f	-0.05730545
201	0xbc38188e	-0.011236323
202	0xbc9aac61	-0.018881025
203	0xbbc78437	-0.0060887593
204	0x3c45502e	0.012043042
205	0x149eee43	1.60479e-26
206	0x3ce6ff10	0.028197795
207	0xb3e0cf8d	-1.0468566e-07
208	0xbbc2136c	-0.0059227254
209	0x3c4419e4	0.011969063
210	0x80008c22	-5.027e-41
211	0x3d3a9848	0.045555383
212	0xbb6cf580	-0.0036157072
213	0x3cda0466	0.026613425
214	0xbcb7c7b8	-0.0224341
215	0xbcbe23bd	-0.0232104
216	0xbcfbd6ec	-0.030742131
217	0x3c8393c9	0.01606168
218	0xbca6b52c	-0.020350061
219	0xbc31708c	-0.010830056
220	0x3d148221	0.036256913
221	0x3bb874c0	0.005629152
222	0x3c92120a	0.017830867
223	0xbcc13784	-0.023586042
224	0x0000940a	5.3106e-41
225	0x3b99891c	0.004685534
226	0x3af709f7	0.0018847574
227	0x800088fd	-4.9142e-41
228	0xbd6c3f10	-0.05767733
229	0x3bad742d	0.0052933902
230	0xa39c3489	-1.6935803e-17
231	0x3b8e4801	0.0043420796
232	0xbc8be18a	-0.017075319
233	0xbcbbc445	-0.022920737
234	0xbb76f440	-0.0037682205
235	0x80008b02	-4.9867e-41
236	0x80008926	-4.92e-41
237	0x0000a90c	6.0643e-41
238	0xb8ca07da	-9.633573e-05
239	0xbd1b60ea	-0.03793422
240	0x39e9eb47	0.00044616518
241	0x3ce1eb3d	0.02757799
242	0x3c4d6418	0.012536071
243	0x00008afa	4.9855e-41
244	0x3b7de86e	0.0038743275
245	0xbc79e069	-0.015251257
246	0x80008a95	-4.9714e-41
247	0x3d05f136	0.03270074
248	0x000088f1	4.9125e-41
249	0x80008942	-4.9239e-41
250	0x000089fc	4.95e-41
251	0x80008a79	-4.9675e-41
252	0xba94ccc9	-0.0011352535
253	0x8000aea1	-6.2645e-41
254	0x3b5ce231	0.0033704157
255	0xbd1f744c	-0.03892927

act_conv1.bias f4 [4]
0	0x3d4536bd	0.048147906
1	0xbd57f007	-0.052719142
2	0xbc97d649	-0.018534796
3	0x3e000853	0.12503175

act_fc1.weight f4 [81, 324]
0	0x3d0d676b	0.034522455
1	0x3c08966c	0.008336645
2	0x3cd62e0c	0.026145004
3	0x3b195069	0.0023393875
4	0xbba88950	-0.005143322
5	0xbba11d31	-0.00491681
6	0xbcc3ffb4	-0.02392564
7	0xbc8bcde7	-0.017065955
8	0xbcdf5f80	-0.027267218
9	0x3d37f409	0.044910464
10	0x3cd79ea8	0.02632077
11	0xbd5d83b8	-0.054080695
12	0xbd459fc8	-0.048248082
13	0xbd0e52fc	-0.03474711
14	0xbc18b539	-0.009320551
15	0xbd103a0c	-0.035211608
16	0xbb7b361e	-0.0038331817
17	0xbd16b8a3	-0.036797177
18	0x3c906e71	0.017630788
19	0x3cba8511	0.02276853
20	0xbd5a9494	-0.05336435
21	0xbd83a187	-0.06427293
22	0xbd51d418	-0.05122766
23	0xbd607010	-0.05479437
24	0xbc50d2fc	-0.012745615
25	0xbcce81da	-0.025208402
26	0x3c53e308	0.012932546
27	0x3d1c3ff6	0.038146935
28	0xbd55f62a	-0.052236713
29	0xbd2b87ac	-0.041877434
30	0xbd992896	-0.07478444
31	0xbda11052	-0.07864441
32	0xbd6e10ab	-0.058121365
33	0xbd4b769f	-0.049673673
34	0x3c62b6b0	0.013837501
35	0xbd4efaea	-0.05053226
36	0xbcafafd8	-0.021446154
37	0xbd448147	-0.04797485
38	0xbd997a38	-0.074940145
39	0xbd791201	-0.060808185
40	0xbd5ce1bf	-0.053926226
41	0xbd60e1e8	-0.05490294
42	0xbda0a678	-0.078442514
43	0xbac4a203	-0.0015001897
44	0xbcb15cb8	-0.021650657
45	0x3c689cc5	0.014197533
46	0xbd292005	-0.0412903
47	0xbc8c942b	-0.017160496
48	0xbd63406b	-0.055481356
49	0xbdc94cca	-0.098290995
50	0xbdd0a3f1	-0.10187519
51	0xbd41bf90	-0.04730183
52	0xbd59403d	-0.053039778
53	0xbce7993f	-0.028271316
54	0x3d98c80e	0.074600324
55	0x3b6821cd	0.0035420537
56	0xbd352315	-0.04422291
57	0xbd6df13e	-0.058091395
58	0xbd361895	-0.044457037
59	0xbca45044	-0.020057805
60	0xbd59f226	-0.053209446
61	0xbd85ad60	-0.06527209
62	0xbcf306ab	-0.029666265
63	0x3e8663ab	0.26247916
64	0xbcd88d4c	-0.026434563
65	0xbc54c229	-0.0129857445
66	0xba231c7d	-0.00062222016
67	0xbd98ce79	-0.074612565
68	0xbd1e0e8e	-0.0385881
69	0xbcc019a5	-0.023449728
70	0x3cc4c7d5	0.024021069
71	0xbbecdbfd	-0.007228373
72	0x3e835dc7	0.25657484
73	0x3e800429	0.25003174
74	0xbcccb10f	-0.024986772
75	0x3cde1e68	0.027114108
76	0xbab711e8	-0.0013967128
77	0x3b6c7283	0.0036078996
78	0xbc5a78cf	-0.013334467
79	0x3ca111fd	0.019661898
80	0x3d5d2f64	0.054000273
81	0xb24e1b9c	-1.1997056e-08
82	0xb828dabe	-4.025804e-05
83	0xb90fd32e	-0.00013716213
84	0xb9b6ac47	-0.00034842102
85	0x38c73064	9.498073e-05
86	0xb8bbba36	-8.951539e-05
87	0x385288ed	5.0195424e-05
88	0x368c363a	4.178638e-06
89	0xa7bc00e6	-5.2181456e-15
90	0xb62186ea	-2.40694e-06
91	0xb7c61411	-2.3612783e-05
92	0xbab3240a	-0.0013667357
93	0x394eebf7	0.00019733595
94	0xb942dd82	-0.000185838
95	0xb9479f25	-0.00019037405
96	0xb94486de	-0.00018742259
97	0xb8e57a8a	-0.000109423956
98	0xb33840e4	-4.2899856e-08
99	0xb717375e	-9.0131925e-06
100	0x399c2cbc	0.00029787968
101	0xbb20204a	-0.0024433308
102	0xba84b397	-0.0010124323
103	0xba1cd41b	-0.0005982534
104	0x3a8b57af	0.001063099
105	0xbab96328	-0.0014143931
106	0xb8da0ece	-0.00010397808
107	0x331b5d41	3.6173564e-08
108	0x36ecb188	7.0540154e-06
109	0x3a45e8b4	0.0007549629
110	0xbaf92810	-0.0019009132
111	0xba9982cd	-0.0011711955
112	0xbad9e48a	-0.0016623896
113	0xbb64696e	-0.003485288
114	0x3aa3fc64	0.0012511131
115	0xb818d4cf	-3.6437817e-05
116	0xb42029e4	-1.4916401e-07
117	0xb8436458	-4.6585075e-05
118	0x39f421e6	0.00046564563
119	0x3a6bd7bf	0.0008996687
120	0xb974d6e4	-0.00023349706
121	0xbb596d01	-0.0033176544
122	0xbb410826	-0.002945432
123	0x3a7cabef	0.0009638657
124	0xb9a8b079	-0.0003217494
125	0xb3de5532	-1.03531775e-07
126	0xb8983695	-7.2580915e-05
127	0xba0763f1	-0.0005164734
128	0x39827a15	0.0002488649
129	0xbb65e8aa	-0.0035081306
130	0xba4d2fe5	-0.0007827266
131	0xbb01f91d	-0.001983232
132	0x3a373368	0.0006988556
133	0x38a20216	7.7251505e-05
134	0xb3d62624	-9.972089e-08
135	0xb81439b8	-3.5339704e-05
136	0xb955b82a	-0.0002038187
137	0xbb0f4ee5	-0.0021867093
138	0xbb4a392a	-0.0030856826
139	0xbb0ca32b	-0.002145956
140	0xba7c0dc2	-0.0009615087
141	0xbac58249	-0.0015068735
142	0xb9febd73	-0.00048587806
143	0x327020f7	1.3977334e-08
144	0xb66d61cf	-3.5372684e-06
145	0xb93023f4	-0.00016798062
146	0xb6bb7024	-5.586089e-06
147	0xbaa60b34	-0.0012668134
148	0xbac5e13d	-0.0015097033
149	0xba7d3216	-0.00096586475
150	0xba7d4e93	-0.00096628926
151	0xb5dd645b	-1.649499e-06
152	0x2dc530f4	2.2418047e-11
153	0x28489a92	1.1135747e-14
154	0xb32c8ad4	-4.0173134e-08
155	0xb5287ab4	-6.2763434e-07
156	0xb574b270	-9.1156744e-07
157	0xb60728e6	-2.0140374e-06
158	0xb64b09db	-3.0255094e-06
159	0xb574ccd6	-9.119516e-07
160	0x2da817b9	1.9109924e-11
161	0x800088f8	-4.9135e-41
162	0x800089b6	-4.9401e-41
163	0x8000927f	-5.2553e-41
164	0x000093e6	5.3056e-41
165	0x000088d5	4.9086e-41
166	0x0000945d	5.3223e-41
167	0x8000a52d	-5.9254e-41
168	0x800088fc	-4.9141e-41
169	0x800094d4	-5.339e-41
170	0x80008a48	-4.9606e-41
171	0x0000931a	5.277e-41
172	0x80008a55	-4.9624e-41
173	0x00008a42	4.9598e-41
174	0x000089d2	4.944e-41
175	0x8000890a	-4.916e-41
176	0x80008c3f	-5.0311e-41
177	0x800089ce	-4.9435e-41
178	0x80008942	-4.9239e-41
179	0x00008a0d	4.9523e-41
180	0x000089ef	4.9481e-41
181	0x00119095	1.61307e-39
182	0x87e8c99e	-3.502598e-34
183	0x8af44df2	-2.3525665e-32
184	0x886953aa	-7.0214234e-34
185	0x89f4df34	-5.8950763e-33
186	0x89bb02d2	-4.5021265e-33
187	0x80070adb	-6.46743e-40
188	0x80008c4d	-5.033e-41
189	0x00008afe	4.9861e-41
190	0x14c7e9bc	2.0186057e-26
191	0x99468f71	-1.0265328e-23
192	0x98c75128	-5.152224e-24
193	0x9590e0a0	-5.851553e-26
194	0x986b4f07	-3.0412937e-24
195	0x19b0358a	1.8219598e-23
196	0x8e7cfb3f	-3.1182369e-30
197	0x800088c6	-4.9065e-41
198	0x80008a8e	-4.9704e-41
199	0x8fbc3f0a	-1.8562513e-29
200	0x95cbf251	-8.2373355e-26
201	0x9573b7fa	-4.921859e-26
202	0x9958f01b	-1.1215427e-23
203	0x1715deab	4.8425543e-25
204	0x19d8da92	2.2422156e-23
205	0x0cd63ff6	3.3010416e-31
206	0x80008cb7	-5.0479e-41
207	0x00008a61	4.9641e-41
208	0x92353094	-5.7173407e-28
209	0x9abbbfa5	-7.7651006e-23
210	0x9a8fc189	-5.9456087e-23
211	0x98962e47	-3.882082e-24
212	0x993f8ded	-9.90313e-24
213	0x1b06a430	1.1137272e-22
214	0x9337e793	-2.3212022e-27
215	0x00008a4c	4.9612e-41
216	0x80008a42	-4.9598e-41
217	0x95f1314b	-9.7416895e-26
218	0x1d9dc5b7	4.1761986e-21
219	0x9bde5801	-3.678369e-22
220	0x9da6715e	-4.4057053e-21
221	0x9cc5c78f	-1.3087951e-21
222	0x9e993333	-1.622068e-20
223	0x0ee485eb	5.6335298e-30
224	0x80008c9d	-5.0443e-41
225	0x00008a3d	4.959e-41
226	0x22c09d07	5.2207963e-18
227	0xa505a97e	-1.1593337e-16
228	0x28052612	7.391238e-15
229	0xa89f0fbe	-1.7659373e-14
230	0xa79ed975	-4.4089577e-15
231	0x24c0b36e	8.357069e-17
232	0x8fce7ec1	-2.0361992e-29
233	0x80008990	-4.9348e-41
234	0x0f47ab8c	9.844496e-30
235	0x3045d295	7.196744e-10
236	0xb1d5b05c	-6.2191656e-09
237	0xafe9b692	-4.2512177e-10
238	0xb20fc41a	-8.368284e-09
239	0x324a9293	1.1791275e-08
240	0x30114bed	5.285859e-10
241	0xa7a21f59	-4.499802e-15
242	0x00008af1	4.9843e-41
243	0x3da7f723	0.082014345
244	0x3d2331fc	0.03984259
245	0x3c494443	0.012284341
246	0x3cf51d39	0.029921161
247	0x3d00a2eb	0.03140537
248	0x3d27cfc8	0.04096964
249	0x3c85e5f1	0.016344996
250	0x3ca0615c	0.019577675
251	0x3d9be6c7	0.07612377
252	0x3d267e39	0.04064772
253	0x3a703763	0.00091635267
254	0x3d0f8c2b	0.035045784
255	0x3cbd7c1a	0.023130465

act_fc1.bias f4 [81]
0	0x3dfda14b	0.1238428
1	0xbc98a1b3	-0.018631792
2	0xbe4b0600	-0.19826508
3	0x3e086977	0.13321482
4	0x3e0e9630	0.1392448
5	0x3e0445f0	0.12917304
6	0xbe04f1b5	-0.12982829
7	0xbca252fc	-0.01981496
8	0x3dced1c8	0.10098606
9	0xbc2ae15b	-0.0104297055
10	0xbd9909ae	-0.074725494
11	0x3ddcdbd0	0.107841134
12	0x3d5e2893	0.054237913
13	0x3e864469	0.26224068
14	0x3d9c2369	0.076239415
15	0x3da64ae7	0.08119755
16	0xbe35a153	-0.17737322
17	0xbd0750eb	-0.033036154
18	0xbe2c8a3a	-0.16849604
19	0x3e11af7c	0.14227098
20	0x3c6caf3f	0.014446079
21	0x3e69a734	0.22817689
22	0xbda32110	-0.079652905
23	0x3e44f734	0.19234926
24	0x3cc8767f	0.024470566
25	0x3e1ba7d5	0.15200742
26	0xbe01ddf3	-0.12682323
27	0x3daf2c19	0.08553333
28	0x3d2161a4	0.039399758
29	0x3e016709	0.12636961
30	0x3e04994b	0.12949102
31	0x3e4895e9	0.19588436
32	0x3dc7696d	0.09736905
33	0x3e408275	0.18799765
34	0x3d46051f	0.048344728
35	0x3de804a1	0.11329008
36	0x3df45ccb	0.11931761
37	0x3e5a5da3	0.21324782
38	0xbcf62fd4	-0.030052103
39	0x3e812b21	0.25228217
40	0xbd40944c	-0.047016427
41	0x3e91b296	0.28456563
42	0xbda98237	-0.0827679
43	0x3e732646	0.23745069
44	0x3dce4830	0.100723624
45	0x3dba3163	0.09091451
46	0x3d722b13	0.05912311
47	0x3e1eb49f	0.15498589
48	0x3ddf1035	0.10891763
49	0x3e79bded	0.24388857
50	0x3d97337b	0.07382866
51	0x3e547284	0.20746809
52	0x3c2828b0	0.010263607
53	0x3db59105	0.08865551
54	0xbe327e8d	-0.17431088
55	0x3e04ff10	0.12987924
56	0x3dca8a81	0.09889699
57	0x3e748849	0.23880114
58	0xbdb9a08b	-0.09063824
59	0x3e0e75c1	0.13912107
60	0xbbae61b6	-0.0053217066
61	0x3e1a9723	0.15096717
62	0xbe0eaa96	-0.13932261
63	0xbd8ce3a8	-0.068793595
64	0xbe02935a	-0.12751523
65	0x3e0bb34f	0.1364262
66	0x3d668495	0.056278784
67	0x3e36bca5	0.178454
68	0x3d199e4e	0.037504487
69	0x3e06b3fa	0.13154593
70	0xbe1dea82	-0.15421489
71	0xbce9f2f1	-0.028558226
72	0x3d4c9245	0.04994418
73	0xbd97e356	-0.07416408
74	0xbe357f21	-0.17724277
75	0x3dd9edc6	0.10641055
76	0x3da0159b	0.07816621
77	0x3db7a3b0	0.08966768
78	0xbe238015	-0.15966828
79	0xbcc9ba24	-0.024624892
80	0x3dd66a29	0.10469467

val_conv1.weight f4 [2, 128, 1, 1]
0	0x3d30e597	0.043187704
1	0x3cbfb65b	0.023402384
2	0xbd05b868	-0.032646567
3	0x3c8337b6	0.016017776
4	0x3d9c8621	0.076427706
5	0xbd5142de	-0.05108916
6	0x000089b0	4.9393e-41
7	0x000089c7	4.9425e-41
8	0xbbc38f8d	-0.0059680403
9	0x3d480961	0.04883707
10	0xbdbc24f9	-0.091867395
11	0x3bc843ef	0.006111614
12	0xbdd97ad4	-0.10619131
13	0x3c9e1443	0.01929677
14	0xbcc1109b	-0.023567488
15	0x3dace0d1	0.08441318
16	0xbc2be7a9	-0.010492244
17	0xbd11b6b4	-0.03557463
18	0x38b5420d	8.6430555e-05
19	0xb9051f4c	-0.00012695527
20	0xbde86cce	-0.11348878
21	0xbd79b7d2	-0.06096632
22	0x3c81c90c	0.015842937
23	0x3c5edec0	0.013602912
24	0x3b14a5d4	0.002268185
25	0x3cf6f888	0.030147806
26	0x32bf129f	2.2243794e-08
27	0xb9c4d5ff	-0.00037543473
28	0x3d28ec2a	0.04124085
29	0x3d90e4d8	0.070748985
30	0xbb6675db	-0.0035165462
31	0xbd983204	-0.07431415
32	0x3d835d65	0.06414298
33	0x3c9b25ab	0.01893886
34	0x3d64ffa6	0.055907868
35	0xbd848d02	-0.064722076
36	0xbced2aa7	-0.028951002
37	0xbc7138d7	-0.014723024
38	0x3c6b6614	0.014367599
39	0xba9b2606	-0.0011836893
40	0xb9a528b3	-0.00031501576
41	0x3d47e66c	0.04880373
42	0x3d31d21b	0.043413263
43	0xbd4670b0	-0.04844731
44	0x3d06728d	0.032824088
45	0xb94067ad	-0.00018349169
46	0xbda89f0b	-0.0823346
47	0x80008a93	-4.9711e-41
48	0x3cacaa82	0.021077398
49	0xbd3ebfe5	-0.046569724
50	0x3d977fa9	0.07397396
51	0xbb657c42	-0.003501669
52	0x3c83e588	0.01610066
53	0x3d333976	0.04375597
54	0xb88ca7c9	-6.7069726e-05
55	0x3d717fcc	0.058959767
56	0x3d3174eb	0.043324392
57	0xbcea0cae	-0.0285705
58	0x20c35c6d	3.3095447e-19
59	0xbce6d1b3	-0.028176164
60	0xbdb2c6cf	-0.08729326
61	0x3cb9cce1	0.022680702
62	0x3d7ae033	0.06124897
63	0x80008916	-4.9177e-41
64	0x3c607118	0.013698839
65	0xbca61a1f	-0.020276127
66	0x3d9cca9e	0.07655834
67	0xbcc356fb	-0.023845186
68	0xbc1e3d2b	-0.009658138
69	0xbd5240c7	-0.051331308
70	0xbc5bea0a	-0.0134224985
71	0x3bd3111c	0.0064412486
72	0x3d35e5d8	0.04440865
73	0xbd9fc7bd	-0.07801769
74	0x3d831529	0.0640052
75	0x3d983521	0.074320085
76	0x3c5e5063	0.01356897
77	0xbaaf97c3	-0.0013396669
78	0x3d83fc4e	0.06444608
79	0xbcb11f17	-0.02162127
80	0xbd4d9299	-0.050188635
81	0xbd225c94	-0.03963907
82	0xb8e77323	-0.00011036384
83	0x3d617d22	0.055050977
84	0xbd63d6e2	-0.05562485
85	0x3c708e0b	0.014682303
86	0x3d577cf4	0.0526094
87	0x3d1fef19	0.03904638
88	0x3d721434	0.0591013
89	0x3cf58d0d	0.029974485
90	0x3c9a8964	0.018864341
91	0x3c670184	0.014099482
92	0x3d1ca7ee	0.038246088
93	0xbd560349	-0.052249227
94	0xbdb3f316	-0.08786599
95	0xbae32641	-0.0017330126
96	0x36d94b5a	6.475876e-06
97	0xbd869d9c	-0.0657303
98	0x3bba9ae9	0.0056947363
99	0x3965652d	0.00021876833
100	0x3cdb4ea6	0.026770901
101	0x3da566b2	0.08076228
102	0x36347e28	2.6895523e-06
103	0xbdf4618b	-0.11932667
104	0xbd6c557a	-0.057698704
105	0xbd07851f	-0.03308594
106	0xbd7c1e77	-0.06155249
107	0xb8700a5f	-5.7230118e-05
108	0x80008f7c	-5.1472e-41
109	0x3cb7934e	0.022409108
110	0x3d448817	0.047981348
111	0x3cb7b575	0.022425393
112	0xbd8ef22c	-0.06979784
113	0x3d09523f	0.0335257
114	0x3ab6c3f1	0.0013943893
115	0x96cb81db	-3.287837e-25
116	0xbddec568	-0.10877496
117	0xbd831f83	-0.06402495
118	0xbb6dd865	-0.0036292311
119	0x3d9464d6	0.072457954
120	0xbdbb9d6b	-0.091608845
121	0x368b7015	4.155571e-06
122	0xbcd5b38d	-0.026086593
123	0xbbdd3321	-0.00675048
124	0xbd88a540	-0.06672144
125	0xbcd76642	-0.026293878
126	0x3cac6b8a	0.021047372
127	0x3c09a590	0.00840129
128	0xbab8d51d	-0.0014101599
129	0xbb836262	-0.004009531
130	0xba8b3d99	-0.0010623216
131	0x3baaafe0	0.005208954
132	0x3cb4d60c	0.022074722
133	0x3c8f2c06	0.017477047
134	0x00008a3f	4.9593e-41
135	0x80009e26	-5.6733e-41
136	0xbbd6b25d	-0.0065520243
137	0x3d205b26	0.039149426
138	0xbcbb03d7	-0.02282898
139	0xbd10cd6a	-0.035352148
140	0xbd314980	-0.043282986
141	0xbb683557	-0.0035432184
142	0xb02e33a5	-6.337422e-10
143	0x3cd3cb3b	0.025853744
144	0x2ef0c78d	1.0949384e-10
145	0x3c635e13	0.0138774095
146	0x800089ff	-4.9504e-41
147	0x00008b49	4.9966e-41
148	0xbd287ff2	-0.041137643
149	0x3a334e91	0.00068400154
150	0x3cce6e90	0.025199205
151	0x3858cd36	5.168953e-05
152	0x80008c5b	-5.035e-41
153	0xbd1a5e9e	-0.03768789
154	0x00009292	5.258e-41
155	0x8000895a	-4.9272e-41
156	0xbccc8867	-0.024967385
157	0x3c1e3e4c	0.009658407
158	0x1b8137e2	2.1377373e-22
159	0xbd344ad6	-0.04401668
160	0xbbd80e66	-0.0065935133
161	0xba558cae	-0.0008146268
162	0xbc66c295	-0.014084478
163	0xbc2f07fe	-0.010683058
164	0x800088db	-4.9094e-41
165	0x00008a02	4.9508e-41
166	0xbc13a630	-0.00901179
167	0x00008926	4.92e-41
168	0xa969fe33	-5.1956876e-14
169	0x3c47802c	0.012176555
170	0x3d068986	0.032845996
171	0x2fbadbd7	3.3989409e-10
172	0x3cb76682	0.022387747
173	0x000088d8	4.909e-41
174	0xbc508e61	-0.012729258
175	0x00008f06	5.1307e-41
176	0x3ab5109e	0.0013814156
177	0xbc2815bf	-0.010259091
178	0x3cd4c984	0.025974996
179	0x000088bb	4.905e-41
180	0x3ca108fe	0.019657608
181	0xbb92cb8e	-0.004479832
182	0x00008ad3	4.9801e-41
183	0xbcb956f5	-0.022624472
184	0x3d0afea4	0.03393425
185	0x00031ed9	2.86573e-40
186	0x80008ba6	-5.0096e-41
187	0xaf3cdc98	-1.7176871e-10
188	0xbadc54c8	-0.0016809935
189	0x3c9862f6	0.018601876
190	0xbb93df83	-0.0045127287
191	0x00008f11	5.1323e-41
192	0x000a264f	9.32097e-40
193	0x800088f5	-4.9131e-41
194	0x3d0295df	0.03188121
195	0x804ac24a	-6.865524e-39
196	0x04981dbe	3.5762342e-36
197	0x32b91b11	2.1549143e-08
198	0x37705ceb	1.4326749e-05
199	0xbca1bc2c	-0.019743048
200	0xbd6172ae	-0.055041008
201	0xbd352bfc	-0.0442314
202	0x3c19164b	0.009343694
203	0xbc953d44	-0.01821769
204	0x35cb394b	1.5141353e-06
205	0x80008aa2	-4.9732e-41
206	0xbd49a478	-0.049229115
207	0xa91ceb82	-3.484323e-14
208	0xbb8cc13c	-0.0042954963
209	0xbbadf4e1	-0.005308733
210	0x000089de	4.9457e-41
211	0xbc1523f5	-0.009102811
212	0xbd0a09c3	-0.033700716
213	0x3bf25798	0.007395696
214	0x3ab00ab3	0.0013430923
215	0xbbc44808	-0.005990032
216	0xbd35de1b	-0.04440127
217	0xbc8493dc	-0.016183786
218	0xbb628d90	-0.003456924
219	0xbac346fe	-0.0014898477
220	0xbd0b20d9	-0.033966873
221	0xbcb8ae99	-0.022544192
222	0xbc7ae211	-0.0153126875
223	0xbcb6bb0b	-0.022305986
224	0x00008999	4.9361e-41
225	0x360aae92	2.0665216e-06
226	0x909a71d4	-6.091767e-29
227	0xae7ccf5a	-5.748233e-11
228	0x3c542375	0.012947907
229	0xbbd65bc6	-0.006541702
230	0x0000898e	4.9345e-41
231	0xbd044900	-0.03229618
232	0xb9591efb	-0.00020706274
233	0xbc2eac8a	-0.010661254
234	0xbb039474	-0.0020077499
235	0x00008bdc	5.0172e-41
236	0x00008a43	4.9599e-41
237	0x00008969	4.9293e-41
238	0x3c013af1	0.007887588
239	0xbccc6c61	-0.024954023
240	0xb2d042ce	-2.4244766e-08
241	0xbb9b1d71	-0.0047337343
242	0x3b31b6fc	0.0027117124
243	0x000089b3	4.9397e-41
244	0xbcb7c039	-0.022430526
245	0x3bc266b4	0.0059326533
246	0x80008c20	-5.0267e-41
247	0x3d30bdbb	0.04314969
248	0xbc79ddf0	-0.015250668
249	0x80008b0d	-4.9882e-41
250	0xb0b02f00	-1.2819044e-09
251	0x00008985	4.9333e-41
252	0xbc0df749	-0.008664914
253	0x3b34693e	0.002752855
254	0xbd42e55e	-0.047582023
255	0xbcee0167	-0.029053403

val_conv1.bias f4 [2]
0	0x3d6e1c54	0.058132485
1	0xbd440601	-0.04785729
