课程设计/AlphaZero简单复现/models/policy_batch_1250.model (torch, 530639 bytes, 15 tensors)

conv1.weight f4 [32, 4, 3, 3]
0	0x3e554fd7	0.20831238
1	0xbd9e7dd1	-0.07738841
2	0x3e842807	0.25811788
3	0xbcd390c8	-0.025825873
4	0xbd508e0d	-0.05091672
5	0xbd8eb31d	-0.06967757
6	0x3eb84b50	0.3599496
7	0xbe58c4f0	-0.21168876
8	0x3edb724b	0.42860636
9	0x3e34aaf0	0.17643332
10	0xbd2c50ee	-0.042069368
11	0x3e382c66	0.17985687
12	0xbaeb41f6	-0.0017948735
13	0xbdc2d49b	-0.095132075
14	0xbd91fd3a	-0.07128377
15	0x3e6cf8e8	0.23141825
16	0xbdac5697	-0.08414953
17	0x3e6c0ebe	0.23052499
18	0x3d4410aa	0.047867455
19	0xbcbc78b8	-0.023006782
20	0x3d13abae	0.0360524
21	0xbcbc947a	-0.023020018
22	0xbc97cb0c	-0.018529437
23	0xbd4f062c	-0.050542995
24	0x3cb47996	0.022030633
25	0xbd01ead0	-0.031718075
26	0x3d888459	0.06665868
27	0xbb2b7a33	-0.0026165366
28	0x3a9b55f2	0.0011851175
29	0xbd168968	-0.036752135
30	0xbdd32fc9	-0.10311849
31	0x3de72eab	0.11288198
32	0xbc7ebf83	-0.01554859
33	0x3b815697	0.00394709
34	0x3d12e9db	0.035867553
35	0xbd00a5ec	-0.031408235
36	0x3eaada93	0.33369884
37	0x3e85f56e	0.2616381
38	0xbedb48ff	-0.4282913
39	0x3e2fe86c	0.17178506
40	0xbd872ddd	-0.066005446
41	0x3e9c5147	0.3053076
42	0xbe8124e2	-0.25223452
43	0x3e0a7512	0.13521221
44	0x3e43b3f2	0.19111612
45	0x3d91cf9d	0.07119677
46	0x3d04e415	0.03244408
47	0xbc04c24c	-0.008102965
48	0xbe3e67c2	-0.18594268
49	0xbca5574a	-0.020183224
50	0xbdb24fd6	-0.08706634
51	0x3e20efda	0.15716496
52	0xbdb52a22	-0.08845927
53	0x3e0edb13	0.13950758
54	0xbca05d68	-0.01957579
55	0xbcb78530	-0.022402376
56	0x3cb82513	0.022478616
57	0xbcf6a9e7	-0.030110313
58	0xbdafcd17	-0.0858404
59	0x3d040855	0.03223451
60	0x3d8c5ec9	0.06854016
61	0x3cbbe6ea	0.022937257
62	0x3d0efac7	0.03490713
63	0xbb885147	-0.0041600796
64	0xbe1cae5c	-0.15300888
65	0x3d6e32f1	0.05815405
66	0xbe2caaa7	-0.16861974
67	0x3d7a8ad4	0.061167553
68	0xbe0f7641	-0.14009954
69	0x3e0a45b3	0.1350315
70	0xbd5b89af	-0.053598102
71	0x3e2eef58	0.1708349
72	0x3e75be18	0.23998296
73	0x3e39d039	0.18145837
74	0xbcdba600	-0.026812553
75	0xbea6ad01	-0.32553867
76	0xbd6d69c0	-0.05796218
77	0xbe826b3e	-0.25472444
78	0x3dbf42b3	0.09338894
79	0x3e59fd9c	0.2128815
80	0xbe7d6abd	-0.24747749
81	0xbdfa0907	-0.12208753
82	0xbe3d74d8	-0.18501604
83	0xbd57d237	-0.05269071
84	0x3e8e3e10	0.27781725
85	0x3e41a40f	0.1891024
86	0x3deb28fc	0.114824265
87	0x3e0e3f6b	0.1389138
88	0xbe6d8d3c	-0.23198408
89	0x3d9686c3	0.073499225
90	0x3c79465b	0.015214528
91	0xbdaeca6a	-0.08534701
92	0x3d06c3cc	0.03290157
93	0x3cc9bb58	0.024625465
94	0x3ce52e9d	0.027976329
95	0x3d92287f	0.0713663
96	0x3d071048	0.03297451
97	0xbd82a7e9	-0.063796826
98	0x3d6d5255	0.057939846
99	0xbe16818f	-0.1469786
100	0x3ddbdd4d	0.10735569
101	0x3d6abb62	0.05730761
102	0x3b8e5e2c	0.0043447223
103	0x3d5e1c8b	0.05422644
104	0x3d58f653	0.052969288
105	0x3d0e376e	0.03472083
106	0x3e055ae1	0.13022949
107	0xbe346ac8	-0.17618859
108	0x3ba17f64	0.004928516
109	0xbeec55d3	-0.4615923
110	0x3eb58214	0.35450804
111	0xbd57def4	-0.05270286
112	0x3ecfcfb9	0.40588167
113	0xbed38329	-0.41311005
114	0x3cf824d8	0.030291006
115	0x3cb1a351	0.02168432
116	0x3dd6b9d2	0.10484661
117	0x3dad503f	0.08462571
118	0x3e03d558	0.12874353
119	0xbe7f82c3	-0.24952225
120	0x3de43ff4	0.111450106
121	0xbe2705ac	-0.16310757
122	0x3e11bc8a	0.14232078
123	0xbd6686f5	-0.05628105
124	0x3daf9dec	0.08575043
125	0x3e0c20e6	0.13684425
126	0x3c00d99d	0.007864383
127	0x3d446551	0.047948185
128	0xbdc780b5	-0.09741346
129	0xbcc67e84	-0.02423025
130	0xbd6f5b29	-0.058436546
131	0x3d5050fe	0.05085849
132	0xbd8df325	-0.06931142
133	0xbc32d23f	-0.010914384
134	0x3daed3ff	0.08536529
135	0x3d974add	0.07387326
136	0xbd72e356	-0.059298836
137	0x3dbadff5	0.09124748
138	0x3e0d8698	0.13820875
139	0xbc1aa610	-0.009439006
140	0xbdc7c879	-0.09755034
141	0xbdd1cfa4	-0.102446824
142	0xbdb4740b	-0.08811196
143	0x3e00d4f5	0.12581237
144	0xbe625622	-0.2210317
145	0xbd895505	-0.06705669
146	0xbd9e7f67	-0.07739144
147	0x3d486e03	0.04893304
148	0x3e4531a1	0.19257213
149	0x3dcfd28f	0.10147583
150	0xbd6ab5ce	-0.05730229
151	0xbcd686bd	-0.026187295
152	0x3e6b5316	0.22980914
153	0xbe060d39	-0.13090982
154	0xbbd66770	-0.0065430924
155	0xbe1d86e6	-0.15383491
156	0x3e1bca4f	0.15213893
157	0xbd348200	-0.04406929
158	0xbdd7b6ff	-0.105329506
159	0x3c459ef2	0.012061821
160	0xbd3233f0	-0.043506563
161	0xbe0c643b	-0.1371011
162	0xbd45da42	-0.04830385
163	0x3d802b5e	0.06258272
164	0x3df35f77	0.11883443
165	0x3e5ea7ea	0.21743742
166	0xbd1c2cc0	-0.038128614
167	0xbb467dc4	-0.0030287364
168	0x3b5339b7	0.0032230446
169	0xbc5fe741	-0.013665975
170	0xbe0cd3eb	-0.13752715
171	0x3d84b56e	0.064799175
172	0x3d9ffe1b	0.07812139
173	0x3def017e	0.116702065
174	0x3dfd018b	0.1235381
175	0x3db0c900	0.08632088
176	0x3dcaacf2	0.09896268
177	0x3e0f1dd9	0.1397623
178	0x3e11b0ca	0.14227596
179	0x3deada41	0.1146741
180	0x3e7f164a	0.24910846
181	0x3d76e115	0.06027325
182	0xbd903d05	-0.070428886
183	0xbe96fb6d	-0.29488698
184	0x3ec53e8a	0.38524276
185	0x3e9b2d3b	0.30307946
186	0x3eabf1e9	0.33583
187	0xbc4f578c	-0.01265515
188	0x3be3c1a1	0.0069505726
189	0x3df3f2e7	0.11911564
190	0xbd63123c	-0.05543731
191	0xbe00086e	-0.12503216
192	0xbeeb3541	-0.45939067
193	0x3e63b903	0.22238545
194	0x3e00daaf	0.12583421
195	0x3e0700c6	0.13183889
196	0xbe0e3978	-0.1388911
197	0xbdbf9adf	-0.09355711
198	0x3dd84466	0.10559921
199	0x3dc59e6b	0.096493565
200	0x3caf8692	0.021426473
201	0xbc475da5	-0.012168323
202	0x3e138674	0.14406759
203	0x3d84fe9d	0.06493876
204	0x3d583edb	0.05279432
205	0x3dc4f41b	0.09616872
206	0x3bdaf094	0.006681511
207	0x3cd00b92	0.025396142
208	0x3d0a96da	0.03383527
209	0x3ddd3854	0.10801759
210	0x3e12ebc1	0.14347745
211	0xbe08a05d	-0.13342424
212	0xbdb148d8	-0.08656472
213	0xbc97c57c	-0.018526785
214	0xbd7ee934	-0.06223412
215	0x3e24d485	0.16096695
216	0xbd073df0	-0.033018053
217	0xbd959faa	-0.07305844
218	0xbd14553e	-0.036214106
219	0xbd532c4d	-0.05155592
220	0xbd0c3018	-0.034225553
221	0xbe10014e	-0.14062998
222	0x3c86fd6d	0.016478265
223	0xbc690720	-0.01422289
224	0x3e6d9125	0.231999
225	0xbc1b529a	-0.009480143
226	0x3ce1c12b	0.02755793
227	0x3db47d1e	0.08812927
228	0xbd73883c	-0.059456095
229	0x3ee9063c	0.4551257
230	0xbee1a6fe	-0.44072717
231	0x3d665fab	0.05624358
232	0xbf0c2fe2	-0.54760563
233	0x3e91cb62	0.2847548
234	0x3d5821b5	0.05276652
235	0x3d92dc6e	0.0717095
236	0x3d846254	0.06464067
237	0x3dab1fc0	0.08355665
238	0x3e3f0c12	0.18656948
239	0xbe1cd0c0	-0.15314007
240	0x3dc04c97	0.09389608
241	0xbe001f67	-0.12511979
242	0x3e4e18d2	0.20126656
243	0x3c53e87d	0.0129338475
244	0x3e01d4c5	0.12678821
245	0x3df19c7c	0.11797425
246	0x3ad0e371	0.0015936923
247	0xbd8fca1b	-0.070209704
248	0xbbdb9f71	-0.0067023565
249	0xbe06e819	-0.13174476
250	0xbce1b8bf	-0.027553914
251	0xbd53c5cf	-0.051702317
252	0xbe47e894	-0.19522315
253	0x3df09f60	0.11749148
254	0x3e9aa8de	0.3020696
255	0xbe30568e	-0.17220518

conv1.bias f4 [32]
0	0xbda67f7a	-0.08129783
1	0x3e03d83c	0.12875456
2	0x3e139acc	0.14414519
3	0x3c21c3b3	0.0098733185
4	0xbe0ae196	-0.13562617
5	0x3cb7fb06	0.022458564
6	0x3c67763b	0.014127309
7	0x3df14da7	0.11782389
8	0x3d7ebd5b	0.062192302
9	0xbda4c046	-0.08044486
10	0x3ea1dd78	0.3161428
11	0xbd03501b	-0.032058816
12	0xbe0134b3	-0.1261776
13	0xbc6c6ceb	-0.014430265
14	0x3c185e7b	0.00929987
15	0x3e886bb4	0.2664467
16	0xbd1d26ec	-0.038367197
17	0x3e83db39	0.2575319
18	0xbc3054fc	-0.010762449
19	0x3cfbc659	0.030734228
20	0x3e97f336	0.29677743
21	0xbbe7a47e	-0.0070691695
22	0xbd6a423c	-0.057192072
23	0x3c203d91	0.009780304
24	0xbbfc2a8d	-0.007695502
25	0x3e4edac0	0.20200634
26	0x3e8d02af	0.2754111
27	0xbb36791d	-0.0027843185
28	0xbd0bd297	-0.03413638
29	0xbdd80eed	-0.10549722
30	0x3dde0c5a	0.108421996
31	0xbe07b920	-0.13254213

conv2.weight f4 [64, 32, 3, 3]
0	0x3dd32b17	0.10310953
1	0x3e0634fc	0.1310615
2	0x3e16340b	0.1466829
3	0x3e17548b	0.14778344
4	0xbb8e715e	-0.0043470105
5	0x3e28ffa5	0.1650377
6	0xbc9bfd0b	-0.019041559
7	0x3da3db8f	0.08000862
8	0x3cc0c183	0.023529774
9	0x3e0839e8	0.1330334
10	0xbdfe44dc	-0.12415478
11	0xbd6b82fd	-0.057497967
12	0x3bcfecb5	0.0063453563
13	0xbd05b7bd	-0.03264593
14	0xbe2ae717	-0.16689716
15	0xba6aaf2f	-0.0008952496
16	0x3d91c7fb	0.07118221
17	0x3e315601	0.17317964
18	0xbc8fd3ae	-0.017556991
19	0x3ba108c4	0.004914375
20	0x3dd36154	0.10321298
21	0xbd85fbaf	-0.065421455
22	0x3cb8ffd9	0.022582935
23	0xbcb9fda5	-0.022703955
24	0xbd47d31b	-0.04878531
25	0xbdba6701	-0.09101678
26	0xbd388a34	-0.045053676
27	0x3d34755f	0.044057246
28	0x3dbc72b4	0.092015654
29	0xbbaefd87	-0.0053402814
30	0x3ca948d7	0.020664616
31	0xbdcda755	-0.10041682
32	0x3dc761c7	0.097354464
33	0xbe1ede2c	-0.1551444
34	0x3ded950b	0.11600693
35	0xbe029610	-0.12752557
36	0x3d0278ce	0.03185349
37	0x3c6664da	0.014062131
38	0x3ce0c824	0.027439184
39	0x3c383bab	0.011244695
40	0xbb2ebf1c	-0.0026664203
41	0x3cda700d	0.026664758
42	0xbcdae916	-0.026722472
43	0x3c0c2822	0.00855449
44	0x3d315834	0.043297008
45	0xbd5516e6	-0.05202379
46	0xbb244ce4	-0.0025070244
47	0xbb12c7f0	-0.0022397004
48	0x3d602fb1	0.054732982
49	0x3dd4fd09	0.10399825
50	0xbdab0c10	-0.0835191
51	0xbd7ebb47	-0.06219032
52	0xbbca005a	-0.0061645927
53	0xbe11fc32	-0.14256361
54	0x3dc758cf	0.09733736
55	0x3caabcb5	0.020841936
56	0xbc35b273	-0.011089909
57	0xbdfb41a5	-0.1226838
58	0x3d31ba18	0.043390363
59	0x3d9b76e4	0.07591036
60	0xbcaf2b65	-0.021382997
61	0x3e17f9b8	0.14841354
62	0x3d1dfd22	0.038571484
63	0xbd00bf75	-0.031432588
64	0xbe0f46d8	-0.13991868
65	0x3d62a4c6	0.05533292
66	0x3da3386a	0.079697445
67	0x3dc08da6	0.09402017
68	0xbe663fbf	-0.22485255
69	0x3e75aafe	0.2399101
70	0x3d2b3b07	0.04180434
71	0xbdd5c9af	-0.10438859
72	0xbd1d2aac	-0.038370773
73	0x3d93b444	0.07212117
74	0xbd873285	-0.06601433
75	0x3db53c5f	0.088494055
76	0x3d7daf1a	0.061934568
77	0xbd4c9730	-0.04994887
78	0xbd97c692	-0.07410921
79	0x3dc108b6	0.094254896
80	0x3de0c92a	0.10975869
81	0xbd4b8059	-0.04968295
82	0x3daee815	0.0854036
83	0x3c39e287	0.011345512
84	0xbd748dbd	-0.059705485
85	0xbd6a6c70	-0.05723232
86	0x3cee719b	0.029106906
87	0xbd332bdb	-0.043742996
88	0x3cd258c4	0.025677092
89	0x3d6de81b	0.05808268
90	0x3caf481a	0.021396685
91	0xbdb5a5b5	-0.08869497
92	0x3d16d828	0.036827236
93	0x3dc19056	0.09451358
94	0xbd594043	-0.0530398
95	0xbd8bb87c	-0.06822297
96	0x3d44766c	0.0479645
97	0x3db5b795	0.08872906
98	0x3de14c90	0.11000931
99	0xbc9e3857	-0.019313974
100	0xbd91fb32	-0.0712799
101	0x3d74e608	0.059789687
102	0x3d477830	0.048698604
103	0x3d2ed2b1	0.0426814
104	0x3ddd2546	0.10798125
105	0xbd48feef	-0.04907125
106	0xbbcc6956	-0.006238143
107	0x3c9e8e56	0.01935498
108	0xbcce42f1	-0.025178405
109	0xbd1c0189	-0.0380874
110	0xbcbfaafa	-0.023396958
111	0x3ceea137	0.029129608
112	0xbdb2193c	-0.08696219
113	0x3d9c3b65	0.07628516
114	0xbdcfb6f1	-0.10142315
115	0x3c67202f	0.014106794
116	0x3dce59b9	0.10075707
117	0xbd70bd63	-0.058774363
118	0x3b0056bf	0.0019582955
119	0x3d85aa00	0.065265656
120	0x3e4aa845	0.19790752
121	0x3b1882df	0.0023271365
122	0xbd2aff7b	-0.04174755
123	0x3e254126	0.16138133
124	0xbd931da7	-0.0718339
125	0x3e00217a	0.1251277
126	0xbcfe1a76	-0.031018477
127	0x3e54c7e6	0.2077938
128	0x3e1e7c1c	0.15477031
129	0xbd34ee5c	-0.04417263
130	0x3d9d573e	0.07682656
131	0x3d8dbbdb	0.06920596
132	0xbce632ad	-0.028100336
133	0xbe4adfd2	-0.19811943
134	0xbd813714	-0.063093334
135	0xbcb2cef8	-0.021827206
136	0x3d034b64	0.03205432
137	0x3b2f520a	0.002675178
138	0xbc6d3c98	-0.014479779
139	0xbd5f8c9d	-0.05457746
140	0x3db97e15	0.09057251
141	0xbdb78dbb	-0.0896258
142	0x3d5a05c3	0.05322815
143	0x3da4a837	0.08039897
144	0xbd965c3e	-0.073418126
145	0xbd916e26	-0.07101087
146	0xbdd1e9f0	-0.10249698
147	0xbd1e022c	-0.03857629
148	0x3d57e821	0.05271161
149	0x3c580d60	0.013186783
150	0x3d6c7a89	0.057734046
151	0x3e5beb79	0.21476544
152	0x3e15d3a6	0.14631519
153	0x3d580860	0.052742362
154	0x3d6bcd8b	0.057569068
155	0xbd67fdba	-0.056638457
156	0x3b809d9c	0.0039250385
157	0xbcad6ba5	-0.021169493
158	0xbd813c91	-0.0631038
159	0x3d5688e2	0.052376635
160	0xbca89e56	-0.020583313
161	0x3d4a5a04	0.04940225
162	0xbcd92d6a	-0.026510913
163	0x3d7bcf51	0.06147701
164	0xbd25a9c1	-0.040445093
165	0x3e2be387	0.16786014
166	0x3e1c9211	0.15290095
167	0xbd5a50b0	-0.053299606
168	0xbce10de4	-0.027472444
169	0x3b2e7774	0.0026621493
170	0xbdb4643a	-0.08808179
171	0xbde8d2a8	-0.113683045
172	0x3d39c022	0.045349248
173	0x3d2bf1a3	0.04197849
174	0x3d819d0e	0.06328784
175	0xbcf9b1a8	-0.03048022
176	0xbc247014	-0.010036487
177	0x3d9ce48d	0.0766078
178	0xbc4dfd90	-0.012572661
179	0xbe35850f	-0.17726539
180	0xbdabf2a5	-0.0839589
181	0xbd3ff3a3	-0.04686321
182	0xbc8b2b44	-0.016988404
183	0x3da4be73	0.08044138
184	0xbdf15b73	-0.11785021
185	0xbdf5b9f4	-0.11998358
186	0x3d5eca34	0.054392055
187	0xbd8cdfe0	-0.06878638
188	0x3cf441aa	0.029816467
189	0x3e50193f	0.2032213
190	0x3e2a31bd	0.16620536
191	0x3ddc165f	0.107464544
192	0x3ccb86b0	0.024844497
193	0xbd4e6912	-0.05039317
194	0xbd8bb416	-0.06821458
195	0xbe56cf83	-0.20977597
196	0xbece1799	-0.4025238
197	0x3d898235	0.06714288
198	0x3de07039	0.10958905
199	0xbb5acb96	-0.0033385507
200	0x3bfb7209	0.007673506
201	0x3d4dab4f	0.0502122
202	0xbbf86ac3	-0.0075810864
203	0x3d5bad5c	0.053632125
204	0xbdb2bc95	-0.087273754
205	0xbd1260ea	-0.035736956
206	0x3d8670ff	0.06564521
207	0xbaf4d22d	-0.001867836
208	0x3dbe9388	0.09305483
209	0xbd84981c	-0.06474325
210	0xbd291098	-0.04127559
211	0x3da9a7f7	0.0828399
212	0x3d8460a0	0.06463742
213	0xbddb41e1	-0.10705925
214	0x3d7687d4	0.06018813
215	0xbe2e9226	-0.17047939
216	0x3d1c408c	0.038147494
217	0x3e3496ab	0.176356
218	0x3b485e99	0.0030573963
219	0x3de068bf	0.10957479
220	0x3d2cd307	0.04219344
221	0xbd93d0f9	-0.07217593
222	0x3d76f05e	0.060287826
223	0xbde9a7e4	-0.11408976
224	0xbca80e6f	-0.020514695
225	0xbd7c36bd	-0.06157564
226	0x39b25960	0.00034017395
227	0xbd32e66e	-0.043676786
228	0xbe156c9e	-0.14592215
229	0xbc07a106	-0.008278137
230	0x3e06545a	0.13118115
231	0xbe3d7619	-0.18502082
232	0x3d437ac6	0.047724508
233	0x3e75dd0c	0.24010104
234	0xbdafb88d	-0.08580122
235	0x3d72d12b	0.05928151
236	0xbc89b49b	-0.016809752
237	0x3d4de545	0.050267477
238	0xbcf238c6	-0.029568087
239	0xbc23ce8d	-0.009997976
240	0xbd9f0d45	-0.07766203
241	0xbe6bf46b	-0.23042457
242	0x3dd1fc81	0.102532394
243	0xbae692d7	-0.0017591369
244	0xbd5912df	-0.052996513
245	0xbd3abed9	-0.045592163
246	0x3d82df80	0.063902855
247	0xbcf2b0b0	-0.029625267
248	0x3cf496ef	0.029857127
249	0x3dca47df	0.098769896
250	0x3cb6805b	0.022278002
251	0x3da106a8	0.07862598
252	0x3ba47267	0.0050185206
253	0x3d3c8102	0.04602147
254	0xbc94764f	-0.01812282
255	0xbd68f03e	-0.056869738

conv2.bias f4 [64]
0	0xbd85a064	-0.06524733
1	0x3d912f0a	0.0708905
2	0xbcb447c2	-0.022006873
3	0xbd4e61de	-0.050386302
4	0x3dde0c61	0.10842205
5	0xbd29f41c	-0.041492566
6	0x3bb3911a	0.005479944
7	0xbc11a7cd	-0.0088901045
8	0x3c0287c7	0.007966942
9	0x3ad2280f	0.0016033667
10	0x3d0cb159	0.03434882
11	0xbad9c9b2	-0.0016615896
12	0x3d752ace	0.059855275
13	0x3d0927a1	0.03348506
14	0xbd272cc9	-0.040814195
15	0x3cdf74a5	0.0272773
16	0x3d1d1d14	0.03835781
17	0xbcbb8549	-0.022890704
18	0x3cff20d4	0.031143583
19	0x3dc7da32	0.09758414
20	0x3bb54c33	0.0055327653
21	0x3d5d6de6	0.054059885
22	0x3d3dccab	0.046337765
23	0xbd936da1	-0.071986444
24	0x3d07d018	0.033157438
25	0x3d20c73e	0.039252512
26	0x3c6b7ac5	0.014372532
27	0x3da78114	0.081789166
28	0x3cb3f9fc	0.021969788
29	0x3d52b157	0.051438656
30	0x3d459813	0.048240732
31	0x3ce58117	0.028015656
32	0x3cc71bee	0.02430531
33	0xbc542dc1	-0.012950362
34	0xbc69136b	-0.014225821
35	0xbcb45b80	-0.022016287
36	0x3d173af6	0.036921464
37	0x3aface91	0.0019135048
38	0x3d8d356e	0.068949565
39	0x3deecb8f	0.116599195
40	0x3dcf6625	0.101269044
41	0xbcdce0de	-0.026962694
42	0xbd98a1eb	-0.074527584
43	0xbd97d145	-0.07412962
44	0x3d3a0ab2	0.045420356
45	0xbcc66894	-0.024219789
46	0x3b95c220	0.0045702606
47	0xbc5156f3	-0.012777078
48	0x3d7345e2	0.059392817
49	0xbbb6aa12	-0.005574473
50	0x3c9b3733	0.01894722
51	0xbc3214ec	-0.010869246
52	0x3d5b3b40	0.053523302
53	0x3da91af5	0.08257095
54	0xbbf4f78e	-0.0074758
55	0x3d0f7343	0.03502203
56	0x3c37e598	0.011224173
57	0xbc881748	-0.016612664
58	0x3ca471fc	0.020073883
59	0xbc09bd9a	-0.008407021
60	0x3d1637b8	0.03667423
61	0xbd244c14	-0.040111616
62	0xbd35ce7d	-0.044386376
63	0x3b81d2c6	0.0039618937

conv3.weight f4 [128, 64, 3, 3]
0	0xbc8605c9	-0.01636018
1	0xbd334dbc	-0.043775305
2	0x3c43c7d7	0.011949501
3	0xbd553b2b	-0.05205838
4	0xbda4018c	-0.080081075
5	0x3caad37c	0.020852797
6	0x3b97bf9b	0.0046309954
7	0xbccf1df0	-0.02528283
8	0x3d80e265	0.06293181
9	0x3d342bc0	0.043987036
10	0xbc42767f	-0.011869072
11	0x3bb288a6	0.0054484187
12	0x3cc96b9b	0.024587443
13	0x3c88b099	0.01668577
14	0x3cd5ee10	0.026114494
15	0x3cb74ee9	0.022376494
16	0xbc9991a6	-0.018746208
17	0x3c9e8050	0.019348294
18	0x3c0a5092	0.008442061
19	0xbd42e5fb	-0.047582608
20	0xbd00177a	-0.03127239
21	0x3cc67dcd	0.024229908
22	0x3d637f76	0.055541478
23	0x3cab4b57	0.020909948
24	0xbcf49171	-0.029854508
25	0x3d2f8850	0.042854607
26	0xbd280b76	-0.041026555
27	0x3d5e0a66	0.054209135
28	0x3d19fb3e	0.03759312
29	0x3ce41d2d	0.027845943
30	0x3dbc3161	0.09189106
31	0x3c3aa4d3	0.011391836
32	0x3d6670d3	0.05625994
33	0x3d859bbf	0.06523847
34	0x3da4bb03	0.08043482
35	0x3d281ef9	0.041045163
36	0x3d322c89	0.043499503
37	0x3d91cdd7	0.07119339
38	0x3cf60169	0.03002997
39	0xbb599462	-0.0033200015
40	0x3cd862f5	0.026414374
41	0x3d803fa1	0.06262136
42	0x3d043f46	0.032286905
43	0x3d6756a7	0.056479122
44	0x3d20328a	0.039110698
45	0x3bc89e70	0.006122403
46	0x3d7e89f7	0.062143292
47	0x3bdd99f2	0.0067627365
48	0x3d060afc	0.03272532
49	0x3c9e8dc2	0.019354705
50	0x3ca041b9	0.019562589
51	0xbb4d3ba7	-0.0031316073
52	0x3aaaafec	0.00130224
53	0x3cf6f967	0.030148221
54	0xb99eaa66	-0.00030263065
55	0x3cc4c8f1	0.024021598
56	0xbbbbca98	-0.005730938
57	0x3d26ae34	0.040693477
58	0x3d4a3610	0.049367964
59	0x3c87af2b	0.016563019
60	0x3d554e92	0.052076884
61	0x3d005c1f	0.031337854
62	0x3c15c186	0.009140378
63	0x3c7e9fb8	0.01554101
64	0xbc73f863	-0.014890763
65	0xbb18a461	-0.0023291337
66	0x3cead750	0.028667122
67	0xbb83db8c	-0.0040239748
68	0x3cb800dc	0.022461347
69	0x3b27991f	0.0025573445
70	0x3cf5bd32	0.029997442
71	0x3d2dea43	0.042459738
72	0x3c55c5d7	0.013047657
73	0x3ca4ac58	0.020101711
74	0x3a52e7e2	0.00080454175
75	0x3d219e16	0.039457403
76	0x3bf401f1	0.0074465205
77	0xbcc55a23	-0.024090832
78	0x3da0e3e2	0.07855965
79	0x3cd8aa07	0.026448263
80	0xbc939720	-0.018016398
81	0x3d868701	0.06568719
82	0x3d41c56c	0.047307417
83	0x3cb13806	0.02163316
84	0x3d6e6e28	0.058210522
85	0x3cd66747	0.026172293
86	0xbb9bbc81	-0.004752696
87	0x3d850a1f	0.06496071
88	0xbcacc2f5	-0.021089057
89	0x3c970afa	0.018437851
90	0x3c8abff8	0.016937241
91	0xbd29489e	-0.04132902
92	0x39687be8	0.00022171403
93	0xbbaec366	-0.005333352
94	0xbcfc1d61	-0.030775728
95	0x3d668db9	0.0562875
96	0x3cd648e8	0.026157811
97	0x3c184a37	0.009295038
98	0xbbda0252	-0.0066531086
99	0x3cf0e2c2	0.029405002
100	0xbd1475c4	-0.036245123
101	0x3cdbac11	0.026815446
102	0x3d32b7b4	0.043632224
103	0x3d8e38a0	0.06944394
104	0x3ac62b2d	0.0015119069
105	0xbc95b355	-0.018273989
106	0x3da4cf69	0.08047373
107	0xbc533ab2	-0.012892412
108	0x3c7e6e8e	0.015529288
109	0x3c524a1e	0.012835054
110	0xbc5f5d7d	-0.013633129
111	0x3d7dafb7	0.061935153
112	0x3cdae8d0	0.026722342
113	0x3d1c05be	0.038091414
114	0x3cfb2748	0.03065838
115	0x3c96ad67	0.018393232
116	0x3cf7edf2	0.030264828
117	0xbb7ef6a7	-0.003890434
118	0xbcc4fdb9	-0.024046766
119	0xbc6d2112	-0.014473217
120	0xbd04d80e	-0.03243261
121	0x3c64ccc4	0.013964836
122	0xbbde0393	-0.0067753284
123	0x3d29e7b1	0.041480724
124	0xbc53e44c	-0.012932848
125	0x3cf5deb1	0.030013414
126	0x3d3470a1	0.044052724
127	0x3c914d0f	0.01773694
128	0x3cd58d4c	0.026068352
129	0x3d2c1d17	0.04201993
130	0x3d6f477e	0.05841779
131	0x3d0f7277	0.03502127
132	0xb990d4f4	-0.00027624483
133	0xbc832b75	-0.016011933
134	0x3ceff3a9	0.02929099
135	0x3ca916cf	0.020640759
136	0x3c24df64	0.010063026
137	0x3c8668e3	0.016407436
138	0x3d8cc704	0.06873897
139	0xb7823cfe	-1.552561e-05
140	0xbc9c2e2e	-0.019064989
141	0xbc383d8f	-0.011245145
142	0x3d7bb94e	0.061456017
143	0x3b63d357	0.003476342
144	0xbc510486	-0.012757426
145	0x3d0acc7c	0.033886418
146	0xbc31c610	-0.010850444
147	0x3b39d4a0	0.0028355494
148	0x3cebf859	0.028804945
149	0x3d643268	0.055712134
150	0xbc0b05b9	-0.008485251
151	0x3d4317bf	0.047630068
152	0xbd950b51	-0.07277549
153	0x3d92835c	0.07153961
154	0xbce86afc	-0.028371327
155	0x3cf2e9e0	0.029652536
156	0xbcc07c67	-0.02349682
157	0xbd034649	-0.03204945
158	0xbc9ba31d	-0.018998677
159	0x3d348c6d	0.044079233
160	0xbd2538ff	-0.04033756
161	0x3cf2dac8	0.029645339
162	0xbc4cfaf4	-0.012511004
163	0x3d170cfd	0.03687762
164	0xbbbf004f	-0.005828894
165	0xbd0dd451	-0.03462631
166	0xbda887e0	-0.08229041
167	0x3d93009d	0.07177851
168	0x3bfbd084	0.007684769
169	0x3d391250	0.04518348
170	0x3cd42d66	0.025900554
171	0x3c90c2ad	0.017670954
172	0x3cde751c	0.027155451
173	0x3d0fb97a	0.035088994
174	0x3d197682	0.037466533
175	0x3d0d6677	0.034521546
176	0x3cd30e13	0.025763547
177	0x3cab9601	0.02094555
178	0x3d3b06e4	0.04566087
179	0x3c209843	0.009801927
180	0x3cc8247e	0.024431463
181	0xbc9108a4	-0.017704315
182	0x3d2b935e	0.041888587
183	0x3bbcc732	0.0057610506
184	0xbbd61dc1	-0.0065343087
185	0xbc0fa645	-0.008767669
186	0xba7409b6	-0.00093093084
187	0x3c4b5657	0.012410722
188	0xbcebd3c5	-0.028787503
189	0x3d4ae4a7	0.049534466
190	0x3d8fa457	0.07013767
191	0xbd2f767a	-0.042837597
192	0xbceee64c	-0.029162548
193	0xbc47b365	-0.012188767
194	0x3d96703f	0.07345628
195	0xbd8ee5c8	-0.06977421
196	0x39fe906c	0.00048554258
197	0x3d529772	0.05141396
198	0x3cd60345	0.026124606
199	0x3da3c966	0.07997398
200	0xbd6ef70c	-0.05834107
201	0x3d00130d	0.03126817
202	0x3ca1a7c6	0.01973332
203	0xbccf2366	-0.025285434
204	0xbc010444	-0.007874552
205	0x3d859d07	0.06524091
206	0xbd7d61ef	-0.061860975
207	0xbd1eaf39	-0.038741324
208	0xbadfe67e	-0.0017082242
209	0x3cd68e0d	0.026190782
210	0x3d3a6738	0.045508593
211	0x3c55edd1	0.013057188
212	0x3baf102c	0.005342504
213	0xbccf7e9a	-0.025328923
214	0x3c3fe1b9	0.011711531
215	0xbd5cde64	-0.053923026
216	0xbc7d77b4	-0.015470434
217	0x3d4362e8	0.047701746
218	0xbc247a98	-0.010038994
219	0x3cd1fccf	0.025633244
220	0xbbc24ce4	-0.0059295762
221	0x3c9dbb65	0.019254396
222	0xbcf164a1	-0.029466929
223	0x3b64eed6	0.0034932396
224	0x3d08b161	0.033372287
225	0xbc39adff	-0.011332988
226	0x3ca34fc2	0.019935492
227	0x3b9399bb	0.00450441
228	0x3d07203f	0.032989737
229	0x3ceed2d3	0.029153263
230	0x3cef16e8	0.029185727
231	0xbd07d15d	-0.03315865
232	0x3c5414c6	0.012944406
233	0x3ccc7b83	0.024961239
234	0x3d03e34f	0.0321992
235	0x3d7a250b	0.061070483
236	0x3d0a0a34	0.033701137
237	0xbd33b9da	-0.043878414
238	0xbd44915d	-0.04799019
239	0xbd0513da	-0.032489635
240	0xbd6391af	-0.055558857
241	0x3c637c9d	0.013884691
242	0xbc1d5fd3	-0.009605366
243	0x3d0bf4e8	0.034169108
244	0xbb90c76b	-0.0044183037
245	0x3c3c9e20	0.011512309
246	0x3d661853	0.05617554
247	0xb9040eca	-0.0001259401
248	0xbcab7481	-0.020929577
249	0x3c05a47e	0.008156894
250	0x3d32ded2	0.04366953
251	0x3cf19444	0.029489644
252	0xbc3ed40a	-0.011647234
253	0xbcb292c0	-0.021798491
254	0xbd9ec411	-0.077522404
255	0x3d4be587	0.04977944

conv3.bias f4 [128]
0	0x3c99ab1e	0.018758353
1	0x3d116b2d	0.0355026
2	0xbd2be06d	-0.041962076
3	0xba0ce22c	-0.00053742784
4	0x3bcfccf3	0.0063415705
5	0x3d4d61fa	0.050142266
6	0xb7387d24	-1.0996391e-05
7	0xba4d4f9c	-0.0007831992
8	0xbca3653c	-0.019945733
9	0x3caa5498	0.02079229
10	0x3d3ac83d	0.04560112
11	0x3c7f24c1	0.015572728
12	0x3cdebd34	0.027189828
13	0xbbbe01cf	-0.0057985554
14	0xbce200fa	-0.027588356
15	0x3c76a51a	0.015054012
16	0xbca4ce48	-0.020117894
17	0x3ca6ed8c	0.020376943
18	0xb3cb8fa9	-9.479056e-08
19	0xb1f16e12	-7.0265367e-09
20	0x3ce80193	0.028321063
21	0x3b89e300	0.0042079687
22	0x3ce354cf	0.0277504
23	0xbd334061	-0.04376257
24	0xb8e94340	-0.00011122832
25	0xbd64a11e	-0.055817716
26	0xbbb19243	-0.005419047
27	0xb6065afb	-2.0020514e-06
28	0x3ca3356b	0.019922933
29	0x3cef162c	0.029185377
30	0x913b3f7a	-1.4771259e-28
31	0x3cd26879	0.025684582
32	0xbb0c5f6a	-0.0021419176
33	0xbc9a2a8c	-0.018819116
34	0x3c4f4e64	0.012652967
35	0x3cc5ab54	0.024129547
36	0xbd2d96f9	-0.042380307
37	0xbb7d609c	-0.003866232
38	0xbaabcff7	-0.0013108243
39	0xb7f5c6d7	-2.9298868e-05
40	0xbd861646	-0.06547217
41	0xbc131f85	-0.008979683
42	0x3d1c8349	0.03821114
43	0xbc61726d	-0.013760191
44	0xbbdbcdad	-0.006707868
45	0x3b6040a5	0.0034218219
46	0x3c9f716e	0.019463267
47	0xb88834d1	-6.494823e-05
48	0xbd0bea01	-0.03415871
49	0x3c709efb	0.014686341
50	0xbc230b2e	-0.009951396
51	0x39f1403b	0.00046014957
52	0x3ad5fa79	0.0016325257
53	0xbc86d186	-0.01645733
54	0xb62daddd	-2.588021e-06
55	0xbca26c36	-0.01982699
56	0xbbe69638	-0.0070369504
57	0xbcff4ea1	-0.031165423
58	0x3cacf75d	0.021114046
59	0x3c962e80	0.01833272
60	0x3d044c43	0.03229929
61	0xbd062dc9	-0.032758508
62	0x3cfcade9	0.030844646
63	0xa7f40eca	-6.773964e-15
64	0x3c217efd	0.0098569365
65	0x3d8ac613	0.06776061
66	0x3c46e8e4	0.012140486
67	0x3cf4decb	0.029891392
68	0xbd15b74e	-0.036551766
69	0xbce53e65	-0.027983854
70	0x3cf5543a	0.029947389
71	0xbc1da4dd	-0.009621826
72	0xbc355238	-0.011066966
73	0x3d31293d	0.04325222
74	0xbd028338	-0.03186342
75	0xbbc29204	-0.0059378166
76	0x3c909dd3	0.017653381
77	0xb6410231	-2.8760517e-06
78	0x3d3b080d	0.045661975
79	0xbbbec1aa	-0.0058214264
80	0x3d2fae12	0.042890616
81	0x3d4da43e	0.05020546
82	0xab6a0dee	-8.315283e-13
83	0xbb0e604e	-0.0021724883
84	0x3d7e9cdf	0.062161323
85	0x3d15bf0d	0.036559153
86	0xbcbffe45	-0.023436675
87	0xbcf1bcae	-0.029508915
88	0xbd0c1d85	-0.03420784
89	0x3bea833c	0.0071567576
90	0x3bde2ae4	0.0067800153
91	0xbd278fe6	-0.040908717
92	0x3b514b75	0.0031935845
93	0x3d43527c	0.047686085
94	0x3c84a88a	0.016193647
95	0x3c65402e	0.013992352
96	0xb20febbe	-8.377297e-09
97	0xbc048dc6	-0.008090442
98	0xb1791cfe	-3.625075e-09
99	0xbd4e4db5	-0.050367076
100	0xbd6890e4	-0.056778803
101	0x3c44d1b6	0.01201289
102	0xb4c9e4db	-3.7605682e-07
103	0x3d8248ba	0.06361528
104	0x3d4d9f55	0.05020078
105	0x3c132a65	0.008982276
106	0x3d6b3a3b	0.05742858
107	0xb820aaaa	-3.8305916e-05
108	0xba761f3b	-0.0009388809
109	0xbbffa9d5	-0.007802228
110	0x3d45e1f6	0.048311196
111	0xbb1da606	-0.0024055257
112	0x3c8d18cb	0.017223736
113	0x3cf0ccac	0.02939447
114	0x3c54f2d5	0.012997349
115	0xa3d6c6b9	-2.3286089e-17
116	0x3cbaca95	0.022801677
117	0xbd28cc72	-0.0412106
118	0xba1c4a6f	-0.0005962019
119	0xbc8baf41	-0.017051341
120	0x3c14dffc	0.009086605
121	0xbc1cd113	-0.009571332
122	0xbddaebe9	-0.106895275
123	0xb424d345	-1.535055e-07
124	0x3d922c1d	0.0713732
125	0xbc81186b	-0.015758714
126	0xbcd125b1	-0.025530668
127	0x3c03dce0	0.008048266

act_conv1.weight f4 [4, 128, 1, 1]
0	0x3ca453f1	0.020059558
1	0x3e01fb48	0.12693512
2	0xbde726c7	-0.11286693
3	0x3d5bca74	0.05365987
4	0x3e2df0e4	0.16986424
5	0xbdd2976c	-0.10282788
6	0x3ba06322	0.00489463
7	0x3ae66c30	0.001757985
8	0xbdb5c296	-0.08875005
9	0x3df25ed0	0.1183449
10	0xbd400c55	-0.04688676
11	0x3da1b4d6	0.0789582
12	0x3d8582c5	0.06519083
13	0xbcc33cf7	-0.023832781
14	0xbd320e9c	-0.043470964
15	0x3d04d3b0	0.032428443
16	0x3d56073f	0.052253004
17	0x3e09cff3	0.13458233
18	0x3ae54a23	0.0017493408
19	0x800089d2	-4.944e-41
20	0x3dab2876	0.08357327
21	0x3d98687e	0.07441805
22	0x3dc9b360	0.09848666
23	0x3e485d65	0.19566877
24	0x80008ac2	-4.9777e-41
25	0xbd540a90	-0.051767886
26	0xbbabb055	-0.0052395263
27	0x0000897a	4.9317e-41
28	0x3c6b37b1	0.01435654
29	0x3d398123	0.04528917
30	0x1b5d7587	1.8318667e-22
31	0x3d13ee74	0.03611608
32	0xbd54df6c	-0.051970884
33	0x3b9c4438	0.0047688745
34	0x3e7a9aef	0.24473165
35	0x3d455345	0.048175115
36	0x3e130f9e	0.14361426
37	0xbd92ce1a	-0.07168217
38	0x3b55fc31	0.0032651538
39	0x000088c1	4.9058e-41
40	0x3dab2cc9	0.083581515
41	0x3d9e2e29	0.07723648
42	0x3d86f76e	0.06590162
43	0xbe35d823	-0.17758231
44	0xbdfc1714	-0.12309089
45	0x3d0101c6	0.031495832
46	0x3d9c121d	0.07620642
47	0xba3d0ebb	-0.0007211973
48	0x3e27f626	0.16402492
49	0xbdb45760	-0.08805728
50	0x3e4b2113	0.19836836
51	0x3ea31832	0.31854397
52	0x3da4218b	0.0801421
53	0xbd090413	-0.03345115
54	0x000088f0	4.9124e-41
55	0xbd00eb51	-0.031474415
56	0xbd754e18	-0.05988893
57	0xbd895157	-0.067049675
58	0xbc3b7ccb	-0.011443327
59	0xbcd88930	-0.026432604
60	0xbdac602d	-0.084167816
61	0xbc374450	-0.011185721
62	0xbe0934bb	-0.13399021
63	0xba7570b2	-0.0009362801
64	0x3dc50aa5	0.09621171
65	0x3e939efb	0.2883223
66	0x3c45692e	0.012049003
67	0x3e12dac2	0.14341262
68	0x3dfa7bb5	0.122306265
69	0xbde03645	-0.10947851
70	0x3dce0662	0.10059811
71	0x3e069d68	0.13145983
72	0xbd022e18	-0.03178224
73	0xbcdb22c2	-0.026749972
74	0x3d215ec5	0.03939702
75	0x3e335ae9	0.17515148
76	0x3d5af186	0.05345299
77	0xaf573aee	-1.9575072e-10
78	0xbcd30c39	-0.025762664
79	0x3ea3a622	0.31962687
80	0x3c53a64f	0.012918069
81	0x3d94d185	0.07266525
82	0x8000897b	-4.9319e-41
83	0xbcd81700	-0.026378155
84	0xbdf6cf28	-0.12051231
85	0x3defddf4	0.11712256
86	0x3d78a15c	0.06070076
87	0xbd816031	-0.06317175
88	0x3d882d9d	0.06649325
89	0x3d9b7a26	0.07591657
90	0x3da51cd7	0.080621414
91	0xbe04e494	-0.1297782
92	0x3a26ae36	0.0006358357
93	0x3c50cb65	0.012743806
94	0xbd177eee	-0.036986284
95	0x3da261f7	0.079288416
96	0x80008a87	-4.9694e-41
97	0x3e136264	0.14393002
98	0xbbc6bc3d	-0.00606492
99	0xbe3d5a5d	-0.18491502
100	0x3c12813c	0.008941945
101	0x3df6db96	0.120536014
102	0xbb2f7b9f	-0.0026776565
103	0x3c07a8b4	0.008279968
104	0xbdfb69ad	-0.122760154
105	0xbc93e35d	-0.018052751
106	0x3df2df7a	0.11859031
107	0x80008a20	-4.955e-41
108	0x3b523846	0.0032076999
109	0x800089f6	-4.9491e-41
110	0x3df0093c	0.11720511
111	0xbe131aaa	-0.1436564
112	0x3d049146	0.032365106
113	0x3dfccec8	0.12344128
114	0x3e4648e9	0.1936375
115	0x00008ac3	4.9778e-41
116	0x3dbbb98e	0.09166251
117	0xbcb34685	-0.021884212
118	0x800088d1	-4.908e-41
119	0xbd88c29a	-0.06677742
120	0xbda9744f	-0.08274137
121	0x3e84e13a	0.25953084
122	0xbd325527	-0.04353824
123	0x8000895c	-4.9275e-41
124	0xbd587305	-0.052844066
125	0xbdbb5fcd	-0.09149132
126	0x3e0eefed	0.13958712
127	0xbd16c75b	-0.036811214
128	0x3c080531	0.008302019
129	0xbd3c9acd	-0.046046067
130	0x3dc2b78c	0.09507665
131	0xbcdceb71	-0.026967736
132	0xbdc800df	-0.09765791
133	0xbc12d722	-0.0089624245
134	0xbbff0b3a	-0.0077833207
135	0xb92f892b	-0.000167404
136	0xbe475a4f	-0.19468044
137	0xbb8a5be5	-0.0042223805
138	0xba8e81ee	-0.0010872462
139	0xbd532f9f	-0.051559087
140	0xbd000ae4	-0.031260386
141	0xbd87993f	-0.06621026
142	0x3d92583a	0.07145734
143	0xbe5525ff	-0.20815276
144	0xbe16eb43	-0.14738183
145	0xbdcd75da	-0.10032244
146	0x000089f0	4.9483e-41
147	0x80009073	-5.1819e-41
148	0xbb852c40	-0.004064113
149	0xbd0d4bd4	-0.034496143
150	0xbc3e9fc1	-0.011634768
151	0x3e069577	0.13142954
152	0x800089f2	-4.9485e-41
153	0x3cee260d	0.029070878
154	0xba5e5b56	-0.0008482238
155	0x800088b9	-4.9047e-41
156	0x3e4d0e3d	0.20024963
157	0xbd25277a	-0.04032085
158	0x00008ad5	4.9804e-41
159	0x3ccd7bc3	0.025083428
160	0x3c800f7b	0.015632382
161	0x3b28aa99	0.002573645
162	0x3dc3125f	0.095249884
163	0xbd18cecd	-0.037306596
164	0xbde19801	-0.110153206
165	0x3e027f36	0.1274384
166	0xb97798c8	-0.00023612671
167	0x800089d3	-4.9442e-41
168	0x3ce4abeb	0.027914008
169	0xbe3b2f5b	-0.18279783
170	0x3d9c645a	0.07636328
171	0x3da7a430	0.08185613
172	0x3e5b440d	0.21412678
173	0x3bf6368d	0.007513827
174	0xbd2cbe28	-0.042173535
175	0xbbba6875	-0.005688722
176	0x3d8ebf12	0.069700375
177	0x3d842fe9	0.06454451
178	0x3aa405a7	0.0012513892
179	0x3d31c2ca	0.043398656
180	0xbdb66270	-0.08905494
181	0x3bcdf016	0.006284724
182	0x00008a49	4.9607e-41
183	0xbb444f09	-0.0029954335
184	0xb99eea8f	-0.00030310868
185	0x3d8e0d78	0.06936163
186	0x3d920ffb	0.07131954
187	0xbc7842cd	-0.015152645
188	0x3d9f56be	0.07780217
189	0xbe30ec4f	-0.17277645
190	0x3e6d59be	0.23178765
191	0xbb84977f	-0.00404638
192	0x3e8ae42c	0.27127206
193	0xbd70119d	-0.058610547
194	0x3c8a124c	0.016854428
195	0xbcb23910	-0.021755725
196	0x3d78f156	0.06077703
197	0x3db0d091	0.08633531
198	0x3e11819c	0.14209598
199	0x3def5b24	0.116873056
200	0xbc02adc7	-0.007976002
201	0xbc007a89	-0.007841715
202	0xbdd70804	-0.10499576
203	0xbe888ba4	-0.26669037
204	0x3e082855	0.13296635
205	0x800088e7	-4.9111e-41
206	0x3e6a63c8	0.22889626
207	0x3daf375d	0.085554816
208	0x3dcd04d4	0.100106865
209	0xbd1cbbab	-0.03826491
210	0x80008c22	-5.027e-41
211	0x3b24703d	0.0025091313
212	0x3c9450d4	0.018104948
213	0xbc84fef1	-0.016234847
214	0xbd5e9283	-0.054338943
215	0x3d85212e	0.06500469
216	0x3dfcaece	0.12338029
217	0x3d125a39	0.035730574
218	0x3d265cfd	0.040616024
219	0x3da71c2c	0.0815967
220	0x3ce2ece3	0.027700847
221	0xbd53585c	-0.051597938
222	0x3c6addda	0.01433512
223	0xbdaa2deb	-0.083095394
224	0x0000940a	5.3106e-41
225	0x3d7657e4	0.060142413
226	0x28e83704	2.5781033e-14
227	0x3d77d30f	0.060504016
228	0xbe1e5797	-0.154631
229	0xbd803080	-0.06259251
230	0x800088f3	-4.9128e-41
231	0xbc6ebbcf	-0.014571144
232	0x39de9956	0.00042457384
233	0x3d9e396f	0.07725798
234	0xbd1f8a1f	-0.038950082
235	0x80008b02	-4.9867e-41
236	0x80008926	-4.92e-41
237	0x0000a90c	6.0643e-41
238	0xbb7a94a4	-0.003823557
239	0x3d69a7ae	0.057044677
240	0x3d8b3c58	0.06798619
241	0xbd588e4a	-0.052870072
242	0xbe30059b	-0.17189638
243	0x00008afa	4.9855e-41
244	0xbcfbc09f	-0.030731497
245	0x3d8f939e	0.070105776
246	0x80008a95	-4.9714e-41
247	0xbd37919b	-0.044816595
248	0x3bdf54da	0.006815535
249	0xbb9aa711	-0.004719623
250	0x3db4ec97	0.088341884
251	0x80008a79	-4.9675e-41
252	0xbb7b028b	-0.0038301076
253	0x3d78461a	0.06061373
254	0x3d99c68d	0.07508574
255	0xbd360946	-0.044442438

act_conv1.bias f4 [4]
0	0x3d297680	0.041372776
1	0x3c050bbc	0.0081204735
2	0xbc98a85f	-0.018634973
3	0x3e0536c2	0.1300917

act_fc1.weight f4 [81, 324]
0	0x3d2df68a	0.042471446
1	0x3ce6fba7	0.028196169
2	0x3d1b8e39	0.03797743
3	0xbbf867b4	-0.0075807218
4	0x3c61d1c7	0.013782925
5	0x3c30c3ed	0.0107889
6	0x3b7297ab	0.003701667
7	0x3a0b7a41	0.00053206465
8	0xbd48ca01	-0.04902077
9	0x3d2618cd	0.040550996
10	0x3b7020a4	0.003664055
11	0xbd61e9a2	-0.05515445
12	0xbd7d2285	-0.0618005
13	0xbd041fbe	-0.032256834
14	0xbccedbfa	-0.025251377
15	0xbc85a178	-0.016312346
16	0xbaedec64	-0.0018152115
17	0xbbea096c	-0.0071422365
18	0x3cee6927	0.029102875
19	0x3c9f2cce	0.019430544
20	0xbd5087db	-0.050910812
21	0xbd80d31f	-0.06290268
22	0xbd5355c0	-0.05159545
23	0xbd9d6079	-0.07684416
24	0x3cf6e7d1	0.030139836
25	0x3ca43486	0.020044576
26	0x3c87ebb6	0.016591888
27	0x3d0c40d6	0.03424152
28	0xbd41bdf4	-0.047300294
29	0xbcb6954f	-0.022287993
30	0xbda5ef00	-0.08102226
31	0xbda26cb8	-0.07930893
32	0x3c630ddd	0.013858286
33	0xbdbaf01f	-0.09127831
34	0xbb64ba41	-0.0034901055
35	0xbcacfd94	-0.02111701
36	0xbc1e3bd2	-0.009657817
37	0xbcbcaccb	-0.023031613
38	0xbdaee721	-0.08540178
39	0xbde7f882	-0.11326696
40	0xbd23086d	-0.039802957
41	0xbdd477e3	-0.10374429
42	0xbda07fd9	-0.07836885
43	0xbcc42d63	-0.023947423
44	0xbd0b9cb1	-0.03408498
45	0x3d659777	0.05605265
46	0xbd3de4cd	-0.04636078
47	0xbd601084	-0.05470325
48	0xbdb63ea7	-0.08898669
49	0xbe2080b6	-0.156741
50	0xbd5022f7	-0.050814595
51	0xbd7cd551	-0.061726872
52	0xbd42eda1	-0.0475899
53	0xbc1fd99e	-0.009756474
54	0x3decd93b	0.11564871
55	0x3c3ac866	0.011400318
56	0xbdb6bc56	-0.08922641
57	0xbd55942c	-0.05214326
58	0xbd7577e5	-0.059928793
59	0xbd070e1f	-0.03297245
60	0xbd0966f5	-0.033545453
61	0xbd8a2b41	-0.06746531
62	0xbd06f97b	-0.032952767
63	0x3e87fc4a	0.2655967
64	0xbd8b476d	-0.06800733
65	0x3c944208	0.018097892
66	0xbcab8a98	-0.02094011
67	0xbdaf414b	-0.085573755
68	0xbc0469eb	-0.008081893
69	0xbc5a2d27	-0.013316429
70	0x3c27f34d	0.0102508785
71	0x3c69e6ba	0.014276201
72	0x3e8afad5	0.27144495
73	0x3e92ab3b	0.28646263
74	0xbca07e4a	-0.01959147
75	0x3b1fe2f7	0.0024396756
76	0x3c45ec7e	0.01208031
77	0xbc29cbcd	-0.010363531
78	0xbd0fe4fa	-0.03513048
79	0x3ccc3fae	0.024932709
80	0x3c9fb5d8	0.01949589
81	0xba95597a	-0.0011394464
82	0xbc4e8446	-0.012604779
83	0xbcc94441	-0.024568679
84	0x3d75abe3	0.059978377
85	0x3d68ccff	0.056836125
86	0xbd5d1586	-0.053975604
87	0xbd1d7d27	-0.038449433
88	0xbc94c47a	-0.018160094
89	0x3d348a4f	0.044077214
90	0xbc0fa5b3	-0.008767533
91	0xbb24dbb8	-0.0025155377
92	0xbd217746	-0.03942039
93	0x3d51684a	0.05112485
94	0x3cdfd1c6	0.027321707
95	0x3d7f12fa	0.062273957
96	0xbc241a4f	-0.010016038
97	0xbd8d1c9b	-0.06890222
98	0x3bfbf4ad	0.0076890797
99	0x3d235458	0.03987536
100	0x3c238064	0.009979341
101	0xbd26d542	-0.040730722
102	0x3c4b70f6	0.012417069
103	0xbc7b25ee	-0.015328867
104	0x3c919ec0	0.017775893
105	0x3cb27867	0.021785928
106	0x3cf742f8	0.0301833
107	0xbc9d55b7	-0.019205911
108	0x3d3ed89d	0.046593297
109	0xbd0729d2	-0.032998867
110	0xbd1136a6	-0.035452507
111	0xbd8b78db	-0.06810161
112	0x3cda7cf0	0.026670903
113	0xbd75ed19	-0.060040567
114	0xb957c10f	-0.00020575918
115	0xbb42a5cb	-0.002970087
116	0xbd8b55ce	-0.06803475
117	0x3cd1450d	0.025545621
118	0xb7bcca07	-2.2505423e-05
119	0xbd0a4801	-0.033760075
120	0x3d2e57ea	0.04256431
121	0xbc12ef1e	-0.008968143
122	0x3cec3d24	0.028837748
123	0xbd371d80	-0.044705868
124	0x3cbed4ea	0.023294885
125	0x3d1e6943	0.038674604
126	0xbdfae702	-0.122510925
127	0x3d48a4be	0.048985235
128	0x3d9849b3	0.07435932
129	0x3aba8dcc	0.0014232933
130	0xbd10f892	-0.035393305
131	0xbc238136	-0.009979537
132	0xba18d28f	-0.00058297155
133	0x3c121413	0.008915919
134	0x3de9dfa0	0.11419606
135	0xbaae691d	-0.0013306473
136	0xbd0db75c	-0.034598693
137	0x3c172754	0.009225685
138	0x3b8cac8a	0.004293029
139	0x3b4125d9	0.0029472022
140	0xbc8423d8	-0.016130373
141	0xbd3feb90	-0.04685551
142	0xbca10154	-0.019653954
143	0x3cde8640	0.027163625
144	0xbe4f4741	-0.20242025
145	0xbca32445	-0.019914756
146	0xbccdf573	-0.025141453
147	0xbc90da78	-0.017682299
148	0x3d6b8037	0.057495322
149	0xbbf8ad12	-0.007588991
150	0xbce24337	-0.027619941
151	0x3cb2be1b	0.021819165
152	0xbd2d9208	-0.042375594
153	0xbdfbf6c2	-0.12302925
154	0xbe093bc1	-0.134017
155	0x3c4ad645	0.012380187
156	0x3c46ff6e	0.01214586
157	0x3daf830a	0.085699156
158	0x3dbf5464	0.09342268
159	0x3d145381	0.036212448
160	0x3b4a744f	0.003089208
161	0x3d71e6e3	0.05905808
162	0x80008966	-4.9289e-41
163	0x28a87cad	1.8705816e-14
164	0x2b1b5db5	5.5197107e-13
165	0x30983a2a	1.1075987e-09
166	0x2e12e540	3.340017e-11
167	0x301a5e64	5.615901e-10
168	0x2c9af208	4.403814e-12
169	0x2dad2743	1.9685259e-11
170	0x2810fced	8.04845e-15
171	0x2985dd03	5.944726e-14
172	0x31b14818	5.159574e-09
173	0x34177e2a	1.4108869e-07
174	0x364310eb	2.9067112e-06
175	0x34abb396	3.1981898e-07
176	0x3559a08a	8.1072415e-07
177	0x331e0bff	3.6798152e-08
178	0x330a990e	3.226983e-08
179	0x2df35c31	2.7666843e-11
180	0x27b7bcf7	5.099758e-15
181	0x350f8524	5.3465396e-07
182	0x36a9af92	5.0570316e-06
183	0x37253bd1	9.8486935e-06
184	0x37111eb8	8.649826e-06
185	0x367ae72e	3.7387467e-06
186	0x36425612	2.8958352e-06
187	0x3508ab3d	5.091313e-07
188	0x30447065	7.1464107e-10
189	0x2c7bfb22	3.5808652e-12
190	0x3617532f	2.2549173e-06
191	0x35dce382	1.6457491e-06
192	0x37e215b1	2.69514e-05
193	0x36a23d76	4.835131e-06
194	0x36939676	4.3984573e-06
195	0x3587c95f	1.011689e-06
196	0x3365fb87	5.354698e-08
197	0x2da9170e	1.9223314e-11
198	0x28beb6a6	2.1173449e-14
199	0x352d0460	6.445389e-07
200	0x361e69b5	2.3605364e-06
201	0x37ecec9b	2.824357e-05
202	0x35621ee4	8.423651e-07
203	0x356e8b24	8.8864385e-07
204	0x31150c9b	2.168952e-09
205	0x2e447151	4.4665886e-11
206	0x28971917	1.6775249e-14
207	0x2568ce86	2.0192765e-16
208	0x353c707c	7.0199144e-07
209	0x3619591b	2.2850643e-06
210	0x373b08df	1.1148134e-05
211	0x3600484c	1.9115569e-06
212	0x336bfa06	5.4942596e-08
213	0xafb3bb7f	-3.2693134e-10
214	0xacae8d39	-4.9610563e-12
215	0xa26b6807	-3.190351e-18
216	0xa46fad97	-5.19719e-17
217	0x340c5f36	1.3073154e-07
218	0x343660c3	1.6985273e-07
219	0x3762df43	1.3522632e-05
220	0x335a30df	5.080153e-08
221	0x32fc29a1	2.9355592e-08
222	0xb09f7002	-1.1600607e-09
223	0xac95c2f8	-4.2564806e-12
224	0xa5ead386	-4.0735863e-16
225	0x2961a1cf	5.0100383e-14
226	0x2ff0be3a	4.379091e-10
227	0x337e5fbf	5.9226064e-08
228	0x33f439b5	1.1372632e-07
229	0x31b67841	5.3105684e-09
230	0xb09a5404	-1.1228853e-09
231	0xafa48dd2	-2.9932196e-10
232	0xaad815b6	-3.8384373e-13
233	0x2868246b	1.2886484e-14
234	0x22a74d50	4.53473e-18
235	0x2a81ad9b	2.3035466e-13
236	0x2c2828a0	2.3896787e-12
237	0x2952de47	4.6822162e-14
238	0xa9ed3b61	-1.0535215e-13
239	0xa9fc495e	-1.1203775e-13
240	0x2ac16d31	3.4359454e-13
241	0x2755d2a8	2.9673885e-15
242	0x0c41b736	1.4923312e-31
243	0x3da8156d	0.08207212
244	0x3d50c93e	0.05097317
245	0x3be47427	0.0069718543
246	0x3d016660	0.031591773
247	0x3cbf56fe	0.02335691
248	0x3d22b0f2	0.03971953
249	0x3c56aca0	0.01310268
250	0x3cb7ab9f	0.022420703
251	0x3d552a81	0.052042488
252	0x3c21a6b9	0.00986641
253	0x3c295a7e	0.010336516
254	0x3cda9980	0.026684523
255	0x3c6a9886	0.014318591

act_fc1.bias f4 [81]
0	0x3dedfc86	0.11620431
1	0xbc6cc21b	-0.014450575
2	0xbe32af41	-0.17449667
3	0x3df9270a	0.12165649
4	0x3e0253de	0.12727305
5	0x3dea5534	0.114420325
6	0xbdec02d6	-0.115239784
7	0xbc806ee0	-0.01567787
8	0x3dab7c90	0.08373368
9	0xbb7f087a	-0.0038914965
10	0xbd97e3b0	-0.07416475
11	0x3dd443ec	0.103645176
12	0x3d5baed4	0.053633526
13	0x3e818171	0.25294068
14	0x3d908d36	0.07058184
15	0x3da3068b	0.07960232
16	0xbe2c29aa	-0.16812769
17	0xbcbca580	-0.023028135
18	0xbe21320b	-0.15741746
19	0x3e07b5d3	0.13252954
20	0x3b65845a	0.0035021515
21	0x3e5c486d	0.21512003
22	0xbd9e630e	-0.07733737
23	0x3e39ae27	0.1813284
24	0x3c42ddf5	0.011893739
25	0x3e1162f5	0.14197905
26	0xbde52a54	-0.11189714
27	0x3da19cf7	0.07891267
28	0x3d174121	0.036927346
29	0x3df9c4d5	0.12195746
30	0x3dfc80dc	0.123292655
31	0x3e439fe9	0.1910397
32	0x3dc12621	0.09431101
33	0x3e3004ab	0.1718928
34	0x3d2dee9c	0.042463884
35	0x3ddf5726	0.10905294
36	0x3dd9a253	0.10626664
37	0x3e517921	0.20456363
38	0xbcd73aad	-0.026273096
39	0x3e763b42	0.24046043
40	0xbd67f8ba	-0.05663369
41	0x3e8e77a8	0.27825665
42	0xbda9589e	-0.082688555
43	0x3e6661cc	0.22498244
44	0x3dc14133	0.09436264
45	0x3da720d6	0.0816056
46	0x3d610d18	0.054944128
47	0x3e17dd72	0.14830568
48	0x3dd9e46d	0.10639272
49	0x3e70942d	0.23494025
50	0x3d8dcf21	0.06924272
51	0x3e47fc45	0.19529827
52	0x3c7ab08f	0.015300884
53	0x3d9f2967	0.07771569
54	0xbe257cbc	-0.16160864
55	0x3dfcf468	0.12351304
56	0x3db31320	0.08743882
57	0x3e63ecc7	0.22258292
58	0xbdaaa4b9	-0.083321996
59	0x3e062879	0.13101377
60	0xbc7c2430	-0.015389487
61	0x3e118b17	0.14213215
62	0xbdffaa5d	-0.12483666
63	0xbd67ee6f	-0.056623872
64	0xbe015a3e	-0.12632081
65	0x3e0383d9	0.12843265
66	0x3d53327f	0.05156183
67	0x3e2e02b6	0.16993222
68	0x3d0c1e2c	0.03420846
69	0x3dfec93d	0.12440727
70	0xbe145e22	-0.14489034
71	0xbcb6025c	-0.022217922
72	0x3d3ea013	0.046539377
73	0xbd833924	-0.06407383
74	0xbe24481b	-0.16043131
75	0x3dd2420c	0.10266504
76	0x3d8d7b8f	0.069083326
77	0x3daf53ca	0.08560903
78	0xbe11965c	-0.14217514
79	0xbcc7b759	-0.02437942
80	0x3dbc2493	0.091866635

val_conv1.weight f4 [2, 128, 1, 1]
0	0x3d1628dc	0.03666006
1	0x3c992ec3	0.018699056
2	0xbb1ad262	-0.0023623933
3	0x3c69ffc6	0.014282173
4	0x3d827833	0.063705824
5	0xbd1cdcb5	-0.03829642
6	0x000089b0	4.9393e-41
7	0x000089c7	4.9425e-41
8	0xbb0aa243	-0.0021153844
9	0x3d2a9f7b	0.041656
10	0xbd8dbf68	-0.069212735
11	0x3bbc7e21	0.0057523404
12	0xbdb1a19a	-0.08673401
13	0x3c5b7d57	0.013396583
14	0x3c5a1d8e	0.01331271
15	0x3d8af9b4	0.06785908
16	0x3c04feef	0.0081174215
17	0xbcc3fb7b	-0.023923626
18	0x216fb323	8.1213435e-19
19	0x94e64fdd	-2.3255566e-26
20	0xbdca10fd	-0.098665215
21	0xbd3aa90e	-0.04557138
22	0x3c4a04ff	0.012330293
23	0x3bbdda48	0.0057938434
24	0x2c81e13e	3.6914074e-12
25	0x3cb382ad	0.021912897
26	0x339e9dc6	7.386147e-08
27	0xa45d9dc3	-4.8055365e-17
28	0x3d0b4064	0.033996955
29	0x3d45d059	0.0482944
30	0xba0003c4	-0.00048833736
31	0xbd78cacd	-0.06074028
32	0x3d393849	0.045219693
33	0x3c281c3a	0.010260636
34	0x3d13ac59	0.036053035
35	0xbd51a7b5	-0.05118533
36	0xb8f4dfb2	-0.00011676493
37	0xbbac579d	-0.0052594678
38	0x3be853ce	0.0070900684
39	0xa534600b	-1.5645052e-16
40	0x39cd0ba6	0.00039109326
41	0x3d2392d7	0.03993496
42	0x3d100cbd	0.0351684
43	0xbc26d387	-0.010182268
44	0x3ce2222d	0.027604187
45	0x9a77bf3a	-5.1232874e-23
46	0xbd7bdb5d	-0.061488498
47	0x80008a93	-4.9711e-41
48	0x3c89ae2b	0.016806683
49	0xbd0ed132	-0.034867473
50	0x3d6de9d2	0.058084317
51	0xb933acdb	-0.00017135164
52	0x3c66b357	0.014080844
53	0x3cfb0ead	0.030646646
54	0x0dbe4f81	1.1728794e-30
55	0x3d473b95	0.048640806
56	0x3d0764d5	0.033055145
57	0x3c484552	0.0122235585
58	0x3cde8160	0.0271613
59	0xbbbddfb6	-0.0057944907
60	0xbd7e98f2	-0.06215758
61	0x3c9c937c	0.019113295
62	0x3c6fd96d	0.014639241
63	0x80008916	-4.9177e-41
64	0x39967c4c	0.00028702838
65	0xbc5d9d2b	-0.013526241
66	0x3d7ddef8	0.061980218
67	0x3c87702e	0.016532984
68	0x3a060905	0.00051130384
69	0xbc19b73a	-0.0093820635
70	0xbbc46fb3	-0.005994761
71	0x3bb74856	0.00559334
72	0x3d1b923e	0.037981264
73	0xbd85b6a3	-0.06528976
74	0x3d49c440	0.049259424
75	0x3d6cbb00	0.057795525
76	0x382e2f07	4.152863e-05
77	0xa5352121	-1.5710472e-16
78	0x3d600156	0.054688774
79	0xbc80dfd3	-0.015731728
80	0xbd10c130	-0.035340488
81	0xbcba6694	-0.022753991
82	0x99d81846	-2.234368e-23
83	0x3d25c470	0.04047054
84	0xbd303f8f	-0.043029364
85	0x3c30f2b2	0.010800051
86	0x3d2a75fd	0.04161643
87	0x3cfedbd6	0.031110685
88	0x3d457bc7	0.048213746
89	0x3cd900a0	0.026489556
90	0x3c2a63bf	0.010399758
91	0x3ba13eeb	0.0049208305
92	0x3cfe55c6	0.03104676
93	0xbd1dd111	-0.03852946
94	0xbd89cbcc	-0.06728324
95	0x37f2cc44	2.8943767e-05
96	0x80029d77	-2.40159e-40
97	0xbc961fc2	-0.01832569
98	0x359e9891	1.181632e-06
99	0x3bf7b0f8	0.007558938
100	0x3cb95d61	0.022627534
101	0x3d8637af	0.065535896
102	0x800280d6	-2.29889e-40
103	0xbdcecc6d	-0.10097585
104	0xbd325b7b	-0.043544274
105	0xbce1960d	-0.02753737
106	0xbd4c2b9e	-0.049846284
107	0x0d934705	9.076672e-31
108	0x80008f7c	-5.1472e-41
109	0x37545025	1.2654845e-05
110	0x3d282289	0.04104856
111	0x3c5f99c3	0.0136474995
112	0xbd3ca06a	-0.04605142
113	0x3ce520e1	0.02796978
114	0x3b545bc0	0.003240332
115	0x000088ed	4.912e-41
116	0xbdb65c2b	-0.089042984
117	0xbd4188a7	-0.047249462
118	0xac98300e	-4.325435e-12
119	0x3d837300	0.06418419
120	0xbd9d0e76	-0.07668774
121	0x3d39a57d	0.045323838
122	0xbad03cf7	-0.001588731
123	0xb7012b96	-7.699147e-06
124	0xbd473974	-0.048638776
125	0xbc700f2e	-0.014652057
126	0x3c9bf086	0.019035589
127	0x3be8b5d5	0.007101754
128	0x3b1846ee	0.0023235637
129	0x3c5b71bf	0.013393818
130	0x3c8da769	0.017291741
131	0x3b6df429	0.003630886
132	0xbd6abece	-0.05731087
133	0x3c2e8c53	0.010653573
134	0x00008a3f	4.9593e-41
135	0x80009e26	-5.6733e-41
136	0xbc941884	-0.018078096
137	0xbd5442a6	-0.051821373
138	0x3afe3ffa	0.0019397729
139	0x3c59cffe	0.013294218
140	0x3c0e9a0e	0.008703722
141	0x3cd21aaa	0.02564748
142	0x3c2c821d	0.010529068
143	0x3c3681e8	0.0111393705
144	0x3ae7655c	0.0017654109
145	0x3c89b1ca	0.01680841
146	0x800089ff	-4.9504e-41
147	0x00008b49	4.9966e-41
148	0xbbe6f2e9	-0.007048
149	0x3c4b414a	0.012405703
150	0xbd546795	-0.051856596
151	0xbc04bd60	-0.008101791
152	0x80008c5b	-5.035e-41
153	0x3c8ae538	0.016955003
154	0x3a2de87e	0.00066340703
155	0x8000895a	-4.9272e-41
156	0xbd15ec4c	-0.036602303
157	0xbd8feaeb	-0.07027229
158	0x80008932	-4.9216e-41
159	0xbd2397b0	-0.039939582
160	0x3d5e0280	0.054201603
161	0x3b154f2d	0.0022782788
162	0x3d7d8f8c	0.061904475
163	0x3b3c5722	0.0028738459
164	0x3d9231d4	0.0713841
165	0x3dd2173a	0.10258336
166	0xb3129a67	-3.4133702e-08
167	0x00008926	4.92e-41
168	0x3d938803	0.072036766
169	0xbb331613	-0.002732639
170	0xbc519a01	-0.012793065
171	0x3b9a3082	0.0047054896
172	0x3c3d8a85	0.01156867
173	0xbb5cc355	-0.0033685763
174	0x3c4ef0cc	0.012630653
175	0x365cb13e	3.2885723e-06
176	0x3db943d6	0.09046142
177	0xbc45c8f7	-0.0120718395
178	0x3d22a581	0.039708618
179	0x3b8a51aa	0.004221161
180	0x3c00dded	0.007865411
181	0xb79f64d7	-1.9001234e-05
182	0x00008ad3	4.9801e-41
183	0xba003666	-0.00048909185
184	0xbbc1b97e	-0.005912005
185	0x3b8a45c4	0.0042197425
186	0xbd99436a	-0.07483561
187	0x3bbb8c75	0.005723531
188	0xbc77032c	-0.01507644
189	0x3d11f222	0.035631306
190	0x3db2deb4	0.087338835
191	0x00008f11	5.1323e-41
192	0x3dd647d9	0.104629226
193	0x3d93b8da	0.07212992
194	0x3d2a3e0a	0.04156307
195	0xb889780a	-6.555028e-05
196	0x3d10a346	0.03531196
197	0x3c59101c	0.01324847
198	0xb9bc10f2	-0.0003587078
199	0xbc426b61	-0.011866421
200	0xbb2f05a1	-0.0026706236
201	0xb96072d3	-0.0002140508
202	0x3cdfbad4	0.027310766
203	0xbd4faf29	-0.050704155
204	0xbcda0118	-0.02661185
205	0x80008aa2	-4.9732e-41
206	0xbd049529	-0.032368813
207	0x3d541558	0.051778167
208	0x3d689a57	0.056787815
209	0x3c5eea52	0.013605671
210	0x000089de	4.9457e-41
211	0xb8549836	-5.0686496e-05
212	0x3bc09a3b	0.0058777607
213	0x3c97fbbc	0.018552653
214	0x3bbf6ece	0.0058420664
215	0xbd377ada	-0.044794895
216	0xbccde196	-0.025131982
217	0xbd2d5692	-0.042318888
218	0x3c81b57c	0.015833609
219	0xbcdfe6e4	-0.027331777
220	0x3a74ce2f	0.0009338585
221	0x3db30dd9	0.087428756
222	0xb9a33365	-0.00031128075
223	0x3c7abed1	0.015304283
224	0x00008999	4.9361e-41
225	0x3d006264	0.031343833
226	0x80008a33	-4.9577e-41
227	0xbc1d98ca	-0.009618947
228	0xbb63775b	-0.0034708593
229	0xbd6f1572	-0.05837006
230	0x0000898e	4.9345e-41
231	0x3b946fac	0.004529914
232	0x3c5fd134	0.013660718
233	0xbbd212aa	-0.0064109163
234	0x3c8f1129	0.017464237
235	0x00008bdc	5.0172e-41
236	0x00008a43	4.9599e-41
237	0x00008969	4.9293e-41
238	0xbd8db1f3	-0.06918707
239	0xbd321a3d	-0.043482054
240	0x3c5b16ea	0.013372162
241	0x3c7be96e	0.015375478
242	0x3bec0f56	0.0072039766
243	0x000089b3	4.9397e-41
244	0x3c365587	0.01112879
245	0x3b8d8f77	0.004320081
246	0x80008c20	-5.0267e-41
247	0x3dae25af	0.08503281
248	0x3b3bf714	0.0028681206
249	0x3b0507c0	0.0020298809
250	0x3d012916	0.031533323
251	0x00008985	4.9333e-41
252	0x3b8fc5c0	0.0043875873
253	0x3abea4b4	0.0014544935
254	0xbcbcdadd	-0.02305358
255	0xbc2a1a30	-0.01038222

val_conv1.bias f4 [2]
0	0x3d682102	0.056672104
1	0x39d36210	0.00040318118
