课程设计/AlphaZero简单复现/models/policy_batch_150.model (torch, 530617 bytes, 15 tensors)

conv1.weight f4 [32, 4, 3, 3]
0	0x3e23f284	0.16010481
1	0x3be7ccf4	0.007073993
2	0x3e6a75b6	0.22896466
3	0x3b5d2496	0.003374373
4	0x3d77c9d9	0.06049523
5	0xbe04018a	-0.12891212
6	0x3e97330d	0.29531136
7	0xbe335504	-0.175129
8	0x3e912289	0.2834666
9	0x3d7527b9	0.059852336
10	0xbd572afa	-0.05253122
11	0x3e2fb0d5	0.171573
12	0xbc1b293a	-0.009470278
13	0xbc3e0f5f	-0.011600344
14	0xbcf46900	-0.029835224
15	0x3e8b01fa	0.27149945
16	0xbe1a1c45	-0.15049846
17	0x3e1e0451	0.15431334
18	0x3d2dc1d2	0.04242117
19	0x3d5bd210	0.053667128
20	0xbe25b608	-0.1618272
21	0x3d839857	0.06425541
22	0x3e03a74d	0.12856789
23	0xbcc4b5ed	-0.02401253
24	0xbd06d2f9	-0.032916043
25	0x3dd8adde	0.105800375
26	0x3d0743ee	0.033023767
27	0x3c2f98d5	0.01071759
28	0x3c98edd5	0.018668095
29	0xbd580e35	-0.052747924
30	0xbdbea0f0	-0.0930804
31	0x3e0878db	0.13327353
32	0xbd09bde0	-0.033628345
33	0x3c08431c	0.008316781
34	0x3d445738	0.04793474
35	0xbd68890a	-0.056771316
36	0x3e75d63a	0.24007502
37	0x3e522795	0.20522912
38	0xbe678f08	-0.22613156
39	0x3d57db2b	0.05269925
40	0x3b19b110	0.0023451485
41	0x3e1601d4	0.14649135
42	0xbe233ffe	-0.1594238
43	0xbd907256	-0.07053058
44	0x3de20232	0.11035575
45	0x3dd7a0e9	0.10528738
46	0x3e07b7a5	0.13253649
47	0xbdd0dc5e	-0.10198282
48	0xbe28b442	-0.16475013
49	0x3d985b75	0.07439319
50	0x3dd022da	0.101628974
51	0x3ceafda6	0.028685402
52	0xbe2569db	-0.16153662
53	0x3e952a0b	0.2913364
54	0x3dbf4fff	0.0934143
55	0x3d7e3a85	0.062067527
56	0xbc8bfab7	-0.017087324
57	0x3d7c5ea1	0.061613683
58	0x3cb39f4c	0.021926545
59	0xbd4eeb94	-0.050517634
60	0xbcc69013	-0.024238622
61	0x3cd0c726	0.025485586
62	0xbd630f1b	-0.055434328
63	0x3c7f6069	0.015586951
64	0xbdffba0f	-0.1248666
65	0x3d7fd2de	0.062456958
66	0xbe0fb960	-0.14035559
67	0x3dba74a4	0.09104279
68	0xbe1bac11	-0.15202357
69	0x3e32daa0	0.17466211
70	0xbcd35abe	-0.025800105
71	0x3e2ef6ef	0.17086385
72	0x3c1962f6	0.009361973
73	0x3da188a0	0.07887387
74	0x3ca9ed5b	0.020743063
75	0xbe529af6	-0.20566925
76	0xbbe4dd67	-0.006984401
77	0xbdd279e3	-0.10277154
78	0x3d20e086	0.039276622
79	0x3d82b648	0.06382424
80	0xbe48ddd4	-0.1961587
81	0x3da35cd4	0.0797669
82	0xbce519cb	-0.0279664
83	0xbd466c95	-0.048443396
84	0x3dd9dd22	0.10637881
85	0x3d8660eb	0.065614544
86	0xbb81725a	-0.0039503993
87	0x3dc3bdf6	0.095577165
88	0xbdf42512	-0.11921133
89	0xbe08cf89	-0.13360418
90	0xbca17922	-0.019711081
91	0xbcbde135	-0.023178676
92	0xbdc8d681	-0.098065384
93	0xbe330917	-0.17483936
94	0xbd8b24f3	-0.06794157
95	0xbd9de381	-0.077094086
96	0x3b2a11db	0.0025950584
97	0x3c044b05	0.008074527
98	0xbd1a57d6	-0.037681423
99	0xbdb165cf	-0.086619966
100	0x3e22c2d2	0.1589463
101	0x3df5c9d9	0.1200139
102	0x3d4168eb	0.0472192
103	0x3d99e0d8	0.07513589
104	0x3dad8348	0.084723055
105	0x3db01dd6	0.08599441
106	0x3e22694f	0.15860485
107	0xbe12b589	-0.14327063
108	0xbc393944	-0.011305157
109	0xbe82211c	-0.25415885
110	0x3e18b1a2	0.14911512
111	0xbdf26806	-0.11836247
112	0x3e246ccb	0.16057126
113	0xbe543db2	-0.2072666
114	0x3cf50ea9	0.029914217
115	0x3db750ed	0.08950982
116	0x3e418458	0.18898141
117	0x3c22099b	0.009889985
118	0x3d6f2cf7	0.05839249
119	0xbe0d4b2d	-0.13798209
120	0x3dd22353	0.10260644
121	0x3dd89415	0.105751194
122	0x3ced2e39	0.028952705
123	0x3df4eb62	0.11958958
124	0x3e110f2d	0.14165945
125	0x3e772e04	0.24138647
126	0xbcc00c1d	-0.023443276
127	0xbd0ef5ca	-0.03490237
128	0xbd06d55d	-0.032918323
129	0x3c988571	0.018618317
130	0x3b937b4d	0.0045007826
131	0x3cb433a7	0.021997286
132	0x3c6befd0	0.0144004375
133	0x3ca6ea1e	0.020375308
134	0x3d5c0912	0.053719588
135	0x3d9132bd	0.07089756
136	0xbd66ae9e	-0.05631887
137	0x3df15a4d	0.11784802
138	0x3e05a3ec	0.13050812
139	0xbc512e9d	-0.012767461
140	0xbd9b6c65	-0.07589034
141	0xbdf1b0fa	-0.11801334
142	0xbdc950d2	-0.098298684
143	0x3e110e0e	0.14165518
144	0xbe0c6c7c	-0.13713259
145	0xbdc73790	-0.097273946
146	0xbd057bc2	-0.032588728
147	0x3dbd6770	0.09248245
148	0x3ccf652b	0.025316795
149	0x3d4e9b26	0.05044093
150	0xbdba1e5c	-0.09087822
151	0xbde42736	-0.111402914
152	0x3d35b944	0.044366136
153	0xbe0f0b8c	-0.13969249
154	0xbce70e17	-0.02820496
155	0xbe02fd29	-0.12791885
156	0x3dc72bee	0.09725176
157	0x3d0ad540	0.033894777
158	0xbd6a51f8	-0.057207078
159	0x3deab180	0.11459637
160	0xbd788e96	-0.060682856
161	0xbe08ea55	-0.1337064
162	0xba349749	-0.00068889983
163	0x3d39e7ba	0.045387007
164	0x3e02168c	0.12703913
165	0x3dc9dac4	0.09856179
166	0x3d45d64a	0.048300065
167	0xbd463054	-0.048385933
168	0xbc3ac376	-0.011399141
169	0xbcb5fef0	-0.02221629
170	0x3c97e55b	0.018541982
171	0x3dbd6915	0.092485584
172	0x3dc5e830	0.09663427
173	0x3e160a75	0.14652427
174	0x3e093159	0.13397731
175	0x3dab36e1	0.08360077
176	0x3ddb5c33	0.10710945
177	0x3e1d284d	0.15347405
178	0x3e115f1f	0.14196442
179	0x3e01457c	0.12624162
180	0x3e4736d5	0.1945451
181	0x3d6b2a00	0.0574131
182	0xbd992d8d	-0.07479391
183	0xbea37999	-0.3192871
184	0x3ea358c6	0.31903666
185	0x3e9035a4	0.28165925
186	0x3e7b6462	0.24550012
187	0xbd26d661	-0.04073179
188	0x3c638fe8	0.01388929
189	0x3bb6e0d5	0.0055810013
190	0xbd76d626	-0.06026282
191	0xbdeee96d	-0.11665616
192	0xbea1177e	-0.31463236
193	0x3e93ff91	0.2890592
194	0x3db911da	0.09036608
195	0x3e2a1dc5	0.16612919
196	0xbdd1861a	-0.10230656
197	0xbdb85ab3	-0.090016745
198	0x3c6b751a	0.014371181
199	0x3e13fb5f	0.14451359
200	0xbde4d057	-0.1117255
201	0xb85c0d25	-5.246433e-05
202	0x3e10de65	0.14147337
203	0x3da446ae	0.080212936
204	0x3c8d3fb0	0.017242283
205	0x3dd9d4a4	0.10636261
206	0xbba6c540	-0.005089432
207	0x3d2e0250	0.042482674
208	0x3dab0b1e	0.0835173
209	0x3e289476	0.16462883
210	0x3e0f8286	0.14014634
211	0xbdd5174c	-0.10404834
212	0xbd81afca	-0.06332357
213	0xbd4176f6	-0.04723259
214	0xbd707e65	-0.05871429
215	0x3e294360	0.16529608
216	0xbcea2815	-0.028583566
217	0xbe1680fb	-0.1469764
218	0x3d7c05a7	0.061528828
219	0x3b4aafa5	0.0030927446
220	0xbd67d57c	-0.05660008
221	0xbe72503b	-0.23663418
222	0x3c5d2461	0.013497443
223	0xbe1d5a0b	-0.1536638
224	0x3e27c737	0.16384588
225	0x3c8e92c7	0.017403973
226	0xbe0c1c4d	-0.13682671
227	0x3dc14ebb	0.09438845
228	0xbdd729d8	-0.10506028
229	0x3e00e8fb	0.12588875
230	0xbe2d09e3	-0.16898303
231	0x3ce50fde	0.027961668
232	0xbe21d4b8	-0.15803802
233	0x3e2f6f7d	0.17132373
234	0x3d2303eb	0.03979866
235	0xbd8a057a	-0.06739326
236	0x3dbc67b1	0.09199465
237	0xbdce7dd5	-0.10082594
238	0x3b25d176	0.002530185
239	0xbdad120a	-0.08450706
240	0x3db4810b	0.088136755
241	0xbdef1f4c	-0.11675891
242	0x3d122541	0.03568006
243	0x3cdd1821	0.026989045
244	0x3e185292	0.14875248
245	0x3e183979	0.14865674
246	0xbb124405	-0.0022318375
247	0xbd5e2c2a	-0.054241337
248	0x3c972a05	0.018452654
249	0xbe1209b8	-0.1426152
250	0xbc8b8b16	-0.017034095
251	0xbcf5a782	-0.0299871
252	0xbe9420f3	-0.28931388
253	0x3e15dec8	0.14635766
254	0x3e3014fa	0.17195502
255	0xbe75e29f	-0.2401223

conv1.bias f4 [32]
0	0xbdb0d4a2	-0.086343065
1	0x3e06b13c	0.13153547
2	0x3d8694e2	0.06571366
3	0xbcdcce4c	-0.026953839
4	0xbe0c8fda	-0.1372675
5	0xbdc2086c	-0.094742626
6	0xbc9fa63f	-0.019488452
7	0x3e056c30	0.13029552
8	0xbb6f019f	-0.0036469472
9	0xbdef9650	-0.11698592
10	0x3e97c9b6	0.2964608
11	0xbdbfc3c6	-0.09363513
12	0xbe106d8c	-0.14104289
13	0xbd9ca8d8	-0.07649392
14	0xbbdd71f3	-0.0067579686
15	0x3e4c0879	0.19925107
16	0x3bf9f874	0.007628495
17	0x3e2ca26f	0.16858838
18	0xbcae2d27	-0.021261765
19	0x3bafee1d	0.0053689615
20	0x3e627b6d	0.22117396
21	0xbd3897d4	-0.04506667
22	0xbdcc28f8	-0.09968752
23	0xbddb3644	-0.1070371
24	0xbd0346d4	-0.03204997
25	0x3e2ea4e3	0.17055087
26	0x3e66b378	0.225294
27	0xbc4b1c02	-0.012396814
28	0xbd897301	-0.067113884
29	0xbdfeb16d	-0.12436185
30	0x3cf557f6	0.02994917
31	0xbe125f80	-0.14294243

conv2.weight f4 [64, 32, 3, 3]
0	0x3dde8bf1	0.108665355
1	0x3d43c74c	0.047797486
2	0x3e2fb496	0.17158732
3	0x3e003ed8	0.12523973
4	0x3b20ae95	0.0024518121
5	0x3dfe08c3	0.12404015
6	0x3ca861d8	0.020554468
7	0xbc5096e1	-0.012731285
8	0xbd89541d	-0.067054965
9	0x3da604e1	0.08106399
10	0xbdafd715	-0.085859455
11	0xbd64ff7d	-0.055907715
12	0x3d987ee3	0.07446077
13	0xbd76256b	-0.06009428
14	0xbda6d411	-0.08145917
15	0x3d0b2bd2	0.033977337
16	0x3d89f110	0.06735432
17	0x3e1b4c21	0.1516576
18	0xbd6dad46	-0.058026575
19	0x3bea3d58	0.007148426
20	0x3d8f753a	0.07004781
21	0xbd547795	-0.051871855
22	0x3d6aa036	0.057281695
23	0x3c0f4462	0.008744331
24	0xbd18d6c1	-0.03731418
25	0xbd2df5e6	-0.042470835
26	0xbcce634c	-0.025193833
27	0x3dd4c784	0.10389617
28	0x3dea51d9	0.114413925
29	0x3d3a9fc5	0.045562524
30	0xbbeb9ccf	-0.007190324
31	0x3c6e32e0	0.014538497
32	0x3ca9db83	0.020734554
33	0xbdb46d51	-0.08809913
34	0xbd2d0e96	-0.04225024
35	0xbd3249bb	-0.043527346
36	0x3ce40c59	0.02783792
37	0xbca8dbc3	-0.020612603
38	0x3b844354	0.0040363465
39	0xbb53a113	-0.0032292053
40	0xbc65e07a	-0.01403057
41	0x3b8eea15	0.004361401
42	0xbd2b9d8f	-0.041898306
43	0xbbb84a8b	-0.0056241206
44	0x3c6533d3	0.013989407
45	0xbd046482	-0.032322414
46	0x3cb12ad0	0.02162686
47	0x3d8c2f0c	0.06844911
48	0x3d170cc0	0.036877394
49	0x3db66f9f	0.08908009
50	0xbd85c88a	-0.065323904
51	0xbdbc405c	-0.09191963
52	0xbab87b8f	-0.0014074909
53	0xbd9e1bbb	-0.07720133
54	0x3de91f2c	0.11382899
55	0x3ba1f859	0.0049429354
56	0xbcaaf2bf	-0.020867703
57	0xbd9b748f	-0.07590591
58	0xbb85677c	-0.004071174
59	0x3c94edcd	0.018179798
60	0x3c410c44	0.0117827095
61	0xbd56fa08	-0.052484542
62	0x3d1359b8	0.035974234
63	0x3c6a2ea1	0.014293344
64	0xbddf0d01	-0.10891152
65	0xbc96caf0	-0.018407315
66	0x3de8c12a	0.11364968
67	0x3cda23a6	0.026628327
68	0xbe814fe5	-0.25256267
69	0x3e194615	0.1496814
70	0xbaa38c65	-0.0012477754
71	0xbdec0e3b	-0.11526152
72	0x3cbe22b5	0.023209909
73	0x3d535a6e	0.051599912
74	0xbd9ba363	-0.07599523
75	0x3dac49c5	0.08412508
76	0x3d9a541d	0.075355746
77	0xbcaabdaf	-0.020842401
78	0x3cca2980	0.024677992
79	0x3d42df1b	0.04757605
80	0x3d56b00a	0.052413978
81	0xbdc6b715	-0.09702889
82	0x3d978411	0.073982365
83	0x3c651a60	0.013983339
84	0xbd8d4f26	-0.06899862
85	0xbcf6733e	-0.030084249
86	0x3cac0485	0.020998249
87	0xbdb6a369	-0.08917887
88	0xba539585	-0.00080712914
89	0xbdb0adb1	-0.08626879
90	0x3d667bd4	0.056270435
91	0xbc969476	-0.018381339
92	0x3dc57230	0.0964092
93	0x3dc6bda4	0.0970414
94	0xbd48ccfa	-0.049023606
95	0xbd4f9250	-0.050676644
96	0x3cc0518f	0.02347639
97	0x3d804780	0.062636375
98	0x3da25757	0.07926815
99	0xbd3f4480	-0.046696186
100	0xbc305214	-0.010761756
101	0x3ce25a70	0.027631015
102	0x3d622103	0.055207264
103	0x3dc8446c	0.097786754
104	0x3da9a6fa	0.082838014
105	0x3ceaeb5e	0.028676685
106	0x3d8f72eb	0.07004341
107	0x3ca98f4f	0.020698218
108	0x3c89a6d4	0.016803183
109	0x3ca46ab6	0.020070415
110	0xbdba09af	-0.09083878
111	0x3c40aa18	0.0117593035
112	0xbcd1a74d	-0.02559247
113	0x3bf25f44	0.0073966105
114	0xbd9fe34b	-0.078070246
115	0xbcd3db78	-0.025861487
116	0x3db82843	0.08992054
117	0xbd8deb6d	-0.069296695
118	0x3aabf467	0.0013119102
119	0x3dc3899e	0.09547733
120	0x3e25883d	0.16165252
121	0xbd7b36cc	-0.061331555
122	0xbe06f559	-0.1317953
123	0x3e15afdd	0.14617868
124	0xbc6f219a	-0.014595414
125	0x3d98570e	0.07438479
126	0x3ca822ce	0.020524409
127	0x3e5cfbc2	0.21580413
128	0x3e02fd71	0.12791993
129	0x3d1a0767	0.037604716
130	0x3cc4b2db	0.024011066
131	0x3d28874e	0.04114466
132	0xbd89ab49	-0.06722123
133	0xbe480600	-0.19533539
134	0xbdf3ceb3	-0.11904659
135	0xbd23dff0	-0.040008485
136	0x3d021ef4	0.0317678
137	0x3c18b661	0.009320826
138	0x3ca86f78	0.020560965
139	0x3b82b687	0.003989044
140	0x3d2bf839	0.04198477
141	0xbd5030b5	-0.0508277
142	0x3d95a63f	0.073070996
143	0x3d5f1e88	0.054472476
144	0xbdcb1611	-0.09916318
145	0xbd8894ab	-0.06668981
146	0xbdb57371	-0.08859909
147	0xbd083dea	-0.03326217
148	0x3d2a50d1	0.04158098
149	0x3bb7389a	0.005591464
150	0x3dc38081	0.095459945
151	0x3e244bee	0.1604459
152	0x3dc41f18	0.09576243
153	0x3d2b0470	0.04175228
154	0x3d6a4098	0.057190508
155	0xbd3a6011	-0.045501772
156	0x3c5ca538	0.013467126
157	0xbd01c002	-0.031677254
158	0xbd019a65	-0.031641383
159	0x3d3d2ea9	0.046187077
160	0xbcac546e	-0.021036353
161	0x3bde49dd	0.0067837075
162	0xbcbb4b7d	-0.022863144
163	0x3d89f908	0.06736952
164	0xbdb64bc4	-0.0890117
165	0x3e168b56	0.1470159
166	0x3e0bb98f	0.13645004
167	0xbd20f806	-0.039299034
168	0x3d2b2274	0.041780904
169	0xbd06e55a	-0.03293357
170	0xbd2bd98a	-0.04195551
171	0xbda6fe68	-0.08153993
172	0x3d55a48b	0.052158874
173	0x3c921b59	0.017835306
174	0x3dca63b3	0.09882297
175	0xbcb3e9b3	-0.021962022
176	0xbd877bde	-0.06615423
177	0x3db10e49	0.08645303
178	0xbda714bd	-0.081582524
179	0xbd821ebb	-0.063535176
180	0xbd5fbaec	-0.054621622
181	0xbd3b3aaf	-0.045710262
182	0xbc6953f7	-0.01424121
183	0x3dc0a8d5	0.09407202
184	0xbe0893bb	-0.13337605
185	0xbdbd0c31	-0.09230841
186	0x3cb58723	0.022159165
187	0xbd7e0608	-0.06201747
188	0x3cf006ca	0.029300112
189	0x3da29be6	0.079398915
190	0x3e4c7310	0.19965768
191	0xbc79fdda	-0.015258277
192	0x3c800f04	0.01563216
193	0xbd446854	-0.047951058
194	0xbdb447b3	-0.08802738
195	0xbe24d360	-0.16096258
196	0xbea14540	-0.31498146
197	0xbd9267d5	-0.07148711
198	0x3d3f3daf	0.046689685
199	0x3d048cb1	0.032360736
200	0x3c1a7db9	0.009429389
201	0x3d957584	0.07297805
202	0x3d15150d	0.03639703
203	0x3d597039	0.05308554
204	0xbc2760df	-0.010215967
205	0x3c913168	0.017723754
206	0x3d14f038	0.036361903
207	0x3d628833	0.05530567
208	0x3d70436b	0.058658045
209	0xbd417b17	-0.04723653
210	0x3c253157	0.010082564
211	0x3df7441f	0.1207354
212	0x3cb19810	0.021678954
213	0xbd6a70ab	-0.057236355
214	0x3c77602c	0.015098613
215	0xbe036ec6	-0.12835225
216	0x3d905916	0.07048242
217	0x3e0cadae	0.13738129
218	0x3c5b4529	0.013383188
219	0x3dc7eaad	0.09761558
220	0x3d075b18	0.03304586
221	0xbdfe26e0	-0.124097586
222	0x3d6d1bbe	0.057887785
223	0xbd9642e6	-0.073369786
224	0xbda75b7c	-0.08171746
225	0xbd807c05	-0.06273655
226	0x3cc1a634	0.023638822
227	0x3c938652	0.018008385
228	0xbde3f74b	-0.11131152
229	0x3ca1f3c7	0.019769562
230	0x3e0035a6	0.12520465
231	0xbdfc75bf	-0.12327146
232	0x3d0c8470	0.03430599
233	0x3e1f4b8d	0.15556164
234	0xbdac6d95	-0.084193386
235	0x3d532f7b	0.051558953
236	0xbd0cb8ae	-0.03435581
237	0x3db31a8b	0.08745297
238	0xbd6dcd66	-0.05805721
239	0x3ce3e9e1	0.027821483
240	0xbd5c71a8	-0.05381933
241	0xbe36312f	-0.177922
242	0x3da24514	0.07923332
243	0xbccd055c	-0.02502697
244	0xbdbff634	-0.093731314
245	0xbd0cecb6	-0.034405433
246	0x3d96c02b	0.07360872
247	0xbd316a54	-0.043314293
248	0x3cfcc757	0.030856771
249	0x3d869f4f	0.065733545
250	0xbcaa1f8b	-0.020766994
251	0x3d459070	0.04823345
252	0xbc883999	-0.016629027
253	0x3d85f87d	0.06541536
254	0xbd0a05ff	-0.033697125
255	0xbd1c91ec	-0.0382251

conv2.bias f4 [64]
0	0xbd2c18fb	-0.04201601
1	0x3d87a890	0.066239476
2	0x3c943886	0.018093359
3	0xbd24dbfb	-0.040248852
4	0x3dc133af	0.09433686
5	0xbd630240	-0.055422068
6	0xbb0addf2	-0.0021189419
7	0xbc29e283	-0.010368946
8	0xbce252b5	-0.027627328
9	0x3c491b25	0.012274538
10	0x3d00eb5a	0.03147445
11	0x3d047554	0.032338455
12	0x3d2ea6e2	0.04263962
13	0x3cebc765	0.028781602
14	0xbd31d73c	-0.043418154
15	0x3c75a35e	0.014992563
16	0x3c91c51d	0.017794186
17	0xbc8ef39f	-0.017450152
18	0x39f93b73	0.00047537274
19	0x3dbd1fd3	0.092345856
20	0xbbf2526e	-0.0073950803
21	0x3ceb076e	0.028690066
22	0x3d9d5343	0.076818965
23	0xbd4c6b26	-0.049906872
24	0x3ceb0ad0	0.02869168
25	0x3d3786ef	0.044806417
26	0x3be30e78	0.006929215
27	0x3da779b7	0.08177512
28	0x3d1afacd	0.03783684
29	0x3cd272db	0.025689533
30	0x3d200e76	0.03907629
31	0x3aa60f94	0.0012669438
32	0x3c5bbc34	0.01341157
33	0xbc57b108	-0.013164766
34	0xbc0bb52d	-0.008527082
35	0xbccd611d	-0.025070721
36	0x3c96be24	0.018401213
37	0xbcd1d121	-0.025612416
38	0x3d78c72d	0.060736824
39	0x3db28d71	0.08718384
40	0x3dbf6e0c	0.09347162
41	0xbd012129	-0.031525765
42	0xbd505532	-0.0508625
43	0xbd8b81e4	-0.06811884
44	0x3d82096b	0.063494526
45	0x3c19c960	0.00938639
46	0xbbe58c7a	-0.0070052715
47	0xbb0e0a11	-0.002167348
48	0xbb5b8526	-0.003349611
49	0x3b6da0f8	0.0036259275
50	0xbbf24426	-0.007393378
51	0xbd64ae36	-0.055830203
52	0x3ca62c45	0.020284781
53	0x3d41b4fb	0.047291737
54	0xbbaa4bfd	-0.005197047
55	0x3cf35066	0.029701423
56	0x3bc2d8b1	0.005946242
57	0xbc611965	-0.013738965
58	0x3d14bc29	0.036312256
59	0xbd13f21e	-0.036119573
60	0x3d307d66	0.04308834
61	0xbd19ce01	-0.037549976
62	0xbcf555e3	-0.02994818
63	0xbcae839c	-0.02130299

conv3.weight f4 [128, 64, 3, 3]
0	0xbc661678	-0.014043443
1	0xbb8920e0	-0.004184827
2	0x3c3454bb	0.011006529
3	0xbd5dd8af	-0.054161724
4	0xbdcbbb54	-0.099478394
5	0xbc8aaafa	-0.016927231
6	0x3cb11e4f	0.021620898
7	0xbc3c2619	-0.011483693
8	0x3d775be2	0.06039036
9	0x3d4f72be	0.050646536
10	0x3ba023e9	0.0048870933
11	0x3cc28964	0.023747154
12	0x3c8b2790	0.016986638
13	0x3ba195dc	0.0049311947
14	0x3c560b18	0.013064168
15	0xbc65e83a	-0.014032418
16	0xbc953177	-0.018212063
17	0xbb5ce0e6	-0.0033703386
18	0x3d1fd209	0.039018665
19	0xbbce5b94	-0.006297538
20	0xbc46bf4d	-0.012130571
21	0x3c552fee	0.013011916
22	0x3c9cd29c	0.019143395
23	0xbc9d5185	-0.01920391
24	0x3d069321	0.032855157
25	0x3d44b39d	0.048022855
26	0xbc4b2f55	-0.012401422
27	0x3db31d36	0.08745806
28	0x3d7bcb98	0.06147346
29	0x3d490fae	0.04908722
30	0x3dc2aaa4	0.09505203
31	0xbb6d231d	-0.003618426
32	0x3d85fc5b	0.065422736
33	0x3d7f901f	0.062393304
34	0x3d904e29	0.07046158
35	0x3d2e9ab4	0.042628005
36	0x3cd3c6e6	0.025851678
37	0x3da915a9	0.082560845
38	0x3d151713	0.03639896
39	0x3c2e1c9e	0.01062694
40	0x3de7c481	0.11316777
41	0x3d8e3242	0.0694318
42	0x3d81e24e	0.06341992
43	0x3dc78b9b	0.097434245
44	0x3d0eebc3	0.03489281
45	0x3d43b9c7	0.047784593
46	0x3d1ef487	0.03880742
47	0x3d5bbbe2	0.053645976
48	0x3cc2a593	0.023760593
49	0x3c99d388	0.018777624
50	0x3d5959bf	0.053064104
51	0x3cd88d17	0.026434464
52	0xbca352fe	-0.019937035
53	0x3c9140cf	0.017731098
54	0x3cb709ba	0.022343505
55	0x3d0f56cb	0.03499488
56	0xbb89c574	-0.0042044464
57	0x3c2e98bf	0.010656535
58	0x3ca3f749	0.020015376
59	0xbcb4ca35	-0.022069076
60	0x3d5e3d18	0.054257482
61	0xbbb3eb5f	-0.005490705
62	0xbc94ee5b	-0.018180063
63	0x3d2f6df1	0.042829458
64	0xbbf50553	-0.0074774413
65	0xbc1c9ee1	-0.009559364
66	0x3c554ea5	0.013019239
67	0xbd0c480a	-0.03424839
68	0x3c214fa2	0.009845646
69	0xbb0b1de5	-0.0021227535
70	0x3bc3e964	0.00597875
71	0x3b1cf4dd	0.002394966
72	0x3ce2d484	0.027689226
73	0x3c9082aa	0.01764043
74	0xb9ac74dc	-0.00032893464
75	0x3aa2cc30	0.0012420472
76	0x3cf876ae	0.030330028
77	0xbc7383c9	-0.014862963
78	0x3d38390b	0.044976275
79	0x3d24f04a	0.04026822
80	0xbb93a695	-0.004505942
81	0x3d4d8978	0.05017993
82	0x3cea4f6f	0.02860233
83	0x3d5423bf	0.051791903
84	0x3d61e2e1	0.05514801
85	0x3ca4762d	0.020075882
86	0x3c55752f	0.013028427
87	0x3d07288e	0.03299766
88	0xbc94a25f	-0.01814383
89	0xbcd3af81	-0.025840523
90	0x3cad3bb8	0.02114664
91	0xbccff659	-0.025386022
92	0x3add081e	0.0016863381
93	0xbc961e36	-0.018324953
94	0xbc6f9fe5	-0.014625524
95	0x3cc7b530	0.02437839
96	0xbc18e214	-0.009331245
97	0x3c8f690e	0.017506149
98	0xbd258018	-0.040405363
99	0x3d26d0d1	0.040726487
100	0xbca02c0b	-0.019552251
101	0x3d09f6ab	0.033682507
102	0x3ce7fd08	0.028318897
103	0x3cf6db17	0.030133767
104	0x3d1ede82	0.03878642
105	0x3c8f01de	0.017456945
106	0x3d0869ae	0.03330391
107	0x3d05c68b	0.03266005
108	0x3c87634e	0.016526844
109	0x3ccfa05b	0.025345018
110	0xbc9772ed	-0.018487418
111	0x3d53ac6e	0.051678114
112	0x3d4dbf63	0.05023135
113	0x3d1ac464	0.03778495
114	0x3cfe7dc2	0.031065825
115	0x3c857c96	0.016294759
116	0xbc8c9f48	-0.017165795
117	0x3cca08b8	0.02466236
118	0x3c4c8df4	0.012485016
119	0xbc40fdab	-0.011779229
120	0x3b080b63	0.002075874
121	0x3c981928	0.018566683
122	0x3b9e28a4	0.004826622
123	0x3cf0bbe0	0.02938646
124	0xbc65567a	-0.013997668
125	0x3cb2a4da	0.021807123
126	0x3cd31fd0	0.025772005
127	0x3d10b6aa	0.035330452
128	0x3c8dce1f	0.0173102
129	0x3d4eb93d	0.050469626
130	0x3d2914a3	0.041279446
131	0x3d105f96	0.035247408
132	0x3c140bed	0.009036046
133	0x3b034053	0.0020027354
134	0x3d4c4a84	0.04987575
135	0x3c8b322b	0.016991695
136	0x3ce3e11b	0.0278173
137	0xbba37b4e	-0.0049890643
138	0x3d1a8da6	0.037732743
139	0xba14c2fa	-0.0005674806
140	0xbcc7f5c1	-0.024409177
141	0x3ca5fbc9	0.020261662
142	0x3d2a632a	0.041598476
143	0xbd07ce19	-0.033155534
144	0x3a5e9468	0.0008490742
145	0x3d297b76	0.041377507
146	0x3cf3c554	0.02975718
147	0x3d08748c	0.033314273
148	0xbc7de17c	-0.015495654
149	0x3d1434e4	0.036183253
150	0xbca73351	-0.020410212
151	0x3cb15626	0.021647524
152	0x3cda5632	0.02665243
153	0xbca75861	-0.020427885
154	0x3ca43e23	0.02004916
155	0x3c9158d9	0.017742561
156	0x3d3da506	0.046299957
157	0x3d4dad02	0.05021382
158	0xbd0cc713	-0.03436954
159	0xbc5e046c	-0.013550859
160	0xbb97689f	-0.004620626
161	0x3d3c4bd1	0.04597074
162	0x3cb92490	0.022600442
163	0x3d0eeab7	0.03489181
164	0xbc999441	-0.01874745
165	0xbc355a20	-0.011068851
166	0xbca68b0c	-0.020329975
167	0x3d17a94c	0.03702669
168	0x3cd5b196	0.026085656
169	0x3ce1595d	0.027508432
170	0xbc18ae99	-0.009318971
171	0x3d2938e7	0.041314032
172	0x3cc16a83	0.023610359
173	0x3d1460fa	0.036225297
174	0x3d486965	0.048928637
175	0x3d551348	0.05202034
176	0x3d0d942d	0.03456514
177	0x3d0bbf10	0.03411776
178	0x3d1b8a00	0.037973404
179	0x3b90e81f	0.0044222022
180	0x3d1a3dc7	0.03765657
181	0xbcd5aa1d	-0.026082093
182	0x3b151f3d	0.0022754215
183	0xb69b3b25	-4.6262453e-06
184	0x3c3ba969	0.011453965
185	0xbcc5556c	-0.024088584
186	0xbb840340	-0.0040287077
187	0xbabf7fa0	-0.0014610179
188	0xbd1420f4	-0.03616424
189	0x3c8d9b09	0.01728584
190	0x3d2302a6	0.039797448
191	0xbd226cde	-0.039654605
192	0xbbb82898	-0.0056200735
193	0x3c88f9f0	0.016720742
194	0x3d1b7304	0.037951484
195	0xbc3a4533	-0.011369037
196	0xbbf50f64	-0.0074786413
197	0x3cac78bb	0.021053663
198	0x3d3695ff	0.04457664
199	0x3cec9ac6	0.028882395
200	0x3c28188d	0.01025976
201	0x3c81b971	0.015835496
202	0x3c86f1b3	0.016472673
203	0xba3c2453	-0.00071770436
204	0x3ce59bf5	0.028028468
205	0x3d4768ef	0.048684057
206	0xbcdba44a	-0.026811738
207	0xbab72274	-0.001397206
208	0x3d27dcdb	0.04098211
209	0x3d2aa688	0.041662723
210	0x3bc075f7	0.0058734375
211	0x3c01072a	0.007875243
212	0x3c8d56bb	0.01725327
213	0xbc9f898e	-0.01947477
214	0x3cf83e7f	0.030303238
215	0xbd0ec303	-0.034853946
216	0xbba1b6af	-0.0049351077
217	0x3cb89d2e	0.022535887
218	0xbc8d816f	-0.017273633
219	0x3c617d5d	0.013762799
220	0xbceba84c	-0.028766774
221	0xbb5aee42	-0.0033406173
222	0xbcb1e6c2	-0.02171648
223	0xbcd7f4be	-0.02636182
224	0x3ae6808e	0.001758592
225	0x3b0aa025	0.0021152582
226	0x3c83aaf1	0.016072722
227	0xbc26a4c9	-0.010171124
228	0x3be33c8e	0.006934709
229	0x3d651bae	0.0559346
230	0x3ce8d364	0.028421111
231	0xbd146ceb	-0.036236685
232	0x3c1fdcc0	0.009757221
233	0x3c1a5b70	0.009421214
234	0x3d25183f	0.040306326
235	0x3d55ca16	0.052194677
236	0x3c3a2afc	0.011362787
237	0x3c9a441c	0.018831305
238	0x3c5f37e0	0.0136241615
239	0x3d171213	0.03688247
240	0xbc4130d9	-0.011791431
241	0x3cd58814	0.026065864
242	0xbc99c19b	-0.018769076
243	0x3d2d55de	0.042318217
244	0x381e9145	3.780543e-05
245	0x3c9d285d	0.019184286
246	0x3c89c80e	0.016819026
247	0x3d1e78c6	0.038689397
248	0xbca8d635	-0.020609954
249	0x3c606122	0.013695033
250	0x3cef935e	0.029245075
251	0x3c8d2e90	0.017234117
252	0x3bb0a468	0.0053906925
253	0xbbdbfb73	-0.0067133247
254	0xbbd47adb	-0.006484372
255	0x3d269a2c	0.040674374

conv3.bias f4 [128]
0	0x3c949756	0.018138569
1	0x3d5d05a7	0.05396047
2	0xbd0b1166	-0.03395214
3	0x3ba25e0d	0.0049550594
4	0x3ca731d7	0.020409508
5	0x3d3ac199	0.045594785
6	0xbb219f25	-0.0024661508
7	0xba15c23e	-0.0005712843
8	0xbc9dccea	-0.01926275
9	0x3cbdf220	0.023186743
10	0x3d2aa678	0.041662663
11	0x3d128d05	0.035779018
12	0x3d315701	0.043295864
13	0xbb2caf41	-0.0026349577
14	0xbcbae120	-0.022812426
15	0x3c135fdc	0.008995023
16	0x3cd5e52e	0.026110258
17	0x3d2199ac	0.039453194
18	0x3c1b4d48	0.0094788745
19	0xbcf8ebaa	-0.03038581
20	0x3d26de95	0.040739615
21	0x3ca6c6d6	0.020358484
22	0x3c92b3a4	0.017907925
23	0xbcdd735e	-0.02703255
24	0xbbb4a613	-0.0055129617
25	0x3aa8eb1b	0.001288745
26	0xb9c392ab	-0.00037302574
27	0xbd0f7f57	-0.03503355
28	0xbcc06e99	-0.023490237
29	0x3c904840	0.017612576
30	0xbbe386f5	-0.0069435784
31	0x3d17813a	0.036988474
32	0xbc9eaa7d	-0.019368405
33	0xbca7321a	-0.020409632
34	0x3cfde9fc	0.030995362
35	0x3d997fbd	0.07495067
36	0x3c7d7223	0.015469107
37	0xbdb5c5c9	-0.08875615
38	0x3b99269f	0.0046737934
39	0xbcc26b1c	-0.023732714
40	0xbd32770d	-0.043570567
41	0x39a418d1	0.00031299007
42	0x3bd95a6f	0.006633095
43	0xbbba24f6	-0.0056806756
44	0xbd0a4fb6	-0.033767425
45	0x3a935c57	0.0011242729
46	0x3d1f92d8	0.0389584
47	0xbb1d4c5c	-0.0024001813
48	0xbca9c0e6	-0.020721864
49	0x3c879cee	0.016554322
50	0x3ca3ea5e	0.020009216
51	0x3b64d5f9	0.0034917577
52	0x3ce7a273	0.028275704
53	0xbcfe256a	-0.0310237
54	0xbd01a26a	-0.03164903
55	0xbd1852b8	-0.03718826
56	0xbc0483c7	-0.008088059
57	0xbcf81c9d	-0.030287081
58	0xbaf69938	-0.0018813973
59	0x3c218795	0.009858985
60	0x3d13dc75	0.036098916
61	0xbcdd74ee	-0.027033295
62	0x3bd243df	0.0064167823
63	0xba46e0d2	-0.00075866014
64	0x3c52f621	0.0128760645
65	0x3e1635bb	0.14668934
66	0x3b7dd4d0	0.0038731582
67	0x3d4c67e1	0.049903754
68	0xbd33fc66	-0.043941878
69	0xbcfb32c7	-0.030663861
70	0xbb95d7a1	-0.004572824
71	0xb8c9405f	-9.596417e-05
72	0xbce1561a	-0.027506877
73	0x3d3640bf	0.04449534
74	0xbd0690cf	-0.032852944
75	0x3c19f0f8	0.00939583
76	0x3c506fdf	0.012721985
77	0xbc4a07d0	-0.012330964
78	0x3beaa65e	0.007160946
79	0x3d6395cf	0.05556279
80	0x3cb43ea1	0.02200252
81	0x3da826c2	0.082105175
82	0xbb4cd73d	-0.0031256222
83	0xbb7ef537	-0.0038903484
84	0x3d75689e	0.059914224
85	0x3d592e91	0.053022925
86	0xbbc088bd	-0.0058756755
87	0xbcf5a986	-0.029988062
88	0xbce72867	-0.028217508
89	0x3c1749e7	0.009233928
90	0x3d07767f	0.03307199
91	0xbcdd72d2	-0.02703229
92	0x3c9bb3dc	0.019006662
93	0x3d1bee86	0.03806927
94	0x3c112d36	0.008860877
95	0x3d416b78	0.04722163
96	0xbc60de27	-0.01372484
97	0xbca18dd3	-0.019720947
98	0xbb84ddde	-0.004054769
99	0xbd7bae24	-0.06144537
100	0xbd2617d7	-0.04055008
101	0x3c5e86f8	0.013581984
102	0xbc90d73a	-0.017680753
103	0x3d8b64b5	0.06806318
104	0x3d4efe23	0.050535332
105	0x3cac5b8f	0.021039752
106	0x3d9cefe1	0.07662941
107	0xbd03eca7	-0.03220811
108	0xbc728da1	-0.014804275
109	0xbcce4a24	-0.025181837
110	0x3cc810ce	0.024422076
111	0xb8c2d8a2	-9.290992e-05
112	0x3cb414d8	0.021982595
113	0x3d3e3e92	0.04644639
114	0x3cfdccfe	0.030981537
115	0xbbc46187	-0.0059930715
116	0x3d12455b	0.035710674
117	0xbd16e9ac	-0.03684394
118	0xbd18b6cb	-0.0372837
119	0xbc97293d	-0.018452281
120	0x38bee37b	9.1022775e-05
121	0x3c4f8a1a	0.012667203
122	0xbd149851	-0.036278073
123	0xbc9b7adc	-0.018979482
124	0x3d8b9abf	0.06816625
125	0xbd1edf18	-0.038786978
126	0x3bce89d1	0.00630305
127	0xba8f3823	-0.0010926764

act_conv1.weight f4 [4, 128, 1, 1]
0	0x3c4022c6	0.011727041
1	0x3dbe36f8	0.09287828
2	0xbd42c66a	-0.047552504
3	0x3d2818a5	0.041039128
4	0x3dab2018	0.08355731
5	0xbda6aac2	-0.08138038
6	0x399eea1a	0.00030310528
7	0xbc3fdc50	-0.011710241
8	0xbce5bfc7	-0.028045548
9	0x3dabd8d8	0.08390969
10	0xbd26d197	-0.040727224
11	0x3d6e8010	0.0582276
12	0x3d45e179	0.04831073
13	0xbc66f289	-0.014095911
14	0xbc7e5e62	-0.015525432
15	0x3c72cd99	0.014819526
16	0xbcc09d01	-0.023512365
17	0x3ddedb74	0.10881701
18	0x3c1b74ed	0.0094883265
19	0x2b6b3c94	8.357284e-13
20	0x3d8a8fc0	0.067656994
21	0x3d5a0e44	0.05323626
22	0x3d49898e	0.049203448
23	0x3d11096a	0.03540937
24	0x2c3c7ffe	2.6787457e-12
25	0xbcbb5067	-0.022865487
26	0x2609dc41	4.7829923e-16
27	0xb8186b23	-3.6339403e-05
28	0xbc2468de	-0.010034768
29	0x3cf3a9cb	0.02974405
30	0x3b0b9e2d	0.0021303997
31	0x3c784053	0.015152055
32	0xbd6b8783	-0.05750228
33	0xba90f521	-0.0011059382
34	0x3dae4983	0.08510115
35	0x3cffdc7b	0.031233063
36	0x3d00af32	0.03141708
37	0xbc2b5e76	-0.010459533
38	0xbc2cebae	-0.010554237
39	0xbb886b66	-0.0041631935
40	0x3d1d8e7d	0.038465966
41	0x3c4ba1e2	0.012428733
42	0x3c178879	0.009248846
43	0xbdec76c3	-0.115460895
44	0xbd8ac63a	-0.0677609
45	0x3c748a9d	0.014925626
46	0x3d72618a	0.05917505
47	0x3c399218	0.011326335
48	0x3c920325	0.017823765
49	0xbd75b14b	-0.059983533
50	0x3d97555f	0.0738933
51	0x3e3818f4	0.17978269
52	0x3d697637	0.056997504
53	0xbd0fab23	-0.035075318
54	0xacb8d5db	-5.2533373e-12
55	0xbd062758	-0.032752365
56	0xbd7f258b	-0.062291663
57	0xbd09d89e	-0.033653848
58	0x20d3d70f	3.5887104e-19
59	0xbcce588e	-0.02518871
60	0xbd1efb3f	-0.038813826
61	0xbbe05c77	-0.00684696
62	0xbd5d9621	-0.054098252
63	0xa7f67cec	-6.8414157e-15
64	0x3cda07d3	0.026615059
65	0x3e2e1b50	0.17002606
66	0x3c6c8b01	0.014437438
67	0x3df291c0	0.11844206
68	0x3d9fbaf8	0.07799333
69	0xbd7acd66	-0.06123104
70	0x3cd0b52f	0.02547702
71	0x3c7a3ee5	0.015273784
72	0xbd05fec5	-0.03271367
73	0xbcacb7fd	-0.021083826
74	0x3c87ba68	0.016568378
75	0x3da47e27	0.08031874
76	0x3ad6d3df	0.0016390047
77	0x3a7f6518	0.0009742542
78	0xbd058fa1	-0.03260768
79	0x3db13a3b	0.08653685
80	0xb99dc154	-0.00030089414
81	0x3d5109ff	0.051034924
82	0xa177939e	-8.3882225e-19
83	0xbce14a0d	-0.02750113
84	0xbdb8aab2	-0.090169325
85	0x3dbd323c	0.09238097
86	0x3d1ada07	0.037805583
87	0xbd037c76	-0.032101117
88	0x3cb0fb70	0.02160427
89	0x3d227ade	0.039667957
90	0x3d62df11	0.055388514
91	0xbd32e6c1	-0.043677095
92	0xbb614313	-0.0034372255
93	0x3b3534f8	0.002764998
94	0xbce6d986	-0.028179895
95	0x3d48b21d	0.048997987
96	0xa328d317	-9.151998e-18
97	0x3da8d1dd	0.08243153
98	0xbd8a2295	-0.06744877
99	0xbe0c31f3	-0.13690929
100	0x3cab8f93	0.020942485
101	0x3d320502	0.043461807
102	0xbd2a9cc1	-0.0416534
103	0x3b64f0d0	0.0034933574
104	0xbdbf8d83	-0.09353163
105	0xbbbae3da	-0.0057034316
106	0x3dcb11d5	0.099155106
107	0xa2ec49aa	-6.4045923e-18
108	0x3c2edcdb	0.010672773
109	0xabe2bd92	-1.6110882e-12
110	0x3d298107	0.041382816
111	0xbd1d5f07	-0.038420703
112	0x3ccbaafd	0.024861807
113	0x3dd14861	0.10218883
114	0x3dc24b4b	0.09487017
115	0xa245c6d8	-2.6803746e-18
116	0x3d9e723c	0.07736632
117	0xbc42f514	-0.0118992515
118	0xaaed81d1	-4.2189735e-13
119	0xbd588b83	-0.052867424
120	0xbd925d68	-0.07146722
121	0x3e282f47	0.16424285
122	0xbc3b0f1f	-0.011417179
123	0x38026f8d	3.1098305e-05
124	0xbd31be65	-0.043394465
125	0xbd789bd4	-0.060695484
126	0x3d8e5aa6	0.069508836
127	0xbcd636c2	-0.026149157
128	0x3d101a44	0.0351813
129	0x3d589af1	0.05288214
130	0xb50b485d	-5.188684e-07
131	0x3c975c71	0.018476697
132	0x3d369f9e	0.044585817
133	0xbd7832f6	-0.060595475
134	0xa816bdb3	-8.367807e-15
135	0xb6d1a911	-6.2483673e-06
136	0xbd9081f5	-0.07056037
137	0x3d78b252	0.060716935
138	0x3c788f69	0.01517091
139	0xba9d325a	-0.0011993155
140	0xbd19b218	-0.03752336
141	0x3d5aebbe	0.053447478
142	0x305b5273	7.9788903e-10
143	0xbcd02979	-0.0254104
144	0xa2276c9d	-2.269022e-18
145	0xbd1df087	-0.038559463
146	0xa716da1f	-2.0934925e-15
147	0xa1ab526d	-1.1609229e-18
148	0xbd19b684	-0.037527576
149	0xbd612648	-0.05496815
150	0xbda6e6d0	-0.08149493
151	0x3d302aef	0.043009695
152	0x28df8673	2.4816282e-14
153	0x3caf8b98	0.021428868
154	0x28404d03	1.067484e-14
155	0xa9a6173d	-7.375912e-14
156	0xbc76b1d4	-0.015057046
157	0x3d6b92cc	0.057513043
158	0xa230ad1b	-2.394409e-18
159	0xbd56af5d	-0.052413333
160	0xbc74baab	-0.014937083
161	0xbbe8dff4	-0.0071067754
162	0x3cd1822e	0.02557477
163	0x220a02b5	1.870392e-18
164	0x39c40a30	0.00037391623
165	0xa1820665	-8.810835e-19
166	0xb9a60537	-0.00031665873
167	0xa258537b	-2.9317653e-18
168	0xbc980396	-0.018556397
169	0xbd0c4a41	-0.0342505
170	0xbb284c67	-0.0025680305
171	0xbadb7a4e	-0.0016744824
172	0xbc804d76	-0.015661936
173	0x294ba29f	4.5216106e-14
174	0xbd65d0ff	-0.056107517
175	0xa0988649	-2.5838664e-19
176	0x3d4506e6	0.048102282
177	0xbc776459	-0.015099608
178	0x3ced04ba	0.028932918
179	0x2db388c9	2.0410689e-11
180	0xbd20cf72	-0.039260335
181	0x3b903723	0.004401104
182	0xa46e6206	-5.1691052e-17
183	0xbd3ca44e	-0.04605513
184	0xbc0abd87	-0.008468038
185	0xba2c14e1	-0.00065643905
186	0xa69b4945	-1.0775145e-15
187	0x27641079	3.1650286e-15
188	0x3d10bb7c	0.03533505
189	0xbda2cb4b	-0.07948931
190	0x3c704d53	0.014666873
191	0x21d4134a	1.4370785e-18
192	0x391ebf17	0.0001513924
193	0xbc1e6fdf	-0.009670227
194	0xbd85d811	-0.06535352
195	0xba23d6b6	-0.0006249951
196	0xbc04cd3a	-0.00810557
197	0x2f780174	2.2555985e-10
198	0x2496607c	6.521558e-17
199	0xbd00198d	-0.031274367
200	0xbd9269c9	-0.07149083
201	0xbca2c451	-0.019869002
202	0xbcc7be67	-0.024382783
203	0xbc04989b	-0.008093025
204	0x3d16c401	0.036808018
205	0x30bb3a3a	1.362259e-09
206	0x3d159d9e	0.03652727
207	0xbab34390	-0.0013676751
208	0xbcb29736	-0.021800619
209	0x3d0047dd	0.031318534
210	0x2194c701	1.0081546e-18
211	0x3d80c435	0.062874235
212	0xbbf165a2	-0.007366852
213	0x3d2ff130	0.042954624
214	0xbd044714	-0.032294348
215	0xbcf35a7e	-0.029706236
216	0xbd20e9f3	-0.03928561
217	0x3ca1a63b	0.019732585
218	0xbd52e398	-0.05148658
219	0xbcbcc4af	-0.023043005
220	0x3d474daa	0.04865805
221	0x3c46c64c	0.012132239
222	0x3d020c56	0.031750046
223	0xbd329741	-0.04360128
224	0xa18857d1	-9.238963e-19
225	0x3c3d5949	0.011556932
226	0x3ccd553f	0.025065063
227	0xa01405e1	-1.2538033e-19
228	0xbd92a3cc	-0.07160148
229	0x3bde0f2c	0.006776711
230	0xb57bbe70	-9.378191e-07
231	0x3c10315f	0.0088008335
232	0xbd528301	-0.051394466
233	0xbd67c522	-0.056584485
234	0xbc30ed7d	-0.010798809
235	0x21b642da	1.2350495e-18
236	0xa699841c	-1.0652316e-15
237	0x1e25041a	8.7358755e-21
238	0xb901b5db	-0.00012370145
239	0xbd636675	-0.055517633
240	0x3c128a7a	0.008944148
241	0x3d154093	0.036438536
242	0x3cbcde63	0.023055261
243	0xa1be43c0	-1.2892834e-18
244	0x3c02288b	0.0079442365
245	0xbd0d5d5a	-0.034512855
246	0xa36bce43	-1.2783053e-17
247	0x3d26b45c	0.040699348
248	0x23ba0f8f	2.017275e-17
249	0xa3e4d888	-2.4811514e-17
250	0xacc32c62	-5.547161e-12
251	0xa1aeec06	-1.1853174e-18
252	0xbb85380e	-0.00406552
253	0x2893182d	1.6330763e-14
254	0x3b8d261a	0.0043075206
255	0xbd66ddf1	-0.056364004

act_conv1.bias f4 [4]
0	0x3d4f439c	0.050601587
1	0xbd90fcd1	-0.07079471
2	0xbd0f103a	-0.034927584
3	0x3dffbdab	0.12487348

act_fc1.weight f4 [81, 324]
0	0x3c8f7b06	0.017514717
1	0x3b43f302	0.0029899483
2	0xbb3347f0	-0.002735611
3	0xbbe485be	-0.006973951
4	0xbc9403e3	-0.01806826
5	0xbc553286	-0.013012534
6	0xbc90cbf0	-0.01767537
7	0xbd32074e	-0.043463998
8	0xbd2faf08	-0.042891532
9	0x3d3e929c	0.046526536
10	0x3d1d2e5f	0.0383743
11	0xbd515bda	-0.051112987
12	0xbd3badc7	-0.045820024
13	0xbcf4bb32	-0.029874418
14	0x39446ef5	0.00018733351
15	0xbd2c2567	-0.042027857
16	0xbb91a979	-0.0044452515
17	0xbd640535	-0.05566903
18	0x3c5a3bbd	0.013319907
19	0x3c0e62c5	0.008690541
20	0xbbfde345	-0.00774804
21	0xbd147794	-0.03624685
22	0xbc4a35fe	-0.012341974
23	0xbd070711	-0.032965723
24	0x3b206b6e	0.0024478096
25	0xbce01b2b	-0.027356705
26	0x3b407bfa	0.002937077
27	0x3cfe8bc4	0.031072505
28	0xbcffe8d8	-0.031238958
29	0xbbfc8c08	-0.0077071227
30	0x3b85065d	0.0040595965
31	0xbb58d30f	-0.0033084785
32	0x3b2222be	0.0024739946
33	0xbcf65def	-0.030074088
34	0x3cfacc11	0.030614885
35	0xbd538c51	-0.051647488
36	0xbcf3a78c	-0.029742979
37	0xbd17082e	-0.036873035
38	0xbce00529	-0.02734621
39	0xbb2d998d	-0.0026489228
40	0x3b88c1e0	0.0041735023
41	0xbc8eff2d	-0.017455662
42	0xbd7964b4	-0.060887054
43	0xbca13a98	-0.01968126
44	0xbd0b2e89	-0.033979926
45	0x3ac813f2	0.0015264733
46	0xbd7bc210	-0.06146437
47	0x3c9d2250	0.0191814
48	0xba8025ec	-0.0009776927
49	0xbce64812	-0.028110538
50	0xbd0d2be4	-0.034465685
51	0xbc301396	-0.010746857
52	0xbd6a83dd	-0.05725466
53	0xbd079e96	-0.033110224
54	0x3d5df045	0.054184217
55	0x3c7bef4f	0.01537688
56	0xbd0b9311	-0.0340758
57	0xbcd636af	-0.026149122
58	0xbc9ed5ea	-0.019389112
59	0x3bb1b2b5	0.005422915
60	0xbcc965eb	-0.024584731
61	0xbd2f006b	-0.042725008
62	0xbd870d13	-0.065942906
63	0x3e8b3234	0.2718674
64	0xbce448b0	-0.027866691
65	0x3ca5b4ea	0.020227868
66	0x39f592fc	0.00046839553
67	0xbdb6b9ed	-0.08922181
68	0xbcc2bdc7	-0.023772134
69	0xbc8d7ab7	-0.017270429
70	0x3d0ea28b	0.03482298
71	0x3c80ee4e	0.015738633
72	0x3e96c015	0.29443422
73	0x3e76b9e5	0.2409435
74	0xbd351028	-0.04420486
75	0x3d40180c	0.046897933
76	0xbc9ec13c	-0.01937925
77	0xbc099127	-0.008396423
78	0xbbe9c976	-0.0071346117
79	0xba44bf96	-0.0007505355
80	0x3d1832af	0.03715771
81	0xba6da69b	-0.00090656587
82	0xbbb0dfd7	-0.0053977775
83	0xbbce83f8	-0.006302353
84	0xbc74be2d	-0.01493792
85	0x3b804675	0.003914649
86	0xbb7ed629	-0.0038884974
87	0x3b4a1a75	0.0030838524
88	0x3ab84501	0.0014058651
89	0xb6a6e7cd	-4.9741707e-06
90	0xbb206fea	-0.0024480768
91	0xba1f6cb9	-0.00060815696
92	0xbc8d88a8	-0.017277077
93	0x3b112833	0.0022149205
94	0xbb0bde9d	-0.0021342405
95	0xbb103735	-0.0022005562
96	0xbb309a55	-0.0026947458
97	0xbb87b3d1	-0.004141309
98	0xba488ef3	-0.00076506956
99	0xbae2f7bf	-0.0017316266
100	0x3b9dd3c9	0.0048165065
101	0xbcc15129	-0.02359827
102	0xbc105ef8	-0.008811705
103	0xbbab1feb	-0.005222311
104	0x3c1994a8	0.009373821
105	0xbc7f6ceb	-0.015589933
106	0xbb28e769	-0.0025772697
107	0x3a0416e5	0.0005038812
108	0x3a6fe553	0.00091512984
109	0x3c315347	0.0108230775
110	0xbc8a5a81	-0.016888859
111	0xbc1e81fc	-0.009674545
112	0xbc5d3449	-0.013501235
113	0xbce9c174	-0.028534628
114	0x3c4abcd7	0.0123741245
115	0xba683886	-0.00088585203
116	0xbad03ec5	-0.0015887847
117	0xbbd04678	-0.006356057
118	0x3bdd7c9a	0.0067592384
119	0x3c031802	0.008001329
120	0xbafc2275	-0.0019236343
121	0xbce02899	-0.027363108
122	0xbcc56554	-0.024096169
123	0x3c19ea67	0.009394265
124	0xbbf1ea9f	-0.0073827053
125	0xbac78a8a	-0.0015223783
126	0xbc22fdef	-0.009948238
127	0xbbf96fb7	-0.0076121944
128	0x3b0d70cf	0.0021582132
129	0xbceaea4a	-0.02867617
130	0xbbd2c64e	-0.006432331
131	0xbc856c15	-0.01628689
132	0x3bdcdd97	0.0067402828
133	0x3ae44b20	0.0017417409
134	0xba63bb90	-0.0008687312
135	0xbbc5d9ee	-0.006037942
136	0xbb5ce956	-0.0033708415
137	0xbcb45a90	-0.02201584
138	0xbce3490e	-0.027744796
139	0xbca087b0	-0.01959595
140	0xbc11164b	-0.008855413
141	0xbc8cf764	-0.017207809
142	0xbc588324	-0.01321486
143	0x39ef8e60	0.0004569171
144	0xbb5214a9	-0.0032055771
145	0xbbc5d7ad	-0.0060376734
146	0xb8d4b5eb	-0.000101428326
147	0xbca4e539	-0.020128833
148	0xbcc3b29f	-0.023888884
149	0xbc806a9c	-0.015675835
150	0xbca7fd59	-0.020506548
151	0xb901c07f	-0.00012374109
152	0x389bf96b	7.437434e-05
153	0x36a902c0	5.0369126e-06
154	0xba858606	-0.0010187037
155	0xbad1181d	-0.0015952621
156	0xba7539c4	-0.0009354616
157	0xbb0b873a	-0.0021290318
158	0xbb7c52fd	-0.0038501613
159	0xbb42a2ad	-0.0029699013
160	0x375e4e4a	1.3250459e-05
161	0xa38b5b93	-1.5109193e-17
162	0x2024a583	1.3946104e-19
163	0x2133eaf8	6.095854e-19
164	0x211984eb	5.201433e-19
165	0xa1376774	-6.213973e-19
166	0xa159aa40	-7.3747784e-19
167	0xa27cc5b7	-3.4257038e-18
168	0xa007b423	-1.1494547e-19
169	0x201d2c59	1.3313091e-19
170	0xa17aa794	-8.492508e-19
171	0x202f1609	1.4830367e-19
172	0x23ae6c2b	1.8910929e-17
173	0x210549df	4.515992e-19
174	0x2139a6cb	6.2901187e-19
175	0xa5809660	-2.2306359e-16
176	0xa2354817	-2.4568238e-18
177	0xa18ed88d	-9.679615e-19
178	0x23e203c6	2.4504567e-17
179	0x21545478	7.1940187e-19
180	0xa2c916ec	-5.450543e-18
181	0x2b1ebf7b	5.639861e-13
182	0xad6ca379	-1.3451345e-11
183	0x2f507c27	1.8961598e-10
184	0xad850b19	-1.5125278e-11
185	0xaefb5c85	-1.1430593e-10
186	0xaec20ffd	-8.824939e-11
187	0xaad6b8a9	-3.814217e-13
188	0x1ef059a4	2.5448063e-20
189	0x22d53489	5.778939e-18
190	0x30ffaedb	1.8603389e-09
191	0xb2cf846d	-2.4158192e-08
192	0xb18af673	-4.0443466e-09
193	0xb0314f0e	-6.450457e-10
194	0xb13fd210	-2.7913565e-09
195	0x32abc4a5	1.9996444e-08
196	0xaf0164bd	-1.1768271e-10
197	0x269d3ee3	1.0911109e-15
198	0x231d57e5	8.5295994e-18
199	0x2f570f62	1.9559601e-10
200	0xb1164ea2	-2.187257e-09
201	0xb08478f7	-9.638644e-10
202	0xb2937cba	-1.7169771e-08
203	0x316b118e	3.420698e-09
204	0x322ca2c8	1.004873e-08
205	0x2edacca7	9.949846e-11
206	0x21e120ad	1.5255242e-18
207	0x226ef384	3.238393e-18
208	0x30b66a39	1.3272433e-09
209	0xb351f0a9	-4.8880484e-08
210	0xb30422b5	-3.076521e-08
211	0xb261204c	-1.3104067e-08
212	0xb2452568	-1.1475414e-08
213	0x331b9715	3.6226158e-08
214	0x30cfc4e0	1.5117188e-09
215	0x235d139d	1.1984587e-17
216	0xa477a74c	-5.3701293e-17
217	0xb0a39819	-1.190304e-09
218	0x341aa476	1.4402198e-07
219	0xb2924341	-1.702722e-08
220	0xb4198a00	-1.429944e-07
221	0xb3b9e5bc	-8.656522e-08
222	0xb4876dda	-2.5225637e-07
223	0x2f8eeff9	2.600016e-10
224	0x1fdba0d9	9.301621e-20
225	0xa7cbb122	-5.6535866e-15
226	0x355df6d5	8.2688103e-07
227	0xb63d553a	-2.8212803e-06
228	0x370ca402	8.382836e-06
229	0xb79eb0eb	-1.8917452e-05
230	0xb74484f4	-1.1713466e-05
231	0x35c5b913	1.4731507e-06
232	0x2e998076	6.980454e-11
233	0x210ffb09	4.8782527e-19
234	0x2fd18d28	3.8117176e-10
235	0x3952d37f	0.00020105949
236	0xba1cd069	-0.0005981983
237	0xb7c56fef	-2.3536353e-05
238	0xb9ec9ff9	-0.00045132617
239	0x39ea2431	0.00044658923
240	0x3910edae	0.00013821453
241	0xb720ddc8	-9.588381e-06
242	0xa250ecdb	-2.8314647e-18
243	0x3d95cf5b	0.073149405
244	0x3d6316d1	0.05544168
245	0x3caf9d11	0.0214372
246	0x3d2eb698	0.042654604
247	0x3d235330	0.039874256
248	0x3d5c58c5	0.053795595
249	0x3d080536	0.033208095
250	0x3cf114db	0.02942889
251	0x3d85e177	0.06537145
252	0x3d662f01	0.05619717
253	0x3b68ddb2	0.0035532531
254	0x3ce3b102	0.027794365
255	0x3cba56af	0.022746412

act_fc1.bias f4 [81]
0	0x3e0f592c	0.1399886
1	0xbcd9bab3	-0.026578283
2	0xbe501cec	-0.20323533
3	0x3e0d6dc7	0.13811408
4	0x3e1524b6	0.14564785
5	0x3e0bbf2f	0.1364715
6	0xbe0366a3	-0.12832122
7	0xbcd96fa5	-0.026542494
8	0x3ddd8118	0.10815638
9	0xbc9c4f0c	-0.019080661
10	0xbd947990	-0.07249749
11	0x3dde8137	0.108644895
12	0x3d59d9d6	0.05318626
13	0x3e86e53e	0.26346773
14	0x3d9ad7ad	0.07560668
15	0x3daecf51	0.08535636
16	0xbe36e32f	-0.17860101
17	0xbd272df4	-0.04081531
18	0xbe325189	-0.17413916
19	0x3e13ee61	0.14446403
20	0x3c47c758	0.012193523
21	0x3e726e7b	0.23674957
22	0xbdb6c4c2	-0.08924247
23	0x3e4b52fe	0.19855878
24	0x3cda889f	0.026676474
25	0x3e1d9ca9	0.15391792
26	0xbe03dd3f	-0.12877367
27	0x3db5bf47	0.08874374
28	0x3d16e537	0.03683969
29	0x3e080aef	0.13285421
30	0x3e100072	0.1406267
31	0x3e49a9ea	0.19693723
32	0x3dd87d7e	0.10570811
33	0x3e49152b	0.19636981
34	0x3d4bf672	0.049795575
35	0x3defb955	0.11705271
36	0x3df669c6	0.120318934
37	0x3e5b6900	0.21426773
38	0xbd22c73a	-0.03974078
39	0x3e8490da	0.25891763
40	0xbd158679	-0.036505196
41	0x3e9315fe	0.28727716
42	0xbdb5ddc4	-0.08880189
43	0x3e73929d	0.23786397
44	0x3dd25888	0.10270792
45	0x3dbe8452	0.09302582
46	0x3d7129cd	0.058877755
47	0x3e25317a	0.16132155
48	0x3df3ba35	0.119007505
49	0x3e7f7f5b	0.24950926
50	0x3da9aa33	0.08284416
51	0x3e5a9711	0.2134669
52	0x3b978f25	0.0046252185
53	0x3dbdf89e	0.092759356
54	0xbe335386	-0.1751233
55	0x3e0dd723	0.138516
56	0x3dc86e5f	0.097866766
57	0x3e7dc50f	0.24782203
58	0xbdcdd0f3	-0.100496195
59	0x3e163c2b	0.1467139
60	0xbb338ff5	-0.0027399037
61	0x3e1d5f2b	0.15368335
62	0xbe0f452e	-0.13991234
63	0xbda4f936	-0.08055346
64	0xbe007880	-0.12545967
65	0x3e132932	0.14371184
66	0x3d5e6161	0.054292087
67	0x3e343b54	0.17600757
68	0x3d16ac6e	0.036785536
69	0x3e0cf3f3	0.13764934
70	0xbe1cf6ae	-0.15328476
71	0xbd09c721	-0.03363717
72	0x3d494cb7	0.049145427
73	0xbdafd78b	-0.085860334
74	0xbe36b8aa	-0.17843881
75	0x3dd8400a	0.105590895
76	0x3d9c7b3e	0.07640694
77	0x3dbd8d74	0.09255496
78	0xbe24139c	-0.16023105
79	0xbcec0ab9	-0.028813707
80	0x3dea874c	0.11451587

val_conv1.weight f4 [2, 128, 1, 1]
0	0x3d348b94	0.044078425
1	0x3cc5f4fe	0.024164673
2	0xbd328f12	-0.043593474
3	0x3c857c3a	0.016294587
4	0x3d9ffd95	0.07812039
5	0xbd5821be	-0.052766554
6	0x2861725d	1.2514808e-14
7	0xa2d25f1f	-5.7021327e-18
8	0xbbdb9bf2	-0.0067019397
9	0x3d4bfb58	0.049800247
10	0xbdc21b2d	-0.094778396
11	0x3bcdbb4a	0.00627843
12	0xbdde3cbd	-0.10851429
13	0x3ca4d08a	0.02011897
14	0xbd65364d	-0.05595999
15	0x3db146b4	0.08656064
16	0xbd005d4b	-0.03133897
17	0xbd1752e4	-0.036944285
18	0x3b10d59b	0.0022099975
19	0xbc4b8220	-0.012421161
20	0xbdebef23	-0.11520221
21	0xbd80ac22	-0.06282832
22	0x3c86121a	0.016366053
23	0x3c8f8908	0.017521396
24	0x3c9c4c16	0.01907925
25	0x3cfff5c2	0.031245116
26	0x39681ab1	0.00022135187
27	0xbbfa1ed3	-0.007633069
28	0x3d2cd44f	0.04219466
29	0x3d9767cc	0.073928446
30	0xbb8f9bdf	-0.004382595
31	0xbd9b91c0	-0.07596159
32	0x3d88f60d	0.066875555
33	0x3ca62afd	0.02028417
34	0x3d708db5	0.058728892
35	0xbd87d5ef	-0.066326015
36	0xbd2fd116	-0.04292401
37	0xbc8753c7	-0.01651944
38	0x3c7ec39b	0.015549566
39	0xbcc51121	-0.02405602
40	0xbbf272d0	-0.0073989406
41	0x3d4ca4a0	0.049961686
42	0x3d364ae0	0.044505
43	0xbd6bd02b	-0.05757157
44	0x3d091965	0.033471484
45	0xbc32594b	-0.010885547
46	0xbdade787	-0.08491426
47	0xa463849c	-4.9335103e-17
48	0x3cb134e8	0.021631673
49	0xbd44ca36	-0.048044406
50	0x3d9bb4f1	0.07602871
51	0xbba1b525	-0.004934924
52	0x3c8689c1	0.016423108
53	0x3d3a857c	0.045537457
54	0xbc2e2fc5	-0.010631506
55	0x3d76c3bb	0.060245257
56	0x3d36eb80	0.044658184
57	0xbd534712	-0.05158145
58	0x34542ef8	1.9761126e-07
59	0xbd04fa69	-0.032465372
60	0xbdb9bac9	-0.090688296
61	0x3cbd8d47	0.023138655
62	0x3d934662	0.07191159
63	0x2be343b3	1.614811e-12
64	0x3cac550a	0.021036644
65	0xbcadcee7	-0.021216823
66	0x3da0c117	0.07849329
67	0xbd2b57e9	-0.041831885
68	0xbc99f9a0	-0.018795788
69	0xbd7b2a64	-0.061319724
70	0xbc70ac0a	-0.014689455
71	0x3bde469a	0.0067833187
72	0x3d391d29	0.045193825
73	0xbda2ec8e	-0.079552755
74	0x3d872f2a	0.06600793
75	0x3d9cf669	0.076641865
76	0x3cd29900	0.025707722
77	0xbce19de1	-0.027541103
78	0x3d86a540	0.06574488
79	0xbcb78bf5	-0.022405604
80	0xbd559d23	-0.05215181
81	0xbd2b516d	-0.0418257
82	0xbbdb9a9c	-0.0067017805
83	0x3d6966aa	0.056982674
84	0xbd6a7bcc	-0.05724697
85	0x3c7f1438	0.015568785
86	0x3d5da5a0	0.05411303
87	0x3d240d12	0.040051527
88	0x3d783222	0.060594685
89	0x3cf94d22	0.030432288
90	0x3ca9621e	0.020676669
91	0x3c81eebe	0.015860911
92	0x3d205c71	0.03915066
93	0xbd5cbb3c	-0.053889498
94	0xbdb94bf8	-0.09047693
95	0xbaedcb00	-0.0018142164
96	0x3b9d32ce	0.004797316
97	0xbd99c678	-0.07508558
98	0x3c6bf2a3	0.014401111
99	0x3a696c79	0.00089044083
100	0x3cdf72e0	0.027276456
101	0x3da9bcbb	0.082879506
102	0x3aea67a8	0.0017883675
103	0xbdf8d093	-0.121491574
104	0xbd73e8b4	-0.059548095
105	0xbd0a500b	-0.03376774
106	0xbd80cb53	-0.06288781
107	0xbc180efc	-0.009280916
108	0xa11b00cc	-5.2517097e-19
109	0x3d5139f2	0.05108065
110	0x3d484c05	0.048900623
111	0x3cc20cb5	0.0236877
112	0xbd955661	-0.07291866
113	0x3d0c9e0e	0.03433042
114	0x3ac9f970	0.0015409421
115	0xb1f3edc2	-7.0992607e-09
116	0xbde38db1	-0.1111101
117	0xbd87a7c1	-0.066237934
118	0xbd0130df	-0.031540748
119	0x3d968ff4	0.07351676
120	0xbdbf6109	-0.0934468
121	0x3b8be079	0.0042687026
122	0xbd1210b2	-0.035660453
123	0xbc69055c	-0.014222469
124	0xbd8d8636	-0.06910364
125	0xbce333cd	-0.027734661
126	0x3caf4ab1	0.02139792
127	0x3c0d02fc	0.008606669
128	0xbb17a586	-0.002313943
129	0xbc085978	-0.008322112
130	0xbc579461	-0.013157935
131	0x3c023ede	0.007949559
132	0x3d07510d	0.03303628
133	0x3d022d0c	0.03178124
134	0x23981a6b	1.6491061e-17
135	0x20a43c66	2.782265e-19
136	0xbcd7e42e	-0.026353922
137	0x3d783fde	0.060607783
138	0xbd662a9a	-0.05619297
139	0xbd8a95c6	-0.06766848
140	0xbdaaedf0	-0.08346164
141	0xbc00e113	-0.007866162
142	0xb779f4c2	-1.4898544e-05
143	0x3d2f3a65	0.0427803
144	0x39886061	0.0002601175
145	0x3d1d773e	0.038443796
146	0x1dc205b2	5.135726e-21
147	0xa26c60f7	-3.2035297e-18
148	0xbd89e1bb	-0.06732508
149	0x3afc20c0	0.0019235834
150	0x3d455667	0.048178103
151	0x3bb641f5	0.005562062
152	0x223155c5	2.403338e-18
153	0xbd9d7ab4	-0.076894194
154	0x1f65371d	4.8538225e-20
155	0x2350444d	1.1290166e-17
156	0xbd24a648	-0.04019764
157	0x3c9cc51a	0.019136954
158	0x338df9dd	6.611274e-08
159	0xbda51151	-0.080599435
160	0xbc51b835	-0.012800266
161	0xbb66c9a2	-0.0035215397
162	0xbd39cca8	-0.04536119
163	0xbce4fb3d	-0.027951831
164	0xa2b15a97	-4.807186e-18
165	0x2655bbd7	7.415379e-16
166	0xbd0e808a	-0.034790553
167	0x299c560a	6.942717e-14
168	0xb7caa726	-2.4158111e-05
169	0x3ca52538	0.020159349
170	0x3d638ea8	0.05555597
171	0x39392a49	0.00017658727
172	0x3d114c86	0.03547337
173	0x21001244	4.339226e-19
174	0xbcf2428b	-0.029572746
175	0x21ee8f99	1.6165517e-18
176	0x3b1d3bca	0.0023991936
177	0xbcf4df74	-0.029891707
178	0x3d37e198	0.044892877
179	0x231494bc	8.054592e-18
180	0x3d02c723	0.031928193
181	0xbc0624e5	-0.008187507
182	0xa170a967	-8.1539365e-19
183	0xbd0de24d	-0.034639645
184	0x3d61ce52	0.055128403
185	0x2c90ba5b	4.1134158e-12
186	0x1fe850c3	9.838943e-20
187	0xb98cc3bb	-0.0002684871
188	0xbbaf70e8	-0.0053540356
189	0x3ce357e1	0.027751865
190	0xbd220a82	-0.039560802
191	0xa116cacb	-5.109037e-19
192	0x2a9fad5d	2.836437e-13
193	0xa5529209	-1.8264075e-16
194	0x3d46498b	0.04840998
195	0xac17289b	-2.1480931e-12
196	0xac99180c	-4.3511913e-12
197	0x3aa713a8	0.0012746947
198	0x3b37dffc	0.002805709
199	0xbd3f1e4e	-0.04665976
200	0xbd9e3371	-0.077246554
201	0xbda98a9a	-0.08278389
202	0x3c80c2fe	0.01571798
203	0xbd053e55	-0.032530148
204	0x3b48c7be	0.0030636634
205	0xa02858c1	-1.425952e-19
206	0xbd9da5b7	-0.07697623
207	0xb7a249be	-1.9346244e-05
208	0xbcb2b6da	-0.021815706
209	0xbce33c77	-0.027738793
210	0xa46e5249	-5.167772e-17
211	0xbc84568c	-0.01615455
212	0xbd87d600	-0.06632614
213	0x3cc81f62	0.024429027
214	0x3b209708	0.0024504084
215	0xbc239eb3	-0.009986567
216	0xbd8c8b81	-0.06862546
217	0xbcb820d5	-0.022476593
218	0xbce4c41f	-0.02792555
219	0xbc2be681	-0.010491968
220	0xbd6398fd	-0.055565823
221	0xbd84cc21	-0.06484247
222	0xbd1d504a	-0.038406648
223	0xbd831876	-0.0640115
224	0x21b1cffa	1.2049037e-18
225	0x3b3e6a04	0.002905489
226	0x2f232758	1.4838741e-10
227	0xb871b688	-5.7628873e-05
228	0x3c9c54e9	0.019083457
229	0xbc283c33	-0.010268259
230	0x22c8f2a7	5.4467027e-18
231	0xbd6d6689	-0.057959113
232	0xb9c9d264	-0.0003849446
233	0xbcf4bd52	-0.029875431
234	0xbba3c605	-0.004997971
235	0xa2010c9f	-1.7489442e-18
236	0xa3e9cf18	-2.5349618e-17
237	0xa43c3ba6	-4.0816526e-17
238	0x3c3e94ba	0.011632139
239	0xbd803eae	-0.06261955
240	0xb982282b	-0.0002482546
241	0xbc08b139	-0.008343034
242	0x3cf6caa3	0.030125922
243	0x2a5896e7	1.9237009e-13
244	0xbd261d01	-0.040555004
245	0x3c6f307a	0.01459896
246	0x2128d930	5.720806e-19
247	0x3d6f2620	0.05838597
248	0xbce8ba1e	-0.02840906
249	0x22479756	2.7049646e-18
250	0xb6beb27d	-5.68322e-06
251	0xa6d848c6	-1.5007736e-15
252	0xbcc41c74	-0.023939349
253	0x3cd30f69	0.025764184
254	0xbd8c29de	-0.06843923
255	0xbd469829	-0.048484955

val_conv1.bias f4 [2]
0	0x3d6ed909	0.05831245
1	0xbd87dcac	-0.06633887
