课程设计/AlphaZero简单复现/models/policy_batch_850.model (torch, 530617 bytes, 15 tensors)

conv1.weight f4 [32, 4, 3, 3]
00000000: 7f6d 4b3e ba3f 47bd f51a 7d3e c30f 11bd
00000010: 5721 33bd 3e2a dfbd 3ca4 b03e 9b8e 5bbe
00000020: 3f15 d43e 2853 123e 9f64 d3bc a898 263e
00000030: 2da9 f7bb c299 dcbd bb04 84bd 6778 763e
00000040: 0881 a7bd bf01 783e d985 ab3d 149c b0bc
00000050: 86ed 4d3c cad8 83ba c9e1 9c3c fb8b 86bd
00000060: 0850 073c 4412 9bbd f07a c43d 7838 c7bb
00000070: fc16 d63a e533 5bbd f8dc c6bd 892a fc3d
00000080: 8259 babc 7f15 2c3b f210 193d 2d3c 3cbd
00000090: 49ee 9a3e d098 863e 56b2 c9be 6ea4 1e3e
000000a0: f901 7abd 5f1b 9c3e b872 5dbe 4305 173e
000000b0: dcca 233e f0dd de3d 589c f83c 7703 38bd
000000c0: 775c 53be 51a5 7d3b cec7 d7bd 963b e93d
000000d0: 14be 00be a6e5 2f3e ef18 0fbd e954 323b
000000e0: 0a58 693c 3589 88bc cb73 15bd 6fa5 ba3c
000000f0: 4f06 353d 27d9 b63c 97ca 60bc eafa de3a
00000100: 192e 19be cb1b 523d 634a 27be 1bc7 793d
00000110: 22ca 1ebe 076d 0e3e 31f4 6abd ebcc 223e
00000120: 6ab6 483e a767 213e ae50 e7bc 04ea 93be
00000130: 0c0f 79bd adcb 8dbe 6eb4 8e3d b05f 4c3e
00000140: 2609 62be fa93 f8bd 43ff 47be 351a 3cbd
00000150: 9213 703e 0ef4 2c3e 6474 d83d dc20 ca3d
00000160: 94b5 50be 5207 353c f532 60bd aaca f2bd
00000170: cd09 09bd 8259 86bd 4231 0dbc 287d 673d
00000180: 7cec 7f38 a675 36bd 75d9 0e3d 5b1d fdbd
00000190: 3d12 f73d 8634 a43d fbea bb3c 6d52 5d3d
000001a0: 90e1 803d 5894 683d 59f3 093e bf81 26be
000001b0: 656e 19bc 1d42 e3be 0369 9d3e 2574 83bd
000001c0: b3bc c13e ad20 bcbe 4fb0 453c ce60 173d
000001d0: 9b8e d03d 288f 8b3d 364a 963d cdfc 25be
000001e0: c0d3 0f3e 477b acbd 83fa ee3d a1e0 11bd
000001f0: 2a65 ec3d 9c14 2f3e 317a 4ebc 6fac 803c
00000200: bbe6 2ebc 9839 8dbb 3887 8cbc fc6d 5a3d
00000210: 52ee 76bc 7579 a5bb 0803 8d3c 38e4 8e3d
00000220: 9ebf 6ebd 5f83 c03d 8437 083e a595 14bc
00000230: 6f6a c1bd b37c e5bd 0c8d babd e6f7 013e
00000240: 16ef 5bbe 3391 b7bd 412e 0cbd dffd 513d
00000250: 41a4 073e fd8d d13d 27ff 6dbd e17b 97bb
00000260: d43f 3f3e 8658 08be bb08 70bc dd52 0cbe
00000270: 8ad3 c03d bf4c e9bb 81dc fbbd 5643 893d
00000280: b8ef 7dbd b370 02be 0a5b 2bbd fa6d 8e3b
00000290: 0a73 323e 5d1b 123e 9369 1a3c 930a 1fbd
000002a0: 5d1c 073d 8269 54bc 5577 14bd ec2a 8f3d
000002b0: 5da7 a23d 7dc9 003e b602 fd3d 692a a73d
000002c0: d882 d03d 5d28 133e 6d26 113e 981c f93d
000002d0: 9dee 6f3e 6294 613d 3aba b6bd ab2e a0be
000002e0: 110f bb3e 8702 a13e 2275 9c3e 8cbc 17bd
000002f0: 6ed9 8a3c 5f6f ca3d 7bf2 6ebd 1e34 15be
00000300: 38c3 f1be cd91 4f3e 1300 113e b48c f33d
00000310: 403c 40be e185 c9bd 9bb5 133e 2525 c63d
00000320: d07c fe3c 08e0 4e3d 2abb 1d3e 401b 6b3d
00000330: d0ef b43d ffce d13d 1e24 363b ae4b 1b3d
00000340: 0a47 413d ff82 ff3d 5ef8 163e 5c4c 03be
00000350: d0f0 9fbd 0600 91bc beca 73bd 06b2 2a3e
00000360: 40b6 45bc 97ed 9cbd c4f5 663c ed97 5dbd
00000370: 4800 86bc 61d0 63be cdb2 8e3c 5340 33bc
00000380: 0200 873e c459 3abd 5db2 3c3d c914 853d
00000390: 8e7f 0dbd 6f3e bc3e 16cf d5be a436 153d
000003a0: 5732 0ebf 7967 813e e0eb c5b5 a95f 9d3d
000003b0: fe45 4f3d e325 853d d103 233e 995c 48be
000003c0: f6d1 0d3e 7904 f4bd 62de 403e b042 9c3c
000003d0: 4177 053e 9bc9 fe3d 9b93 933a 38fc 92bd
000003e0: a379 bbbb 0f5e 09be 4728 f6bc 0c9e 51bd
000003f0: fada 4cbe c043 fe3d 13e4 9b3e 0050 28be
0.19865988 -0.04864476 0.24717315 -0.035415422 -0.043732967 -0.10896729 0.345003 -0.21441118
0.4142246 0.14289534 -0.025804816 0.16269171 -0.007558009 -0.107715145 -0.06446215 0.24069367
-0.08178908 0.24219416 0.08375139 -0.021558799 0.012568837 -0.0010059115 0.019150632 -0.06569668
0.008258827 -0.07571843 0.09593761 -0.0060797296 0.0016333754 -0.053516287 -0.09710115 0.123128004
-0.022747759 0.002625793 0.037369676 -0.045955826 0.30259922 0.26288462 -0.39393872 0.15492412
-0.061037038 0.30489632 -0.21625793 0.14748101 0.15995353 0.10882175 0.030347988 -0.04492518
-0.20640741 0.0038703273 -0.105361566 0.11388318 -0.12572509 0.17177448 -0.034935888 0.0027211255
0.014242182 -0.016666988 -0.036487382 0.022783963 0.04419547 0.022320343 -0.013720176 0.0017012034
-0.14958991 0.051296037 -0.1633697 0.060980897 -0.15506795 0.13908778 -0.057361785 0.15898483
0.19600835 0.15762196 -0.028236713 -0.28889477 -0.060805365 -0.27694455 0.06968008 0.19958377
-0.22073802 -0.12137599 -0.19530968 -0.04592343 0.23444965 0.16889974 0.10569075 0.09869549
-0.20381767 0.011049109 -0.054736096 -0.11855061 -0.033456612 -0.06560041 -0.008617701 0.056515843
6.101698e-05 -0.044545792 0.034875352 -0.12359115 0.120640256 0.080178306 0.022939196 0.054033685
0.06293023 0.056782097 0.13471736 -0.16260432 -0.009364699 -0.44386378 0.3074418 -0.06418637
0.3783928 -0.3674368 0.012065961 0.036957555 0.1018345 0.06814414 0.07338373 -0.16209717
0.1404562 -0.08421951 0.11668875 -0.035614613 0.11542733 0.17097706 -0.012602375 0.015707223
-0.010675128 -0.004309844 -0.017154321 0.053327546 -0.015071468 -0.005049879 0.01721336 0.06977123
-0.05828821 0.09400057 0.13302428 -0.009068881 -0.09444129 -0.11205425 -0.09108934 0.12692222
-0.21477923 -0.089632414 -0.0342238 0.0512675 0.13246252 0.1023216 -0.05810466 -0.004622922
0.18676692 -0.13315019 -0.014650519 -0.13703485 0.09415348 -0.0071197446 -0.12297917 0.067022964
-0.06199619 -0.12738304 -0.04183487 0.0043466063 0.17426696 0.14268251 0.009424585 -0.038828444
0.032986034 -0.012964608 -0.036246616 0.069906086 0.07942078 0.12576862 0.12354033 0.08162386
0.101812065 0.14370866 0.14174815 0.12163657 0.23430867 0.05507315 -0.08922239 -0.31285605
0.36534932 0.3144724 0.30558115 -0.037045047 0.016949382 0.098845236 -0.058336716 -0.14570662
-0.47219253 0.20270462 0.14160185 0.11892071 -0.18772984 -0.098399885 0.14424746 0.096750535
0.031065375 0.05050662 0.15403429 0.057399035 0.08834803 0.102445595 0.0027792524 0.03791397
0.04718689 0.124761574 0.14743182 -0.12822098 -0.07809603 -0.017700206 -0.059519522 0.16669473
-0.012067378 -0.07662504 0.014096681 -0.054099966 -0.016357556 -0.22247459 0.017419243 -0.010940629
0.26367193 -0.045495763 0.046068538 0.06498105 -0.034545474 0.36766383 -0.41759557 0.036429062
-0.5554556 0.25274256 -1.4746292e-06 0.07684261 0.05060386 0.06501367 0.15919425 -0.19566573
0.13849625 -0.119149156 0.18834832 0.019074768 0.13033773 0.12440797 0.00112592 -0.07177013
-0.0057212873 -0.13414787 -0.030048503 -0.051176116 -0.20005408 0.12415266 0.30447444 -0.16436768

conv1.bias f4 [32]
00000000: a765 95bd 0df9 023e 13a9 e03d 67d4 81bb
00000010: 681a 16be ad03 ad39 4376 a23c 860b 9f3d
00000020: 315c 053d 24b2 d8bd 2968 a03e 713d 11bd
00000030: 444f 0fbe bde1 05bd 8d1d 053c 3f84 6a3e
00000040: 039f 11bd 9222 723e 4201 cfbb f535 5a3c
00000050: da61 953e 8220 a7bc 3102 85bd 1947 96bc
00000060: cbef edbc 83d3 463e aeb7 893e 70c1 d1bc
00000070: 66a2 53bd 459b e7bd 50ad a23d ecaf 10be
-0.07294779 0.12790318 0.10969748 -0.003962088 -0.1465851 0.0003299987 0.019831782 0.0776587
0.032558624 -0.10580853 0.31329468 -0.035458986 -0.13995081 -0.032685984 0.008124721 0.2290201
-0.035552036 0.23646 -0.0063172886 0.013318528 0.29176217 -0.020401243 -0.064945586 -0.018344449
-0.029045006 0.19416623 0.2689795 -0.025604934 -0.051668547 -0.11308912 0.07943213 -0.14129609

conv2.weight f4 [64, 32, 3, 3]
00000000: e1cf df3d b26c 1c3e aa67 2c3e f654 3f3e
00000010: 80f3 6f3a ebde 4a3e 2289 b73b e920 d63d
00000020: d9a1 e03a 00ba 103e 8040 cfbd 5add 4abd
00000030: 58ba 873c 46e1 0ebd 6588 28be 476a 8d3b
00000040: ad66 893d 9cdf 483e 48eb 23bd 2972 913b
00000050: 2acd b23d dd2a 4abd dd9c 563d e978 56ba
00000060: 3686 18bd 65cf a1bd 4346 2dbd 68a1 4e3d
00000070: 674f ca3d 9ca8 cabc 5797 a63c 41fa f0bd
00000080: ca40 b83d 6a1c 2cbe 3bfa b43d 8d7e dcbd
00000090: 95d9 a83c 1350 44bb bcb8 c43b 9b30 213a
000000a0: 53da 91bb ba8d ff3b c0d0 acbc 74da 393c
000000b0: 2eca 113d b99d 17bd d706 a7bb 6b57 a9bc
000000c0: 0a8a 503d ea15 b13d 7a7b b5bd 65d2 6abd
000000d0: 57ec babc f44c 1abe df4c a93d 83f3 883c
000000e0: bb92 283c b042 e7bd e4a5 bdb9 cc5d c93d
000000f0: 3f8d eebb d3e3 243e c7d7 1e3d 212f a5bc
00000100: 7654 31be 3780 753d 3a45 8d3d fb86 b33d
00000110: 8a5c 80be 18e8 683e 3468 e13c 12db 87bd
00000120: 5b35 12bd e84e 613d 5b8d bcbd 80c3 ae3d
00000130: f883 8c3d dc51 64bd be1e 2bbd 724a cf3d
00000140: 9762 e93d 96ac 36bd 5650 913d b815 a93b
00000150: b968 85bd 6003 31bd ba19 c63c 0531 11bd
00000160: 392f 0c3d 3f78 423d ab25 113d bbf3 b4bd
00000170: 8e9d 1e3d 81af a43d 59de 5dbd f194 99bd
00000180: 49b3 583d 4470 ab3d 0840 e23d 5e16 88ba
00000190: 8a48 87bd 5958 563d e41d 9c3d 9218 863d
000001a0: 06d0 fc3d fed2 22bd 39c9 013c 42f1 f93b
000001b0: 750c 043c 1f42 c8bc 7a73 5dbd 0192 b93c
000001c0: f020 a2bd 9bc5 ba3d 2adb babd 09f4 e6ba
000001d0: 0282 e23d 7776 5fbd 0803 443b b2ef 8f3d
000001e0: 1f9d 513e eb00 beba cb60 29bd ac87 313e
000001f0: c9a7 89bd 1afb 0d3e 5f0e 2bbc f6d3 5a3e
00000200: f272 1d3e 1d52 4fbd b466 823d 9586 8d3d
00000210: 0b0c 1fbd 5da4 56be 7237 28bd b161 77bc
00000220: 2dfc 093d 3e96 d1ba 3623 83bc 3418 19bd
00000230: a0a4 8e3d 08cd 8bbd 2df6 8e3d a401 653d
00000240: c58d 96bd 1e1e 6cbd 6585 d9bd d7c1 0ebd
00000250: ef02 743d c0a7 813c 1b5f c13d b3ad 573e
00000260: 1a34 173e e2d5 553d eb14 5b3d 3cd3 33bd
00000270: cd6f 8239 a3d3 b7bc 55a2 97bd 6cbf 4d3d
00000280: 457c a4bc 7d24 803d ad93 1cbc 2b3d 6a3d
00000290: a661 20bd 67e1 3a3e bf0a 253e 968c 62bd
000002a0: 382f c8bc 5526 aa3a b5f7 96bd 13a7 c8bd
000002b0: 28c3 5b3d db88 cf3c 1a72 b03d 2a34 9fbc
000002c0: 0823 0fbc 5302 a93d 8fd0 fcbc a35c 25be
000002d0: 5bde a8bd fcbf 40bd 3f95 f7bc 678a 923d
000002e0: 8fd2 f5bd f36f fbbd f511 6a3d 3f1e a3bd
000002f0: 772d b63c ba11 503e 496a 453e b5ce 913d
00000300: 7e40 493d ebc4 0abd 62e5 86bd 9b04 65be
00000310: b916 c7be e85f 1b3d a40d d63d 8285 843c
00000320: 25d1 8bb9 40ef 853d 1443 193c 8fe8 873d
00000330: a77c b8bd 3cf1 fdbc 54f1 4a3d be32 e23c
00000340: a85d c43d c85b 9fbd 3134 3dbc 53d3 9d3d
00000350: ecbc 753d f653 ecbd a065 8b3d 8689 34be
00000360: 8f1d 5d3d 68a7 343e c6e6 dd3b e9b4 d83d
00000370: 778d 123d 4afa 9ebd 751c 3e3d c5a9 e6bd
00000380: 8ee6 bbbb 5d9c 3cbd a737 cb3c f6e8 2abd
00000390: 801d 12be 7424 013c a86a 073e 3da1 25be
000003a0: e072 3d3d 20c0 6d3e 9759 b4bd 8c4f 813d
000003b0: c37f 92bc b485 6e3d 193e e7bc 3a16 47bb
000003c0: 8c84 97bd e091 6abe e37d df3d f80b 2dbc
000003d0: e992 9fbd fce2 5fbd f4b6 793d da08 f6bc
000003e0: d134 9d3c e009 bf3d 66c1 2d3c 1f9c 7f3d
000003f0: 7dfb ce3b 1cad 5c3d 4d13 e0bc 31c3 28bd
0.10928322 0.15275839 0.1683642 0.18684754 0.0009153411 0.19811599 0.0056010643 0.10455496
0.0017138078 0.14133453 -0.10119724 -0.049527504 0.016568348 -0.034882806 -0.1645828 0.0043156478
0.06709037 0.1961655 -0.040019304 0.004438658 0.08730538 -0.049357284 0.05239569 -0.0008181469
-0.03723737 -0.079008855 -0.042303335 0.050446898 0.09878426 -0.024738602 0.020335836 -0.11766482
0.089967325 -0.16807714 0.0883679 -0.10766325 0.020611564 -0.0029954955 0.0060034674 0.00061489054
-0.004451075 0.0077988775 -0.021095634 0.011343587 0.035593204 -0.03701565 -0.005097251 -0.020671567
0.050912894 0.08646758 -0.08861442 -0.057329554 -0.022817774 -0.15068418 0.08266615 0.016717678
0.0102888895 -0.112920165 -0.00036172487 0.098323435 -0.0072800214 0.16102533 0.03878 -0.020164074
-0.17317376 0.05993673 0.068979695 0.0876598 -0.25070602 0.22744787 0.027515508 -0.06633581
-0.035695415 0.05500689 -0.09206649 0.085333824 0.068611085 -0.05574213 -0.041777365 0.10121621
0.11395758 -0.044598185 0.07095401 0.00516006 -0.06514115 -0.04321611 0.02418219 -0.03544714
0.034224723 0.047477957 0.035436314 -0.088355504 0.038724475 0.08041287 -0.054167125 -0.074991114
0.052905355 0.08371022 0.11047369 -0.0010382643 -0.066056326 0.05233035 0.07622889 0.06547655
0.12344365 -0.039752 0.00792151 0.007627637 0.008059611 -0.024445591 -0.054065205 0.022652628
-0.079164386 0.091197215 -0.091238335 -0.0017620336 0.11059953 -0.054556336 0.0029909033 0.0702814
0.20470093 -0.0014496123 -0.041352075 0.17336911 -0.067214556 0.13865319 -0.010440438 0.21369919
0.1537588 -0.05061542 0.06367245 0.06910435 -0.038829844 -0.20961137 -0.0410685 -0.015098975
0.03368776 -0.001599021 -0.016008 -0.037376598 0.069649935 -0.06826216 0.06980548 0.055909768
-0.07351259 -0.05764591 -0.10621146 -0.03485283 0.05957311 0.01582706 0.09441968 0.21062355
0.14765969 0.052205928 0.053486746 -0.04390262 0.0002487883 -0.022439783 -0.07404009 0.050231382
-0.020078788 0.062569596 -0.009556693 0.05718724 -0.039155625 0.18250047 0.1611738 -0.055309854
-0.024436578 0.0012981395 -0.07371465 -0.09797492 0.053652912 0.025333812 0.08615513 -0.019434053
-0.008736379 0.082523964 -0.030861167 -0.1614862 -0.08245536 -0.04705809 -0.030222533 0.071553044
-0.120030515 -0.12277212 0.05714603 -0.07964753 0.022238476 0.20319262 0.19278826 0.07119504
0.04913377 -0.0338792 -0.0658672 -0.22365038 -0.38884524 0.03793326 0.104518205 0.016176943
-0.0002666797 0.06539774 0.009354372 0.06636154 -0.090081505 -0.030998819 0.049546555 0.027612086
0.09588176 -0.07781178 -0.011548088 0.077063225 0.059994623 -0.11539452 0.06806493 -0.17630586
0.053983267 0.17641985 0.006771895 0.10581381 0.035779443 -0.077625826 0.046413857 -0.1126285
-0.0057342714 -0.046047557 0.02480681 -0.041726075 -0.14269066 0.007882226 0.1322428 -0.16174789
0.04625213 0.23217821 -0.088061504 0.063140005 -0.017883187 0.058232978 -0.028227853 -0.0030378238
-0.07398328 -0.2290721 0.10912683 -0.010561936 -0.07791693 -0.05465983 0.060965493 -0.030033518
0.019190224 0.093280554 0.010605192 0.062404748 0.006316601 0.053876027 -0.027352953 -0.041201774

conv2.bias f4 [64]
00000000: b04c 7ebd 50ab 8f3d e069 52bc 887c 4cbd
00000010: 69a1 e13d 0c2f 50bd 4014 25bc ff3d f9bb
00000020: ca13 57bc 1088 21bb 265b 173d fc09 c53a
00000030: e6fc 473d ef04 d73c 257d 38bd fdb4 ab3c
00000040: 89f8 e63c 502a 353b 9d23 173d 7275 c43d
00000050: bffe 803b b68f 3e3d 2f06 6c3d 1511 97bd
00000060: 3d99 093d 63bd 2b3d ba8f e03b 32e6 a13d
00000070: d63d 0f3d 32f5 4b3d d3a8 3d3d 54e9 ee3b
00000080: 3797 a63c a378 8dbc 6024 0dbd 868a e8bc
00000090: a6ba 0e3d 06e0 76bc d9c8 903d df52 d23d
000000a0: 6605 ce3d 48da e1bc e83b 8fbd 8cc7 98bd
000000b0: 0c4a 4d3d 1d35 38bc fee4 2f3c 8623 ddbb
000000c0: 51af 2c3d 0633 dbbb edc2 1b3c c343 ffbc
000000d0: 8bf3 2d3d c0a9 9c3d 8073 0bbb dc40 083d
000000e0: ca60 503c 7874 e5bc 51e8 993c a75a 8ebc
000000f0: 7501 1b3d cdcf 2ebd 15f8 2bbd 7abe 26bb
-0.062084854 0.07015097 -0.012842625 -0.04992345 0.11017115 -0.050826117 -0.010075629 -0.0076062675
-0.013127277 -0.002464775 0.03695216 0.0015032883 0.048825167 0.02624747 -0.045041222 0.020960325
0.028194683 0.0027643628 0.036899198 0.095927134 0.003936618 0.046523772 0.057623085 -0.07376305
0.033593405 0.04192866 0.006853071 0.079052344 0.03497108 0.049794383 0.04630358 0.0072909985
0.020335777 -0.017269438 -0.034458518 -0.028386366 0.03484597 -0.01506806 0.07069559 0.10269713
0.100596234 -0.027569905 -0.06993848 -0.074599355 0.050119445 -0.011243132 0.010735748 -0.0067486195
0.042159382 -0.006689432 0.009506923 -0.031160241 0.04246859 0.07649565 -0.002127856 0.03326498
0.012718389 -0.028009638 0.018787535 -0.01737721 0.037843186 -0.042678643 -0.041984636 -0.0025443123

conv3.weight f4 [128, 64, 3, 3]
00000000: 9f5b 73bc 7b51 10bd 80c1 943c 5285 77bd
00000010: 4c2a e2bd d798 8d3c 7bc5 5e3c cb70 3abd
00000020: ccef 803d 2d5a 3a3d 3e10 53bb 094d c03b
00000030: 76d7 093d 5193 a53c 44c5 aa3c 3879 4f3c
00000040: 023b 87bc 008c 153c 1bfe 21bb 5b22 f4bc
00000050: dec4 63bd 6493 923d e8a2 943d fc17 d23c
00000060: 0024 97bc 0b49 423d 2641 8abd eb28 683d
00000070: 7df2 643d b872 e53c 01a0 c73d 7a68 ab3c
00000080: 8915 4f3d 1694 903d 17dc a33d 805b 173d
00000090: 73cd 203d 9fb5 8f3d 4b6c 1c3d d867 a5ba
000000a0: d982 8a3d b44c b33d c5e0 2f3d ce09 9a3d
000000b0: e48c 503d adf1 b43c a917 2c3d 3fbc ad3c
000000c0: 298b a03c 3032 893c 13bf 073d 091d ef3b
000000d0: ad81 78bc ed3f 813c 2578 1e3c 4b07 763c
000000e0: 210e da3b 0d9e 003d f716 d33b bf54 04bc
000000f0: 3dde 693d cb10 603c bb36 0bbc 597d c23c
00000100: 01ff 5cbc cf84 3cbb 9f94 f43c 2d7a 28bc
00000110: cbad 9a3c c079 64bb 2a9d a63c a99e 113d
00000120: 6eac 043d 79ee df3c 7961 f9bb d6af 0b3d
00000130: 1a05 dd3c 639b 7fbc 112b 663d a701 263d
00000140: a126 77bc b7f3 7d3d 94e9 103d eaed 2f3d
00000150: 8df7 7a3d 671b bf3c de1d c9b9 059e 243d
00000160: 0e0e a4bc a265 3cba 99fa 9b3c 499b 10bd
00000170: 9ed5 b4bb 4df3 9cbb 4b1b aabc 1216 463d
00000180: 4e2c 8a3c b956 883c dad3 97bc 5cb0 ec3c
00000190: 7f5c 23bd 93bb db3c 2ebb 6b3d 0891 9a3d
000001a0: 0d3b a0b9 bef5 e3bc 3a86 ac3d 4e5d 0cbc
000001b0: f6ae 353c 4a3e 683c e87c c7bc ace9 773d
000001c0: 6559 173d c8c2 fe3c eb61 043d 92d5 cd3c
000001d0: 5faf 903c afd5 f63b ddb4 913a 0567 81bc
000001e0: dc36 4bbc 2911 f63b 2712 8eba c815 433d
000001f0: bd59 ecbb 15ca 423c 90b5 c03c 3f49 bf3c
00000200: 0af1 6a3c 507a 0f3d be99 0a3d 091c 0b3d
00000210: a75e 06bc aa0b 943b 13bd f83c 9247 693c
00000220: 2287 8c3c da79 2c3c e58b 853d 868f 4bba
00000230: e94f 9cbc f248 acbb c610 6e3d ea15 10bb
00000240: bae2 8abc d6a5 8a3d 3219 63bc 7e1a 773b
00000250: c042 d23c 5ebf 503d 396b b3bc 5901 193d
00000260: 98f4 83bd 212d 653d 9344 0fbd c6aa 343d
00000270: 44be 153c 1a4d d3b9 32f7 a3bc 15ab a53d
00000280: 5b2e 68bd 8621 0d3c 78df 3fbc 891b d43c
00000290: ea52 c0b8 2d34 94bd f67e b2bd 48fc 983d
000002a0: 8cdc 843c 0334 4e3d da7d 883c bef4 893c
000002b0: 3834 423c 998f fc3c 1d32 143d 0501 e43c
000002c0: 0ddd a33c 13d8 b53c 8e19 0f3d 3dca b13b
000002d0: 87a8 f73c 3ffa 8ebc d7c2 113d b4d0 853c
000002e0: ae20 aa3b 5ee7 d4bb b484 32bb 94cc 563b
000002f0: 6a3a dcbc 4f28 673d bfd9 943d 30c5 69bd
00000300: 26b3 fdbc dfa2 15bb c06e 8a3d 2249 a3bd
00000310: cfca afba e705 163d b24c db3c 6052 ac3d
00000320: 8300 43bd 3063 263d c6fd c33c 325b 21bd
00000330: 5419 83bc 8ee4 b13d 4fa2 70bd 598e dfbc
00000340: ef64 983c a0ec d33c 8c9a 393d 59ae ee3b
00000350: 6d8a b53b 0fdb 10bd c120 7d3c 4647 26bd
00000360: 128a 5dbc 61b4 263d 5c91 01bc 108f bc3c
00000370: b6a2 e1bb 29e8 6a3c bd46 07bd 03c8 85bb
00000380: 42ec e93c b3fb 5fbc 248d 8f3c 4853 5cba
00000390: 07f7 033d deab 303d 12b9 e93c a3e0 00bd
000003a0: 4ee4 283c cb80 8d3c 6502 af3c 0526 e93c
000003b0: 7b97 be3b ff57 2a3c 9722 fc3b b8e4 9e3c
000003c0: 7057 c8bb f6d3 613c b261 18bc 40e3 083d
000003d0: 4e56 9a3b 964b 193c b4d0 773d a880 a93c
000003e0: 98b0 c6bc 18d3 813c 8ae6 483d 68cd ae3c
000003f0: 5822 0abc f1a7 2cbd d6cd 70bd 9072 263d
-0.014853387 -0.035233956 0.018158674 -0.06042988 -0.11043224 0.017284794 0.013596888 -0.045517724
0.062957376 0.045496155 -0.0032205726 0.0058685583 0.033652745 0.020211847 0.020846017 0.012663178
-0.01650763 0.009127617 -0.002471811 -0.029801538 -0.05560767 0.07157019 0.072576344 0.025646202
-0.018449783 0.04743294 -0.06750707 0.056679647 0.055895317 0.028008804 0.09747315 0.020923842
0.050557647 0.07059495 0.08000963 0.036952496 0.03925843 0.07017063 0.038189214 -0.0012619449
0.067632385 0.08754864 0.042938966 0.07521401 0.050915614 0.022087896 0.04201475 0.021207927
0.019597607 0.016747564 0.033141207 0.0072971624 -0.015167636 0.015777553 0.009672199 0.015016387
0.0066545163 0.03140073 0.0064419466 -0.008076846 0.05709671 0.013675879 -0.0084969355 0.023741411
-0.013488532 -0.0028765684 0.029856024 -0.010283035 0.0188817 -0.0034862608 0.020338614 0.0355517
0.032391004 0.027335392 -0.0076104966 0.034103237 0.026979972 -0.015601012 0.056193415 0.04052892
-0.015084893 0.062000003 0.035379007 0.042951502 0.06127124 0.023328496 -0.0003835996 0.04018976
-0.020026233 -0.00071867753 0.019040393 -0.03530434 -0.005518629 -0.004789746 -0.020764967 0.04836089
0.01686683 0.016642915 -0.018533636 0.028892688 -0.039883133 0.02682284 0.057551555 0.07547194
-0.00030561574 -0.02782714 0.08424039 -0.008567167 0.011089077 0.014175007 -0.024351552 0.06052558
0.036950488 0.031098738 0.032319944 0.025126252 0.017661748 0.0075327973 0.0011116524 -0.015796194
-0.012403216 0.00750937 -0.001083915 0.047628194 -0.007212846 0.011889 0.023524076 0.023350356
0.014339695 0.035028756 0.033838026 0.033962283 -0.008201278 0.004517992 0.030363595 0.014238255
0.01715428 0.010527099 0.065208234 -0.0007765222 -0.019081073 -0.005257719 0.058121465 -0.0021985718
-0.016953815 0.06769912 -0.0138609875 0.0037705 0.025666595 0.050963752 -0.021901714 0.0373548
-0.06443137 0.05595124 -0.034977507 0.044108175 0.009139601 -0.000403025 -0.020015333 0.08089272
-0.056684833 0.00861395 -0.011710994 0.025892036 -9.1707174e-05 -0.07236514 -0.08715622 0.07469994
0.016218446 0.05034257 0.016661573 0.016840335 0.01185327 0.030830191 0.036180604 0.027832517
0.020002866 0.022197759 0.03493648 0.00542572 0.030231727 -0.017453311 0.035586204 0.016334869
0.005191884 -0.0064973077 -0.0027239742 0.0032775747 -0.026883323 0.056434926 0.07268094 -0.05707282
-0.030969214 -0.0022832674 0.06759405 -0.07972933 -0.0013411882 0.036626723 0.02676997 0.08414149
-0.04760791 0.040621936 0.02392472 -0.03939361 -0.016003288 0.086861715 -0.05874854 -0.027289556
0.018602816 0.025869668 0.045313403 0.0072839675 0.0055401833 -0.03536516 0.015449704 -0.040595315
-0.013521688 0.040699366 -0.0079081915 0.023017436 -0.0068858517 0.014337578 -0.033026446 -0.004082681
0.02855504 -0.01367085 0.017523356 -0.0008404744 0.032218006 0.043132655 0.028530631 -0.03146423
0.010308338 0.017273327 0.021363446 0.028460512 0.0058163977 0.0103969565 0.007694553 0.019396171
-0.006113939 0.013783446 -0.009300636 0.033419847 0.0047099954 0.0093564 0.06050177 0.02069123
-0.024254128 0.015847728 0.049047984 0.02133818 -0.00843104 -0.04215235 -0.05879005 0.0406366

conv3.bias f4 [128]
00000000: e24d 4e3c 66f6 243d 3abe 12bd 124c 87bb
00000010: d80a bf3b a120 4f3d 7034 44ab a65c 6f97
00000020: ec9b 4fbc 27a2 833c 4d88 303d ccef 963c
00000030: c0d4 0a3d deb9 babb 7abf d9bc a576 403c
00000040: de90 043b 3239 d33c 0241 3339 5a7b 81b9
00000050: f22a 0e3d a235 133c 503e 293c 553b 39bd
00000060: 57b5 cdba e541 0bbd 4a21 0097 f05b ccba
00000070: 696e 4cbc 6f07 7d3c dc1e 57b0 82a8 fa3c
00000080: 569a 8abc b853 bcbc c3a4 343c 67c6 0c3d
00000090: a0d2 7ebc b6c8 91bd 4e34 733a 6447 36bb
000000a0: 08f6 6dbd 3625 adba a0cb 7c3c 46ef a6bc
000000b0: c2a3 e4bc 03a1 ed3b c425 cb3c 95a1 36a6
000000c0: b6fa 07bd 53f1 423c ac12 38bb a347 1abc
000000d0: 790a 4a3c 2fc2 c4bc cc90 ceba 1a16 f6bc
000000e0: a7fe dbbb 99b4 0bbd 54bb a4ad d296 6e3c
000000f0: c8f6 013d 40a1 a6bc 0ef3 753c c311 6ba0
00000100: 6ee7 8d3c 8798 cb3d 2431 603b 7210 ea3c
00000110: 7b68 32bd 9dc4 d8bc cabd b83c 9bab 78bc
00000120: ce05 a7bc e73b 303d 0098 bdbc a85c 97bb
00000130: 7ee9 8a3b d22b 61ba 09cd 193c 31d9 953b
00000140: f1e7 043d ba1d 693d 56e8 60b6 b890 4fbb
00000150: 1470 823d 7173 203d ee1e 8fbc 5fe6 1fbd
00000160: 2691 05bd 0f14 5c3a 6973 0f3c 06f3 2fbd
00000170: 49a6 533c 1353 2f3d 827c 483c 9e61 c23c
00000180: c08d 1db9 8f72 82bc 9658 51b8 c59f 61bd
00000190: 917a 64bd 1fc4 043c 0916 0eba 1cb6 813d
000001a0: 29e8 593d 49a4 763c 7044 803d b5ff 73bb
000001b0: 5b46 c7bb 9634 8dbc 29bf ec3c 3d1b 28bc
000001c0: 38d0 b13c cb61 093d 6674 b43c 871c 92b4
000001d0: e9f2 d43c 5612 17bd 4442 21bc 7804 7abc
000001e0: 273d b83b b16d 24bc 2d46 adbd 1a5a f1b9
000001f0: 9ad8 8e3d af1b 55bc b69a 9dbc 717b f63b
0.012591811 0.040274046 -0.035825945 -0.0041289413 0.00583015 0.050568227 -6.970596e-13 -7.7342004e-25
-0.012671452 0.016068531 0.043098737 0.018424891 0.0338943 -0.0056984266 -0.026580561 0.011747037
0.002022795 0.025784109 0.00017094988 -0.000246967 0.034708925 0.008984955 0.010329798 -0.0452226
-0.0015694302 -0.03399839 -4.1401047e-25 -0.0015591364 -0.012477496 0.015443667 -7.82604e-10 0.030597929
-0.016919296 -0.022989139 0.01102561 0.0343689 -0.015553147 -0.07118361 0.00092775084 -0.0027813548
-0.05809596 -0.0013209942 0.015429407 -0.020377766 -0.027910117 0.00725186 0.024798281 -6.336292e-16
-0.03319808 0.0118983565 -0.0028087301 -0.009416494 0.012331598 -0.024018375 -0.0015759706 -0.030039836
-0.0067137065 -0.03410778 -1.8727832e-11 0.014562326 0.03172949 -0.020340562 0.015011562 -1.9911151e-19
0.017322268 0.09941202 0.0034208978 0.028572295 -0.04355667 -0.02646094 0.022551436 -0.015177633
-0.02038851 0.043025877 -0.023143768 -0.0046192 0.00423926 -0.00085895986 0.009387263 0.0045730104
0.03244776 0.056913115 -3.3513838e-06 -0.0031671952 0.063690335 0.039172594 -0.017470803 -0.03903806
-0.032609127 0.0008395323 0.008755543 -0.042956375 0.012918063 0.042803835 0.012236716 0.023728188
-0.00015025493 -0.015923766 -4.9911985e-05 -0.05508401 -0.05578095 0.0081034 -0.00054201536 0.06333563
0.05319992 0.015053817 0.062630534 -0.003723127 -0.006081385 -0.017236989 0.028899746 -0.0102604
0.021705732 0.03354053 0.02202816 -2.7215376e-07 0.025994735 -0.03688272 -0.009842459 -0.0152598545
0.0056225243 -0.010035918 -0.084606506 -0.00046034233 0.06974907 -0.013007089 -0.019238811 0.0075220396

act_conv1.weight f4 [4, 128, 1, 1]
00000000: 9976 9c3c 6f6f f73d a309 cdbd d4bf 533d
00000010: 3187 1f3e 3c97 cbbd 840f cb31 ec61 38ba
00000020: 6dd9 edbc a18a dd3d 9cc1 3cbd f68a 9b3d
00000030: e6ed 7f3d 9c2f e3bc 71fd 12bd ce7b da3c
00000040: 04d1 133d 715b 053e 03ef a53b d289 0080
00000050: f42a a73d c0cf 903d 215f a73d 3d14 213e
00000060: c28a 0080 c06f 26bd 4a89 0080 f496 2081
00000070: f06d 5cbb 3758 f03c 06c8 cd31 b495 df3c
00000080: 7d04 68bd d02e f13a 915c 333e 26ba 3a3d
00000090: 55e0 f83d aac1 84bd 9ff3 023c 29b6 88a1
000000a0: 7f2f 973d 34bb 5c3d 43e4 493d dd56 29be
000000b0: 37ed 94bd 775e d83c d0c5 963d 192c 953b
000000c0: 8e58 d63d 1a5f a5bd 6ead 153e 17e4 993e
000000d0: 981a 9c3d d1d2 0dbd f088 0000 3bb4 04bd
000000e0: 14f5 7bbd 3397 79bd d78a 0000 f51b ddbc
000000f0: 06ee 93bd 906f 26bb fa8f 93bd cc89 0000
00000100: 7820 3a3d 5a04 823e 33f4 693c 2818 0e3e
00000110: 9b7d e83d 6d5a c8bd 6aba 933d 0015 bf3d
00000120: 0cc4 04bd e2f4 d3bc 14b5 0e3d 6f8b 293e
00000130: 4dfb df3c 383a f3b7 4800 08bd 56c9 8d3e
00000140: d0d4 593c 62fc 8c3d 7b89 0080 1844 debc
00000150: 4144 ecbd eb3b e83d a1e1 673d 2d7c 31bd
00000160: 4e71 5d3d cd46 743d 79de 943d 7e72 a3bd
00000170: 27e6 9dbb de5e 193c f7a3 11bd 2d11 983d
00000180: 878a 0080 9cb2 093e f85d fdbc fc26 35be
00000190: fa59 c53c 30a6 e23d 67ce 7dbc 3ac0 033c
000001a0: 8671 efbd eeb1 63bc 082d ed3d 208a 0080
000001b0: c010 ed3b f689 0080 f26b c13d dd76 5bbd
000001c0: 6f1b 0d3d 7de6 f63d a14d 2d3e c38a 0000
000001d0: 5094 b73d 2134 94bc d188 0080 8b85 56bd
000001e0: 12d6 a6bd 49e5 783e 4da2 33bd 1edd 0200
000001f0: 0822 56bd 434c adbd 56d2 f33d 8afa 12bd
00000200: f6cc 06bb e35a 40bd 1503 bb3d 1de8 0fbd
00000210: 7d0f 62bd 8603 9abc cf88 0000 f188 0080
00000220: afe9 ccbc 5375 49bd 7e7f 1cbc af30 79bd
00000230: b544 00bd 1f32 6dbd e6a0 873d 0bf0 e3bd
00000240: 1d7e c4bd f451 d2bd fa88 0000 7390 0080
00000250: cb0f feba 46dd 11bd 7487 11bb a83d ae3d
00000260: f289 0080 9a54 363d 5a89 0000 b988 0080
00000270: 3f65 f63d 4b91 b83c d58a 0000 e01e 393c
00000280: 6a86 6fbc 1646 a5bc 09c1 7f3d 01a4 26bd
00000290: 4c26 10bd ff61 f13d b033 30bb d389 0080
000002a0: c5fc 133b 8758 24bd 3e2a 803d d09d 9b3d
000002b0: 7bae 063e 9378 9b3b 1838 41bd 6c89 0000
000002c0: 608a 4a3d 8307 743d 94e6 b73b 78e9 383d
000002d0: 4f72 b9bd faea e23a 498a 0000 6a20 aebc
000002e0: 9ab2 48bb 2596 873d 3a8a 0080 0f21 c6bc
000002f0: ddee 8a3d 0033 babd 4d7e 1a3e 359c 0080
00000300: 9d80 143e 7694 13bd 6c72 eabc 816f f8bc
00000310: 2cd5 6b3d 9eb8 9f3d 552d 003e 3a5e ae3d
00000320: cadb 0fbd 985b 69bc 549f cbbc 1130 0fbe
00000330: 5094 a83d e788 0080 926e 323e f856 a73c
00000340: cf02 b73d a50b 42bd 228c 0080 3dd7 b63c
00000350: bf1a df3b 280e dfbc 82aa 67bd 8f96 143d
00000360: 679f 903d 2a54 1b3c 3cfe 77bc d1fe 903d
00000370: 2078 bcba 1485 683c d141 c83b 5055 a9bd
00000380: 0a94 0000 f2d6 623d 896f b436 ab8f 5a3d
00000390: 9fdd 02be fa62 e83b f388 0080 f2dc b4bc
000003a0: fe19 05bc 2166 813d 4058 3bbd 028b 0080
000003b0: 2689 0080 0ca9 0000 9ff7 3fbc 9984 2d3d
000003c0: 4dbb 803d 91b1 60bd b603 d1bd fa8a 0000
000003d0: 9c65 0fbd ceb3 853d 958a 0080 2def a43c
000003e0: 6652 e8ba d2ce 483c 2585 a93d 798a 0080
000003f0: 8805 46bc 183b 753d 02c5 bdbc e4f6 48bd
0.01909952 0.12081801 -0.10011604 0.051696613 0.15578915 -0.09940955 5.9098415e-09 -0.00070336345
-0.02903434 0.10817457 -0.046083078 0.07594864 0.062482737 -0.027732663 -0.03588623 0.026670363
0.036088005 0.13023163 0.005063893 -4.944e-41 0.081624895 0.07070875 0.08172441 0.15730377
-4.9777e-41 -0.040633917 -4.925e-41 -2.9495662e-38 -0.0033634864 0.02933894 5.9890253e-09 0.027293064
-0.056644905 0.0018400792 0.1751578 0.04558768 0.12152163 -0.06482251 0.007992654 -9.263936e-19
0.07382106 0.05388947 0.049289953 -0.16537042 -0.07271808 0.026412232 0.073619485 0.004552376
0.10466109 -0.0807478 0.1461694 0.3005683 0.0762226 -0.03462488 4.9124e-41 -0.032398444
-0.06151302 -0.06093521 4.9806e-41 -0.02699087 -0.07223134 -0.0025396086 -0.07205196 4.9432e-41
0.04544112 0.25393945 0.014279413 0.13876402 0.11352082 -0.09782872 0.0721329 0.09330177
-0.032413527 -0.025873605 0.03484066 0.16557096 0.02734151 -2.8994968e-05 -0.033203393 0.2769267
0.013295367 0.06884076 -4.9319e-41 -0.027132079 -0.11536456 0.113395534 0.05661166 -0.043331314
0.054063134 0.059637833 0.07268996 -0.07980822 -0.004818696 0.009360997 -0.03555676 0.07425151
-4.9694e-41 0.1344704 -0.030928597 -0.17690653 0.024090756 0.11066854 -0.015491105 0.008041436
-0.11691575 -0.013897402 0.11580855 -4.955e-41 0.007234663 -4.9491e-41 0.09444417 -0.053580154
0.03444999 0.12055681 0.16924144 4.9778e-41 0.08963835 -0.018091263 -4.908e-41 -0.05237345
-0.081462994 0.24306215 -0.043855954 2.62993e-40 -0.05227855 -0.084618114 0.11905353 -0.035883464
-0.0020568944 -0.046961676 0.09131447 -0.03513347 -0.055190552 -0.018800508 4.9078e-41 -4.9125e-41
-0.025013773 -0.049184155 -0.009551881 -0.060837444 -0.031315524 -0.057909127 0.06622486 -0.11129769
-0.09594367 -0.102695376 4.9138e-41 -5.1819e-41 -0.0019383369 -0.035611413 -0.002220598 0.08507854
-4.9485e-41 0.044514276 4.9272e-41 -4.9047e-41 0.1203103 0.022530219 4.9804e-41 0.011298865
-0.014619449 -0.020175021 0.062439952 -0.04068375 -0.035192773 0.117862694 -0.0026886277 -4.9442e-41
0.0022581082 -0.04012349 0.06258057 0.0759846 0.13152497 0.004744598 -0.047172636 4.9298e-41
0.04944837 0.059577476 0.005612204 0.04514453 -0.09055006 0.001731246 4.9607e-41 -0.02125569
-0.0030624033 0.06620435 -4.9586e-41 -0.024185685 0.06783841 -0.09091759 0.15087242 -5.6037e-41
0.14502187 -0.036030255 -0.028619014 -0.030326607 0.057576343 0.07798885 0.12517293 0.08514066
-0.035121717 -0.014243029 -0.024856247 -0.1398318 0.08231413 -4.9111e-41 0.17424992 0.020427212
0.089360826 -0.047374386 -5.027e-41 0.02231943 0.0068086083 -0.02722843 -0.056559093 0.036276396
0.070616536 0.0094805155 -0.015136298 0.07079852 -0.0014379062 0.014191885 0.0061113616 -0.08268225
5.3106e-41 0.05538077 5.3774024e-06 0.05335967 -0.12779854 0.007091877 -4.9128e-41 -0.022078011
-0.008123873 0.06318308 -0.04573846 -4.9867e-41 -4.92e-41 6.0643e-41 -0.011716752 0.042362783
0.06285725 -0.05485684 -0.10205786 4.9855e-41 -0.03500901 0.06528436 -4.9714e-41 0.02013358
-0.0017724752 0.012256341 0.082773484 -4.9675e-41 -0.01208628 0.05987081 -0.02316523 -0.04906358

act_conv1.bias f4 [4]
00000000: 1cf2 303d a1e1 c8bc 71df c6bc 29e4 ff3d
0.043199643 -0.02452165 -0.024276467 0.1249469

act_fc1.weight f4 [81, 324]
00000000: 81b0 203d c95b d13c bb77 153d 84af 9d3c
00000010: 9ac6 4b3c 3c82 80bc 14cc b3bb 817d b7bc
00000020: a3db 28bd a232 333d a4e5 1a3d 1d51 49bd
00000030: 7bc7 44bd 912e 2fbc eca6 2eba d8c6 e8bc
00000040: 5177 54bb 3fb8 31bd 7d50 5c3c 7ead e43a
00000050: 036e f0bc caef 80bd febc 8abd e650 48bd
00000060: 93ed 413c 933c 793a dad5 333c e57e d43c
00000070: e898 5dbd 4d62 75bd d9f6 d5bd 68c2 b6bd
00000080: ca2e 24bd 8891 62bd 3568 b13b 9a8e 31bd
00000090: 1fe2 fcbc cd66 84bc e3d6 bcbd 2f64 e3bd
000000a0: 009d 85bd becd 01be 74e3 b7bd 2a8c dcbb
000000b0: 06e8 7dbc da86 153d 1ce6 30bd b19b 2ebd
000000c0: 2daa 1abd ffc0 2abe 5a7b ccbd ff13 58bd
000000d0: b5b0 8ebd 8a56 91bb b0de c93d 989d 993c
000000e0: ed56 7cbd 3be8 28bd ef3c 85bd fc74 23bd
000000f0: da7e 3dbd 587c 46bd d052 13bd d14e 823e
00000100: 8b59 62bd 65ba d33c 6bdc 6abc 5d60 b5bd
00000110: eaad 03bd daf0 2cbd 4c24 fa3c dda8 9aba
00000120: 00c4 873e 50a4 8f3e 916d b6bc 25bd b53c
00000130: c387 3eb9 14ae 3aba 89a6 91bc b131 a93c
00000140: 6acd 523d 374e a9bc 7ffe afbb 643a b1bd
00000150: e9c8 e43c e4eb 353c 220e 49bd 4ba7 bc3c
00000160: 443a 43ba ca4c 703d 542c 5abc 0566 5abb
00000170: 382b 11bd 67c4 d1bb d4a6 85bd 9143 6dbc
00000180: b93f 11bd db38 8bbd 233b 103d 8f27 dc3c
00000190: 6362 6b3b ec58 42bd 97d9 803c abc5 9b3c
000001a0: 2925 cabc d64a c2bc 3b04 1abc 6fe2 d5bb
000001b0: cb4f 793c 96d0 303d b46e e13b 344f 0ebd
000001c0: f928 e63c e0cc 43bc 08d3 ccbb 3cd3 89bd
000001d0: 94de 47bd dbb2 3f3d 7b69 123c 69b8 e4bc
000001e0: f4fd 043d c03e d53b 028f 383d fd76 47bc
000001f0: 3e61 bcbc 274e e1bc fb8b 73bd f69b 143d
00000200: 0816 f13c 26e6 05bc 74fe 2bbd 0433 0a3d
00000210: 613e 4d3c 9d64 073b 93fe 323d 64b4 983d
00000220: 846a 05bd 746a 89bb b555 92bc 2862 a2bb
00000230: d08b e03c c872 89bd a459 5cbd 0aa3 08bd
00000240: fc50 d8bd e663 ef3a 79eb 40bd a97c 9f3c
00000250: 2685 3e3d ce8d b23c cd78 473c 536c 1ebd
00000260: 27fb 02bd e459 2dbd be5e 8abd 3b38 c63c
00000270: 0a44 0dbd f253 b73c 60ac 853c c42e 26bb
00000280: 84dc c6bd 9bca 4dbc 7079 8fab 1bff a637
00000290: 01e5 0138 370d 5b39 f496 cf38 810e 7039
000002a0: e977 8c38 916c f838 c906 c037 c459 f037
000002b0: 0d86 8139 82aa 093a 5b84 c13a 1b8a 443a
000002c0: 085f 8b3a 49fc e139 db77 053a 75b7 fb38
000002d0: 3882 2037 fffc 643a edb4 d73a 2342 f03a
000002e0: bbb8 003b c528 c83a e574 e03a b2f8 9b3a
000002f0: 9854 9639 e4e7 7b38 c721 be3a 98b9 7c3a
00000300: 0ed6 303b 2626 d33a 4328 d93a ee44 9c3a
00000310: a946 0d3a c623 ce38 703e 6837 64e5 843a
00000320: b1c0 9f3a 2d09 3c3b 0a57 563a e6bd 863a
00000330: 855d ee38 7047 2d38 6e0d 6e37 1880 4736
00000340: 6a29 693a 30fa a83a fb40 093b 5a32 a33a
00000350: 67ee aa39 bb04 6db8 bee8 a5b7 c7b0 5fb6
00000360: 23f1 0ab6 7d7a 263a 5153 063a 7f0b 1d3b
00000370: d0df 7239 cf0d 5f39 a943 3eb9 91c4 96b8
00000380: 188b c0b6 c83d b537 4b30 0939 5213 fc39
00000390: 3e16 133a ca88 f538 1856 32b9 8d4d 2eb8
000003a0: 6876 1eb8 f953 9c37 7959 8936 2df8 d437
000003b0: d805 2138 3f6e 3236 7067 4fb7 fd46 afb7
000003c0: d018 8237 fdef ad36 582c 7a32 c123 b33d
000003d0: bcf9 2f3d e1d3 dc3b 455a 253d 70f8 123d
000003e0: 88a3 e13c 4c45 963c 65b2 913c e8b4 953d
000003f0: 0eb1 3e3d ad9e 2b3b bf46 1f3d fbf1 fb3c
0.039230827 0.025556462 0.036491137 0.019248731 0.012437487 -0.0156871 -0.0054869745 -0.022398712
-0.041225087 0.04374946 0.03781666 -0.04914962 -0.048041802 -0.010692255 -0.00066624465 -0.028415129
-0.003241975 -0.0433886 0.013446924 0.0017446724 -0.029349333 -0.06295736 -0.06774329 -0.048905276
0.011836427 0.00095076225 0.010976279 0.025939414 -0.0541009 -0.0599082 -0.10447473 -0.08923799
-0.040083684 -0.05531457 0.005414034 -0.043348886 -0.030869542 -0.0161623 -0.09220674 -0.11103093
-0.06524086 -0.1267614 -0.0897893 -0.006730576 -0.015497213 0.036505558 -0.0431882 -0.042628948
-0.03775995 -0.16675185 -0.09984465 -0.052753445 -0.06967298 -0.004435365 0.098569274 0.018751904
-0.061606336 -0.041237097 -0.06505763 -0.039906487 -0.046263553 -0.048458427 -0.035967648 0.25450757
-0.055261176 0.025845716 -0.014334778 -0.088562705 -0.03214828 -0.04222188 0.030534886 -0.0011799593
0.26516724 0.28055048 -0.022269042 0.022184918 -0.00018170387 -0.00071212766 -0.017779605 0.020653578
0.05146543 -0.020667179 -0.0053709145 -0.08653715 0.027927833 0.011103604 -0.049085744 0.02302899
-0.0007447342 0.05866698 -0.013316233 -0.0033324969 -0.035441607 -0.006401587 -0.065259606 -0.014481441
-0.03546116 -0.06797954 0.035212647 0.026874332 0.0035916797 -0.047448084 0.015728755 0.019015154
-0.024675922 -0.023717325 -0.009400423 -0.006527237 0.015216778 0.043167673 0.006879652 -0.034743503
0.02809571 -0.0119507015 -0.006250743 -0.06729743 -0.04879625 0.04680143 0.008936281 -0.027919965
0.03246875 0.0065077245 0.045058258 -0.012174365 -0.022995587 -0.027503086 -0.059459668 0.03628155
0.02942945 -0.008172547 -0.041990712 0.03374006 0.012527079 0.0020659335 0.043699812 0.07456282
-0.032572284 -0.0041935984 -0.017863134 -0.004955549 0.027410418 -0.06711346 -0.053796425 -0.03335861
-0.105623215 0.0018264025 -0.047099564 0.019468622 0.0465137 0.021796133 0.012174797 -0.038677525
-0.0319778 -0.042322055 -0.06756352 0.024196735 -0.034488715 0.022378895 0.016317546 -0.0025357464
-0.09710029 -0.012560512 -1.0194467e-12 1.9907535e-05 3.0969273e-05 0.0002089039 9.8986464e-05 0.00022893587
6.698055e-05 0.000118457836 2.2891343e-05 2.865203e-05 0.00024704673 0.0005251543 0.0014764176 0.0007497386
0.001063318 0.0004310331 0.0005091407 0.00012002784 9.567062e-06 0.0008735209 0.0016457118 0.0018330257
0.0019641358 0.0015270939 0.0017124681 0.0011899679 0.00028673257 6.005903e-05 0.0014505916 0.0009640693
0.0026983055 0.0016109392 0.0016567785 0.0011922398 0.00053892523 9.829509e-05 1.3842815e-05 0.0010139165
0.0012188164 0.0028691993 0.0008176422 0.0010279983 0.00011366144 4.1312946e-05 1.4189032e-05 2.9727871e-06
0.0008894416 0.0012891944 0.0020943272 0.0012450919 0.0003260255 -5.650961e-05 -1.9777912e-05 -3.3332487e-06
-2.0703962e-06 0.00063506496 0.00051241094 0.002396315 0.00023162295 0.00021272081 -0.00018145017 -7.189171e-05
-5.7382385e-06 2.160565e-05 0.00013083329 0.0004807958 0.00056109193 0.00011707989 -0.00017007475 -4.1557058e-05
-3.778041e-05 1.8635752e-05 4.093334e-06 2.5387935e-05 3.8390834e-05 2.6588239e-06 -1.2362245e-05 -2.0894682e-05
1.5508762e-05 5.18374e-06 1.4561998e-08 0.08747054 0.042962775 0.006739125 0.04036929 0.03588146
0.027543798 0.01834359 0.01778526 0.07309896 0.04655557 0.0026187107 0.038885828 0.030755034

act_fc1.bias f4 [81]
00000000: fc34 f73d b61b 77bc 0e2c 42be f5c3 033e
00000010: c891 053e 2e9e 003e b1fa fbbd 18da 80bc
00000020: 38e3 ba3d 5d31 87bb f8a4 96bd 9ccd d93d
00000030: 26d7 5c3d 8f07 873e c1e7 963d 431c a03d
00000040: 0d66 30be 7655 d4bc 8fcf 27be 7f56 0b3e
00000050: 11d0 233c 79cc 613e eefc 9dbd 587c 3f3e
00000060: cc3e a33c baca 173e 343d f8bd adcf ac3d
00000070: 7bb1 233d b127 ff3d 14a5 013e dd53 443e
00000080: e2a5 c33d d4a3 373e aba1 3f3d bd7c e03d
00000090: 8f6a e53d 9324 593e dd4d d9bc 12ac 7b3e
000000a0: bf33 56bd 652d 8f3e 21b4 a4bd 5012 6d3e
000000b0: 2456 c73d 8dbd b83d 19e9 663d 39b6 1b3e
000000c0: d63b d93d cb2d 753e 9918 903d b083 4d3e
000000d0: dcb5 5e3c e7b4 ad3d b0f1 2bbe 1eb7 fd3d
000000e0: a73e bf3d da0e 6c3e 9893 aebd 07fb 093e
000000f0: aa50 20bc 9b9c 163e f76f 0bbe ca0a 76bd
00000100: 0d3e 02be b683 063e a78b 653d 11b9 343e
00000110: bde4 143d 571f 013e 995e 1abe 4da9 c1bc
00000120: 86ca 4a3d b6c0 8bbd e6f2 2fbe 1fd8 d83d
00000130: a5dc 973d 13ed b43d a7d9 20be dd88 b6bc
00000140: 17b5 ca3d
0.12070653 -0.01508229 -0.18962118 0.1286772 0.13043892 0.12560341 -0.12303675 -0.015728995
0.0912537 -0.0041257576 -0.07355684 0.1063492 0.05391612 0.26372954 0.07368422 0.078178905
-0.1722643 -0.025919657 -0.16387771 0.13607214 0.009998337 0.22050656 -0.07714258 0.18699777
0.019927405 0.14823428 -0.121210486 0.084380485 0.03996418 0.124587424 0.12660629 0.19172616
0.09553124 0.17933589 0.046785038 0.10961292 0.11201965 0.21205358 -0.026526386 0.24577358
-0.052295443 0.2796432 -0.08042169 0.23151517 0.09733227 0.09020529 0.056374643 0.15206231
0.10607116 0.2394325 0.07035942 0.20069766 0.013593163 0.0848177 -0.16791415 0.123884425
0.09338122 0.2305254 -0.08524245 0.13474666 -0.009784857 0.14708178 -0.1361693 -0.060068883
-0.12718983 0.13136181 0.056041386 0.17648722 0.036350954 0.12609611 -0.15075149 -0.0236403
0.049509548 -0.06823866 -0.17182502 0.10588097 0.074151315 0.08834281 -0.15708028 -0.022282058
0.098978214

val_conv1.weight f4 [2, 128, 1, 1]
00000000: 3614 293d 9493 b23c 98de 8cbc 97aa 7c3c
00000010: 101d 953d 9cd0 42bd b089 0000 c789 0000
00000020: 483d 97bb 1292 3f3d 7196 afbd 28ac bc3b
00000030: 404e cfbd 6620 903c 9267 62bb 5a86 a33d
00000040: 5f47 6fba e104 06bd 52f9 6333 5352 58b1
00000050: 1ad7 e0bd 16a0 69bd c58d 713c 4138 fe3b
00000060: d722 9c37 0c2c e43c 5180 6d22 7751 d4b4
00000070: 6495 203d 6474 833d a66c 0dbb a5fb 90bd
00000080: b78b 6f3d c444 853c eb58 4d3d 671d 7bbd
00000090: 9b06 46bc 59e8 3abc bd94 453c fb79 a8b5
000000a0: 0cdc 7db4 29c9 3d3d 434e 283d d267 07bd
000000b0: d3c1 003d 08e1 82b2 c77c 9dbd 938a 0080
000000c0: 8c05 a33c a606 32bd e594 8e3d 1243 d6ba
000000d0: 2d76 7c3c db10 243d 1a4b 0cb0 ba3c 663d
000000e0: d0ee 253d 9277 fcbb 058a 0000 df9d a8bc
000000f0: 374b a4bd 75c1 b13c 98d9 2f3d 1689 0080
00000100: 951f ad3b e23a 96bc 9a5c 943d d052 e0bb
00000110: 79d0 0fbb 90d0 0dbd 9114 34bc 9a36 bc3b
00000120: 65f9 2e3d ab08 99bd 73e0 743d 7d2f 8e3d
00000130: 99a9 563b 30f8 b9b5 4990 7c3d a4ae a3bc
00000140: b0d3 3cbd 6f28 10bd 6fb3 14b2 f9e8 503d
00000150: 2cca 55bd 0c43 533c ed73 4a3d 842e 173d
00000160: f410 653d 6472 ed3c 923b 7c3c ebf6 313c
00000170: eac0 143d c3da 47bd 15a7 a8bd 213e cdba
00000180: ec42 8f2b f286 48bd 9764 3c3a 62df 1d37
00000190: 8368 d23c bf30 9c3d 4afc 1c2b 0bd8 eabd
000001a0: 1863 5cbd 0d89 01bd 356b 70bd 6040 e2af
000001b0: 7c8f 0080 0080 6b3b b771 3c3d bab9 a23c
000001c0: f6bf 81bd 864b 023d 7a76 923a ed88 0000
000001d0: 9889 d4bd db3c 73bd 25f2 e8b7 0db4 8f3d
000001e0: ca8a b3bd 87ec 9d2a 39a6 55bc a53c a8ba
000001f0: 9edd 7cbd 4d65 bfbc 663a a63c 987a 023c
00000200: a8d6 f5b9 149d 4eba 75dd 6eb6 d674 053b
00000210: 31ce 133c cb98 973b 3f8a 0000 269e 0080
00000220: 7156 98b9 eea3 733c 7e62 4abb 399a 09bc
00000230: 6973 26bc 75ff 1cba 6b0f 119e 2387 0a3c
00000240: 23b7 d910 b3ca bb3a ff89 0080 498b 0000
00000250: 7c8d 62bc 356a 8e38 3ee5 c33b 6a74 8b30
00000260: 5b8c 0080 4b56 ffbb 9292 0000 5a89 0080
00000270: 0127 0ebc cf27 0a3b 3289 0080 a097 3dbc
00000280: 515f c5ba 792f 00b8 7a1f 88ba 6afa a3ba
00000290: db88 0080 028a 0000 9089 e6b9 2689 0000
000002a0: e4ad 0180 1b1f 823b d1dc 273c 0e7b 5216
000002b0: f607 043c d888 0000 fb3a ffba 068f 0000
000002c0: c423 d439 1053 77ba abb6 fc3b bb88 0000
000002d0: 8d5e db3b d777 99ba d38a 0000 9001 10bc
000002e0: 4aa8 3d3c c38a 0000 a68b 0080 ddab 9e92
000002f0: 8825 04b9 23ca fa3b e6a0 0eb8 118f 0000
00000300: 0b89 0080 f588 0080 a0e2 4e3c 968a 0080
00000310: 668a 0080 011f 981e 35fc 8d2e 4228 3fbb
00000320: b41a d5bc bba3 35bc 75ad 403b 3297 a4bb
00000330: b8fe 9a28 a28a 0080 d023 96bc 1258 0080
00000340: 7fdc eab8 3d48 08b9 de89 0000 5e90 26bb
00000350: 6b92 f6bb aa31 063a 74be b839 d2fd fbba
00000360: 36ca 8abc 8ed3 ffbb d504 03b8 fff5 99b7
00000370: 37f2 3abc 0899 0dbb 5c81 01bb e1c2 0cbb
00000380: 9989 0000 4e58 8a29 338a 0080 39f9 3093
00000390: f64c b33b d86a 1dbb 8e89 0000 18c3 10bc
000003a0: 3f78 5ab8 044d 8cba e38d 89b9 dc8b 0000
000003b0: 438a 0000 6989 0000 fe20 5a3b 0462 54bb
000003c0: b2c2 6ea2 70e2 afba ba6f 4537 b389 0000
000003d0: a244 c5bb 9faf 503a 208c 0080 d2e8 b43c
000003e0: b0a0 7abb 0d8b 0080 f3a7 01a2 8589 0000
000003f0: f82f 6bba f691 9437 625e aebc 69d9 18bc
0.04127904 0.021798886 -0.017195985 0.015421531 0.07280934 -0.047562227 4.9393e-41 4.9425e-41
-0.0046154596 0.046770163 -0.08573616 0.0057578273 -0.10122347 0.017593574 -0.0034546596 0.0798461
-0.00091277616 -0.032719497 5.307931e-08 -3.1478933e-09 -0.10978527 -0.057037435 0.014743273 0.007758171
1.8612873e-05 0.027853034 3.218742e-18 -3.954735e-07 0.03920497 0.06418684 -0.0021579652 -0.070792474
0.05848285 0.016268142 0.050133627 -0.061307337 -0.012086536 -0.011407935 0.012059388 -1.2552476e-06
-2.3642514e-07 0.04633442 0.04109026 -0.033057995 0.031434845 -1.5236324e-08 -0.07689815 -4.9711e-41
0.019900106 -0.04346337 0.06961993 -0.0016346893 0.015409035 0.040055137 -5.103843e-10 0.056210257
0.040510952 -0.0077046836 4.9512e-41 -0.020583091 -0.080221586 0.021698693 0.042932123 -4.9177e-41
0.005283306 -0.018338624 0.07244225 -0.0068458095 -0.0021944328 -0.03462273 -0.010991232 0.0057438137
0.04271831 -0.074723564 0.059784364 0.069426514 0.0032754897 -1.3855806e-06 0.06166104 -0.019980736
-0.04610032 -0.03519481 -8.655532e-09 0.05100343 -0.05219476 0.012894403 0.04942696 0.036909595
0.05592437 0.02898521 0.015395062 0.0108620925 0.03631679 -0.04879261 -0.08234993 -0.0015658775
1.0179336e-12 -0.04895682 0.000718662 9.40994e-06 0.0256846 0.07626485 5.5772455e-13 -0.11466988
-0.05380544 -0.031624842 -0.05869599 -4.1154902e-10 -5.1472e-41 0.0035934448 0.046006884 0.019863952
-0.06335442 0.031810306 0.0011174225 4.912e-41 -0.103778064 -0.05938421 -2.7769313e-05 0.07016764
-0.08766706 2.8052926e-13 -0.013040119 -0.0012835456 -0.061734788 -0.023363734 0.020291518 0.007963799
-0.00046889973 -0.0007881683 -3.5593669e-06 0.002036383 0.009021328 0.0046263686 4.9593e-41 -5.6733e-41
-0.00029056103 0.014870627 -0.003088146 -0.008398586 -0.010159352 -0.0005988994 -7.6794244e-21 0.008455071
8.5873575e-29 0.0014327377 -4.9504e-41 4.9966e-41 -0.013827678 6.79087e-05 0.0059782555 1.0146668e-09
-5.035e-41 -0.0077922693 5.258e-41 -4.9272e-41 -0.008676291 0.0021080857 -4.9216e-41 -0.011571795
-0.0015058314 -3.056179e-05 -0.0010385357 -0.0012510542 -4.9094e-41 4.9508e-41 -0.0004397151 4.92e-41
-1.54216e-40 0.003970993 0.010245518 1.7002494e-25 0.008058539 4.909e-41 -0.0019472534 5.1307e-41
0.00040462438 -0.00094346795 0.0077122054 4.905e-41 0.006694621 -0.0011708689 4.9801e-41 -0.008789435
0.011575768 4.9778e-41 -5.0096e-41 -1.0013569e-27 -0.00012602482 0.007653491 -3.4005287e-05 5.1323e-41
-4.9162e-41 -4.9131e-41 0.012627274 -4.9715e-41 -4.9648e-41 1.6106449e-20 6.4567386e-11 -0.0029168283
-0.02601371 -0.0110864 0.0029400263 -0.0050229067 1.7207901e-14 -4.9732e-41 -0.018327624 -3.1594e-41
-0.0001119906 -0.00012996882 4.9457e-41 -0.002541564 -0.0075247786 0.0005119095 0.00035237113 -0.0019225425
-0.016942125 -0.0078072017 -3.1237334e-05 -1.8353572e-05 -0.011410288 -0.0021606106 -0.0019760942 -0.0021478462
4.9361e-41 6.1437495e-14 -4.9577e-41 -2.23372e-27 0.005471821 -0.0024019983 4.9345e-41 -0.0088355765
-5.2087238e-05 -0.0010704105 -0.0002623639 5.0172e-41 4.9599e-41 4.9293e-41 0.0033283825 -0.0032407055
-3.2358085e-18 -0.0013418924 1.1768128e-05 4.9397e-41 -0.0060201446 0.000796074 -5.0267e-41 0.022083674
-0.003824275 -4.9882e-41 -1.7571672e-18 4.9333e-41 -0.00089716865 1.7710943e-05 -0.02128524 -0.009329178

val_conv1.bias f4 [2]
00000000: 837c 6c3d e847 bebc
0.05773593 -0.023227647
