课程设计/AlphaZero简单复现/models/policy_batch_1300.model (torch, 530639 bytes, 15 tensors)

conv1.weight f4 [32, 4, 3, 3]
0.21051897 -0.069193475 0.25936174 -0.03331655 -0.056338806 -0.07317901 0.35828546 -0.19506395
0.43018782 0.18886824 -0.06470987 0.19154863 -0.022964567 -0.10679922 -0.076100215 0.24020249
-0.09746168 0.23595461 0.044854376 -0.034423344 0.045984488 -0.03943289 -0.022339815 -0.048738487
0.03406264 -0.04314818 0.076469176 0.0039546494 0.007396022 -0.028532231 -0.09839579 0.117186695
-0.008884924 0.009833536 0.041261043 -0.023836652 0.33250603 0.2728462 -0.4259057 0.17672913
-0.0621355 0.306056 -0.25527596 0.13839433 0.18801743 0.066415004 0.02143995 -0.015059732
-0.18541706 -0.03249421 -0.07625805 0.17059547 -0.09428291 0.1270969 -0.032759354 -0.029332573
0.021729084 -0.025400111 -0.08609575 0.021520328 0.076408595 0.025255734 0.01646547 -0.0025879259
-0.15249221 0.058402743 -0.16535895 0.064637266 -0.13728689 0.1360168 -0.05182625 0.17253962
0.24205342 0.19547641 -0.0281283 -0.33269793 -0.058920115 -0.25653934 0.106053315 0.22495933
-0.25622004 -0.12484914 -0.17058699 -0.05566898 0.2866339 0.19186684 0.11664572 0.13026722
-0.24081497 0.082484424 0.01562651 -0.060811978 0.025088655 0.025478171 0.031978134 0.074303016
0.009522033 -0.08621108 0.05582662 -0.14788061 0.10708806 0.055290125 0.0024647645 0.053321585
0.050001685 0.034543753 0.13151725 -0.17703237 0.025705157 -0.46693113 0.35166043 -0.075275436
0.41438013 -0.3974817 0.034645546 0.011828163 0.09692936 0.10191352 0.13439001 -0.25995198
0.1302495 -0.17825954 0.14041446 -0.07429521 0.07565455 0.13921171 0.010022789 0.05012606
-0.07819417 -0.005865216 -0.054022253 0.056073304 -0.07225369 -0.015672559 0.073067546 0.07494094
-0.058174293 0.09320617 0.14014186 -0.007649439 -0.0953204 -0.100651816 -0.08667133 0.1276949
-0.22145295 -0.0759586 -0.057525195 0.08089093 0.2118056 0.12796634 -0.0426799 -0.026398176
0.2416277 -0.12476724 -0.005905511 -0.16386047 0.1708674 -0.05247454 -0.10235373 0.015465245
-0.036128968 -0.14326923 -0.022496361 0.081972905 0.12064043 0.22275653 -0.03030666 0.0068218205
0.0029965953 0.004957404 -0.12217479 0.06794062 0.079925306 0.11565043 0.12665138 0.08833271
0.09776254 0.1430514 0.14450024 0.11356516 0.2472437 0.060614035 -0.07152535 -0.29490104
0.39007607 0.29275623 0.33391505 -0.004183889 -0.0011985225 0.12527971 -0.056917716 -0.12457682
-0.4773161 0.22719494 0.11679492 0.14038602 -0.143569 -0.09484447 0.107858196 0.09890396
0.0034098867 -0.0082912 0.14750776 0.061296526 0.0691033 0.09678342 0.014095019 0.024743536
0.034374025 0.107409194 0.14417034 -0.13174641 -0.085913785 -0.018355891 -0.06128972 0.16099535
-0.04403416 -0.057693698 -0.05221409 -0.020468602 -0.028332492 -0.16509882 0.01538947 -0.02929552
0.23508176 -0.01644609 0.027831923 0.10153746 -0.06261481 0.45967928 -0.44157928 0.0562358
-0.5440411 0.28177643 0.039852194 0.06167416 0.06664975 0.07385178 0.19093557 -0.16567741
0.099416725 -0.12356633 0.20176882 0.015513096 0.12746184 0.11848242 0.0036079963 -0.070039526
-0.0067383484 -0.12794545 -0.025789915 -0.05045636 -0.19164047 0.10564586 0.29815483 -0.18208888
00000000: 4992 573e 4fb5 8dbd 10cb 843e ef76 08bd
00000010: 85c3 66bd e0de 95bd 3171 b73e d8be 47be
00000020: 9441 dc3e ad66 413e 9c86 84bd 5325 443e
00000030: 3020 bcbc 8db9 dabd 6eda 9bbd a4f7 753e
00000040: fd99 c7bd 169e 713e 39b9 373d 7eff 0cbd
00000050: 3b5a 3c3d 6284 21bd fd01 b7bc 02a2 47bd
00000060: 4485 0b3d 25bc 30bd df9b 9c3d 0196 813b
00000070: 545a f23b 6dbc e9bc bb83 c9bd 94ff ef3d
00000080: 1392 11bc d71c 213c 5701 293d 1545 c3bc
00000090: 3b3e aa3e 7fb2 8b3e 5010 dabe 7bf8 343e
000000a0: cb81 7ebd 5fb3 9c3e 88b3 82be 3eb7 0d3e
000000b0: a487 403e 9704 883d d6a2 af3c 18bd 76bc
000000c0: f8dd 3dbe a618 05bd 2e2d 9cbd 94b0 2e3e
000000d0: 6617 c1bd b125 023e ac2e 06bd dd4a f0bc
000000e0: 3101 b23c e513 d0bc f852 b0bd 664b b03c
000000f0: 1c7c 9c3d 1de5 ce3c 98e2 863c 319a 29bb
00000100: eb26 1cbe b737 6f3d db53 29be 8b60 843d
00000110: ef94 0cbe fd47 0b3e c347 54bd 3aae 303e
00000120: dadc 773e f82a 483e 526d e6bc 6257 aabe
00000130: 3856 71bd 2059 83be 7b32 d93d bd5b 663e
00000140: 462f 83be e8b0 ffbd 5bae 2ebe 2805 64bd
00000150: aec1 923e be78 443e f4e3 ee3d c564 053e
00000160: 3398 76be 98ed a83d 2b03 803c fb15 79bd
00000170: b986 cd3c 99b7 d03c 81fb 023d 2e2c 983d
00000180: 4d02 1c3c 6f8f b0bd 74aa 643d 046e 17be
00000190: fc50 db3d e677 623d e387 213b bc67 5a3d
000001a0: 91ce 4c3d c07d 0d3d 75ac 063e f947 35be
000001b0: 9f93 d23c 9911 efbe d60c b43e 022a 9abd
000001c0: a229 d43e b982 cbbe 7de8 0d3d e9ca 413c
000001d0: e682 c63d 09b8 d03d 899d 093e 6d18 85be
000001e0: 2060 053e ab89 36be cfc8 0f3e 1628 98bd
000001f0: c6f0 9a3d 848d 0e3e a036 243c fc50 4d3d
00000200: 4424 a0bd ff30 c0bb 7046 5dbd 1fad 653d
00000210: bef9 93bd bd63 80bc 70a4 953d a37a 993d
00000220: 2b48 6ebd e0e2 be3d 5981 0f3e 25a8 fabb
00000230: 5837 c3bd 8a22 cebd bd80 b1bd 74c2 023e
00000240: 90c4 62be 2f90 9bbd 8a9f 6bbd 25aa a53d
00000250: 91e3 583e 9c09 033e 1ed1 2ebd fd40 d8bc
00000260: 406d 773e f785 ffbd 0483 c1bb 0acb 27be
00000270: ddf7 2e3e 8bef 56bd d59e d1bd f061 7d3c
00000280: f8fb 13bd 2bb5 12be 4a4a b8bc 69e1 a73d
00000290: 5412 f73d 4a1a 643e ac45 f8bc 9489 df3b
000002a0: 8762 443b b871 a23b c736 fabd 7424 8b3d
000002b0: e1af a33d 22da ec3d e6b0 013e c8e7 b43d
000002c0: ba37 c83d 117c 123e dff7 133e da94 e83d
000002d0: 742d 7d3e 6c46 783d e27b 92bd 45fd 96be
000002e0: 0db8 c73e 25e4 953e eaf6 aa3e 0119 89bb
000002f0: be17 9dba 5349 003e 8d22 69bd 2222 ffbd
00000300: c762 f4be caa5 683e 2d32 ef3d 5ac1 0f3e
00000310: c003 13be d13d c2bd c2e4 dc3d 298e ca3d
00000320: 6878 5f3b d0d7 07bc 460c 173e 1112 7b3d
00000330: 0886 8d3d 6336 c63d cbee 663c f5b2 ca3c
00000340: c7cb 0c3d 5af9 db3d 64a1 133e 88e8 06be
00000350: 91f3 afbd 185f 96bc ee0a 7bbd f7db 243e
00000360: 2a5d 34bd 3a50 6cbd 71de 55bd c5ad a7bc
00000370: 8b19 e8bc aa0f 29be 1e24 7c3c 29fd efbc
00000380: 46b9 703e f3b9 86bc c6ff e33c dff2 cf3d
00000390: 323c 80bd 155b eb3e ae16 e2be 8357 663d
000003a0: 4746 0bbf 0045 903e 0e3c 233d 0b9e 7c3d
000003b0: aa7f 883d 9a3f 973d 9d84 433e 57a7 29be
000003c0: ff9a cb3d 5810 fdbd 7c9c 4e3e a42a 7e3c
000003d0: 5b85 023e e9a6 f23d 2274 6c3b e270 8fbd
000003e0: 5dcd dcbb 2204 03be 5f45 d3bc 54ab 4ebd
000003f0: 663d 44be db5c d83d c0a7 983e 8275 3abe

conv1.bias f4 [32]
-0.0807112 0.12610842 0.14745799 0.014215767 -0.13042404 0.019541474 0.012404632 0.11369742
0.06492339 -0.083312415 0.3174695 -0.023234297 -0.13079663 -0.009599237 0.00961698 0.2590744
-0.03487773 0.25533968 -0.0085430555 0.030638061 0.29329798 -0.019306578 -0.057034895 0.016421592
-0.012768805 0.19998546 0.27532607 -0.0038641808 -0.036001276 -0.10153363 0.118152045 -0.13247198
00000000: ea4b a5bd 9122 013e 3aff 163e 40e9 683c
00000010: e18d 05be 7115 a03c cc3c 4b3c 31da e83d
00000020: 8ef6 843d b39f aabd 5d8b a23e da55 bebc
00000030: 8def 05be 1e46 1dbc 8a90 1d3c 66a5 843e
00000040: f3db 0ebd e2bb 823e 2cf8 0bbc acfc fa3c
00000050: 272b 963e d428 9ebc 6c9d 69bd 9386 863c
00000060: 4034 51bc fdc8 4c3e 8af7 8c3e 323e 7dbb
00000070: 1376 13bd ddf0 cfbd b3f9 f13d bca6 07be

conv2.weight f4 [64, 32, 3, 3]
0.10402454 0.1286721 0.14986493 0.13818845 -0.013743991 0.15505365 -0.017925825 0.07336112
0.029696263 0.13318056 -0.123287626 -0.052509673 0.0005899821 -0.028616743 -0.16889437 0.001155105
0.06807736 0.16687284 -0.007862298 0.009583203 0.10871489 -0.060476292 0.028713001 -0.019849582
-0.041388463 -0.08446909 -0.04118312 0.045089126 0.08146707 -0.008512842 0.023814546 -0.10724144
0.09829741 -0.15493341 0.11786971 -0.14421168 0.03364318 0.016532604 0.02667103 0.017286591
0.0028117246 0.028205907 -0.024805548 0.0118403565 0.039666127 -0.05773625 -0.0044105807 -0.0075163124
0.052483417 0.10545537 -0.088994786 -0.05964299 -0.012833906 -0.1503749 0.08533745 0.010269614
-0.0047852965 -0.13424277 0.048388395 0.06730686 -0.015358421 0.14186673 0.036492735 -0.027995748
-0.14088236 0.059535433 0.08635026 0.09927291 -0.21517475 0.23893996 0.0403745 -0.10572517
-0.036202792 0.07243483 -0.06273136 0.08894867 0.065840654 -0.041478418 -0.07980394 0.103560716
0.11590489 -0.047643807 0.08416333 0.013345856 -0.05854604 -0.058300044 0.03618791 -0.045415353
0.03853564 0.0593457 0.02304864 -0.07962439 0.039872304 0.09475321 -0.0485195 -0.06297076
0.049750593 0.09105142 0.11202379 -0.015132987 -0.07395539 0.05374213 0.05349373 0.04130196
0.107259184 -0.048976965 -0.007856139 0.010690825 -0.025706977 -0.04362073 -0.022789614 0.021927116
-0.092595875 0.07349743 -0.110796586 0.017773906 0.09010477 -0.06256425 0.00052447064 0.05820337
0.19420743 -0.0038657363 -0.04540523 0.15999262 -0.0792149 0.1222892 -0.0351772 0.20967959
0.15355621 -0.036481474 0.082739286 0.07261022 -0.027031634 -0.1971727 -0.0745725 -0.021855341
0.04600584 0.010688301 -0.0058571356 -0.039945234 0.102249235 -0.087880366 0.06072299 0.083676554
-0.0801842 -0.075089626 -0.105713695 -0.040912174 0.051107034 0.014066495 0.048611846 0.21329685
0.14392494 0.05852549 0.0609502 -0.05511403 0.017065141 -0.01562853 -0.060632266 0.054998714
-0.014393447 0.048717685 -0.025713773 0.0617268 -0.04060242 0.17259322 0.16180103 -0.053339854
-0.030460803 0.0019774463 -0.10534538 -0.11257978 0.03869697 0.044334084 0.05827333 -0.033086605
-0.007350848 0.07184941 -0.012351254 -0.1872459 -0.0781591 -0.041093506 -0.01454601 0.089119285
-0.10985867 -0.11507141 0.059710894 -0.06223379 0.030824283 0.1988086 0.1612393 0.11276873
0.013363841 -0.06185213 -0.07445999 -0.2114817 -0.4061196 0.06276405 0.11300978 0.00071104185
0.005362621 0.051951915 -0.009220488 0.046056107 -0.08991694 -0.037864853 0.061356913 -0.0033059907
0.097706154 -0.06733967 -0.04860729 0.08624386 0.062082183 -0.10395904 0.056348335 -0.17711459
0.033969376 0.18123426 0.002085951 0.115701824 0.04329832 -0.07109597 0.06333563 -0.11036547
-0.02443834 -0.059134267 0.004848856 -0.037163194 -0.14568046 -0.0029140003 0.13743065 -0.18449965
0.053583033 0.24105734 -0.08126013 0.06280894 -0.012509709 0.053849895 -0.024684602 -0.008597704
-0.07703036 -0.22748144 0.100681946 0.0036800837 -0.047354337 -0.048224628 0.071746275 -0.02537526
0.02839745 0.09937432 0.022152979 0.07193866 0.0029199738 0.040950395 -0.020990122 -0.061463103
00000000: d10a d53d 9ec2 033e 3176 193e 4681 0d3e
00000010: 7a2e 61bc 62c6 1e3e 2ed9 92bc 5b3e 963d
00000020: 9445 f33c 7c60 083e 397e fcbd 6214 57bd
00000030: 07a9 1a3a a96d eabc a5f2 2cbe e466 973a
00000040: 256c 8b3d b7e0 2a3e ded0 00bc de02 1d3c
00000050: eaa5 de3d fdb5 77bd 8737 eb3c 979b a2bc
00000060: f386 29bd 21fe acbd a2af 28bd 60af 383d
00000070: 35d8 a63d 7279 0bbc b916 c33c 66a1 dbbd
00000080: 2750 c93d dda6 1ebe ad65 f13d 3aac 13be
00000090: 6ecd 093d 626f 873c 347d da3c 9c9c 8d3c
000000a0: e944 383b 1310 e73c 0135 cbbc 0efe 413c
000000b0: f378 223d d97c 6cbd a286 90bb 664b f6bb
000000c0: daf8 563d fcf8 d73d e642 b6bd 354c 74bd
000000d0: 4e45 52bc e1fb 19be 67c5 ae3d e241 283c
000000e0: facd 9cbb f076 09be e932 463d 2ed8 893d
000000f0: e3a1 7bbc 8345 113e 6879 153d 5757 e5bc
00000100: 7743 10be 6ddb 733d 68d8 b03d 984f cb3d
00000110: c556 5cbe adac 743e bb5f 253d 7086 d8bd
00000120: 6149 14bd b658 943d 4d79 80bd b82a b63d
00000130: 77d7 863d 46e5 29bd 4070 a3bd a417 d43d
00000140: 8b5f ed3d 2726 43bd d35d ac3d 94a8 5a3c
00000150: f9cd 6fbd 07cc 6ebd c639 143d 7305 3abd
00000160: 8cd7 1d3d 7a14 733d 80d0 bc3c 1d12 a3bd
00000170: 2451 233d f90d c23d 62bc 46bd d0f6 80bd
00000180: 47c7 4b3d 2b79 ba3d bb6c e53d 59f0 77bc
00000190: ec75 97bd b520 5c3d 3e1c 5b3d 3e2c 293d
000001a0: b4aa db3d 129c 48bd 09b7 00bc 9228 2f3c
000001b0: 7097 d2bc a7ab 32bd 49b1 babc 7fa0 b33c
000001c0: e8a2 bdbd d285 963d 52e9 e2bd 959a 913c
000001d0: da88 b83d af21 80bd a17c 093a a866 6e3d
000001e0: 50de 463e 4b58 7dbb d6fa 39bd 1bd5 233e
000001f0: 6c3b a2bd c372 fa3d f815 10bd 3fb6 563e
00000200: d73d 1d3e 996d 15bd 3773 a93d abb4 943d
00000210: 7271 ddbc a4e7 49be 78b9 98bd f909 b3bc
00000220: 9f70 3c3d fc1d 2f3c 37ed bfbb 9d9d 23bd
00000230: 0c68 d13d 9ffa b3bd acb8 783d 9d5e ab3d
00000240: 9d37 a4bd 97c8 99bd 6c80 d8bd 8693 27bd
00000250: 9c55 513d 2877 663c 371d 473d 7d6a 5a3e
00000260: 0f61 133e 6db8 6f3d eba6 793d 40bf 61bd
00000270: 32cc 8b3c 6707 80bc 8a59 78bd 5546 613d
00000280: 7ed2 6bbc 328c 473d b1a5 d2bc 3ed5 7c3d
00000290: b94e 26bd 47bc 303e 2baf 253e e47a 5abd
000002a0: ef88 f9bc 0b98 013b 52bf d7bd 3a90 e6bd
000002b0: b780 1e3d a897 353d 04b0 6e3d d285 07bd
000002c0: 62df f0bb c925 933d ea5c 4abc 64bd 3fbe
000002d0: e111 a0bd aa51 28bd 6352 6ebc 2c84 b63d
000002e0: 95fd e0bd 8faa ebbd 6993 743d dce8 7ebd
000002f0: 3583 fc3c 7b94 4b3e ea1b 253e 4bf3 e63d
00000300: 03f4 5a3c a958 7dbd 7b7e 98bd a98e 58be
00000310: e9ee cfbe 708a 803d ac71 e73d 3665 3a3a
00000320: edb8 af3b 88cb 543d 8811 17bc 54a5 3c3d
00000330: 5f26 b8bd 2d18 1bbd 6351 7b3d 52a9 58bb
00000340: 2a1a c83d 62e9 89bd 7018 47bd 9fa0 b03d
00000350: e349 7e3d 7ae8 d4bd 83cd 663d 875d 35be
00000360: 7923 0b3d 7995 393e 73b4 083b 14f5 ec3d
00000370: 9459 313d c49a 91bd 1cb6 813d 4b07 e2bd
00000380: ea32 c8bc c636 72bd 27e3 9e3b 6f38 18bd
00000390: 422d 15be d0f8 3ebb 9fba 0c3e 7aed 3cbe
000003a0: e279 5b3d bcd7 763e b66b a6bd f9a1 803d
000003b0: 86f5 4cbc b591 5c3d 5d37 cabc 62dd 0cbc
000003c0: 18c2 9dbd e5f0 68be 5632 ce3d 8f2d 713b
000003d0: 9ff6 41bd 3087 45bd b6ef 923d c7df cfbc
000003e0: c5a1 e83c c384 cb3d 2a7a b53c 9454 933d
000003f0: 085d 3f3b 9abb 273d 7af3 abbc bcc0 7bbd

conv2.bias f4 [64]
-0.057600692 0.07544693 -0.02356209 -0.048160017 0.108903915 -0.044856753 0.0043114326 -0.0039806245
0.013773998 -0.0014295779 0.03722092 0.000108091604 0.059822496 0.033530366 -0.039065614 0.030294213
0.0338427 -0.024453392 0.026320238 0.095450394 0.00888456 0.04940942 0.047450587 -0.0676344
0.034859333 0.04026805 0.018005174 0.08620006 0.020467937 0.05083744 0.048083536 0.032773647
0.025380857 -0.009771708 -0.014902246 -0.02604483 0.036079176 0.0030186784 0.06914534 0.11509738
0.10097947 -0.024362309 -0.07470997 -0.06961414 0.043937184 -0.024016092 0.0025324612 -0.012111387
0.060679764 -0.0062955823 0.017143857 -0.006924735 0.05591622 0.08067618 -0.0029082524 0.035949647
0.009705736 -0.01613406 0.021757726 -0.007861678 0.034364946 -0.039136183 -0.04113761 0.0049695545
00000000: b4ee 6bbd ec83 9a3d 4905 c1bc 7043 45bd
00000010: 0409 df3d b7bb 37bd eb46 8d3b e66f 82bb
00000020: 56ac 613c ad60 bbba f774 183d 3daf e238
00000030: 6f08 753d 2357 093d 4403 20bd 922b f83c
00000040: a59e 0a3d 7b52 c8bc 8a9d d73c 7f7b c33d
00000050: 8c90 113c 8861 4a3d 8c5b 423d e883 8abd
00000060: a9c8 0e3d 1cf0 243d 967f 933c a889 b03d
00000070: 60ac a73c eb3a 503d 3ef3 443d a93d 063d
00000080: 84eb cf3c 8419 20bc 8d28 74bc f85b d5bc
00000090: c2c7 133d 05d5 453b 129c 8d3d 2db8 eb3d
000000a0: 53ce ce3d 7793 c7bc 8a01 99bd dc91 8ebd
000000b0: 7af7 333d 65bd c4bc a6f7 253b d76e 46bc
000000c0: 588b 783d 2c4b cebb 4671 8c3c e3e8 e2bb
000000d0: 6808 653d 8e39 a53d 6198 3ebb f03f 133d
000000e0: cf04 1f3c 942b 84bc 423d b23c 44ce 00bc
000000f0: 42c2 0c3d 434d 20bd e97f 28bd a5d7 a23b

conv3.weight f4 [128, 64, 3, 3]
-0.013595103 -0.036503427 0.016748196 -0.039683245 -0.06304089 0.01623194 0.007801212 -0.025063895
0.07066206 0.032452285 -0.016070645 0.00076741475 0.017535554 0.008719828 0.022025326 0.014240545
-0.023513427 0.015036513 -0.00071119104 -0.050259568 -0.042689163 0.0062546944 0.055917792 0.011730898
-0.03376851 0.021978326 -0.044840317 0.05237673 0.03314787 0.02573118 0.08263222 0.0018539096
0.046579517 0.05304004 0.06988467 0.026460003 0.031212777 0.055744074 0.019176494 -0.020773113
0.008099354 0.05063068 0.009497774 0.039765388 0.024566961 0.025866916 0.080374494 0.016007736
0.058200706 0.04025966 0.027458565 0.028484266 0.02044071 0.039830733 -0.009366678 0.029803198
-0.0146880625 0.043697715 0.04644034 0.013628407 0.058121078 0.03646719 0.010329768 0.010607126
-0.016479349 -0.009336625 0.02481351 -0.010818542 0.013475517 -0.005311538 0.022707313 0.033975914
0.0060768533 0.015014735 -0.00853774 0.03968995 0.008292564 -0.028031407 0.07359143 0.020224066
-0.027032755 0.07174458 0.04651074 0.019760132 0.05201702 0.026810128 -0.005474695 0.069265164
-0.016608829 0.016833892 0.010368223 -0.04584363 -0.0010934982 -0.009061485 -0.037638098 0.05410659
0.022370378 0.007585601 -0.0052964143 0.023274198 -0.014956029 0.03157455 0.057511542 0.073270254
0.014742905 0.003934993 0.077842556 0.0019298535 0.010413454 0.013976359 -0.012561707 0.06775883
0.024626609 0.037993222 0.034065627 0.02169279 0.03331273 -0.0022885022 -0.019454772 -0.025572645
-0.03933867 0.0040177293 -0.015310565 0.05217278 -0.0027933698 0.032920204 0.08093149 0.038056117
0.038854297 0.067480154 0.08033892 0.045677334 0.04094178 0.009616868 0.042504456 0.020003218
0.003132131 0.009399046 0.052993067 -0.0066783396 -0.026993025 -0.021649655 0.054012813 -0.00080393394
-0.010075207 0.03581141 -0.004594853 0.015441651 0.03495048 0.06758898 -0.008473003 0.046047587
-0.07267215 0.04854095 -0.024594093 0.022251455 -0.03293132 -0.0139113385 -0.009575634 0.03338603
-0.03476767 0.03534925 -0.019175898 0.03902497 -0.011135639 -0.023414366 -0.08269819 0.063857645
0.0061719655 0.04684705 0.029005097 0.020064447 0.0305545 0.03407461 0.04047486 0.03081766
0.024069408 0.025241595 0.048359763 0.0115264105 0.022859715 -0.021920143 0.042032603 -0.0013664645
-0.007335703 -0.011536603 -0.0092546875 0.008672598 -0.03460474 0.0488452 0.06746003 -0.04251624
-0.0077552865 -0.009769681 0.0804064 -0.06500617 0.006371763 0.05580651 0.029708492 0.072761916
-0.05870311 0.030766603 0.023825536 -0.020843524 -0.0042978884 0.06724409 -0.053867575 -0.029965758
0.008747611 0.02458868 0.043312024 0.01542522 0.0068408316 -0.020227572 0.02170063 -0.059178874
-0.014653289 0.039878666 -0.009868649 0.023530755 -0.009733767 0.017308578 -0.030036412 0.0039183246
0.03597698 -0.006545454 0.02060474 0.0053845216 0.041467406 0.029452968 0.031548627 -0.020962058
0.022153072 0.03111312 0.013868543 0.094504274 0.019387769 -0.05216713 -0.049924858 -0.045226593
-0.04117828 0.032732513 -0.0006329552 0.036215525 -0.0046625696 0.009983014 0.06049806 0.0055203056
-0.019212388 0.012567014 0.049072117 0.033051874 -0.007232553 -0.015863236 -0.08039882 0.039658263
00000000: ffbd 5ebc 9e84 15bd 8333 893c e68a 22bd
00000010: 951b 81bd d8f8 843c 4fa1 ff3b cc52 cdbc
00000020: 45b7 903d b0ec 043d 96a6 83bc 552c 493a
00000030: b9a6 8f3c 9cdd 0e3c 756e b43c 2d51 693c
00000040: 3b9f c0bc b55b 763c 396f 3aba fadc 4dbd
00000050: d5da 2ebd 2ef4 cc3b 0e0a 653d f432 403c
00000060: d950 0abd e40b b43c 7baa 37bd fb88 563d
00000070: 10c6 073d 32ca d23c 153b a93d e2fe f23a
00000080: 2aca 3e3d 8340 593d b21f 8f3d a6c2 d83c
00000090: f0b1 ff3c e653 643d 0618 9d3c 602c aabc
000000a0: 27b3 043c 1e62 4f3d 8d9c 1b3c 08e1 223d
000000b0: a740 c93c dbe6 d33c 629b a43d a822 833c
000000c0: dd63 6e3d 50e7 243d c9f0 e03c d657 e93c
000000d0: 4773 a73c 8d25 233d b276 19bc d625 f43c
000000e0: 33a6 70bc 60fc 323d 3a38 3e3d af49 5f3c
000000f0: 5e10 6e3d 9f5e 153d 303e 293c 83c9 2d3c
00000100: b3ff 86bc a5f8 18bc b445 cb3c 4140 31bc
00000110: 6ac8 5c3c 690c aebb b004 ba3c 542a 0b3d
00000120: 5720 c73b 5d00 763c e1e1 0bbc ee91 223d
00000130: 89dd 073c 1fa2 e5bc 1bb7 963d f1ac a53c
00000140: cc73 ddbc d3ee 923d 0c82 3e3d 00e0 a13c
00000150: cc0f 553d eaa0 db3c 1265 b3bb e5da 8d3d
00000160: 3d0f 88bc 3be7 893c 7bdf 293c 88c6 3bbd
00000170: b653 8fba 9f76 14bc 682a 1abd df9e 5d3d
00000180: 1542 b73c a290 f83b 8b8d adbb 88a9 be3c
00000190: 220a 75bc 5154 013d 3991 6b3d b70e 963d
000001a0: 3a8c 713c 1df1 803b eb6b 9f3d 23f3 fc3a
000001b0: 319d 2a3c 19fd 643c 9ecf 4dbc 24c5 8a3d
000001c0: bebd c93c c89e 1b3d 6688 0b3d 14b5 b13c
000001d0: ee72 083d b2fa 15bb 9d5f 9fbc b97d d1bc
000001e0: 9621 21bd 28a7 833b 2ad9 7abc 20b3 553d
000001f0: f810 37bb 56d7 063d 69bf a53d bbe0 1b3d
00000200: af25 1f3d 0933 8a3d bb88 a43d 2818 3b3d
00000210: 91b2 273d 1190 1d3c 2719 2e3d cadd a33c
00000220: 7044 4d3b 75fe 193c 420f 593d f9d5 dabb
00000230: 7a20 ddbc 9e5a b1bc 8a3c 5d3d 18bf 52ba
00000240: 7b12 25bc fcae 123d 6c90 96bb fbfe 7c3c
00000250: 3c28 0f3d 176c 8a3d 5ad2 0abc 659c 3c3d
00000260: 23d5 94bd e0d2 463d 8d79 c9bc af48 b63c
00000270: fee2 06bd 62ec 63bc 1fe3 1cbc cabf 083d
00000280: 8b68 0ebd 60ca 103d c616 9dbc a6d8 1f3d
00000290: 4172 36bc 7ccf bfbc ab5d a9bd ccc7 823d
000002a0: 333e ca3b b1e2 3f3d 199c ed3c 325e a43c
000002b0: 6e4d fa3c d191 0b3d f8c8 253d 5175 fc3c
000002c0: 352d c53c 76c7 ce3c e314 463d 45d9 3c3c
000002d0: 4c44 bb3c df91 b3bc 612a 2c3d f11a b3ba
000002e0: 5660 f0bb 0504 3dbc f9a0 17bc 8317 0e3c
000002f0: b3bd 0dbd e811 483d 7c28 8a3d 8225 2ebd
00000300: 0f20 febb 0311 20bc 1cac a43d f421 85bd
00000310: 39ca d03b 5e95 643d 395f f33c 3304 953d
00000320: ac72 70bd 3e0a fc3c c52d c33c 0ac0 aabc
00000330: 4dd5 8cbb 45b7 893d 3fa4 5cbd c07a f5bc
00000340: 2452 0f3c 336e c93c f367 313d 10ba 7c3c
00000350: 0e29 e03b 4bb4 a5bc 85c5 b13c 8c65 72bd
00000360: 5914 70bc d057 233d 1db0 21bc 92c3 c03c
00000370: 617a 1fbc b8ca 8d3c ec0e f6bc 4a65 803b
00000380: 995c 133d 3f7b d6bb 46cb a83c a470 b03b
00000390: bad9 293d 5a47 f13c 2239 013d 9fb8 abbc
000003a0: 5c7a b53c f1e0 fe3c e338 633c 758b c13d
000003b0: 19d3 9e3c 33ad 55bd 027e 4cbd 853f 39bd
000003c0: 8eaa 28bd 8712 063d e8ec 25ba bb56 143d
000003d0: 78c8 98bb cc8f 233c d0cc 773d aee3 b43b
000003e0: 4c63 9dbc e1e5 4d3c d8ff 483d 6761 073d
000003f0: 0dff ecbb 9ef3 81bc 23a8 a4bd b470 223d

conv3.bias f4 [128]
0.019397952 0.035862535 -0.03876232 -0.0006399102 -0.003534158 0.04975462 -2.4651126e-07 -0.00045240854
-0.025795499 0.018884987 0.043861546 0.01606512 0.024550667 -0.0058183 -0.018957427 0.02023906
-0.022770572 0.020099891 -1.9680371e-08 -9.390573e-10 0.026844924 0.0038360015 0.027708493 -0.0442369
-6.7390065e-05 -0.049032096 -0.00025922735 -5.6230294e-07 0.021476459 0.028917408 -0.0026688038 0.021778595
0.0023056536 -0.019613184 0.010226034 0.018523946 -0.04776729 -0.01649641 -0.00082991633 -1.2336938e-05
-0.06371598 0.0019846025 0.047706578 -0.009341565 -0.003363526 0.0023609423 0.017027734 -9.96355e-06
-0.033386838 0.0149203725 -0.005486463 0.00073188444 0.00206237 -0.014905163 -7.622504e-07 -0.018254917
-0.0065630134 -0.028096924 0.004677722 0.017827308 0.026435442 -0.032507487 0.025449181 -7.429924e-19
0.012250764 0.06533938 0.020743776 0.029575454 -0.034106355 -0.017256528 0.018364208 -0.008830625
-0.009952297 0.040826045 -0.027717695 -0.013270131 0.0008624278 -9.717772e-07 0.037636116 -0.011373617
0.042107202 0.0485675 -4.3169993e-14 0.010265781 0.061748203 0.037268817 -0.020679073 0.0019723917
-0.040100556 0.00825497 0.0074347607 -0.04912611 -0.00084917026 0.056088164 0.014080405 0.014263127
-1.2777419e-09 -0.004659005 -5.8231914e-10 -0.0466197 -0.056376185 0.009033564 -9.37588e-08 0.060084227
0.0521856 0.007161838 0.05641777 -1.6056974e-05 -0.0006595068 -0.0067184772 0.032027576 0.0026179845
0.019553045 0.030143857 0.010621133 -2.287139e-19 0.01984471 -0.037481498 -0.00035061184 0.009479275
0.007610601 -0.0060453834 -0.10206281 -3.3198738e-08 0.07009485 -0.008242534 -0.023376368 0.007211574
00000000: 74e8 9e3c 98e4 123d 3dc5 1ebd a6bf 27ba
00000010: 559d 67bb 80cb 4b3d 4058 84b4 3f31 edb9
00000020: 1551 d3bc b0b4 9a3c 2aa8 333d 009b 833c
00000030: 7b1e c93c 70a7 bebb 9b4c 9bbc 63cc a53c
00000040: 5a89 babc 87a8 a43c 980d a9b2 2410 81b0
00000050: e3e9 db3c 6d65 7b3b ecfc e23c c031 35bd
00000060: c453 8db8 e1d5 48bd e8e8 87b9 2af1 16b5
00000070: 66ef af3c 33e4 ec3c 19e7 2ebb 0669 b23c
00000080: 731a 173b d4ab a0bc 188b 273c 88bf 973c
00000090: a2a7 43bd 7b23 87bc be8e 59ba bffa 4eb7
000000a0: 867d 82bd 1b10 023b f967 433d 5d0d 19bc
000000b0: 9a6e 5cbb 0aba 1a3b bf7d 8b3c 1f29 27b7
000000c0: a3c0 08bd 9474 743c cac7 b3bb efdb 3f3a
000000d0: d428 073b c934 74bc 739d 4cb5 568b 95bc
000000e0: 8c0e d7bb 852b e6bc 9447 993b 930a 923c
000000f0: 248f d83c 9226 05bd cd7a d03c eb4a 5ba1
00000100: 6eb7 483c a7d0 853d daee a93c 3948 f23c
00000110: 1bb3 0bbd 905d 8dbc 8970 963c 53ae 10bc
00000120: f60e 23bc 3639 273d 3810 e3bc f76a 59bc
00000130: 8d14 623a 036e 82b5 5428 1a3d 6858 3abc
00000140: 9a78 2c3d b7ee 463d 9d6b 42a9 ce31 283c
00000150: afeb 7c3d 30a7 183d 2967 a9bc 3e43 013b
00000160: 7b40 24bd db3f 073c 4b9f f33b 7638 49bd
00000170: da9a 5eba b4bc 653d 80b1 663c e4af 693c
00000180: 8c9c afb0 91aa 98bb 1111 20b0 4cf4 3ebd
00000190: b7ea 66bd 8301 143c 7258 c9b3 e11a 763d
000001a0: 91c0 553d daad ea3b 5216 673d 17b2 86b7
000001b0: c1e2 2cba ac26 dcbb 592f 033d 7e92 2b3b
000001c0: b52d a03c 40f0 f63c 4304 2e3c 4402 87a0
000001d0: 6091 a23c 3386 19bd 53d2 b7b9 f64e 1b3c
000001e0: 5962 f93b 5a18 c6bb 4e06 d1bd 6696 0eb3
000001f0: e48d 8f3d b10b 07bc cc7f bfbc 114f ec3b

act_conv1.weight f4 [4, 128, 1, 1]
0.020516079 0.1271664 -0.11242883 0.053828374 0.16575828 -0.10137772 0.004758179 0.001693794
-0.08755246 0.11785048 -0.04601636 0.07933555 0.06549442 -0.022638433 -0.042777352 0.02740077
0.05229045 0.1346014 0.0014322733 -4.944e-41 0.08300805 0.0746832 0.09895985 0.19776677
-4.9777e-41 -0.053004365 -0.0045533534 4.9317e-41 0.01569363 0.046536256 0.005970144 0.035608005
-0.053030986 0.005887004 0.24877694 0.04837853 0.1402503 -0.060108136 0.0028371098 4.9058e-41
0.08498757 0.074710354 0.07325193 -0.1768818 -0.12712462 0.03262519 0.076583885 -0.000644269
0.16191678 -0.08747007 0.21227157 0.3186107 0.080053866 -0.03328359 4.9124e-41 -0.03134022
-0.059593506 -0.06606109 -0.014321021 -0.025720404 -0.083346695 -0.013053432 -0.12992805 -0.00080080086
0.10247058 0.2851032 0.010079837 0.1436093 0.12329547 -0.10871559 0.10556574 0.13348876
-0.031667136 -0.025967091 0.032619797 0.17015429 0.05837729 -1.9690916e-11 -0.022514338 0.3178013
0.014163017 0.07301874 -4.9319e-41 -0.027277164 -0.11898088 0.11737827 0.060738232 -0.055987634
0.067256525 0.0764211 0.081727184 -0.124791585 0.0019580347 0.011358692 -0.036039304 0.079359785
-4.9694e-41 0.1455761 -0.004459187 -0.18409546 0.005762821 0.11629906 -0.0019217632 0.00893963
-0.12069274 -0.018952072 0.11893618 -4.955e-41 0.0027512999 -4.9491e-41 0.11745622 -0.14939106
0.032732736 0.1235797 0.19338845 4.9778e-41 0.0920905 -0.020994635 -4.908e-41 -0.06703028
-0.081623666 0.25757414 -0.040446263 -4.9275e-41 -0.051821463 -0.090809524 0.13863115 -0.03605991
0.01065303 -0.045478035 0.09595469 -0.025036732 -0.06629785 -0.006064553 -0.0068452097 -7.595723e-05
-0.2032434 -0.009023547 0.0011158346 -0.048415616 -0.030929748 -0.050128527 0.07100075 -0.21981104
-0.15614232 -0.09847045 4.9483e-41 -5.1819e-41 -0.0055265566 -0.034017574 -0.013459034 0.13255468
-4.9485e-41 0.029328465 -0.00043230865 -4.9047e-41 0.19980447 -0.047961798 0.0007472244 0.0158504
0.021895977 0.005276596 0.10342026 -0.0360562 -0.109980054 0.13370904 -0.00015180481 -4.9442e-41
0.0313285 -0.19368042 0.07669339 0.08305934 0.21428515 0.009564925 -0.040547345 -0.004417521
0.078217015 0.06569373 0.0014490625 0.044898286 -0.08833743 0.0048139426 4.9607e-41 -0.0022561052
-0.00020227162 0.06936822 0.04014565 -0.012699419 0.0813207 -0.17479162 0.25686964 -0.0028374908
0.30014914 -0.061722774 0.023375131 -0.019994931 0.062004793 0.088729344 0.1363871 0.13614523
-0.0060216486 -0.0060584364 -0.115383595 -0.24136652 0.13814329 -4.9111e-41 0.22679688 0.08489778
0.104086585 -0.035352618 -5.027e-41 0.0046593044 0.02111798 -0.012802168 -0.052719932 0.07010451
0.12432973 0.034484778 0.042835508 0.076613724 0.03666009 -0.047736138 0.01653992 -0.08123461
5.3106e-41 0.06342217 5.95539e-16 0.061696425 -0.1482364 -0.07482391 -4.9128e-41 -0.0125620235
0.0045633875 0.07808282 -0.037462603 -4.9867e-41 -4.92e-41 6.0643e-41 0.0046587023 0.051593766
0.06972541 -0.050685365 -0.1258678 4.9855e-41 -0.029018655 0.0712912 -4.9714e-41 -0.036599394
0.009503266 -0.0038747783 0.09331818 -4.9675e-41 -0.0014015058 0.06090568 0.08050996 -0.04198412
00000000: 5611 a83c e937 023e 1641 e6bd 247b 5c3d
00000010: 8abc 293e 1f9f cfbd 80ea 9b3b 4c02 de3a
00000020: b44e b3bd 985b f13d a77b 3cbd ad7a a23d
00000030: f021 863d 3c74 b9bc 4e37 2fbd 9477 e03c
00000040: 832e 563d f3d4 093e 1ebb bb3a d289 0080
00000050: 2000 aa3d 81f3 983d 76ab ca3d 5f83 4a3e
00000060: c28a 0080 1b1b 59bd 4c34 95bb 7a89 0000
00000070: ed8f 803c cd9c 3e3d 33a1 c33b b3d9 113d
00000080: 0537 59bd c5e7 c03b 62bf 7e3e 9128 463d
00000090: c69d 0f3e f333 76bd ceee 393b c188 0000
000000a0: f70d ae3d be01 993d 1c05 963d 8120 35be
000000b0: f52c 02be fea1 053d 03d8 9c3d 29e4 28ba
000000c0: 83cd 253e 8223 b3bd b85d 593e f120 a33e
000000d0: 48f3 a33d 6054 08bd f088 0000 9a5e 00bd
000000e0: 5218 74bd 094b 87bd b7a2 6abc 99b3 d2bc
000000f0: acb1 aabd 10de 55bc dc0b 05be d6ec 51ba
00000100: 18dc d13d 0cf9 913e e725 253c 510e 133e
00000110: 5682 fc3d 47a6 debd da32 d83d 47b1 083e
00000120: 66b5 01bd f0b8 d4bc 569c 053d ed3c 2e3e
00000130: 061d 6f3d 0034 adad fd6f b8bc dab6 a23e
00000140: 000c 683c d98a 953d 7b89 0080 5c74 dfbc
00000150: 3fac f3bd 0564 f03d a7c8 783d 4a53 65bd
00000160: cabd 893d aa82 9c3d 9560 a73d bb92 ffbd
00000170: 5f52 003b cf19 3a3c f39d 13bd 6287 a23d
00000180: 878a 0080 e711 153e 5f1e 92bb 8583 3cbe
00000190: 0cd6 bc3b 342e ee3d ace3 fbba 8777 123c
000001a0: c12d f7bd 6041 9bbc d094 f33d 208a 0080
000001b0: 274f 343b f689 0080 e38c f03d f8f9 18be
000001c0: c312 063d 5b17 fd3d 9f07 463e c38a 0000
000001d0: f299 bc3d f1fc abbc d188 0080 2c47 89bd
000001e0: 4f2a a7bd c2e0 833e fbaa 25bd 5c89 0080
000001f0: be42 54bd 58fa b9bd 53f5 0d3e 8eb3 13bd
00000200: 0c8a 2e3c 2d47 3abd e483 c43d d519 cdbc
00000210: 2bc7 87bd 28b9 c6bb c84d e0bb 3a4b 9fb8
00000220: 0a1f 50be 80d7 13bc 3241 923a 744f 46bd
00000230: 6260 fdbc 9253 4dbd d768 913d 2516 61be
00000240: c6e3 1fbe e0aa c9bd f089 0000 7390 0080
00000250: 1e18 b5bb 0356 0bbd 4883 5cbc 6abc 073e
00000260: f289 0080 4042 f03c 7ca7 e2b9 b988 0080
00000270: 8b99 4c3e 9773 44bd 61e1 433a b3d8 813c
00000280: 315f b33c 4ce7 ac3b 00ce d33d aaaf 13bd
00000290: 393d e1bd 06eb 083e cb2d 1fb9 d389 0080
000002a0: 5052 003d 2954 46be 6d11 9d3d 041b aa3d
000002b0: 916d 5b3e 34b6 1c3c f914 26bd dac0 90bb
000002c0: 3e30 a03d 6f8a 863d 78ee bd3a 44e7 373d
000002d0: 41ea b4bd 47be 9d3b 498a 0000 2adb 13bb
000002e0: e018 54b9 ed10 8e3d c46f 243d 3911 50bc
000002f0: 788b a63d 93fc 32be 6b84 833e 32f5 39bb
00000300: 26ad 993e 05d1 7cbd 347d bf3c 69cc a3bc
00000310: bdf8 7d3d bbb7 b53d 0fa9 0b3e a869 0b3e
00000320: 4051 c5bb d985 c6bb 3c4e ecbd c928 77be
00000330: 6f75 0d3e e788 0080 713d 683e e3de ad3d
00000340: 592b d53d e8cd 10bd 228c 0080 14ad 983b
00000350: 9dff ac3c 2fc0 51bc dbf0 57bd f492 8f3d
00000360: 96a0 fe3d e93f 0d3d 4974 2f3d a8e7 9c3d
00000370: e428 163d f886 43bd ba7e 873c 555e a6bd
00000380: 0a94 0000 7ce3 813d 06a7 2b26 64b5 7c3d
00000390: 48cb 17be 473d 99bd f388 0080 f2d0 4dbc
000003a0: 7888 953b e3e9 9f3d 6372 19bd 028b 0080
000003b0: 2689 0080 0ca9 0000 07a8 983b fc53 533d
000003c0: 32cc 8e3d 759b 4fbd 7de3 00be fa8a 0000
000003d0: 88b8 edbc 1f01 923d 958a 0080 3fe9 15bd
000003e0: 96b3 1b3c feef 7dbb 9a1d bf3d 798a 0080
000003f0: bbb2 b7ba 3c78 793d 68e2 a43d 8af7 2bbd

act_conv1.bias f4 [4]
0.041309148 0.0075267255 -0.017728655 0.12943384
00000000: c833 293d c0a2 f63b af3b 91bc 4e8a 043e

act_fc1.weight f4 [81, 324]
0.0432773 0.027579088 0.03813213 -0.0045028925 0.017218623 0.010196479 -0.00015424998 0.003789774
-0.054618828 0.04141184 0.0044573583 -0.047847506 -0.062005676 -0.030673891 -0.020719102 -0.013325976
-0.0008486814 -0.0040171896 0.028024176 0.02318155 -0.03890663 -0.056402035 -0.049850687 -0.0715443
0.03481767 0.018293997 0.016661279 0.0336973 -0.04729496 -0.022175543 -0.079070695 -0.068905905
0.010337909 -0.08208364 0.0027575672 -0.0219877 -0.009630439 -0.02090029 -0.08128973 -0.11494603
-0.027694566 -0.09493221 -0.08120009 -0.023945278 -0.024070842 0.05779744 -0.054018345 -0.06438243
-0.083948284 -0.16439578 -0.039485335 -0.051253315 -0.048646316 -0.005992379 0.11250478 0.0036083432
-0.08633332 -0.06624456 -0.061676066 -0.034808118 -0.027138384 -0.061658196 -0.036327492 0.26635042
-0.09520636 0.0027465194 -0.020017626 -0.09455875 -0.0070820446 -0.016234739 0.012849128 0.018149275
0.27053314 0.29139963 -0.028198622 -0.0036415525 0.00925635 -0.0064613544 -0.03600488 0.025596526
0.017881539 -0.012993702 -0.009380121 -0.02212794 0.052826088 0.04471229 -0.061961982 -0.033257913
-0.01739351 0.04625223 -0.0034575472 -0.006705851 -0.026250938 0.040497307 0.016874915 0.0554956
-0.022862108 -0.06173879 0.0061705015 0.039743446 0.011333601 -0.051957667 0.00577131 -0.008044609
0.0153197115 0.018889245 0.02704438 -0.013618799 0.04683505 -0.031945582 -0.03906669 -0.07194723
0.014760218 -0.0573784 -0.008066474 -0.010719475 -0.080864996 0.0055223797 -0.003514833 -0.033809688
0.0430222 -0.010052812 0.033138655 -0.04225397 0.017756805 0.033272073 -0.11780122 0.04413602
0.09100748 0.0034309612 -0.03760655 -0.016857859 -0.004654727 0.005448223 0.106819995 -0.0052973703
-0.021913446 0.0057777353 0.014779505 0.00058934814 -0.01653603 -0.045994047 -0.0038135666 0.029419094
-0.21166097 -0.011594274 -0.02270677 -0.020881545 0.059511688 0.006033542 -0.018616443 0.018038949
-0.03517652 -0.13903642 -0.14176954 0.016948655 0.0170933 0.06912879 0.09256376 0.04161183
0.010763568 0.05737063 -4.9289e-41 3.0691344e-16 1.673867e-14 1.061996e-10 1.8451746e-12 4.6190652e-11
1.7455403e-13 9.422915e-13 1.071563e-16 1.152557e-15 6.4882066e-10 2.9257441e-08 8.866095e-07 7.2557484e-08
2.0585854e-07 6.1011534e-09 5.047217e-09 1.4151276e-12 7.4195156e-17 1.301004e-07 1.6806963e-06 3.6445363e-06
3.0808606e-06 1.1893533e-06 8.57751e-07 1.15574366e-07 5.896569e-11 1.3912782e-13 6.5714096e-07 4.8836245e-07
1.1233386e-05 1.59969e-06 1.4212255e-06 2.6226627e-07 9.14555e-09 9.510624e-13 3.850201e-16 1.5799526e-07
7.1774014e-07 1.173916e-05 2.2672569e-07 2.3119676e-07 2.6793773e-10 3.1187514e-12 2.8892553e-16 1.8863002e-18
1.7944593e-07 6.8301233e-07 4.1180188e-06 5.557402e-07 1.0403785e-08 -3.189478e-11 -2.5813046e-13 -1.1466009e-20
-3.9043028e-19 2.5739789e-08 3.6691535e-08 5.051485e-06 1.0126648e-08 5.3461404e-09 -1.1543862e-10 -1.6514162e-13
-3.8420285e-18 9.942717e-16 3.8318522e-11 1.0549454e-08 2.2324077e-08 7.778552e-10 -1.12454594e-10 -3.0498205e-11
-1.0363829e-14 1.9813719e-16 1.6858876e-20 6.0755674e-15 9.366695e-14 1.4163788e-15 -2.742766e-15 -2.6491015e-15
1.0897163e-14 4.383115e-17 -8.177697e-37 0.08237654 0.05362751 0.0032244008 0.030636635 0.026192311
0.04071742 0.006247923 0.028815607 0.046823036 0.0070237233 0.009195166 0.023926592 0.014037717
00000000: 8a43 313d 8aed e13c 7030 1c3d 008d 93bb
00000010: 120e 8d3c 220f 273c 2abe 21b9 db5d 783b
00000020: feb7 5fbd 769f 293d 080f 923b bffb 43bd
00000030: aaf9 7dbd d047 fbbc 1bbb a9bc 3255 5abc
00000040: 0b7a 5eba a1a2 83bb f592 e53c 3ce7 bd3c
00000050: 8f5c 1fbd d205 67bd 3c30 4cbd d185 92bd
00000060: f99c 0e3d 4bdd 953c 3c7d 883c 2e06 0a3d
00000070: 5cb8 41bd 7ca9 b5bc d1ef a1bd 8a1e 8dbd
00000080: 5560 293c 781b a8bd 4db8 343b 8d1f b4bc
00000090: fdc8 1dbc 1637 abbc 3b7b a6bd d368 ebbd
000000a0: b7df e2bc d26b c2bd 3c4c a6bd e328 c4bc
000000b0: 3730 c5bc 02bd 6c3d 5742 5dbd efda 83bd
000000c0: 14ed abbd 5e57 28be 60bb 21bd ffee 51bd
000000d0: 5c41 47bd b85b c4bb e868 e63d f479 6c3b
000000e0: 86cf b0bd 3aab 87bd 0ba0 7cbd f592 0ebd
000000f0: 5151 debc 4e8d 7cbd 23cc 14bd 155f 883e
00000100: 8dfb c2bd f3fe 333b 01fc a3bc 05a8 c1bd
00000110: 7f10 e8bb b7fe 84bc 2685 523c caad 943c
00000120: 5283 8a3e 5532 953e cc00 e7bc 1da7 6ebb
00000130: f2a7 173c c5b9 d3bb da79 13bd ceaf d13c
00000140: 4e7c 923c 89e3 54bc 14af 19bc a745 b5bc
00000150: 2b60 583d 3c24 373d d9cb 7dbd 7339 08bd
00000160: d67c 8ebc fa72 3d3d 0498 62bb c1bc dbbb
00000170: 350c d7bc 81e0 253d 433d 8a3c 5b4f 633d
00000180: 5149 bbbc d0e1 7cbd eb31 ca3b 06ca 223d
00000190: 91b0 393c 90d1 54bd 421d bd3b 89cd 03bc
000001a0: 87ff 7a3c 9ebd 9a3c 2d8c dd3c 6221 5fbc
000001b0: 1cd6 3f3d 5fd9 02bd 6504 20bd 1259 93bd
000001c0: d7d4 713c 9d05 6bbd 3f29 04bc bda0 2fbc
000001d0: 8c9c a5bd 14f5 b43b 1d59 66bb 077c 0abd
000001e0: 0c38 303d 8db4 24bc 66bc 073d 8012 2dbd
000001f0: b876 913c 4c48 083d c441 f1bd f9c7 343d
00000200: 2162 ba3d fad9 603b 5309 1abd 7e19 8abc
00000210: ae86 98bb 0287 b23b 71c4 da3d 9095 adbb
00000220: d483 b3bc 2853 bd3b bd25 723c 7c7e 1a3a
00000230: 9276 87bc 4164 3cbd 08ed 79bb 5000 f13c
00000240: a7bd 58be e9f5 3dbc 8c03 babc c60f abbc
00000250: 87c2 733d 05b5 c53b 8381 98bc 6bc6 933c
00000260: 4115 10bd 905f 0ebe 092c 11be e8d7 8a3c
00000270: 4007 8c3c 6593 8d3d 1292 bd3d 2b71 2a3d
00000280: ad59 303c 77fd 6a3d 6689 0080 6eec b025
00000290: bfc4 9628 0f89 e92e b6d7 012c 0d26 4b2e
000002a0: c687 442a a19d 842b ea15 f724 d919 a626
000002b0: b258 3230 cb51 fb32 57ff 6d35 e6d0 9b33
000002c0: f709 5d34 50a2 d131 ca6b ad31 5829 c72b
000002d0: 1715 ab24 bab1 0b34 4994 e135 a894 7436
000002e0: c8c0 4e36 dea1 9f35 3340 6635 ae31 f833
000002f0: bcaa 812e dda4 1c2a 6266 3035 0318 0335
00000300: 0777 3c37 eeb4 d635 f0c0 be35 9acd 8c34
00000310: 8e1e 1d32 a2d9 852b f0f2 dd25 68a5 2934
00000320: baaa 4035 4ff3 4437 e271 7334 e23e 7834
00000330: e24c 932f 6e76 5b2c e28d a625 342f 0b22
00000340: b9ad 4034 4058 3735 832d 8a36 2d2e 1535
00000350: 55bc 3232 5446 0cae 8550 91aa 3896 589e
00000360: 2878 e6a0 651a dd32 c596 1d33 ed7f a936
00000370: 78f9 2d32 26b1 b731 2ada fdae d5ee 39aa
00000380: efbe 8da2 274a 8f26 d286 282e fd3c 3532
00000390: 2ac3 bf32 b2d0 5530 4f4a f7ae ed21 06ae
000003a0: bab2 3aa8 c76f 6425 433a 9f1e 38e5 da27
000003b0: 52eb d229 281f cc26 1aa3 45a7 4ce3 3ea7
000003c0: 4b4e 4428 b022 4a24 e522 8b83 08b5 a83d
000003d0: 85a8 5b3d 7850 533b aef9 fa3c 4291 d63c
000003e0: 4fc7 263d 60bb cc3b b50e ec3c 83c9 3f3d
000003f0: 4327 e63b 52a7 163c b301 c43c 74fe 653c

act_fc1.bias f4 [81]
0.11567294 -0.015005125 -0.17193547 0.11991851 0.12642546 0.11259353 -0.1136156 -0.01532025
0.08264111 -0.0043680235 -0.07394211 0.10314995 0.05367131 0.25211892 0.06997351 0.07840454
-0.16759124 -0.023403913 -0.15672234 0.13132697 0.002658222 0.21385562 -0.07739238 0.1803496
0.010480557 0.14059812 -0.10984546 0.077745296 0.03678663 0.12132169 0.12366849 0.19170731
0.094006196 0.17091267 0.042071316 0.10789875 0.10524868 0.20423171 -0.026122093 0.24037819
-0.054842003 0.27872902 -0.08213746 0.22375521 0.09411107 0.07999466 0.054759454 0.14751254
0.10633036 0.23527534 0.06952314 0.19412217 0.014744192 0.07680321 -0.1605036 0.122733876
0.08581063 0.22107871 -0.082906224 0.12996304 -0.016852567 0.14126673 -0.12269867 -0.05698989
-0.1258195 0.12747584 0.050858624 0.16921736 0.034026217 0.12307709 -0.14352453 -0.022861969
0.045939323 -0.06507119 -0.15955986 0.10114392 0.0676838 0.08511977 -0.14065847 -0.025237711
0.09149024
00000000: efe5 ec3d 0ed8 75bc da0f 30be d697 f53d
00000010: ad75 013e 7097 e63d 4caf e8bd c901 7bbc
00000020: be3f a93d a321 8fbb f66e 97bd 4840 d33d
00000030: 73d6 5b3d bb15 813e 464e 8f3d 8f92 a03d
00000040: 0a9d 2bbe 90b9 bfbc d27b 20be 947a 063e
00000050: 9135 2e3b f8fc 5a3e e57f 9ebd 91ad 383e
00000060: a4b6 2b3c f4f8 0f3e a8f6 e0bd ed38 9f3d
00000070: 94ad 163d 8277 f83d e845 fd3d ec4e 443e
00000080: 5286 c03d bb03 2f3e f952 2c3d 05fa dc3d
00000090: 9f8c d73d 1e22 513e 00fe d5bc b325 763e
000000a0: 02a2 60bd 92b5 8e3e af37 a8bd 1620 653e
000000b0: 4ebd c03d 3ed4 a33d 734b 603d 870d 173e
000000c0: bbc3 d93d 05ec 703e 2662 8e3d f6c7 463e
000000d0: a091 713c 004b 9d3d 0e5b 24be e65b fb3d
000000e0: 7cbd af3d 7562 623e bdca a9bd 0815 053e
000000f0: 650e 8abc 3aa8 103e 7149 fbbd 3b6e 69bd
00000100: d4d6 00be 0789 023e 2251 503d 5147 2d3e
00000110: 135f 0b3d d70f fc3d 18f8 12be 0649 bbbc
00000120: df2a 3c3d 0b44 85bd a963 23be 8b24 cf3d
00000130: ce9d 8a3d 4653 ae3d c608 10be 51bf cebc
00000140: 3c5f bb3d

val_conv1.weight f4 [2, 128, 1, 1]
0.037074864 0.02586341 0.04054861 0.013644132 0.0770759 -0.071068555 4.9393e-41 4.9425e-41
-0.06301936 0.053830918 -0.08215942 0.008283055 -0.08139045 -0.034487493 0.09948896 0.1329164
-0.041473832 -0.017923119 5.468662e-21 -2.236066e-30 -0.076284185 -0.038404923 0.013215385 0.07066225
1.8314977e-13 0.06807857 -1.8482211e-13 -5.0923927e-19 0.04228698 0.01436994 0.00017554594 -0.080159
0.08003803 -0.00810897 0.06667688 -0.051130667 -0.019572904 0.0030950967 0.006414198 -1.6670227e-18
0.045909606 0.060294315 0.007657274 0.04068932 0.050132494 -0.04419608 -0.057998814 -4.9711e-41
0.06617828 -0.012307761 -0.0079172095 -0.041644774 0.01373728 0.029138422 6.4211454e-35 0.047332812
0.031811878 0.10353564 0.0024311596 -0.008748933 -0.08603148 0.043690436 0.0587489 -4.9177e-41
0.07264517 -0.057478666 0.08754482 0.035274155 0.019995118 0.029018216 0.029658142 0.029117808
0.03714911 -0.07506077 0.09942512 0.08005439 -0.04807121 -1.6400987e-18 0.08904631 -0.009617428
-0.0045375857 -0.015057948 -1.8296898e-26 0.049225952 -0.073920004 0.023566447 0.043571103 -0.056423765
0.074839905 0.031297818 0.021571333 0.028195594 0.0003068484 -0.003133557 -0.079537064 0.002384903
4.9236e-41 0.012565119 3.481084e-07 0.05413749 0.067433566 0.09793306 4.9347e-41 -0.10473735
-0.094558135 0.0034793352 -0.04364681 1.9235791e-35 -5.1472e-41 4.317695e-06 0.016699592 0.04918644
-0.00049281935 0.03347931 0.00683376 4.912e-41 -0.085926846 -0.022302886 -2.0434835e-13 0.10132616
-0.09565279 0.090534545 -0.067897506 -2.90998e-06 -0.066121094 0.035305347 0.027006786 -0.012963531
0.0020814142 0.010792609 0.016555825 0.0037714844 -0.04713466 0.012863286 4.9593e-41 -5.6733e-41
-0.055763412 -0.057936817 0.0023950585 0.012391563 0.0075135417 0.052441157 0.011898434 0.004550449
-0.015152697 0.013747881 -4.9504e-41 4.9966e-41 -0.009471224 0.010735235 -0.062661834 -0.018774722
-5.035e-41 0.017079238 -1.3260831e-09 -4.9272e-41 -0.038301386 -0.08421755 -0.003296885 -0.057397086
0.06779273 0.000534071 0.067591354 0.0010880083 0.088572636 0.09935466 -5.555016e-09 4.92e-41
0.07507139 -0.020169137 -0.01298632 0.008697359 0.0062861596 -0.006788902 0.011201995 -5.619173e-12
0.09415691 -0.008971071 0.0077823396 0.0076411166 0.006586107 -8.690837e-06 4.9801e-41 -0.00028301083
-0.004317638 0.0046985084 -0.07566009 0.0052864426 -0.013197909 0.04223334 0.0893669 5.1323e-41
0.100547984 0.07207688 0.075021304 -0.003146916 0.034909174 0.016478153 -0.023707876 -0.034946486
-0.0017214428 0.00040067162 0.064116135 -0.033707175 -0.039268795 -4.9732e-41 -0.06038269 0.044099525
0.06161248 0.012064219 4.9457e-41 0.004280837 0.008912502 0.018084548 0.0044353846 -0.10972674
-0.026403267 -0.05230669 0.010676678 -0.09605364 -0.004213968 0.10629409 0.00096757885 0.012672542
4.9361e-41 0.032084607 -4.9577e-41 -0.005759923 -0.0098638395 -0.07173287 4.9345e-41 0.0047660745
0.018208707 -0.0059937765 0.015452263 5.0172e-41 4.9599e-41 4.9293e-41 -0.074778385 -0.06314021
0.014124846 0.013082126 0.018003805 4.9397e-41 0.009877731 0.009220708 -5.0267e-41 0.106232814
0.004079554 0.00450647 0.033922214 4.9333e-41 0.0051220222 0.0049508605 -0.040543143 -0.009982305
00000000: d0db 173d 81df d33c 4d16 263d a38b 5f3c
00000010: f8d9 9d3d 648c 91bd b089 0000 c789 0000
00000020: 4b10 81bd cf7d 5c3d 3343 a8bd a7b5 073c
00000030: 09b0 a6bd c242 0dbd dec0 cb3d 3d1b 083e
00000040: 77e0 29bd 81d3 92bc a799 ce1d 4669 358e
00000050: e23a 9cbd 7b4e 1dbd 5885 583c 5fb7 903d
00000060: 5435 4e2a c76c 8b3d 5917 50aa 084d 16a1
00000070: 1d35 2d3d e66f 6b3c c112 3839 672a a4bd
00000080: fbea a33d 7cdb 04bc e38d 883d 646e 51bd
00000090: 5b57 a0bc 1bd7 4a3b 312e d23b 5602 f6a1
000000a0: b60b 3c3d 2cf7 763d dfe9 fa3b d8a9 263d
000000b0: bb57 4d3d f306 35bd 2a90 6dbd 938a 0080
000000c0: 7a88 873d 7ea6 49bc 2fb7 01bc b693 2abd
000000d0: 5412 613c b3b3 ee3c 0db4 aa06 0de0 413d
000000e0: 2c4d 023d 7e0a d43d 1754 1f3b af57 0fbc
000000f0: 4631 b0bd bef4 323d b0a2 703d 1689 0080
00000100: fec6 943d c06e 6bbd b34a b33d a27b 103d
00000110: cdcc a33c 9cb7 ed3c a2f5 f23c 7888 ee3c
00000120: aa29 183d 76b9 99bd 669f cb3d 8ef3 a33d
00000130: 51e6 44bd 2d09 f2a1 e95d b63d 6b92 1dbc
00000140: 07b0 94bb 9db5 76bc 2634 b594 27a1 493d
00000150: 5f63 97bd 6c0e c13c 9d77 323d 9b1c 67bd
00000160: aa45 993d 2432 003d 5db6 b03c 72fa e63c
00000170: 7fe0 a039 5d5c 4dbb 54e4 a2bd 084c 1c3b
00000180: 4089 0000 eedd 4d3c a7e3 ba34 46bf 5d3d
00000190: 9c1a 8a3d 2191 c83d 8f89 0000 8980 d6bd
000001a0: b2a7 c1bd 8f05 643b ffc6 32bd ce8c cc05
000001b0: 7c8f 0080 b8e0 9036 95cd 883c b877 493d
000001c0: 8c30 01ba 9a21 093d bced df3b ed88 0000
000001d0: 6afa afbd 8bb4 b6bc 6713 66aa 1784 cf3d
000001e0: 9ce5 c3bd 2d6a b93d d90d 8bbd 1349 43b6
000001f0: 7f6a 87bd 579c 103d 563d dd3c fd64 54bc
00000200: 5668 083b 7cd3 303c 15a0 873c 022b 773b
00000210: 4610 41bd 88c0 523c 3f8a 0000 269e 0080
00000220: 2d68 64bd 284f 6dbd 6af6 1c3b fb05 4b3c
00000230: 2834 f63b 8acc 563d a6f1 423c ef1b 953b
00000240: 0543 78bc cb3e 613c ff89 0080 498b 0000
00000250: 312d 1bbc d7e2 2f3c d954 80bd 72cd 99bc
00000260: 5b8c 0080 c2e9 8b3c 6741 b6b0 5a89 0080
00000270: eae1 1cbd 407a acbd 8d10 58bb 3519 6bbd
00000280: ead6 8a3d e600 0c3a 566d 8a3d 809b 8e3a
00000290: 9265 b53d 757a cb3d 70de beb1 2689 0000
000002a0: 07bf 993d bf39 a5bc 93c4 54bc 5e7f 0e3c
000002b0: 21fc cd3b 7075 debb 9388 373c 03b5 c5ac
000002c0: 57d5 c03d 66fb 12bc ff02 ff3b 5562 fa3b
000002d0: 45d0 d73b dcce 11b7 d38a 0000 1261 94b9
000002e0: f97a 8dbb f2f5 993b adf3 9abd e539 ad3b
000002f0: 0b3c 58bc defc 2c3d fe05 b73d 118f 0000
00000300: 1aec cd3d 0b9d 933d c5a4 993d 7d3c 4ebb
00000310: ecfc 0e3d 31fd 863c 0537 c2bc 0c24 0fbd
00000320: 09a2 e1ba 3c11 d239 524f 833d 8910 0abd
00000330: 51d8 20bd a28a 0080 d753 77bd b4a1 343d
00000340: 5e5d 7c3d 01a9 453c de89 0000 4346 8c3b
00000350: be05 123c 0c26 943c b456 913b 6ab8 e0bd
00000360: aa4b d8bc 8a3f 56bd 3ced 2e3c c5b7 c4bd
00000370: 5315 8abb b7b0 d93d 1ea5 7d3a 7ea0 4f3c
00000380: 9989 0000 266b 033d 338a 0080 bcbd bcbb
00000390: f19b 21bc afe8 92bd 8e89 0000 bb2c 9c3b
000003a0: 6d2a 953c 7167 c4bb 7d2b 7d3c dc8b 0000
000003b0: 438a 0000 6989 0000 6925 99bd a84f 81bd
000003c0: e66b 673c 6a56 563c b77c 933c b389 0000
000003d0: 35d6 213c 7412 173c 208c 0080 9790 d93d
000003e0: c8ad 853b 03ab 933b 05f2 0a3d 8589 0000
000003f0: a3d6 a73b d43a a23b 9110 26bd d28c 23bc

val_conv1.bias f4 [2]
0.0641922 0.002258758
00000000: 3377 833d ac07 143b
