课程设计/AlphaZero简单复现/models/policy_batch_1450.model (torch, 530639 bytes, 15 tensors)

conv1.weight f4 [32, 4, 3, 3]
0	0x3e6b973e	0.23006913
1	0xbd9b7c14	-0.075920254
2	0x3e8b40dc	0.2719792
3	0xbd810f27	-0.06301718
4	0xbd80b89f	-0.06285214
5	0xbdbf07f1	-0.093276866
6	0x3eb8d810	0.36102343
7	0xbe33881a	-0.17532387
8	0x3ede0d45	0.433695
9	0x3e49ddf4	0.19713575
10	0xbd9b2454	-0.075752884
11	0x3e43aeee	0.19109699
12	0xbd56ef7d	-0.052474488
13	0xbd948b02	-0.07253076
14	0xbd9f5a65	-0.07780913
15	0x3e6cde42	0.2313166
16	0xbe0424e5	-0.12904699
17	0x3e5fd661	0.21859123
18	0x3d2d58c8	0.042320997
19	0xbd2747fd	-0.040840138
20	0x3d4f6105	0.050629634
21	0xbce70439	-0.028200256
22	0xbda693db	-0.0813367
23	0xbd0b1edf	-0.033964988
24	0x3d6e3ae1	0.05816162
25	0xbc69bd40	-0.014266312
26	0x3dbb8901	0.09156991
27	0xb9ea9f82	-0.000447508
28	0xbc0efb4b	-0.008726905
29	0xbd0f2259	-0.034944866
30	0xbdce8755	-0.10084406
31	0x3dd83cc4	0.10558465
32	0xbc1baaf4	-0.009501208
33	0x3c2021b0	0.009773657
34	0x3cf1ece6	0.029531907
35	0xbccc2052	-0.024917755
36	0x3ead33dc	0.33828628
37	0x3e954592	0.2915464
38	0xbee01cf9	-0.43772104
39	0x3e349223	0.17633872
40	0xbd9f5f7e	-0.077818856
41	0x3ea00835	0.3125626
42	0xbe936737	-0.28789684
43	0x3e116ab8	0.14200866
44	0x3e2e3100	0.1701088
45	0x3d367cee	0.044552736
46	0x3cefec51	0.02928749
47	0x3d190bf6	0.037364922
48	0xbe2c23d1	-0.16810538
49	0xbd284d50	-0.041089356
50	0xbd87eb6b	-0.06636699
51	0x3e68e950	0.22745252
52	0xbdcd0f4f	-0.100126855
53	0x3e0791c0	0.13239193
54	0xbc7a8289	-0.015289911
55	0xbd61490a	-0.055001296
56	0x3c81f5ac	0.015864216
57	0xbceb31ac	-0.028710209
58	0xbdcd4e55	-0.10024706
59	0xbc332888	-0.010934956
60	0x3d86baf8	0.0657863
61	0x3afe3c13	0.0019396566
62	0x3c2445b3	0.010026383
63	0x3c23fa09	0.0100083435
64	0xbe0eda9d	-0.13950582
65	0x3d9e6a42	0.07735111
66	0xbe1a060e	-0.15041372
67	0x3da75adb	0.08171626
68	0xbde934cc	-0.11387023
69	0x3e13d31c	0.14436
70	0xbd20ce1d	-0.039259065
71	0x3e433978	0.19064891
72	0x3e83a0c5	0.25708595
73	0x3e48c0c9	0.19604792
74	0xbd1ae7e6	-0.03781881
75	0xbea4e594	-0.32206404
76	0xbd86126a	-0.06546481
77	0xbe770832	-0.2412422
78	0x3de6c4da	0.11268015
79	0x3e7a0237	0.24414907
80	0xbe8cec1e	-0.27523893
81	0xbdf343ef	-0.11878192
82	0xbe2dc812	-0.16970852
83	0xbd5fb597	-0.054616537
84	0x3ea2bc05	0.31784073
85	0x3e39819d	0.1811585
86	0x3e1ee840	0.15518284
87	0x3e029b16	0.12754473
88	0xbe91cc7f	-0.2847633
89	0x3dc14f9a	0.09439011
90	0x3d06c276	0.032900296
91	0xbc7bc85b	-0.015367593
92	0x3d0c4467	0.03424492
93	0x3b408c62	0.002938055
94	0x3d3377ab	0.043815296
95	0x3d221a7f	0.03957605
96	0x3c6ddb47	0.014517612
97	0xbe35bd34	-0.17747957
98	0x3d6e061a	0.058111288
99	0xbe1d17e7	-0.1534115
100	0x3ddc8c19	0.10768909
101	0x3d610ef4	0.0549459
102	0xb926d35c	-0.00015909731
103	0x3d722ca5	0.059124608
104	0x3d516494	0.05112131
105	0x3d09bf28	0.033629566
106	0x3e125ba2	0.14292768
107	0xbe304f8b	-0.17217843
108	0x3d2eb9db	0.042657714
109	0xbf07ceb0	-0.53049755
110	0x3eb7af73	0.35876045
111	0xbd9ea73f	-0.077467434
112	0x3ee1eac1	0.44124416
113	0xbeee99e5	-0.46601787
114	0x3d929993	0.07158198
115	0x3c008c6a	0.007845977
116	0x3dcc45a0	0.099742174
117	0x3df1f434	0.11814156
118	0x3e0c1c82	0.1368275
119	0xbe3318b6	-0.17489895
120	0x3e0b268c	0.13588923
121	0xbe664f30	-0.22491145
122	0x3e11155b	0.14168303
123	0xbdb40c46	-0.087914035
124	0x3d9ed027	0.07754546
125	0x3e23f44c	0.1601116
126	0x3d291f74	0.04128976
127	0x3d10995b	0.0353025
128	0xbce8141d	-0.028329903
129	0xbcb599e8	-0.022168115
130	0xbc71d4e4	-0.01476023
131	0x3d3201ec	0.043458864
132	0xbd6c32c4	-0.0576656
133	0xbb6b71ab	-0.0035925906
134	0x3df4435c	0.1192691
135	0x3da37aef	0.07982432
136	0xbd579172	-0.05262894
137	0x3dc7b4a1	0.09751249
138	0x3e1255e6	0.1429058
139	0xbb813471	-0.003943019
140	0xbdbd5c05	-0.09246067
141	0xbdc75965	-0.097338475
142	0xbda9ec47	-0.082970195
143	0x3e06fd61	0.13182594
144	0xbe67a0c7	-0.22619925
145	0xbd98986e	-0.07450949
146	0xbda3a072	-0.07989587
147	0x3d808833	0.06275978
148	0x3e612194	0.21985465
149	0x3db30148	0.08740479
150	0xbd3123bf	-0.04324698
151	0xbd80adf0	-0.06283176
152	0x3e5b6369	0.2142464
153	0xbdf016ad	-0.11723075
154	0x3c46d351	0.012135343
155	0xbe028a02	-0.12747958
156	0x3e4c7943	0.19968133
157	0xbcedece0	-0.029043615
158	0xbdcf2ca1	-0.10115934
159	0x3cbe44c8	0.023226157
160	0xbca61bd0	-0.020276934
161	0xbdf65380	-0.12027645
162	0xbd33027d	-0.043703545
163	0x3d10c9fe	0.035348885
164	0x3dcf7201	0.101291664
165	0x3e3ff974	0.18747503
166	0xbd908f5a	-0.07058592
167	0xbd6b3dbe	-0.05743193
168	0xbd0d660b	-0.034521144
169	0xbd246014	-0.04013069
170	0xbe338d95	-0.17534478
171	0x3d894725	0.06703023
172	0x3da1f002	0.07907106
173	0x3decd50b	0.11564072
174	0x3e05201b	0.13000529
175	0x3dbbcaeb	0.09169563
176	0x3dd072d9	0.101781555
177	0x3e16eb14	0.14738113
178	0x3e182e6f	0.14861463
179	0x3df02e01	0.117275245
180	0x3e83df23	0.25756177
181	0x3d703153	0.05864079
182	0xbd84f228	-0.064915
183	0xbea4a659	-0.32158163
184	0x3ed15aa3	0.40889463
185	0x3e8a1b63	0.2697402
186	0x3eab0e39	0.3340929
187	0x3cbe98fc	0.023266308
188	0xbc46898f	-0.012117757
189	0x3e0c00ba	0.13672152
190	0xbd8f4526	-0.06995611
191	0xbe00f7e2	-0.1259456
192	0xbef09eab	-0.46996054
193	0x3e6b2908	0.22964871
194	0x3e001cc4	0.12510973
195	0x3e01ddcd	0.12682267
196	0xbe17df67	-0.14831315
197	0xbdd3648a	-0.10321911
198	0x3db8d83d	0.09025619
199	0x3d1a634b	0.03769235
200	0xbc45b3c7	-0.012066788
201	0xbd238cc5	-0.03992917
202	0x3dbad1d4	0.09122053
203	0x3d6a9008	0.057266265
204	0x3d562b7f	0.052287575
205	0x3d3ce2da	0.04611478
206	0xbcbf1a63	-0.023328012
207	0x3caa70ce	0.020805743
208	0x3d03a918	0.032143682
209	0x3ddd26f9	0.10798449
210	0x3e1244f4	0.14284116
211	0xbe0674c9	-0.13130488
212	0xbdaa312d	-0.08310161
213	0xbca88c2f	-0.020574657
214	0xbd7e08d8	-0.062020153
215	0x3e273697	0.16329418
216	0xbda7ccec	-0.081933826
217	0xbcf4ffcd	-0.029907132
218	0xbdab6f13	-0.08370795
219	0xbc0518bb	-0.008123572
220	0xbdb462e4	-0.088079244
221	0xbe334bb6	-0.1750935
222	0x3ca46180	0.020066023
223	0xbc384ba3	-0.011248502
224	0x3e537cef	0.20653127
225	0xbcb50241	-0.022095801
226	0x3d7671f7	0.06016728
227	0x3df32687	0.11872583
228	0xbce45ff0	-0.027877778
229	0x3f03cf96	0.51488626
230	0xbefa5647	-0.4889395
231	0x3d8b8ec4	0.0681434
232	0xbf0fff58	-0.56249
233	0x3ea94c74	0.33066142
234	0x3c7f00b5	0.015564133
235	0x3c5c83b3	0.013459134
236	0x3cb46f96	0.022025865
237	0x3d75a0a1	0.05996764
238	0x3df4248b	0.119210325
239	0xbe3aba6e	-0.1823518
240	0x3d8ddf30	0.06927335
241	0xbe0c4da7	-0.13701497
242	0x3e106ecd	0.14104767
243	0x3c56aad3	0.013102251
244	0x3df52b7c	0.119711846
245	0x3de59048	0.1120916
246	0x3b87d24a	0.0041449415
247	0xbd992348	-0.074774325
248	0xbc247f59	-0.010040128
249	0xbe0749d1	-0.13211752
250	0xbd0a3ac0	-0.033747435
251	0xbd6e9019	-0.05824289
252	0xbe3efe6f	-0.18651746
253	0x3df78224	0.12085369
254	0x3e840cfa	0.2579115
255	0xbe369988	-0.17832005

conv1.bias f4 [32]
0	0xbda48b49	-0.08034379
1	0x3e00fffb	0.12597649
2	0x3e1dffca	0.15429607
3	0x3c9dd44b	0.019266268
4	0xbe01e0ee	-0.1268346
5	0x3c62fe89	0.013854631
6	0x3c171c61	0.009223075
7	0x3dea323a	0.11435361
8	0x3d9893d1	0.07450069
9	0xbdaaab15	-0.083334126
10	0x3e9e900e	0.3096928
11	0xbc0e6306	-0.008690601
12	0xbdf287f4	-0.11842337
13	0xbcc587ec	-0.024112664
14	0x3bc215a2	0.005922989
15	0x3e80e9ff	0.25178525
16	0xbd384ed4	-0.04499705
17	0x3e844da3	0.25840482
18	0xbc54e775	-0.012994637
19	0x3cf9234b	0.030412337
20	0x3e92a86f	0.2864413
21	0xbcba9de3	-0.022780364
22	0xbd65010a	-0.055909194
23	0x3cf6b433	0.030115223
24	0xbca90bfb	-0.020635596
25	0x3e4c9ae7	0.19980966
26	0x3e8c4b36	0.2740113
27	0xbb93e200	-0.0045130253
28	0xbd25d58a	-0.04048685
29	0xbdd58478	-0.10425657
30	0x3e02b51b	0.12764399
31	0xbe049525	-0.12947519

conv2.weight f4 [64, 32, 3, 3]
0	0x3dcaf4b9	0.099099584
1	0x3e0bb265	0.13642271
2	0x3e1cf504	0.15327841
3	0x3e0b0bd3	0.1357873
4	0xbb7f06cf	-0.003891397
5	0x3e1a9813	0.15097074
6	0xbc1410f9	-0.00903725
7	0x3dabbd61	0.083857305
8	0x3d6d4c04	0.057933822
9	0x3e107e51	0.14110686
10	0xbe076d80	-0.13225365
11	0xbd1fc025	-0.039001603
12	0xbcc1176d	-0.02357074
13	0xbba92099	-0.0051613566
14	0xbe22fd7c	-0.15917009
15	0x3bb68c46	0.005570921
16	0x3d99aeaa	0.07504018
17	0x3e26c89f	0.16287468
18	0xbc3cc9cc	-0.0115227215
19	0xbbf2af0a	-0.00740612
20	0x3dd18fe8	0.10232526
21	0xbd8ea97e	-0.06965922
22	0x3cf6255a	0.030047107
23	0xbcce5e38	-0.025191411
24	0xbd3f27b8	-0.046668738
25	0xbdb2a691	-0.08723176
26	0xbd3eb11e	-0.04655563
27	0x3d3858b5	0.045006473
28	0x3dbaf622	0.09128977
29	0x3bc3bc4f	0.005973376
30	0x3d351491	0.044209067
31	0xbe0532c3	-0.13007645
32	0x3dd2aed6	0.102872536
33	0xbe25411c	-0.16138119
34	0x3df2097e	0.11818217
35	0xbe11b765	-0.14230116
36	0x3cec3ee6	0.028838586
37	0x3c4c4bb1	0.012469218
38	0x3cf747eb	0.03018566
39	0x3c6ab97c	0.0143264495
40	0xbb102852	-0.002199669
41	0x3d062219	0.03274736
42	0xbcfff4dd	-0.03124469
43	0x3c5f31a7	0.013622678
44	0x3d502c3a	0.050823428
45	0xbd831c1c	-0.06401846
46	0xbc694967	-0.014238692
47	0x3b9ade70	0.0047262236
48	0x3d33b2d6	0.043871723
49	0x3dcd9823	0.100387834
50	0xbdb19892	-0.086716786
51	0xbd5c7f98	-0.05383262
52	0xbca41849	-0.020031111
53	0xbe0f2eda	-0.13982716
54	0x3d9da84c	0.07698116
55	0xbd107e52	-0.03527672
56	0xbc4c2b21	-0.012461455
57	0xbe1d779b	-0.15377657
58	0x3d4b907c	0.049698338
59	0x3d8d1187	0.06888109
60	0xba0be90a	-0.0005337155
61	0x3e0a7aa6	0.13523349
62	0x3d2593ec	0.040424272
63	0xbcbc7869	-0.023006635
64	0xbe1762a2	-0.14783719
65	0x3d81c6a3	0.06336715
66	0x3db7a7b9	0.089675374
67	0x3dc8b534	0.09800187
68	0xbe5323dd	-0.2061915
69	0x3e76ef20	0.24114656
70	0x3d02407a	0.03179977
71	0xbe07d212	-0.13263729
72	0xbd3c6e72	-0.046003766
73	0x3da2d985	0.07951645
74	0xbd932621	-0.07185007
75	0x3db39e66	0.087704465
76	0x3d4ab84f	0.049492177
77	0xbd6c20ba	-0.057648398
78	0xbdba5153	-0.090975426
79	0x3dd44a54	0.103657395
80	0x3e029f55	0.12756093
81	0xbd0d694a	-0.03452424
82	0x3dbc9508	0.09208113
83	0xbcee560d	-0.029093767
84	0xbd3ad4e1	-0.045613173
85	0xbd905fdf	-0.07049536
86	0x3d25dc3f	0.040493246
87	0xbd52911e	-0.051407926
88	0x3d5a19ad	0.053247143
89	0x3d8c8d29	0.06862862
90	0x3c85d38e	0.016336229
91	0xbda9ee8a	-0.08297451
92	0x3cdd8544	0.027041085
93	0x3dc6bf1c	0.0970442
94	0xbd4684e9	-0.048466597
95	0xbd71d630	-0.059042156
96	0x3d415023	0.047195565
97	0x3db72359	0.08942289
98	0x3dd380e8	0.10327321
99	0xbcacb135	-0.021080593
100	0xbdb6a76b	-0.08918651
101	0x3d32461a	0.043523885
102	0x3d593fc1	0.053039316
103	0x3cdc7985	0.026913414
104	0x3dbd3edc	0.09240505
105	0xbd5617d8	-0.052268833
106	0xbc75b728	-0.014997281
107	0x3c8a1f33	0.01686058
108	0xbca95bf2	-0.020673726
109	0xbd26b67e	-0.04070138
110	0xbcc128fc	-0.023579113
111	0x3c72407b	0.014785881
112	0xbdfd870f	-0.12379276
113	0x3d98d50e	0.07462512
114	0xbddc3a9d	-0.10753367
115	0x3b8fd112	0.004388937
116	0x3d8b3d41	0.06798793
117	0xbd7ce778	-0.061744183
118	0x3b30abf1	0.0026957954
119	0x3d3a1258	0.04542765
120	0x3e4550a3	0.19269042
121	0xbc223d09	-0.009902247
122	0xbd3e6594	-0.04648359
123	0x3e2f1ffb	0.17102043
124	0xbd9dd456	-0.077065155
125	0x3e07cd76	0.13261971
126	0xbcfec8f1	-0.031101676
127	0x3e5a1176	0.21295723
128	0x3e1329b2	0.14371374
129	0xbcfaf9a0	-0.030636609
130	0x3da4fd74	0.08056155
131	0x3db74195	0.08948056
132	0xbcd3652d	-0.02580508
133	0xbe4fee26	-0.2030569
134	0xbdb4b5b5	-0.0882372
135	0xbc40a514	-0.011758108
136	0x3d5dcfe1	0.054153327
137	0xba28ec13	-0.0006443869
138	0x3c3b8a0b	0.011446486
139	0xbd2998b3	-0.04140539
140	0x3de2f9ea	0.110828236
141	0xbdbb3c20	-0.09142327
142	0x3d78a0ef	0.060700353
143	0x3da84a72	0.08217324
144	0xbd840c77	-0.0644769
145	0xbd8f3db6	-0.06994192
146	0xbde0178e	-0.10941993
147	0xbcbba69d	-0.022906596
148	0x3d36ac25	0.044597764
149	0x3bbd5d04	0.0057789106
150	0x3d4e1494	0.050312594
151	0x3e4f99e8	0.20273554
152	0x3e0e4927	0.13895093
153	0x3d73b2c7	0.059496667
154	0x3d63d38e	0.055621676
155	0xbd97be6d	-0.07409368
156	0x3b9ecdd8	0.004846316
157	0xbbab4486	-0.0052266745
158	0xbd6fc8a1	-0.058540944
159	0x3d085ab1	0.033289615
160	0xbb9989bd	-0.004685609
161	0x3d40d7c4	0.04708077
162	0xbcf8e5e5	-0.03038306
163	0x3d4f529b	0.050615888
164	0xbd04743c	-0.032337412
165	0x3e2c7926	0.1684309
166	0x3e277367	0.16352616
167	0xbd0e85f8	-0.03479573
168	0xbd4cf00c	-0.050033614
169	0x3bb5b475	0.005545194
170	0xbdf63475	-0.12021724
171	0xbdd55d23	-0.10418155
172	0x3d398ef3	0.045302343
173	0x3ca3622f	0.019944279
174	0x3d8200f1	0.06347836
175	0xbd17bb1a	-0.03704367
176	0xbc1280f0	-0.008941874
177	0x3d6db11e	0.05803024
178	0x3b85a6ed	0.004078737
179	0xbe4d48ed	-0.2004735
180	0xbdb1aad2	-0.086751595
181	0xbd0e3186	-0.034715198
182	0xbc137587	-0.009000189
183	0x3dac6f0d	0.08419619
184	0xbdcfc1ce	-0.10144387
185	0xbdcf01f9	-0.10107798
186	0x3d5a14e6	0.053242587
187	0xbd5dfde7	-0.05419722
188	0x3d220fbd	0.03956579
189	0x3e5e99fd	0.2173843
190	0x3e293cc1	0.16527082
191	0x3de4c80a	0.11170967
192	0x3bf7ce9a	0.0075624706
193	0xbd3989cd	-0.045297433
194	0xbdc358c8	-0.09538418
195	0xbe4daa9c	-0.20084614
196	0xbec1aa38	-0.3782518
197	0x3db66046	0.089050815
198	0x3ddb91f7	0.107212
199	0xbc091947	-0.008367843
200	0x3c6105ce	0.013734294
201	0x3d37f074	0.04490705
202	0xbc3df54f	-0.011594131
203	0x3d07ad14	0.033124045
204	0xbdd191f1	-0.10232914
205	0xbd2afdb9	-0.041745875
206	0x3dc01778	0.09379476
207	0xbd1bddf5	-0.03805347
208	0x3dc51c94	0.096245915
209	0xbd940d28	-0.07229072
210	0xbd49a124	-0.04922594
211	0x3da3306d	0.07968221
212	0x3d72b121	0.059250955
213	0xbda67a5f	-0.08128809
214	0x3d7070bc	0.058701262
215	0xbe314432	-0.1731117
216	0x3d26e785	0.040748138
217	0x3e39d3b9	0.18147172
218	0xbca5d5f0	-0.020243615
219	0x3dfaf166	0.12253074
220	0x3cf68ed4	0.030097403
221	0xbd95a9b6	-0.073077604
222	0x3d83a85a	0.06428595
223	0xbdd74e9d	-0.10513041
224	0xbcf7c05b	-0.03024309
225	0xbd467542	-0.04845167
226	0x3bfe8e22	0.0077684084
227	0xbd16db82	-0.036830433
228	0xbe059fed	-0.13049288
229	0x3b084c19	0.002079731
230	0x3e0a8f1b	0.13531153
231	0xbe351317	-0.17683063
232	0x3d79fc35	0.06103154
233	0x3e70006c	0.23437661
234	0xbda43e9c	-0.08019754
235	0x3d68c6fd	0.056830395
236	0xbc862fb5	-0.01638017
237	0x3d34f472	0.044178434
238	0xbc948c2b	-0.018133244
239	0xbb5f35ea	-0.0034059235
240	0xbda94f19	-0.0826704
241	0xbe638e87	-0.22222339
242	0x3dc8e7ef	0.09809863
243	0x36f43079	7.2774096e-06
244	0xbd4be84a	-0.049782075
245	0xbd0323b0	-0.032016456
246	0x3d8c7bd7	0.06859558
247	0xbcedfc5f	-0.029051004
248	0x3d33db8d	0.04391055
249	0x3dbe9b77	0.09306996
250	0x3c9ba65c	0.019000225
251	0x3dc5ec95	0.09664265
252	0x3c439c8c	0.011939179
253	0x3d3bf724	0.04588999
254	0xbca95ca8	-0.020674065
255	0xbd73617c	-0.05941914

conv2.bias f4 [64]
0	0xbd6dd9b7	-0.058068957
1	0x3d96ce67	0.07363587
2	0xbca9a2dd	-0.020707542
3	0xbd46a645	-0.04849841
4	0x3deffb3b	0.1171784
5	0xbd49d605	-0.04927637
6	0x3ca7c9d2	0.020481978
7	0xbbe7b8d7	-0.007071595
8	0x3c78114d	0.015140844
9	0xbaeb990f	-0.0017974692
10	0x3d167265	0.03673019
11	0xbb899982	-0.0041992078
12	0x3d7896ff	0.060690876
13	0x3d1c1768	0.03810826
14	0xbd37ef0c	-0.044905707
15	0x3d023003	0.03178407
16	0x3d0cb024	0.03434767
17	0xbd377c42	-0.044796236
18	0x3cc2a06a	0.023758132
19	0x3dd0ad23	0.10189273
20	0x3b9c9721	0.004778758
21	0x3d4713e3	0.04860295
22	0x3d46eaa1	0.048563603
23	0xbd8d31a2	-0.06894232
24	0x3d0a6c26	0.033794545
25	0x3d3282dd	0.043581832
26	0x3cce6bf5	0.025197962
27	0x3db7ff80	0.0898428
28	0x3cb66aca	0.022267718
29	0x3d5be167	0.053681757
30	0x3d48742b	0.04893891
31	0x3d1508a1	0.036385182
32	0x3cc361c3	0.023850327
33	0xbbb13d2a	-0.0054089027
34	0xb9dea6e8	-0.00042467494
35	0xbcfdf5fb	-0.031001082
36	0x3d16db03	0.03682996
37	0x3a3cb630	0.0007198779
38	0x3d8defa2	0.06930472
39	0x3de83528	0.11338264
40	0x3dcbf6bb	0.099591695
41	0xbccf3b78	-0.025296912
42	0xbd90b25d	-0.0706527
43	0xbd94447c	-0.07239625
44	0x3d507ca3	0.050900113
45	0xbd2411c2	-0.040055998
46	0x3c5aed12	0.013362186
47	0xbba4e858	-0.0050325803
48	0x3d64338d	0.055713225
49	0xbc278cf6	-0.010226479
50	0x3c97c08d	0.018524433
51	0xbaa14e94	-0.0012306743
52	0x3d4262e9	0.04745761
53	0x3d9f1bca	0.07768972
54	0xbbd1f4c8	-0.006407354
55	0x3d18cc07	0.03730395
56	0x3c2c4a71	0.010515795
57	0xbcce9f25	-0.02522237
58	0x3cbe1848	0.023204938
59	0xbc2a74f3	-0.010403859
60	0x3d097c6e	0.03356593
61	0xbd5488a0	-0.05188811
62	0xbd4da489	-0.05020574
63	0x3aa5f516	0.0012661542

conv3.weight f4 [128, 64, 3, 3]
0	0xbc0d8ea5	-0.008639966
1	0xbd3249b4	-0.04352732
2	0x3cf4ec61	0.02989787
3	0xbd596084	-0.05307056
4	0xbd904eb5	-0.07046262
5	0xbab74cbc	-0.0013984661
6	0x3cb7517c	0.022377722
7	0xbcf654e2	-0.030069772
8	0x3db0ad8c	0.086268514
9	0x3d2649e1	0.0405978
10	0xbcb128c3	-0.021625882
11	0xbb7c0b35	-0.0038458828
12	0x3b3aed5f	0.0028522832
13	0x3c1afbd8	0.009459458
14	0x3cf56d24	0.029959269
15	0x3bc1018f	0.0058900784
16	0xbcdd5f80	-0.027023077
17	0x3c1ad576	0.009450307
18	0xbc393de4	-0.01130626
19	0xbdb14568	-0.08655816
20	0xbd8886cc	-0.066663355
21	0xbd7639d5	-0.060113747
22	0x3da3d51f	0.07999634
23	0x3c98fa66	0.018674087
24	0xbc851df8	-0.016249642
25	0xba858a9b	-0.0010188402
26	0xbdacc224	-0.08435467
27	0x3d550a6e	0.0520119
28	0x3d334459	0.043766353
29	0x3c82b4b2	0.015955303
30	0x3d9f8b69	0.07790262
31	0x3c1d998a	0.009619126
32	0x3d2173c1	0.039417032
33	0x3c7875d1	0.015164808
34	0x3d75ab3d	0.05997776
35	0x3acdfdb9	0.0015715874
36	0x3ce4b38d	0.027917648
37	0x3d5ab895	0.053398687
38	0x3c8c6770	0.017139167
39	0xbca340cf	-0.019928364
40	0xbc922dfe	-0.017844196
41	0x3d35ca1c	0.0443822
42	0xba1457b4	-0.0005658821
43	0x3cc46752	0.023975048
44	0x3b839e2c	0.0040166583
45	0x3d18e126	0.037324093
46	0x3d92a6a2	0.07160689
47	0x3c2eaee6	0.010661816
48	0x3d397bf4	0.045284227
49	0x3d409083	0.047012817
50	0x3cd42943	0.025898581
51	0x3d5b5e1e	0.053556554
52	0x3d5f6dad	0.054547954
53	0x3d6b6af4	0.057475045
54	0xbc129c1f	-0.008948355
55	0x3bd1a722	0.0063980976
56	0xbba42a83	-0.0050099506
57	0x3c57c533	0.013169575
58	0x3d664409	0.056217227
59	0x3ba77479	0.00511032
60	0x3d4bde42	0.04977251
61	0x3d53eed3	0.051741432
62	0x3ca91257	0.020638628
63	0x3c815bd2	0.015790854
64	0xbca98cd6	-0.020697039
65	0xbbbbe25e	-0.005733772
66	0x3d04b4f4	0.032399133
67	0xbc4bc0c5	-0.012436097
68	0xba9148ea	-0.0011084352
69	0xbc1e9f4c	-0.009681534
70	0x3c2a8e82	0.010409953
71	0x3ca9bdbb	0.020720353
72	0x3c4fa3fe	0.012673376
73	0xbaa9272d	-0.0012905352
74	0x3c26eadf	0.010187834
75	0x3b956644	0.00455931
76	0xbcff1de1	-0.031142177
77	0xbcee2f2f	-0.029075233
78	0x3da47d61	0.08031727
79	0x3cf99b42	0.03046954
80	0xbd17ad79	-0.03703067
81	0x3d76068a	0.06006483
82	0x3d40bd59	0.047055576
83	0x3c11dedc	0.0089032315
84	0x3d095d37	0.033536162
85	0x3c9d25f2	0.019183133
86	0xbb69cbf1	-0.0035674537
87	0x3d9ff8ba	0.07811113
88	0xbb9165c4	-0.0044371802
89	0x3c75c287	0.014999992
90	0x3ce2cde1	0.027686061
91	0xbcef546a	-0.029215056
92	0xbb0681e7	-0.0020524205
93	0xbcab9c59	-0.020948576
94	0xbca8837f	-0.020570515
95	0x3d8f70fa	0.070039704
96	0x3c1523f9	0.009102815
97	0x3d0f7688	0.03502515
98	0xbb82b633	-0.003989005
99	0x3d4ad9ec	0.049524233
100	0xbcdc4a20	-0.026890814
101	0x3db22759	0.08698911
102	0x3cbbe2bd	0.022935266
103	0x3dc03765	0.09385566
104	0xbc956ce3	-0.018240398
105	0x3c2460a3	0.010032806
106	0x3d9483db	0.07251712
107	0x3d8328a4	0.06404236
108	0x3be9c5be	0.0071341684
109	0x3c2182c3	0.009857836
110	0xbc0c559c	-0.008565333
111	0x3d6a010c	0.057129905
112	0x3c976fff	0.018486021
113	0x3d227b80	0.03966856
114	0x3d038a99	0.0321146
115	0x3caa9f79	0.020827996
116	0x3d1eb769	0.038749132
117	0xbc35f024	-0.011104617
118	0xbb12c147	-0.0022393034
119	0xbd13b1e2	-0.036058314
120	0xbd2a98c0	-0.04164958
121	0x3c2561b5	0.010094096
122	0xbcd23d41	-0.025663974
123	0x3d2c9793	0.04213674
124	0xbae7ceb0	-0.0017685499
125	0x3cea6b4b	0.028615614
126	0x3d96f748	0.07371384
127	0x3cec46c7	0.028842343
128	0x3d19f728	0.037589222
129	0x3d9e21f7	0.07721322
130	0x3dad8e5a	0.08474417
131	0x3d3b4ee2	0.045729525
132	0x3d859f0c	0.065244764
133	0x3d053da2	0.03252948
134	0x3d430300	0.047610283
135	0x3cd01401	0.025400164
136	0xbbb98dfa	-0.005662677
137	0x3c2e4109	0.010635623
138	0x3d81a14c	0.06329593
139	0xbc0a1aeb	-0.008429269
140	0xbd02f811	-0.031974856
141	0xbd0714c5	-0.03297879
142	0x3d38033f	0.04492497
143	0xbc31d15b	-0.010853137
144	0xbc301825	-0.010747944
145	0xbcaf2508	-0.021379963
146	0x3d5cbf7e	0.05389356
147	0xbd08a2d3	-0.033358406
148	0x3d34bc68	0.04412499
149	0x3db6a79c	0.08918688
150	0x3c5021ca	0.012703368
151	0x3d85ab7a	0.06526847
152	0xbdd99855	-0.10624758
153	0x3d771faf	0.06033295
154	0xbd68a30d	-0.056796122
155	0x3dc265b2	0.09492053
156	0x3bacc3b1	0.0052723517
157	0xbc8252d7	-0.015908642
158	0x3cdf8e77	0.027289612
159	0x3de96afb	0.11397358
160	0xbd36bd23	-0.04461397
161	0x3da411f7	0.08011239
162	0xbd03a2b3	-0.032137584
163	0x3d10a32a	0.035311855
164	0x3c2c8250	0.010529116
165	0xbb0765dd	-0.002066008
166	0xbde71b93	-0.11284556
167	0x3d651e72	0.055937238
168	0x3cf1c5a1	0.029513182
169	0x3cef48eb	0.029209575
170	0x3d171f26	0.03689494
171	0x360cfe86	2.1009778e-06
172	0x3d26b276	0.040697537
173	0x3cdecf40	0.027198434
174	0x3d4f03c2	0.050540693
175	0x3d0c9d8d	0.03432994
176	0x3c765f31	0.015037344
177	0x3d092212	0.033479758
178	0x3d48c006	0.049011253
179	0x3b1f219a	0.0024281503
180	0x3cd129c8	0.025532618
181	0xbc8f215f	-0.017471967
182	0x3d4980eb	0.04919521
183	0x3c13cd87	0.0090211695
184	0xbcd67feb	-0.026184043
185	0x3a997113	0.0011706672
186	0xbceaf687	-0.028682007
187	0x3ab60faa	0.0013890166
188	0xbd0ee26a	-0.034883894
189	0x3d45083b	0.048103552
190	0x3d2b02de	0.04175078
191	0xbd59854d	-0.05310564
192	0xbc40286e	-0.011728389
193	0xbc5ae13a	-0.013359362
194	0x3d776657	0.060400333
195	0xbd4e3135	-0.050339896
196	0x3cb08528	0.021547869
197	0x3d496fd5	0.049178917
198	0x3c7e9351	0.015538053
199	0x3d658e15	0.056043703
200	0xbd0f04ef	-0.034916814
201	0x3be25539	0.006907132
202	0x3d0a5fa4	0.033782616
203	0xbd07133d	-0.03297733
204	0xbc68604a	-0.014183113
205	0x3dbe2a59	0.09285421
206	0xbd04a01c	-0.032379255
207	0xbd439fd1	-0.047759835
208	0x3ba67279	0.005079564
209	0x3c5597c2	0.01303667
210	0x3d8400e2	0.06445481
211	0x3d1319f6	0.03591343
212	0xbba8ab65	-0.005147385
213	0xbc68635d	-0.014183846
214	0x3d0a615a	0.033784248
215	0xbda895e2	-0.08231713
216	0xbcc2d614	-0.023783721
217	0x3d383b2a	0.0449783
218	0xbcdb4ac3	-0.026769048
219	0x3cea1476	0.02857421
220	0x3a52e5d2	0.000804511
221	0x3c8d43b7	0.017244203
222	0xbd0490ce	-0.03236466
223	0xbbd8e4b0	-0.0066190585
224	0x3d1447af	0.036201175
225	0xbc6ae5c9	-0.014337012
226	0x3c613c68	0.013747312
227	0xb9f0b9a2	-0.00045914674
228	0x3d4acfaa	0.04951445
229	0x3cd70920	0.026249468
230	0x3cdd97fb	0.027050009
231	0xbc39ae80	-0.011333108
232	0x3cecf41b	0.028924992
233	0x3d02ca3d	0.03193115
234	0x3c10717b	0.008816118
235	0x3da7cec0	0.08193731
236	0xbc8eec1a	-0.017446566
237	0xbbebd159	-0.007196587
238	0xbd1390bc	-0.0360267
239	0x3c5e9714	0.0135858245
240	0xbcc78e95	-0.02435998
241	0x3c876df4	0.016531922
242	0xbcedcb6d	-0.029027665
243	0x3d13c7d1	0.03607923
244	0xbc5e8128	-0.013580598
245	0x3c7da6db	0.015481676
246	0x3d5f622c	0.054536983
247	0xbc3fefb2	-0.011714863
248	0xbc65235c	-0.013985481
249	0x3c690a17	0.014223597
250	0x3d3b76b1	0.04576749
251	0x3d0e8b23	0.03480066
252	0xbc795f01	-0.015220405
253	0xbd642076	-0.05569502
254	0xbd7b5fbc	-0.061370596
255	0xbc90ccbd	-0.017675752

conv3.bias f4 [128]
0	0x3c51fdf8	0.0128168985
1	0x3cffa55f	0.031206785
2	0xbd190bfe	-0.037364952
3	0xbc2a98ed	-0.010412437
4	0x3acd6acd	0.0015672088
5	0x3d551eaa	0.052031197
6	0xaac9c3b8	-3.584058e-13
7	0xb88d4dcc	-6.737895e-05
8	0xbd16aca8	-0.03678575
9	0x3c5697d2	0.01309772
10	0x3d43d1ba	0.047807433
11	0x3c255d76	0.010093084
12	0x3ce6aace	0.028157618
13	0xbaa9e6c4	-0.001296245
14	0xbc61fde4	-0.013793442
15	0x3c524abc	0.012835201
16	0xbce5baca	-0.02804317
17	0x3ca3d88c	0.020000719
18	0xaeb40269	-8.1858804e-11
19	0xab6885df	-8.260874e-13
20	0x3cf136b7	0.029445035
21	0x3c17db66	0.009268617
22	0x3c9cbbbf	0.019132493
23	0xbd3827d9	-0.044959877
24	0xb746c7a2	-1.18482e-05
25	0xbd697e16	-0.05700501
26	0xb07c6741	-9.18238e-10
27	0xb1e821b3	-6.75592e-09
28	0x3c739ab5	0.014868428
29	0x3c5c41d7	0.013443432
30	0xb5eb94ed	-1.7552208e-06
31	0x3ca99b34	0.02070389
32	0x3ad32d86	0.001611159
33	0xbcb72ea5	-0.022361109
34	0x3bfcde83	0.007716955
35	0x3ca0a282	0.01960874
36	0xbd2ea236	-0.042635165
37	0xbcd5c3c6	-0.026094329
38	0xb9324a72	-0.00017003136
39	0xb523f27d	-6.10751e-07
40	0xbd75a968	-0.05997601
41	0xb902fe6d	-0.00012492547
42	0x3d6f196d	0.058373857
43	0xbb3fb47e	-0.002925187
44	0xbb77a1c7	-0.0037785636
45	0x3ba32bfc	0.0049796086
46	0x3ca77358	0.020440742
47	0xb27187e0	-1.4058941e-08
48	0xbcb41027	-0.021980358
49	0x3cc3d439	0.023904907
50	0xbbe545f8	-0.0069968663
51	0x3c5ab340	0.013348401
52	0xbbb5287f	-0.005528509
53	0xbc2d4d5e	-0.010577528
54	0xb239d56f	-1.08169464e-08
55	0xbc88efea	-0.016715962
56	0xbba8e58c	-0.0051543172
57	0xbd1bfcbc	-0.038082823
58	0x3c279d98	0.010230444
59	0x3c937e43	0.018004542
60	0x3cf76d05	0.030203352
61	0xbd2a3ef8	-0.041563958
62	0x3ce0efa2	0.027458016
63	0x3b7d5d0a	0.0038660192
64	0x3c704014	0.014663715
65	0x3d8b482a	0.068008736
66	0x3c8a58cf	0.01688805
67	0x3caaeb4c	0.020864151
68	0xbcf81cdd	-0.0302872
69	0xbc572a75	-0.013132681
70	0x3c937b73	0.018003201
71	0xbc877a9b	-0.016537955
72	0xbbd8cf6e	-0.0066165244
73	0x3d3777d7	0.044792023
74	0xbcc96b64	-0.02458734
75	0xbc38f28a	-0.011288295
76	0xbc962e50	-0.01833263
77	0xb2bf8f15	-2.2300393e-08
78	0x3c8a535e	0.016885456
79	0xbc610aeb	-0.013735513
80	0x3d233b9e	0.039851777
81	0x3d443319	0.047900293
82	0xa1c13520	-1.3092251e-18
83	0x3c795cee	0.01521991
84	0x3d85fd35	0.06542436
85	0x3d07c39a	0.033145525
86	0xbce18aed	-0.027532065
87	0xbbc28a9e	-0.0059369346
88	0xbd3445d6	-0.044011913
89	0xba973e5d	-0.0011538971
90	0x39f74981	0.00047166276
91	0xbdaf318c	-0.08554372
92	0xbc3470b2	-0.011013197
93	0x3d661718	0.056174368
94	0x3c96edf6	0.018424015
95	0x3c4bf697	0.012448928
96	0xabfc556f	-1.792939e-12
97	0xbb439dd3	-0.002984871
98	0xab8a13b7	-9.810962e-13
99	0xbd3db571	-0.046315614
100	0xbd68c6f3	-0.056830358
101	0x3b63552e	0.0034688222
102	0xb04be883	-7.418139e-10
103	0x3d81e637	0.06342738
104	0x3d6a7a6e	0.057245664
105	0x3bca7d46	0.0061794845
106	0x3d6ce7f6	0.057838403
107	0xb5520d64	-7.825058e-07
108	0xb94b4155	-0.00019383927
109	0xbb83274b	-0.004002487
110	0x3d00702d	0.03135698
111	0xbbd2f9a9	-0.006438453
112	0x3c95a8dc	0.018268995
113	0x3cc7d84b	0.024395129
114	0x3cc25a03	0.023724562
115	0x949d32cd	-1.5872986e-26
116	0x3cba1e5d	0.022719556
117	0xbce7d51d	-0.028299863
118	0xb86916e4	-5.5572847e-05
119	0x3c60357e	0.0136846285
120	0x3c3ec863	0.011644456
121	0xbb4b5631	-0.0031026716
122	0xbde08f20	-0.10964799
123	0xaf2f4352	-1.5940074e-10
124	0x3d971228	0.0737651
125	0xbbe9c3f9	-0.0071339575
126	0xbd0d671d	-0.034522165
127	0x3bdf82e4	0.0068210233

act_conv1.weight f4 [4, 128, 1, 1]
0	0x3c9da780	0.01924491
1	0x3e00ce1c	0.12578624
2	0xbdecf1f2	-0.11569585
3	0x3d56d099	0.052445028
4	0x3e1d00b1	0.15332295
5	0xbdd13a18	-0.10216159
6	0x3b8d60ab	0.0043145022
7	0x3ac32ecd	0.0014891267
8	0xbdbb29fd	-0.09138868
9	0x3df7bb9f	0.12096333
10	0xbd3c4751	-0.04596645
11	0x3d9f2611	0.077709325
12	0x3d873ffb	0.06604
13	0xbcb887a8	-0.022525623
14	0xbd37a047	-0.044830587
15	0x3c037fb1	0.0080260495
16	0x3d670cb8	0.056408614
17	0x3e08869b	0.13332598
18	0x3a3bcaf9	0.0007163729
19	0x800089d2	-4.944e-41
20	0x3daa6317	0.08319681
21	0x3d989892	0.074509755
22	0x3dd5b04d	0.10434017
23	0x3e4bdcdf	0.19908474
24	0x80008ac2	-4.9777e-41
25	0xbd5b04c1	-0.05347133
26	0xbb378f40	-0.0028008968
27	0x0000897a	4.9317e-41
28	0x3ca4376f	0.020045964
29	0x3d550e5f	0.05201566
30	0x3a77605c	0.0009436661
31	0x3d1e7754	0.03868802
32	0xbd71e9a1	-0.059060697
33	0x3bc32aa0	0.005956009
34	0x3e868dcb	0.26280054
35	0x3d450895	0.048103888
36	0x3e0b2e9f	0.13592003
37	0xbda5683c	-0.08076522
38	0x3ae4915e	0.0017438342
39	0x000088c1	4.9058e-41
40	0x3db586f7	0.08863633
41	0x3d8a44b2	0.06751384
42	0x3dad65c2	0.084666744
43	0xbe376983	-0.17911343
44	0xbe07b9aa	-0.13254419
45	0x3d082954	0.03324254
46	0x3d9bf1aa	0.07614453
47	0xb9e48d2e	-0.00043592736
48	0x3e203b7f	0.15647696
49	0xbdb51cdf	-0.08843397
50	0x3e55ba4c	0.20871848
51	0x3ea0ee57	0.3143184
52	0x3da0969e	0.07841228
53	0xbd05fae2	-0.032709964
54	0x000088f0	4.9124e-41
55	0xbcfcf84d	-0.030880118
56	0xbd6ff3c3	-0.05858208
57	0xbd8805e6	-0.0664175
58	0xbd3cec49	-0.046123777
59	0xbcdb54b2	-0.026773784
60	0xbda0084d	-0.07814083
61	0xbccf0d6a	-0.025274951
62	0xbe037eb7	-0.12841307
63	0x3bce9977	0.0063049155
64	0x3dfb3c72	0.122673884
65	0x3e90a19c	0.28248298
66	0x3b897994	0.0041954014
67	0x3e130b10	0.14359689
68	0x3dfe321b	0.124119006
69	0xbde28ca9	-0.11061985
70	0x3dddc777	0.108290605
71	0x3e055633	0.13021164
72	0xbd001783	-0.031272423
73	0xbcd50fe6	-0.026008558
74	0x3cb8e5dd	0.022570545
75	0x3e215b83	0.15757565
76	0x3d81a8ca	0.06331022
77	0xa7e408ae	-6.3292123e-15
78	0xbc02d820	-0.0079860985
79	0x3ea3aca5	0.31967655
80	0x3c697af3	0.014250505
81	0x3d93f08f	0.07223617
82	0x8000897b	-4.9319e-41
83	0xbd1accf8	-0.03779313
84	0xbdf4976a	-0.119429424
85	0x3dedac42	0.11605121
86	0x3d71af50	0.05900508
87	0xbd73f894	-0.059563234
88	0x3d8b2637	0.06794398
89	0x3da96e8c	0.08273038
90	0x3dab890a	0.083757475
91	0xbde19ac9	-0.11015851
92	0x3a5c776a	0.0008410128
93	0x3c0c8043	0.008575502
94	0xbd13924d	-0.036028195
95	0x3d9f134e	0.07767354
96	0x80008a87	-4.9694e-41
97	0x3e157751	0.14596297
98	0xbac95030	-0.0015358981
99	0xbe3e6341	-0.1859255
100	0xbc4546d4	-0.0120408125
101	0x3de81ed4	0.11334005
102	0xba1f8c79	-0.0006086301
103	0x3c11133e	0.008854685
104	0xbdf8e435	-0.12152902
105	0xbc8a6321	-0.016892971
106	0x3df2c0ed	0.11853204
107	0x80008a20	-4.955e-41
108	0x3ad3eb32	0.0016168116
109	0x800089f6	-4.9491e-41
110	0x3ddd9783	0.10819914
111	0xbe24e31d	-0.16102262
112	0x3d0a04c4	0.03369595
113	0x3df92a52	0.12166275
114	0x3e341961	0.17587806
115	0x00008ac3	4.9778e-41
116	0x3dbc9b44	0.09209302
117	0xbca96602	-0.020678524
118	0x800088d1	-4.908e-41
119	0xbd9869c6	-0.0744205
120	0xbda79bb5	-0.08183996
121	0x3e819823	0.25311384
122	0xbd23d75d	-0.04000031
123	0x8000895c	-4.9275e-41
124	0xbd570231	-0.052492324
125	0xbdbdabd0	-0.09261286
126	0x3e08ec03	0.13371281
127	0xbd171581	-0.036885742
128	0x3ca76ba5	0.020437071
129	0xbd348ae6	-0.044077776
130	0x3dd0da6e	0.10197912
131	0xbc953483	-0.018213516
132	0xbd196858	-0.037453026
133	0xbbdcf960	-0.006743595
134	0xbb8fc518	-0.004387509
135	0xb6a3bd11	-4.879789e-06
136	0xbe57e8b2	-0.2108486
137	0x3ba6c19e	0.005088999
138	0x3bb64665	0.005562591
139	0xbd3145a6	-0.043279313
140	0xbcfe72a3	-0.031060522
141	0xbcca0a2a	-0.02466305
142	0x3d9a2877	0.07527249
143	0xbe64e8dd	-0.22354455
144	0xbe23a7e4	-0.15982014
145	0xbdd13142	-0.10214473
146	0x000089f0	4.9483e-41
147	0x80009073	-5.1819e-41
148	0xbb2f026e	-0.002670433
149	0xbd160b22	-0.03663171
150	0xbae9006d	-0.0017776616
151	0x3e1f99b7	0.15585981
152	0x800089f2	-4.9485e-41
153	0x3cd84c1a	0.026403476
154	0xb82f5bb3	-4.1808653e-05
155	0x800088b9	-4.9047e-41
156	0x3e72f468	0.23726046
157	0xbd4afa23	-0.049554955
158	0x2e020503	2.956303e-11
159	0x3c98ad3c	0.018637292
160	0x3d13ecc5	0.036114473
161	0x3c9c928b	0.019112846
162	0x3e0f0844	0.13967997
163	0xbd056c5a	-0.032574035
164	0xbe087de4	-0.13329273
165	0x3dbac35d	0.09119294
166	0xb8099397	-3.28008e-05
167	0x800089d3	-4.9442e-41
168	0x3d0f5da1	0.0350014
169	0xbe58be88	-0.21166432
170	0x3d5e2ff8	0.054244965
171	0x3db0b796	0.08628766
172	0x3e8aa3d1	0.27078107
173	0x3c8e098b	0.017338535
174	0xbd2495eb	-0.040182035
175	0xbaf10e16	-0.0018391039
176	0x3da4278e	0.08015357
177	0x3d8fb358	0.07016629
178	0xbc2885e4	-0.010285828
179	0x3d3a7905	0.04552557
180	0xbdb494b0	-0.088174224
181	0x3afa8112	0.0019111952
182	0x00008a49	4.9607e-41
183	0xba5d7567	-0.0008447975
184	0xb850b35b	-4.9758102e-05
185	0x3d8fc545	0.07020048
186	0xbd647ac4	-0.05578114
187	0xbbe55fd7	-0.0069999504
188	0x3dc4aff5	0.09603874
189	0xbe54095e	-0.20706698
190	0x3ea4e70e	0.3220753
191	0x3bdaae10	0.006673582
192	0x3eb3e3c3	0.35134706
193	0xbd9f91ef	-0.077915065
194	0x3d51fc95	0.05126627
195	0xbc1d63de	-0.00960633
196	0x3d78ddb8	0.060758322
197	0x3dbf20fc	0.09332463
198	0x3e244886	0.1604329
199	0x3e130d8f	0.14360641
200	0xbb1599c2	-0.0022827243
201	0xbac3e83b	-0.0014946529
202	0xbdeefb4a	-0.11669023
203	0xbe5cfe42	-0.21581367
204	0x3e3d2b6e	0.18473598
205	0x800088e7	-4.9111e-41
206	0x3e81116c	0.25208604
207	0x3dac56e3	0.0841501
208	0x3ddc12d7	0.10745781
209	0xbd012c8f	-0.031536635
210	0x80008c22	-5.027e-41
211	0x3cf93666	0.030421447
212	0x3cce14fa	0.025156487
213	0xbbef36c4	-0.0073002297
214	0xbd4a90da	-0.049454547
215	0x3d2582cd	0.040407944
216	0x3e3325b0	0.17494845
217	0x3d5a93b0	0.053363502
218	0x3d274ef3	0.040846776
219	0x3db41815	0.08793656
220	0x3d85eeb5	0.065396704
221	0xbd1f934a	-0.038958825
222	0x3cae0e24	0.021246977
223	0xbdae3adf	-0.085073225
224	0x0000940a	5.3106e-41
225	0x3d7fe623	0.062475335
226	0x1c91f882	9.659533e-22
227	0x3d84a450	0.064766526
228	0xbe148365	-0.14503248
229	0xbd7b9fe4	-0.06143178
230	0x800088f3	-4.9128e-41
231	0xbc20311c	-0.009777334
232	0x3bc6ddd8	0.0060689263
233	0x3de7194e	0.11284123
234	0xbd1b1a96	-0.03786715
235	0x80008b02	-4.9867e-41
236	0x80008926	-4.92e-41
237	0x0000a90c	6.0643e-41
238	0x3b53ce93	0.0032319173
239	0x3d8af38f	0.06784736
240	0x3d957959	0.07298536
241	0xbd439a60	-0.047754645
242	0xbe0d3cd6	-0.13792738
243	0x00008afa	4.9855e-41
244	0xbceafaf8	-0.028684124
245	0x3d9f4e31	0.07778586
246	0x80008a95	-4.9714e-41
247	0xbce3dedf	-0.027816234
248	0x3c5dffba	0.0135497395
249	0xbc3e0ce2	-0.011599751
250	0x3dc2cd25	0.095117845
251	0x80008a79	-4.9675e-41
252	0x3b307fcd	0.0026931644
253	0x3d7cd2f6	0.061724626
254	0x3db99f5d	0.09063599
255	0xbd1486c3	-0.03626133

act_conv1.bias f4 [4]
0	0x3d20743f	0.03917336
1	0x3c15388b	0.009107719
2	0xbc746b01	-0.01491809
3	0x3e0351bc	0.12824148

act_fc1.weight f4 [81, 324]
0	0x3d3e85f6	0.046514474
1	0x3cdf7469	0.027277188
2	0x3d11658f	0.035497244
3	0xbbe4cfea	-0.006982793
4	0x3cb32047	0.021865977
5	0x39befe6b	0.0003642918
6	0xbb50971f	-0.0031828356
7	0x3c577914	0.013151426
8	0xbd82e6cd	-0.06391678
9	0x3d23412e	0.039857082
10	0xbb577c60	-0.003288053
11	0xbd4e661a	-0.05039034
12	0xbd80460d	-0.06263361
13	0xbcd435ce	-0.025904562
14	0xbc6bb08a	-0.014385352
15	0xbc9a133e	-0.018808004
16	0x3b027606	0.0019906773
17	0x3c955fd9	0.01823418
18	0x3cb3dd87	0.021956218
19	0x3cd6e17d	0.026230568
20	0xbd44a7fa	-0.048011757
21	0xbd47caa9	-0.048777256
22	0xbd5033f3	-0.050830793
23	0xbda5fe9e	-0.08105205
24	0x3d44d6b5	0.048056323
25	0x3ac74a3f	0.0015204622
26	0x3b5736e2	0.003283911
27	0x3d01caab	0.03168742
28	0xbd4215d6	-0.047384106
29	0xbccb957e	-0.024851557
30	0xbda9d191	-0.08291925
31	0xbd4e8989	-0.050424132
32	0x3c514921	0.012773783
33	0xbdafc6ba	-0.08582826
34	0x3c3adcd8	0.011405192
35	0xbd22a6c5	-0.039709825
36	0xb923cd13	-0.00015621287
37	0xbcbe7965	-0.023251245
38	0xbda88bc9	-0.08229787
39	0xbde0fcbc	-0.10985705
40	0xbcb8d89a	-0.022564221
41	0xbd910f70	-0.070830226
42	0xbdaad550	-0.083414674
43	0xbd0d39ed	-0.03447907
44	0xbc4edde0	-0.012626141
45	0x3d746cb9	0.059674
46	0xbd84eb36	-0.064901754
47	0xbd83fbcd	-0.064445116
48	0xbd9d9769	-0.07694895
49	0xbe2fd732	-0.17171934
50	0xbd20ecba	-0.03928826
51	0xbd2441e8	-0.040101916
52	0xbd62b5de	-0.055349223
53	0xb9d5b747	-0.00040763078
54	0x3dd8b3b7	0.10581153
55	0x3c2582af	0.010101958
56	0xbd97e5a5	-0.07416848
57	0xbdb2dcd6	-0.08733527
58	0xbd4c379d	-0.049857724
59	0xbd295dcb	-0.041349214
60	0xbcca55b3	-0.024699068
61	0xbd65be13	-0.056089472
62	0xbd32a10b	-0.043610614
63	0x3e8c9383	0.27456293
64	0xbde7582d	-0.11296115
65	0xbbb771dc	-0.00559829
66	0xbccaafbb	-0.024741998
67	0xbdcd6ad9	-0.10030145
68	0xbb9ed7ef	-0.0048475186
69	0xbc910e64	-0.017707057
70	0x3b0126cf	0.001970697
71	0x3c3b1f98	0.011421107
72	0x3e8fb44b	0.2806724
73	0x3e97af13	0.2962576
74	0xbd37ba95	-0.044855673
75	0xbbe8c84f	-0.007103957
76	0x3b8be674	0.0042694155
77	0xbc72c9d5	-0.014818628
78	0xbd040c29	-0.03223816
79	0x3ce49625	0.027903626
80	0x3c47a02b	0.012184183
81	0xbc75b7b9	-0.014997416
82	0xbc123a0d	-0.008924973
83	0xbcab67b1	-0.020923467
84	0x3d6fe9ae	0.058572464
85	0x3d048325	0.03235163
86	0xbd35a032	-0.044342227
87	0xb9aec903	-0.00033337632
88	0xbd1815e7	-0.037130263
89	0x3da374ff	0.079812996
90	0xbc3f74a5	-0.011685525
91	0xbbcd6f7a	-0.0062693926
92	0x38a7a008	7.992989e-05
93	0x3cff55fa	0.031168927
94	0x3cb19bcb	0.021680733
95	0x3d2a481e	0.041572683
96	0xbd135a21	-0.035974625
97	0xbd6ad7ff	-0.057334896
98	0xbc893677	-0.016749604
99	0x3d4735c0	0.048635244
100	0x3b885833	0.004160905
101	0xbd29fdee	-0.04150193
102	0x3c35f57d	0.011105892
103	0x3c821d56	0.01588313
104	0x3cf6e249	0.030137198
105	0x3cbacd4b	0.02280297
106	0x3d2222f9	0.039584134
107	0x3c76b0b8	0.0150567815
108	0x3d0c3dfb	0.034238797
109	0xbcf031ae	-0.029320564
110	0xbd3e80cf	-0.04650956
111	0xbda025ea	-0.078197315
112	0xba9c9f67	-0.0011949361
113	0xbd93a7a5	-0.0720971
114	0x3aaae7c2	0.001303904
115	0xbc816ca0	-0.015798867
116	0xbd333555	-0.043752033
117	0xbb1b23b3	-0.0023672401
118	0xbc4c1957	-0.012457213
119	0xbd372503	-0.04471303
120	0x3d7bd68b	0.0614839
121	0xbc12867c	-0.008943196
122	0x3cac8456	0.021059196
123	0xbcd0253f	-0.025408385
124	0x3d16185b	0.03664432
125	0x3ce7cf10	0.028296977
126	0xbdaac826	-0.083389565
127	0x3cea8ac8	0.02863063
128	0x3e0044cb	0.12526242
129	0x3cb21e3f	0.021742938
130	0xbcdb9234	-0.026803114
131	0xbd232301	-0.039828304
132	0xbc477010	-0.012172714
133	0x3cc37c89	0.023863094
134	0x3deac8e5	0.11464099
135	0xbbbb1d40	-0.005710274
136	0x3b05bb07	0.0020405666
137	0x3c34d084	0.011036042
138	0x3d1e3e21	0.03863347
139	0xbc5f98eb	-0.013647298
140	0xbd1a269b	-0.037634473
141	0xbd76e4e3	-0.060276877
142	0xbbdf462a	-0.006813784
143	0x3ccc9506	0.024973404
144	0xbe5fb276	-0.21845421
145	0xbaec9315	-0.0018049205
146	0xbc7201d5	-0.014770945
147	0xbcbb92c6	-0.022897135
148	0x3cd09fe6	0.02546687
149	0xbc53c516	-0.012925407
150	0xbcffafb7	-0.031211717
151	0x3b0ac036	0.0021171696
152	0xbd21e135	-0.039521415
153	0xbe110833	-0.14163284
154	0xbe15ab5d	-0.14616151
155	0x3c7284e1	0.014802189
156	0x3cbc2bcc	0.022970103
157	0x3d352879	0.04422805
158	0x3d8303f4	0.063972384
159	0x3c037b64	0.008025024
160	0xbc333b5b	-0.010939444
161	0x3d0e71c4	0.034776464
162	0x80008966	-4.9289e-41
163	0x1b2c045c	1.4228915e-22
164	0x1fac6cec	7.302503e-20
165	0x2901a8d2	2.8790182e-14
166	0x24a13e1c	6.992784e-17
167	0x2802b8f0	7.256552e-15
168	0x2213f495	2.0051696e-18
169	0x23c4ea66	2.1349634e-17
170	0x19de735b	2.3000854e-23
171	0x1c94f422	9.856925e-22
172	0x2b018615	4.601608e-13
173	0x2f053cc5	1.2117869e-10
174	0x327456bb	1.42223895e-08
175	0x2fe297a5	4.121691e-10
176	0x30eead74	1.7366077e-09
177	0x2d4a3010	1.1493043e-11
178	0x2d0826f4	7.739354e-12
179	0x243b9dae	4.068272e-17
180	0x19d5b1d9	2.2095516e-23
181	0x3081e84e	9.45201e-10
182	0x331c5945	3.640277e-08
183	0x33f6d0fc	1.1493282e-07
184	0x33b68e74	8.5009475e-08
185	0x32bddc92	2.21028e-08
186	0x32554d9f	1.2415881e-08
187	0x3034d652	6.5788186e-10
188	0x2828c532	9.368633e-15
189	0x21db75bd	1.4871182e-18
190	0x321a5f17	8.985601e-09
191	0x31f471ba	7.114264e-09
192	0x351010d6	5.366868e-07
193	0x33127996	3.4103856e-08
194	0x32ef9cbd	2.7894538e-08
195	0x312380cc	2.3792834e-09
196	0x2da84194	1.9128511e-11
197	0x23dfc63c	2.4261664e-17
198	0x1b9d6052	2.6035717e-22
199	0x30a1e146	1.1778318e-09
200	0x32439f18	1.1386668e-08
201	0x351517a9	5.5541256e-07
202	0x31213c93	2.3463016e-09
203	0x3111f5b9	2.1239954e-09
204	0x2a48e498	1.7842878e-13
205	0x259d7e42	2.7320714e-16
206	0x1b418a63	1.6009301e-22
207	0x16066735	1.0857e-25
208	0x30d4fee1	1.5497471e-09
209	0x322f561e	1.0205921e-08
210	0x340a9246	1.2905465e-07
211	0x320174f1	7.535378e-09
212	0x2e09a6cc	3.129834e-11
213	0xa825a5cf	-9.195294e-15
214	0xa3118f04	-7.8907505e-18
215	0x8fb19b08	-1.7513263e-29
216	0x9444b672	-9.931452e-27
217	0x2ec3583f	8.883249e-11
218	0x2f40e9d6	1.7545373e-10
219	0x3430c6e6	1.6463636e-07
220	0x2e20889b	3.6501118e-11
221	0x2d76a2e9	1.4019654e-11
222	0xa920d106	-3.5708436e-14
223	0xa201942c	-1.7561202e-18
224	0x968ddf1a	-2.2920575e-25
225	0x1c8bf410	9.261337e-22
226	0x28072f51	7.5042655e-15
227	0x2de10d39	2.558541e-11
228	0x2ea7a139	7.62292e-11
229	0x2b852698	9.46093e-13
230	0xa9203ff3	-3.5582604e-14
231	0xa838d36f	-1.0259899e-14
232	0x9f0c1349	-2.9662105e-20
233	0x1aaee522	7.23349e-23
234	0x1014dddc	2.9358768e-29
235	0x1e96d2ca	1.5969048e-20
236	0x219883b2	1.033478e-18
237	0x1de75aaa	6.1238935e-21
238	0x9e01e3f6	-6.876344e-21
239	0x9db0b97d	-4.6778602e-21
240	0x1f840ab8	5.592191e-20
241	0x19857efd	1.3803168e-23
242	0x800088cb	-4.9072e-41
243	0x3dadd6a1	0.08488203
244	0x3d705235	0.05867215
245	0x3ba4423f	0.00501278
246	0x3cc05593	0.023478305
247	0x3d0388be	0.03211283
248	0x3d18d717	0.0373145
249	0xbc3f9e03	-0.011695388
250	0x3d43b4b4	0.047779754
251	0x3d0cd246	0.03438022
252	0x3c09aeb6	0.008403471
253	0x3ab0fd86	0.001350329
254	0x3ca416b7	0.020030363
255	0x3c923c82	0.017851118

act_fc1.bias f4 [81]
0	0x3de4ccb2	0.11171855
1	0xbc61a3db	-0.013771976
2	0xbe2f433a	-0.17115489
3	0x3def3b09	0.11681182
4	0x3dff9036	0.12478678
5	0x3de06acd	0.10957871
6	0xbde7bf61	-0.113157995
7	0xbc891522	-0.01673371
8	0x3da63413	0.08115401
9	0xbba26ab3	-0.004956567
10	0xbd90e505	-0.07074932
11	0x3dcc6950	0.09981024
12	0x3d574c1a	0.05256281
13	0x3e7d1018	0.2471317
14	0x3d8e42b1	0.06946314
15	0x3d9fbda0	0.0779984
16	0xbe28b0e0	-0.16473722
17	0xbcba1e22	-0.022719447
18	0xbe1f27a8	-0.15542471
19	0x3e045ed9	0.12926807
20	0x3b460a6e	0.003021862
21	0x3e56edf5	0.20989211
22	0xbd9c344c	-0.07627162
23	0x3e338d09	0.1753427
24	0x3c2bef12	0.0104940105
25	0x3e0c54af	0.13704179
26	0xbdde7bca	-0.10863455
27	0x3d9bcc09	0.07607276
28	0x3d183396	0.03715857
29	0x3df0b27a	0.11752792
30	0x3dfb524c	0.12271556
31	0x3e443b42	0.1916323
32	0x3dc08b2a	0.094015434
33	0x3e2cd986	0.16879854
34	0x3d31e13f	0.043427702
35	0x3dd9af5d	0.10629151
36	0x3dd5f052	0.10446228
37	0x3e4df2a0	0.20112085
38	0xbcc82f23	-0.024436539
39	0x3e7453ca	0.23860088
40	0xbd5df5c2	-0.05418945
41	0x3e8d9ca0	0.27658558
42	0xbda4462c	-0.08021197
43	0x3e61ab9b	0.22038119
44	0x3dbf0556	0.093271896
45	0x3da1bd95	0.07897488
46	0x3d5be59b	0.053685766
47	0x3e134374	0.143812
48	0x3ddb9051	0.107208855
49	0x3e70198f	0.2344725
50	0x3d93119c	0.07181093
51	0x3e43c1dc	0.1911692
52	0x3c6c69db	0.014429535
53	0x3d9b1547	0.07572418
54	0xbe21b927	-0.15793286
55	0x3df57286	0.11984734
56	0x3dac550d	0.0841466
57	0x3e601284	0.21882063
58	0xbda729cb	-0.08162268
59	0x3dfecb55	0.12441126
60	0xbc891d11	-0.016737493
61	0x3e0b5db1	0.13609959
62	0xbdf6da12	-0.12053312
63	0xbd62505d	-0.05525242
64	0xbdf98015	-0.12182633
65	0x3dfc7bdf	0.12328314
66	0x3d4f5a49	0.050623212
67	0x3e2ad802	0.16683963
68	0x3d07d8f3	0.033165883
69	0x3df93f81	0.121703155
70	0xbe0f31b0	-0.13983798
71	0xbcad161b	-0.021128705
72	0x3d3cac7f	0.046062943
73	0xbd83e8de	-0.064409
74	0xbe209ea3	-0.15685515
75	0x3dcf0cd3	0.10109868
76	0x3d8ca9ed	0.06868348
77	0x3dac809d	0.084229685
78	0xbe0d4319	-0.13795127
79	0xbcbf51e9	-0.023354487
80	0x3dbbfd6f	0.09179198

val_conv1.weight f4 [2, 128, 1, 1]
0	0x3d3bd639	0.045858596
1	0x3cc17dcf	0.02361956
2	0x3d036df6	0.03208729
3	0x3ca89c99	0.020582484
4	0x3e0128bd	0.12613197
5	0xbd719bf9	-0.058986638
6	0x000089b0	4.9393e-41
7	0x000089c7	4.9425e-41
8	0xbdc935b9	-0.098247
9	0x3d90d95d	0.07072709
10	0xbda6f5d3	-0.08152356
11	0x3c2b4472	0.01045333
12	0xbdc8c3f2	-0.098029986
13	0xbd071d93	-0.03298719
14	0x3dc54c37	0.096336775
15	0x3e176231	0.14783551
16	0xbd2cb24d	-0.04216223
17	0xbcbbfc92	-0.022947583
18	0x10e98636	9.210908e-29
19	0x80008905	-4.9153e-41
20	0xbdcac136	-0.09900133
21	0xbd5026a0	-0.050818086
22	0x3c83ff7e	0.01611304
23	0x3db7e4db	0.089791976
24	0x22ae23a5	4.7200535e-18
25	0x3e261461	0.16218711
26	0x8d8f255a	-8.8220475e-31
27	0x956835be	-4.6894422e-26
28	0x3d4847fa	0.048896767
29	0x3a2da8d6	0.0006624585
30	0x388b9b9d	6.657022e-05
31	0xbe4f4d73	-0.20244388
32	0x3db37b40	0.087637424
33	0x3b9d8393	0.0048069446
34	0x3db45b96	0.08806531
35	0xbd67d44a	-0.05659894
36	0xbd008be9	-0.03138343
37	0xbc314803	-0.010820392
38	0x3b9491d5	0.004533986
39	0x9641f59c	-1.5667916e-25
40	0x3d2c8ad5	0.042124588
41	0x3d8a0d32	0.06740798
42	0xbc5ff79a	-0.013669873
43	0x3d472620	0.048620343
44	0x3d576474	0.052586034
45	0xbd30b0e7	-0.043137457
46	0xbd87b64f	-0.066265695
47	0x80008a93	-4.9711e-41
48	0x3d9bf9aa	0.07615979
49	0xbcac32a0	-0.021020234
50	0xbd91f3f0	-0.071266055
51	0xbd967035	-0.073456205
52	0x3c81bfd8	0.015838549
53	0x3cc871a1	0.024468245
54	0x0000895b	4.9274e-41
55	0x3d3066e5	0.043066878
56	0x3ce43763	0.027858442
57	0x3df1b38d	0.11801825
58	0xbcf16b00	-0.029469967
59	0xbb60f583	-0.0034326024
60	0xbe0ec93e	-0.13943955
61	0x3d441aea	0.04787723
62	0xbaac175b	-0.0013129519
63	0x3bf1b590	0.0073763803
64	0x3d6aa7c2	0.057288893
65	0xbd7daa3c	-0.061929926
66	0x3dc19197	0.09451597
67	0x3d241c66	0.040066145
68	0x3bbc1ded	0.005740872
69	0x3d07d91b	0.033166032
70	0x3ce32f4f	0.02773252
71	0x3cece588	0.028918043
72	0x3d0cee32	0.03440685
73	0xbda07c85	-0.0783625
74	0x3dc6cc54	0.09706941
75	0x3e01328f	0.12616943
76	0xbe175a1f	-0.14780472
77	0x9630d78a	-1.4285179e-25
78	0x3daaee44	0.08346227
79	0xbd7d9345	-0.061908025
80	0xbce3b00f	-0.027793912
81	0xbc83ba8e	-0.016080167
82	0x81ab2ac9	-6.2876873e-38
83	0x3ddc2097	0.107484035
84	0xbd830254	-0.063969284
85	0x3cbde0bf	0.023178456
86	0x3d53f969	0.051751528
87	0xbd872258	-0.065983474
88	0x3da78ee8	0.08181554
89	0x3d1830cc	0.03715591
90	0x3d05d728	0.032675892
91	0x3d179075	0.037003
92	0x3cdbf26a	0.02684899
93	0xbc496e26	-0.012294328
94	0xbda96e9b	-0.082730494
95	0x3acd56c2	0.0015666115
96	0x00008940	4.9236e-41
97	0xbbd8015c	-0.006591959
98	0x31a9e039	4.9440385e-09
99	0x3d894f4f	0.0670458
100	0x3dfdeadf	0.12398314
101	0x3ddac7a6	0.10682611
102	0x0000898f	4.9347e-41
103	0xbddbc7ba	-0.10731454
104	0xbda0f109	-0.07858474
105	0xbd5d3598	-0.05400619
106	0xbd4898a8	-0.04897371
107	0x000088ec	4.9118e-41
108	0x80008f7c	-5.1472e-41
109	0x33dc2488	1.0251193e-07
110	0x3c0776ae	0.008268042
111	0x3d415281	0.047197822
112	0xbcf720a0	-0.030166924
113	0x3d04a186	0.032380603
114	0xbbb16dc0	-0.0054146945
115	0x000088ed	4.912e-41
116	0xbdc5d421	-0.09659601
117	0xbd7e2c8f	-0.062054213
118	0xa2a2f10a	-4.41654e-18
119	0x3dd509b6	0.10402243
120	0xbdc0ed3b	-0.09420248
121	0x3dc1cd11	0.094629414
122	0xbdd8d966	-0.105883405
123	0xb3d42e81	-9.880478e-08
124	0xbd83500d	-0.06411753
125	0x3d13c6f9	0.036078427
126	0x3cffbfa7	0.031219317
127	0xbbc48c69	-0.0059981835
128	0x3b5b304a	0.003344553
129	0x3bf41665	0.0074489587
130	0x3c76a18b	0.015053163
131	0x3b57ee69	0.00329485
132	0xbdac1c37	-0.08403819
133	0x3c4cd964	0.012503002
134	0x00008a3f	4.9593e-41
135	0x80009e26	-5.6733e-41
136	0xbd9abae8	-0.07555181
137	0xbd61655b	-0.0550283
138	0x3b0fa1bc	0.002191647
139	0x3c4954cd	0.0122882845
140	0x3b614067	0.0034370662
141	0x3db03f3d	0.08605812
142	0x3c42bc15	0.011885663
143	0xbb8f6090	-0.004375525
144	0xbc5f5d4f	-0.013633086
145	0x3bf5bf1d	0.007499589
146	0x800089ff	-4.9504e-41
147	0x00008b49	4.9966e-41
148	0xbc318c8f	-0.010836734
149	0x3bc12679	0.005894479
150	0xbd8ad8f0	-0.06779659
151	0xbbbf8223	-0.005844371
152	0x80008c5b	-5.035e-41
153	0x3cbb55ec	0.02286812
154	0x9436080a	-9.190237e-27
155	0x8000895a	-4.9272e-41
156	0xbd273604	-0.040822998
157	0xbdc35b63	-0.09538915
158	0xb8fde600	-0.00012106821
159	0xbdad8b06	-0.08473782
160	0x3d8eb77c	0.069685906
161	0x3a28d4ae	0.0006440383
162	0x3d99d428	0.07511169
163	0xbab5e58d	-0.0013877616
164	0x3e089b51	0.13340499
165	0x3e177010	0.14788842
166	0xad2c643b	-9.799324e-12
167	0x00008926	4.92e-41
168	0x3dbb4a81	0.0914507
169	0xbd0c7a66	-0.034296416
170	0xbd3f2c0c	-0.046672866
171	0x3bf8553b	0.0075785196
172	0x3c53af45	0.0129202055
173	0xbb9e20dd	-0.004825695
174	0x3bf0d03e	0.007349043
175	0x8ef993e1	-6.152564e-30
176	0x3e0b109e	0.13580558
177	0xbc07236c	-0.008248191
178	0x3b9dd0eb	0.0048161647
179	0x3c7e3a01	0.015516759
180	0x3bb6e322	0.0055812756
181	0xb51a1e3b	-5.741346e-07
182	0x00008ad3	4.9801e-41
183	0xb961018f	-0.00021458253
184	0xbabe4a2f	-0.0014517958
185	0x3b3d172d	0.0028852925
186	0xbe1fb510	-0.15596414
187	0x3b947a07	0.0045311484
188	0xbcaf1b6b	-0.021375379
189	0x3d73b85f	0.059502
190	0x3de0abed	0.10970292
191	0xbc8c7889	-0.01714732
192	0x3e1ef1cb	0.15521924
193	0x3da76e0a	0.08175285
194	0x3d9c73a2	0.07639243
195	0xbb4aff02	-0.003097475
196	0x3d152b50	0.03641826
197	0x3c828e63	0.015937036
198	0xbcd63992	-0.026150499
199	0xbcddd7b0	-0.027080387
200	0xb9caf17e	-0.00038708368
201	0xba51c38b	-0.00080018555
202	0x3dc736d5	0.09727255
203	0xbd859701	-0.06522942
204	0xbd50894f	-0.050912198
205	0x80008aa2	-4.9732e-41
206	0xbdb1d6d0	-0.0868355
207	0x3d86fc2c	0.06591067
208	0x3d845572	0.0646161
209	0x3c0f7210	0.008755222
210	0x000089de	4.9457e-41
211	0x3d7c569d	0.06160604
212	0x3c00929d	0.007847455
213	0x3ca9bd7d	0.020720238
214	0x3bcff9fe	0.00634694
215	0xbe457a58	-0.19284952
216	0xbccbaca9	-0.024862604
217	0xbd7fb887	-0.06243184
218	0x3cbaa5bb	0.022784105
219	0xbdffad81	-0.12484265
220	0x3b115817	0.002217775
221	0x3dcf10e4	0.101106435
222	0xb890ee21	-6.91081e-05
223	0x3c5a4942	0.01332313
224	0x00008999	4.9361e-41
225	0x3d1c358c	0.038137004
226	0x80008a33	-4.9577e-41
227	0xbbac26e8	-0.0052536614
228	0xbae7cc98	-0.0017684875
229	0xbde52485	-0.11188606
230	0x0000898e	4.9345e-41
231	0x3b723a2a	0.0036960938
232	0x3c86b6da	0.016444612
233	0x3bbcd38e	0.005762524
234	0x3c09330f	0.00837399
235	0x00008bdc	5.0172e-41
236	0x00008a43	4.9599e-41
237	0x00008969	4.9293e-41
238	0xbdcf6205	-0.101261176
239	0xbd9c5386	-0.07633118
240	0x3ca54cb3	0.020178175
241	0x3c282e85	0.010264997
242	0x3d8ae848	0.067825854
243	0x000089b3	4.9397e-41
244	0x3baa0ba3	0.0051893755
245	0x3c46dbd1	0.012137369
246	0x80008c20	-5.0267e-41
247	0x3de59d86	0.11211686
248	0x3b0ee71c	0.0021805232
249	0x3c89c040	0.016815305
250	0x3d50060e	0.050787024
251	0x00008985	4.9333e-41
252	0x3b72f88f	0.0037074422
253	0x3b9dbc4c	0.0048137065
254	0xbd7a08b5	-0.06104346
255	0xbc1691c8	-0.00919003

val_conv1.bias f4 [2]
0	0x3d783718	0.060599416
1	0x3bcc9696	0.006243537
