课程设计/AlphaZero简单复现/models/policy_batch_1150.model (torch, 530639 bytes, 15 tensors)

conv1.weight f4 [32, 4, 3, 3]
0.19274868 -0.067498736 0.24533671 -0.02774773 -0.08311738 -0.07868337 0.3526197 -0.2231205
0.42322275 0.17548124 -0.0360991 0.18251142 -0.012366326 -0.085027814 -0.07196435 0.2379131
-0.07887591 0.24022038 0.055036277 -0.019716103 0.02764792 -0.016564107 -0.03066441 -0.034862243
0.02215669 -0.03210599 0.083776966 -0.0025759805 0.004932168 -0.038400903 -0.10178741 0.118998796
-0.015323313 -9.953374e-05 0.036062185 -0.03660881 0.33747762 0.26517454 -0.40221238 0.15750496
-0.07383803 0.31213954 -0.23064338 0.14376803 0.19274989 0.07711923 0.032071676 -0.013858945
-0.18508857 -0.008279144 -0.08693457 0.12954582 -0.10316249 0.15558724 -0.028761571 -0.008386541
0.010255014 -0.032064375 -0.06998996 0.03744427 0.052860044 0.025843032 0.032607928 -0.0015942896
-0.15225267 0.05744825 -0.16584337 0.060353458 -0.14198275 0.13860519 -0.05408146 0.17051098
0.22303985 0.16867016 -0.014504397 -0.32442385 -0.041340265 -0.26187667 0.08937677 0.20186335
-0.22587885 -0.116335 -0.18849653 -0.058722842 0.26217604 0.18307462 0.11149481 0.12634337
-0.22137338 0.058592662 -0.018517796 -0.1373408 0.012206915 0.008572385 0.009030173 0.072137386
0.027213039 -0.06600905 0.032482367 -0.13832025 0.112561285 0.06384573 0.009335853 0.052919045
0.053579066 0.04369018 0.13422808 -0.17015404 -0.0011425418 -0.43172833 0.34750015 -0.054705616
0.40171254 -0.3973277 0.026151577 0.026473772 0.11625637 0.08696896 0.11080667 -0.21162517
0.1260895 -0.13586 0.1271127 -0.046731554 0.10072109 0.14865735 -0.0107238125 0.040095627
-0.09643888 -0.011808277 -0.051128436 0.04911071 -0.03587228 -0.011077973 0.062325098 0.07274514
-0.05934948 0.08956373 0.13670208 -0.009938735 -0.0993927 -0.1053175 -0.09012819 0.12210833
-0.20824282 -0.06273903 -0.053699594 0.04965175 0.16511622 0.099897295 -0.046430595 -0.0014173599
0.20431325 -0.15697987 -0.015864812 -0.16721885 0.13743185 -0.017188612 -0.11488742 0.016342208
-0.063088626 -0.13082157 -0.06874998 0.023224222 0.11864855 0.17596173 -0.009148249 -0.035063695
0.0045385524 -0.026375435 -0.11890721 0.068440646 0.07992292 0.12320504 0.12527193 0.08633131
0.10312515 0.14326702 0.14392066 0.120639406 0.2401845 0.060464922 -0.06777009 -0.29956874
0.38114923 0.3179774 0.33167934 -0.022858419 0.007336281 0.11355114 -0.046908133 -0.1409384
-0.45848966 0.22001481 0.12353288 0.12810963 -0.15845305 -0.10020849 0.11210449 0.090806626
0.01562962 0.0005674065 0.15096577 0.07076979 0.07027967 0.08732463 -0.010875952 0.032565936
0.040802956 0.114356905 0.14779013 -0.12917908 -0.08260772 -0.01462631 -0.058515016 0.16451532
-0.047380045 -0.084014274 -0.034909368 -0.01862464 -0.004446126 -0.14566347 0.02384909 -0.01417611
0.24581054 -0.043350812 0.037140146 0.08022795 -0.049122468 0.43864176 -0.46374315 0.024315827
-0.5738796 0.27119905 0.0067719407 0.073182754 0.06469505 0.075293966 0.15663102 -0.14698358
0.08520976 -0.15455645 0.19175015 0.014990909 0.12674242 0.11850376 0.002318741 -0.071217865
-0.0072830315 -0.12857476 -0.025984682 -0.04960635 -0.2034512 0.116957635 0.30628055 -0.1717611
00000000: e95f 453e c73c 8abd 8c39 7b3e 354f e3bc
00000010: 7239 aabd bf24 a1bd 928a b43e b379 64be
00000020: a7b0 d83e 5bb1 333e a6dc 13bd 46e4 3a3e
00000030: 219c 4abc 1023 aebd 0c62 93bd 7e9f 733e
00000040: b189 a1bd 55fc 753e b86d 613d aa83 a1bc
00000050: e47d e23c 73b1 87bc ee33 fbbc b6cb 0ebd
00000060: f281 b53c 9281 03bd 4293 ab3d c8d1 28bb
00000070: 069e a13b 444a 1dbd eb75 d0bd a4b5 f33d
00000080: a20e 7bbc c5bc d0b8 f1b5 133d 1ff3 15bd
00000090: dec9 ac3e f5c4 873e c8ee cdbe fb48 213e
000000a0: 6538 97bd c1d0 9f3e c72d 6cbe ed37 133e
000000b0: 3a60 453e b0f0 9d3d 975d 033d a110 63bc
000000c0: dc87 3dbe 3fa5 07bc c00a b2bd a9a7 043e
000000d0: db46 d3bd 4352 1f3e 639d ebbc b467 09bc
000000e0: a504 283c ef55 03bd e556 8fbd 2a5f 193d
000000f0: c683 583d c4b4 d33c e48f 053d 7bf7 d0ba
00000100: 20e8 1bbe db4e 6b3d d8d2 29be 3035 773d
00000110: ed63 11be 85ee 0d3e 8584 5dbd 6e9a 2e3e
00000120: 8f64 643e dfb7 2c3e daa3 6dbc e21a a6be
00000130: 6954 29bd b314 86be 2b0b b73d 44b5 4e3e
00000140: c94c 67be 0b41 eebd 3c05 41be 5d87 70bd
00000150: f03b 863e ea77 3b3e 6457 e43d 2860 013e
00000160: b4af 62be dcfe 6f3d a2b2 97bc 11a3 0cbe
00000170: 83ff 473c 3073 0c3c 4af3 133c c4bc 933d
00000180: e1ed de3c c12f 87bd 3b0c 053d d3a3 0dbe
00000190: 8886 e63d 8dc1 823d 68f5 183c a4c1 583d
000001a0: b975 5b3d 79f4 323d 1673 093e dc3c 2ebe
000001b0: 57c1 95ba 7f0b ddbe 8aeb b13e ff12 60bd
000001c0: 44ad cd3e 896e cbbe d53b d63c 86df d83c
000001d0: d217 ee3d c81c b23d 9bee e23d 45b4 58be
000001e0: 9b1d 013e e21e 0bbe d529 023e 9669 3fbd
000001f0: dc46 ce3d a239 183e eeb2 2fbc 503b 243d
00000200: bf81 c5bd 8177 41bc 0d6c 51bd 5028 493d
00000210: d0ee 12bd 6380 35bc 9a48 7f3d 67fb 943d
00000220: 7118 73bd 306d b73d a1fb 0b3e 13d6 22bc
00000230: 668e cbbd b4b0 d7bd 2195 b8bd ef13 fa3d
00000240: 9b3d 55be 527d 80bd 1bf4 5bbd a25f 4b3d
00000250: 3a14 293e f496 cc3d 022e 3ebd b5c6 b9ba
00000260: 7e37 513e 55bf 20be ecf6 81bc 6b3b 2bbe
00000270: efba 0c3e 22cf 8cbc 184a ebbd 18e0 853c
00000280: 9c34 81bd 17f6 05be cacc 8cbd b940 be3c
00000290: 03fe f23d 502f 343e 8ae2 15bc f39e 0fbd
000002a0: 23b8 943b 4c11 d8bc a085 f3bd 9c2a 8c3d
000002b0: a1ae a33d ed52 fc3d 4947 003e 78ce b03d
000002c0: 4733 d33d 97b4 123e f05f 133e cb11 f73d
000002d0: edf2 753e 11aa 773d 0ccb 8abd 1361 99be
000002e0: fe25 c33e efcd a23e e0d1 a93e 9441 bbbc
000002f0: 2f65 f03b 808d e83d be22 40bd 2852 10be
00000300: 28bf eabe 904b 613e cefe fc3d 2c2f 033e
00000310: 8441 22be 1c3a cdbd 0a97 e53d d3f8 b93d
00000320: b009 803c 01be 143a c596 1a3e c0ef 903d
00000330: caee 8f3d 41d7 b23d 0d31 32bc dc63 053d
00000340: 0021 273d f433 ea3d 4c56 173e 8547 04be
00000350: 3c2e a9bd 31a3 6fbc 71ad 6fbd b476 283e
00000360: 9411 42bd ad0f acbd 20fd 0ebd b392 98bc
00000370: cfb0 91bb ce28 15be 2b5f c33c ea42 68bc
00000380: c2b5 7b3e 9f90 31bd 4420 183d 8d4e a43d
00000390: a434 49bd a795 e03e be6f edbe fc31 c73c
000003a0: c6e9 12bf 9ada 8a3e 28e7 dd3b d7e0 953d
000003b0: d77e 843d b933 9a3d e263 203e dd82 16be
000003c0: 7482 ae3d 0c44 1ebe 275a 443e 6e9c 753c
000003d0: c4c8 013e 19b2 f23d 05f6 173b acda 91bd
000003e0: 7fa6 eebb 1aa9 03be d4dd d4bc 0730 4bbd
000003f0: 8355 50be 7c87 ef3d ced0 9c3e 24e2 2fbe

conv1.bias f4 [32]
-0.07702782 0.12360738 0.13404703 0.009325431 -0.14378276 0.016203063 0.01570474 0.10369293
0.050951876 -0.09423284 0.31502756 -0.03930172 -0.12912925 -0.01675216 0.009222068 0.25537485
-0.035526812 0.24636637 -0.010999979 0.028910618 0.29296595 -0.0065049324 -0.056957666 -0.004949811
-0.019208258 0.20405394 0.27585676 -0.010018444 -0.03979069 -0.10413736 0.103929125 -0.14425269
00000000: c3c0 9dbd de25 fd3d a043 093e b1c9 183c
00000010: ca3b 13be 49bc 843c 3aa7 803c f55c d43d
00000020: eab2 503d 26fd c0bd 4b4b a13e d7fa 20bd
00000030: 753a 04be d33b 89bc 2818 173c 7ec0 823e
00000040: 9084 11bd 7747 7c3e 4239 34bc f6d5 ec3c
00000050: a2ff 953e 5427 d5bb 714c 69bd 0632 a2bb
00000060: a35a 9dbc 84f3 503e 193d 8d3e 6624 24bc
00000070: 90fb 22bd f845 d5bd cbd8 d43d fab6 13be

conv2.weight f4 [64, 32, 3, 3]
0.098909624 0.13582613 0.14588866 0.16037968 0.006071052 0.17921697 -0.018283863 0.08177641
0.009494805 0.13541299 -0.115311034 -0.070389815 0.014362491 -0.031068096 -0.15799116 -0.0053925873
0.07301011 0.1806557 -0.02756262 0.009047149 0.09847122 -0.055275194 0.028616518 -0.015226507
-0.051168356 -0.097486675 -0.045400232 0.056382485 0.09492341 0.0033827117 0.012616812 -0.095816456
0.0935107 -0.14842582 0.10817273 -0.10888792 0.024459776 0.0052100155 0.015713241 0.0030689589
-0.008479238 0.014867884 -0.027141165 0.002238094 0.040434994 -0.039335117 -0.007812348 -0.014487361
0.05023364 0.09425308 -0.08582742 -0.06182464 -0.003046663 -0.13915959 0.08942253 0.031230781
-0.00069184304 -0.099561945 0.025343684 0.107979104 -0.029632106 0.14436664 0.035627943 -0.04027024
-0.14693196 0.05973354 0.073812 0.08937652 -0.23430635 0.22995992 0.04871726 -0.09553724
-0.042308494 0.060173906 -0.084436 0.08294569 0.074853115 -0.047570672 -0.060060132 0.09828116
0.11884634 -0.04835906 0.07733931 0.008348988 -0.05634901 -0.041884996 0.021858735 -0.035435818
0.019387573 0.06013626 0.025875678 -0.08589842 0.04122938 0.09508344 -0.060930282 -0.07420314
0.048047557 0.086373985 0.107985154 -0.011560562 -0.075489834 0.06283553 0.059084132 0.049791876
0.10661431 -0.04579773 -0.013367653 0.01926161 -0.0031180484 -0.040410306 -0.020411596 0.027521253
-0.071985096 0.086224936 -0.0932681 0.0019028607 0.10584905 -0.053336903 0.0021852914 0.07241264
0.20214814 0.010704825 -0.03175586 0.16657549 -0.06874617 0.13659023 -0.020765644 0.20590553
0.1563325 -0.05096357 0.074759156 0.07251534 -0.031438816 -0.20487489 -0.05077571 -0.01080394
0.018838286 -0.0071929973 -0.01225495 -0.048583765 0.08591464 -0.075376205 0.05535054 0.084794626
-0.06694483 -0.07064008 -0.101182744 -0.033872098 0.054276634 0.021062914 0.0701988 0.21985132
0.14919755 0.051431175 0.056086473 -0.05735613 0.0001714826 -0.011913716 -0.07664982 0.04917172
-0.01099209 0.052970972 -0.022354757 0.06704248 -0.030635528 0.16875122 0.15885994 -0.05383416
-0.030249616 0.008139172 -0.08385117 -0.10771143 0.04519474 0.045152564 0.06555609 -0.0197261
-0.015222358 0.076180205 -0.023026714 -0.16608432 -0.081502914 -0.0441733 -0.02677934 0.07456902
-0.11820322 -0.12381508 0.05520849 -0.07416669 0.024770185 0.20182155 0.17284845 0.09414245
0.035778247 -0.032347232 -0.046942204 -0.21724275 -0.40258387 0.06855767 0.114797935 -0.005636207
0.0031229947 0.057533074 -0.0012964251 0.06176054 -0.08964244 -0.040091913 0.06961288 0.011957555
0.08866749 -0.06503574 -0.028214198 0.08835779 0.057616487 -0.10473697 0.05748308 -0.17165561
0.04342452 0.17370036 0.006807663 0.10301232 0.05022313 -0.06765351 0.054442212 -0.11048754
-0.009701372 -0.049375746 0.009267227 -0.055399105 -0.1463422 -0.004245595 0.13301873 -0.1829604
0.04267167 0.24336566 -0.08607513 0.06617254 -0.01760648 0.050640076 -0.026033696 -0.005004697
-0.08164866 -0.23249105 0.102371745 -0.0063179187 -0.064560294 -0.056041572 0.06110098 -0.037842583
0.019241363 0.098345146 0.010269596 0.076746054 0.010577643 0.048750956 -0.016183492 -0.05222056
00000000: 2191 ca3d 0116 0b3e d663 153e 923a 243e
00000010: adef c63b a784 373e 0ac8 95bc 647a a73d
00000020: 1990 1b3c b4a9 0a3e 3128 ecbd 8928 90bd
00000030: a750 6b3c 8582 febc 6fc8 21be 4db4 b0bb
00000040: 5386 953d cffd 383e 01cb e1bc 7e3a 143c
00000050: 47ab c93d 3e68 62bd 306d ea3c 9978 79bc
00000060: e995 51bd 18a7 c7bd 98f5 39bd 52f1 663d
00000070: 3467 c23d 7cb0 5d3b bfb6 4e3c 6b3b c4bd
00000080: 8a82 bf3d f0fc 17be aa89 dd3d a100 dfbd
00000090: de5f c83c c7b8 aa3b 0eb9 803c 9620 493b
000000a0: 80ec 0abc 6d98 733c 2657 debc fdac 123b
000000b0: 2a9f 253d dc1d 21bd bafe ffbb 655c 6dbc
000000c0: cac1 4d3d c207 c13d 49c6 afbd d53b 7dbd
000000d0: 86aa 47bb da7f 0ebe 2923 b73d b2d7 ff3c
000000e0: cd5c 35ba 22e7 cbbd 8f9d cf3c 2624 dd3d
000000f0: 08bf f2bc d9d4 133e 9bee 113d 68f2 24bd
00000100: 5575 16be 28ab 743d bf2a 973d 090b b73d
00000110: 01ee 6fbe 9d7a 6b3e c08b 473d 07a9 c3bd
00000120: ac4b 2dbd ea78 763d c8ec acbd 6edf a93d
00000130: 974c 993d 77d9 42bd 9d01 76bd a247 c93d
00000140: b665 f33d 2614 46bd 1264 9e3d 32ca 083c
00000150: 38ce 66bd 9a8f 2bbd 1711 b33c 2625 11bd
00000160: b0d2 9e3c 7051 763d 3bf9 d33c 83eb afbd
00000170: 23e0 283d 1bbb c23d 0892 79bd d1f7 97bd
00000180: 84cd 443d d8e4 b03d 5227 dd3d 8368 3dbc
00000190: 6a9a 9abd eaaf 803d 3402 723d 91f2 4b3d
000001a0: 9a58 da3d 6796 3bbd 0004 5bbc 86ca 9d3c
000001b0: 2c58 4cbb 4785 25bd 3836 a7bc 4074 e13c
000001c0: ec6c 93bd b396 b03d 5803 bfbd 6969 f93a
000001d0: 63c7 d83d cc77 5abd 1b37 0f3b 144d 943d
000001e0: ecff 4e3e 4a63 2f3c 6f12 02bd c492 2a3e
000001f0: cbca 8cbd 4fde 0b3e b61c aabc e6d8 523e
00000200: a015 203e 2dbf 50bd 541b 993d ec82 943d
00000210: fdc5 00bd b9ca 51be 31fa 4fbd 0203 31bc
00000220: c052 9a3c 3cb3 ebbb fcc8 48bc c5ff 46bd
00000230: 04f4 af3d d75e 9abd 3fb7 623d cea8 ad3d
00000240: 5f1a 89bd bfab 90bd e638 cfbd 78bd 0abd
00000250: 2d51 5e3d 228c ac3c 63c4 8f3d b420 613e
00000260: 3ec7 183e 7fa9 523d eeba 653d 43ee 6abd
00000270: 03d0 3339 bf31 43bc 95fa 9cbd 4968 493d
00000280: 2b18 34bc 17f8 583d 5321 b7bc 914d 893d
00000290: 5cf7 fabc 1fcd 2c3e 2eac 223e 3581 5cbd
000002a0: 0bce f7bc 295a 053c 2aba abbd cf97 dcbd
000002b0: 1f1e 393d e5f1 383d 4542 863d a198 a1bc
000002c0: 3267 79bc 5e04 9c3d 85a2 bcbc 0212 2abe
000002d0: 00eb a6bd 10ef 34bd 5960 dbbc a4b7 983d
000002e0: 8814 f2bd c392 fdbd 4c22 623d b5e4 97bd
000002f0: d8ea ca3c 4faa 4e3e 2fff 303e c2cd c03d
00000300: 368c 123d 887e 04bd 7846 40bd e274 5ebe
00000310: 791f cebe f767 8c3d 2e1b eb3d eeaf b8bb
00000320: 28ab 4c3b cda7 6b3d cfec a9ba 9ff8 7c3d
00000330: 7596 b7bd 6b37 24bd 3391 8e3d 9fe9 433c
00000340: 4d97 b53d 7531 85bd 7621 e7bc eef4 b43d
00000350: 44ff 6b3d 5680 d6bd 6173 6b3d 7dc6 2fbe
00000360: e9dd 313d 82de 313e d112 df3b 20f8 d23d
00000370: c5b6 4d3d ec8d 8abd ccfe 5e3d 4b47 e2bd
00000380: 81f2 1ebc 393e 4abd 91d5 173c 2cea 62bd
00000390: bbda 15be a21e 8bbb 1036 083e f959 3bbe
000003a0: 7dc8 2e3d d934 793e 2848 b0bd 7885 873d
000003b0: 773b 90bc f86b 4f3d 9e44 d5bc 71fe a3bb
000003c0: 6a37 a7bd 2212 6ebe 47a8 d13d 8b06 cfbb
000003d0: 3038 84bd d98b 65bd 0545 7a3d d300 1bbd
000003e0: 10a0 9d3c 2e69 c93d cf41 283c 092d 9d3d
000003f0: da4d 2d3c 15af 473d 3e93 84bc 3ae5 55bd

conv2.bias f4 [64]
-0.06409213 0.071281634 -0.015810028 -0.051412463 0.104565874 -0.04902775 0.002450051 -0.0054058647
0.0056638042 0.0011085965 0.035095423 0.0036464487 0.053201057 0.030690832 -0.041900996 0.024547016
0.032312967 -0.018096773 0.029715123 0.09388607 0.007444612 0.054502245 0.0474758 -0.07405679
0.033287503 0.0375248 0.021697734 0.07996021 0.026916636 0.053014677 0.042546514 0.016107779
0.022851935 -0.016970353 -0.016712856 -0.025867527 0.04204352 -0.006848015 0.07031919 0.1098869
0.10253146 -0.024748482 -0.07294814 -0.07614196 0.045078777 -0.019904101 0.004794216 -0.008991358
0.055418245 -0.0099107865 0.014761717 -0.015195147 0.04284226 0.088087305 -0.0022350992 0.03426091
0.012410168 -0.034479655 0.024669306 -0.011492574 0.04222245 -0.04131284 -0.0506562 0.001669107
00000000: bc42 83bd 1bfc 913d 0884 81bc e095 52bd
00000010: a226 d63d 52d1 48bd 0991 203b ae23 b1bb
00000020: 6f97 b93b 534e 913a 38c0 0f3d 42f9 6e3b
00000030: 5ae9 593d 576b fb3c 61a0 2bbd d316 c93c
00000040: 9a5a 043d af3f 94bc 216d f33c 5747 c03d
00000050: eff1 f33b bf3d 5f3d fc75 423d 16ab 97bd
00000060: 7a58 083d 9bb3 193d 72bf b13c 2ec2 a33d
00000070: 4780 dc3c eb25 593d 4145 2e3d 76f4 833c
00000080: fb33 bb3c 6905 8bbc 66e9 88bc 23e8 d3bc
00000090: d335 2c3d 5065 e0bb 8203 903d 620c e13d
000000a0: 04fc d13d 54bd cabc d665 95bd 51f0 9bbd
000000b0: 86a4 383d ed0d a3bc cc18 9d3b 7d50 13bc
000000c0: 3efe 623d da60 22bc 21db 713c 11f5 78bc
000000d0: 5e7b 2f3d 1e67 b43d be7a 12bb 2b55 0c3d
000000e0: 0454 4b3c 8a3a 0dbd 4917 ca3c 594b 3cbc
000000f0: 73f1 2c3d a737 29bd e07c 4fbd f0c5 da3a

conv3.weight f4 [128, 64, 3, 3]
-0.012418388 -0.039905608 0.010232992 -0.057884477 -0.10121203 0.022141492 0.0072223498 -0.025312219
0.0620448 0.04535842 -0.009268354 0.0079733925 0.029524265 0.019692158 0.026189491 0.02124615
-0.017050233 0.013767535 -0.0028360246 -0.03813788 -0.04787552 0.05385426 0.06890844 0.03043869
-0.027793499 0.05022645 -0.046078887 0.06255466 0.046439532 0.026791317 0.09245737 0.011970168
0.052448142 0.070382155 0.08340681 0.040179137 0.040573217 0.06950647 0.035572644 -0.015064912
0.040462058 0.06776236 0.037935227 0.06503227 0.04571285 0.026278717 0.056320738 0.004980729
0.027362462 0.013671097 0.018078523 -0.006629908 -0.012652481 0.018423922 0.010163609 0.020881614
0.0039627636 0.039846215 0.0390297 0.01026985 0.040245954 0.023861991 -0.0052666585 0.020140992
-0.012760713 0.0016744481 0.031372823 -0.002573218 0.023365067 -0.0005146384 0.026542153 0.04221673
0.018344982 0.020143924 -0.0012727134 0.036142588 0.010400916 -0.020093897 0.07458221 0.021990178
-0.014987288 0.060127024 0.03779111 0.023041837 0.06478824 0.020535823 -0.004060466 0.057072297
-0.023353036 0.01580222 0.021158839 -0.04034346 -9.85122e-06 0.0003592134 -0.026513133 0.055269852
0.028421562 0.012093792 -0.012911457 0.026533356 -0.03968074 0.028364684 0.05941117 0.071410134
-0.005979149 -0.013063457 0.07747342 -0.0015466373 0.013601606 0.01198442 -0.01988366 0.06521088
0.02794566 0.03511183 0.0313754 0.019795112 0.024799611 0.009618884 -0.01563957 -0.018737346
-0.012705077 0.028880447 0.0049595535 0.035554897 -0.013460798 0.0138578145 0.024088068 0.0064323368
0.01552036 0.027020665 0.05056559 0.037121736 -0.004771241 -0.0059393 0.028366815 0.018243663
0.013613531 0.016538689 0.072328486 0.0006197103 -0.017339472 -0.0066978796 0.061068207 0.0026537436
-0.0113728745 0.057928815 -0.016375758 -0.004225118 0.02004911 0.05108848 -0.013324843 0.039953057
-0.054672964 0.0756174 -0.024105918 0.039959725 -0.026511014 -0.026460068 -0.0029492564 0.054675978
-0.043824144 0.02863783 -0.0051988466 0.034411788 0.009730722 -0.050277203 -0.08417509 0.0708801
0.0051678563 0.0466706 0.025981931 0.01564526 0.017185496 0.02707968 0.034628414 0.025510646
0.021533152 0.018742427 0.045152422 0.008449933 0.03033299 -0.018623436 0.03968168 0.012787876
-0.0056091226 -0.006160189 0.0016876447 0.011487954 -0.02788523 0.052158333 0.073445275 -0.040609185
-0.036088448 -0.005952613 0.06580808 -0.078517936 -0.0061236448 0.04334903 0.02288385 0.08314314
-0.05015907 0.03224188 0.02061748 -0.02452757 -0.013856806 0.07019251 -0.057228528 -0.03600358
0.0057530724 0.02846044 0.048937045 0.01601881 0.010194735 -0.02873339 0.015388458 -0.045048058
-0.012921819 0.043618243 -0.009161145 0.025528075 -0.004772005 0.017592993 -0.030910823 0.004154587
0.030392146 -0.011734852 0.018938905 0.0007675622 0.033192683 0.034131657 0.027783638 -0.036029182
0.012369561 0.019451357 0.03501522 0.059444748 0.050251547 -0.032511104 -0.032048203 -0.02385931
-0.019957123 0.04083102 0.006429826 0.03774006 -0.0004538838 0.008965578 0.05688252 0.0049221665
-0.02212728 0.010515462 0.046820357 0.025033519 -0.010399531 -0.018092703 -0.07280027 0.06835115
00000000: 7f76 4bbc 1074 23bd 47a8 273c 4618 6dbd
00000010: 4148 cfbd 1362 b53c 76a9 ec3b 925b cfbc
00000020: b022 7e3d c0c9 393d 4bda 17bc d5a2 023c
00000030: dfdc f13c 7351 a13c 588b d63c 680c ae3c
00000040: eeac 8bbc 3a91 613c 99dc 39bb 7736 1cbd
00000050: 1f19 44bd 4996 5c3d de1f 8d3d 8f5a f93c
00000060: 31af e3bc 40ba 4d3d 37bd 3cbd a81c 803d
00000070: 6137 3e3d 7779 db3c 4a5a bd3d 861e 443c
00000080: ddd3 563d 8524 903d 31d1 aa3d e192 243d
00000090: 1a30 263d 6859 8e3d 9fb4 113d d2d2 76bc
000000a0: 8bbb 253d fec6 8a3d f861 1b3d a42f 853d
000000b0: 663d 3b3d 7746 d73c 93b0 663d 6235 a33b
000000c0: 3e27 e03c bdfc 5f3c 6919 943c b33f d9bb
000000d0: 5a4c 4fbc c4ed 963c 4485 263c eb0f ab3c
000000e0: 12da 813b c935 233d 9bdd 1f3d df42 283c
000000f0: f1d8 243d 397a c33c ef93 acbb b9fe a43c
00000100: 4f12 51bc 2879 db3a ca80 003d 6fa3 28bb
00000110: 1968 bf3c cce8 06ba ee6e d93c 73eb 2c3d
00000120: 3748 963c df04 a53c 2dd1 a6ba 400a 143d
00000130: 9b68 2a3c f59b a4bc 8fbe 983d bf24 b43c
00000140: 3e8d 75bc c147 763d daca 1a3d 3cc2 bc3c
00000150: b2af 843d be3a a83c a80d 85bb a4c4 693d
00000160: de4e bfbc a873 813c 4d55 ad3c 2f3f 25bd
00000170: ab46 25b7 ce54 bc39 1232 d9bc a462 623d
00000180: 56d4 e83c 0a25 463c 938a 53bc 7b5c d93c
00000190: 4688 22bd 0e5d e83c 2159 733d 7a3f 923d
000001a0: bdec c3bb 1c08 56bc 62aa 9e3d 89b8 caba
000001b0: 45d9 5e3c 4d5a 443c 0fe3 a2bc 488d 853d
000001c0: 4cee e43c 6cd1 0f3d 7e83 003d 5c29 a23c
000001d0: 8e28 cb3c 8698 1d3c 8e1e 80bc 107f 99bc
000001e0: f528 50bc b096 ec3c c083 a23b 03a2 113d
000001f0: ae8a 5cbc e30b 633c 5754 c53c 5ac6 d23b
00000200: 1c49 7e3c 715a dd3c dd1d 4f3d f60c 183d
00000210: 1258 9cbb 769e c2bb 8661 e83c bc73 953c
00000220: 4a0b 5f3c 257c 873c f520 943d 0e74 223a
00000230: 820b 8ebc e379 dbbb a822 7a3d 6eea 2d3b
00000240: 4b55 3abc c446 6d3d 7426 86bc dc72 8abb
00000250: 083e a43c 2742 513d 7150 5abc d1a5 233d
00000260: c2f0 5fbd 4cdd 9a3d c679 c5bc cfac 233d
00000270: a02d d9bc c9c2 d8bc 5048 41bb ebf3 5f3d
00000280: f280 33bd e299 ea3c 165b aabb 60f3 0c3d
00000290: 9b6d 1f3c 78ef 4dbd fd63 acbd 9629 913d
000002a0: 1f57 a93b ac29 3f3d 0fd8 d43c 7d2a 803c
000002b0: 99c8 8c3c 34d6 dd3c 86d6 0d3d b4fb d03c
000002c0: 4b66 b03c b889 993c bff1 383d 9671 0a3c
000002d0: e47c f83c 2d90 98bc 4289 223d 3d84 513c
000002e0: bbcc b7bb 69db c9bb f633 dd3a f937 3c3c
000002f0: 916f e4bc faa3 553d 7a6a 963d d155 26bd
00000300: 7bd1 13bd 230e c3bb 63c6 863d 03ce a0bd
00000310: dba8 c8bb c18e 313d e976 bb3c f346 aa3d
00000320: 9973 4dbd 1010 043d fde5 a83c 0bee c8bc
00000330: a807 63bc 17c1 8f3d 7668 6abd 7d78 13bd
00000340: 4584 bc3b de25 e93c 3672 483d e139 833c
00000350: d107 273c 4962 ebbc df1f 7c3c 5084 38bd
00000360: 0ab6 53bc 0ba9 323d a118 16bc 4120 d13c
00000370: 7b5e 9cbb 2e1f 903c b238 fdbc 3423 883b
00000380: f3f8 f83c 8943 40bc c325 9b3c 3a36 493a
00000390: 0df5 073d a3cd 0b3d 839a e33c 5693 13bd
000003a0: b3a9 4a3c 7458 9f3c 1f6c 0f3d 567c 733d
000003b0: 91d4 4d3d 5d2a 05bd fa44 03bd 9a74 c3bc
000003c0: 1f7d a3bc 6d3e 273d 4ab1 d23b 5295 1a3d
000003d0: 41f7 edb9 5ce4 123c a5fd 683d 204a a13b
000003e0: 4544 b5bc 0b49 2c3c b4c6 3f3d 1813 cd3c
000003f0: cb62 2abc 2637 94bc 4f18 95bd b0fb 8b3d

conv3.bias f4 [128]
0.01471555 0.03549028 -0.032157283 -0.0071976893 0.0052691544 0.04933776 -2.504759e-10 -0.0024892732
-0.019962663 0.018070767 0.04393771 0.009574261 0.028269015 -0.009751456 -0.02642788 0.020460872
-0.016885795 0.019514536 -2.6081934e-06 -4.899141e-07 0.031677496 0.0043397904 0.014939882 -0.04293798
-0.00031968876 -0.038346104 -3.66192e-10 -2.911607e-05 -0.0010028854 0.015263755 -8.30433e-20 0.028699996
-0.013367329 -0.021532577 0.016001718 0.020627538 -0.03972913 -0.046714023 3.307131e-05 -0.0001813584
-0.063537024 -0.0054235714 0.026626969 -0.01596427 -0.0037236933 0.002155159 0.01759215 -0.0031448752
-0.034390263 0.013738602 -0.010269236 0.00090607087 0.0016973249 -0.017486384 -3.4047855e-05 -0.023595644
-0.005310388 -0.024904432 -2.0184543e-23 0.01579477 0.033151012 -0.036258638 0.025277637 -3.4658524e-07
0.018672766 0.07724925 0.0029259543 0.026143583 -0.041781016 -0.029966494 0.029733764 -0.009026942
-0.014172578 0.04233644 -0.03160756 -0.005535428 0.017958393 -2.8320312e-05 0.026194079 -0.005521685
0.03565337 0.044842996 -4.2633344e-10 -0.0024482175 0.061643265 0.035375148 -0.024949072 -0.038455904
-0.03452168 0.0021369562 0.0050919387 -0.035965707 0.0066016433 0.035113975 0.014397352 0.012036815
-4.4192566e-07 -0.01650002 -1.7142031e-07 -0.050952345 -0.06858312 0.008563434 -7.031991e-06 0.06136506
0.049253065 0.009529713 0.056977283 -0.0002393778 -0.0019758702 -0.010691295 0.03683724 -0.0028004972
0.01720547 0.02852321 0.014116802 -3.9377618e-13 0.021429801 -0.037173092 -0.0018247346 -0.01329083
0.0073041664 -0.010574331 -0.09678681 -3.8750923e-06 0.0697243 -0.014062099 -0.022800812 0.006917161
00000000: 7d19 713c 415e 113d 5bb7 03bd 98da ebbb
00000010: dfa8 ac3b 6416 4a3d 59b3 89af 1323 23bb
00000020: bd88 a3bc 2509 943c 07f8 333d 5cdd 1c3c
00000030: 6c94 e73c 92c4 1fbc 487f d8bc 8f9d a73c
00000040: 1454 8abc f3dc 9f3c 6c08 2fb6 a482 03b5
00000050: 43c0 013d cd34 8e3b 68c6 743c bcdf 2fbd
00000060: e69b a7b9 ce10 1dbd f150 c9af 493e f4b7
00000070: 4073 83ba d414 7a3c 9814 c49f 411c eb3c
00000080: a402 5bbc 1665 b0bc 0916 833c 15fb a83c
00000090: 03bb 22bd 3457 3fbd 0cb6 0a38 062b 3eb9
000000a0: b31f 82bd 37b8 b1bb cd20 da3c 80c7 82bc
000000b0: 3509 74bb 913d 0d3b 6a1d 903c 401a 4ebb
000000c0: cedc 0cbd e017 613c 4c40 28bc 6385 6d3a
000000d0: c678 de3a 9b3f 8fbc 9bce 0eb8 a74b c1bc
000000e0: c302 aebb 6104 ccbc 8236 c399 0964 813c
000000f0: 5bc9 073d f083 14bd 0c13 cf3c 5012 bab4
00000100: a1f7 983c db34 9e3d 5ec1 3f3b 112b d63c
00000110: 9222 2bbd 4b7c f5bc 3994 f33c bde5 13bc
00000120: 1a34 68bc fa68 2d3d ee76 01bd 8962 b5bb
00000130: 7b1d 933c 6891 edb7 f794 d63c 40ef b4bb
00000140: 4509 123d 4aad 373d 1961 eaaf 4672 20bb
00000150: a67d 7c3d 88e5 103d ff61 ccbc f083 1dbd
00000160: 9b66 0dbd 2d0c 0c3b 47da a63b c750 13bd
00000170: 9952 d83b acd3 0f3d dfe2 6b3c 1036 453c
00000180: cd41 edb4 0d2b 87bc a80f 38b4 68b3 50bd
00000190: 4f75 8cbd a54d 0c3c 58f4 ebb6 ee59 7b3d
000001a0: 95bd 493d 8322 1c3c 0361 693d 7d01 7bb9
000001b0: 9a7d 01bb 8b2a 2fbc a5e2 163d 8c88 37bb
000001c0: 7cf2 8c3c 82a9 e93c 294a 673c 21ad ddaa
000001d0: 8d8d af3c d042 18bd ef2b efba c8c1 59bc
000001e0: ca57 ef3b f53f 2dbc 2a38 c6bd ca06 82b6
000001f0: 9dcb 8e3d b864 66bc c5c8 babc 5aa9 e23b

act_conv1.weight f4 [4, 128, 1, 1]
0.020339452 0.12660296 -0.109530024 0.05360441 0.18441156 -0.10252134 1.4568716e-09 0.001901246
-0.0571154 0.11824477 -0.04679702 0.078923434 0.06521647 -0.023861686 -0.041592352 0.030427266
0.050952587 0.1343927 0.0026657146 -4.944e-41 0.084139034 0.074194245 0.096511185 0.19431718
-4.9777e-41 -0.045223612 -0.007042365 4.9317e-41 0.015196076 0.03861584 1.2991603e-16 0.03400806
-0.055703547 0.0033496409 0.23465395 0.047997408 0.14137793 -0.06356155 0.0047270064 -1.67555e-40
0.08671412 0.07458406 0.061202247 -0.1749417 -0.1073779 0.029632786 0.07621502 -0.00091460027
0.15936397 -0.085934535 0.18710563 0.31666547 0.08009208 -0.03405951 4.9124e-41 -0.03175892
-0.060547307 -0.06584339 4.9806e-41 -0.02680693 -0.08050614 -0.009800821 -0.12968054 -0.0013013222
0.08629473 0.2788625 0.014083112 0.14241488 0.12160516 -0.10707815 0.09792647 0.12438643
-0.0320257 -0.026597787 0.041605465 0.18945573 0.048985522 -2.4860897e-08 -0.017853666 0.30596802
0.014623202 0.0722527 -4.9319e-41 -0.026674904 -0.119648665 0.11726825 0.0603971 -0.052784324
0.07121064 0.07290542 0.08132585 -0.10231148 -0.0013948572 0.013468132 -0.036788426 0.07883635
-4.9694e-41 0.1438887 -0.01159497 -0.18316053 0.016032245 0.12926945 -0.0053857253 0.008523128
-0.1217205 -0.014834771 0.11859099 -4.955e-41 0.0044319443 -4.9491e-41 0.123305954 -0.11765834
0.0336411 0.123742834 0.19310442 4.9778e-41 0.09181561 -0.020558378 -4.908e-41 -0.05282601
-0.08261649 0.25866583 -0.043350022 -4.9275e-41 -0.05287774 -0.08964478 0.13892865 -0.036699537
0.006635277 -0.046173308 0.093030356 -0.02860822 -0.15301602 -0.009187163 -2.0224238e-09 -0.00088517385
-0.16068156 -0.02949407 -0.0011644069 -0.053043615 -0.030885333 -0.08049151 0.06737005 -0.16462049
-0.12190022 -0.10123268 2.3331579e-31 -5.1819e-41 -0.004676524 -0.034964345 -0.014183534 0.12532052
-4.9485e-41 0.034510225 -0.0035123364 -4.9047e-41 0.17874293 -0.03427527 4.9804e-41 0.013688588
-0.0041242763 0.00014149223 0.07174023 -0.037699178 -0.06692427 0.10215391 -0.0005553985 -4.9442e-41
0.019760123 -0.15324242 0.06618085 0.0795502 0.18191625 0.007823845 -0.042694177 -0.009692042
0.037645426 0.06424876 0.0016649938 0.047181994 -0.090363875 -0.00014838284 4.9607e-41 -0.005442395
-0.0008461399 0.06721145 -4.9586e-41 -0.016184596 0.07504789 -0.15016513 0.20506759 -0.008547178
0.2400288 -0.07459579 -0.010120938 -0.024473678 0.06070458 0.08325794 0.13159676 0.113803916
-0.014387398 -0.008273982 -0.090015866 -0.31629163 0.11919609 -4.9111e-41 0.21416043 0.05890569
0.09359919 -0.040023632 -5.027e-41 0.0060505574 0.01716845 -0.01863396 -0.055094525 0.048904404
0.105335824 0.021409048 0.035629753 0.08796132 0.021889204 -0.06101556 0.013342515 -0.08176521
5.3106e-41 0.062295496 7.272993e-11 0.0600559 -0.17945984 -0.060128644 -4.9128e-41 -0.014959758
0.0007876074 0.072496034 -0.040133215 -4.9867e-41 -4.92e-41 6.0643e-41 -0.04938792 0.036363427
0.06642225 -0.053700842 -0.15524554 4.9855e-41 -0.031124905 0.06950549 -4.9714e-41 -0.031564735
0.0063367304 0.0027479532 0.08671087 -4.9675e-41 -0.0043482967 0.060003333 0.05129557 -0.04362135
00000000: ec9e a63c 35a4 013e 4751 e0bd 4c90 5b3d
00000010: 62d6 3c3e b5f6 d1bd 1d3b c830 3b33 f93a
00000020: d6f1 69bd 502a f23d 3bae 3fbd 9ca2 a13d
00000030: 3690 853d 9579 c3bc be5c 2abd 9a42 f93c
00000040: a9b3 503d 3d9e 093e 45b3 2e3b d289 0080
00000050: 1651 ac3d 27f3 973d a8a7 c53d 15fb 463e
00000060: c28a 0080 653c 39bd a4c3 e6bb 7a89 0000
00000070: f6f8 783c a52b 1e3d 72c8 1525 094c 0b3d
00000080: 6729 64bd a685 5b3b 2049 703e ee98 443d
00000090: 60c5 103e 8f2c 82bd 01e5 9a3b 13d3 0180
000000a0: 2c97 b13d 87bf 983d 35af 7a3d eb23 33be
000000b0: f2e8 dbbd 75c0 f23c 9f16 9c3d c9c1 6fba
000000c0: 4f30 233e 72fe afbd 9e98 3f3e fa21 a23e
000000d0: 5107 a43d fc81 0bbd f088 0000 a415 02bd
000000e0: 7400 78bd e6d8 86bd d78a 0000 359a dbbc
000000f0: 67e0 a4bd 9f93 20bc faca 04be 2191 aaba
00000100: 4bbb b03d 11c7 8e3e dabc 663c 35d5 113e
00000110: 200c f93d ca4b dbbd ac8d c83d 50be fe3d
00000120: 612d 03bd 9ae3 d9bc 7e6a 2a3d af00 423e
00000130: 0ba5 483d b18d d5b2 da41 92bc d7a7 9c3e
00000140: 2896 6f3c 39f9 933d 7b89 0080 5485 dabc
00000150: 5c0a f5bd 562a f03d f362 773d 6034 58bd
00000160: e2d6 913d 704f 953d 2b8e a63d ae88 d1bd
00000170: a4d3 b6ba 71a9 5c3c 76af 16bd f474 a13d
00000180: 878a 0080 8f57 133e d4f8 3dbc 6f8e 3bbe
00000190: 0e56 833c 365f 043e bd7a b0bb 97a4 0b3c
000001a0: 9948 f9bd 8a0d 73bc d5df f23d 208a 0080
000001b0: d839 913b f689 0080 d587 fc3d dbf6 f0bd
000001c0: 40cb 093d e26c fd3d 2abd 453e c38a 0000
000001d0: d309 bc3d 0b6a a8bc d188 0080 1660 58bd
000001e0: d632 a9bd d96f 843e cb8f 31bd 5c89 0080
000001f0: 5496 58bd af97 b7bd 5043 0e3e 4152 16bd
00000200: bd6c d93b 3920 3dbd b386 be3d c95b eabc
00000210: 3bb0 1cbe c185 16bc dbfa 0ab1 030b 68ba
00000220: b589 24be 8c9d f1bc 039f 98ba 4344 59bd
00000230: 3d03 fdbc bcd8 a4bd 4ff9 893d 4692 28be
00000240: d3a6 f9bd 1453 cfbd 3c6e 970c 7390 0080
00000250: 873d 99bb c636 0fbd 0e62 68bc 0654 003e
00000260: f289 0080 985a 0d3d 3a2f 66bb b988 0080
00000270: 6308 373e 3a64 0cbd d58a 0000 1946 603c
00000280: f024 87bb 885d 1439 8bec 923d 746a 1abd
00000290: 970f 89bd 1236 d13d 2a98 11ba d389 0080
000002a0: fbdf a13c 95eb 1cbe d389 873d 37eb a23d
000002b0: 4148 3a3e 962f 003c 17e0 2ebd 5fcb 1ebc
000002c0: 1732 1a3d db94 833d ec3b da3a e841 413d
000002d0: b210 b9bd 3797 1bb9 498a 0000 1e56 b2bb
000002e0: 7dcf 5dba 28a6 893d 3a8a 0080 8f95 84bc
000002f0: b5b2 993d e3c4 19be 3dfd 513e 7609 0cbc
00000300: 1cca 753e adc5 98bd 4ad2 25bc 067d c8bc
00000310: 5ea5 783d 2483 aa3d 4dc1 063e 0712 e93d
00000320: 1fb9 6bbc 998f 07bc 3d5a b8bd faf0 a1be
00000330: 141d f43d e788 0080 df4c 5b3e 1847 713d
00000340: efb0 bf3d d2ef 23bd 228c 0080 c143 c63b
00000350: d9a4 8c3c 3fa6 98bc ccaa 61bd fc4f 483d
00000360: 4fba d73d 0762 af3c 81f0 113d 1125 b43d
00000370: fd50 b33c 74eb 79bd 909a 5a3c 8574 a7bd
00000380: 0a94 0000 9029 7f3d 50ef 9f2e 2dfd 753d
00000390: 52c4 37be 7449 76bd f388 0080 c619 75bc
000003a0: 7077 4e3a cd78 943d ba62 24bd 028b 0080
000003b0: 2689 0080 0ca9 0000 fd4a 4abd d1f1 143d
000003c0: 6308 883d 6af5 5bbd b0f8 1ebe fa8a 0000
000003d0: a8f9 febc e558 8e3d 958a 0080 064a 01bd
000003e0: 59a4 cf3b 0117 343b 7895 b13d 798a 0080
000003f0: 287c 8ebb 0ec6 753d 4e1b 523d 4dac 32bd

act_conv1.bias f4 [4]
0.04170684 0.0016634059 -0.020698331 0.12683707
00000000: cbd4 2a3d a406 da3a 8c8f a9bc 94e1 013e

act_fc1.weight f4 [81, 324]
0.03559041 0.029305285 0.0369449 -0.00023666346 0.011537914 0.013817045 -0.0008826914 0.006830857
-0.0525417 0.04045294 0.00649966 -0.060156114 -0.06478073 -0.03401114 -0.024119461 -0.030608393
-0.00859971 -0.014464994 0.027999057 0.011998365 -0.04465108 -0.06993352 -0.046984408 -0.093679756
0.008532364 0.010346117 0.0047943466 0.034823555 -0.047541812 -0.024394862 -0.10063566 -0.09488789
0.006923661 -0.08661595 -0.007037727 -0.026962083 -0.016866745 -0.020131316 -0.1000968 -0.099592
-0.03867844 -0.11963608 -0.07771835 -0.030175326 -0.04334262 0.052266512 -0.048195824 -0.053972293
-0.064703666 -0.16201253 -0.050355952 -0.070417665 -0.05041647 -0.0116383955 0.11307708 0.011101006
-0.08588498 -0.05133268 -0.074809305 -0.025511265 -0.047339216 -0.07088854 -0.029819435 0.26367614
-0.06182182 0.021309288 -0.022132609 -0.08055303 -0.02229123 -0.02858328 0.008942416 -0.0017375277
0.27068123 0.29147837 -0.007909813 0.0020804456 0.014858682 -0.007324648 -0.036764715 0.020841569
0.022829564 0.0005192121 -0.009331461 -0.04960531 0.057798263 0.08612989 -0.05517093 -0.026247324
-0.024785522 0.052265238 -0.0016200325 0.01113774 -0.036707677 0.063308954 0.016972337 0.061314702
0.0002848656 -0.052514218 0.0035327605 0.043875862 0.0124334 -0.048373617 0.031312734 -0.009491186
0.030933695 0.022550635 0.027110647 0.0063455966 0.018436385 -0.010251482 -0.012875811 -0.06338162
0.049431268 -0.040653974 0.008666848 -0.011636744 -0.043326657 0.053304624 0.008704151 -0.03328012
0.04369198 -0.0037000333 0.049506016 -0.04372846 0.019888509 0.04413736 -0.09874121 0.01918617
0.07619497 0.009172378 -0.022579757 0.007924751 0.016069427 0.03154225 0.11484302 -0.018731294
-0.016590595 0.023488862 0.007933669 0.02463148 0.012512593 -0.046814594 -0.019691018 0.012019132
-0.17401709 -0.007857519 -0.018663572 -0.012384867 0.057113018 -0.0117647275 -0.007237857 -0.0073780646
-0.02370611 -0.11345349 -0.16512501 0.01962959 0.02271037 0.069319904 0.062250767 0.03706382
0.010746382 0.06326963 8.23706e-34 1.0820382e-10 8.785073e-10 1.5564767e-07 1.5021762e-08 1.0907942e-07
3.987968e-09 1.1977281e-08 7.210904e-11 2.422921e-10 4.0907216e-07 3.891995e-06 3.5518315e-05 7.298041e-06
1.458644e-05 1.6276675e-06 1.6143656e-06 1.4637723e-08 3.7949463e-11 1.0523631e-05 5.156259e-05 8.0051934e-05
7.621013e-05 4.1808762e-05 3.7645237e-05 1.1603731e-05 1.3788159e-07 3.3820995e-09 3.033621e-05 2.1312297e-05
0.00017045281 4.977322e-05 4.7592897e-05 1.7423417e-05 2.2246954e-06 1.0909887e-08 9.8722724e-11 1.2491442e-05
2.903752e-05 0.00017968025 1.3402403e-05 1.5188836e-05 1.7854411e-07 1.2257102e-08 8.7648805e-11 3.7907746e-12
1.2453071e-05 2.9141831e-05 9.0956775e-05 2.584755e-05 1.8360008e-06 -4.4293547e-08 -2.5317664e-09 -4.2985513e-13
-1.534853e-12 4.0233444e-06 4.298268e-06 0.00010775013 1.5232204e-06 1.0651065e-06 -1.5072904e-07 -4.032343e-09
-7.495933e-12 1.9443534e-10 7.463826e-08 2.2518798e-06 3.5223911e-06 3.051385e-07 -1.4394695e-07 -3.6998916e-08
-7.8002466e-10 8.54104e-11 5.70229e-13 4.917629e-10 2.2155884e-09 7.491124e-11 -2.3113876e-10 -3.009541e-10
4.9763255e-10 2.1391774e-11 2.4949252e-20 0.08383742 0.052460264 0.010879989 0.03897862 0.015345602
0.05021934 0.018354632 0.033031043 0.051971447 0.015761793 0.0010981443 0.022547819 0.026150893
00000000: 40c7 113d a311 f03c 8953 173d dd28 78b9
00000010: 8509 3d3c e360 623c 6b64 67ba 62d5 df3b
00000020: f735 57bd fbb1 253d 1afb d43b 4266 76bd
00000030: c2ab 84bd 444f 0bbd 2d96 c5bc 74be fabc
00000040: cce5 0cbc 95fe 6cbc 475e e53c ca94 443c
00000050: 0de4 36bd 4e39 8fbd b972 40bd 2cdb bfbd
00000060: 54cb 0b3c c382 293c e519 9d3b 25a3 0e3d
00000070: 34bb 42bd bcd7 c7bc 121a cebd 9554 c2bd
00000080: e1df e23b b463 b1bd bc9c e6bb 96df dcbc
00000090: 212c 8abc 6eea a4bc 8dff ccbd e4f6 cbbd
000000a0: 496d 1ebd c303 f5bd cc2a 9fbd 3f32 f7bc
000000b0: 0888 31bd 6915 563d fc68 45bd 0d12 5dbd
000000c0: 5b83 84bd 9de6 25be 0b42 4ebd 2337 90bd
000000d0: 8081 4ebd f8ae 3ebc f594 e73d fee0 353c
000000e0: 77e4 afbd 3742 52bd 9f35 99bd 00fd d0bc
000000f0: c4e6 41bd 032e 91bd e347 f4bc 8f00 873e
00000100: e038 7dbd d190 ae3c 724f b5bc fdf8 a4bd
00000110: 199c b6bc 7c27 eabc 3683 123c c1bd e3ba
00000120: bb96 8a3e a73c 953e 2998 01bc 1658 083b
00000130: d471 733c 9a03 f0bb 9996 16bd f0bb aa3c
00000140: 1105 bb3c bc1b 083a fce2 18bc f02e 4bbd
00000150: dfbd 6c3d de64 b03d eafa 61bd a104 d7bc
00000160: 020b cbbc 1314 563d 4557 d4ba 117b 363c
00000170: ca5a 16bd 20a8 813d 9209 8b3c 2025 7b3d
00000180: 035a 9539 2619 57bd e385 673b 2db7 333d
00000190: 76b5 4b3c 6a23 46bd c841 003d eb80 1bbc
000001a0: a968 fd3c 1cbc b83c 2617 de3c b9ee cf3b
000001b0: e707 973c d5f5 27bc 11f5 52bc 39ce 81bd
000001c0: 7178 4a3d c884 26bd 65ff 0d3c 0ba8 3ebc
000001d0: 4b77 31bd f355 5a3d db9b 0e3c bc50 08bd
000001e0: 5df6 323d 427c 72bb d2c6 4a3d 9d1c 33bd
000001f0: 3aed a23c 60c9 343d d538 cabd 512c 9d3c
00000200: 1c0c 9c3d be47 163c 2ff9 b8bc d1d6 013c
00000210: 08a4 833c 7232 013d d132 eb3d 5f72 99bc
00000220: 00e9 87bc b76b c03c 38fc 013c f5c7 c93c
00000230: 9e01 4d3c a9c0 3fbd 0f4f a1bc e5eb 443c
00000240: 8931 32be d3bc 00bc 59e4 98bc e6e9 4abc
00000250: 57ef 693d d8c0 40bc 8c2b edbb b1c3 f1bb
00000260: 5133 c2bc 4e5a e8bd 8816 29be 3cce a03c
00000270: 190b ba3c 98f7 8d3d a9fa 7e3d 3bd0 173d
00000280: 9811 303c 8293 813d 94dc 8808 56f1 ed2e
00000290: 757b 7130 1b20 2734 3409 8132 0c3f ea33
000002a0: 8a06 8931 a4c4 4d32 c891 9e2e 9533 852f
000002b0: 739e db34 fc97 8236 80f9 1438 b2e1 f436
000002c0: 48b8 7437 3b76 da35 2ead d835 6379 7b32
000002d0: 4ce7 262e a78e 3037 e944 5838 8ee1 a738
000002e0: 01d3 9f38 d15b 2f38 44e5 1d38 a5ad 4237
000002f0: 9a0c 1434 866a 6831 847a fe37 cfc7 b237
00000300: 94bb 3239 97c3 5038 7c9e 4738 8128 9237
00000310: fa4b 1536 316e 3b32 f417 d92e 5692 5137
00000320: 9995 f337 8d68 3c39 e2da 6037 8ed3 7e37
00000330: d5b5 3f34 4e93 5232 e4bd c02e 4360 852c
00000340: 88ed 5037 9b75 f437 0cc0 be38 31d3 d837
00000350: 826c f635 453d 3eb3 4efb 2db1 a7fc f1aa
00000360: e802 d8ab 4400 8736 d739 9036 e9f7 e138
00000370: 7471 cc35 c8f4 8e35 15d8 21b4 dd8c 8ab1
00000380: aede 03ad afc8 552f d148 a033 001f 1736
00000390: 3862 6c36 ebd1 a334 d68f 1ab4 bde8 1eb3
000003a0: 5b69 56b0 c8d1 bb2e 5481 202b bd2c 0730
000003b0: 0b41 1831 47bb a42e c723 7eaf 8673 a5af
000003c0: c7c9 0830 fe29 bc2d 97a3 eb1e f4b2 ab3d
000003d0: 93e0 563d fb41 323c 0ca8 1f3d 1f6c 7b3c
000003e0: cbb2 4d3d 745c 963c 8f4b 073d 03e0 543d
000003f0: e01e 813c 9cef 8f3a 34b6 b83c 663a d63c

act_fc1.bias f4 [81]
0.11742577 -0.01444693 -0.17892091 0.1247926 0.12827192 0.11841129 -0.117775336 -0.015327853
0.08432067 -0.0036293902 -0.07540994 0.106053464 0.052839402 0.25507334 0.07186006 0.0805958
-0.16896416 -0.023390178 -0.15931389 0.13658483 0.0044314614 0.21808913 -0.07732157 0.18379904
0.013922865 0.14454915 -0.11507582 0.081306376 0.0362093 0.12250461 0.12395557 0.19097759
0.09540931 0.17549862 0.042706363 0.110825956 0.10845556 0.20467956 -0.024655329 0.24106313
-0.05931691 0.27964383 -0.08168353 0.22560018 0.095276885 0.08436634 0.055814903 0.14890231
0.106074095 0.23627971 0.06986642 0.1984693 0.013440992 0.07995099 -0.16344775 0.1254947
0.08843033 0.22497608 -0.083262645 0.1312438 -0.013637587 0.14525391 -0.12810184 -0.057279
-0.12689218 0.13108358 0.052230075 0.17144452 0.035440005 0.12674162 -0.1483081 -0.02249693
0.045275833 -0.06611583 -0.16256164 0.10531185 0.07014485 0.087198064 -0.14457385 -0.024427429
0.09228549
00000000: ec7c f03d d1b2 6cbc 0b37 37be 4393 ff3d
00000010: b759 033e 9e81 f23d 3234 f1bd ad21 7bbc
00000020: 51b0 ac3d 10db 6dbb 8770 9abd 8f32 d93d
00000030: 216e 583d f998 823e 5e2b 933d 690f a53d
00000040: f104 2dbe c29c bfbc 2e23 23be e5dc 0b3e
00000050: cb35 913b c252 5f3e c55a 9ebd d135 3c3e
00000060: ba1c 643c b104 143e dfac ebbd f583 a63d
00000070: 3450 143d b2e3 fa3d 6bdc fd3d a18f 433e
00000080: f565 c33d e9b5 333e deec 2e3d b8f8 e23d
00000090: f31d de3d 8597 513e f9f9 c9bc 41d9 763e
000000a0: 4af6 72bd 7a2d 8f3e b249 a7bd bc03 673e
000000b0: 8720 c33d 42c8 ac3d 2b9e 643d d979 183e
000000c0: 603d d93d 4ff3 713e 2016 8f3d 893b 4b3e
000000d0: 9b37 5c3c 58bd a33d d95e 27be af81 003e
000000e0: f61a b53d 2160 663e 9b85 aabd c664 063e
000000f0: 3070 5fbc 71bd 143e 212d 03be 629d 6abd
00000100: 06f0 01be c63a 063e 34ef 553d 278f 2f3e
00000110: 8a29 113d 8ec8 013e 14de 17be 7b4b b8bc
00000120: 2773 393d bc67 87bd 8f76 26be bdad d73d
00000130: 1aa8 8f3d e694 b23d 2b0b 14be 081c c8bc
00000140: 2d00 bd3d

val_conv1.weight f4 [2, 128, 1, 1]
0.038008 0.019147905 -0.005315931 0.014389196 0.066637635 -0.04173666 4.9393e-41 4.9425e-41
-0.002884435 0.043218326 -0.07557727 0.005163599 -0.092744775 0.01486049 -9.92129e-05 0.07213402
-9.787713e-06 -0.028082328 3.009255e-14 -1.3594694e-18 -0.10333164 -0.050503492 0.012927651 0.002772625
2.0824993e-09 0.024102475 -2.226522e-39 -6.936028e-13 0.035742406 0.053733826 -0.0008821704 -0.0647861
0.049403306 0.012322021 0.041082386 -0.055529103 -0.0024343946 -0.007154638 0.008755694 -2.232418e-12
-2.0437855e-13 0.04214228 0.0371634 -0.016443694 0.02904744 -1.0978603e-16 -0.06788014 -4.9711e-41
0.017916746 -0.03831437 0.06231898 -0.0004038834 0.014221558 0.034083866 -1.1652884e-20 0.051515274
0.035835136 -0.00069103634 4.9512e-41 -0.011590812 -0.06875516 0.020013498 0.022446183 -4.9177e-41
0.0009177678 -0.015264077 0.06548803 -0.0006890747 -0.00014269912 -0.016864283 -0.007627419 0.0046585696
0.03979538 -0.06906249 0.05278091 0.061306205 0.0002385227 -2.33947e-12 0.05688163 -0.01729836
-0.03947309 -0.028322008 -5.4794714e-17 0.04436312 -0.04646657 0.010170516 0.044102896 0.033303976
0.050556213 0.027261918 0.010617519 0.0067408374 0.0330406 -0.04305858 -0.07315568 -0.0013010115
-5.235176e-29 -0.02859796 1.5537713e-05 2.6390165e-08 0.023812994 0.06868822 -1.07678615e-29 -0.10663081
-0.04736009 -0.029120699 -0.05381666 -8.112167e-21 -5.1472e-41 0.00012208012 0.042608086 0.015915316
-0.053083625 0.028900402 0.0007453553 4.912e-41 -0.09523899 -0.051759448 -2.7056355e-09 0.06617029
-0.08090133 -9.6880135e-31 -0.0036590842 -5.985008e-05 -0.05356959 -0.0188271 0.018980391 0.0072226296
-6.1862505e-05 -3.910235e-05 -6.660981e-11 0.00036257104 0.0017454308 0.00040012042 4.9593e-41 -5.6733e-41
-8.6416543e-07 0.0025203682 -7.626589e-05 -0.0005961536 -0.0007068699 -2.2403156e-05 -4.9225e-41 0.0010838966
-4.9216e-41 2.1240552e-05 -4.9504e-41 4.9966e-41 -0.0018708019 9.3411614e-07 0.00042223587 2.4922846e-19
-5.035e-41 -0.00042737072 5.258e-41 -4.9272e-41 -0.0012444016 0.00012719289 -4.9216e-41 -0.0009940477
-9.8843375e-05 -6.594762e-08 -8.145513e-06 -2.3508765e-05 -4.9094e-41 4.9508e-41 -1.5703133e-06 4.92e-41
4.9382e-41 0.0005055984 0.0012048155 4.9354e-41 0.0012331299 4.909e-41 -6.046414e-05 5.1307e-41
4.2189065e-05 -1.1237032e-05 0.00082653883 4.905e-41 0.00092431356 -9.879029e-05 4.9801e-41 -0.0015487958
0.001606795 4.9778e-41 -5.0096e-41 4.9114e-41 -1.018856e-06 0.0014988243 -3.214559e-09 5.1323e-41
-4.9162e-41 -4.9131e-41 0.0023088672 -4.9715e-41 -4.9648e-41 4.9537e-41 3.684716e-22 -8.4939704e-05
-0.0066128382 -0.0008717023 0.00035023096 -0.00046861943 -1.4764574e-33 -4.9732e-41 -0.0030005043 4.9101e-41
-1.1992216e-07 -1.2324597e-07 4.9457e-41 -0.00024251254 -0.00047568805 3.557741e-06 2.9939854e-05 -0.00023756658
-0.0028989045 -0.00205028 -4.2278394e-09 -4.5688218e-09 -0.0015394742 -2.7883767e-05 -4.4604156e-05 -2.796409e-05
4.9361e-41 5.1522e-32 -4.9577e-41 4.936e-41 0.0011254336 -0.00038084947 4.9345e-41 -0.0008145825
-4.0925797e-06 -1.5048795e-05 -6.0558623e-06 5.0172e-41 4.9599e-41 4.9293e-41 0.0006825366 -7.417012e-05
1.835676e-39 -0.00013167122 3.7049808e-10 4.9397e-41 -0.0005345821 1.9316514e-05 -5.0267e-41 0.0064834733
-0.00029898668 -4.9882e-41 -1.4150299e-38 4.9333e-41 -1.3364479e-05 1.2234526e-09 -0.004883938 -0.0011567308
00000000: 47ae 1b3d 11dc 9c3c 4331 aebb aac0 6b3c
00000010: 5079 883d 0ff4 2abd b089 0000 c789 0000
00000020: ca08 3dbb b305 313d 41c8 9abd 6833 a93b
00000030: f9f0 bdbd 6a79 733c 8510 d0b8 00bb 933d
00000040: e835 24b7 e90c e6bc 5986 0729 4d9f c8a1
00000050: 8a9f d3bd c0dc 4ebd 80ce 533c eeb4 353b
00000060: b71b 0f31 8e72 c53c a33e 1880 593b 43ab
00000070: a166 123d 0018 5c3d 7441 67ba 93ae 84bd
00000080: 1f5b 4a3d 4de2 493c 0146 283d 7c72 63bd
00000090: 5d8a 1fbb 7471 eabb 0b74 0f3c ab17 1dac
000000a0: 1b1c 66aa 629d 2c3d a638 183d edb4 86bc
000000b0: e6f4 ed3c 3c26 fda4 be04 8bbd 938a 0080
000000c0: 24c6 923c 87ef 1cbd 3042 7f3d 50c0 d3b9
000000d0: 8a01 693c 869b 0b3d e41d 5c9e ae01 533d
000000e0: ddc7 123d aa26 35ba 058a 0000 64e7 3dbc
000000f0: 81cf 8cbd 59f3 a33c 0fe1 b73c 1689 0080
00000100: 5b96 703a 2e16 7abc 971e 863d 05a3 34ba
00000110: 81a1 15b9 f726 8abc 6eef f9bb eaa6 983b
00000120: 7b00 233d a270 8dbd cc30 583d 371c 7b3d
00000130: f31b 7a39 25a0 24ac b6fc 683d 4ab5 8dbc
00000140: 89ae 21bd 8e03 e8bc 2eb2 7ca4 1ab6 353d
00000150: bb53 3ebd 3ca2 263c 3da5 343d c069 083d
00000160: 0814 4f3d 6354 df3c 1af5 2d3c 3ee2 dc3b
00000170: 9555 073d 325e 30bd a5d2 95bd b486 aaba
00000180: 3cba 8490 4546 eabc fc56 8237 96b0 e232
00000190: 7813 c33c 69ac 8c3d ef65 5a8f 4161 dabd
000001a0: a7fc 41bd 888e eebc dc6e 5cbd 083c 199e
000001b0: 7c8f 0080 a202 0039 d185 2e3d d660 823c
000001c0: 376e 59bd 89c0 ec3c f363 433a ed88 0000
000001d0: a90c c3bd b701 54bd 0bee 39b1 4a84 873d
000001e0: 99af a5bd 6f32 9d8d 3fcd 6fbb 8907 7bb8
000001f0: c96b 5bbd 4a3b 9abc c47c 9b3c cfab ec3b
00000200: 2ebc 81b8 d401 24b8 fd79 92ae 7617 be39
00000210: f0c6 e43a 41c7 d139 3f8a 0000 269e 0080
00000220: fff8 67b5 c32c 253b f0f0 9fb8 3147 1cba
00000230: 3c4d 39ba 69ee bbb7 3889 0080 8911 8e3a
00000240: 3289 0080 bd2d b237 ff89 0080 498b 0000
00000250: b235 f5ba f9bf 7a35 8a5f dd39 571e 9320
00000260: 5b8c 0080 ba10 e0b9 9292 0000 5a89 0080
00000270: 301b a3ba 155f 0539 3289 0080 b54a 82ba
00000280: 224a cfb8 169f 8db3 b6a8 08b7 b034 c5b7
00000290: db88 0080 028a 0000 8ec3 d2b5 2689 0000
000002a0: a889 0000 228a 043a e6ea 9d3a 9489 0000
000002b0: f9a0 a13a d888 0000 e09a 7db8 068f 0000
000002c0: 2af4 3038 af86 3cb7 15ac 583a bb88 0000
000002d0: a24d 723a a22d cfb8 d38a 0000 f700 cbba
000002e0: 189b d23a c38a 0000 a68b 0080 e988 0000
000002f0: a0bf 88b5 3374 c43a 1fe7 5cb1 118f 0000
00000300: 0b89 0080 f588 0080 5d50 173b 968a 0080
00000310: 668a 0080 178a 0000 38ba de1b a821 b2b8
00000320: 82b0 d8bb f382 64ba 349f b739 09b1 f5b9
00000330: 8d51 f588 a28a 0080 1ca4 44bb e088 0000
00000340: f4c3 00b4 9855 04b4 de89 0000 f74a 7eb9
00000350: c565 f9b9 86c1 6e36 5927 fb37 4b1b 79b9
00000360: 8cfb 3dbb fe5d 06bb 7844 91b1 c8fb 9cb1
00000370: 2fc8 c9ba efe7 e9b7 5915 3bb8 6d94 eab7
00000380: 9989 0000 3ec2 850b 338a 0080 9889 0000
00000390: 4983 933a c0ac c7b9 8e89 0000 b589 55ba
000003a0: fe52 89b6 157a 7cb7 7633 cbb6 dc8b 0000
000003b0: 438a 0000 6989 0000 42ec 323a c88b 9bb8
000003c0: 1efd 1300 3911 0ab9 f8ae cb2f b389 0000
000003d0: 3323 0cba e609 a237 208c 0080 5173 d43b
000003e0: 50c1 9cb9 0d8b 0080 4715 9a80 8589 0000
000003f0: 0038 60b7 6926 a830 7109 a0bb 729d 97ba

val_conv1.bias f4 [2]
0.057018783 -0.0061911903
00000000: 878c 693d 78df cabb
