课程设计/AlphaZero简单复现/models/policy_batch_1500.model (torch, 530639 bytes, 15 tensors)

conv1.weight f4 [32, 4, 3, 3]
0	0x3e73e5ac	0.23818082
1	0xbda96ed9	-0.08273096
2	0x3e8b969d	0.27263346
3	0xbd900c0a	-0.07033546
4	0xbd958832	-0.07301368
5	0xbde962b5	-0.1139578
6	0x3ebeb871	0.37250093
7	0xbe3dd786	-0.18539247
8	0x3edb0afa	0.42781812
9	0x3e5027a2	0.20327619
10	0xbda42f1a	-0.080167964
11	0x3e3e878a	0.18606392
12	0xbd687182	-0.056748874
13	0xbd99f8f5	-0.07518188
14	0xbda5bcf6	-0.08092682
15	0x3e6097cd	0.21932907
16	0xbde43962	-0.111437574
17	0x3e528f5c	0.205625
18	0x3d4bcacb	0.049753945
19	0xbcfc425a	-0.030793358
20	0x3d897958	0.067125976
21	0xbc7713e3	-0.015080425
22	0xbd700f64	-0.058608428
23	0xbd38d9ef	-0.045129713
24	0x3d85c621	0.06531931
25	0xbc43afaa	-0.011943737
26	0x3dc7c7ad	0.09754882
27	0x3944114c	0.0001869846
28	0xbc180445	-0.009278362
29	0xbd1b05fe	-0.03784751
30	0xbdd3631b	-0.10321637
31	0x3dd0f716	0.10203378
32	0xbc817574	-0.015803076
33	0x3bbb35fa	0.0057132216
34	0x3cc7519b	0.024330905
35	0xbd0818ed	-0.033226896
36	0x3ea9cea1	0.33165458
37	0x3e9c44bd	0.30521193
38	0xbee95743	-0.45574388
39	0x3e412737	0.18862616
40	0xbdc524dd	-0.09626172
41	0x3ea55215	0.32289186
42	0xbea662b3	-0.32497177
43	0x3e199095	0.1499656
44	0x3e29d954	0.1658681
45	0x3d62c3df	0.05536258
46	0x3c8f0a27	0.017460896
47	0x3d501c5e	0.050808303
48	0xbe1d0b01	-0.15336229
49	0xbd1135df	-0.035451766
50	0xbd99c93f	-0.07509088
51	0x3e7d56ce	0.24740145
52	0xbdc36c0e	-0.09542094
53	0x3e094da8	0.1340853
54	0x3bc9d170	0.006159
55	0xbd83fee8	-0.06445104
56	0x3cdcd297	0.026955886
57	0xbd0c5bea	-0.034267344
58	0xbdb8a46e	-0.090157375
59	0x3a91ec43	0.0011133034
60	0x3d7ecc73	0.062206697
61	0x3cb02fd0	0.021507174
62	0x3cb57f0c	0.022155307
63	0x3c2dbe36	0.010604432
64	0xbe0f7ffd	-0.14013667
65	0x3d9bd876	0.07609646
66	0xbe1cb4af	-0.153033
67	0x3da006a2	0.07813765
68	0xbdefb219	-0.11703891
69	0x3e0efab0	0.13962817
70	0xbd3465eb	-0.04404251
71	0x3e3f42c5	0.18677814
72	0x3e890229	0.2675946
73	0x3e406ef2	0.18792322
74	0xbd4389b1	-0.047738735
75	0xbea68e59	-0.32530478
76	0xbd7a4432	-0.061100192
77	0xbe8469e8	-0.2586205
78	0x3dc99ce7	0.0984438
79	0x3e6e2a3e	0.23258302
80	0xbe88d790	-0.2672696
81	0xbe0c2def	-0.13689397
82	0xbe2bbb71	-0.16770722
83	0xbd8aaefa	-0.067716554
84	0x3ea24280	0.3169136
85	0x3e2ff9e5	0.17185171
86	0x3e308fc9	0.1724235
87	0x3e06249a	0.130999
88	0xbe98b520	-0.29825687
89	0x3dcec14c	0.10095462
90	0x3ccf15ec	0.025279008
91	0xbcb8d0ed	-0.022560561
92	0x3cff34e5	0.031153152
93	0xbc111e2c	-0.008857291
94	0x3d0b66fb	0.034033757
95	0x3ce3c1e2	0.027802411
96	0x3c1b7e34	0.009490538
97	0xbe3da5ea	-0.18520322
98	0x3d5f6061	0.054535273
99	0xbe20bcf4	-0.1569708
100	0x3dd28a6b	0.102803074
101	0x3d51c5ea	0.051214136
102	0xbb91dfc8	-0.0044517256
103	0x3d5a3400	0.053272247
104	0x3d3eea4c	0.04661016
105	0x3cf1c90f	0.029514818
106	0x3e0ce09e	0.1375756
107	0xbe348474	-0.17628652
108	0x3d0fdc8e	0.035122447
109	0xbf0bd29f	-0.5461826
110	0x3eba96c5	0.36443153
111	0xbd8a8eca	-0.06765516
112	0x3ee49324	0.4464351
113	0xbef26f59	-0.47350577
114	0x3d9f3000	0.07772827
115	0x3cd3607b	0.025802841
116	0x3dc80ea1	0.09768415
117	0x3dd57fc6	0.104247615
118	0x3e18cfa2	0.14922956
119	0xbe406ec8	-0.1879226
120	0x3e0918ea	0.1338841
121	0xbe7938f0	-0.24338126
122	0x3e16f008	0.14740002
123	0xbddfab35	-0.10921327
124	0x3d9ac883	0.07557776
125	0x3e1e90e1	0.15484954
126	0x3cb92d76	0.022604685
127	0x3d4106cf	0.047125634
128	0xbce581c7	-0.028015984
129	0xba44dcc9	-0.0007509706
130	0xbcc057e0	-0.023479402
131	0x3d1c2e02	0.038129814
132	0xbd8d50da	-0.06900187
133	0xbb555206	-0.003255011
134	0x3ddc4c87	0.10756784
135	0x3d9cec81	0.07662297
136	0xbd60f514	-0.054921225
137	0x3dc40dd7	0.09572952
138	0x3e0e4dff	0.1389694
139	0xbbdcd086	-0.006738725
140	0xbdc19389	-0.09451968
141	0xbdccfeb3	-0.100095175
142	0xbdadf854	-0.084946305
143	0x3e05fd65	0.13084944
144	0xbe59e2be	-0.21277902
145	0xbd799177	-0.06092974
146	0xbd9d41fa	-0.076786
147	0x3d99c9b6	0.075091764
148	0x3e6b1fd7	0.22961365
149	0x3db80d7f	0.08986949
150	0xbd458ffc	-0.048233017
151	0xbd672fef	-0.056442197
152	0x3e585d74	0.211294
153	0xbddc8ba3	-0.10768821
154	0x3c9ba55d	0.01899975
155	0xbdf78afa	-0.120870546
156	0x3e4e6061	0.20153953
157	0xbd08e1aa	-0.033418335
158	0xbdb0790b	-0.08616837
159	0x3cf65379	0.0300691
160	0xbcdf6790	-0.027271062
161	0xbdfd4bd9	-0.123679824
162	0xbd6865bf	-0.056737658
163	0x3c0041c8	0.0078281835
164	0x3db256dd	0.08707974
165	0x3e272675	0.16323264
166	0xbd8640f8	-0.065553606
167	0xbd8e0973	-0.06935396
168	0xbd1461cb	-0.036226075
169	0xbd48f7a5	-0.049064297
170	0xbe4a9615	-0.19783814
171	0x3d844eb2	0.064603224
172	0x3d9cdf06	0.07659726
173	0x3de8a36a	0.11359294
174	0x3e031e78	0.12804592
175	0x3db79d95	0.08965603
176	0x3dccec7c	0.10006043
177	0x3e14ccae	0.14531204
178	0x3e160cce	0.14653322
179	0x3debd330	0.1151489
180	0x3e844cf7	0.2583997
181	0x3d77825e	0.060427062
182	0xbd8ad698	-0.06779212
183	0xbe9caf17	-0.30602333
184	0x3ed1992b	0.4093717
185	0x3e85b0f7	0.26111576
186	0x3eabea59	0.3357723
187	0x3ca93e1c	0.020659499
188	0xbc867fa5	-0.016418288
189	0x3e170121	0.14746524
190	0xbd6f8612	-0.05847747
191	0xbdf46056	-0.11932437
192	0xbeeecb93	-0.4663969
193	0x3e6f0121	0.23340274
194	0x3e0d1679	0.13778104
195	0x3de943ba	0.11389871
196	0xbe156e80	-0.14592934
197	0xbdc2778f	-0.0949546
198	0x3dc0ace3	0.094079755
199	0x3cd74e1d	0.026282365
200	0xbc3e9b11	-0.01163365
201	0xbd9f6c02	-0.07784273
202	0x3dcbbbda	0.09947939
203	0x3d8281ac	0.06372389
204	0x3d280efb	0.04102991
205	0x3cbfdaf6	0.023419838
206	0xbcba68b1	-0.022754999
207	0x3c9edcd0	0.019392401
208	0x3cf4e94b	0.029896399
209	0x3dd85c33	0.105644606
210	0x3e115174	0.14191228
211	0xbe082dd4	-0.13298732
212	0xbdadaff0	-0.08480823
213	0xbcb28ba6	-0.021795105
214	0xbd833b55	-0.06407801
215	0x3e259b87	0.1617261
216	0xbdc61e30	-0.096737266
217	0xba5709c4	-0.00082030543
218	0xbd7fb805	-0.062431354
219	0x3b50cb25	0.0031859365
220	0xbda13828	-0.07872039
221	0xbe15b3a8	-0.14619315
222	0x3c907cb2	0.017637584
223	0xbb84817c	-0.004043756
224	0x3e4529c5	0.19254215
225	0xbc6ef8b5	-0.014585664
226	0x3db2ac94	0.08724323
227	0x3deb37a7	0.11485224
228	0xbcb4b769	-0.022060113
229	0x3f063d05	0.5243686
230	0xbefc1d4b	-0.492411
231	0x3d9168e4	0.071000844
232	0xbf170562	-0.5899259
233	0x3eb3b4ae	0.35098785
234	0x3cb34c07	0.021886839
235	0x3c5fe72a	0.013665954
236	0x3b4dc4c0	0.003139779
237	0x3d526720	0.05136788
238	0x3de69639	0.112591214
239	0xbe330270	-0.17481399
240	0x3d73220b	0.059358638
241	0xbe0673ba	-0.13130084
242	0x3e088cc3	0.13334946
243	0x3c58ff1c	0.013244417
244	0x3df2287e	0.118241295
245	0x3de407a1	0.111342676
246	0x3b6bc83b	0.00359775
247	0xbd9c1ec9	-0.07623059
248	0xbc333ab8	-0.010939293
249	0xbe0667ff	-0.13125609
250	0xbd0ccf0f	-0.034377154
251	0xbd712c80	-0.05888033
252	0xbe61eefc	-0.22063822
253	0x3dff84e5	0.124765195
254	0x3e8131e3	0.25233373
255	0xbe32476d	-0.1741006

conv1.bias f4 [32]
0	0xbd911b13	-0.07085242
1	0x3e02ac3e	0.12761018
2	0x3e1b7ac3	0.15183549
3	0x3c97ab8c	0.018514417
4	0xbe044b1d	-0.12919278
5	0x3c6d8987	0.014498121
6	0x3c42ff39	0.01190167
7	0x3df45535	0.119303145
8	0x3d9d897c	0.07692239
9	0xbda8d5d8	-0.082439125
10	0x3e9cd034	0.30627596
11	0xbc0a49c4	-0.008440439
12	0xbdf0724e	-0.11740552
13	0xbce447b8	-0.02786623
14	0x3bc115d0	0.005892493
15	0x3e7ee99e	0.24893805
16	0xbd2d9d9c	-0.042386636
17	0x3e85e1ae	0.26148742
18	0xbc5d3dc0	-0.013503492
19	0x3d0c6085	0.034271736
20	0x3e9450fa	0.2896803
21	0xbcacd180	-0.021095991
22	0xbd63a9a2	-0.055581696
23	0x3cef0c95	0.029180804
24	0xbc463dff	-0.012099742
25	0x3e4eb4ba	0.20186129
26	0x3e8b913b	0.2725924
27	0xbc1134ad	-0.008862657
28	0xbd347747	-0.044059064
29	0xbde8fc67	-0.11376267
30	0x3dfa4b46	0.122213885
31	0xbe030359	-0.12794246

conv2.weight f4 [64, 32, 3, 3]
0	0x3dd3c53c	0.10340354
1	0x3e07d5af	0.13265108
2	0x3e20c7db	0.15701239
3	0x3e0e052c	0.1386916
4	0x3a3b1776	0.000713698
5	0x3e1d3102	0.15350726
6	0xbb1db939	-0.00240667
7	0x3d9a0c21	0.07521845
8	0x3d620f26	0.055190228
9	0x3e176847	0.14785872
10	0xbe0bc69e	-0.13649985
11	0xbd1cdec4	-0.038298383
12	0xbce493ed	-0.027902568
13	0xb88335ba	-6.256574e-05
14	0xbe222ca4	-0.15837342
15	0x3af4aaca	0.0018666622
16	0x3d8ff106	0.070283934
17	0x3e2ae35f	0.16688298
18	0xbc7b9bc0	-0.015356958
19	0xbc255689	-0.010091432
20	0x3dc3635b	0.09540435
21	0xbda14c71	-0.07875908
22	0x3cde42cf	0.027131466
23	0xbcf8c092	-0.030365262
24	0xbd4bd8bf	-0.049767252
25	0xbdbff40c	-0.0937272
26	0xbd4cfb9f	-0.050044652
27	0x3d241714	0.04006107
28	0x3dc04156	0.09387462
29	0x3b5c3d2e	0.0033605802
30	0x3d293018	0.04130563
31	0xbe062d8b	-0.13103311
32	0x3de6d5e6	0.11271267
33	0xbe356d7c	-0.17717546
34	0x3df5def4	0.120054156
35	0xbe0bf3d2	-0.13667229
36	0x3ccee834	0.025257207
37	0x3c2d0122	0.010559352
38	0x3cb494c4	0.022043593
39	0x3c64d79f	0.013967424
40	0xbb8915e3	-0.0041835173
41	0x3cf8ec71	0.030386182
42	0xbd110365	-0.035403628
43	0x3c43eb73	0.011957991
44	0x3d3c46de	0.04596602
45	0xbd89d9ca	-0.06730993
46	0xbcb44f1c	-0.022010379
47	0x3bb024b7	0.0053754705
48	0x3d2acab3	0.041697215
49	0x3dc59db3	0.09649219
50	0xbdbe57af	-0.09294068
51	0xbd6fc321	-0.0585357
52	0xbc801fb8	-0.015640125
53	0xbe0b4df6	-0.13603958
54	0x3db61b45	0.0889192
55	0xbd24ffca	-0.040283002
56	0xbb7b5d7a	-0.0038355277
57	0xbe1b5d1c	-0.15172237
58	0x3d7bc2ca	0.061465062
59	0x3d89aac3	0.06722023
60	0x3c6a423a	0.014298016
61	0x3e07344d	0.13203545
62	0x3d32afcf	0.043624695
63	0xbcf1a0e3	-0.029495662
64	0xbe186cfa	-0.14885321
65	0x3d87d3cc	0.06632194
66	0x3db1239c	0.0864937
67	0x3dd31a78	0.10307783
68	0xbe4d0df8	-0.2002486
69	0x3e79b1b5	0.24384196
70	0x3d16908e	0.03675895
71	0xbe04db49	-0.12974276
72	0xbd4e1379	-0.05031154
73	0x3da1dd16	0.07903497
74	0xbd912873	-0.07087793
75	0x3db5da46	0.08879523
76	0x3d6b0078	0.057373494
77	0xbd52e739	-0.051490042
78	0xbdb3b9e3	-0.087756895
79	0x3de1b3c2	0.11020614
80	0x3e07619c	0.13220829
81	0xbd13c55c	-0.03607689
82	0x3ddd9ba6	0.10820703
83	0xbcee136d	-0.029061997
84	0xbd1cb7e8	-0.038261324
85	0xbd8dfe84	-0.06933311
86	0x3d614b14	0.05500324
87	0xbd6204b7	-0.055180278
88	0x3d87ac6c	0.06624684
89	0x3d9519c2	0.072803035
90	0x3c610af7	0.013735524
91	0xbdb144ce	-0.086557016
92	0x3cbcb83b	0.023037067
93	0x3dbd1fc2	0.09234573
94	0xbd6d0db9	-0.057874415
95	0xbd695a74	-0.05697103
96	0x3d1bdd26	0.0380527
97	0x3d9c6d39	0.0763802
98	0x3dca9f4b	0.09893664
99	0xbcc14546	-0.023592602
100	0xbdb74963	-0.08949544
101	0x3d145ee8	0.036223322
102	0x3d364f79	0.044509385
103	0x3d02df85	0.031951446
104	0x3dc10ff7	0.09426873
105	0xbd6071db	-0.05479608
106	0xbc9668dc	-0.018360548
107	0x3c9a5de5	0.0188436
108	0xbcbbbca0	-0.022917092
109	0xbcfc5b15	-0.03080515
110	0xbcc87025	-0.024467537
111	0x3cf06ef1	0.029349776
112	0xbe034d1e	-0.12822387
113	0x3db7366e	0.089459285
114	0xbde2f3d1	-0.110816605
115	0x3c05e716	0.008172771
116	0x3d74bb18	0.05974874
117	0xbd802ea8	-0.06258899
118	0x3b9943bf	0.0046772654
119	0x3d34ea9a	0.044169046
120	0x3e42f2cd	0.19037934
121	0xbc0e9839	-0.008703285
122	0xbd2d63a9	-0.04233137
123	0x3e337094	0.17523414
124	0xbd9368a0	-0.0719769
125	0x3e0c2d34	0.13689119
126	0xbd21f52a	-0.039540447
127	0x3e5b71a0	0.21430063
128	0x3e145193	0.14484243
129	0xbd2b16ef	-0.041769918
130	0x3da6efa4	0.081511766
131	0x3dc03416	0.093849346
132	0xbcaad88c	-0.02085521
133	0xbe4cb9cb	-0.1999275
134	0xbdae18fb	-0.085008584
135	0xbc74261d	-0.014901665
136	0x3d4fce75	0.050734002
137	0xbc00e8f2	-0.0078680385
138	0x3c797358	0.015225254
139	0xbd38f7c0	-0.045158148
140	0x3dcd1e3a	0.10015531
141	0xbdd25d70	-0.10271728
142	0x3d701d61	0.058621768
143	0x3da688d8	0.081315696
144	0xbd6e7aca	-0.05822257
145	0xbd839e5a	-0.064266875
146	0xbdd62b2b	-0.104574524
147	0xbca81506	-0.020517837
148	0x3d4f45c5	0.050603647
149	0x3bd94015	0.0066299536
150	0x3d2a47f9	0.041572545
151	0x3e4a4587	0.19753085
152	0x3e133f21	0.1437955
153	0x3d7b00eb	0.061280172
154	0x3d67a4ff	0.056553837
155	0xbda7a431	-0.08185614
156	0x39e8d832	0.00044411566
157	0xba6b5aca	-0.0008978067
158	0xbd8005ff	-0.06251144
159	0x3cd7a3ad	0.026323164
160	0xbbf1ed5c	-0.007383032
161	0x3d42eb40	0.047587633
162	0xbcfd627a	-0.030930746
163	0x3d5c04c0	0.053715467
164	0xbcf067ea	-0.029346425
165	0x3e2a084f	0.16604732
166	0x3e2dddf4	0.169792
167	0xbce78bb7	-0.028264863
168	0xbd6485b5	-0.055791575
169	0x3b811f5a	0.003940505
170	0xbdfd1751	-0.12357963
171	0xbdd9dc1e	-0.10637687
172	0x3d44947a	0.04799316
173	0x3ca317b8	0.01990877
174	0x3d8cd4b7	0.0687651
175	0xbd2440c6	-0.040100835
176	0xbb981200	-0.0046408176
177	0x3d620a05	0.055185337
178	0x3c5ad05e	0.013355343
179	0xbe4eab2b	-0.20182483
180	0xbdbb0445	-0.09131674
181	0xbd1fefdf	-0.03904712
182	0xbc20aed9	-0.009807312
183	0x3da56134	0.08075181
184	0xbdd586c6	-0.104260966
185	0xbdd8677b	-0.10566612
186	0x3d4c1770	0.04982704
187	0xbd61aeed	-0.055098463
188	0x3d1e98bc	0.038719878
189	0x3e62b569	0.22139515
190	0x3e2abe60	0.16674185
191	0x3dd62dee	0.10457979
192	0x3b9ae2fb	0.004726765
193	0xbd1d9437	-0.038471427
194	0xbdb72271	-0.08942116
195	0xbe4916dd	-0.19637628
196	0xbebe8885	-0.3721353
197	0x3dbc4493	0.09192767
198	0x3ddc454c	0.10755405
199	0xbc02fec3	-0.00799531
200	0x3aec7c49	0.0018042411
201	0x3d1a07ae	0.03760498
202	0xbb2a9d43	-0.0026033677
203	0x3d09a20a	0.033601798
204	0xbde606cd	-0.11231766
205	0xbd3b7d2d	-0.045773674
206	0x3dc12a00	0.09431839
207	0xbd29b8a4	-0.041435853
208	0x3dbcf7ae	0.09226929
209	0xbd91f28b	-0.071263395
210	0xbd46e2e7	-0.048556235
211	0x3d974d15	0.07387749
212	0x3d7cdd32	0.061734386
213	0xbdb71531	-0.08939589
214	0x3d7fd07a	0.062454678
215	0xbe33dfc8	-0.17565835
216	0x3d14e322	0.036349423
217	0x3e3db483	0.18525891
218	0xbcc1a7ca	-0.023639578
219	0x3dfb046f	0.12256705
220	0x3d1e07bc	0.038581595
221	0xbd962f92	-0.07333292
222	0x3d7efbdf	0.06225192
223	0xbdcb8a54	-0.09938493
224	0xbd10ebda	-0.035381176
225	0xbd461f34	-0.0483696
226	0x3c25ff42	0.010131659
227	0xbd1ebf94	-0.038756922
228	0xbe074edf	-0.1321368
229	0xb99e9421	-0.00030246473
230	0x3e0860d4	0.13318187
231	0xbe3d37ed	-0.18478365
232	0x3d5d5367	0.054034617
233	0x3e726c70	0.23674178
234	0xbda6f88d	-0.08152876
235	0x3d5e1343	0.05421759
236	0xbc895f6d	-0.016769135
237	0x3d118c3b	0.035534125
238	0xbca610df	-0.020271717
239	0xbb0b7f31	-0.0021285529
240	0xbdada795	-0.08479229
241	0xbe6bd326	-0.23029765
242	0x3dc3361f	0.09531807
243	0xbb8f1b2a	-0.004367252
244	0xbd5ef616	-0.054433905
245	0xbd1cfc06	-0.038326286
246	0x3d8c6867	0.06855851
247	0xbcf3164a	-0.029673714
248	0x3d0982b4	0.033571914
249	0x3dad45fd	0.08460615
250	0x3c9064d8	0.017626211
251	0x3dbaede5	0.09127406
252	0x3c8c2219	0.017106103
253	0x3d3e0776	0.046393834
254	0xbc9c271b	-0.019061616
255	0xbd6dda66	-0.05806961

conv2.bias f4 [64]
0	0xbd7cfe6d	-0.061766077
1	0x3d995d30	0.07488477
2	0xbd101eda	-0.035185672
3	0xbd45d3bb	-0.048297625
4	0x3df36431	0.11884344
5	0xbd505b04	-0.05086805
6	0x3cba836d	0.022767747
7	0xbc36a60d	-0.011147988
8	0x3c31d9cc	0.0108551495
9	0x38f8b7bc	0.00011859785
10	0x3d1dc7a6	0.038520478
11	0xbbffa6a1	-0.007801846
12	0x3d7a3a9b	0.061091047
13	0x3d101deb	0.035184782
14	0xbd36f5dd	-0.044668067
15	0x3d0041f7	0.03131291
16	0x3cf18f72	0.029487345
17	0xbd3378e6	-0.04381647
18	0x3caf610a	0.021408577
19	0x3dd1f79f	0.10252308
20	0x3bbeabc9	0.005818818
21	0x3d551565	0.052022357
22	0x3d416f8a	0.047225513
23	0xbd8deaeb	-0.06929573
24	0x3d0f7dd9	0.035032127
25	0x3d33af5f	0.04386842
26	0x3d036f2d	0.032088447
27	0x3db8f9b5	0.09032003
28	0x3cae930f	0.021310357
29	0x3d717d48	0.058957368
30	0x3d45a2f3	0.048251104
31	0x3cfd5934	0.030926324
32	0x3cc971a4	0.02459032
33	0xbb19faa2	-0.0023495336
34	0x3b664617	0.0035136992
35	0xbd0654d4	-0.032795742
36	0x3d20209a	0.03909359
37	0x3b8c2332	0.0042766565
38	0x3d8f3791	0.0699302
39	0x3de9087e	0.11378573
40	0x3dca4fa5	0.09878472
41	0xbcc89733	-0.02448616
42	0xbd9137e2	-0.07090737
43	0xbd919761	-0.07108951
44	0x3d652f05	0.055953044
45	0xbd1d2e4c	-0.03837423
46	0x3c8bc6d9	0.017062591
47	0xbc290413	-0.010315913
48	0x3d625642	0.055258043
49	0xbb943b1f	-0.0045236493
50	0x3c8af870	0.016964167
51	0x3b3ebc4d	0.0029103935
52	0x3d4ea756	0.050452553
53	0x3d9f8dc9	0.07790715
54	0xbbd57974	-0.0065147225
55	0x3d19c9b4	0.037545875
56	0x3c2060b6	0.009788683
57	0xbcd017f9	-0.025402056
58	0x3cb383ea	0.021913487
59	0xbc6a0513	-0.014283436
60	0x3ccec627	0.02524097
61	0xbd3ccaae	-0.046091728
62	0xbd4ba317	-0.04971608
63	0x3aa28e21	0.0012401977

conv3.weight f4 [128, 64, 3, 3]
0	0xbc3f2f83	-0.0116690425
1	0xbd24f9df	-0.04027736
2	0x3cb1abb9	0.021688329
3	0xbd4a93ce	-0.049457364
4	0xbd9e557b	-0.07731148
5	0x3b5ec488	0.0033991653
6	0x3c8a60de	0.016891893
7	0xbcf80fe6	-0.030281018
8	0x3dae55b8	0.08512443
9	0x3d180473	0.037113618
10	0xbc9ee6a5	-0.01939709
11	0xbc3ad127	-0.011402405
12	0x3bc8b197	0.006124686
13	0x3cd325d4	0.025774874
14	0x3ce077db	0.027400902
15	0xbc03f9fd	-0.008055207
16	0xbcb7707f	-0.02239251
17	0xbbd85aaa	-0.006602605
18	0xbd0fa84e	-0.035072617
19	0xbdc25b4b	-0.09490069
20	0xbdb4be0f	-0.08825313
21	0xbd82d1a6	-0.063876435
22	0x3d986639	0.074413724
23	0x3cb8e128	0.0225683
24	0xbd01eec3	-0.03172184
25	0xbc11e088	-0.00890363
26	0xbdc4f1f4	-0.096164614
27	0x3d4199cb	0.04726581
28	0x3d370f25	0.044692177
29	0x3cdd3e67	0.027007295
30	0x3db8bf1e	0.09020828
31	0x3be6c5ff	0.007042646
32	0x3d4a27fd	0.049354542
33	0x3c9fb52e	0.019495573
34	0x3d6b9dd5	0.057523567
35	0xbbf4ba36	-0.007468487
36	0x3cca9b59	0.024732279
37	0x3d5750c4	0.05256726
38	0x3c620a1d	0.0137963565
39	0xbca9f4a9	-0.020746546
40	0xbc752d3c	-0.014964398
41	0x3d2e468b	0.042547744
42	0xbbe571cb	-0.0070020906
43	0x3ca02235	0.019547561
44	0x3b0fa2a8	0.002191702
45	0x3d0e8ca0	0.03480208
46	0x3d84a67b	0.06477066
47	0x3beb7e75	0.0071867057
48	0x3d361e6b	0.044462603
49	0x3d3e331a	0.046435453
50	0x3cbabe26	0.022795748
51	0x3d5719ad	0.05251472
52	0x3d784f9c	0.060622796
53	0x3d72fd91	0.05932385
54	0xbc2714cd	-0.01019783
55	0x3c056add	0.008143154
56	0xbb020926	-0.0019841879
57	0x3bfbcd4a	0.0076843845
58	0x3d7149ec	0.058908388
59	0x38ff247f	0.000121661455
60	0x3d5e9f88	0.05435136
61	0x3d4c1fe2	0.049835093
62	0x3ce44da2	0.02786905
63	0x3ce02faa	0.027366478
64	0xbc8937d1	-0.016750248
65	0x3a3b995a	0.0007156335
66	0x3d1d0664	0.038336173
67	0xbc0cb1a7	-0.0085872775
68	0xba8a4f45	-0.0010552189
69	0xbc68c693	-0.0142075
70	0x3c54388e	0.012952937
71	0x3cc8044c	0.024416111
72	0x3a64e84a	0.00087321235
73	0x3c0016ee	0.007817967
74	0xbaf76efe	-0.0018877683
75	0xbb7db4b1	-0.0038712437
76	0xbd014f6e	-0.03156989
77	0xbcc1deae	-0.023665752
78	0x3d873694	0.06602207
79	0x3ce6a1d9	0.028153347
80	0xbcf2889e	-0.02960616
81	0x3d7e71cc	0.062120244
82	0x3d39e59c	0.04538499
83	0x3c1b67bb	0.0094851805
84	0x3ce0f884	0.027462251
85	0x3c8cb82f	0.01717767
86	0xbb287a47	-0.0025707649
87	0x3d9ca1c0	0.07648039
88	0xb9e67da9	-0.00043962643
89	0x3caf14f6	0.0213723
90	0x3d066426	0.032810353
91	0xbcb9506d	-0.022621358
92	0xb92d58b6	-0.00016531613
93	0xbc390a0c	-0.011293899
94	0xbbf5ccbc	-0.007501213
95	0x3d655a26	0.055994175
96	0x3c1d5bb3	0.009604382
97	0x3d48fcfe	0.049069397
98	0x3b055fdf	0.0020351333
99	0x3d3c69ee	0.04599946
100	0xbd0c28e6	-0.03421869
101	0x3dbb147d	0.09134767
102	0x3c299110	0.010349527
103	0x3da83382	0.08212949
104	0xbca382a5	-0.019959757
105	0x3ca863f7	0.02055548
106	0x3d56f827	0.05248275
107	0x3d95bead	0.07311759
108	0x3ba82abd	0.005132048
109	0x3c261290	0.010136262
110	0xbc153f63	-0.009109351
111	0x3d68d376	0.05684229
112	0x3c9d698f	0.019215373
113	0x3d1d0b8f	0.0383411
114	0x3d025d01	0.031826977
115	0x3cbfae3f	0.023398517
116	0x3d16bbdf	0.03680026
117	0xbc0b1e18	-0.008491062
118	0xbb0c8c56	-0.0021445951
119	0xbd0aa158	-0.033845276
120	0xbd356e58	-0.044294685
121	0x3c0de6dd	0.008660999
122	0xbced0e97	-0.028937621
123	0x3d35d323	0.04439081
124	0xb992861d	-0.00027947212
125	0x3d09c0c9	0.03363112
126	0x3d8ea6d5	0.069654144
127	0x3cce0d4b	0.025152823
128	0x3d1c2664	0.03812255
129	0x3d976c30	0.07393682
130	0x3daa3c2d	0.08312259
131	0x3d3ba5f1	0.04581255
132	0x3d89806b	0.06713947
133	0x3d017df3	0.031614255
134	0x3d3d62ea	0.04623691
135	0x3cee4acd	0.029088402
136	0xb9cd67e4	-0.00039178052
137	0x3c56e69b	0.013116504
138	0x3d85e330	0.06537473
139	0x393a0a19	0.00017742104
140	0xbd0b98ef	-0.034081396
141	0xbcd3dd5b	-0.025862386
142	0x3d220e48	0.0395644
143	0xbbf48c1d	-0.007462992
144	0xbc07b916	-0.008283874
145	0xbd3726f6	-0.04471489
146	0x3d6c988c	0.057762668
147	0xbd31deba	-0.0434253
148	0x3ce6ef2b	0.028190216
149	0x3db54ed4	0.08852926
150	0xbbbe3875	-0.00580507
151	0x3dbbc622	0.0916865
152	0xbdc54c27	-0.096336655
153	0x3d8c31dc	0.068454474
154	0xbd53b455	-0.05168565
155	0x3dca8057	0.0988776
156	0xbbf3d84e	-0.007441557
157	0xbcd4fadc	-0.025998525
158	0x3d442d6c	0.04789488
159	0x3df47a54	0.11937395
160	0xbd36c821	-0.04462445
161	0x3ded2c53	0.1158072
162	0xbd0d317d	-0.034471024
163	0x3ced69a1	0.028981032
164	0xbc244849	-0.010027
165	0xbc059020	-0.008152038
166	0xbddd7491	-0.10813249
167	0x3d761ef4	0.060088113
168	0x3c9b398a	0.018948335
169	0x3cfac29d	0.030610377
170	0x3d1ac6a7	0.037787106
171	0x3aec142d	0.0018011384
172	0x3d3cebca	0.046123303
173	0x3cb8cc91	0.022558482
174	0x3d563731	0.05229873
175	0x3d09720b	0.033556025
176	0x3ca63df6	0.020293217
177	0x3d09cb9f	0.033641454
178	0x3d71cdf7	0.059034314
179	0x3b9c2975	0.0047656843
180	0x3ca4769b	0.020076087
181	0xbcdd724e	-0.027032044
182	0x3d360ad4	0.04444392
183	0x3cb60e35	0.022223571
184	0xbd0706a9	-0.032965336
185	0x3c37d42f	0.011220022
186	0xbcba476f	-0.02273914
187	0xbb7cd82d	-0.0038581
188	0xbd2d2423	-0.04227079
189	0x3d37dd26	0.044888638
190	0x3d162235	0.036653716
191	0xbd4b8242	-0.04968477
192	0xbc25e79e	-0.010126023
193	0xbc8581b2	-0.016297195
194	0x3d8c58a2	0.06852843
195	0xbd5ae061	-0.05343664
196	0x3cac7b0e	0.02105477
197	0x3d61da89	0.055140052
198	0x3c2b9189	0.01047171
199	0x3d7432c4	0.059618726
200	0xbd416326	-0.047213696
201	0xbb3f3a50	-0.0029179044
202	0x3cfc493c	0.03079664
203	0xbd3ee364	-0.046603575
204	0xbc74ac6f	-0.0149336895
205	0x3dcf61ea	0.101260975
206	0xbd42fee2	-0.047606356
207	0xbd2f8ee7	-0.04286089
208	0x3bb61253	0.0055563836
209	0x3ccea638	0.025225744
210	0x3d761b6d	0.06008475
211	0x3d0f455e	0.034978263
212	0xbc057981	-0.008146645
213	0xbbbd5a00	-0.005778551
214	0x3d1268c7	0.035744455
215	0xbd8db152	-0.06918587
216	0xbccf735f	-0.025323568
217	0x3d2eee6a	0.042707838
218	0xbc9d0e59	-0.01917188
219	0x3cdd92a7	0.027047468
220	0x3b9e667a	0.0048339935
221	0x3c7c82c0	0.015412033
222	0xbcd48a78	-0.025944933
223	0xbc0dcca8	-0.008654751
224	0x3d135d33	0.035977554
225	0xbc74223d	-0.014900741
226	0x3c4c428a	0.012467036
227	0x39543853	0.00020238878
228	0x3d40b78e	0.04705005
229	0x3ce519c7	0.027966393
230	0x3cd0b487	0.025476707
231	0xbc165bfa	-0.009177202
232	0x3ce727d8	0.028217241
233	0x3d0793dc	0.033099994
234	0x3937dfad	0.00017535566
235	0x3d8aa069	0.06768877
236	0xbcb39d52	-0.021925602
237	0xbc73a5ec	-0.014871102
238	0xbd2d0bb1	-0.042247478
239	0x3cd49ff0	0.02595517
240	0xbbc8fd7b	-0.006133733
241	0x3d13a01d	0.036041368
242	0xbcbda840	-0.023151517
243	0x3d12c284	0.035830036
244	0xbc6e2b15	-0.014536639
245	0x3c741248	0.014896937
246	0x3d56569b	0.052328687
247	0xbc0cfec0	-0.008605659
248	0xbc58887a	-0.013216132
249	0x3c6c142c	0.014409106
250	0x3d2ab6eb	0.04167835
251	0x3d16f5c1	0.036855463
252	0xbcbec6ba	-0.02328812
253	0xbd9ac9f9	-0.075580545
254	0xbd4ad964	-0.049523726
255	0xbcdc47f4	-0.026889779

conv3.bias f4 [128]
0	0x3c50061c	0.012696769
1	0x3d027cda	0.03185735
2	0xbd147b72	-0.03625054
3	0xbc225c4e	-0.009909702
4	0x3b0719fa	0.0020614848
5	0x3d5329d0	0.051553547
6	0xa371ba82	-1.3104131e-17
7	0xb7c61787	-2.3614395e-05
8	0xbcfefd6b	-0.031126698
9	0x3c38524d	0.011250091
10	0x3d444373	0.047915887
11	0x3c59c07e	0.013290523
12	0x3ce87d1b	0.028379967
13	0x3b25de7b	0.002530961
14	0xbc307694	-0.010770459
15	0x3c4f0f20	0.012637883
16	0xbce1fa84	-0.027585275
17	0x3cabb734	0.020961381
18	0xac781978	-3.5257058e-12
19	0xa86eb1f6	-1.3250243e-14
20	0x3cf0c6a9	0.029391604
21	0x3c20934f	0.009800746
22	0x3c60d9e4	0.013723824
23	0xbd35401d	-0.044250596
24	0xb698e49c	-4.5565666e-06
25	0xbd661a9e	-0.056177728
26	0xaa24086c	-1.4569048e-13
27	0xb0182d5a	-5.5361726e-10
28	0x3c2f9db8	0.010718755
29	0x3bdad19f	0.006677821
30	0xb2c787b3	-2.3228358e-08
31	0x3cafc87c	0.021457903
32	0x3b7af6f8	0.0038294178
33	0xbcc105f4	-0.023562409
34	0x3c00f558	0.0078709945
35	0x3ca1020a	0.019654293
36	0xbd29bcc5	-0.04143979
37	0xbccd6644	-0.025073178
38	0xb8955a03	-7.12164e-05
39	0xb3f6121f	-1.1458564e-07
40	0xbd732246	-0.059358858
41	0x38c0102c	9.158286e-05
42	0x3d4ec731	0.050482932
43	0xba3ab8b7	-0.00071228616
44	0xbba4caf6	-0.0050290776
45	0x3bb9913c	0.0056630652
46	0x3caac7be	0.020847198
47	0xafa8898c	-3.0656755e-10
48	0xbc8e5539	-0.017374622
49	0x3cc87505	0.024469862
50	0xbbc64aaa	-0.006051381
51	0x3c5e6b7d	0.013575432
52	0xbb3888bc	-0.0028157672
53	0xbc0fdcdb	-0.008780683
54	0xb086825c	-9.786834e-10
55	0xbc719f41	-0.014747442
56	0xbb9425fe	-0.0045211306
57	0xbd079c81	-0.033108238
58	0x3b914229	0.0044329357
59	0x3c97368c	0.018458627
60	0x3cfbdc29	0.030744629
61	0xbd227c8d	-0.039669562
62	0x3cddb2b1	0.027062746
63	0x3b1c1bff	0.0023820398
64	0x3c833a08	0.016018882
65	0x3d94bb15	0.072622456
66	0x3c7891fe	0.015171526
67	0x3ca3fd91	0.02001837
68	0xbcee4289	-0.02908446
69	0xbbe61d61	-0.007022545
70	0x3c74dc78	0.014945142
71	0xbc9f9e08	-0.019484535
72	0xbbadb0f2	-0.0053006345
73	0x3d378410	0.04480368
74	0xbcd7a8b0	-0.026325554
75	0xbc5303a7	-0.012879289
76	0xbcaca575	-0.02107499
77	0xb1381378	-2.678659e-09
78	0x3c88a973	0.016682362
79	0xbc3c9299	-0.011509561
80	0x3d158dc1	0.03651214
81	0x3d4871a8	0.048936516
82	0x9d079f84	-1.7949569e-21
83	0x3c98dbbe	0.018659469
84	0x3d87e4cf	0.06635439
85	0x3d0eabda	0.03483186
86	0xbcdb0815	-0.026737252
87	0xbbdf8e21	-0.006822363
88	0xbd2d83a5	-0.042361874
89	0xbb53040f	-0.0032198464
90	0x3c03f777	0.008054606
91	0xbdafe4eb	-0.085885845
92	0xbbf876ac	-0.007582506
93	0x3d621e17	0.055204477
94	0x3c96b375	0.018396119
95	0x3c89ee7d	0.016837353
96	0xa92f722b	-3.895683e-14
97	0xba1e979e	-0.00060498144
98	0xa8d7e360	-2.3968403e-14
99	0xbd35d064	-0.04438819
100	0xbd69cba4	-0.057078972
101	0x3abb6923	0.0014298301
102	0xae500f70	-4.7307436e-11
103	0x3d821838	0.063522756
104	0x3d6a55c1	0.057210688
105	0x3b83d5a1	0.0040232693
106	0x3d6ed26a	0.058306135
107	0xb41c3787	-1.4548833e-07
108	0xb8d006e0	-9.9194935e-05
109	0xbb45ed89	-0.0030201396
110	0x3ce509f3	0.027958846
111	0xbc17dc1a	-0.009268785
112	0x3c9ce604	0.019152649
113	0x3ccfac29	0.025350647
114	0x3cddfd87	0.02709843
115	0xbb9b185c	-0.0047331285
116	0x3cbb476d	0.022861207
117	0xbce1d7ac	-0.02756866
118	0xb7a92ec9	-2.0168156e-05
119	0x3c6e80ba	0.014557058
120	0x3c3ff9e3	0.0117172925
121	0xbb06d6ea	-0.0020574876
122	0xbde9946d	-0.11405263
123	0xad03ef3e	-7.49961e-12
124	0x3d9769d8	0.07393235
125	0xba7f75d5	-0.00097450364
126	0xbd25a7bf	-0.04044318
127	0x3bd83d92	0.0065991366

act_conv1.weight f4 [4, 128, 1, 1]
0	0x3c9e52fa	0.019326676
1	0x3e0022b3	0.12513237
2	0xbdecddba	-0.115657285
3	0x3d55fdfb	0.052244168
4	0x3e147f04	0.14501578
5	0xbdd27a74	-0.10277262
6	0x3b861317	0.004091631
7	0x3ab6061d	0.001388732
8	0xbdb5e9d6	-0.08882491
9	0x3dfa8c2d	0.12233768
10	0xbd3c6478	-0.045994252
11	0x3d9e33d0	0.07724726
12	0x3d86b444	0.06577352
13	0xbcbb1864	-0.022838779
14	0xbd338337	-0.043826308
15	0x3be4b167	0.006979156
16	0x3d6bbba1	0.057551984
17	0x3e077da7	0.13231526
18	0x3a00c5da	0.00049122947
19	0x800089d2	-4.944e-41
20	0x3daafb4d	0.08348713
21	0x3d97bff8	0.07409662
22	0x3dda0c5b	0.10646888
23	0x3e49519e	0.1966004
24	0x80008ac2	-4.9777e-41
25	0xbd641ac3	-0.055689584
26	0xbb0cf2d2	-0.0021507037
27	0x0000897a	4.9317e-41
28	0x3cb334bd	0.021875734
29	0x3d5c3deb	0.053769987
30	0x39b34dc7	0.0003419949
31	0x3d1db5f7	0.038503613
32	0xbd740e55	-0.05958398
33	0x3bd26a4d	0.0064213634
34	0x3e88e9ae	0.26740783
35	0x3d4378c1	0.04772258
36	0x3e0c9884	0.13730055
37	0xbdaf8e2e	-0.085720405
38	0x3aaf6f06	0.0013384528
39	0x000088c1	4.9058e-41
40	0x3db1efd8	0.08688325
41	0x3d8b6578	0.06806463
42	0x3db4a81f	0.08821129
43	0xbe36f939	-0.17868508
44	0xbe0b9e7c	-0.13634676
45	0x3d0822bf	0.03323626
46	0x3d9b13fe	0.075721726
47	0xb9b8db10	-0.0003525843
48	0x3e1e81ed	0.1547925
49	0xbdb443c5	-0.088019885
50	0x3e5b1745	0.21395595
51	0x3ea13403	0.31484994
52	0x3d9f3d65	0.07775382
53	0xbd04b98a	-0.032403506
54	0x000088f0	4.9124e-41
55	0xbcfaf3b7	-0.03063379
56	0xbd6dbd08	-0.058041602
57	0xbd7c9c68	-0.061672598
58	0xbd79584d	-0.060875226
59	0xbcdde4bd	-0.02708661
60	0xbd9c7336	-0.07639162
61	0xbcd91a12	-0.02650169
62	0xbe0e35a5	-0.13887651
63	0x3bcbe69a	0.006222558
64	0x3df644f7	0.12024873
65	0x3e8f51dd	0.27992144
66	0x3b8be228	0.0042689033
67	0x3e12e881	0.14346506
68	0x3dfe457e	0.12415598
69	0xbde25c4e	-0.11052762
70	0x3de622c9	0.112371035
71	0x3e077bd2	0.13230827
72	0xbcfe7320	-0.031060755
73	0xbcd5972b	-0.026073059
74	0x3cab3ca9	0.020902948
75	0x3e18a975	0.14908393
76	0x3d85f95b	0.065417014
77	0xa46d9366	-5.1516034e-17
78	0x3a796bfd	0.00095146877
79	0x3ea8bfd4	0.32958853
80	0x3c6c0aad	0.014406842
81	0x3d932f3b	0.07186743
82	0x8000897b	-4.9319e-41
83	0xbd208bd2	-0.039195843
84	0xbdf52ec5	-0.11971811
85	0x3dec63f4	0.11542502
86	0x3d7157c9	0.05892161
87	0xbd7eecc6	-0.062237523
88	0x3d8ea9a8	0.06965953
89	0x3daecdf8	0.08535379
90	0x3dad22e6	0.08453922
91	0xbdcf4b98	-0.1012184
92	0x3a52b37d	0.000803761
93	0x3be78d9b	0.0070664412
94	0xbd144014	-0.036193922
95	0x3d9d4a87	0.076802306
96	0x80008a87	-4.9694e-41
97	0x3e15470e	0.14577886
98	0xba60ea06	-0.0008579794
99	0xbe3d998a	-0.18515602
100	0xbc86255d	-0.016375238
101	0x3de74b2e	0.11293636
102	0xb9aa2d78	-0.00032458804
103	0x3c0bae9f	0.00852552
104	0xbdfa22a8	-0.122136414
105	0xbc909e70	-0.017653674
106	0x3df195b6	0.11796133
107	0x80008a20	-4.955e-41
108	0x3a9eb6bf	0.0012108906
109	0x800089f6	-4.9491e-41
110	0x3dd5bbb2	0.10436191
111	0xbe24dd62	-0.16100076
112	0x3d104258	0.03521952
113	0x3df7d2fe	0.121007904
114	0x3e32fbbd	0.17478843
115	0xbc1a8856	-0.009431919
116	0x3dbbeee5	0.09176425
117	0xbcaba2af	-0.020951597
118	0x800088d1	-4.908e-41
119	0xbd981944	-0.07426694
120	0xbda780d6	-0.081788704
121	0x3e814fda	0.25256234
122	0xbd2452fe	-0.04011821
123	0x8000895c	-4.9275e-41
124	0xbd585a02	-0.052820213
125	0xbdbaf661	-0.09129024
126	0x3e08af08	0.13348019
127	0xbd1731e0	-0.0369128
128	0x3cc94242	0.024567727
129	0xbd2ec22a	-0.042665638
130	0x3dcc17fa	0.09965511
131	0xbc839d3d	-0.016066188
132	0x3cb872c2	0.022515658
133	0xbbce1a42	-0.0062897513
134	0xbb61ce0b	-0.0034455087
135	0xb58ea85d	-1.0628825e-06
136	0xbe5ff407	-0.21870433
137	0x3c2be4bf	0.010491549
138	0x3bf1286d	0.0073595555
139	0xbd2bf132	-0.04197807
140	0xbcfeaaa0	-0.03108722
141	0xbcb600e6	-0.022217225
142	0x3d986b02	0.07442285
143	0xbe5e5ad2	-0.21714333
144	0xbe1f4ea3	-0.15557341
145	0xbdda2f15	-0.106535114
146	0x000089f0	4.9483e-41
147	0x80009073	-5.1819e-41
148	0xbaa821e6	-0.0012827485
149	0xbd1817f5	-0.037132222
150	0x3b9d5728	0.0048016496
151	0x3e35c29a	0.17750016
152	0x800089f2	-4.9485e-41
153	0x3c9c71ee	0.019097295
154	0xb740c437	-1.1489777e-05
155	0x800088b9	-4.9047e-41
156	0x3e7ffdff	0.24999236
157	0xbd41c49d	-0.047306646
158	0xa5573663	-1.8666704e-16
159	0x3cea18e9	0.028576331
160	0x3d173893	0.036919188
161	0x3cbce922	0.023060385
162	0x3e12c5f5	0.14333327
163	0xbd00805c	-0.031372413
164	0xbe25c671	-0.1618898
165	0x3dab1729	0.08354027
166	0xb76d6b96	-1.415135e-05
167	0x800089d3	-4.9442e-41
168	0x3d2a5353	0.04158337
169	0xbe60273c	-0.21889967
170	0x3c7b35b3	0.015332627
171	0x3db07dcd	0.086177446
172	0x3e8b6d13	0.27231655
173	0x3cbff6b6	0.02343307
174	0xbd249806	-0.040184043
175	0xba9577eb	-0.0011403536
176	0x3dac5cb0	0.08416116
177	0x3d95f910	0.073228955
178	0xbc9f4ea8	-0.019446686
179	0x3d547a65	0.051874537
180	0xbdb80dfd	-0.08987043
181	0x3a975350	0.0011545215
182	0x00008a49	4.9607e-41
183	0xba0188a1	-0.0004941319
184	0xb7c18a7a	-2.3071876e-05
185	0x3d87b78f	0.06626808
186	0xbdb53dfa	-0.08849712
187	0xbba525d7	-0.0050399113
188	0x3dd1a69f	0.102368586
189	0xbe6014da	-0.21882954
190	0x3eaac369	0.3335221
191	0x3bccadff	0.006246328
192	0x3ec546b3	0.38530502
193	0xbd980293	-0.07422366
194	0x3d6be4b0	0.05759114
195	0xbbb67bc6	-0.005568954
196	0x3d819e11	0.06328977
197	0x3dbb6029	0.091492005
198	0x3e2abae8	0.16672862
199	0x3e2c4b8e	0.16825697
200	0xbab03598	-0.0013443707
201	0x39b2013c	0.00033951725
202	0xbdef0836	-0.11671488
203	0xbe2b47cb	-0.16726606
204	0x3e4c0ff9	0.19927968
205	0x800088e7	-4.9111e-41
206	0x3e83eeaf	0.2576804
207	0x3d920630	0.071300864
208	0x3dde6f30	0.10861051
209	0xbcf82f88	-0.030296102
210	0x80008c22	-5.027e-41
211	0x3ce0afd4	0.027427591
212	0x3ce0ebb0	0.027456135
213	0xbba410ab	-0.00500687
214	0xbd41c52f	-0.04730719
215	0x3d044361	0.03229082
216	0x3e3d1991	0.18466784
217	0x3d7ac523	0.06122316
218	0x3d447e2c	0.04797189
219	0x3da2d08b	0.07949933
220	0x3db5d1e4	0.08877924
221	0xbd1a112c	-0.037614033
222	0x3cc37fc7	0.02386464
223	0xbdb2300f	-0.08700573
224	0x0000940a	5.3106e-41
225	0x3d85c6af	0.065320365
226	0x155d60fd	4.4707105e-26
227	0x3d86b194	0.06576839
228	0xbe169b0c	-0.14707583
229	0xbd818642	-0.06324436
230	0x800088f3	-4.9128e-41
231	0xbc0f3891	-0.008741514
232	0x3be2864b	0.0069129816
233	0x3df71d0e	0.120660886
234	0xbd1ee147	-0.03878906
235	0x80008b02	-4.9867e-41
236	0x80008926	-4.92e-41
237	0x0000a90c	6.0643e-41
238	0x3cf2577f	0.029582737
239	0x3d7bef4f	0.06150752
240	0x3d992875	0.0747842
241	0xbd42a02e	-0.04751604
242	0xbe1ffc24	-0.15623528
243	0x3c600605	0.01367331
244	0xbcebba51	-0.028775366
245	0x3da2fea0	0.07958722
246	0x80008a95	-4.9714e-41
247	0xbcd01080	-0.025398493
248	0x3c85349d	0.01626044
249	0xbb479e70	-0.0030459426
250	0x3dce72b4	0.10080472
251	0x80008a79	-4.9675e-41
252	0x3b90f656	0.004423897
253	0x3d7fef1b	0.062483888
254	0x3dbc2269	0.09186251
255	0xbd0653cf	-0.03279477

act_conv1.bias f4 [4]
0	0x3d1e0ede	0.038588397
1	0x3b3b0293	0.002853547
2	0xbc5e9575	-0.013585438
3	0x3e02fe37	0.12792288

act_fc1.weight f4 [81, 324]
0	0x3d473ddd	0.04864298
1	0x3ccb8b62	0.024846736
2	0x3d185cbd	0.037197817
3	0xbc01bdd7	-0.0079187965
4	0x3cace5e5	0.021105716
5	0xb7843492	-1.5760106e-05
6	0xba7309dd	-0.0009271184
7	0x3c6a4b9f	0.014300256
8	0xbd8614df	-0.065469496
9	0x3d257c0c	0.040401503
10	0xbb4c41f9	-0.0031167252
11	0xbd4a1f43	-0.04934622
12	0xbd83337d	-0.06406305
13	0xbcca7078	-0.024711832
14	0xbca7734b	-0.020440718
15	0xbc8e6fd5	-0.01738731
16	0x3a423dcc	0.0007409721
17	0x3c8fb821	0.017543854
18	0x3cba3fb0	0.022735447
19	0x3cd4a45c	0.025957279
20	0xbd3c46db	-0.04596601
21	0xbd476e04	-0.048688903
22	0xbd471943	-0.048608076
23	0xbd9fd04f	-0.078034036
24	0x3d4e2d4f	0.05033618
25	0xb9d39bf0	-0.0004036124
26	0x3b5913f3	0.0033123463
27	0x3d096fb5	0.033553798
28	0xbd396209	-0.04525951
29	0xbcbeb67c	-0.023280375
30	0xbda3b114	-0.07992759
31	0xbd4d4eeb	-0.05012409
32	0x3c286056	0.0102768745
33	0xbda90489	-0.08252818
34	0x3bfb25b4	0.0076644067
35	0xbd26a587	-0.040685203
36	0x3a4e5fdd	0.0007872561
37	0xbce023b2	-0.02736077
38	0xbdad3481	-0.0845728
39	0xbdd400f6	-0.10351746
40	0xbcabd9fe	-0.02097797
41	0xbd8c9420	-0.0686419
42	0xbdaccefe	-0.08437918
43	0xbd04b4b7	-0.032398906
44	0xbca11aa0	-0.019666016
45	0x3d6eb0bb	0.058274012
46	0xbd88da65	-0.066822805
47	0xbd6e4e1d	-0.058179963
48	0xbd90eab0	-0.07076013
49	0xbe2b7c86	-0.1674672
50	0xbd046acf	-0.032328423
51	0xbd2f34d9	-0.04277501
52	0xbd62e021	-0.055389527
53	0x3a2e5ff7	0.0006651873
54	0x3dd6701f	0.10470604
55	0x3c564691	0.013078348
56	0xbd94d27e	-0.07266711
57	0xbdb9fe23	-0.09081676
58	0xbd40dd77	-0.047086205
59	0xbd1eada9	-0.038739834
60	0xbcb30114	-0.0218511
61	0xbd574e4e	-0.05256491
62	0xbd37057e	-0.044682972
63	0x3e8dc326	0.2768795
64	0xbdcce0c8	-0.10003811
65	0xbb2587a2	-0.0025257845
66	0xbceda543	-0.029009467
67	0xbdcd2fff	-0.1001892
68	0xbbe3e3c2	-0.006954641
69	0xbca0102e	-0.019538965
70	0x3a434028	0.00074482197
71	0x3c1b4956	0.009477934
72	0x3e930d68	0.28721166
73	0x3e96c820	0.29449558
74	0xbd409ded	-0.04702561
75	0xbbcd142c	-0.006258508
76	0x3bdd46f3	0.0067528426
77	0xbc8257aa	-0.015910942
78	0xbcdb0c70	-0.02673933
79	0x3cfaacda	0.0306
80	0x3c67f267	0.014156914
81	0xbc5f82b7	-0.013642005
82	0xbb9c9a1f	-0.004779115
83	0xbc630441	-0.013855995
84	0x3d68ef78	0.056869
85	0x3d408df0	0.047010362
86	0xbd0e1a48	-0.034693033
87	0x3bfdb7dd	0.0077428655
88	0xbd1c76dd	-0.038199294
89	0x3dc5fcbb	0.09667345
90	0xbc2ccccd	-0.010546875
91	0xbbe69663	-0.0070369705
92	0xbb8834c6	-0.0041566817
93	0x3d0ee44c	0.03488569
94	0x3cc911c0	0.024544597
95	0x3d363fc4	0.044494405
96	0xbcd6040a	-0.026124973
97	0xbd44fa22	-0.048090108
98	0xbc6038fb	-0.01368546
99	0x3d3f3433	0.04668064
100	0x3bf3b50c	0.007437354
101	0xbd289b93	-0.041163992
102	0x3c1be05f	0.009513943
103	0x3c9e0166	0.019287776
104	0x3ca70e0d	0.020392442
105	0x3c9ea6ed	0.019366706
106	0x3d255913	0.04036815
107	0x3cd4030b	0.025880357
108	0x3cacc884	0.021091707
109	0xbd13dd7b	-0.036099892
110	0xbd3aa0c3	-0.04556347
111	0xbd990e65	-0.07473449
112	0xbb0620b7	-0.0020466277
113	0xbd8b36c2	-0.067975536
114	0xbc09b7af	-0.00840561
115	0xbbbe3374	-0.0058044735
116	0xbd2ae90b	-0.041726153
117	0xba0275b6	-0.0004976647
118	0xbbd7c2d8	-0.0065845065
119	0xbd0d8c50	-0.03455764
120	0x3d6e5e19	0.058195207
121	0xbc0d50ce	-0.008625222
122	0x3cbeb779	0.023280846
123	0xbca45a6e	-0.020062651
124	0x3d2450b4	0.040116027
125	0x3d404e1b	0.046949487
126	0xbdb10bbd	-0.08644817
127	0x3d0c4841	0.034248594
128	0x3e01a95a	0.12662259
129	0x3c85b74f	0.01632276
130	0xbd08793f	-0.033318754
131	0xbd32b025	-0.043625016
132	0xbc8161df	-0.015793739
133	0x3c97c367	0.018525792
134	0x3ddfb458	0.1092307
135	0xbc12c1e5	-0.008957361
136	0xbaf6f78f	-0.0018842089
137	0x3c6a916a	0.014316896
138	0x3d13234b	0.03592233
139	0xbc99ffa9	-0.018798666
140	0xbd3c7857	-0.046013203
141	0xbd916b67	-0.071005635
142	0xbc259eee	-0.010108693
143	0x3d0856e1	0.03328598
144	0xbe69fa2c	-0.22849339
145	0xbc1d0be7	-0.009585357
146	0xbc9df50d	-0.019281888
147	0xbca904b4	-0.020632125
148	0x3cc4dfce	0.0240325
149	0xbc854a03	-0.016270643
150	0xbceb4484	-0.028719194
151	0xbbb406e7	-0.005493987
152	0xbd02e307	-0.03195479
153	0xbe14697c	-0.14493364
154	0xbe0d52d7	-0.13801132
155	0x3c48a6de	0.0122468155
156	0x3c5293a1	0.01285258
157	0x3d01a201	0.03164864
158	0x3d4877e6	0.04894247
159	0xbb7efdec	-0.0038908673
160	0xbc81448c	-0.015779756
161	0x3d0a27d6	0.033729397
162	0x80008966	-4.9289e-41
163	0x931bc52f	-1.966097e-27
164	0x1991301b	1.5012078e-23
165	0x256ffc48	2.0815422e-16
166	0x20081ad6	1.1528527e-19
167	0x24242001	3.558894e-17
168	0x1cae8696	1.1549144e-21
169	0x1ed79c27	2.2828594e-20
170	0x92063d63	-4.235861e-28
171	0x138cba1f	3.55245e-27
172	0x27e6aaea	6.402313e-15
173	0x2cb727ba	5.2055834e-12
174	0x30be2d9e	1.3837285e-09
175	0x2dbd11e4	2.1494757e-11
176	0x2efd256b	1.1511755e-10
177	0x2aa9b661	3.0146981e-13
178	0x2a486e9b	1.7801942e-13
179	0x1f7bd28b	5.3325475e-20
180	0x91fcbf86	-3.9876625e-28
181	0x2e7bc6fb	5.7247523e-11
182	0x31913c93	4.226942e-09
183	0x328ebf23	1.6617895e-08
184	0x32435f8a	1.1372217e-08
185	0x31212f2b	2.3455395e-09
186	0x309c37eb	1.1366387e-09
187	0x2e1714bc	3.435184e-11
188	0x2455a200	4.6324232e-17
189	0x1c7176e6	7.9893884e-22
190	0x305a99d5	7.9526546e-10
191	0x3033b473	6.5376254e-10
192	0x33d3daf4	9.8652805e-08
193	0x3186ce67	3.9233785e-09
194	0x3152110a	3.0568708e-09
195	0x2f352c7e	1.6477661e-10
196	0x2b16ec58	5.36187e-13
197	0x1f07b01a	2.873303e-20
198	0x92d33636	-1.3329336e-27
199	0x2e9f56bd	7.245891e-11
200	0x309743f7	1.1006013e-09
201	0x33da05ab	1.0152447e-07
202	0x2f415b06	1.7585586e-10
203	0x2f22f6ce	1.4821497e-10
204	0x272b8cde	2.3807381e-15
205	0x21805a40	8.697506e-19
206	0x93042962	-1.6681146e-27
207	0x8da95f6d	-1.0438402e-30
208	0x2ee5201a	1.0419417e-10
209	0x3082db39	9.521052e-10
210	0x329fb457	1.8592045e-08
211	0x303667d9	6.635879e-10
212	0x2b9b2a02	1.1025072e-12
213	0xa4a00656	-6.939967e-17
214	0x9e4db6bc	-1.0890398e-20
215	0x8737fe7b	-1.3842175e-34
216	0x0b0a8fd5	2.668604e-32
217	0x2c6fda8b	3.4085258e-12
218	0x2d10dbb9	8.2342405e-12
219	0x32d06d42	2.4264072e-08
220	0x2bca7fe7	1.4388463e-12
221	0x2aff1ed6	4.5318496e-13
222	0xa5a3263f	-2.830191e-16
223	0x9c8ddc44	-9.387535e-22
224	0x0e38b5f0	2.276735e-30
225	0x140a8c44	6.994882e-27
226	0x2446de56	4.3122732e-17
227	0x2b5da36e	7.8741777e-13
228	0x2c4c77eb	2.9056711e-12
229	0x28a8d6a4	1.8744832e-14
230	0xa5a52621	-2.8648775e-16
231	0xa4c6b879	-8.618132e-17
232	0x9888a98d	-3.532638e-24
233	0x92bfe7c4	-1.2110929e-27
234	0x07991a47	2.3036326e-34
235	0x1802367c	1.6829614e-24
236	0x1c2d0cd4	5.725748e-22
237	0x17c0b655	1.2453736e-24
238	0x975119a7	-6.756392e-25
239	0x969e4bd0	-2.557412e-25
240	0x19867ca0	1.3905611e-23
241	0x919b966d	-2.4547395e-28
242	0x800088cb	-4.9072e-41
243	0x3db150bc	0.08657977
244	0x3d6c3f58	0.057677597
245	0x3b8b71e2	0.0042555192
246	0x3cd4d15b	0.025978735
247	0x3cf48716	0.02984957
248	0x3d25b6ea	0.040457644
249	0xbc767241	-0.015041889
250	0x3d56456e	0.052312307
251	0x3cfd0448	0.03088583
252	0x3c2f4a8a	0.010698924
253	0xbb00561c	-0.0019582575
254	0x3cb04008	0.021514907
255	0x3c90c86a	0.01767369

act_fc1.bias f4 [81]
0	0x3de2a5f5	0.1106681
1	0xbc633970	-0.013868675
2	0xbe2e7ffa	-0.17041007
3	0x3dec4192	0.11535944
4	0x3dfbed56	0.123011276
5	0x3dde37d9	0.10850496
6	0xbde56200	-0.11200333
7	0xbc8788ce	-0.016544726
8	0x3da5cbf4	0.080955416
9	0xbb9965b9	-0.0046813157
10	0xbd90913f	-0.070589535
11	0x3dcc51f0	0.09976566
12	0x3d53e2d0	0.051729977
13	0x3e7beaef	0.24601339
14	0x3d8da716	0.06916635
15	0x3d9ff067	0.07809525
16	0xbe2887d0	-0.16458058
17	0xbcb2453e	-0.021761533
18	0xbe1d3efd	-0.1535606
19	0x3e04222e	0.12903664
20	0x3b11b844	0.0022235075
21	0x3e56d5fc	0.20980066
22	0xbd9dc98e	-0.07704459
23	0x3e336e4d	0.17522545
24	0x3c213490	0.009839192
25	0x3e0c0e4e	0.13677332
26	0xbddb6340	-0.1071229
27	0x3d9ab624	0.07554272
28	0x3d17db68	0.037074476
29	0x3df193f3	0.11795797
30	0x3df9b0f8	0.12191957
31	0x3e44b5cb	0.19209974
32	0x3dbf62c6	0.093450114
33	0x3e2cb4fc	0.16865915
34	0x3d2e626d	0.042574335
35	0x3dd7096c	0.10499844
36	0x3dd495c9	0.10380132
37	0x3e4d86ab	0.20070903
38	0xbcce3b3a	-0.025174726
39	0x3e745f44	0.23864466
40	0xbd5b4c91	-0.053539816
41	0x3e8dd9d0	0.2770524
42	0xbda58241	-0.080814846
43	0x3e603e0e	0.21898672
44	0x3dbde44d	0.092720605
45	0x3d9ee26e	0.07758032
46	0x3d5a6d39	0.05332682
47	0x3e1343ed	0.1438138
48	0x3dd9e84d	0.10640011
49	0x3e7028f1	0.23453118
50	0x3d91c70e	0.07118045
51	0x3e438d5f	0.19096898
52	0x3c64be5f	0.013961404
53	0x3d990316	0.07471292
54	0xbe205efa	-0.1566123
55	0x3df4d288	0.11954218
56	0x3dab43c6	0.08362536
57	0x3e5f9e4d	0.2183773
58	0xbda7b877	-0.08189481
59	0x3dfe37d1	0.1241299
60	0xbc896ce0	-0.016775548
61	0x3e0abdfd	0.13549037
62	0xbdf5e4c3	-0.120065235
63	0xbd5d5066	-0.054031752
64	0xbdf85f0b	-0.12127503
65	0x3dfb2159	0.1226222
66	0x3d4caf49	0.049971852
67	0x3e2a520d	0.16632862
68	0x3d08cfa6	0.033401154
69	0x3df8af76	0.121428415
70	0xbe0e9e20	-0.13927507
71	0xbcaa499a	-0.02078705
72	0x3d3a9c32	0.045559116
73	0xbd808d38	-0.06276935
74	0xbe1ef8bf	-0.15524577
75	0x3dcd3649	0.1002012
76	0x3d8a9f53	0.0676867
77	0x3dabcdf5	0.083888926
78	0xbe0c09e2	-0.13675645
79	0xbcbcb258	-0.02303426
80	0x3dbb214d	0.09137211

val_conv1.weight f4 [2, 128, 1, 1]
0	0x3d370288	0.04468015
1	0x3cb6fa32	0.0223361
2	0x3d275289	0.040850196
3	0x3c9dba5b	0.0192539
4	0x3dfaf9b8	0.12254661
5	0xbd6ce53c	-0.057835802
6	0x000089b0	4.9393e-41
7	0x000089c7	4.9425e-41
8	0xbde1f134	-0.11032334
9	0x3d90694f	0.07051336
10	0xbda90395	-0.08252636
11	0x3c0ebd55	0.008712132
12	0xbdcb8913	-0.09938254
13	0xbd107191	-0.035264555
14	0x3dd1f263	0.1025131
15	0x3e197b45	0.1498843
16	0xbd3f9085	-0.046768684
17	0xbccfd0a4	-0.025368042
18	0x0604ccc1	2.497687e-35
19	0x80008905	-4.9153e-41
20	0xbdcb23c6	-0.099189326
21	0xbd550636	-0.052007876
22	0x3c897aeb	0.016782245
23	0x3db5d284	0.08878043
24	0x1dd507d6	5.6388733e-21
25	0x3e3a08ec	0.18167466
26	0x83a1b612	-9.504531e-37
27	0x0d503b96	6.4166673e-31
28	0x3d437e37	0.04772779
29	0x3adce333	0.0016852379
30	0x382475bb	3.9210292e-05
31	0xbe769054	-0.24078494
32	0x3db30e8b	0.08743008
33	0x3b93fa9d	0.0045159594
34	0x3dce6dde	0.10079549
35	0xbd6f3c22	-0.058406956
36	0xbd3b6723	-0.045752656
37	0xbb58b50a	-0.0033066892
38	0x3b762063	0.0037555925
39	0x0e300bf4	2.169943e-30
40	0x3d30dc36	0.04317876
41	0x3d88e34c	0.066839784
42	0xbc79ab31	-0.015238569
43	0x3d4f7683	0.05065013
44	0x3d52b61c	0.051443204
45	0xbd3bde4f	-0.045866307
46	0xbd8b9797	-0.06816023
47	0x80008a93	-4.9711e-41
48	0x3d986136	0.074404165
49	0xbc9e991c	-0.019360118
50	0xbd99042b	-0.07471498
51	0xbda4bc70	-0.08043754
52	0x3c67f4a9	0.014157453
53	0x3cb6560d	0.02225783
54	0x0000895b	4.9274e-41
55	0x3d279cd7	0.04092106
56	0x3cd461a9	0.025925474
57	0x3e0276e4	0.12740666
58	0xbd0da742	-0.034583338
59	0xbb87492e	-0.0041285967
60	0xbe102e41	-0.14080144
61	0x3d403b0c	0.04693131
62	0xbaa8718d	-0.0012851224
63	0x3be7e3f4	0.0070767347
64	0x3d8c07cf	0.06837427
65	0xbd8fe108	-0.07025343
66	0x3dc0376a	0.093855694
67	0x3d1eaa58	0.03873667
68	0x3bcf55fc	0.006327389
69	0x3d152cd0	0.03641969
70	0x3cc673ad	0.02422508
71	0x3d0a37d0	0.033744633
72	0x3d073239	0.03300688
73	0xbda28e69	-0.07937319
74	0x3dca9f17	0.09893625
75	0x3dfb2770	0.122633815
76	0xbe302b94	-0.17204124
77	0x0e193fa9	1.8889357e-30
78	0x3dbe9b8a	0.093070105
79	0xbd798878	-0.060921162
80	0xbcc759ef	-0.024334876
81	0xbc941a95	-0.018079082
82	0x80008a20	-4.955e-41
83	0x3ddb05ba	0.10694452
84	0xbd836b85	-0.06416992
85	0x3cb20bc2	0.021734122
86	0x3d4d8e41	0.050184492
87	0xbd8fe2bf	-0.0702567
88	0x3dad29fb	0.08455273
89	0x3d119229	0.03553978
90	0x3cfcaf1a	0.030845214
91	0x3d4de2ee	0.050265245
92	0x3cd15ae9	0.025556045
93	0xbc4575f8	-0.012052052
94	0xbdab0f35	-0.0835251
95	0xb9e027e1	-0.00042754321
96	0x00008940	4.9236e-41
97	0xbb919325	-0.00444259
98	0x2ff609d1	4.4754114e-10
99	0x3d8f05aa	0.06983502
100	0x3df93d45	0.12169889
101	0x3ddab867	0.10679703
102	0x0000898f	4.9347e-41
103	0xbdde7006	-0.108612105
104	0xbd9e9e96	-0.077450916
105	0xbd8b16b9	-0.067914434
106	0xbd4f713e	-0.050645106
107	0x000088ec	4.9118e-41
108	0x80008f7c	-5.1472e-41
109	0x3257ccb8	1.2561195e-08
110	0x3c632f80	0.013866305
111	0x3d32aeb0	0.043623626
112	0xbce3d651	-0.027812155
113	0x3cfc3cc0	0.030790687
114	0xbbd00de8	-0.006349314
115	0xbc87d2b5	-0.016579965
116	0xbdc92222	-0.098209634
117	0xbd811d39	-0.06304402
118	0x9dab3b24	-4.5324473e-21
119	0x3dd34f9d	0.103179194
120	0xbdc11ee6	-0.094297215
121	0x3dc2c963	0.09511068
122	0xbdd0a1a0	-0.101870775
123	0xb280175f	-1.491179e-08
124	0xbd8493a6	-0.06473474
125	0x3d1ea254	0.038729027
126	0x3d014319	0.03155813
127	0xbbe620a0	-0.007022932
128	0x3b93dc13	0.004512319
129	0x3c07555a	0.0082600955
130	0x3c7bef67	0.015376902
131	0x3b5d073b	0.0033726234
132	0xbdb8a647	-0.0901609
133	0x3c2f4726	0.010698115
134	0x00008a3f	4.9593e-41
135	0x80009e26	-5.6733e-41
136	0xbd9ef72a	-0.077619866
137	0xbd544696	-0.05182513
138	0x3aaa2ae4	0.0012982753
139	0x3c461a95	0.012091299
140	0xbafc8786	-0.0019266463
141	0x3dbf89d3	0.0935246
142	0x3c258c2e	0.010104222
143	0xb9f85885	-0.00047368198
144	0xbc40bf6e	-0.01176439
145	0xb7b56b0a	-2.1626725e-05
146	0x800089ff	-4.9504e-41
147	0x00008b49	4.9966e-41
148	0xbc7c4fce	-0.015399886
149	0x39ad4d9f	0.00033054964
150	0xbd8282a6	-0.063725755
151	0xbc4b5353	-0.012410003
152	0x80008c5b	-5.035e-41
153	0x3ce37e02	0.027770046
154	0x0afe8fb7	2.451337e-32
155	0x8000895a	-4.9272e-41
156	0xbd2050de	-0.03913962
157	0xbdc1fa48	-0.094715655
158	0xb7a06846	-1.9122042e-05
159	0xbdca263a	-0.098705724
160	0x3d8b249b	0.06794091
161	0x3b4eac3b	0.0031535763
162	0x3d9c905e	0.07644723
163	0xbb55a737	-0.0032600889
164	0x3e111358	0.14167535
165	0x3df9db2f	0.12200009
166	0xaa8ac7aa	-2.465227e-13
167	0x00008926	4.92e-41
168	0x3dc3d65d	0.09562371
169	0xbd10e897	-0.035378065
170	0xbd5d6eb0	-0.054060638
171	0x3bc09937	0.0058776396
172	0x3cd28636	0.025698762
173	0xbb4b3b8e	-0.003101084
174	0x3b3a8cf8	0.0028465372
175	0x06a93348	6.3646086e-35
176	0x3e0d5b6a	0.13804403
177	0xbc121c7d	-0.008917925
178	0x3bf64660	0.0075157136
179	0x3c8584f1	0.016298743
180	0x3bb283d6	0.005447845
181	0xb4086e85	-1.2706194e-07
182	0x00008ad3	4.9801e-41
183	0xb89f65d9	-7.6006814e-05
184	0xba51cbac	-0.0008003067
185	0x3b1fa807	0.0024361627
186	0xbe2c80d6	-0.16846022
187	0x3bb43001	0.0054988866
188	0xbcc8e7dc	-0.024524622
189	0x3da3add8	0.079921424
190	0x3df7dca3	0.1210263
191	0xbc8b2149	-0.016983645
192	0x3e2e6a01	0.17032625
193	0x3dae0e11	0.08498777
194	0x3da08e86	0.07839684
195	0xbb0e78b2	-0.002173942
196	0x3d0836c8	0.03325537
197	0x3c4bc0f5	0.012436141
198	0xbcc5962c	-0.02411946
199	0xbcf09c27	-0.029371334
200	0xb9330a70	-0.00017074659
201	0xbae936aa	-0.001779278
202	0x3dd2d711	0.10294927
203	0xbd8a1692	-0.06742586
204	0xbd6c85d3	-0.057744812
205	0x80008aa2	-4.9732e-41
206	0xbdc080e9	-0.09399588
207	0x3d916cb1	0.07100809
208	0x3d714a72	0.058908887
209	0x3bdc80ef	0.0067292373
210	0x000089de	4.9457e-41
211	0x3d874d64	0.06606558
212	0x3bec8772	0.007218295
213	0x3caad9f2	0.020855878
214	0x3bfcf1a0	0.0077192336
215	0xbe553e49	-0.20824541
216	0xbcd74e0c	-0.026282333
217	0xbd80a620	-0.06281686
218	0x3cd85a17	0.026410146
219	0xbe06c67c	-0.13161653
220	0x3c5991de	0.013279406
221	0x3dc41cd4	0.09575811
222	0xba9e2caf	-0.001206776
223	0x3c5d304f	0.013500287
224	0x00008999	4.9361e-41
225	0x3d0babe3	0.03409947
226	0x80008a33	-4.9577e-41
227	0xbbd33965	-0.006446051
228	0x3bc4e073	0.0060082017
229	0xbded693c	-0.115923375
230	0x0000898e	4.9345e-41
231	0x3ab48c8a	0.0013774794
232	0x3c747102	0.014919521
233	0x3b82755a	0.0039812746
234	0x3b281fa1	0.0025653618
235	0x00008bdc	5.0172e-41
236	0x00008a43	4.9599e-41
237	0x00008969	4.9293e-41
238	0xbddd8e65	-0.10818175
239	0xbda8e6f9	-0.082471795
240	0x3c8fd103	0.01755572
241	0x3c12c7e8	0.008958794
242	0x3d94ef08	0.07272154
243	0xbb51c562	-0.0032008518
244	0x3a5ca6b4	0.00084171747
245	0x3c3d6bba	0.011561329
246	0x80008c20	-5.0267e-41
247	0x3de6d74a	0.11271532
248	0x3ab03c2d	0.0013445668
249	0x3cba49ae	0.022740211
250	0x3d4ad11f	0.04951584
251	0x00008985	4.9333e-41
252	0x3b4057b7	0.0029349157
253	0x3b6820ca	0.0035419934
254	0xbd77992d	-0.060448814
255	0xbbec9ae6	-0.007220614

val_conv1.bias f4 [2]
0	0x3d7803a3	0.060550343
1	0x3c123628	0.008924045
