课程设计/AlphaZero简单复现/models/policy_batch_400.model (torch, 530617 bytes, 15 tensors)

conv1.weight f4 [32, 4, 3, 3]
000000 ad d4 31 3e 13 cd 4d 3c dc e2 79 3e 9f fe e7 bc
       0.17366286 0.012561101 0.24402946 -0.028319655
000010 55 cf 15 3d fc ae e9 bd e4 85 a9 3e a7 e4 71 be
       0.03657468 -0.11410329 0.33109963 -0.2362238
000020 5a 27 c1 3e c1 c3 76 3d 81 e3 d2 3b b8 6d 1a 3e
       0.37725335 0.06024528 0.006435812 0.15080917
000030 06 52 2e 3d 6e c0 8b bd e4 92 4c bc 77 eb 86 3e
       0.042558692 -0.068238124 -0.012486193 0.2635152
000040 60 32 0f be d0 8d 46 3e 08 10 8e 3d 87 98 91 3d
       -0.1398406 0.19390035 0.069366515 0.071091704
000050 72 13 58 bd 09 90 01 3d 4c ed 10 3d 2e 21 57 bd
       -0.05275292 0.031631503 0.035382554 -0.052521877
000060 e6 18 97 bc e6 0e 8c 3c 39 f7 a9 3d f5 79 24 3c
       -0.01844449 0.017096948 0.08299107 0.010038842
000070 22 5a 74 3c 06 9b 77 bd 2a ab c9 bd 19 66 fb 3d
       0.014914067 -0.060450576 -0.098471 0.12275333
000080 c4 2b 41 bd dd d5 aa 3b 35 6f 24 3d 1a 46 8c bd
       -0.04716088 0.005213483 0.040145118 -0.06849308
000090 32 d7 75 3e 8a 8b 5e 3e 45 19 c2 be f7 e6 fb 3d
       0.24007872 0.21732917 -0.37909904 0.122999124
0000a0 9a 61 33 bc a5 87 87 3e de 37 72 be 9b 2d a2 3d
       -0.010948563 0.26470676 -0.23654124 0.07918855
0000b0 7f 1b ef 3d f1 61 e5 3d 39 3b 98 3d 85 52 dd bd
       0.11675166 0.112003215 0.07433171 -0.10806755
0000c0 27 b1 6f be 44 4e 01 3d 40 71 51 bc 40 59 94 3d
       -0.23407422 0.03156878 -0.012783349 0.072435856
0000d0 0c 52 2f be 51 20 5e 3e 58 4b a4 3d 87 d6 91 3d
       -0.17121142 0.21692015 0.08022183 0.07120996
0000e0 15 93 52 bd e9 81 4a 3d 90 9a d8 b9 65 2f 2b bd
       -0.0514098 0.0494403 -0.00041313889 -0.041793246
0000f0 aa cd 53 3c fb ed 82 3c 23 85 3b bd a0 bf 71 bc
       0.012927452 0.015982619 -0.045781266 -0.01475516
000100 99 8c 18 be 6d 19 1a 3d 51 38 30 be be 92 87 3d
       -0.14897384 0.037621904 -0.17208983 0.06619786
000110 51 d5 2d be 3c ef 0c 3e 9c 75 56 bd c7 af 19 3e
       -0.16975905 0.13763136 -0.052358255 0.1500846
000120 30 3b 0f 3e ec 93 15 3e 4d 30 d3 3c 39 53 6c be
       0.13987422 0.14607209 0.025779868 -0.23078622
000130 77 32 69 bd 14 fe 32 be 03 11 d4 3c c6 00 24 3e
       -0.056932893 -0.17479736 0.025887018 0.1601592
000140 5c 25 6a be 3e 9d 0f 3c 59 b7 91 bd 0f 0c 2c bd
       -0.22865814 0.008765517 -0.07115049 -0.042003687
000150 6f 66 f1 3d ab 5d 94 3d e9 04 0a 3d 40 dd 76 3d
       0.11787116 0.07244428 0.03369609 0.060269594
000160 8c 62 28 be c6 01 3f bd 69 bb bb bd 4c 94 00 bd
       -0.16443843 -0.04663255 -0.09166605 -0.031391427
000170 c2 ff b1 bd 7a c4 35 be ea a5 84 bd 19 37 df bc
       -0.0869136 -0.17750731 -0.06476958 -0.027247952
000180 25 3c 19 3c 82 29 20 3b e3 14 33 3d 41 9b c2 bd
       0.0093527185 0.0024438803 0.04372109 -0.095022686
000190 db 2d 1b 3e 47 c4 e7 3d 19 35 3d 3d d8 c4 99 3d
       0.15154211 0.11316734 0.046193216 0.07508248
0001a0 e9 db ad 3d 1c 4c ac 3d b7 0c 22 3e d6 13 12 be
       0.0848921 0.08412954 0.15825163 -0.1426538
0001b0 f2 b5 d6 bc 81 a0 bc be f5 99 83 3e 27 2a ca bd
       -0.026209805 -0.36841205 0.25703397 -0.09871321
0001c0 dd 9e 9d 3e 31 85 99 be 17 b8 d8 3c 74 d8 57 3d
       0.30785266 -0.2998443 0.026454968 0.05269666
0001d0 12 c7 0a 3e ed b3 af bc ee 1f 79 3d 87 18 e6 bd
       0.13552502 -0.0214481 0.060821466 -0.11235147
0001e0 d3 54 03 3e 92 5a f2 3c e5 26 b8 3d 00 ba 0c 3d
       0.12825327 0.029584203 0.089917935 0.03435707
0001f0 88 36 04 3e 9b d1 5c 3e da 45 00 bd 92 1b b8 ba
       0.12911427 0.21564333 -0.031316616 -0.0014046303
000200 54 81 37 3c b5 72 a5 3c 2b 0e ac ba 13 7b 96 3d
       0.011200268 0.020196298 -0.0013126781 0.07347693
000210 f4 11 9d bd 16 14 56 3c c0 cb af 3c 0b 37 82 3d
       -0.0766944 0.013066312 0.02145946 0.06358155
000220 0e e5 8a bd e0 c0 d7 3d 4d 41 00 3e 18 4c ac bc
       -0.0678197 0.10534835 0.1252491 -0.021032378
000230 05 e3 ac bd 99 07 fb bd b1 c7 d5 bd 33 88 0a 3e
       -0.08441738 -0.122573085 -0.10438479 0.13528518
000240 88 2a 12 be f4 26 ac bd 1f 03 58 bd a8 0f b6 3d
       -0.14274037 -0.08405867 -0.05273735 0.08889705
000250 1e d8 1e 3c 9f d1 a8 3d 14 2c d3 bd 79 77 92 bd
       0.009695081 0.08243107 -0.103111416 -0.07151694
000260 b8 30 c2 3d 5e 61 03 be 0c 44 49 3a 7e a8 02 be
       0.094819486 -0.12830111 0.0007677681 -0.12759587
000270 3f 37 f9 3d bc 95 16 3d 3b 3c 94 bd fd e4 ef 3d
       0.121687405 0.03676389 -0.072380506 0.11713598
000280 dd 44 a0 bd f5 52 16 be c6 6a 81 bb 45 10 8f 3d
       -0.07825635 -0.14680083 -0.003949496 0.06985525
000290 b5 87 26 3e 21 9e bd 3d 9e f3 b8 3d 89 8f 74 bd
       0.16262706 0.09258676 0.09030841 -0.0597072
0002a0 af bd a0 3c 2c a1 74 bd 26 31 ae 3c 1b 6c b3 3d
       0.019621698 -0.059724018 0.02126367 0.08760854
0002b0 ab b7 c2 3d 74 b1 14 3e 0d 9d 05 3e 32 43 ac 3d
       0.09507688 0.14520818 0.13048191 0.08411254
0002c0 af 4c dd 3d 53 53 19 3e 31 d1 11 3e 6e c7 01 3e
       0.10805642 0.14973192 0.14239956 0.12673733
0002d0 2b 72 87 3e 90 e0 b3 3d c5 97 7f bd cb 0d 9d be
       0.2645429 0.08783066 -0.062400598 -0.30674586
0002e0 25 ce b8 3e d1 a5 a9 3e 53 e8 89 3e e4 d0 25 bd
       0.36094776 0.3313432 0.26935062 -0.040482417
0002f0 1d 6b ac 3b 28 1d 43 3d 76 7f ad bd db ea 28 be
       0.0052617923 0.047635227 -0.08471577 -0.1649584
000300 48 05 c8 be 87 bc 68 3e 9a 28 12 3e 6f 12 f1 3d
       -0.3906653 0.22728167 0.14273301 0.11771094
000310 4b 56 2d be 7c a5 7a bd c2 27 b5 3d eb 45 d1 3d
       -0.1692745 -0.061192974 0.08845474 0.10218414
000320 58 fd 5b bd 43 22 5b bd f6 dd 03 3e 0e 96 9d 3d
       -0.053708404 -0.05349947 0.1287764 0.07694636
000330 eb 53 25 3d a2 f7 c4 3c 7e e5 97 bc ee d4 07 3d
       0.040363234 0.024043862 -0.018542048 0.03316205
000340 3c 6e 25 3d 02 04 00 3e 89 86 15 3e 26 51 08 be
       0.04038833 0.12501529 0.14602102 -0.13312206
000350 02 ff a8 bd 04 e8 db bc 6e de 93 bd c1 7e 21 3e
       -0.08251764 -0.026844032 -0.072201595 0.15771009
000360 16 17 5d bc e0 75 bc bd 9f 3c 90 3d 6c 14 a3 bc
       -0.013494274 -0.0920217 0.070428126 -0.019907199
000370 df 8a 52 bd a3 e1 94 be 2b f5 10 3d 70 07 02 bd
       -0.05140197 -0.29078397 0.03539006 -0.031745374
000380 2b b2 80 3e b8 14 d0 3c 67 b0 55 b9 a8 9d c0 3d
       0.2513593 0.025400504 -0.00020378978 0.094050705
000390 6a 03 81 bd 46 d1 67 3e 74 38 46 be 8b 78 3b 3d
       -0.06299479 0.22638425 -0.19357473 0.045769256
0003a0 9d a3 a4 be 1d 6c 54 3e 77 a2 b6 bc 4c 49 94 bc
       -0.32156077 0.20744367 -0.022294266 -0.018101357
0003b0 c1 27 ab 3d 1f e2 34 bc 18 d4 b9 3d 8e c8 e6 bd
       0.08357192 -0.01104024 0.09073657 -0.112687215
0003c0 af 71 33 3e c3 f1 03 be 1b 33 e4 3d c5 3d 81 3c
       0.17523836 -0.12885194 0.1114256 0.015776524
0003d0 cb 66 10 3e 45 15 11 3e d7 e0 63 bc cb e6 8f bd
       0.14101712 0.1416827 -0.013908586 -0.07026442
0003e0 50 b7 48 3b fe e1 20 be cd 9b 0e bd fc 8f 41 bd
       0.003062684 -0.15711209 -0.034816552 -0.047256455
0003f0 14 20 8c be 1b d0 28 3e 9e 64 86 3e 47 4f 00 be
       -0.27368224 0.16485636 0.2624864 -0.12530242

conv1.bias f4 [32]
000000 18 e9 a2 bd 53 9e 02 3e 70 c9 a9 3d 74 55 5e bc
       -0.07954615 0.12755708 0.08290374 -0.013570178
000010 32 c9 0b be f4 fc 45 bd 8d 04 6e 3c a9 72 e3 3d
       -0.13650969 -0.048336938 0.014527452 0.11105854
000020 65 a5 3b 3b 48 e4 e6 bd 55 6e a0 3e b2 34 9c bd
       0.0028632518 -0.1127401 0.31334177 -0.07627238
000030 ab ed 19 be 0a 7a 42 bd eb d4 1d bc 89 65 68 3e
       -0.1503207 -0.047479667 -0.009633283 0.22694983
000040 2a b2 d0 bc 45 01 55 3e ee 02 4e bc 62 65 14 3c
       -0.02547558 0.20801266 -0.012573941 0.009057375
000050 12 1d 89 3e be ad c9 bc c6 0d bd bd af 33 81 bd
       0.2677999 -0.02461898 -0.09231143 -0.06308686
000060 b9 1b f3 bc a7 75 41 3e 74 93 82 3e fd 52 ac bc
       -0.029676305 0.18892537 0.25503123 -0.021035666
000070 dc cf 48 bd 8b 25 f9 bd 66 c3 25 3d 11 df 10 be
       -0.049026355 -0.12165364 0.04046955 -0.14147593

conv2.weight f4 [64, 32, 3, 3]
000000 a5 2c a7 3d 55 74 f5 3d 6a b0 1a 3e 36 2c 48 3e
       0.08162812 0.11985079 0.15106359 0.19548115
000010 25 dd 59 bd df d4 4b 3e 81 6a da bc bc 3d b4 3d
       -0.053189415 0.19905423 -0.026662113 0.088008374
000020 a4 2a cb bd bd 72 fa 3d 60 03 ad bd 6d d9 5f bd
       -0.099202424 0.12228916 -0.08447909 -0.054650713
000030 d5 7a 51 3d cd 60 05 bd 18 2f e4 bd a6 38 20 3d
       0.051142532 -0.03256302 -0.11141795 0.039116524
000040 f0 cb 75 3d 4f f7 55 3e dd 5a 6c bd 6d 77 8c bc
       0.060008943 0.20895122 -0.05770384 -0.01714679
000050 e9 d9 a7 3d f7 67 4a bd 48 64 69 3d 34 7b 3e 3b
       0.0819586 -0.049415555 0.0569804 0.0029065134
000060 2b 96 48 bd 01 c1 9c bd c3 ec c3 bc 84 e3 ab 3d
       -0.048971336 -0.07654 -0.023916608 0.083930045
000070 da 29 02 3e b9 b8 8f 3c 71 70 64 bb 69 cb ad bd
       0.12711278 0.017544137 -0.003485706 -0.08486063
000080 8e d6 3a 3d e9 d7 4f be 44 a4 03 3d 63 dd d1 bd
       0.04561477 -0.20297207 0.032139078 -0.10247304
000090 7d 37 a6 3c 00 ef 51 bc 1c d8 f4 3b 88 e6 e8 ba
       0.02029013 -0.01281333 0.0074720513 -0.0017768899
0000a0 6d f7 11 bc 2e 49 3a 3c 23 d3 a3 bc 11 de fb 3b
       -0.008909089 0.011369986 -0.019998139 0.0076863845
0000b0 04 0b b3 3c eb da 0a bd a3 69 df 3b 5f 46 d5 bb
       0.021855839 -0.033900183 0.006818013 -0.006508633
0000c0 a7 e9 8b 3d ff e1 af 3d cb 9d ed bc 02 db b1 bd
       0.06831675 0.08588027 -0.029005906 -0.086843506
0000d0 8d f4 9a bc f7 0b 07 be 3a 30 89 3d a3 ee 17 3d
       -0.018915439 -0.13188158 0.066986516 0.037092816
0000e0 2b e5 54 3c f6 8e 8a bd 2e 9e 71 bd 8b 6f 8c 3d
       0.012994091 -0.06765549 -0.058988743 0.06857213
0000f0 9a 49 cc 3a d7 fe 8a 3d ee 4b a7 3b d1 e2 84 3c
       0.00155859 0.06786888 0.005105487 0.016221436
000100 c0 be 1f be 1e 45 5b bc 20 ab a5 3d 00 61 ac 3d
       -0.15600109 -0.013383178 0.0808928 0.08416939
000110 ca b9 90 be c5 da 75 3e 7c a6 41 3d f8 ad 36 bd
       -0.28266746 0.24009235 0.047277912 -0.044599503
000120 79 8e 9f 3b c7 6f 70 3d 3e 17 c9 bd 1e e6 a7 3d
       0.004869279 0.05870035 -0.09818886 0.08198188
000130 79 67 c5 3d d8 f7 1e bd ac 91 d6 bc 5e 1d 9a 3d
       0.096388765 -0.03881058 -0.026192509 0.075251326
000140 e1 c5 9e 3d 04 a9 b9 bd dc 81 43 3d bb 0f c8 3c
       0.07752586 -0.0906544 0.047731265 0.024421563
000150 ab 56 ac bd 14 84 88 bc b4 69 02 3c e4 2b 85 bd
       -0.08414968 -0.016664542 0.007959772 -0.06502512
000160 ee 74 be 3c e6 5d e2 bc ad 98 81 3d cc 98 81 bd
       0.023249116 -0.027632665 0.06327949 -0.06327972
000170 28 46 8e 3d 61 97 ad 3d 83 ca 39 bd 57 71 2b bd
       0.06946975 0.08476139 -0.045359146 -0.041856136
000180 6c 82 60 3d 93 aa cf 3d e3 3c f1 3d 12 5a dc bc
       0.05481188 0.10139956 0.11779191 -0.026898418
000190 6d 7b 1e bd 95 12 66 3d 36 9c b2 3d b2 1d be 3d
       -0.038691927 0.056170065 0.08721201 0.09283008
0001a0 cd 07 ee 3d 78 ef 02 bd 89 00 4e 3d ff 64 f0 3b
       0.11622582 -0.031966656 0.05029348 0.0073362584
0001b0 10 5a 1b 3d 3b 74 b3 3c 75 1f a4 bd 73 34 ec 3c
       0.037927687 0.021906009 -0.080138125 0.028833603
0001c0 e2 35 16 bd 54 9a 3f 3c 77 4a 81 bd 2e f6 df bc
       -0.03667248 0.01169451 -0.06313031 -0.027339067
0001d0 e2 de 9e 3d 2f c8 a3 bd 1a b4 c6 bc 47 2d ba 3d
       0.07757355 -0.07997166 -0.024255801 0.09090667
0001e0 40 5c 45 3e cb aa c4 bc 22 81 57 bd 56 05 18 3e
       0.19273472 -0.024007222 -0.052613385 0.14845785
0001f0 e6 c9 49 bd 58 3c eb 3d cb 78 d1 3b 1a bd 54 3e
       -0.04926481 0.11486119 0.0063925735 0.20775262
000200 4c ed 23 3e 87 d6 43 bd 91 31 3e 3d a4 05 a1 3d
       0.1600849 -0.04781201 0.04643399 0.07862404
000210 93 96 9e bd f5 57 63 be 13 b2 84 bd 06 67 9a bc
       -0.077435635 -0.22201522 -0.064792775 -0.018847954
000220 cb fa 56 3d 0e 46 47 bb 0d c5 a3 3c 92 19 34 bd
       0.05248527 -0.0030406746 0.019991422 -0.0439697
000230 b6 79 9a 3d 8b 38 dc bc 98 9c d0 3d cd df 38 3d
       0.07542746 -0.02688243 0.10186118 0.045135308
000240 25 21 ba bd a6 86 7d bd fd 26 cb bd e2 1c 3e bd
       -0.09088353 -0.06189599 -0.09919546 -0.046414264
000250 d3 3c 84 3d 8c be d3 3c eb a1 c6 3d 3b 6b 47 3e
       0.06456914 0.025847696 0.09698852 0.19474499
000260 cf 9b 16 3e b9 e9 8e 3d 10 5f 69 3d 24 3b c9 bc
       0.14707874 0.06978173 0.056975424 -0.024564333
000270 2e 2d 47 bc 4c 44 d0 bc d2 70 8f bd 25 fd 47 3d
       -0.012156768 -0.025423191 -0.07003941 0.0488254
000280 03 90 f2 bc 9d 06 39 3d 50 b8 17 bc 4f 02 91 3d
       -0.029609686 0.045172323 -0.009260252 0.070805185
000290 c8 a5 a9 bd 50 ba 17 3e 91 31 3b 3e 52 14 96 bd
       -0.082835734 0.14817166 0.18280627 -0.073280945
0002a0 f1 e8 91 3b ed 72 93 3c 6d 91 ec bc 1b 6e bd bd
       0.0044528176 0.017999137 -0.028877938 -0.092495166
0002b0 2b 4c 70 3d 3f 3e 65 bc 06 eb da 3d 28 26 45 bb
       0.05866639 -0.013991891 0.106893584 -0.0030082557
0002c0 67 84 f9 bc 72 56 c6 3d b5 28 32 bd 43 d9 00 be
       -0.030458642 0.09684457 -0.043495853 -0.12582879
0002d0 30 98 8a bd 89 6e 63 bd c2 2f e3 bc ed 08 86 3d
       -0.06767309 -0.055525336 -0.027732734 0.06544671
0002e0 1a 1b f2 bd 26 c3 a8 bd 6f 47 70 3d 51 f2 ac bd
       -0.118215755 -0.082403466 0.058661874 -0.08444656
0002f0 07 21 f1 3c fb 28 35 3e c1 2c 5f 3e 80 1b 78 3d
       0.029434694 0.17691414 0.21794416 0.0605731
000300 9a 2d 82 3d 10 8e c2 bc 60 a6 11 be 8b 00 51 be
       0.06356354 -0.023749381 -0.14223623 -0.20410363
000310 f9 8f b4 be 5a 15 99 3c d6 0f 9c 3d b8 f7 29 3d
       -0.35266092 0.018686939 0.07620208 0.04149601
000320 7a 03 d0 3c ee 91 ca 3d 69 ae 1d 3d 7b 1b 92 3d
       0.025392283 0.09891115 0.03849641 0.07134148
000330 9e 56 aa bd 86 33 36 3c 33 08 54 3d 26 52 bb 3c
       -0.08317302 0.011120683 0.051765632 0.02286632
000340 3e 7a be 3d 8a 4e 8e bd d2 1d f9 3c b2 b2 87 3d
       0.093006596 -0.06948574 0.030409727 0.0662588
000350 bd 51 81 3d ec 37 03 be c4 c9 60 3d 5c c8 32 be
       0.063144185 -0.12814301 0.05487992 -0.17459244
000360 99 0c a1 3d 7c 55 1a 3e 0c 69 f8 3c ef e2 e2 3d
       0.07863731 0.15071672 0.030323528 0.110784404
000370 4e 32 49 3d 28 4d cd bd 44 58 31 3d fa 74 96 bd
       0.04912024 -0.10024482 0.043297067 -0.0734653
000380 40 84 64 bd 0c 56 38 bd 61 f9 0a 3d ea 7a ae b9
       -0.055790186 -0.045003936 0.033929233 -0.00033279444
000390 7e c9 06 be f8 0c 68 3c 57 f7 1d 3e 08 64 07 be
       -0.131628 0.014163248 0.15426384 -0.13221753
0003a0 02 c3 2c 3d 2b 19 52 3e 69 d6 c4 bd 27 2a 49 3d
       0.04217816 0.20517413 -0.09611208 0.049112465
0003b0 3f cf c0 bc 3a d8 6b 3d d3 0a b9 bc e4 0c 59 3c
       -0.023536323 0.057579257 -0.02258817 0.013247702
0003c0 47 72 4e bd 74 bb 5f be 2d a2 dd 3d 5c 0d b4 bc
       -0.050401952 -0.21848851 0.10821948 -0.021979026
0003d0 25 96 a1 bd dd 5b 07 bd 2b ae 94 3d 5f 26 f3 bc
       -0.07889966 -0.033046592 0.072597824 -0.029681383
0003e0 9a d8 41 3d 6e 91 af 3d f5 19 0f bb fd 42 df 3c
       0.047325708 0.085726604 -0.002183554 0.027253622
0003f0 92 06 b6 bc ce 04 85 3d 78 6b 0b bd 96 7b 36 bd
       -0.02221993 0.06495057 -0.034038037 -0.044551454

conv2.bias f4 [64]
000000 c7 d8 5a bd 5e f5 92 3d bc 6d 04 3c 81 f7 3b bd
       -0.05342939 0.07175706 0.008082803 -0.045890335
000010 b5 db dd 3d 4f ad 5f bd dd 0d 6f bb 8c a9 2e bc
       0.108329214 -0.05460864 -0.003647677 -0.01066054
000020 22 21 d4 bc 77 81 20 3c cf f3 11 3d 20 1b b4 3c
       -0.025894705 0.009796492 0.035632905 0.02198559
000030 b7 61 4d 3d 2b bd d4 3c db 5f 37 bd bd ba a0 3c
       0.050142016 0.025969109 -0.04476915 0.019620294
000040 5b 7e 04 3d 7f 58 a9 3b b3 bd b0 3c c2 99 c8 3d
       0.032347064 0.0051680203 0.02157483 0.09794952
000050 b8 90 84 bb 23 b9 29 3d 1e 7d 97 3d 86 d9 74 bd
       -0.004045572 0.041436326 0.07396911 -0.05977776
000060 7f 1f 0a 3d ab c6 47 3d 97 4b de 3b e6 a1 ae 3d
       0.033721443 0.04877345 0.0067839134 0.085269734
000070 8a 00 ff 3c 1d 3b 4e 3d a0 50 5a 3d d1 5c b2 bb
       0.031128187 0.050349344 0.053299546 -0.0054431935
000080 4a 63 82 3c c5 2d 4c bc a5 bd 46 bd d8 38 df bc
       0.015916485 -0.012462084 -0.048520703 -0.027248785
000090 81 45 f2 3c ea a2 a4 bc cd b6 88 3d 95 cc c4 3d
       0.029574158 -0.020097215 0.066754915 0.096093334
0000a0 03 0f cb 3d a1 9e d9 bc c3 0e 70 bd ad 4d 93 bd
       0.09914973 -0.026564898 -0.058607828 -0.0719255
0000b0 0c f8 8a 3d 8b c2 e6 3b 9b 3a d7 3c a0 f6 48 bc
       0.067855924 0.0070422343 0.026273062 -0.012265831
0000c0 43 2a 86 3c c3 93 be 3a 45 92 84 bb 1e 31 4b bd
       0.016377574 0.0014539886 -0.004045757 -0.04960739
0000d0 75 11 9d 3c 51 5a 5b 3d d1 59 1e bb 46 80 08 3d
       0.019173363 0.05355293 -0.0024162421 0.033325456
0000e0 06 ab 4d 3c fc 15 9f bc 52 d1 1f 3d 4f f3 15 bd
       0.012552982 -0.019419663 0.039017983 -0.03660899
0000f0 16 73 25 3d a0 1a 29 bd 2f 34 04 bd 4a 2d 79 bc
       0.040392958 -0.041285157 -0.03227633 -0.015208552

conv3.weight f4 [128, 64, 3, 3]
000000 29 ef 63 bc 66 f4 08 bd 91 b3 bc 3c 25 8f 9f bd
       -0.013912001 -0.0334362 0.023034843 -0.077909745
000010 57 28 0b be b1 79 ac bb 9b 31 b5 3b 20 c8 2b bd
       -0.13589607 -0.00526353 0.005529595 -0.0419389
000020 47 e7 a4 3d 76 16 46 3d a4 4f 71 3b bf 3b 7b 3c
       0.08051925 0.048361264 0.003682115 0.015334069
000030 a6 1c f4 3c d4 37 84 3c 57 0c 8c 3c 7a f5 b9 b9
       0.029798817 0.016139902 0.017095728 -0.00035468844
000040 d4 6a 56 bc 67 9c 8f 3b af d2 22 3d 45 6e 0f 3b
       -0.013086993 0.0043826583 0.039751705 0.0021885794
000050 21 92 ef bc 66 0e 0a 3d 37 35 47 3d 5f 53 b7 3b
       -0.029244484 0.033705138 0.048634734 0.0055946554
000060 33 fb ac 3c ac 84 71 3d 70 3a 1a bd be 4a 97 3d
       0.021115875 0.058964416 -0.037653387 0.07387303
000070 83 45 87 3d df f0 16 3d 83 30 da 3d 5b 9c 90 3c
       0.06605055 0.036850806 0.10653784 0.017652681
000080 ad ad 85 3d 37 00 83 3d cd 78 9b 3d e4 84 3b 3d
       0.06527267 0.06396525 0.075914 0.04578103
000090 50 b1 1d 3d 63 b8 c6 3d 89 b2 15 3d 7e 0f 97 3c
       0.038499177 0.09703138 0.036547218 0.018440004
0000a0 52 01 ec 3d 60 59 b1 3d 6d f8 37 3d 4b d3 de 3d
       0.11523689 0.08659625 0.04491465 0.10880145
0000b0 e6 31 41 3d 50 c6 38 3d 8a e2 21 3d 78 51 4c 3d
       0.047166727 0.045111 0.039522685 0.049882382
0000c0 a3 f3 c5 3c 17 ea b2 3c 0d 9c 43 3d 0f ce d8 3c
       0.024164027 0.021840138 0.047756243 0.026465444
0000d0 97 13 99 bc d5 48 6b 3c a2 92 88 3c 39 2d 08 3d
       -0.018686099 0.014360626 0.016671482 0.033246253
0000e0 73 42 cf bb a9 96 46 3c 61 60 af 3c c9 a0 87 bc
       -0.00632506 0.012120881 0.021408262 -0.01655616
0000f0 cd b4 61 3d 83 93 89 38 da 1c 61 bc 4f e6 02 3d
       0.055104066 6.560145e-05 -0.013739789 0.03195792
000100 bc 22 5d bc af d6 ef bb 01 6d d8 3c 0d 93 05 bd
       -0.013497051 -0.0073192935 0.026419165 -0.03261094
000110 9e 19 59 3c c6 08 32 bb 39 b8 fb 3b 0b 7d 98 3c
       0.0132507365 -0.0027165874 0.007681873 0.018614313
000120 71 ed cf 3c 56 04 ca 3c 53 03 62 bc 86 41 2c 3c
       0.025381776 0.02466027 -0.013794738 0.010513669
000130 73 91 f1 3c 62 c9 d4 bc c3 0c 55 3d de 39 25 3d
       0.0294883 -0.025974933 0.052014124 0.04033839
000140 0d cc 83 bc 05 62 65 3d 04 c7 13 3d 1d b3 40 3d
       -0.01608851 0.05600168 0.036078468 0.047045816
000150 4d 03 58 3d 7c a7 b4 3c 5f df 81 3b 6a ec f1 3c
       0.052737523 0.022052519 0.0039633955 0.029531676
000160 af 7d aa bc d7 35 bd bc ae c8 b4 3c 94 29 dc bc
       -0.020811884 -0.023096962 0.022068348 -0.026875295
000170 c9 e7 af bb e7 41 21 bc 6a 51 62 bc 6c 09 13 3d
       -0.005368207 -0.0098423725 -0.013813356 0.035897657
000180 3d d3 dc 3b 4a b1 8a 3c e1 55 e2 bc 72 5c 33 3d
       0.0067390488 0.016930241 -0.02762884 0.043789335
000190 3f da 3d bd de 83 e0 3c 62 f8 00 3d a5 b4 65 3d
       -0.046350714 0.02740663 0.031486876 0.05608048
0001a0 d7 36 df 3c e3 49 16 3c da fc 89 3d c0 94 46 3c
       0.02724783 0.009172889 0.06737681 0.012120426
0001b0 78 4b 8e 3c 75 c8 a3 3c 72 fb b9 bc a2 8b 80 3d
       0.01736997 0.019993046 -0.022702906 0.06276633
0001c0 cf a1 75 3d 55 4c 09 3d 4a ce 25 3d d5 99 f5 3c
       0.059968766 0.03352006 0.040479936 0.02998058
0001d0 8f 53 08 bb d1 aa 9a 3c 79 95 25 3c 1b bf 3c bc
       -0.0020801758 0.01888028 0.010106438 -0.0115201725
0001e0 09 20 93 3a 9b 57 92 3c f0 1e 72 3b 4f 72 12 3d
       0.0011224757 0.01786404 0.003694471 0.035753544
0001f0 81 16 36 bc f3 a4 8d 3c 00 2d bb 3c c7 c7 0f 3d
       -0.011113764 0.017290568 0.022848606 0.035102632
000200 30 47 87 3c 43 5d 4f 3d 3a 4b 22 3d ce f4 0c 3d
       0.016513437 0.05062605 0.039622523 0.03441315
000210 fd d4 40 3c d9 9d 6f 3b ed ab 35 3d 99 b8 69 3c
       0.01176953 0.003656259 0.044353414 0.014265203
000220 8d 82 cc 3c 0d a1 2b bb b1 a0 54 3d 30 d1 9b 3b
       0.024964595 -0.0026188523 0.05191106 0.0047551617
000230 df d9 79 bc 41 be 20 3c 40 69 56 3d c5 72 be bc
       -0.015249698 0.009810985 0.052346468 -0.023248086
000240 09 69 eb ba d1 f0 63 3d f5 86 d0 3c a6 b5 20 3d
       -0.001796038 0.055649582 0.025454978 0.039235733
000250 de 9b 21 bc 95 4b 30 3d 11 2a aa bc aa ce f1 3c
       -0.009863822 0.04304083 -0.020772012 0.02951749
000260 29 ef 2c 3c 28 b3 5d 3c d9 38 29 3c 6c 5b 88 3d
       0.010555067 0.013531484 0.010328495 0.06658062
000270 a6 b6 70 3d e7 7b 13 3d c2 46 60 bd 05 1c 9a 3d
       0.058767937 0.036006834 -0.05475498 0.075248756
000280 7d 1e ac bd fa df c5 bb 3e 07 79 3c 7a 92 3a 3d
       -0.08404253 -0.006038663 0.015199481 0.045549847
000290 38 ae 96 bc 21 9f 05 bd f9 b9 c7 bc ae df 89 3d
       -0.01839362 -0.03262246 -0.02438067 0.06732117
0002a0 25 b5 f2 3c fa 25 13 3d 7f 5f 9f 3b 9f bb 0f 3d
       0.029627392 0.03592489 0.004863679 0.03509104
0002b0 ff 7b 92 3c d8 16 12 3d 0b 22 3c 3d 36 42 34 3d
       0.017881392 0.035666317 0.045930903 0.044008456
0002c0 e8 f0 e4 3c df ee e1 3c b9 1f 0f 3d 9f d9 40 ba
       0.027946904 0.027579723 0.034942362 -0.0007356647
0002d0 8e 30 06 3d 7a 3c 97 bc 5e 5d 5c 3c 24 98 42 3c
       0.03276115 -0.018461455 0.013449995 0.011877093
0002e0 25 5c 8e 3c bd 86 8d bc 2a 91 a1 3b d7 82 2b bb
       0.017377922 -0.017276162 0.004930635 -0.0026170516
0002f0 28 5e ec bc d7 1e 3a 3d e9 7e 65 3d 6e e3 91 bd
       -0.028853491 0.045439567 0.056029234 -0.07123457
000300 d3 db 33 bc e8 95 89 3c 26 47 37 3d 5a 97 e7 bc
       -0.010977703 0.016795114 0.044745587 -0.028270412
000310 20 5b 94 39 f9 4f 01 3d c5 af 5c 3d cf c7 33 3d
       0.00028296653 0.03157041 0.053878564 0.043891724
000320 af ef 0a bb 43 89 65 3c a3 78 1e 3d c0 7f 79 bc
       -0.0021199991 0.0140097765 0.038689267 -0.015228212
000330 23 cf 3c 3b 6d 10 b2 3d a1 36 67 bd 8b a6 3b bc
       0.0028809987 0.08694539 -0.056448583 -0.011453281
000340 2b ef ca 3c ce 3f 0c 3d 5f 41 f1 3c bf b0 23 3c
       0.024772247 0.034240536 0.029450117 0.00999087
000350 bb b9 66 39 7a 7d 41 bd da f7 92 3c 1f 8d 5b bd
       0.00022003699 -0.047238804 0.01794045 -0.05360138
000360 b2 2d 21 bc cc 2e 1b 3d a2 8c b7 bc 6a 5b b8 3c
       -0.009837555 0.037886426 -0.022405926 0.022504527
000370 10 11 b5 bc a3 03 7b 3b 6a cc e8 bc cd 88 b2 bc
       -0.022102863 0.0038301728 -0.028417785 -0.021793747
000380 4c be 72 3c b2 3f 1e bc 02 74 9a 3c e3 1b fe bb
       0.014815878 -0.009658741 0.018854145 -0.007754789
000390 04 31 96 3c 81 5d 73 3d de d8 e0 3c ea 2c 05 bd
       0.01833392 0.059415344 0.02744716 -0.032513537
0003a0 73 68 47 3c 29 f9 2c 3c 75 fe 16 3d ec 21 44 3d
       0.012170899 0.010557451 0.036863763 0.047883913
0003b0 09 44 29 3c 91 b7 8d 3c e3 8c 4d 3c 6f e6 09 3d
       0.010331162 0.017299445 0.012545797 0.033667024
0003c0 33 1c 30 bc 97 39 c3 3c 72 49 8b bc 73 66 1d 3d
       -0.010748911 0.023831172 -0.017002795 0.03842778
0003d0 f5 08 8d 3b 25 bd 24 3c 6d 27 56 3d 23 af 3c 3d
       0.0043040463 0.010054861 0.052283693 0.04606546
0003e0 ab 53 a3 bc b4 6b a2 3c d9 9c 42 3d 28 4d 7b 3c
       -0.019937357 0.019826747 0.047512863 0.01533822
0003f0 c9 88 4a 3b 0f fb 17 bc 9f 10 49 bc ee 94 26 3d
       0.0030904284 -0.009276166 -0.012272029 0.040669374

conv3.bias f4 [128]
000000 37 fd 99 3c 2e da 5c 3d 9c 22 f8 bc cc 72 c7 3b
       0.0187975 0.05391901 -0.03028994 0.006086683
000010 e2 c0 a9 3c 20 06 40 3d fe 94 0c b9 ce 47 f7 b5
       0.020721857 0.04688084 -0.00013406944 -1.8423832e-06
000020 93 65 97 bc 90 81 be 3c 69 0b 2a 3d 9b 72 14 3d
       -0.018481052 0.02325514 0.041514788 0.03624211
000030 18 0d 30 3d b1 75 ed 3a 7a f7 92 bc cf b6 0f 3c
       0.042981237 0.001811674 -0.017940272 0.008771612
000040 ab 17 c9 3c 42 9c 23 3d 78 5e b4 3b 18 7c 7e bc
       0.024547419 0.03994394 0.0055044256 -0.015532516
000050 5b f3 24 3d 49 77 a7 3c ca 87 86 3c a8 7f fa bc
       0.040271144 0.020442622 0.016422171 -0.03057845
000060 45 6f 97 bb 3c 0e b8 b9 de 9c 9e b5 32 99 b9 bc
       -0.0046214187 -0.0003510582 -1.1817572e-06 -0.022656057
000070 ae a5 ba bc 24 a3 8d 3c 31 39 52 ba b5 a8 16 3d
       -0.02278408 0.017289706 -0.00080193864 0.036781985
000080 55 9a 99 bc fd c5 df bc 8e 68 e3 3c bf 38 93 3d
       -0.018750349 -0.027316088 0.027759816 0.07188558
000090 4e b7 92 3c 94 69 aa bd 39 b4 43 3b 24 33 90 bc
       0.017909672 -0.08320919 0.002986206 -0.01760251
0000a0 e9 ac 4e bd e8 2b 98 3b c3 d5 06 3c 03 aa 85 bb
       -0.05045787 0.004643906 0.008229676 -0.004079105
0000b0 83 bd 07 bd 98 9f 94 3b ac f2 1f 3d 1e 71 6d b8
       -0.033139717 0.0045356266 0.03904979 -5.6610552e-05
0000c0 24 d2 92 bc ec ea a7 3c 92 c7 9d 3c cc cc d6 bb
       -0.017922468 0.020497762 0.019260202 -0.0065551754
0000d0 98 ee ea 3c ac f8 f4 bc af 56 aa bc ea d5 13 bd
       0.028678223 -0.029903732 -0.020793287 -0.036092676
0000e0 f4 15 01 bc db 22 cf bc ad 43 27 b9 d4 81 3b 3c
       -0.007878769 -0.025285175 -0.00015951572 0.011444528
0000f0 f8 e4 10 3d 58 09 db bc a1 7f cd 3b 08 29 0a b7
       0.03537461 -0.026737854 0.006271318 -8.234994e-06
000100 fa 89 46 3c ef 9d 0b 3e ac 6e 79 3b 89 d3 48 3d
       0.012117857 0.13634466 0.003806035 0.04902986
000110 8d c5 21 bd a6 ba da bc 73 59 8a bb a0 11 2e b9
       -0.03949504 -0.026700329 -0.004222089 -0.00016600499
000120 16 09 d8 bc 90 c9 33 3d 6b 45 03 bd 9b c9 0f 3c
       -0.02637152 0.043893397 -0.032048624 0.008776094
000130 ec fb 2f 3c d1 32 0c bc c9 54 dd 3b b0 aa 84 3d
       0.010741215 -0.008557037 0.006754492 0.064778686
000140 37 92 ad 3c 94 5a a6 3d 4e 01 9f ba e0 ae 77 bb
       0.021187885 0.08122745 -0.0012131126 -0.0037793443
000150 64 19 75 3d 6f a6 59 3d 69 2d 98 bb f6 05 ed bc
       0.059838668 0.05313724 -0.004644085 -0.028933506
000160 f6 66 de bc 42 a1 1c 3c 40 26 09 3d 3b d5 d5 bc
       -0.027148705 0.009559931 0.033483744 -0.026102653
000170 5a c0 b0 3c 81 11 15 3d 63 72 14 3c 93 58 3f 3d
       0.021576095 0.036393646 0.009060475 0.04671533
000180 d7 c8 ef bb 40 c5 8a bc 26 05 10 bb 5d a6 58 bd
       -0.007317643 -0.01693976 -0.0021975725 -0.05289303
000190 51 46 28 bd 2c cb 5e 3c 22 eb 23 bc 48 f4 8a 3d
       -0.041082684 0.013598245 -0.0100047905 0.06784874
0001a0 f0 9d 50 3d 88 f6 b4 3c 9d 73 9c 3d 11 f1 c2 bc
       0.05093187 0.022090212 0.07639239 -0.02379659
0001b0 40 0b 56 bc 0c 93 c3 bc be b1 d6 3c b8 85 e9 b8
       -0.013064206 -0.023873828 0.026207801 -0.00011135213
0001c0 d8 36 b8 3c d5 b5 3f 3d e4 7f 03 3d 89 20 c7 ba
       0.022487089 0.046804268 0.032104388 -0.0015192191
0001d0 d1 1a 13 3d b7 96 10 bd f6 4a fd bc 22 2c 93 bc
       0.035914246 -0.035299983 -0.030919533 -0.01796538
0001e0 6d fa 44 3a b7 10 fe 3b ef 46 23 bd 72 ff 38 bc
       0.0007514123 0.0077534574 -0.03986257 -0.011291372
0001f0 2f 65 8a 3d 6c de d0 bc df b4 8f 3b 25 d4 81 3b
       0.067575805 -0.025496684 0.004385575 0.003962057

act_conv1.weight f4 [4, 128, 1, 1]
000000 ef 9c 8a 3c ce 1c de 3d e6 19 97 bd a7 53 45 3d
       0.016920535 0.10845338 -0.073779866 0.04817548
000010 3c 3d b4 3d 57 c4 b4 bd 8d 00 90 38 57 75 01 bc
       0.08800742 -0.08826511 6.866558e-05 -0.007901511
000020 01 e3 e4 bc 56 59 bb 3d e7 c9 2c bd e2 eb 8c 3d
       -0.027940275 0.09147899 -0.042184737 0.068809286
000030 44 39 65 3d 48 c1 70 bc 67 66 bc bc 99 6a 72 3c
       0.055962816 -0.014694519 -0.022998048 0.014795923
000040 35 c1 2e 3c 2d 48 f8 3d ca c4 11 3c 38 36 9a 88
       0.010666181 0.121231414 0.008897016 -9.281285e-34
000050 41 05 98 3d ed bc 7e 3d 35 3d 67 3d f4 59 58 3d
       0.07422877 0.062191892 0.056454856 0.05282016
000060 fa da aa 92 af fe b0 bc 86 00 19 00 06 75 83 b2
       -1.078249e-27 -0.021605818 2.296075e-39 -1.5303623e-08
000070 d5 b5 23 bc 77 31 f3 3c 5c f2 c3 39 fb 24 a1 3c
       -0.009992083 0.029686673 0.0003737387 0.019670954
000080 38 13 6b bd 55 b2 64 ba f1 fd d0 3d ad 5b 21 3d
       -0.057391375 -0.00087240833 0.102046855 0.03939407
000090 a7 04 a2 3d 25 6f 4c bd 38 09 7c ba 0c 69 79 b6
       0.079110436 -0.049910683 -0.0009614411 -3.7165037e-06
0000a0 12 22 7c 3d 9d 4d 72 3c 90 65 64 3c a2 2f 0f be
       0.06155593 0.014789012 0.01394023 -0.13983014
0000b0 4d 88 8a bd ef 19 c3 3c 6e 94 8a 3d 9a 42 23 3c
       -0.067642786 0.023816077 0.06766592 0.0099646095
0000c0 8b d0 ec 3c bc 6f 8f bd 90 f1 9f 3d 00 50 69 3e
       0.028908035 -0.070037335 0.07809746 0.22784424
0000d0 2e e5 8a 3d 16 69 0f bd 2c fe 09 12 be f2 05 bd
       0.06781994 -0.035012327 4.354287e-28 -0.0327022
0000e0 f1 b1 7e bd d4 bf 36 bd d7 8a 00 00 3a 9e ce bc
       -0.062181417 -0.044616535 4.9806e-41 -0.025221933
0000f0 61 f0 52 bd 07 c0 cf bb 50 f0 5c bd cc 89 00 00
       -0.051498774 -0.00634003 -0.053940117 4.9432e-41
000100 76 7f 06 3c 97 98 5e 3e 2a 2d 6c 3c 1c 44 04 3e
       0.0082091 0.21737896 0.014415065 0.12916607
000110 31 42 bc 3d 47 ca 9b bd ff a2 4e 3c eb b7 a4 3c
       0.091923125 -0.07606941 0.0126121035 0.02010723
000120 46 d2 05 bd d7 e4 b7 bc 4a 84 87 3c 28 74 b1 3d
       -0.032671236 -0.022447987 0.016542573 0.08664733
000130 fc 38 d6 3a e3 f1 4c bb cd 58 05 bd e5 8a 3b 3e
       0.0016343887 -0.0031272105 -0.03255539 0.18314703
000140 8a b2 81 3a d4 a7 7a 3d 7b 89 00 80 6a dc e0 bc
       0.0009895128 0.06119521 -4.9319e-41 -0.027448852
000150 77 09 ce bd ec af d6 3d d3 53 44 3d 76 42 03 bd
       -0.10060399 0.10482773 0.047931504 -0.032045804
000160 92 c0 c1 3c 5b f4 3a 3d 08 39 80 3d b6 bb 31 bd
       0.023651395 0.04564319 0.06260878 -0.043391906
000170 63 c9 48 bb 50 6f 93 3b 83 75 fb bc 86 4e 80 3d
       -0.0030637614 0.0044993535 -0.030695682 0.06264977
000180 87 8a 00 80 f6 ea ce 3d e1 8a 77 bd 7d ae 22 be
       -4.9694e-41 0.10103409 -0.06043518 -0.15886874
000190 c7 bd c8 3c 9d 7e 38 3d af 46 02 bd c1 64 e1 3b
       0.024504555 0.045042623 -0.03180569 0.006878466
0001a0 87 43 d3 bd fe 92 12 bc e8 39 de 3d 20 8a 00 80
       -0.10315614 -0.0089461785 0.108508885 -4.955e-41
0001b0 aa 8d 25 3c 34 af 4d 12 a5 91 40 3d fb f9 1c bd
       0.010104576 6.490255e-28 0.047013897 -0.038324337
0001c0 1d c1 f4 3c 51 54 e9 3d e9 ea d3 3d c3 8a 00 00
       0.02987724 0.11393035 0.1034754 4.9778e-41
0001d0 50 0f ae 3d a8 53 6a bc 61 f9 82 0e 4e 42 58 bd
       0.084990144 -0.014302172 3.2287617e-30 -0.052797608
0001e0 12 1f 9a bd fd e0 40 3e 66 fc 00 bd 6d 96 d3 31
       -0.075254574 0.18835826 -0.031490706 6.1580097e-09
0001f0 cb f5 3e bd 87 99 93 bd c3 11 95 3d 23 a2 ec bc
       -0.046621125 -0.072070174 0.072787784 -0.028885907
000200 bc a3 ff 3c 54 51 38 3d 9e 93 65 ad 60 61 87 3c
       0.031206004 0.044999436 -1.30499205e-11 0.016525924
000210 a7 71 24 3d 03 6b 36 bd cf 88 00 00 4a e1 c2 af
       0.04014745 -0.044535648 4.9078e-41 -3.5448472e-10
000220 03 d0 5f bd 56 85 5f 3d c5 45 18 3c e4 82 84 ba
       -0.054641735 0.05457052 0.009293978 -0.0010109809
000230 44 ae da bc 03 d4 35 3d 48 d9 05 25 b5 3f b9 bc
       -0.026694424 0.044391643 1.1609529e-16 -0.022613386
000240 62 89 00 00 d5 a3 e9 bc fa 88 00 00 73 90 00 80
       4.9284e-41 -0.028520504 4.9138e-41 -5.1819e-41
000250 07 3c f3 bc 07 aa f0 bc 81 fa 8f bd 12 75 0b 3d
       -0.02969171 -0.02937795 -0.07030202 0.034047194
000260 1d 53 00 80 77 f8 9a 3c af 53 00 80 89 ef 20 00
       -2.9815e-41 0.018917305 -3.002e-41 3.024665e-39
000270 e4 73 58 bc 3b 76 4e 3d d5 8a 00 00 ed ea 1a bd
       -0.013211224 0.050405722 4.9804e-41 -0.0378217
000280 a5 2b 51 bc 2f 5f b5 bb 95 e7 ad 3c a7 8b 00 80
       -0.012766753 -0.0055350284 0.021228591 -5.0098e-41
000290 9f dd 13 37 67 89 00 00 16 ea b6 b5 d3 89 00 80
       8.813483e-06 4.929e-41 -1.3628185e-06 -4.9442e-41
0002a0 e1 78 8d bb 10 54 f6 bc 96 95 12 bb d3 ed 14 b8
       -0.0043173884 -0.030069381 -0.0022366992 -3.550744e-05
0002b0 e8 56 66 bc 55 aa 0f 00 3f a7 09 bd 6c 89 00 00
       -0.014058806 1.438636e-39 -0.033606764 4.9298e-41
0002c0 60 24 32 3d 50 48 ff bb e9 05 cc 3c 99 24 85 1b
       0.04349172 -0.0077906027 0.024905162 2.2026655e-22
0002d0 2d e2 0d bd d6 fb 7a 3b 49 8a 00 00 a9 32 29 bd
       -0.034639526 0.0038297079 4.9607e-41 -0.04130808
0002e0 71 88 f0 bb c7 38 7d b7 3a 8a 00 80 4f 67 00 80
       -0.007340484 -1.5093195e-05 -4.9586e-41 -3.706e-41
0002f0 4d c8 b3 3c ab aa 92 bd a7 ec 44 3c 35 9c 00 80
       0.021946097 -0.071614586 0.012019313 -5.6037e-41
000300 04 30 22 34 b1 9f 64 ba e5 4d 6e bd 57 7e 30 b6
       1.5104894e-07 -0.00087213056 -0.058179755 -2.6299583e-06
000310 90 e2 29 bb fb 68 92 22 01 89 00 00 ff d7 d3 bc
       -0.0025922395 3.968453e-18 4.9148e-41 -0.02585983
000320 6d 77 84 bd 59 92 7b bc ee eb b1 bc 54 29 e9 bb
       -0.06468091 -0.015354716 -0.021718945 -0.0071155224
000330 8f f3 b5 3c c8 56 36 26 21 15 05 3d a2 9a ac b7
       0.022210864 6.3261545e-16 0.032490853 -2.0576004e-05
000340 a4 48 46 bc 2e 17 a6 3c 22 8c 00 80 37 96 5e 3d
       -0.01210228 0.020274725 -5.027e-41 0.054342475
000350 31 ff ae bb fe ad 0d 3d e0 5b e0 bc 8b a5 d9 bc
       -0.00534048 0.03458976 -0.02738756 -0.026568195
000360 bc 03 10 bd 55 46 93 3c 3e 8b 0a bd ac 2e 86 bc
       -0.03515981 0.017977873 -0.033824198 -0.016379677
000370 76 76 2e 3d a5 7c 0c 3c f9 5b c8 3c d0 3f 07 bd
       0.042593442 0.008574639 0.024457918 -0.03301984
000380 0a 94 00 00 e7 d8 fb 3b 05 ea ff 3b fd 88 00 80
       5.3106e-41 0.007685769 0.0078098797 -4.9142e-41
000390 a9 f7 84 bd 42 94 c6 3b e9 5b 00 ae 43 8d d1 3b
       -0.0649255 0.006060154 -2.9185463e-11 0.0063950135
0003a0 c4 ad ff bc 73 f0 19 bd 59 ef db bb 02 8b 00 80
       -0.031210788 -0.037582826 -0.006711882 -4.9867e-41
0003b0 26 89 00 80 0c a9 00 00 06 ad e7 b8 0f 66 3f bd
       -4.92e-41 6.0643e-41 -0.000110471665 -0.04672819
0003c0 06 2a 18 3b 6d 93 03 3d 6e 63 8f 3c fa 8a 00 00
       0.0023218407 0.032123018 0.017503466 4.9855e-41
0003d0 9c 2b bc 3b 96 6d c3 bc 95 8a 00 80 76 fd 16 3d
       0.0057425033 -0.023855966 -4.9714e-41 0.036862813
0003e0 f1 88 00 00 42 89 00 80 f4 42 02 12 79 8a 00 80
       4.9125e-41 -4.9239e-41 4.1103293e-28 -4.9675e-41
0003f0 4b ca 15 bb a1 ae 00 80 91 a4 7c 3b da 43 43 bd
       -0.0022856172 -6.2645e-41 0.0038550238 -0.04767213

act_conv1.bias f4 [4]
000000 ab 8a 51 3d 28 c0 7d bd 18 d5 d6 bc 73 9a 00 3e
       0.051157635 -0.061950833 -0.026224658 0.12558918

act_fc1.weight f4 [81, 324]
000000 4c a2 a8 3c 1f 22 7b 3c c5 fe 28 3c 2c e5 33 bc
       0.020585202 0.015327959 0.010314648 -0.010979932
000010 9c d3 a8 bc 0b 53 3b bc 44 8a 42 bc d3 64 3c bc
       -0.020608716 -0.011433373 -0.011873785 -0.011498648
000020 39 60 1a bd d2 fa 47 3d c7 83 11 3d 0e 78 1b bd
       -0.03768942 0.048823185 0.035526063 -0.03795629
000030 45 26 3f bd 8f da d7 bc 75 a3 5f b9 59 01 e0 bc
       -0.046667356 -0.026349334 -0.0002132783 -0.027344393
000040 85 2a 3e 3c 1a 70 bc bc cb 3c 78 3c a1 e0 14 3c
       0.011606817 -0.023002673 0.015151213 0.009086759
000050 5b ef f0 bc 51 dc 3e bd e9 bb 97 bc a8 bc 39 bd
       -0.029411009 -0.04659683 -0.01852222 -0.045345932
000060 25 b6 bb 3b 61 ae 90 bc 4a ef 47 3c 18 36 e6 3c
       0.0057285004 -0.017661275 0.012203047 0.028101966
000070 e3 a2 0e bd c7 15 b1 bc c9 98 dd bc 51 ba 23 bd
       -0.03482331 -0.02161683 -0.027050393 -0.039972607
000080 d8 fe 03 bd b9 15 27 bd ad 99 d0 3c a0 2f 35 bd
       -0.03222546 -0.0407922 0.025463903 -0.044234872
000090 cb 23 dc bc ae 6a f5 bc ae 40 5e bd fb 16 cb bc
       -0.026872536 -0.029958095 -0.054260902 -0.024791231
0000a0 0e fb b3 bc 31 8f 26 bd 30 51 78 bd 7d f7 60 bc
       -0.021970298 -0.0406639 -0.0606243 -0.013730881
0000b0 9e c8 dd bc 81 02 9b 3b 26 98 3b bd 5d ac 5b bc
       -0.0270732 0.004730523 -0.045799397 -0.013407794
0000c0 55 f3 f9 bc 41 7b 6b bd 88 08 6f bd 84 a6 f1 bc
       -0.030511538 -0.05749059 -0.058357745 -0.029498346
0000d0 7e 3f 56 bd 27 84 0f bd 49 a5 86 3d 84 82 3b 3b
       -0.052306645 -0.03503814 0.065744944 0.002861173
0000e0 3a da 46 bd ec 70 07 bd 90 28 3d bd 78 05 2f 3a
       -0.04854796 -0.033066675 -0.04618126 0.0006676535
0000f0 f3 16 2a bd 87 80 2b bd 07 dd 64 bd ae e5 89 3e
       -0.041525792 -0.04187062 -0.05587485 0.26933044
000100 cb 43 39 bc 2e 5f ab 3a 15 88 e6 3b 60 e9 a6 bd
       -0.011307667 0.001307463 0.007035265 -0.081499815
000110 07 84 e2 bc 4e 3d 8c bc 9a 54 3c 3d 30 2e 8d 3c
       -0.027650846 -0.017119076 0.04597912 0.017233938
000120 ca 66 89 3e 11 c7 7f 3e d0 33 fb bc 62 fb cc 3c
       0.26836234 0.24978282 -0.030664355 0.025022212
000130 e7 7b 9b bc 1c 77 08 bc 7c cf 05 bc 3d e7 0e 3c
       -0.01897998 -0.008329179 -0.008167144 0.008722124
000140 e2 96 1a 3d 10 73 d7 b6 a9 be 1d ba 19 25 94 ba
       0.03774155 -6.4208944e-06 -0.0006017485 -0.001130256
000150 a6 f8 34 bb 72 2d 41 3a c2 72 3b ba fa d5 fe 39
       -0.0027614026 0.00073691376 -0.0007150584 0.0004860608
000160 9d ef da 38 fa 48 48 b0 59 75 ea b8 14 0b 14 b9
       0.000104396815 -7.286328e-10 -0.00011179847 -0.00014118507
000170 3a 90 b4 bb 2a 6b 43 3a 52 60 3a ba 2d 9c 3f ba
       -0.005510357 0.00074546284 -0.000710969 -0.0007309344
000180 99 cc 54 ba da 45 54 ba 86 db 28 b7 e9 a8 2c b9
       -0.00081176456 -0.0008097567 -1.0064692e-05 -0.00016466122
000190 cc 6f b4 3a 52 12 0b bc cf ce 59 bb 64 ec 00 bb
       0.0013766228 -0.008488255 -0.003323484 -0.001967215
0001a0 da 59 66 3b 57 44 ad bb 04 8d 1f ba bc 6c f7 36
       0.003514877 -0.0052876878 -0.00060863816 7.373832e-06
0001b0 8f 1e d9 38 51 e7 55 3b 48 bf ce bb 45 cd 74 bb
       0.00010353058 0.0032639096 -0.0063094236 -0.0037353795
0001c0 41 19 ac bb c1 0c 35 bc 9e 64 90 3b c9 44 5d b9
       -0.005252034 -0.011050404 0.0044065258 -0.00021101827
0001d0 b0 ff da b7 0e 50 38 ba b2 dc 04 3b 75 df 43 3b
       -2.6106689e-05 -0.0007030972 0.0020273146 0.002988783
0001e0 9d f5 42 ba e8 0e 2d bc 9c fd 18 bc 47 b6 5c 3b
       -0.0007437112 -0.010562636 -0.009337809 0.0033677982
0001f0 5a 81 ec ba 1a 92 b6 b7 c5 ea 8f ba 79 9b 14 bb
       -0.0018043921 -2.1764125e-05 -0.0010980001 -0.0022675677
000200 6a c1 55 3a 4a 13 36 bc cd 26 23 bb 0b 8d ce bb
       0.0008154126 -0.011112997 -0.0024894953 -0.0063034347
000210 82 1d 1f 3b b2 f8 e0 39 97 9f 82 b7 a1 80 1e ba
       0.0024279063 0.00042909902 -1.5571522e-05 -0.0006046389
000220 fb 06 7a ba ee b9 fe bb 80 ca 28 bc 18 eb ec bb
       -0.00095377833 -0.0077736294 -0.010302186 -0.007230174
000230 c5 67 55 bb 6a 38 bc bb cc 23 44 bb 9a 6d 9b 36
       -0.0032563072 -0.00574403 -0.0029928563 4.6321193e-06
000240 d2 76 21 b9 44 54 9e ba b9 e7 e6 b7 5e d9 bd bb
       -0.0001539842 -0.0012079556 -2.752604e-05 -0.0057937345
000250 f2 a7 e1 bb 31 80 92 bb 5f eb a9 bb 5b b8 95 b7
       -0.0068864757 -0.004470848 -0.005185529 -1.7848031e-05
000260 42 35 e6 33 4e fc 87 30 b4 3b 41 b7 2c c7 4c b8
       1.0719897e-07 9.894252e-10 -1.1517597e-05 -4.8822883e-05
000270 e2 7c 32 b8 ae 7c c8 b8 ce 21 27 b9 bb 1a ab b8
       -4.2554813e-05 -9.5599666e-05 -0.00015938954 -8.158894e-05
000280 f2 ab 1d 33 f8 88 00 80 b6 89 00 80 7f 92 00 80
       3.6710794e-08 -4.9135e-41 -4.9401e-41 -5.2553e-41
000290 e6 93 00 00 d5 88 00 00 5d 94 00 00 2d a5 00 80
       5.3056e-41 4.9086e-41 5.3223e-41 -5.9254e-41
0002a0 fc 88 00 80 d4 94 00 80 48 8a 00 80 1a 93 00 00
       -4.9141e-41 -5.339e-41 -4.9606e-41 5.277e-41
0002b0 55 8a 00 80 42 8a 00 00 d2 89 00 00 0a 89 00 80
       -4.9624e-41 4.9598e-41 4.944e-41 -4.916e-41
0002c0 3f 8c 00 80 ce 89 00 80 42 89 00 80 0d 8a 00 00
       -5.0311e-41 -4.9435e-41 -4.9239e-41 4.9523e-41
0002d0 ef 89 00 00 67 47 68 17 24 e9 24 9e 5f b3 3a 21
       4.9481e-41 7.5053365e-25 -8.7303e-21 6.3256647e-19
0002e0 84 5e f4 9e 2a f0 3c a0 96 1a 1c a0 5e ca c9 97
       -2.5873596e-20 -1.6003683e-19 -1.322251e-19 -1.3040405e-24
0002f0 4d 8c 00 80 fe 8a 00 00 7d f3 75 26 32 e6 d6 a8
       -5.033e-41 4.9861e-41 8.533144e-16 -2.3858604e-14
000300 9a c2 c0 a7 5c cf fd a5 0a e8 7e a7 a3 6f d9 28
       -5.3501693e-15 -4.4029016e-16 -3.537537e-15 2.4140254e-14
000310 0c de e6 a2 c6 88 00 80 8e 8a 00 80 4e 3c b6 23
       -6.2576726e-18 -4.9065e-41 -4.9704e-41 1.975802e-17
000320 71 33 b3 a6 b0 d3 27 a6 36 d0 aa a8 4b 14 3a 27
       -1.2434563e-15 -5.8226654e-16 -1.8964089e-14 2.5823686e-15
000330 d5 19 8c 28 bb 4a 28 22 b7 8c 00 80 61 8a 00 00
       1.5554325e-14 2.2807808e-18 -5.0479e-41 4.9641e-41
000340 f6 2a 58 25 1b cf 9a a9 9a e6 4d a9 7d d8 54 a8
       1.8749569e-16 -6.874901e-14 -4.571916e-14 -1.18153075e-14
000350 78 ee 75 a8 96 6e 8a 29 d4 a9 d6 25 4c 8a 00 00
       -1.3651942e-14 6.147615e-14 3.7238162e-16 4.9612e-41
000360 42 8a 00 80 c6 f4 64 a6 1b 17 08 2b 61 95 6a a9
       -4.9598e-41 -7.943512e-16 4.834897e-13 -5.2088003e-14
000370 dd bf 09 ab 66 5d 85 aa 25 f9 99 ab 7a e0 9c 23
       -4.893844e-13 -2.3690354e-13 -1.0940455e-12 1.7008623e-17
000380 9d 8c 00 80 50 65 00 00 94 fd 99 2d c3 1d 03 af
       -5.0443e-41 3.6344e-41 1.7506697e-11 -1.1924954e-10
000390 88 ab 9d 30 d1 eb 35 b1 13 38 9e b0 24 90 9a 2e
       1.1472006e-09 -2.6473013e-09 -1.151195e-09 7.028714e-11
0003a0 65 7e d9 23 90 89 00 80 2a da d0 23 0a 56 5b 35
       2.3580717e-17 -4.9348e-41 2.2643801e-17 8.170906e-07
0003b0 dd 43 80 b6 23 6f 4c b4 35 c5 77 b6 3d 9e 8e 36
       -3.8225976e-06 -1.9039412e-07 -3.6920658e-06 4.250351e-06
0003c0 56 0f 1b 35 55 11 8d b0 f1 8a 00 00 b1 e5 74 3d
       5.7764316e-07 -1.0264026e-09 4.9843e-41 0.059789363
0003d0 c8 11 55 3d 51 e7 48 3c e2 7b f5 3c 0a 72 a8 3c
       0.05201891 0.012262181 0.029966298 0.02056219
0003e0 7f 34 12 3d e2 b4 9f 3c 9f 55 f9 3c ee 29 7d 3d
       0.035694595 0.019495431 0.030436335 0.061807565
0003f0 bb e8 3b 3d 46 81 0f 3c 97 21 0a 3d 3d c3 92 3c
       0.045876246 0.0087588485 0.03372344 0.017915362

act_fc1.bias f4 [81]
000000 db 28 05 3e f9 fe be bc d8 c0 4e be 4e 40 0b 3e
       0.13003866 -0.02331494 -0.20190752 0.13598749
000010 96 eb 10 3e 00 1e 0a 3e dc c3 04 be 79 a4 ca bc
       0.14152369 0.13488007 -0.1296534 -0.02473663
000020 25 01 d3 3d f5 2e 8f bc 3d 79 93 bd 07 00 e0 3d
       0.10302953 -0.017478446 -0.07200859 0.10937505
000030 6a 05 52 3d 9b fb 84 3e a0 b5 94 3d 57 29 ad 3d
       0.051274695 0.2597321 0.07261205 0.084551506
000040 74 7c 35 be a4 c6 16 bd 9a 68 31 be a8 9a 16 3e
       -0.17723256 -0.036810532 -0.17325059 0.14707434
000050 7f 4a 8b 3c 81 da 6c 3e 9f f5 b0 bd 9a fc 44 3e
       0.017003296 0.23130228 -0.086405985 0.19236985
000060 36 2a df 3c 96 4c 1e 3e 1d e4 03 be 9d fa b0 3d
       0.027241807 0.15458903 -0.12879987 0.08641551
000070 d5 5a 13 3d c8 40 01 3e 6b 14 0d 3e f5 19 4c 3e
       0.035975296 0.12622368 0.1377732 0.19931777
000080 db 35 d5 3d 20 97 45 3e e1 90 43 3d d5 ad eb 3d
       0.10410663 0.19295931 0.04774559 0.11507765
000090 3b b9 ed 3d 26 b0 57 3e df d9 1b bd 49 ec 83 3e
       0.116075955 0.21063289 -0.038049575 0.2576621
0000a0 6a e1 33 bd 9a 77 92 3e 55 99 b3 bd 30 25 72 3e
       -0.043916143 0.28606874 -0.0876948 0.23646998
0000b0 a8 a7 cd 3d 6d ab b8 3d 9e 91 71 3d f3 1f 1e 3e
       0.100417435 0.09017072 0.058976762 0.15441875
0000c0 71 b8 ee 3d aa e9 7e 3e 6b 09 a8 3d 66 cd 55 3e
       0.11656273 0.24893823 0.08204921 0.20879135
0000d0 5d 15 b3 3b f2 b4 bc 3d 62 30 34 be d8 1c 0b 3e
       0.005465193 0.092142 -0.17596582 0.13585222
0000e0 2c b0 d2 3d 95 01 7a 3e ad dc c7 bd 02 1d 0f 3e
       0.10287508 0.24414666 -0.097588874 0.1397591
0000f0 f3 15 51 ba 83 0d 1c 3e b4 c1 0e be bb 41 9d bd
       -0.0007975988 0.1523953 -0.1394108 -0.07678553
000100 72 46 fc bd 80 52 10 3e 72 19 5d 3d 19 7f 32 3e
       -0.12318124 0.14093971 0.053979345 0.17431296
000110 56 bc 13 3d 01 62 09 3e bc 34 1c be 9e 50 f3 bc
       0.036068283 0.13416292 -0.15254492 -0.029701527
000120 6e 2c 42 3d c4 a4 a8 bd 9d ef 36 be 59 68 d2 3d
       0.047405653 -0.082345515 -0.17864843 0.10273809
000130 20 c3 96 3d 0d ea b7 3d 2d 44 24 be 91 a9 e6 bc
       0.07361436 0.089801885 -0.16041632 -0.028157027
000140 f5 0f de 3d
       0.10842887
