课程设计/AlphaZero简单复现/models/policy_batch_900.model (torch, 530617 bytes, 15 tensors)

conv1.weight f4 [32, 4, 3, 3]
0	0x3e4b7c34	0.19871598
1	0xbd66b5e3	-0.056325804
2	0x3e76c5a4	0.24098831
3	0xbcf8395a	-0.030300785
4	0xbd56471d	-0.052313913
5	0xbdd1a85f	-0.10237192
6	0x3eb04d7a	0.3443411
7	0xbe5e83e9	-0.21730007
8	0x3ed5d786	0.41765994
9	0x3e24f263	0.16108088
10	0xbcb25240	-0.021767735
11	0x3e314815	0.17312653
12	0xbc5fd35e	-0.013661234
13	0xbdc7cbbe	-0.097556576
14	0xbd8cda44	-0.06877568
15	0x3e76d232	0.2410362
16	0xbdb0c350	-0.08631003
17	0x3e745fff	0.23864745
18	0x3da8a7fa	0.08235164
19	0xbcb3e149	-0.02195801
20	0x3c3799ea	0.01120613
21	0xbb8b6300	-0.004253745
22	0x3ba1fe05	0.0049436116
23	0xbd8371ec	-0.06418213
24	0x3c1be081	0.009513975
25	0xbdb0fb45	-0.08641676
26	0x3dbacec0	0.09121466
27	0xbbc65fcb	-0.0060539
28	0x3ac2a629	0.0014850545
29	0xbd56fcce	-0.052487187
30	0xbdc86b66	-0.097861096
31	0x3df97cf8	0.12182039
32	0xbcbbfb41	-0.022946956
33	0x3af1c2d3	0.0018444903
34	0x3d145f24	0.036223546
35	0xbd3bf484	-0.045887485
36	0x3ea0bed5	0.31395593
37	0x3e85e02e	0.26147598
38	0xbec6380e	-0.3871464
39	0x3e21c482	0.15797618
40	0xbd746dcf	-0.059675034
41	0x3e9df1a2	0.30848414
42	0xbe5a2971	-0.21304871
43	0x3e1a2396	0.15052637
44	0x3e326715	0.17422135
45	0x3dd23532	0.102640525
46	0x3d074957	0.033028927
47	0xbd18fb92	-0.03734929
48	0xbe5a1b71	-0.2129953
49	0xbbe85a6a	-0.0070908563
50	0xbdc823b8	-0.09772438
51	0x3df4e824	0.1195834
52	0xbded90a1	-0.115998514
53	0x3e2cc96f	0.16873716
54	0xbd0dec95	-0.03464945
55	0x3c240c3d	0.010012683
56	0x3bd18fc2	0.006395311
57	0xbc5b9a6c	-0.013403516
58	0xbd40a666	-0.04703369
59	0x3cf37400	0.029718399
60	0x3d1cf555	0.038319904
61	0x3cc9b6a6	0.024623226
62	0xbbca942e	-0.006182215
63	0x3b3328ee	0.0027337628
64	0xbe177f59	-0.14794673
65	0x3d587cf8	0.052853554
66	0xbe239482	-0.1597462
67	0x3d8689e4	0.06569269
68	0xbe18f0e7	-0.14935647
69	0x3e108cd4	0.14116222
70	0xbd5cf97c	-0.053948864
71	0x3e276209	0.16345991
72	0x3e581bbe	0.21104333
73	0x3e27a738	0.16372383
74	0xbcdd2bf4	-0.026998498
75	0xbe91c230	-0.28468466
76	0xbd625180	-0.055253506
77	0xbe848690	-0.25883913
78	0x3d9aa30a	0.075506285
79	0x3e44002f	0.19140695
80	0xbe62306c	-0.22088784
81	0xbdeb05b7	-0.114756994
82	0xbe438321	-0.1909299
83	0xbd23893f	-0.03992581
84	0x3e7158fe	0.23569104
85	0x3e36507e	0.17804143
86	0x3dd913c0	0.1059947
87	0x3dd09111	0.10183919
88	0xbe55cf9d	-0.2087998
89	0x3cb9abea	0.022664983
90	0xbd6d0963	-0.05787028
91	0xbde523de	-0.11188482
92	0xbcdf3014	-0.027244605
93	0xbd7c09b3	-0.061532687
94	0x3a9a6822	0.0011780302
95	0x3d68dcd3	0.05685122
96	0xbb8f3cad	-0.004371247
97	0xbd435507	-0.04768851
98	0x3d173b69	0.036921892
99	0xbe000682	-0.12502483
100	0x3df59b34	0.11992493
101	0x3da2af63	0.079436086
102	0x3cafaa6d	0.02144357
103	0x3d5c3488	0.053761035
104	0x3d80a6c6	0.062818095
105	0x3d60d7d3	0.054893326
106	0x3e08d892	0.13363865
107	0xbe2788c0	-0.1636076
108	0xbc50aeda	-0.012737
109	0xbee10f34	-0.43956912
110	0x3e9e48d6	0.30914944
111	0xbd3a2de1	-0.04545391
112	0x3ec6aac0	0.38802147
113	0xbec0c8d7	-0.3765323
114	0x3c70435e	0.014664499
115	0x3d129c21	0.035793427
116	0x3dc1d9a2	0.09465338
117	0x3db4ef1b	0.08834668
118	0x3d97af5a	0.074064925
119	0xbe25ea34	-0.16202623
120	0x3e0e8c4b	0.13920705
121	0xbdd36c35	-0.10323373
122	0x3dfa289b	0.12214776
123	0xbcf921b4	-0.030411579
124	0x3ddf3e0b	0.10900506
125	0x3e2323f6	0.15931687
126	0xbc38d430	-0.011281058
127	0x3a2ce27e	0.0006595029
128	0xbbcef545	-0.0063158595
129	0xbbeff821	-0.0073232804
130	0xbc9bb2c3	-0.019006139
131	0x3d474729	0.048651848
132	0xbc903f7b	-0.017608395
133	0xbbf50a4a	-0.007478033
134	0x3cb94d35	0.022619823
135	0x3d8ec603	0.069713615
136	0xbd72b383	-0.059253227
137	0x3dbb6e5f	0.09151911
138	0x3e093216	0.13398013
139	0xbc185110	-0.009296671
140	0xbdc4d188	-0.096102774
141	0xbde33f8a	-0.110961035
142	0xbdbb7c50	-0.0915457
143	0x3dffdc2b	0.124931656
144	0xbe64fc7b	-0.22361939
145	0xbdae1153	-0.08499398
146	0xbd2e074e	-0.042487435
147	0x3d417915	0.047234613
148	0x3e167dcd	0.14696427
149	0x3df1a195	0.117983975
150	0xbd69e390	-0.057101786
151	0xba871787	-0.0010306694
152	0x3e435566	0.19075546
153	0xbdf88163	-0.121340536
154	0xbb313d98	-0.002704477
155	0xbe09779a	-0.1342453
156	0x3ddf9e4c	0.109188646
157	0xbc6551a1	-0.013996513
158	0xbe06e43d	-0.13173003
159	0x3d84badb	0.06480952
160	0xbd960b0c	-0.07326326
161	0xbe045cbf	-0.12926005
162	0xbd424c7f	-0.047436234
163	0x3b83cbd7	0.0040221023
164	0x3e2ede75	0.17077048
165	0x3e101c30	0.14073253
166	0x3bea72ba	0.0071547898
167	0xbd25beaf	-0.040465053
168	0x3cfa42f3	0.030549502
169	0xbcd62a6c	-0.026143275
170	0xbcd907d0	-0.026492983
171	0x3d907f62	0.07055546
172	0x3da399bc	0.07988307
173	0x3e00d9df	0.12583111
174	0x3e000a1b	0.12503855
175	0x3da9adf3	0.08285131
176	0x3dd1f2ec	0.10251412
177	0x3e13ccca	0.1443359
178	0x3e1186a9	0.14211525
179	0x3df8c188	0.12146288
180	0x3e74cabb	0.2390546
181	0x3d77739e	0.060412996
182	0xbda533b9	-0.08066506
183	0xbe9fb3cf	-0.3119187
184	0x3ebceebf	0.369009
185	0x3ea0cccb	0.31406245
186	0x3ea2118b	0.3165401
187	0xbd143bcb	-0.036189836
188	0x3ccae3b0	0.024766773
189	0x3ddd90e6	0.10818653
190	0xbd46bfd4	-0.048522785
191	0xbe1ff503	-0.15620808
192	0xbeee4584	-0.4653741
193	0x3e548e91	0.2075751
194	0x3e123c08	0.14280713
195	0x3e024051	0.12719847
196	0xbe3653ff	-0.1780548
197	0xbdc89ac9	-0.09795148
198	0x3e103af1	0.14084984
199	0x3dc8b7c9	0.09800679
200	0x3d144283	0.036196243
201	0x3d062415	0.032749254
202	0x3e1ceb58	0.15324152
203	0x3d894da7	0.06704264
204	0x3daf6867	0.08564835
205	0x3dbdc7d8	0.09266633
206	0x3af7c765	0.0018904029
207	0x3d11b158	0.03556952
208	0x3d382893	0.04496057
209	0x3dfbe5d2	0.12299694
210	0x3e15ba3d	0.14621826
211	0xbe043d9b	-0.12914126
212	0xbda10374	-0.07861987
213	0xbc951fba	-0.018203605
214	0xbd755fad	-0.059905697
215	0x3e2a40f6	0.16626343
216	0xbc67a5e9	-0.014138677
217	0xbd8e6ef6	-0.06954758
218	0x3bc0b4d1	0.00588093
219	0xbd1c9f3a	-0.038237788
220	0xbc5f80f0	-0.013641581
221	0xbe5467ee	-0.20742771
222	0x3ce04b87	0.027379764
223	0xbcb8b1d1	-0.022545727
224	0x3e87aea2	0.26500422
225	0xbd0cbe1c	-0.03436099
226	0x3d53ee19	0.05174074
227	0x3d9b3138	0.07577747
228	0xbd0051a3	-0.031327855
229	0x3ec34a8f	0.3814282
230	0xbedd7cf3	-0.4325939
231	0x3ceac6f1	0.028659316
232	0xbf109a59	-0.56485516
233	0x3e809640	0.25114632
234	0x3c321443	0.010869089
235	0x3da10878	0.078629434
236	0x3d6e728d	0.058214713
237	0x3d9aadc0	0.075526714
238	0x3e21898f	0.1577513
239	0xbe4c7a90	-0.19968629
240	0x3e09df2e	0.13464043
241	0xbdfd3803	-0.12364199
242	0x3e4599b9	0.19296922
243	0x3c962ce7	0.018331958
244	0x3e04c555	0.12965901
245	0x3dfc6df4	0.123256594
246	0x39ee4a39	0.00045450198
247	0xbd943d5e	-0.07238267
248	0xbbdbb115	-0.0067044594
249	0xbe08cf30	-0.13360286
250	0xbcf22553	-0.029558813
251	0xbd511a15	-0.051050264
252	0xbe506aa5	-0.20353182
253	0x3e00587f	0.12533759
254	0x3e9c6c1e	0.30551237
255	0xbe2af20d	-0.16693898

conv1.bias f4 [32]
0	0xbd859d52	-0.06524147
1	0x3e05e909	0.13077177
2	0x3ded5bd8	0.115897834
3	0x3ac7125a	0.0015187964
4	0xbe141c39	-0.14463891
5	0x3b84ae94	0.0040491316
6	0x3ca32527	0.019915177
7	0x3d9c44b2	0.0763029
8	0x3d25f584	0.040517345
9	0xbdd9182b	-0.10600313
10	0x3ea120d8	0.3147037
11	0xbd0ee332	-0.03488464
12	0xbe10fa91	-0.14158083
13	0xbce981a6	-0.028504204
14	0x3b8bff27	0.00427236
15	0x3e6ef5b2	0.23335913
16	0xbd297624	-0.041372433
17	0x3e732204	0.23743445
18	0xbbd39c36	-0.006457831
19	0x3c8870f2	0.016655419
20	0x3e955a1a	0.29170305
21	0xbc88bb2b	-0.016690811
22	0xbd742862	-0.059608825
23	0xbc3f06b6	-0.011659315
24	0xbcf956af	-0.030436842
25	0x3e467622	0.19381002
26	0x3e89dd96	0.2692687
27	0xbcadb430	-0.021204084
28	0xbd492137	-0.04910394
29	0xbde87258	-0.11349934
30	0x3dac794f	0.08421575
31	0xbe133b8b	-0.14378183

conv2.weight f4 [64, 32, 3, 3]
0	0x3de35b36	0.111013815
1	0x3e1e616b	0.1546685
2	0x3e2cdff6	0.1688231
3	0x3e3bb05b	0.18328993
4	0xbaee7c32	-0.0018194972
5	0x3e4cb66e	0.19991466
6	0x3ba1c6e2	0.0049370388
7	0x3dd9f7b5	0.106429495
8	0x3c12cf09	0.008960494
9	0x3e125133	0.14288788
10	0xbdd417b3	-0.10356083
11	0xbd53739c	-0.051623926
12	0x3c212391	0.00983514
13	0xbcfc7f59	-0.030822443
14	0xbe28eef0	-0.16497397
15	0xba17895d	-0.00057806616
16	0x3d8df1ef	0.06930911
17	0x3e46639b	0.19373934
18	0xbd128075	-0.035767037
19	0x3c0be27f	0.008537888
20	0x3db5495d	0.088518836
21	0xbd3ffde1	-0.046872977
22	0x3d554182	0.052064426
23	0xbad83be2	-0.0016497339
24	0xbd0866ac	-0.03330104
25	0xbd9667cb	-0.07344016
26	0xbd2b6ab6	-0.041849814
27	0x3d3a86cf	0.04553872
28	0x3dc747f9	0.097305246
29	0xbcddda06	-0.0270815
30	0x3cc35c9c	0.02384787
31	0xbe003e10	-0.12523675
32	0x3dbc5c0a	0.091972426
33	0xbe312d3c	-0.17302412
34	0x3daaa91e	0.08333038
35	0xbde41738	-0.11137241
36	0x3cc19044	0.023628362
37	0xb9eae79f	-0.0004480453
38	0x3bf05c69	0.007335235
39	0x3b81efcb	0.003965353
40	0xbb0163f9	-0.0019743426
41	0x3be69cf7	0.0070377546
42	0xbca1d026	-0.019752573
43	0x3c1da69e	0.009622244
44	0x3d038c8c	0.032116458
45	0xbd1c0fbb	-0.03810094
46	0x3a8aed94	0.0010599368
47	0xbcaea959	-0.021320986
48	0x3d5d3edd	0.05401503
49	0x3db0cb9b	0.08632585
50	0xbdbc6dc7	-0.09200626
51	0xbd655a6c	-0.055994436
52	0xbc964025	-0.018341133
53	0xbe183218	-0.14862859
54	0x3d9f04a6	0.077645585
55	0x3c703685	0.014661436
56	0x3c062aa5	0.008188878
57	0xbdec4389	-0.11536319
58	0x3bee3d27	0.0072704735
59	0x3ddda0a9	0.10821659
60	0x3b63aec8	0.003474163
61	0x3e272a12	0.16324642
62	0x3d3d3b8a	0.04619936
63	0xbc66a244	-0.014076773
64	0xbe2de002	-0.16979983
65	0x3d886520	0.06659913
66	0x3d987d34	0.074457556
67	0x3db31f02	0.08746149
68	0xbe7df5da	-0.24800816
69	0x3e67a308	0.22620785
70	0x3cfcf0e7	0.03087659
71	0xbd91ad20	-0.07113099
72	0xbcdb02ba	-0.026734699
73	0x3d64f61e	0.05589878
74	0xbdb4d645	-0.08829931
75	0x3dab3694	0.08360019
76	0x3d85ebe0	0.0653913
77	0xbd6349df	-0.05549037
78	0xbd3fe87d	-0.046852577
79	0x3dcec42c	0.100960106
80	0x3dee8c7a	0.116478875
81	0xbd26dcca	-0.040737905
82	0x3d865c3f	0.06560563
83	0x3bb4ba8b	0.0055154017
84	0xbd8b8e03	-0.06814196
85	0xbd344474	-0.044010594
86	0x3cf5c884	0.03000284
87	0xbcee6c8f	-0.0291045
88	0x3d11c32a	0.035586514
89	0x3d4fae51	0.05070335
90	0x3d1e5fdd	0.03866564
91	0xbdae64d7	-0.085153274
92	0x3d1ca7d8	0.038246006
93	0x3dae6138	0.08514637
94	0xbd5b6f33	-0.053572845
95	0xbd9e5f11	-0.07732976
96	0x3d5ba7e1	0.0536269
97	0x3da90d84	0.08254531
98	0x3dd99f6b	0.1062611
99	0x3aa7379b	0.0012757661
100	0xbd79947b	-0.060932618
101	0x3d51a12b	0.051179092
102	0x3da105cb	0.07862433
103	0x3d818654	0.06324449
104	0x3dfe482f	0.12416112
105	0xbd23b0ea	-0.03996364
106	0x3c292f7e	0.010326264
107	0x3c198000	0.0093688965
108	0x3c78c80f	0.015184416
109	0xbcd5924f	-0.026070742
110	0xbd457738	-0.0482094
111	0x3cb7b9b6	0.022427421
112	0xbda5b46e	-0.08091055
113	0x3db901b0	0.09033525
114	0xbda9373c	-0.08262488
115	0x3a4f1443	0.00078994426
116	0x3de4b995	0.111682095
117	0xbd607c7c	-0.054806218
118	0x3b533e20	0.0032233074
119	0x3d89d12a	0.06729348
120	0x3e4e1dd2	0.20128563
121	0xbbce9e0e	-0.0063054627
122	0xbd38f2ff	-0.045153614
123	0x3e334828	0.17507994
124	0xbd8ff812	-0.070297375
125	0x3e0b46f6	0.13601288
126	0xbbe940fd	-0.007118343
127	0x3e5f2f14	0.21795303
128	0x3e1e9780	0.1548748
129	0xbd408451	-0.047001187
130	0x3d86de14	0.06585327
131	0x3d8a442a	0.067512825
132	0xbd05d00a	-0.032669105
133	0xbe581460	-0.21101522
134	0xbd310d86	-0.043225788
135	0xbc7fad36	-0.015605262
136	0x3d1abee7	0.037779715
137	0xbb16d03a	-0.0023012296
138	0xbc68f2e1	-0.014218063
139	0xbd113a07	-0.03545573
140	0x3d8a6a1c	0.0675852
141	0xbd7fcfe2	-0.062454112
142	0x3d887176	0.06662266
143	0x3d449c45	0.048000593
144	0xbd8dfb95	-0.06932751
145	0xbd6fbc72	-0.058529325
146	0xbdd47e7e	-0.10375689
147	0xbd1c3c4d	-0.038143445
148	0x3d75d161	0.060014132
149	0x3c7e8514	0.015534658
150	0x3db85ea4	0.09002426
151	0x3e590aba	0.21195498
152	0x3e116a52	0.14200714
153	0x3d650cef	0.055920538
154	0x3d6131d2	0.054979153
155	0xbd31c9e5	-0.043405432
156	0x3b883ad1	0.004157402
157	0xbca4c705	-0.020114431
158	0xbd957407	-0.07297521
159	0x3d41f80c	0.047355697
160	0xbcb407f7	-0.021976454
161	0x3d73cf17	0.05952367
162	0xbbcc1dd0	-0.00622914
163	0x3d6b7823	0.05748762
164	0xbd0af438	-0.03392431
165	0x3e3e89d6	0.18607268
166	0x3e21e7be	0.15811059
167	0xbd615539	-0.055012915
168	0xbce5040e	-0.027956035
169	0xbaac3b17	-0.0013140169
170	0xbd98eddb	-0.07467242
171	0xbdc35708	-0.09538084
172	0x3d56168f	0.052267607
173	0x3cec1aa5	0.028821299
174	0x3dad912a	0.084749535
175	0xbcbf1185	-0.023323784
176	0xbc150f7b	-0.009097929
177	0x3da9912d	0.08279643
178	0xbcf02dec	-0.029318772
179	0xbe29a4c6	-0.16566762
180	0xbda4558b	-0.080241285
181	0xbd3427b5	-0.04398318
182	0xbcf23c46	-0.029569756
183	0x3d9715f6	0.073772356
184	0xbdf89fb1	-0.12139834
185	0xbe00f457	-0.12593208
186	0x3d66fba2	0.05639232
187	0xbda03ac6	-0.0782371
188	0x3cacb8bf	0.021084188
189	0x3e55a391	0.20863177
190	0x3e448229	0.19190277
191	0x3d9f1431	0.07767523
192	0x3d3a1208	0.045427352
193	0xbd0585e8	-0.032598406
194	0xbd7507b6	-0.059821807
195	0xbe644cad	-0.22294874
196	0xbec4f579	-0.3846853
197	0x3d0d01a7	0.034425404
198	0x3ddc7b10	0.1076566
199	0x3cc01e18	0.02345185
200	0x3becbf9f	0.0072249915
201	0x3d8c4aef	0.0685023
202	0x3c90878b	0.017642757
203	0x3d8ed42b	0.069740616
204	0xbdb16ee6	-0.0866373
205	0xbcd9648c	-0.026537202
206	0x3d4dcb8a	0.050242938
207	0x3ca7bb1d	0.020474965
208	0x3dcc8dbb	0.099879704
209	0xbd9f4342	-0.077765
210	0xbc9c875f	-0.019107519
211	0x3da079c3	0.07835724
212	0x3d6a0405	0.05713274
213	0xbdda662e	-0.106640205
214	0x3d833636	0.06406824
215	0xbe2fecf1	-0.1718023
216	0x3d5d5037	0.054031577
217	0x3e3800bb	0.17969029
218	0x3b91286b	0.004429867
219	0x3dda9e6f	0.1067475
220	0x3d11f089	0.035629783
221	0xbda26038	-0.079285085
222	0x3d51c272	0.051210828
223	0xbdef9f6b	-0.117003284
224	0xbbe1423c	-0.006874351
225	0xbd392973	-0.045205545
226	0x3cd5f4a5	0.026117632
227	0xbd309236	-0.043108188
228	0xbe13ce54	-0.14434177
229	0x3c2d2ee1	0.010570259
230	0x3e07496a	0.13211599
231	0xbe29e67d	-0.1659183
232	0x3d49a14a	0.049226083
233	0x3e6c31fd	0.23065944
234	0xbdaec80f	-0.08534252
235	0x3d8069a3	0.062701486
236	0xbc88291b	-0.016621163
237	0x3d690435	0.056888778
238	0xbcf61554	-0.030039467
239	0xbb946b42	-0.0045293877
240	0xbd994536	-0.07483904
241	0xbe6b45e3	-0.22975878
242	0x3ddbeffa	0.10739131
243	0xbc20f521	-0.009824068
244	0xbd931a48	-0.07182747
245	0xbd5b7619	-0.053579424
246	0x3d7fcf78	0.062453717
247	0xbcda0feb	-0.026618918
248	0x3caaf3c9	0.020868199
249	0x3dbf99fa	0.093555406
250	0x3c3c8cba	0.011508161
251	0x3d8556ea	0.06510718
252	0x3bf55d5d	0.0074879364
253	0x3d523ce4	0.0513276
254	0xbcd9367d	-0.02651524
255	0xbd2df279	-0.042467568

conv2.bias f4 [64]
0	0xbd7d608d	-0.061859656
1	0x3d910539	0.07081074
2	0xbc36f9bf	-0.011167943
3	0xbd4c9855	-0.049949963
4	0x3de12637	0.10993617
5	0xbd4f235c	-0.05057083
6	0xbc129fee	-0.008949263
7	0xbbfe36e4	-0.0077580083
8	0xbc0ef2d5	-0.008724888
9	0xba0e497b	-0.00054278196
10	0x3d17c40e	0.037052207
11	0xb9b3cd81	-0.00034294653
12	0x3d4900c6	0.049073003
13	0x3cd7d1a6	0.026345085
14	0xbd31b4ff	-0.043385502
15	0x3cac039b	0.020997813
16	0x3d03ac4b	0.032146733
17	0xbb58e33a	-0.0033094422
18	0x3d0c8659	0.03430781
19	0x3dc4506d	0.095856525
20	0x3b93a19c	0.0045053493
21	0x3d3e82b1	0.046511356
22	0x3d63dc4c	0.055630013
23	0xbd954f8a	-0.072905615
24	0x3d08bd95	0.033383925
25	0x3d225776	0.03963419
26	0x3c20f8e6	0.009824967
27	0x3da0d374	0.078528315
28	0x3d0afa42	0.03393007
29	0x3d4f2899	0.050575826
30	0x3d2c1da2	0.042020448
31	0x3c4d1ad0	0.0125186
32	0x3cabf254	0.020989574
33	0xbc9574f1	-0.018244239
34	0xbd05419a	-0.032533266
35	0xbccc650f	-0.024950532
36	0x3d0f7ed9	0.03503308
37	0xbc313207	-0.01081515
38	0x3d8fa366	0.07013588
39	0x3dd26774	0.10273638
40	0x3dcb1189	0.09915454
41	0xbcd4504a	-0.025917191
42	0xbd8df467	-0.06931382
43	0xbd99466e	-0.074841365
44	0x3d500c70	0.05079311
45	0xbc50a994	-0.012735743
46	0x3bf1569b	0.0073650605
47	0xbbdc89c5	-0.0067302906
48	0x3d380d3a	0.04493449
49	0xbb86f7f9	-0.004118916
50	0x3c3422bd	0.01099461
51	0xbcfb46a3	-0.03067333
52	0x3d31e8b0	0.0434348
53	0x3d98d169	0.07461817
54	0xb9a6e081	-0.00031829256
55	0x3d04f292	0.032457896
56	0x3c3f7364	0.011685226
57	0xbce30740	-0.027713418
58	0x3cca7b2a	0.024716932
59	0xbc937cd9	-0.018003868
60	0x3d220152	0.03955204
61	0xbd301e70	-0.042997777
62	0xbd295427	-0.04134002
63	0xbae32977	-0.0017331083

conv3.weight f4 [128, 64, 3, 3]
0	0xbc3a5f61	-0.011375279
1	0xbd090fb3	-0.033462238
2	0x3c97ba32	0.018521402
3	0xbd7ad1b8	-0.06123516
4	0xbddcd479	-0.107827134
5	0x3c7d4ceb	0.015460233
6	0x3c49a849	0.012308189
7	0xbd41ffcf	-0.0473631
8	0x3d7dfbbc	0.06200765
9	0x3d36f3c2	0.04466606
10	0xbb2ccb27	-0.0026366205
11	0x3bdebd18	0.006797444
12	0x3d072e56	0.033003174
13	0x3c93e1cf	0.01805201
14	0x3cb99854	0.022655644
15	0x3c820f46	0.015876424
16	0xbc8d78be	-0.017269488
17	0x3c37fe45	0.011230056
18	0xb896dd21	-7.193746e-05
19	0xbcefc30c	-0.02926781
20	0xbd695788	-0.056968242
21	0x3d92b4a6	0.07163362
22	0x3d9a8327	0.075445466
23	0x3cc78cff	0.024359224
24	0xbca81132	-0.020516012
25	0x3d3a2459	0.04544482
26	0xbd8a5ea3	-0.06756332
27	0x3d75d70c	0.060019538
28	0x3d682454	0.05667527
29	0x3ce1ab44	0.027547486
30	0x3dcbd71c	0.09953138
31	0x3cb6bcaa	0.022306759
32	0x3d50cc08	0.05097583
33	0x3d9551fa	0.072910264
34	0x3da9175b	0.08256408
35	0x3d1b2db7	0.037885394
36	0x3d1c0263	0.038088214
37	0x3d92379b	0.07139512
38	0x3d1b624c	0.03793554
39	0x3b1ec08b	0.0024223651
40	0x3d8d5b82	0.06902219
41	0x3db11f74	0.08648577
42	0x3d398976	0.04529711
43	0x3d9ae7b9	0.07563729
44	0x3d5294a6	0.051411293
45	0x3cbf4c6d	0.023351872
46	0x3d21d944	0.03951384
47	0x3ca8842a	0.020570833
48	0x3c9dad8f	0.019247798
49	0x3c8b87db	0.017032554
50	0x3d0195af	0.03163689
51	0x3c245df8	0.0100321695
52	0xbc509f9c	-0.012733366
53	0x3c79cd82	0.015246751
54	0x3c1176a9	0.008878388
55	0x3c291256	0.010319313
56	0x3c046d27	0.008082665
57	0x3cf5c597	0.030001445
58	0xb9a3a4bc	-0.0003121252
59	0xbb91f96f	-0.0044547836
60	0x3d62e75d	0.055396426
61	0x3c8749ea	0.016514737
62	0xbc1be802	-0.009515764
63	0x3ccd28ce	0.025043871
64	0xbc5b696f	-0.013391837
65	0xbb34351b	-0.0027497474
66	0x3cf6eec7	0.030143155
67	0xbc324de8	-0.010882832
68	0x3c9373f3	0.017999625
69	0xbacc60bd	-0.0015592795
70	0x3ca89690	0.020579606
71	0x3d102c34	0.035198405
72	0x3cf627ad	0.030048216
73	0x3cc64271	0.024201604
74	0xbbf44b4a	-0.007455264
75	0x3d00ba07	0.03142741
76	0x3cbcb3bc	0.023034923
77	0xbc9064bd	-0.01762616
78	0x3d690ac2	0.056895025
79	0x3d206770	0.039161146
80	0xbc883554	-0.016626991
81	0x3d6fa9c3	0.058511507
82	0x3d138eec	0.036024973
83	0x3d19923a	0.03749297
84	0x3d82bd47	0.06383758
85	0x3cae6bc8	0.021291628
86	0xba832297	-0.0010004815
87	0x3d204e7c	0.03913735
88	0xbcb7bb94	-0.022428311
89	0xbb0c21c6	-0.0021382435
90	0x3c96c180	0.018402815
91	0xbd12264c	-0.035681054
92	0xbb4efdc6	-0.0031584366
93	0xbb8d5dec	-0.004314175
94	0xbcb85d0d	-0.022505308
95	0x3d534927	0.051583435
96	0x3ca4cae7	0.020116283
97	0x3c7bcd12	0.015368717
98	0xbc95de18	-0.01829438
99	0x3cf7b76d	0.030238831
100	0xbd341ebf	-0.043974634
101	0x3cdbaced	0.026815856
102	0x3d701d96	0.058621965
103	0x3d958f87	0.07302766
104	0x3ab5150c	0.0013815477
105	0xbca6b146	-0.020348202
106	0x3da9400f	0.08264171
107	0xbb1be88e	-0.0023789736
108	0x3c17e1b3	0.0092701195
109	0x3c420f8c	0.011844527
110	0xbcc0444b	-0.023470065
111	0x3d7b7ee2	0.0614003
112	0x3d14bd29	0.03631321
113	0x3d0c718a	0.034287967
114	0x3d09b117	0.03361615
115	0x3cc21af8	0.0236945
116	0x3cb484d1	0.022035988
117	0x3be439c3	0.0069648935
118	0xbaaac7ee	-0.0013029554
119	0xbc54ec04	-0.012995724
120	0xbc4be768	-0.012445308
121	0x3be4fbb1	0.0069880118
122	0xbb0f3f66	-0.0021857857
123	0x3d35fb0c	0.04442887
124	0xbbda5b78	-0.006663736
125	0x3bfb40fb	0.0076676584
126	0x3ccc8350	0.024964958
127	0x3c929050	0.01789108
128	0x3c6f89c1	0.014620245
129	0x3cfb1230	0.03064832
130	0x3d083ae1	0.033259276
131	0x3d14fdf9	0.03637502
132	0xbc5dd154	-0.013538677
133	0x3aa5ec75	0.0012658971
134	0x3cebceba	0.028785098
135	0x3c79cf62	0.015247198
136	0x3c7b4184	0.015335444
137	0x3c23e6af	0.01000373
138	0x3d8b7559	0.06809492
139	0xbab6aa88	-0.001393632
140	0xbc8f0959	-0.017460512
141	0xbb2131f6	-0.002459643
142	0x3d743d67	0.05962887
143	0xba89567c	-0.0010478045
144	0xbc473e51	-0.0121608535
145	0x3d8affde	0.06787084
146	0xbc4e6218	-0.01259663
147	0x3b84d384	0.004053535
148	0x3cf88a62	0.030339424
149	0x3d4f0f50	0.050551713
150	0xbc67e517	-0.01415374
151	0x3d16667b	0.036718827
152	0xbd882540	-0.0664773
153	0x3d6d68db	0.057961326
154	0xbd1578b6	-0.036492072
155	0x3d34cdf2	0.044141717
156	0x3c117676	0.008878341
157	0xbbefb4a6	-0.007315236
158	0xbc92ed8a	-0.017935533
159	0x3d9e4bb0	0.0772928
160	0xbd65321b	-0.055955987
161	0xba416d14	-0.00073786196
162	0xbc56042f	-0.013062521
163	0x3ce6d3a7	0.028177096
164	0x3a6975d2	0.0008905801
165	0xbda068be	-0.07832478
166	0xbda55320	-0.080724955
167	0x3d954d39	0.0729012
168	0x3c9253c9	0.017862218
169	0x3d4788c1	0.048714403
170	0x3c706aaa	0.014673868
171	0x3c65da23	0.014029059
172	0x3c69b2d7	0.01426383
173	0x3d020ee3	0.03175248
174	0x3d11bb04	0.035578743
175	0x3cdb03a8	0.026735142
176	0x3ca89398	0.02057819
177	0x3c82b230	0.015954107
178	0x3d054919	0.032540414
179	0x3b92c650	0.004479207
180	0x3cff5b05	0.031171331
181	0xbc83cf9f	-0.016090212
182	0x3d0f99d5	0.035058815
183	0x3c93cca1	0.01804191
184	0x3af70351	0.0018845593
185	0xbbd9bf92	-0.0066451514
186	0xba0941ab	-0.00052359205
187	0x3b59b0cb	0.003321695
188	0xbcdddd24	-0.027082987
189	0x3d5da54f	0.05411273
190	0x3d933db6	0.07189505
191	0xbd67bc0e	-0.056575827
192	0xbcf0042f	-0.02929887
193	0xbbe5aaa4	-0.0070088673
194	0x3d844c59	0.06459875
195	0xbdabf667	-0.08396607
196	0xbb43a1c5	-0.002985106
197	0x3d0e0a4a	0.03467778
198	0x3ce5b596	0.028040688
199	0x3da27335	0.0793213
200	0xbd49211b	-0.049103837
201	0x3d524f20	0.05134499
202	0x3cc7ee3e	0.024405595
203	0xbd02e901	-0.03196049
204	0xbc5115ce	-0.012761546
205	0x3db68bbd	0.08913372
206	0xbd740ae7	-0.05958071
207	0xbcdb6c8d	-0.02678516
208	0x3c889303	0.016671663
209	0x3cc5b742	0.024135236
210	0x3d325f25	0.04354777
211	0x3b8070cc	0.0039196964
212	0x3bdc0bd8	0.006715279
213	0xbd22e087	-0.039764907
214	0x3c6e092c	0.014528554
215	0xbd28479b	-0.041083913
216	0xbc50a174	-0.012733806
217	0x3d2457f9	0.04012296
218	0xbc20cbf0	-0.0098142475
219	0x3cd04aad	0.025426233
220	0xbc121b86	-0.008917695
221	0x3c80856d	0.015688622
222	0xbd07380f	-0.033012446
223	0xbb677051	-0.0035314749
224	0x3ce93878	0.02846931
225	0xbc58964d	-0.013219428
226	0x3c93e19f	0.01805192
227	0xbb0c7ece	-0.0021437886
228	0x3d093389	0.033496413
229	0x3d1e2d16	0.038617216
230	0x3cef8219	0.02923684
231	0xbd05f86d	-0.03270762
232	0x3c13b728	0.009015836
233	0x3c93c700	0.018039227
234	0x3cb83959	0.022488283
235	0x3ceab564	0.028650947
236	0x3c062b96	0.008189103
237	0x3c1f94ef	0.009740098
238	0x3bfbcc68	0.0076842792
239	0x3c869a92	0.016431127
240	0xbbc5d587	-0.0060374173
241	0x3c47ce06	0.012195116
242	0xbc1e19e7	-0.00964973
243	0x3d0a27a5	0.033729214
244	0x3b3ad918	0.0028510746
245	0x3c0594e2	0.008153172
246	0x3d7a9a03	0.061182033
247	0x3c901de8	0.017592385
248	0xbcb97787	-0.022640003
249	0x3ca00893	0.019535339
250	0x3d4e85a0	0.050420403
251	0x3cbb66a0	0.022876084
252	0xbc194c0f	-0.009356513
253	0xbd3a3f3a	-0.045470454
254	0xbd63bf2c	-0.055602238
255	0x3d3b6a00	0.045755386

conv3.bias f4 [128]
0	0x3c40a095	0.011757036
1	0x3d20f668	0.03929749
2	0xbd083f10	-0.033263266
3	0xbbc72498	-0.0060773604
4	0x3badcf30	0.0053042397
5	0x3d4dbecc	0.050230786
6	0xa94dfd76	-4.5738986e-14
7	0x930c95f2	-1.7744413e-27
8	0xbc67b674	-0.014142621
9	0x3c84da71	0.016217442
10	0x3d2f6abf	0.04282641
11	0x3c8345fc	0.016024582
12	0x3d06ef2a	0.03294293
13	0xbba661fd	-0.005077599
14	0xbce7dc1e	-0.028303202
15	0x3c3986b4	0.01132362
16	0xbad55e4f	-0.0016278717
17	0x3cc8351e	0.02443939
18	0x38de428d	0.00010598181
19	0xb910036b	-0.00013734183
20	0x3d0dc31c	0.0346099
21	0x3c0414b6	0.0080615785
22	0x3c364e37	0.011127046
23	0xbd33b795	-0.04387625
24	0xbab08e90	-0.0013470221
25	0xbcfa46f0	-0.030551404
26	0x9292bd79	-9.260604e-28
27	0xba8beaf5	-0.0010674881
28	0xbc4aadf3	-0.012370574
29	0x3c7943f6	0.015213957
30	0xaeefc258	-1.0902984e-10
31	0x3cf6fcac	0.03014978
32	0xbc86d652	-0.016459618
33	0xbcb4803e	-0.022033807
34	0x3c203dfb	0.009780402
35	0x3cf86663	0.03032226
36	0xbca65e2a	-0.020308573
37	0xbd8b9a2a	-0.06816514
38	0x3a51a170	0.00079967733
39	0xbb0c641e	-0.002142198
40	0xbd790dd8	-0.060804218
41	0xb8b9a560	-8.852291e-05
42	0x3c874108	0.016510502
43	0xbc9dda41	-0.01926911
44	0xbccc178f	-0.024913577
45	0x3bb1ac8a	0.0054221796
46	0x3cbd25bb	0.02308928
47	0xa39dcd8b	-1.7109025e-17
48	0xbd07839c	-0.033084497
49	0x3c52cb0b	0.012865792
50	0xbb9c9688	-0.004778687
51	0xbc001e2f	-0.007819696
52	0x3c2c352b	0.010510723
53	0xbcc0c3e5	-0.02353091
54	0xba8f5f95	-0.001093852
55	0xbcf12259	-0.029435324
56	0xbbd71251	-0.006563463
57	0xbd03a7a9	-0.032142315
58	0xac0774d4	-1.9249507e-12
59	0x3c675862	0.014120193
60	0x3d05fd7d	0.03271245
61	0xbcaa749d	-0.020807559
62	0x3c8af877	0.01696418
63	0x9d26bb9d	-2.206691e-21
64	0x3c968fae	0.018379059
65	0x3dc206d6	0.0947396
66	0x3b5cd5a7	0.0033696683
67	0x3cdf9315	0.027291814
68	0xbd30bc75	-0.043148477
69	0xbceadde1	-0.028670253
70	0x3ca8f3e8	0.020624116
71	0xbc564659	-0.013078296
72	0xbca11880	-0.019665003
73	0x3d2e5dee	0.042570047
74	0xbcc1cfee	-0.023658719
75	0xbbb94c6e	-0.005654863
76	0x3ba3aac0	0.00499472
77	0xba229e94	-0.00062034396
78	0x3c4c1abb	0.012457545
79	0x3ba578d3	0.0050498038
80	0x3d0a24de	0.033726566
81	0x3d5c60f5	0.053803403
82	0xb5c30a64	-1.4531656e-06
83	0xbb4a712b	-0.0030890207
84	0x3d8178a2	0.06321837
85	0x3d1c05a7	0.038091328
86	0xbc9eba71	-0.019376012
87	0xbd2ac893	-0.04169519
88	0xbd05c4a2	-0.032658227
89	0x3a32ae38	0.0006816122
90	0x3c3f5346	0.011677569
91	0xbd18472f	-0.03717726
92	0x3c4129a1	0.01178971
93	0x3d268e1d	0.040662874
94	0x3c46d325	0.012135302
95	0x3cb1cef2	0.021705125
96	0xb8b5b33b	-8.664137e-05
97	0xbc790050	-0.015197828
98	0xb7f4e812	-2.9195133e-05
99	0xbd62c213	-0.055360865
100	0xbd728ac7	-0.05921438
101	0x3bf260c0	0.0073967874
102	0xb9bc0c74	-0.00035867433
103	0x3d7fdaca	0.062464513
104	0x3d561116	0.05226239
105	0x3c7797e7	0.0151119
106	0x3d7b94b4	0.06142111
107	0xbb3bad0a	-0.0028637075
108	0xbbb2d822	-0.005457894
109	0xbc86d90d	-0.01646092
110	0x3ce2572c	0.027629457
111	0xbc1ff882	-0.009763839
112	0x3cab4023	0.020904606
113	0x3d048d31	0.032361213
114	0x3ca56274	0.020188548
115	0xb3aba006	-7.991916e-08
116	0x3ccb7df9	0.024840342
117	0xbd14feb5	-0.03637572
118	0xbc092920	-0.008371621
119	0xbc744fda	-0.014911616
120	0x3bb8142f	0.0056176404
121	0xbc2cdeef	-0.010551198
122	0xbdadb870	-0.08482444
123	0xb99966e4	-0.00029259094
124	0x3d8dcbdb	0.06923648
125	0xbc652512	-0.013985889
126	0xbcb1b328	-0.021691874
127	0x3bdd826e	0.006759933

act_conv1.weight f4 [4, 128, 1, 1]
0	0x3c9d3f14	0.019195117
1	0x3df7c40d	0.120979406
2	0xbdcf52de	-0.101232275
3	0x3d537ca8	0.051632553
4	0x3e24942d	0.1607215
5	0xbdcb8fa2	-0.09939505
6	0x30d6d3a6	1.5630703e-09
7	0xba02e992	-0.0004993911
8	0xbcdfc799	-0.027316855
9	0x3ddfb3c2	0.10922958
10	0xbd3c6c42	-0.04600168
11	0x3d9bbf12	0.07604803
12	0x3d803679	0.0626039
13	0xbcd65990	-0.026165754
14	0xbd152a4e	-0.036417298
15	0x3cd94a54	0.0265247
16	0x3d205af2	0.039149232
17	0x3e058ba6	0.13041553
18	0x3b9c096b	0.004761865
19	0x800089d2	-4.944e-41
20	0x3da720db	0.081605636
21	0x3d9131bf	0.070895664
22	0x3da9748a	0.08274181
23	0x3e285522	0.16438726
24	0x80008ac2	-4.9777e-41
25	0xbd25682b	-0.040382545
26	0x8000894a	-4.925e-41
27	0x00007af5	4.4109e-41
28	0xbb47967c	-0.0030454686
29	0x3cefef08	0.029288784
30	0x30ab37d1	1.2457751e-09
31	0x3ce48d6a	0.027899463
32	0xbd67a1a8	-0.05655065
33	0x3b05a4aa	0.0020392337
34	0x3e357e05	0.17723854
35	0x3d3b0c02	0.04566575
36	0x3e01b193	0.12665395
37	0xbd8e0aba	-0.0693564
38	0x3bfab80c	0.0076513346
39	0x9e880c9a	-1.4404772e-20
40	0x3d9b300d	0.07577524
41	0x3d67c870	0.056587636
42	0x3d4c69b1	0.049905483
43	0xbe298704	-0.1655541
44	0xbda1e542	-0.079050556
45	0x3cddb5c8	0.02706422
46	0x3d97013b	0.073732816
47	0x3b8585ec	0.0040748026
48	0x3de5c422	0.1121905
49	0xbda57b48	-0.08080155
50	0x3e1bd387	0.1521741
51	0x3e9b071b	0.3027886
52	0x3d9c6725	0.07636861
53	0xbd0d8c70	-0.03455776
54	0x000088f0	4.9124e-41
55	0xbd047144	-0.03233458
56	0xbd7b9291	-0.061419073
57	0xbd7b7791	-0.061393324
58	0x00008ad7	4.9806e-41
59	0xbcdbebfc	-0.026845925
60	0xbd94b9fe	-0.07262038
61	0xbb3cfbe7	-0.002883667
62	0xbda0bf4f	-0.07848989
63	0x000089cc	4.9432e-41
64	0x3d4a1100	0.04933262
65	0x3e83fd7f	0.2577934
66	0x3c69a42d	0.014260334
67	0x3e0e62bd	0.13904853
68	0x3de8cd3e	0.11367272
69	0xbdc9cf14	-0.0985395
70	0x3da4132c	0.08011469
71	0x3dcb3b66	0.09923439
72	0xbd049de6	-0.032377146
73	0xbcd40f47	-0.025886191
74	0x3d132713	0.035925936
75	0x3e2f25cb	0.1710426
76	0x3ced0b84	0.028936155
77	0xb77a8c7f	-1.4933873e-05
78	0xbce50c43	-0.027959948
79	0x3e90d43f	0.2828693
80	0x3c6b1849	0.014349052
81	0x3d8d6b96	0.06905286
82	0x8000897b	-4.9319e-41
83	0xbcdde6c5	-0.027087579
84	0xbdec7880	-0.11546421
85	0x3de8af0d	0.11361513
86	0x3d68bbbf	0.056819674
87	0xbd36fd46	-0.044675134
88	0x3d72fba8	0.05932203
89	0x3d78d350	0.0607484
90	0x3d994dc5	0.074855365
91	0xbda3ab5c	-0.079916686
92	0xbb9fd64f	-0.0048778425
93	0x3c0db9ba	0.008650238
94	0xbd11bf3e	-0.035582773
95	0x3d989337	0.07449954
96	0x80008a87	-4.9694e-41
97	0x3e0ad244	0.13556772
98	0xbce67f7a	-0.028136957
99	0xbe355fa2	-0.17712262
100	0x3cc082f9	0.023499953
101	0x3dec30c8	0.11532742
102	0xbc65424f	-0.01399286
103	0x3c035d03	0.008017781
104	0xbdef6990	-0.11690056
105	0xbc60261d	-0.013680962
106	0x3ded55ef	0.11588656
107	0x80008a20	-4.955e-41
108	0x3be21f72	0.006900721
109	0x800089f6	-4.9491e-41
110	0x3dc9020e	0.09814845
111	0xbd74d41e	-0.059772603
112	0x3d0c2f6e	0.03422492
113	0x3df6f341	0.12058116
114	0x3e31b19d	0.1735291
115	0x00008ac3	4.9778e-41
116	0x3db78de6	0.08962612
117	0xbc91a201	-0.017777445
118	0x800088d1	-4.908e-41
119	0xbd5646f0	-0.052313745
120	0xbda6584e	-0.081223115
121	0x3e7cd5e7	0.24690972
122	0xbd30200e	-0.04299932
123	0x8000895c	-4.9275e-41
124	0xbd55b58c	-0.05217509
125	0xbdae0552	-0.084971085
126	0x3df7be60	0.12096858
127	0xbd13a472	-0.0360455
128	0xbad43831	-0.0016191063
129	0xbd4d3c92	-0.050106592
130	0x3dbf767f	0.09348773
131	0xbd15a461	-0.036533717
132	0xbd57764e	-0.05260306
133	0xbc8f40d7	-0.017486973
134	0x000088cf	4.9078e-41
135	0x800088f1	-4.9125e-41
136	0xbb214e69	-0.0024613386
137	0xbd247f00	-0.04016018
138	0xbc1496f0	-0.009069189
139	0xbd7debe1	-0.06199253
140	0xbd04f1aa	-0.03245703
141	0xbd59f292	-0.05320985
142	0x3d899b72	0.06719102
143	0xbde64b1f	-0.11244797
144	0xbdebab91	-0.11507333
145	0xbdd9f0e2	-0.10641648
146	0x000088fa	4.9138e-41
147	0x80009073	-5.1819e-41
148	0xbb16cf4f	-0.002301175
149	0xbd1548e4	-0.036446467
150	0xbc7a5fa9	-0.015281596
151	0x3db9eeef	0.09078776
152	0x800089f2	-4.9485e-41
153	0x3d2ea1cc	0.04263477
154	0x0000895a	4.9272e-41
155	0x800088b9	-4.9047e-41
156	0x3dfd25d7	0.12360733
157	0x3ca4b8b4	0.020107605
158	0x00008ad5	4.9804e-41
159	0x3c46fc47	0.012145109
160	0xbc56297f	-0.013071417
161	0xbc93d110	-0.018044025
162	0x3d926da3	0.07149818
163	0xbd2f232c	-0.042758152
164	0xbd33764c	-0.04381399
165	0x3e06affe	0.13153073
166	0xbb19f3bf	-0.0023491231
167	0x800089d3	-4.9442e-41
168	0x3c752973	0.014963496
169	0xbd2007c8	-0.03906992
170	0x3d8b5ab4	0.068044096
171	0x3da2a472	0.07941522
172	0x3e0be2be	0.13660714
173	0x3b6dba49	0.0036274365
174	0xbd43c953	-0.04779942
175	0x0000896c	4.9298e-41
176	0x3d5b9555	0.05360921
177	0x3d7cc303	0.061709415
178	0x3ba78821	0.0051126634
179	0x3d40748e	0.046986155
180	0xbdbfdd5d	-0.093683936
181	0xb9e9f0ca	-0.00044620625
182	0x00008a49	4.9607e-41
183	0xbcacdf89	-0.021102684
184	0xbb315951	-0.0027061293
185	0x3d8a7324	0.067602426
186	0x80008a3a	-4.9586e-41
187	0xbcce9383	-0.025216823
188	0x3d8c4cd9	0.06850595
189	0xbdc4e96e	-0.09614836
190	0x3e1ed2d3	0.1551011
191	0x80009c35	-5.6037e-41
192	0x3e1fe3b8	0.15614212
193	0xbd6c9023	-0.057754647
194	0xbcd41888	-0.025890604
195	0xbd0026d0	-0.031287014
196	0x3d7741c5	0.060365457
197	0x3da75eda	0.081723884
198	0x3dfd45ac	0.123668045
199	0x3dc62b2a	0.09676202
200	0xbd03f96e	-0.032220297
201	0xbc683792	-0.014173405
202	0xbd782d27	-0.060589936
203	0xbe10eab2	-0.14152029
204	0x3dae3f8b	0.085082136
205	0x800088e7	-4.9111e-41
206	0x3e39e52e	0.18153831
207	0x3c26dc9e	0.010184435
208	0x3dc20a3f	0.094746105
209	0xbd45b9f3	-0.048273038
210	0x80008c22	-5.027e-41
211	0x3ca13ff2	0.019683812
212	0x3c0c8d09	0.008578547
213	0xbce0548d	-0.027384067
214	0xbd6d3797	-0.057914343
215	0x3d173063	0.03691138
216	0x3d779158	0.060441345
217	0x3c06efbd	0.008235869
218	0xbbc92e18	-0.006139528
219	0x3d947b00	0.07250023
220	0x3953e712	0.00020208608
221	0x3b97049d	0.0046087042
222	0x3bd1427d	0.0063861
223	0xbdaef758	-0.08543271
224	0x0000940a	5.3106e-41
225	0x3d739e60	0.05947721
226	0x36006665	1.9133088e-06
227	0x3d669a55	0.056299526
228	0xbe00cfaa	-0.12579218
229	0x3bca17d7	0.0061673927
230	0x800088f3	-4.9128e-41
231	0xbcb4d7c4	-0.022075541
232	0xbbefcde3	-0.007318245
233	0x3d84c91c	0.06483671
234	0xbd4037f4	-0.04692836
235	0x80008b02	-4.9867e-41
236	0x80008926	-4.92e-41
237	0x0000a90c	6.0643e-41
238	0xbbf8c609	-0.007591967
239	0x3d133bd8	0.035945743
240	0x3d85e8c3	0.065385364
241	0xbd6c73b7	-0.05772754
242	0xbdc25e1d	-0.09490607
243	0x00008afa	4.9855e-41
244	0xbd149e45	-0.03628375
245	0x3d8b28f1	0.06794918
246	0x80008a95	-4.9714e-41
247	0x3c976ac7	0.018483533
248	0xbaadeb50	-0.0013268981
249	0x3c4b8983	0.012422922
250	0x3db33320	0.08749986
251	0x80008a79	-4.9675e-41
252	0xbc44b551	-0.01200612
253	0x3d7b4757	0.06134733
254	0xbc8c3600	-0.017115593
255	0xbd4aa562	-0.049474128

act_conv1.bias f4 [4]
0	0x3d2f8d79	0.04285953
1	0xbcaf7112	-0.02141622
2	0xbcc3d5a4	-0.023905583
3	0x3dff138c	0.124549

act_fc1.weight f4 [81, 324]
0	0x3d220b34	0.039561465
1	0x3cd73229	0.026269035
2	0x3d23c5cf	0.039983567
3	0x3c963c0a	0.018339176
4	0x3c14a250	0.009071901
5	0xbc74011c	-0.014892843
6	0xbbaacff5	-0.0052127787
7	0xbca038f8	-0.019558415
8	0xbd3ab0ac	-0.045578644
9	0x3d32e61b	0.043676477
10	0x3d15e75f	0.036597606
11	0xbd5102da	-0.05102811
12	0xbd486476	-0.048923932
13	0xbc38cb73	-0.011278975
14	0xbb093292	-0.0020934683
15	0xbd02ea0f	-0.031961497
16	0x3b48f9eb	0.003066654
17	0xbd26a0b2	-0.040680595
18	0x3c7abb73	0.01530348
19	0xb9ed15e9	-0.00045220487
20	0xbcf8172a	-0.030284483
21	0xbd838496	-0.06421773
22	0xbd937e66	-0.07201843
23	0xbd49ba4e	-0.04924994
24	0x3c0798c4	0.008276168
25	0xbb7aeaa9	-0.003828684
26	0x3c500ae8	0.012697913
27	0x3cd10346	0.025514256
28	0xbd5ce98a	-0.053933658
29	0xbd855050	-0.06509459
30	0xbdd23787	-0.10264497
31	0xbdb5d364	-0.0887821
32	0xbd1e7968	-0.03869
33	0xbd69e833	-0.057106208
34	0x3b82f48f	0.003996439
35	0xbd4f2609	-0.050573383
36	0xbd008d70	-0.031384885
37	0xbca0d12f	-0.019630997
38	0xbdbfbcc9	-0.0936218
39	0xbde4fe19	-0.11181278
40	0xbd64fba1	-0.055904035
41	0xbe059ece	-0.1304886
42	0xbdb9e33c	-0.09076545
43	0xbbf3d0cf	-0.0074406634
44	0xbc9a6ae9	-0.018849807
45	0x3d224419	0.039615724
46	0xbd34d665	-0.044149775
47	0xbd32b116	-0.043625914
48	0xbd28107b	-0.041031342
49	0xbe28c81a	-0.16482583
50	0xbdc95b79	-0.098319
51	0xbd5f3a8d	-0.054499198
52	0xbd9d5bbe	-0.07683514
53	0xba1edea1	-0.0006060396
54	0x3dce521a	0.100742534
55	0x3c5669d2	0.013086753
56	0xbd885ab3	-0.066579245
57	0xbd1eb03f	-0.0387423
58	0xbd85e3a2	-0.06537558
59	0xbd49e3ed	-0.049289633
60	0xbd33e320	-0.043917775
61	0xbd419b9c	-0.04726754
62	0xbd163210	-0.036668837
63	0x3e836551	0.25663236
64	0xbd739a12	-0.059473105
65	0x3ca8f669	0.02062531
66	0xbc7be3d9	-0.015374147
67	0xbdba35df	-0.09092306
68	0xbd02dd25	-0.03194918
69	0xbd4ab151	-0.04948551
70	0x3cef9e84	0.02925039
71	0x3b58920d	0.0033046037
72	0x3e8901c7	0.26759169
73	0x3e8fa76a	0.28057414
74	0xbc8ef9e1	-0.017453136
75	0x3ca87b48	0.020566598
76	0x3952cad6	0.00020102723
77	0xbb6ebf0f	-0.0036429798
78	0xbc851a62	-0.016247932
79	0x3c9d1ade	0.01917785
80	0x3d42f4ef	0.047596868
81	0xbd3fb804	-0.04680635
82	0xbc95d007	-0.018287672
83	0xbdc80c47	-0.09767967
84	0x3c2f8b7b	0.010714407
85	0x3b9cf42a	0.004789849
86	0xbd39dde8	-0.045377642
87	0xbc84fd7b	-0.01623415
88	0xbcb20242	-0.021729592
89	0x3d989d00	0.074518204
90	0x3b40b5be	0.0029405202
91	0xbc08f04b	-0.008358072
92	0xbd45427a	-0.0481591
93	0xbc271381	-0.010197521
94	0xbd8fdef1	-0.070249446
95	0xbc2950bb	-0.010334189
96	0xbd04d8ba	-0.03243325
97	0xbddaf3e9	-0.106910534
98	0x3b6ef8b3	0.0036464154
99	0x3ca60c52	0.020269547
100	0x3c996f00	0.018729687
101	0xbd3c11bd	-0.045915354
102	0x3caf0209	0.021363275
103	0x3cbdfdfa	0.023192395
104	0xbce302fb	-0.027711382
105	0xbc150a1d	-0.0090966495
106	0x3b01b4f3	0.0019791692
107	0xbd2040b8	-0.03912422
108	0x3cfc8a20	0.030827582
109	0x3d4482da	0.047976352
110	0x3c8450d8	0.01615183
111	0xbd1bc074	-0.038025334
112	0x3d0f9805	0.035057086
113	0xbc9026c2	-0.017596606
114	0xbbd52f86	-0.0065059094
115	0xbd86d565	-0.065836705
116	0xbcf24ffc	-0.029579155
117	0x3d7fbfb0	0.062438667
118	0x3c4fe600	0.012689114
119	0xbcb6b73f	-0.022304175
120	0x3d29de94	0.041472033
121	0x3bd7499f	0.0065700556
122	0x3d3dd12e	0.046342067
123	0xbbd4cbb5	-0.0064940103
124	0xbd2a7b2f	-0.041621383
125	0xbc6e3bac	-0.014540594
126	0xbd43a2be	-0.047762625
127	0x3d6a1f77	0.057158913
128	0x3d2c9589	0.042134795
129	0x3c246d12	0.01003577
130	0xbcebeff2	-0.028800938
131	0x3d1c46bb	0.03815339
132	0x3cdfd863	0.02732486
133	0x3c3db4c3	0.0115787415
134	0x3d06ca01	0.03290749
135	0x3da1fc6f	0.07909476
136	0xbca2eb04	-0.019887455
137	0x3c18b1c8	0.00931973
138	0xbb4107fa	-0.0029454217
139	0x3be0c3c7	0.006859276
140	0x3d2a9cfe	0.041653626
141	0xbd732526	-0.0593616
142	0xbd45de32	-0.048307605
143	0xbd16330e	-0.036669783
144	0xbdf2b5e2	-0.11851098
145	0x3c130254	0.008972723
146	0xbc9544e4	-0.018221326
147	0x3cc57101	0.024101736
148	0x3d74527e	0.059648983
149	0x3ca0c03c	0.019622914
150	0x3cffb9c4	0.03121651
151	0xbd1ebd6b	-0.03875486
152	0xbd4c8dba	-0.04993985
153	0xbdbcf42a	-0.09226258
154	0xbde73534	-0.112894446
155	0x3d05bdd6	0.032651745
156	0xbc48643c	-0.012230929
157	0x3d1bfabd	0.03808092
158	0x3cf8b286	0.030358564
159	0x3c029e0b	0.007972251
160	0xbd7f8ad4	-0.062388256
161	0xbbe4d420	-0.006983295
162	0xa8acf2bd	-1.9201107e-14
163	0x36dba0db	6.5454346e-06
164	0x37453e41	1.175661e-05
165	0x38dec774	0.00010622936
166	0x3836e27c	4.360311e-05
167	0x38ea6f00	0.00011178665
168	0x37e3b7c6	2.7146085e-05
169	0x385310b3	5.0321873e-05
170	0x36f0feca	7.1822187e-06
171	0x3724334f	9.787108e-06
172	0x390db124	0.00013512798
173	0x39acf082	0.0003298559
174	0x3a87adb4	0.001035145
175	0x39fd3d82	0.00048301747
176	0x3a396b15	0.00070731464
177	0x39855958	0.00025434303
178	0x399afe53	0.00029562655
179	0x385977de	5.1848467e-05
180	0x364d7509	3.0615504e-06
181	0x3a167c9e	0.00057406153
182	0x3a9b09a5	0.0011828436
183	0x3ab22bce	0.0013593377
184	0x3abccc43	0.0014404136
185	0x3a8e0cd7	0.0010837567
186	0x3a9c0b85	0.0011905289
187	0x3a49003b	0.0007667576
188	0x3912ee78	0.00014012482
189	0x37cb2e69	2.4221097e-05
190	0x3a8390b5	0.0010037633
191	0x3a2fca93	0.0006705906
192	0x3b07ca84	0.0020720074
193	0x3a97900e	0.0011563317
194	0x3a9acfa4	0.0011811149
195	0x3a5121d1	0.00079777563
196	0x39a81b0a	0.00032063603
197	0x38309a16	4.2105174e-05
198	0x369c5750	4.659327e-06
199	0x3a2f09d3	0.0006677184
200	0x3a5fced3	0.0008537594
201	0x3b1045b9	0.0022014214
202	0x3a10f8ca	0.00055302365
203	0x3a3481e2	0.0006885809
204	0x3881c05a	6.1870276e-05
205	0x37a22193	1.932754e-05
206	0x369e4680	4.716974e-06
207	0x3567d877	8.6369204e-07
208	0x3a1b6513	0.0005927842
209	0x3a6b9109	0.00089861505
210	0x3acb7671	0.0015522969
211	0x3a61b2cf	0.00086097134
212	0x39515323	0.00019962764
213	0xb7f22a85	-2.8868448e-05
214	0xb70ff515	-8.580527e-06
215	0xb556dd4c	-8.004324e-07
216	0xb51a42e2	-5.74668e-07
217	0x39ce1c48	0.00039312453
218	0x39aab27d	0.0003255791
219	0x3ae99057	0.0017819506
220	0x3916de52	0.00014387936
221	0x39071932	0.00012883989
222	0xb8c36d52	-9.318687e-05
223	0xb7f32038	-2.898286e-05
224	0xb5e037bb	-1.670552e-06
225	0x36f8f9e2	7.420066e-06
226	0x38882e0f	6.4935644e-05
227	0x3997bc37	0.00028941195
228	0x39b5f2c8	0.00034703896
229	0x388c03b6	6.6764114e-05
230	0xb8b77cd0	-8.749368e-05
231	0xb7b42a99	-2.1477508e-05
232	0xb76a0312	-1.3948202e-05
233	0x36ca9a66	6.0380435e-06
234	0x3584c3f5	9.891797e-07
235	0x371c609d	9.320819e-06
236	0x378228de	1.5516238e-05
237	0x35876422	1.0087426e-06
238	0xb697d21c	-4.5246106e-06
239	0xb6fad450	-7.475297e-06
240	0x36c7b3c1	5.9515883e-06
241	0x35df6733	1.664483e-06
242	0x30d3ad86	1.5401589e-09
243	0x3db2a426	0.08722715
244	0x3d26cb6c	0.040721342
245	0x3c12d11f	0.008960991
246	0x3d236f7b	0.039901238
247	0x3d0e86db	0.034796577
248	0x3cc80bfa	0.024419773
249	0x3c98ccc9	0.018652337
250	0x3caa6b09	0.020802991
251	0x3d8c39d6	0.06846969
252	0x3d237337	0.0399048
253	0x3b138166	0.0022507547
254	0x3d2dd198	0.042436212
255	0x3cf90958	0.030399963

act_fc1.bias f4 [81]
0	0x3df5af6f	0.11996352
1	0xbc69b084	-0.014263276
2	0xbe40c58b	-0.18825357
3	0x3e02c76a	0.12771383
4	0x3e0615e0	0.13094282
5	0x3dfbffc3	0.12304642
6	0xbdfb48dd	-0.12269757
7	0xbc81a3cd	-0.015825177
8	0x3db7f196	0.08981626
9	0xbb576235	-0.0032864932
10	0xbd96af3a	-0.073576406
11	0x3dd6bcf7	0.10485261
12	0x3d616282	0.055025585
13	0x3e85d280	0.2613716
14	0x3d974c59	0.07387609
15	0x3da07ab4	0.07835904
16	0xbe3014ff	-0.1719551
17	0xbcc44621	-0.023959221
18	0xbe26a62f	-0.16274332
19	0x3e0b61c0	0.13611507
20	0x3c14e28f	0.009087219
21	0x3e618d04	0.2202645
22	0xbd9c4df3	-0.07632055
23	0x3e3ee4a6	0.1864191
24	0x3c9c39fd	0.01907062
25	0x3e16d7a0	0.14730692
26	0xbdf87a87	-0.12132745
27	0x3da9d525	0.08292607
28	0x3d219087	0.039444473
29	0x3dffdca6	0.12493257
30	0x3e01ed86	0.12688264
31	0x3e440a51	0.1914456
32	0x3dc67392	0.09690012
33	0x3e37c4ff	0.17946242
34	0x3d3dbb5a	0.04632125
35	0x3ddd19f6	0.10795967
36	0x3de7f2ca	0.11325605
37	0x3e57a31b	0.21058314
38	0xbcd2626c	-0.025681697
39	0x3e7ac7a0	0.24490213
40	0xbd599abf	-0.053126093
41	0x3e8f466f	0.27983424
42	0xbda489ee	-0.080341205
43	0x3e6be503	0.2303658
44	0x3dca0744	0.09864667
45	0x3db3dfe6	0.087829396
46	0x3d69366f	0.056936678
47	0x3e1b07db	0.15139715
48	0x3dd95012	0.10610975
49	0x3e74757a	0.23872939
50	0x3d9083f7	0.0705642
51	0x3e4d2aab	0.20035808
52	0x3c61ec3e	0.013789235
53	0x3da91f03	0.08257868
54	0xbe2bb980	-0.16769981
55	0x3dfe095e	0.124041304
56	0x3dbd5602	0.0924492
57	0x3e6b62b2	0.22986868
58	0xbdaeed00	-0.08541298
59	0x3e098369	0.13429035
60	0xbc3c3687	-0.01148761
61	0x3e1593d2	0.1460717
62	0xbe0ae0d7	-0.13562332
63	0xbd70b6f3	-0.058768224
64	0xbe0120f6	-0.1261023
65	0x3e05c796	0.13064417
66	0x3d632ff6	0.05546566
67	0x3e33857f	0.17531393
68	0x3d14f4ad	0.036366154
69	0x3e005f33	0.12536316
70	0xbe19acd3	-0.15007333
71	0xbcbf8001	-0.023376467
72	0x3d460bd6	0.04835113
73	0xbd895bde	-0.067069754
74	0xbe2f4e68	-0.17119753
75	0x3dd6c7ee	0.10487352
76	0x3d996b12	0.07491125
77	0x3db41f05	0.08794979
78	0xbe1f587d	-0.155611
79	0xbcbf7da2	-0.023375336
80	0x3dc78216	0.09741609

val_conv1.weight f4 [2, 128, 1, 1]
0	0x3d27bc79	0.040951226
1	0x3cb05ac7	0.021527661
2	0xbc7ba2a9	-0.015358605
3	0x3c7afb37	0.015318683
4	0x3d93d7e3	0.072189115
5	0xbd405f4a	-0.046965875
6	0x000089b0	4.9393e-41
7	0x000089c7	4.9425e-41
8	0xbb908943	-0.004410894
9	0x3d3e1d6a	0.04641477
10	0xbdad762b	-0.084698044
11	0x3bbab2cb	0.0056975833
12	0xbdcd8fb0	-0.10037172
13	0x3c8dcbdf	0.017309127
14	0xbb216560	-0.0024627075
15	0x3da1edaa	0.07906659
16	0xba1b8cf8	-0.0005933787
17	0xbd040e4f	-0.03224021
18	0x32777d63	1.4405802e-08
19	0xb0056655	-4.853054e-10
20	0xbddf8742	-0.1091447
21	0xbd66e57b	-0.056371193
22	0x3c6e8209	0.01455737
23	0x3be63f98	0.007026624
24	0x3705dbe8	7.978619e-06
25	0x3ce10204	0.027466781
26	0x1f8d6d52	5.989668e-20
27	0xb3fd7e3d	-1.1804193e-07
28	0x3d1f27ed	0.038856436
29	0x3d81379f	0.06309437
30	0xbb01c0aa	-0.0019798675
31	0xbd8fbf2d	-0.07018886
32	0x3d6baca5	0.057537694
33	0x3c81be2b	0.01583775
34	0x3d496fdb	0.04917894
35	0xbd78b9b6	-0.060723983
36	0xbc29c476	-0.010361781
37	0xbc32af0d	-0.010905993
38	0x3c3f921d	0.011692551
39	0xb4c96327	-3.751131e-07
40	0xb38ec130	-6.647531e-08
41	0x3d3c0e39	0.045912
42	0x3d26ae56	0.040693603
43	0xbcfd2b25	-0.030904362
44	0x3cff8eae	0.031195965
45	0xb147b8aa	-2.906328e-09
46	0xbd9b99f3	-0.07597723
47	0x80008a93	-4.9711e-41
48	0x3ca16092	0.019699369
49	0xbd2fdf10	-0.04293734
50	0x3d8d106d	0.068878986
51	0xbabb5255	-0.0014291505
52	0x3c7a8393	0.015290159
53	0x3d218741	0.03943563
54	0xae8c88eb	-6.3907844e-11
55	0x3d644e50	0.055738747
56	0x3d23fab2	0.040034004
57	0xbbc866db	-0.006115777
58	0x00008a05	4.9512e-41
59	0xbc9f8870	-0.019474238
60	0xbda1dd39	-0.07903523
61	0x3cb05f90	0.021529943
62	0x3d252d9f	0.04032671
63	0x80008916	-4.9177e-41
64	0x3b9258a5	0.0044661337
65	0xbc93978a	-0.018016595
66	0x3d92ec2d	0.07173953
67	0xbbb406a0	-0.005493954
68	0xbadd79ad	-0.0016897224
69	0xbd044e92	-0.032301493
70	0xbc2dd7e7	-0.010610557
71	0x3bb87263	0.0056288703
72	0x3d2dc7d2	0.04242689
73	0xbd97dfb1	-0.074157126
74	0x3d71f2a7	0.059069302
75	0x3d8c7cd2	0.06859745
76	0x3b2711fe	0.0025492902
77	0xb4dd51d7	-4.1224004e-07
78	0x3d7a9a6e	0.061182432
79	0xbca16b6f	-0.019704549
80	0xbd3a04a7	-0.045414593
81	0xbd0d2a6f	-0.034464296
82	0xb0e0a569	-1.6345157e-09
83	0x3d4e1d68	0.050321013
84	0xbd53672e	-0.05161207
85	0x3c4e7a5c	0.012602415
86	0x3d483c9e	0.048885934
87	0x3d15b038	0.03654501
88	0x3d62d838	0.055381984
89	0x3cec0b98	0.028814122
90	0x3c7359e3	0.014852974
91	0x3c29f625	0.010373627
92	0x3d1366cf	0.035986718
93	0xbd4574cb	-0.048207086
94	0xbda6bc2e	-0.08141361
95	0xbac99a93	-0.001538115
96	0x29910d39	6.441587e-14
97	0xbd3e61c5	-0.04647996
98	0x3a02c51c	0.0004988478
99	0x36b5457e	5.4023103e-06
100	0x3cd0e060	0.025497615
101	0x3d9a9eb3	0.07549801
102	0x2926e04c	3.705395e-14
103	0xbde93366	-0.113867566
104	0xbd59b02c	-0.053146526
105	0xbd0081e7	-0.031373885
106	0xbd6e697e	-0.058206074
107	0xae6064dc	-5.1021284e-11
108	0x80008f7c	-5.1472e-41
109	0x3b2a8de3	0.0026024512
110	0x3d3b0d77	0.045667138
111	0x3c9f47f9	0.019443499
112	0xbd7f1ac8	-0.0622814
113	0x3d0117ec	0.031516954
114	0x3a8cda37	0.0010746185
115	0x000088ed	4.912e-41
116	0xbdd2c82a	-0.102920845
117	0xbd7007eb	-0.0586013
118	0xb745433b	-1.1757768e-05
119	0x3d8ee439	0.06977124
120	0xbdb2279a	-0.0869896
121	0x2889d626	1.5302928e-14
122	0xbc3d1066	-0.011539554
123	0xba7b1218	-0.00095775863
124	0xbd796cc6	-0.06089475
125	0xbcbb72be	-0.022881862
126	0x3ca528c2	0.020161036
127	0x3c0140f9	0.007889026
128	0xb9ca7152	-0.00038612873
129	0xba1b13a9	-0.00059157104
130	0xb5aedd2c	-1.302838e-06
131	0x3ae229f0	0.001725493
132	0x3bfc76e2	0.0077046016
133	0x3b6fd959	0.0036598055
134	0x00008a3f	4.9593e-41
135	0x80009e26	-5.6733e-41
136	0xb92fdd7a	-0.00016771807
137	0x3c4d72c3	0.012539568
138	0xbb0e3e3b	-0.0021704573
139	0xbbd5a75e	-0.006520196
140	0xbc00f8f8	-0.007871859
141	0xb9e57b13	-0.0004376998
142	0x9ae08e7d	-9.287443e-23
143	0x3be38331	0.0069431295
144	0x0bba1104	7.1670196e-32
145	0x3a7ba790	0.0009599859
146	0x800089ff	-4.9504e-41
147	0x00008b49	4.9966e-41
148	0xbc3afabe	-0.011412321
149	0x383d8439	4.5184253e-05
150	0x3b980493	0.004639217
151	0x2f251044	1.5012441e-10
152	0x80008c5b	-5.035e-41
153	0xbbc17377	-0.005903657
154	0x00009292	5.258e-41
155	0x8000895a	-4.9272e-41
156	0xbbebf969	-0.007201363
157	0x3ad34247	0.0016117775
158	0x80008932	-4.9216e-41
159	0xbc15dd50	-0.009147003
160	0xba981cf7	-0.0011605312
161	0xb78fad6e	-1.7127688e-05
162	0xba2be750	-0.00065576006
163	0xba60ac08	-0.00085705565
164	0x800088db	-4.9094e-41
165	0x00008a02	4.9508e-41
166	0xb98755ed	-0.00025813226
167	0x00008926	4.92e-41
168	0x000089a8	4.9382e-41
169	0x3b5593f2	0.0032589403
170	0x3c08b6a4	0.008344326
171	0x11ecb88f	3.7347978e-28
172	0x3bdc87fa	0.006730077
173	0x000088d8	4.909e-41
174	0xbab74a14	-0.0013983869
175	0x00008f06	5.1307e-41
176	0x39aad3d9	0.00032582766
177	0xba225d08	-0.00061936723
178	0x3bcc0506	0.006226185
179	0x000088bb	4.905e-41
180	0x3bb56c3d	0.0055365846
181	0xba723f3e	-0.0009240991
182	0x00008ad3	4.9801e-41
183	0xbbf3ca3b	-0.0074398792
184	0x3c1ceb43	0.009577575
185	0x00008ac3	4.9778e-41
186	0x80008ba6	-5.0096e-41
187	0x8db31f9c	-1.1039336e-30
188	0xb8a75a70	-7.980026e-05
189	0x3bd66f7f	0.006544053
190	0xb770e950	-1.4359437e-05
191	0x00008f11	5.1323e-41
192	0x8000890b	-4.9162e-41
193	0x800088f5	-4.9131e-41
194	0x3c2fbaef	0.010725721
195	0x80008a96	-4.9715e-41
196	0x80008a66	-4.9648e-41
197	0x1b11a625	1.2047803e-22
198	0x2d01b31b	7.3725704e-12
199	0xbb0872da	-0.002082041
200	0xbcbac5af	-0.022799341
201	0xbc0e6112	-0.008690136
202	0x3b1d2183	0.0023976273
203	0xbb832490	-0.0040021613
204	0x2645ec51	6.8668373e-16
205	0x80008aa2	-4.9732e-41
206	0xbc7c5a8f	-0.01540245
207	0x000088e0	4.9101e-41
208	0xb876e23b	-5.8861664e-05
209	0xb88dadce	-6.7557776e-05
210	0x000089de	4.9457e-41
211	0xbb050066	-0.0020294427
212	0xbbbd56d7	-0.0057781744
213	0x39a79316	0.0003196231
214	0x3991e794	0.00027829094
215	0xbace385b	-0.0015733348
216	0xbc6a4545	-0.014298742
217	0xbbe0f6d2	-0.006865361
218	0xb764809a	-1.3619801e-05
219	0xb70dcc24	-8.451785e-06
220	0xbc1a4214	-0.009415168
221	0xbabb4ea0	-0.00142904
222	0xbab48397	-0.0013772127
223	0xbaba5a90	-0.0014217664
224	0x00008999	4.9361e-41
225	0x27511e43	2.9020981e-15
226	0x80008a33	-4.9577e-41
227	0x8e84cfb4	-3.2740523e-30
228	0x3b9a0802	0.0047006616
229	0xbb03eb10	-0.0020129122
230	0x0000898e	4.9345e-41
231	0xbbe669b5	-0.007031644
232	0xb82b43d3	-4.0832743e-05
233	0xba3b156c	-0.0007136676
234	0xb9402339	-0.00018323668
235	0x00008bdc	5.0172e-41
236	0x00008a43	4.9599e-41
237	0x00008969	4.9293e-41
238	0x3b3b5604	0.0028585205
239	0xbb143517	-0.0022614652
240	0x9f8c302c	-5.9372e-20
241	0xba8cd17b	-0.0010743582
242	0x36974827	4.5085503e-06
243	0x000089b3	4.9397e-41
244	0xbb9c7134	-0.004774237
245	0x3a126ece	0.0005585969
246	0x80008c20	-5.0267e-41
247	0x3ca0c5e2	0.019625608
248	0xbb4460c6	-0.0029964908
249	0x80008b0d	-4.9882e-41
250	0x9f64a366	-4.8416038e-20
251	0x00008985	4.9333e-41
252	0xba1da7ce	-0.00060140796
253	0x36f40be1	7.2731495e-06
254	0xbc975758	-0.018474266
255	0xbbfa3c03	-0.0076365485

val_conv1.bias f4 [2]
0	0x3d6c3377	0.05766627
1	0xbca78994	-0.020451345
