课程设计/AlphaZero简单复现/models/policy_batch_200.model (torch, 530617 bytes, 15 tensors)

conv1.weight f4 [32, 4, 3, 3]
0.17294666 -0.005332057 0.23673446 -0.021518754 0.03725367 -0.14577496 0.29619464 -0.20067875
0.2962935 0.05407187 -0.022009004 0.16192336 -0.0013809165 -0.011489986 -0.040588077 0.27846608
-0.1453294 0.15471551 0.04334422 0.07477156 -0.14586826 0.048242852 0.120871864 -0.060887042
-0.019292496 0.07552065 0.07591387 0.018633803 0.02387132 -0.049047675 -0.089237496 0.13415883
-0.03405935 0.012736464 0.049682796 -0.056889158 0.24640518 0.21079542 -0.27774283 0.06277063
0.007543483 0.16902143 -0.20640856 -0.02873794 0.13013339 0.102746315 0.13686028 -0.100103505
-0.20875467 0.07122096 0.08480425 0.026819732 -0.19622906 0.2897128 0.09543254 0.093646
-0.05592376 0.0610673 0.012027353 -0.05520658 0.000105232364 0.0032126259 -0.06315315 0.0071620354
-0.13018423 0.056808192 -0.14929594 0.08569553 -0.1558256 0.16236772 -0.033379793 0.16486605
0.047172435 0.08898921 0.0226937 -0.20194274 -0.021588674 -0.11000271 0.03986122 0.07642333
-0.20359272 0.07372676 -0.02929025 -0.044875283 0.09662099 0.0686143 -0.0050997264 0.08879476
-0.14393948 -0.1250661 -0.031780407 -0.020023566 -0.086280644 -0.17445809 -0.07565288 -0.07956268
0.013906474 0.00819232 -0.015128237 -0.08702774 0.15833832 0.11914946 0.047570523 0.075122274
0.084491864 0.08687082 0.15921062 -0.14270803 -0.011868481 -0.26122606 0.17030783 -0.11335877
0.1803287 -0.25184256 0.004690937 0.08148834 0.16795358 0.016019199 0.056324042 -0.12239298
0.11280398 0.09545441 0.026238322 0.114604555 0.13983577 0.24858966 -0.002388669 -0.028685283
-0.008583942 0.011148235 0.020740878 0.021558553 -0.01937679 0.014070029 0.05023635 0.06801807
-0.058499705 0.115348406 0.12867159 -0.013807978 -0.07714187 -0.11929849 -0.0987804 0.14089368
-0.13647877 -0.0919294 -0.03884471 0.088400856 0.023710197 0.051490583 -0.0928167 -0.106767975
0.047175054 -0.1405437 -0.025694707 -0.12586866 0.09937374 0.036356453 -0.060116712 0.108583994
-0.064401835 -0.13853367 -0.011341249 0.055674765 0.13459899 0.09111542 0.06479959 -0.04794175
-0.013356412 -0.03399285 0.022380197 0.09200945 0.0968368 0.14678234 0.13343173 0.08383033
0.107448936 0.15305531 0.14241779 0.12676913 0.23575133 0.081086524 -0.065904334 -0.30775917
0.33095673 0.33673733 0.24916983 -0.040967554 -0.009939533 0.025420114 -0.04508547 -0.12870336
-0.3297766 0.28049627 0.11539449 0.17357914 -0.113985784 -0.07634882 0.031024115 0.14264873
-0.10724048 -0.044610865 0.1357508 0.09814281 0.036508385 0.06469886 -0.023352081 0.04488459
0.08013223 0.16255592 0.14273983 -0.10875912 -0.065997064 -0.04186225 -0.060651243 0.1650226
-0.045459118 -0.12323933 0.076440774 0.004728372 -0.06345278 -0.23263086 0.013498457 -0.13814422
0.18068422 0.029752895 -0.118462846 0.10064363 -0.079505354 0.12348202 -0.15934914 0.037870526
-0.19561514 0.17592642 0.0062561776 -0.09162597 0.11034977 -0.101564504 0.01118967 -0.07208233
0.10621758 -0.11449117 0.061989088 0.024962991 0.1464403 0.14609602 -0.005188627 -0.05818537
0.014193385 -0.14541832 -0.02062204 -0.034054026 -0.30743068 0.15463758 0.20490809 -0.22362123
00000000: ee18 313e 89b8 aebb 856a 723e 1948 b0bc
00000010: 4e97 183d 0846 15be d3a6 973e bb7e 4dbe
00000020: c8b3 973e 777a 5d3d 3a4c b4bc 3dcf 253e
00000030: deff b4ba 7f40 3cbc af3f 26bd 1b93 8e3e
00000040: 3bd1 14be be6d 1e3e b589 313d d521 993d
00000050: 7d5e 15be 4c9a 453d ab8b f73d b164 79bd
00000060: 4c0b 9ebc 92aa 9a3d bb78 9b3d eba5 983c
00000070: c98d c33c 37e6 48bd 26c2 b6bd ef60 093e
00000080: d181 0bbd 9aac 503c 3080 4b3d 9b04 69bd
00000090: a451 7c3e c1da 573e 4f34 8ebe e38d 803d
000000a0: 522f f73b f413 2d3e c45c 53be d46b ebbc
000000b0: b041 053e a96c d23d 1a25 0c3e 1103 cdbd
000000c0: c9c3 55be 4bdc 913d daad ad3d 0eb5 db3c
000000d0: 45f0 48be 3c55 943e 2372 c33d 79c9 bf3d
000000e0: 5010 65bd b521 7a3d 600e 453c 4b20 62bd
000000f0: 32b0 dc38 eb8a 523b 7056 81bd 82af ea3b
00000100: 044f 05be b5af 683d 09e1 18be 2381 af3d
00000110: bf90 1fbe b943 263e 40b9 08bd a5d2 283e
00000120: e237 413d fa3f b63d 23e8 b93c 14ca 4ebe
00000130: bbda b0bc 1a49 e1bd 8545 233d d683 9c3d
00000140: 9c7a 50be 0efe 963d 1bf2 efbc 25cf 37bd
00000150: 3ae1 c53d a785 8c3d 9b1b a7bb 07da b53d
00000160: df64 13be 5411 00be 2c2c 02bd 7608 a4bc
00000170: e8b3 b0bd 24a5 32be e6ef 9abd c2f1 a2bd
00000180: fbd7 633c 1539 063c 6ddc 77bc 9a3b b2bd
00000190: 7123 223e a204 f43d 4fd9 423d b5d9 993d
000001a0: 120a ad3d 54e9 b13d 1c08 233e 0e22 12be
000001b0: 0474 42bc 6cbf 85be 2d65 2e3e a528 e8bd
000001c0: 16a8 383e 82f1 80be 6fb6 993b 5ce3 a63d
000001d0: 06fc 2b3e b23a 833c 0ab4 663d 2ca9 fabd
000001e0: c605 e73d 9a7d c33d c0f1 d63c cbb5 ea3d
000001f0: 1c31 0f3e 4a8e 7e3e 378b 1cbb 66fd eabc
00000200: aaa3 0cbc 16a7 363c c6e8 a93c 909b b03c
00000210: 13bc 9ebc fb85 663c a2c4 4d3d 0f4d 8b3d
00000220: 639d 6fbd c93b ec3d 7cc2 033e db3a 62bc
00000230: 8ffc 9dbd c452 f4bd 614d cabd 6f46 103e
00000240: 17c1 0bbe 7b45 bcbd a11b 1fbd 820b b53d
00000250: e33b c23c cae7 523d af16 bebd 2ba9 dabd
00000260: a13a 413d b0ea 0fbe b57d d2bc b7e3 00be
00000270: 7684 cb3d 81ea 143d f13c 76bd 4961 de3d
00000280: 1ce5 83bd c5db 0dbe a5d0 39bc 390b 643d
00000290: 51d4 093e b99a ba3d a6b5 843d 925e 44bd
000002a0: dad4 5abc 163c 0bbd ad56 b73c 736f bc3d
000002b0: 5f52 c63d 1c4e 163e 54a2 083e 3caf ab3d
000002c0: 300e dc3d 88ba 1c3e f8d5 113e c4cf 013e
000002d0: cc68 713e b110 a63d daf8 86bd 9c92 9dbe
000002e0: 2973 a93e d668 ac3e 6026 7f3e 98cd 27bd
000002f0: 6cd9 22bc d83d d03c 8bab 38bd d0ca 03be
00000300: 7ad8 a8be 359d 8f3e f253 ec3d bbbe 313e
00000310: 6171 e9bd c55c 9cbd 4926 fe3c 8212 123e
00000320: e6a0 dbbd e2b9 36bd 4202 0b3e 19ff c83d
00000330: d189 153d d680 843d dd4c bfbc e7d8 373d
00000340: 5e1c a43d 0f75 263e 642a 123e 1abd debd
00000350: 7829 87bd c077 2bbd 706d 78bd affb 283e
00000360: 5733 3abd e764 fcbd fb8c 9c3d 76f0 9a3b
00000370: 88f3 81bd c936 6ebe a228 5d3c ae75 0dbe
00000380: 4905 393e 58bc f33c a69c f2bd 3f1e ce3d
00000390: b4d3 a2bd 24e4 fc3d 6c2c 23be 201e 1b3d
000003a0: 564f 48be 0e26 343e 9f00 cd3b 66a6 bbbd
000003b0: 0fff e13d 0d01 d0bd e154 373c e79f 93bd
000003c0: 9a88 d93d 597a eabd 45e8 7d3d 307f cc3c
000003d0: 72f4 153e 329a 153e 5c05 aabb c853 6ebd
000003e0: 5f8b 683c 8ae8 14be 8def a8bc 3c7c 0bbd
000003f0: 8e67 9dbe 5059 1e3e 6dd3 513e f7fc 64be

conv1.bias f4 [32]
-0.09206681 0.12803344 0.068962865 -0.025331624 -0.13691898 -0.08148275 -0.018087793 0.12614265
-9.7500546e-05 -0.11519964 0.3042631 -0.090658404 -0.14002797 -0.06764514 -0.00051521504 0.21377924
0.009320961 0.1801389 -0.020678071 0.0064146547 0.23946445 -0.041080248 -0.09903207 -0.10025631
-0.030358369 0.17493516 0.23326463 -0.012249108 -0.06280109 -0.12538967 0.032601707 -0.13998018
00000000: 868d bcbd 331b 033e 673c 8d3d 4484 cfbc
00000010: 7d34 0cbe 6ee0 a6bd da2c 94bc 8a2b 013e
00000020: 3579 ccb8 caed ebbd 5fc8 9b3e 1dab b9bd
00000030: 7e63 0fbe 8989 8abd 7f0f 07ba f2e8 5a3e
00000040: f2b6 183c 5576 383e 0f65 a9bc 0632 d23b
00000050: 2b36 753e c343 28bd 53d1 cabd 2e53 cdbd
00000060: 1db2 f8bc 3422 333e ecdc 6e3e 7cb0 48bc
00000070: dc9d 80bd 2666 00be 5e89 053d f756 0fbe

conv2.weight f4 [64, 32, 3, 3]
0.10578593 0.059355903 0.15712865 0.122802 0.0024231977 0.14383869 -0.005931892 0.016985614
-0.095139466 0.0912047 -0.095522285 -0.057439823 0.07193891 -0.0573096 -0.106442705 0.033711143
0.07247369 0.17256993 -0.056929298 0.0048604226 0.07734899 -0.050065134 0.05979197 0.00789107
-0.035043713 -0.04983969 -0.03098325 0.09993136 0.10830656 0.028782453 -0.019371668 -0.006809348
0.015932476 -0.124807686 -0.03229434 -0.0701945 0.02780103 -0.016088713 0.0077308454 -0.0023154896
-0.010358959 0.007247122 -0.03870452 -0.0018704995 0.014629382 -0.031656604 0.012104253 0.07684484
0.04761317 0.10738604 -0.06786125 -0.08097751 -0.010168646 -0.083942205 0.10309569 0.0019946087
-0.03962314 -0.08760854 0.0041344706 0.031122172 0.015267394 -0.03571106 0.04470309 -0.00044913945
-0.12331756 -0.005920458 0.101389125 0.03413694 -0.26599753 0.17931837 0.009142735 -0.095623784
0.017955443 0.057696037 -0.08697763 0.095679894 0.08115414 -0.027694684 0.015731143 0.051936522
0.06654848 -0.09298973 0.06487065 0.012580861 -0.059937563 -0.044799168 0.031876728 -0.08535554
0.011070507 -0.06868922 0.055643592 -0.03342008 0.09318942 0.078887515 -0.049649503 -0.056174327
0.026399065 0.0708596 0.08733366 -0.034064677 -0.0075383126 0.035443053 0.06785635 0.107082576
0.095455594 0.008634707 0.076307125 -0.0027068835 0.02596385 0.025070636 -0.092089705 0.017398164
-0.035549235 0.014223671 -0.0859962 -0.022267872 0.08888704 -0.08752058 -0.01700534 0.078172445
0.17746295 -0.053542905 -0.12303366 0.142868 -0.03375886 0.062452134 0.012521502 0.22463338
0.13318264 0.023147106 0.029551644 0.05115976 -0.06232404 -0.1951567 -0.10463808 -0.038420305
0.03484771 0.011756635 0.021394685 -0.008591252 0.048266817 -0.053869896 0.07717503 0.05669687
-0.09115799 -0.072156884 -0.097075686 -0.032634098 0.044589423 0.00029177387 0.09656794 0.16109578
0.10069957 0.04319915 0.07034814 -0.049748432 0.0064741145 -0.017670002 -0.042808454 0.04889607
-0.021136316 0.016721033 -0.02216847 0.075736135 -0.08115117 0.14881657 0.14941157 -0.0622729
0.03818754 -0.0268992 -0.033627164 -0.09556381 0.061224863 -0.0024677694 0.0955198 -0.015019743
-0.07205643 0.083262734 -0.076591186 -0.09115395 -0.07323406 -0.040721603 -0.015006228 0.08598553
-0.12302566 -0.10482788 0.036012385 -0.06249523 0.03340668 0.101120345 0.20241924 -0.013459419
0.040140588 -0.030337438 -0.10854709 -0.18830913 -0.34527457 -0.028192924 0.06126848 0.04881634
0.016847493 0.088995755 0.04701438 0.056110296 -0.027096061 0.02029776 0.045151778 0.06572176
0.054334197 -0.05870153 0.0032440117 0.11465923 0.039955284 -0.084533684 0.02527089 -0.14926925
0.061887186 0.13657124 0.009633582 0.08977163 0.025351122 -0.1175739 0.04725746 -0.08486853
-0.080007575 -0.05379944 0.027858548 0.010495381 -0.104145184 0.022505553 0.1288232 -0.12419895
0.04099921 0.17012915 -0.09789955 0.059837133 -0.045338824 0.07515763 -0.043790706 0.011765488
-0.05498595 -0.19088367 0.08516724 -0.024147011 -0.089474455 -0.02496553 0.071181744 -0.03890345
0.03616916 0.066131614 -0.015591024 0.048399955 -0.028568313 0.06575851 -0.054620348 -0.042344537
00000000: 4ba6 d83d 2d1f 733d 55e6 203e 9d7f fb3d
00000010: 83ce 1e3b 734a 133e 5160 c2bb 6a25 8b3c
00000020: 7bd8 c2bd 88c9 ba3d 30a1 c3bd 0546 6bbd
00000030: b554 933d 79bd 6abd a2fe d9bd b214 0a3d
00000040: 166d 943d 2cb6 303e b22e 69bd 2e44 9f3b
00000050: 2669 9e3d 1911 4dbd 6de8 743d 8c49 013c
00000060: ff89 0fbd b424 4cbd 96d0 fdbc d0a8 cc3d
00000070: d4cf dd3d 2ec9 eb3c 55b1 9ebc f320 dfbb
00000080: d384 823c 2c9b ffbd 1247 04bd 22c2 8fbd
00000090: fcbe e33c 7acc 83bc 0853 fd3b 78bf 17bb
000000a0: a0b8 29bc 4479 ed3b a188 1ebd 8c2b f5ba
000000b0: 13b0 6f3c 5baa 01bd eb50 463c d460 9d3d
000000c0: 0706 433d 36ed db3d d7fa 8abd 89d7 a5bd
000000d0: 659a 26bc e4e9 abbd d523 d33d fbb7 023b
000000e0: e04b 22bd 1b6c b3bd 747a 873b edf3 fe3c
000000f0: 1724 7a3c c345 12bd 961a 373d 7a7a ebb9
00000100: eb8d fcbd 6700 c2bb 1aa5 cf3d 2dd3 0b3d
00000110: d430 88be 3c9f 373e 69cb 153c 67d6 c3bd
00000120: 4b17 933c ae52 6c3d 5421 b2bd d2f3 c33d
00000130: 2434 a63d f6df e2bc 99de 803c 64bb 543d
00000140: 924a 883d 6671 bebd e7da 843d f51f 4e3c
00000150: 1781 75bd 557f 37bd 2c91 023d e3ce aebd
00000160: 1261 353c efac 8cbd 89ea 633d 7ee3 08bd
00000170: 18da be3d c78f a13d 475d 4bbd 0d17 66bd
00000180: da42 d83c d71e 913d fddb b23d 6787 0bbd
00000190: f303 f7bb bc2c 113d 45f8 8a3d 1c4e db3d
000001a0: 397e c33d 9678 0d3c e946 9c3d f865 31bb
000001b0: 24b2 d43c ef60 cd3c 8799 bcbd 9886 8e3c
000001c0: 139c 11bd 660a 693c c71e b0bd 1d6b b6bc
000001d0: 690a b63d fd3d b3bd c84e 8bbc e018 a03d
000001e0: d9b8 353e ce4f 5bbd 12f9 fbbd fd4b 123e
000001f0: bb46 0abd cfcd 7f3d fc26 4d3c 4b06 663e
00000200: 0861 083e 009f bd3c 4a16 f23c e68c 513d
00000210: 7e47 7fbd 28d7 47be 7d4c d6bd 9c5e 1dbd
00000220: 79bc 0e3d e79e 403c e843 af3c 53c2 0cbc
00000230: 6db3 453d aea6 5cbd f10d 9e3d fa3a 683d
00000240: 0ab1 babd fdc6 93bd 9ecf c6bd 55ab 05bd
00000250: 66a3 363d 3af9 9839 6ac5 c53d 4bf6 243e
00000260: 933b ce3d 98f1 303d b012 903d 03c5 4bbd
00000270: cf24 d43b aec0 90bc eb57 2fbd 3f47 483d
00000280: 1126 adbc 8cfa 883c a79a b5bc 8c1b 9b3d
00000290: 9632 a6bd 5f63 183e 59ff 183e de11 7fbd
000002a0: 8a6a 1c3d b65b dcbc a3bc 09bd f5b6 c3bd
000002b0: ecc6 7a3d 4dba 21bb e39f c33d 5e15 76bc
000002c0: 5292 93bd a785 aa3d d7db 9cbd ecae babd
000002d0: bdfb 95bd b2cb 26bd afdc 75bc 2e19 b03d
000002e0: e1f4 fbbd 00b0 d6bd b981 133d 00fb 7fbd
000002f0: 71d5 083d 2f18 cf3d fd46 4f3e e584 5cbc
00000300: 756a 243d 3886 f8bc f04d debd 1cd4 40be
00000310: d4c7 b0be d9f4 e6bc a8f4 7a3d a4f3 473d
00000320: c103 8a3c 6843 b63d 2792 403d e9d3 653d
00000330: 8ff8 ddbc 7d47 a63c 12f1 383d 2199 863d
00000340: 898d 5e3d 0471 70bd 7c99 543b 75d2 ea3d
00000350: 27a8 233d ff1f adbd e604 cf3c 0ada 18be
00000360: 6b7d 7d3d 55d9 0b3e 2cd6 1d3c 30da b73d
00000370: 28ad cf3c 96ca f0bd 0a91 413d 8dcf adbd
00000380: 03db a3bd cd5c 5cbd 9c37 e43c d2f4 2b3c
00000390: 124a d5bd 915d b83c 3bea 033e 055c febd
000003a0: caee 273d 5636 2e3e 8f7f c8bd c817 753d
000003b0: 34b5 39bd 3eec 993d e25d 33bd 09c4 403c
000003c0: f338 61bd 0277 43be 296c ae3d f4cf c5bc
000003d0: 623e b7bd 8384 ccbc bcc7 913d 3959 1fbd
000003e0: 1d26 143d 0370 873d 7f71 7fbc 083f 463d
000003f0: 1808 eabc 66ac 863d 96b9 5fbd 7771 2dbd

conv2.bias f4 [64]
-0.045177616 0.06795356 0.020196997 -0.042372003 0.10587691 -0.055824805 -0.0010103394 -0.0107099805
-0.027707584 0.014817865 0.03244806 0.032784026 0.046379432 0.028580928 -0.0436617 0.016477218
0.018759767 -0.014728911 0.00061121763 0.098000415 -0.006102822 0.034269907 0.07696589 -0.049898524
0.030661808 0.047301386 0.0069042714 0.08360341 0.037490193 0.037366673 0.039130416 0.00012438427
0.013079667 -0.013081446 -0.009938184 -0.024870852 0.023348238 -0.025373748 0.064539455 0.091748305
0.09812436 -0.030669885 -0.051970612 -0.06856361 0.066882215 0.011205714 0.0034617286 -0.0039641173
-0.0021462305 0.003007646 -0.0060969787 -0.063094996 0.020290727 0.049252585 -0.0051671453 0.031667333
0.009657129 -0.011859712 0.03833987 -0.03532646 0.04271294 -0.037496228 -0.029881345 -0.021345347
00000000: 2a0c 39bd 3c2b 8b3d 2c74 a53c 448e 2dbd
00000010: fed5 d83d 8da8 64bd 5d6d 84ba ea78 2fbc
00000020: 04fb e2bc a1c6 723c 42e8 043d 8b48 063d
00000030: 5cf8 3d3d 8d22 ea3c 9cd6 32bd 3bfb 863c
00000040: 15ae 993c 8851 71bc 1f3a 203a 71b4 c83d
00000050: 2efa c7bb 9a5e 0c3d 4ba0 9d3d 6562 4cbd
00000060: 792e fb3c 19bf 413d 3a3d e23b 4438 ab3d
00000070: 518f 193d cc0d 193d 3747 203d 266d 0239
00000080: 1a4c 563c 9053 56bc c4d3 22bc f5bd cbbc
00000090: ce44 bf3c 9bdc cfbc 432d 843d 89e6 bb3d
000000a0: 6df5 c83d 693f fbbc 23df 54bd 146b 8cbd
000000b0: 8bf9 883d 2c98 373c 2bde 623b 6de5 81bb
000000c0: c6a7 0cbb ed1b 453b 2ac9 c7bb f337 81bd
000000d0: bd38 a63c 14bd 493d 2851 a9bb 9bb5 013d
000000e0: ef38 1e3c 3d4f 42bc 440a 1d3d 7ab2 10bd
000000f0: c4f3 2e3d a595 19bd b9c9 f4bc 70dc aebc

conv3.weight f4 [128, 64, 3, 3]
-0.016567312 -0.00973112 0.014905457 -0.059779324 -0.11567318 -0.011510328 0.014871165 -0.014176619
0.06576151 0.04905813 0.00582195 0.02153819 0.017874798 0.007954281 0.013647635 -0.012419947
-0.015312408 -0.002443395 0.03724226 -0.0057159634 -0.0136279585 0.0128460815 0.02234286 -0.016762925
0.033222523 0.04761111 -0.013861956 0.084341384 0.06395146 0.044622894 0.096115515 -0.00044375542
0.06270968 0.05454855 0.06814366 0.036745843 0.03684457 0.09232189 0.042545736 0.015830327
0.13135333 0.072338074 0.06577316 0.107869886 0.04792095 0.04699269 0.038633898 0.053422637
0.022924013 0.018903527 0.052616216 0.025949853 -0.019753972 0.017515073 0.020842439 0.035070263
-0.00425581 0.009789819 0.020414721 -0.020938234 0.0533427 -0.004843838 -0.016607823 0.040461324
-0.008663719 -0.009747677 0.017050885 -0.034629785 0.008740126 -0.0026753289 0.0077632847 0.0032871552
0.02765588 0.017740665 -0.0011860527 0.0008436557 0.029006882 -0.015675038 0.04619649 0.039721057
-0.0056622317 0.051768903 0.02915927 0.052702922 0.054166287 0.018544903 0.012242794 0.034792203
-0.017294731 -0.02481084 0.020521173 -0.02449116 0.00021281582 -0.017434103 -0.014017771 0.026781028
-0.004684757 0.018462922 -0.03894861 0.040822316 -0.02060335 0.034841917 0.026441803 0.03156674
0.03735027 0.018214164 0.033986803 0.031794928 0.01683974 0.023983642 -0.017403826 0.051598053
0.053672384 0.037986297 0.033194155 0.021430172 -0.013524967 0.02356609 0.011938383 -0.011423912
0.00082422537 0.018206881 0.0043892004 0.029315535 -0.013121439 0.021326188 0.025035236 0.03529627
0.017708782 0.049393468 0.041591108 0.03467987 0.0091031175 0.002024615 0.04931101 0.016592724
0.027314108 -0.004450159 0.041007902 5.986383e-05 -0.0230887 0.018669935 0.04636152 -0.032139543
0.0007187381 0.04058512 0.029173592 0.032877035 -0.0149567565 0.03564942 -0.019843876 0.021167109
0.025963774 -0.010607161 0.030193815 0.020680266 0.04891557 0.054102995 -0.04607387 0.0013787228
-0.02105466 0.03374998 0.021540705 0.034271285 -0.018071128 -0.0127682835 -0.020018306 0.037391778
0.026720436 0.027501488 -0.0097426 0.041713055 0.022940692 0.03795025 0.047746666 0.051024985
0.03475852 0.036727935 0.03873476 0.0057805697 0.03567297 -0.024277095 0.005589551 0.0031226128
0.01280279 -0.024196481 0.0011329182 -0.0011306289 -0.03547858 0.02285564 0.044359576 -0.04663362
-0.0068670493 0.016692314 0.040714618 -0.0100269085 -0.005326505 0.025775611 0.043224636 0.030856606
0.011167007 0.0144456625 0.018758932 -0.0030001777 0.02247013 0.050906923 -0.028703658 -0.0056194547
0.034952994 0.04076088 0.010638997 0.008958583 0.013179159 -0.025405876 0.030375492 -0.039628528
-0.0055804974 0.026356306 -0.018108549 0.015785445 -0.028234951 -0.002749014 -0.019724302 -0.023384579
0.0048799384 -0.00019286603 0.017818773 -0.009473248 0.008809153 0.057833306 0.027386323 -0.034219753
0.013007232 0.0102189 0.039698616 0.051434636 0.01118025 0.018561391 0.013434339 0.036314428
-0.0116071645 0.025671333 -0.018456085 0.04097765 -0.0009123085 0.019473135 0.02445619 0.039732125
-0.019839808 0.013832792 0.035607383 0.01498182 0.003569284 -0.00754178 -0.007901717 0.037336953
00000000: 2cb8 87bc 476f 1fbc 0536 743c 2adb 74bd
00000010: 0fe6 ecbd d195 3cbc 30a6 733c 0d45 68bc
00000020: f8ad 863d 2df1 483d 0ec6 be3b dc70 b03c
00000030: 2b6e 923c ac52 023c 549a 5f3c 097d 4bbc
00000040: e5e0 7abc 5e21 20bb 578b 183d fa4c bbbb
00000050: cd47 5fbc 5f78 523c 6008 b73c 6752 89bc
00000060: 5714 083d de03 433d 421d 63bc 2dbb ac3d
00000070: fcf8 823d 7fc6 363d 36d8 c43d d8a7 e8b9
00000080: ef6d 803d 4d6e 5f3d e78e 8b3d cf82 163d
00000090: 55ea 163d 4213 bd3d 7044 2e3d 9aae 813c
000000a0: 7d81 063e fc25 943d 14b4 863d e3ea dc3d
000000b0: c248 443d 687b 403d 943e 1e3d b2d1 5a3d
000000c0: 24cb bb3c 92db 9a3c 1a84 573d c994 d43c
000000d0: 15d3 a1bc c57b 8f3c c3bd aa3c d6a5 0f3d
000000e0: 5274 8bbb 7a65 203c c63c a73c a986 abbc
000000f0: e07d 5a3d 0fb9 9ebb 210d 88bc c6ba 253d
00000100: 45f2 0dbc b8b4 1fbc 4cae 8b3c f6d7 0dbd
00000110: bf32 0f3c 9254 2fbb 2763 fe3b 506d 573b
00000120: 968e e23c df54 913c 5375 9bba c728 5d3a
00000130: d79f ed3c f068 80bc 8838 3d3d 8cb2 223d
00000140: 3e8a b9bb a10b 543d 6cdf ee3c 05df 573d
00000150: 78dd 5d3d 7beb 973c 0096 483c 4582 0e3d
00000160: aead 8dbc 1a40 cbbc 051c a83c afa1 c8bc
00000170: 5027 5f39 f7d1 8ebc cbaa 65bc e363 db3c
00000180: 9782 99bb 8e3f 973c 9488 1fbd 4d35 273d
00000190: 5bc8 a8bc 66b6 0e3d 7b9c d83c 204c 013d
000001a0: 99fc 183d df35 953c bf35 0b3d 663b 023d
000001b0: 7ff3 893c 5879 c43c 7892 8ebc 7b58 533d
000001c0: 93d7 5b3d 8597 1b3d 98f6 073d 548e af3c
000001d0: d397 5dbc ac0d c13c 3599 433c 5c2b 3bbc
000001e0: d410 583a 9926 953c 48d3 8f3b 2227 f03c
000001f0: 4efb 56bc 42b4 ae3c b216 cd3c d292 103d
00000200: 0212 913c ce50 4a3d 705b 2a3d 7b0c 0e3d
00000210: 3e25 153c 67af 043b 57fa 493d 77ed 873c
00000220: d6c1 df3c a4d2 91bb e7f7 273d 4c16 7b38
00000230: 8324 bdbc b1f1 983c 94e5 3d3d c1a4 03bd
00000240: b369 3c3a 953c 263d 75fd ee3c 12aa 063d
00000250: 2f0d 75bc 2005 123d a08f a2bc a566 ad3c
00000260: fbb1 d43c a8c9 2dbc 0559 f73c a969 a93c
00000270: b15b 483d 1a9b 5d3d f4b7 3cbd 43b6 b43a
00000280: d37a acbc 6b3d 0a3d 2276 b03c 0c60 0c3d
00000290: e709 94bc 1032 51bc 6efd a3bc 1f28 193d
000002a0: d1e4 da3c cd4a e13c 6d9f 1fbc 4fdb 2a3d
000002b0: 1eee bb3c b971 1b3d 0292 433d 93ff 503d
000002c0: f35e 0e3d 0870 163d 57a8 1e3d ef6a bd3b
000002d0: d21d 123d c2e0 c6bc 8d28 b73b c0a4 4c3b
000002e0: cbc2 513c b337 c6bc 6d7e 943a 9c31 94ba
000002f0: fd51 11bd c03b bb3c 63b2 353d e502 3fbd
00000300: fc04 e1bb 52be 883c 5fc4 263d e747 24bc
00000310: f689 aebb 6027 d33c 510c 313d fec6 fc3c
00000320: d2f5 363c 80ad 6c3c 55ac 993c a19e 44bb
00000330: 4713 b83c c783 503d ef23 ebbc 6723 b8bb
00000340: df2a 0f3d e1f4 263d 304f 2e3c 05c7 123c
00000350: 66ed 573c fc1f d0bc 06d6 f83c 8651 22bd
00000360: 9bdc b6bb 2ee9 d73c 6158 94bc 7a50 813c
00000370: fc4c e7bc cd28 34bb dc94 a1bc 0491 bfbc
00000380: e4e7 9f3b 153c 4ab9 adf8 913c af35 1bbc
00000390: 4454 103c 9ee2 6c3d 4859 e03c 032a 0cbd
000003a0: 491c 553c 2c6d 273c 049b 223d 20ad 523d
000003b0: 5e2d 373c 0f0e 983c b41b 5c3c 70be 143d
000003c0: fa2b 3ebc b04c d23c 3731 97bc 2ed8 273d
000003d0: fd27 6fba 2086 9f3c 5958 c83c 27be 223d
000003e0: 1887 a2bc efa2 623c 0cd9 113d 4f76 753c
000003f0: a6ea 693b 0921 f7bb 3476 01bc a2ee 183d

conv3.bias f4 [128]
0.020093529 0.05530387 -0.033703867 0.0068898075 0.020284679 0.045603763 -0.0015055563 -0.0002170575
-0.019125333 0.024207726 0.042261846 0.0377455 0.04365146 -0.0021899892 -0.022965163 0.00895661
0.030326433 0.041017227 0.008631108 -0.027105866 0.040551387 0.021303019 0.018392147 -0.027482538
-0.0053499695 0.0013698462 -0.00014130885 -0.032528482 -0.02341604 0.017557211 -0.0048139747 0.036706608
-0.01926181 -0.019442162 0.031607673 0.078414775 0.019839779 -0.091533326 0.004537897 -0.022548597
-0.042965904 0.0012047484 0.0062176636 -0.0071489965 -0.03364805 0.005919185 0.040258214 -0.0012729767
-0.020065036 0.016677473 0.019928453 -0.0012375324 0.030034106 -0.0308302 -0.029465461 -0.03699951
-0.008052057 -0.03147016 -0.0012380803 0.012131835 0.035716843 -0.026862802 0.006391793 -0.00035319017
0.0127437785 0.14837629 0.0038616532 0.053875756 -0.042669486 -0.031545613 -0.004511166 -0.00012459148
-0.02731029 0.0448077 -0.03271466 0.008929465 0.012351778 -0.011671632 0.007123825 0.0625454
0.02159996 0.08403089 -0.002661214 -0.0038712316 0.059298035 0.05462612 -0.004030648 -0.029805949
-0.028133504 0.0097498335 0.03550102 -0.026871793 0.019715192 0.037504647 0.009328328 0.049478937
-0.012332662 -0.0204248 -0.0036537047 -0.06020441 -0.041440926 0.013544159 -0.015035768 0.06864983
0.05055306 0.02025637 0.07775405 -0.030591233 -0.014492637 -0.02495431 0.024893526 -9.254791e-05
0.021704545 0.04797778 0.03475602 -0.0047468287 0.036609016 -0.037017826 -0.036114942 -0.018368503
0.0007015522 0.013459508 -0.03843339 -0.017374767 0.06922306 -0.037431188 0.008524959 0.00013453029
00000000: 2f9b a43c 5086 623d 110d 0abd e5c3 e13b
00000010: 0e2c a63c 03cb 3a3d 1656 c5ba ee99 63b9
00000020: bbac 9cbc 484f c63c c21a 2d3d 079b 1a3d
00000030: e0cb 323d ec85 0fbb 7021 bcbc bfbe 123c
00000040: 246f f83c ae01 283d 7e69 0d3c 1f0d debc
00000050: 3619 263d ab83 ae3c 21ab 963c 0f23 e1bc
00000060: cc4e afbb 698c b33a 4e2c 14b9 963c 05bd
00000070: ffd2 bfbc 24d4 8f3c 8cbe 9dbb ab59 163d
00000080: f2ca 9dbc 2b45 9fbc 0c77 013d ed97 a03d
00000090: 0887 a23c d375 bbbd a4b2 943b d6b7 b8bc
000000a0: 04fd 2fbd a6e8 9d3a 8bbd cb3b 2142 eabb
000000b0: 8ad2 09bd b9f5 c13b cce5 243d 03da a6ba
000000c0: 6e5f a4bc 329f 883c ff40 a33c b234 a2ba
000000d0: 160a f63c 9e8f fcbc 8d61 f1bc cc8c 17bd
000000e0: c6ec 03bc dbe6 00bd 1547 a2ba 9bc4 463c
000000f0: d34b 123d 610f dcbc 3f72 d13b 622c b9b9
00000100: 48cb 503c f4ef 173e ca13 7d3b d3ac 5c3d
00000110: 33c6 2ebd f935 01bd 67d2 93bb c5a4 02b9
00000120: d4b9 dfbc 4788 373d cfff 05bd e44c 123c
00000130: 1d5f 4a3c 5f3a 3fbc fa6e e93b cd17 803d
00000140: 66f2 b03c 6318 ac3d c367 2ebb 7db4 7dbb
00000150: 7fe2 723d a3bf 5f3d 8713 84bb 9b2b f4bc
00000160: 3c78 e6bc c4bd 1f3c 8469 113d 3c22 dcbc
00000170: c181 a13c 799e 193d d8d5 183c 6daa 4a3d
00000180: ef0e 4abc e951 a7bc fe72 6fbb e698 76bd
00000190: f6bd 29bd 52e8 5d3c 9558 76bc 4898 8c3d
000001a0: ba10 4f3d b0f0 a53c 843d 9f3d 779a fabc
000001b0: 8672 6dbc fb6c ccbc 82ed cb3c 4816 c2b8
000001c0: bbcd b13c 5984 443d 545c 0e3d 498b 9bbb
000001d0: 56f3 153d 01a0 17bd 43ed 13bd 8b79 96bc
000001e0: 5fe8 373a 4585 5c3c 556c 1dbd 8755 8ebc
000001f0: d2c4 8d3d 7251 19bd 45ac 0b3c b310 0d39

act_conv1.weight f4 [4, 128, 1, 1]
0.012965282 0.09569857 -0.05016298 0.04251148 0.08377861 -0.081571415 0.00023555102 -0.010952271
-0.028027518 0.08473837 -0.04046943 0.06028118 0.049755007 -0.014093909 -0.015123513 0.014815506
-0.014426924 0.11112017 0.009371591 4.371181e-16 0.068977416 0.054820802 0.049930565 0.035478856
1.4155118e-14 -0.02300593 1.25937e-19 -9.840964e-06 -0.010031635 0.029734274 0.0015854081 0.01603489
-0.05748342 -0.0007227701 0.087956466 0.03288887 0.04072191 -0.016261928 -0.009945533 6.1234364e-06
0.04859866 0.0125884805 0.010068893 -0.11877857 -0.06774082 0.019824248 0.060888644 0.011082163
0.017878873 -0.060673647 0.075965315 0.19155365 0.05891349 -0.03506457 -1.8464093e-14 -0.032743834
-0.0622729 -0.03447378 1.9253083e-24 -0.024770096 -0.03985634 -0.0068472913 -0.054071307 1.32541056e-20
0.021785393 0.17505752 0.014433626 0.120233074 0.08102665 -0.062233962 0.022604108 0.015268675
-0.03270648 -0.02075749 0.016563993 0.0806936 0.0016333066 -0.0058531393 -0.032599367 0.1145208
0.00032168542 0.05292138 1.7940103e-24 -0.027492233 -0.0907993 0.09472491 0.03951034 -0.032091707
0.021596657 0.040304095 0.057004504 -0.043628424 -0.0036961003 0.0033839657 -0.028122587 0.051387634
2.1847204e-25 0.08659119 -0.0662001 -0.14013195 0.02101115 0.043449815 -0.04056904 0.004530297
-0.09444983 -0.0054478818 0.100893795 2.9436189e-24 0.010573881 -8.323909e-15 0.04239898 -0.03840431
0.025888193 0.104540356 0.0967643 1.3427459e-23 0.07891871 -0.011819837 -1.043249e-15 -0.052855514
-0.07146521 0.17203057 -0.013125151 7.4337972e-06 -0.04321178 -0.061269443 0.07096141 -0.025911968
0.034470778 0.051449172 -8.8380126e-08 0.018129213 0.04379732 -0.057499193 1.8309801e-20 -1.2159098e-06
-0.06755344 0.059624076 0.013957731 -0.0011649604 -0.03541054 0.051785097 5.9346396e-11 -0.024911158
4.306703e-24 -0.036630288 -2.3885478e-21 -2.2869425e-24 -0.036061294 -0.049395006 -0.07947071 0.04133279
-2.1002756e-20 0.020979125 4.228459e-20 -1.825188e-18 -0.014725704 0.056236334 2.2022159e-24 -0.049580634
-0.014543358 -0.006810923 0.024776997 -6.86096e-24 0.00019829666 -1.7441063e-25 -0.00012625755 -6.5542157e-24
-0.014481468 -0.033500083 -0.0025083781 -0.00087234745 -0.015376796 2.5883023e-18 -0.05141211 4.866597e-24
0.04728455 -0.013492399 0.02820427 3.6517908e-13 -0.038432647 0.0042981952 -2.2130123e-23 -0.04521045
-0.008264648 -0.0003466737 -2.4523048e-22 -9.10591e-21 0.032583307 -0.07809037 0.014178438 -1.6306561e-24
4.7306767e-05 -0.0064290026 -0.064072974 -0.00024826048 -0.0066780252 1.2053511e-11 3.7345947e-23 -0.030278899
-0.0702832 -0.019016586 -0.02390749 -0.007917699 0.03377487 1.2180557e-10 0.03580664 -0.00067257386
-0.01972356 0.029084628 3.1501734e-24 0.06133286 -0.006974586 0.041400153 -0.031401332 -0.02914725
-0.03855085 0.019422354 -0.047930285 -0.021743003 0.047568195 0.011436735 0.030371152 -0.041586373
1.2656046e-24 0.010782266 0.020553071 3.7883246e-24 -0.070418686 0.0066490686 -1.654001e-07 0.008335535
-0.047206298 -0.05277348 -0.009959774 1.5357123e-23 -1.5155006e-21 1.0934909e-25 -0.00012134349 -0.05391271
0.0071126083 0.035665262 0.02199956 9.464486e-24 0.007517547 -0.032410473 -2.0081617e-23 0.04001941
-9.495816e-23 4.6721136e-23 -1.91305e-14 -2.3161284e-24 -0.0036862663 -4.0649403e-20 0.0042269407 -0.05478
00000000: 566c 543c 9dfd c33d b277 4dbd 8520 2e3d
00000010: 1f94 ab3d ea0e a7bd 3ffe 7639 2771 33bc
00000020: f799 e5bc 4f8b ad3d 46c3 25bd 66e9 763d
00000030: e8cb 4b3d 24ea 66bc 9cc8 77bc bcbc 723c
00000040: e85e 6cbc f992 e33d 4d8b 193c 3ffb fb25
00000050: 0844 8d3d c78b 603d fe83 4c3d 4752 113d
00000060: f6fe 7e28 ef76 bcbc 1fae 1420 9e1a 25b7
00000070: ba5b 24bc 4b95 f33c 78cd cf3a 9a5b 833c
00000080: bc73 6bbd 4878 3dba 8522 b43d 7bb6 063d
00000090: 04cc 263d bc37 85bc 97f2 22bc eb77 cd36
000000a0: 630f 473d ea3f 4e3c 00f8 243c 2e42 f3bd
000000b0: b3bb 8abd 7666 a23c 5f66 793d f691 353c
000000c0: b776 923c ee84 78bd b493 9b3d a426 443e
000000d0: 464f 713d de9f 0fbd 4d4f a6a8 661e 06bd
000000e0: de11 7fbd 6134 0dbd a9f6 1418 a8ea cabc
000000f0: 6740 23bd 3e5f e0bb e079 5dbd ec5c 7a1e
00000100: 4877 b23c 4742 333e 047b 6c3c c23c f63d
00000110: 4df1 a53d 0ae9 7ebd 402c b93c 7729 7a3c
00000120: 3bf7 05bd 9d0b aabc 36b1 873c b042 a53d
00000130: ad14 d63a b1cb bfbb ea86 05bd e289 ea3d
00000140: e3a7 a839 17c4 583d 09ce 0a18 6437 e1bc
00000150: fcf4 b9bd 22ff c13d 98d5 213d 9872 03bd
00000160: 79eb b03c e815 253d 8e7d 693d b8b3 32bd
00000170: 463a 72bb 86c5 5d3b 5761 e6bc d77b 523d
00000180: 473a 8716 b956 b13d eb93 87bd c07e 0fbe
00000190: 931f ac3c 6ff8 313d b92b 26bd e372 943b
000001a0: ea6e c1bd 2584 b2bb 68a1 ce3d 61c0 6318
000001b0: 123e 2d3c 41f3 15a8 8eaa 2d3d d64d 1dbd
000001c0: 7a13 d43c 4119 d63d 5c2c c63d c7dc 8119
000001d0: 22a0 a13d fda7 41bc 1859 96a6 067f 58bd
000001e0: 5a5c 92bd c828 303e e00a 57bc d56f f936
000001f0: d6fe 30bd abf5 7abd 3754 913d 5645 d4bc
00000200: 3b31 0d3d 5ebc 523d 7dcb bdb3 b783 943c
00000210: d264 333d 4684 6bbd 62ee ac1e 5832 a3b5
00000220: 7559 8abd 6038 743d f8ae 643c 96b1 98ba
00000230: a40a 11bd 9c1c 543d 0d81 822e 7c12 ccbc
00000240: 859b a618 a409 16bd 3c79 349d 90f1 3098
00000250: 02b5 13bd 6b52 4abd 8ac1 a2bd 924c 293d
00000260: 8c5d c69e 6adc ab3c efae 471f d4ac 06a2
00000270: 1444 71bc 1258 663d 6163 2a18 1015 4bbd
00000280: 4447 6ebc 2a2e dfbb 21f9 ca3c d4b5 0499
00000290: dbed 4f39 efe8 5796 0164 04b9 cf8d fd98
000002a0: ae43 6dbc 6237 09bd 9a63 24bb 3fae 64ba
000002b0: f5ee 7bbc a6fb 3e22 8195 52bd 7144 bc18
000002c0: 72ad 413d 390f 5dbc a40c e73c da93 cd2a
000002d0: 8d6b 1dbd e0d7 8c3b 8807 d699 982e 39bd
000002e0: 7268 07bc c2c1 b5b9 943b 949b 7b01 2c9e
000002f0: 1376 053d d8ed 9fbd ae4c 683c f154 fc97
00000300: 416b 4638 62aa d2bb b138 83bd f528 82b9
00000310: 56d3 dabb 300c 542d 0b98 341a 740b f8bc
00000320: a3f0 8fbd acc8 9bbc a4d9 c3bc 3db9 01bc
00000330: 8557 0a3d 38ed 052f fca9 123d ab4f 30ba
00000340: 4e93 a1bc e342 ee3c 9dbb 7318 2a38 7b3d
00000350: 118b e4bb 3593 293d af9e 00bd 37c6 eebc
00000360: 7fe7 1dbd a11b 9f3c 8c52 44bd 621e b2bc
00000370: ded6 423d 2561 3b3c eccc f83c 7956 2abd
00000380: c3d7 c317 1aa8 303c ea5e a83c c08d 9218
00000390: ac37 90bd 6ee0 d93b d598 31b4 c591 083c
000003a0: 645b 41bd 0129 58bd 522e 23bc 6586 9419
000003b0: 1704 e59c 1c5e 0716 ca79 feb8 93d3 5cbd
000003c0: e210 e93b bd15 123d 6c38 b43c dd11 3719
000003d0: c155 f63b d8c0 04bd ad37 c299 65eb 233d
000003e0: 4198 e59a f7ed 611a ee4f aca8 a633 3398
000003f0: 4995 71bb 1df6 3f9f 2682 8a3b fe60 60bd

act_conv1.bias f4 [4]
0.051437102 -0.069204845 -0.03326512 0.1261443
00000000: b6af 523d 45bb 8dbd 0241 08bd f92b 013e

act_fc1.weight f4 [81, 324]
0.013364807 0.0011874597 0.0013055984 -0.013772846 -0.026538892 -0.01723359 -0.018430356 -0.035588115
-0.044283945 0.04250985 0.034674488 -0.046752665 -0.053063203 -0.033715878 -0.0007374839 -0.03602139
0.008430266 -0.049096998 0.01132119 0.011680132 -0.014949116 -0.035449203 -0.009800177 -0.02651383
0.004319862 -0.01888351 0.0076755886 0.025847273 -0.03589116 -0.0107946405 0.00069102115 -0.009489722
-0.00091968063 -0.024887552 0.029522274 -0.06011375 -0.036024652 -0.040152773 -0.024618596 -0.0091152545
0.0016596765 -0.019159485 -0.059060868 -0.018847795 -0.034764785 -0.0023202978 -0.060888596 0.009249032
-0.008393246 -0.030379763 -0.03535523 -0.013048314 -0.058754362 -0.035976574 0.059589397 0.0137082115
-0.039715085 -0.029681586 -0.020976806 0.0037875825 -0.033873674 -0.039515514 -0.064946756 0.2752724
-0.024985122 0.018910062 -0.0020626318 -0.095888175 -0.027980324 -0.022336222 0.034661427 0.0074541955
0.28788924 0.24388634 -0.047182113 0.04009697 -0.022290051 -0.015771374 -0.011969776 0.00052602973
0.03131072 -0.0003928924 -0.0037200905 -0.0047074244 -0.011212531 0.002948168 -0.0029168883 0.0022536989
0.0009046646 -1.1313599e-06 -0.0014512253 -0.00047457858 -0.014225919 0.0018407668 -0.0017706282 -0.0018247447
-0.0021978046 -0.0031389906 -0.00036785248 -0.0011618248 0.0038933852 -0.019829886 -0.007465903 -0.004423855
0.007934258 -0.012971952 -0.0020170102 0.00024664437 0.00063230545 0.008828246 -0.01428516 -0.008229571
-0.011498975 -0.024279045 0.010382148 -0.0006943037 -0.00079296937 -0.00437468 0.0055085667 0.006768206
-0.0016367466 -0.023269996 -0.020506518 0.007891145 -0.0058113174 -0.00074226054 -0.00684366 -0.0061964537
0.0018291783 -0.024402311 -0.0054739327 -0.0138591 0.0056664944 0.0013729283 -0.00043997364 -0.004086404
-0.0027201648 -0.018442452 -0.02343886 -0.016539231 -0.007470689 -0.014279011 -0.010267445 0.00021029155
-0.0019165165 -0.004594102 -8.127298e-05 -0.01628641 -0.01933165 -0.012665021 -0.016230484 -8.908465e-05
2.4706971e-05 1.2024383e-06 -0.0004775046 -0.0008840117 -0.0005541913 -0.0012585111 -0.002244847 -0.0016160663
4.9083937e-06 -7.300316e-23 1.2110623e-24 1.0437932e-24 7.197694e-25 -9.591014e-25 -4.591773e-25 -6.869328e-24
-8.0289114e-25 -3.0274488e-26 -2.9361501e-24 -4.4829195e-25 -1.3094311e-23 -1.9142652e-23 -2.006742e-24 1.9430935e-22
-7.901963e-24 3.9594447e-24 3.4878494e-23 -2.3290966e-24 -4.207378e-24 7.606473e-15 -4.3489764e-13 7.847561e-12
-5.6564844e-13 -4.147441e-12 -3.234928e-12 -5.8311607e-15 4.7577715e-25 9.189717e-24 1.6601423e-10 -2.436837e-09
-4.275272e-10 -6.133182e-11 -2.930499e-10 2.0830246e-09 -7.471526e-12 1.0592744e-21 -2.3112929e-23 1.3734698e-11
-2.0198318e-10 -8.987532e-11 -1.7632449e-09 3.305245e-10 1.0893881e-09 5.539912e-12 3.5369076e-24 -8.720672e-24
9.825977e-11 -5.2182383e-09 -3.3135001e-09 -1.3026751e-09 -1.1925834e-09 3.985779e-09 1.2220994e-10 -1.0739447e-23
4.96194e-23 -1.1276884e-10 1.7687087e-08 -2.0599442e-09 -1.7615646e-08 -1.0286161e-08 -3.2288344e-08 1.7052151e-11
1.2109279e-24 1.2355922e-20 1.3693924e-07 -5.2315096e-07 1.8853982e-06 -4.2704305e-06 -2.494737e-06 2.786441e-07
5.93329e-12 6.852795e-24 2.462397e-11 7.940122e-05 -0.00025482193 -1.0430047e-05 -0.00020037958 0.00020337237
5.4839013e-05 -2.0710493e-06 8.46838e-24 0.07255019 0.05366226 0.023869392 0.043555442 0.0342677
0.045174602 0.028924208 0.030081144 0.061139476 0.05432523 0.006204478 0.033290114 0.016992534
00000000: 10f8 5a3c 89a4 9b3a 9d20 ab3a 81a7 61bc
00000010: 1768 d9bc 752d 8dbc 42fb 96bc d8c4 11bd
00000020: 1563 35bd cf1e 2e3d d606 0e3d b97f 3fbd
00000030: cd58 59bd a919 0abd b553 41ba 2a8b 13bd
00000040: 191f 0a3c ef19 49bd 837c 393c 065e 3f3c
00000050: 23ed 74bc 2f33 11bd ec90 20bc 8833 d9bc
00000060: a18d 8d3b 97b1 9abc 8183 fb3b a9bd d33c
00000070: 9c02 13bd 01dc 30bc a525 353a c77a 1bbc
00000080: b916 71ba fbe0 cbbc b2d8 f13c d639 76bd
00000090: 968e 13bd 3c77 24bd f0ac c9bc 2658 15bc
000000a0: 8189 d93a 5af4 9cbc cfe9 71bd b166 9abc
000000b0: 8565 0ebd 2310 18bb 5266 79bd 4089 173c
000000c0: d383 09bc fbde f8bc a5d0 10bd 98c8 55bc
000000d0: 6aa8 70bd 2c5c 13bd 0314 743d 6898 603c
000000e0: 49ac 22bd cc26 f3bc 8dd7 abbc 1739 783b
000000f0: 1fbf 0abd 05db 21bd ce02 85bd 81f0 8c3e
00000100: 99ad ccbc 46e9 9a3c 382d 07bb 0561 c4bd
00000110: fe36 e5bc 74fa b6bc 24f9 0d3d 5342 f43b
00000120: 3866 933e 57bd 793e 0842 41bd b83c 243d
00000130: a099 b6bc f832 81bc e11c 44bc 42e5 093a
00000140: ab3f 003d 20fd cdb9 c3cc 73bb bd40 9abb
00000150: c3b4 37bc 0d36 413b 4429 3fbb cbb2 133b
00000160: 0327 6d3a 3bd9 97b5 0a37 beba dcd0 f8b9
00000170: d413 69bc e245 f13a 6c14 e8ba 462c efba
00000180: 0b09 10bb 86b7 4dbb 53dc c0b9 5f48 98ba
00000190: 2a28 7f3b 4972 a2bc 89a4 f4bb fcf5 90bb
000001a0: b1fe 013c 4f88 54bc d12f 04bb 0c50 8139
000001b0: 4dc1 253a 59a4 103c 4e0c 6abc 53d5 06bc
000001c0: 3266 3cbc d9e4 c6bc e319 2a3c ef01 36ba
000001d0: 46df 4fba 7a59 8fbb 3581 b43b d4c7 dd3b
000001e0: 1a88 d6ba b8a0 bebc 49fd a7bc dc49 013c
000001f0: dd6c bebb 4394 42ba c840 e0bb 9f0b cbbb
00000200: 0ac1 ef3a 5be7 c7bc ad5e b3bb 4711 63bc
00000210: 00ae b93b d4f3 b33a 43ac e6b9 3ee7 85bb
00000220: cb44 32bb a014 97bc da02 c0bc 487d 87bc
00000230: aecc f4bb 83f2 69bc c938 28bc b581 5c39
00000240: 9f33 fbba 1f8a 96bb 1971 aab8 146b 85bc
00000250: 695d 9ebc f380 4fbc cbf5 84bc f5d2 bab8
00000260: d141 cf37 7763 a135 9559 fab9 05bd 67ba
00000270: 2647 11ba a0f4 a4ba 481e 13bb 30d2 d3ba
00000280: c8b2 a436 c482 b09a 1f67 bb17 e984 a117
00000290: 02c2 5e17 ec69 9497 c61b 0e97 44df 0499
000002a0: 977b 7897 79e9 1595 722c 6398 59bd 0a97
000002b0: e347 7d99 e922 b999 9f43 1b98 d5e7 6a1b
000002c0: a0d8 1899 712c 9918 7ca9 281a 8334 3498
000002d0: dac3 a298 aa06 0928 5bd3 f4aa 460e 0a2d
000002e0: 4437 1fab d4ec 91ac 48a3 63ac f716 d2a7
000002f0: f33e 1317 46c1 3119 da88 362f 4a75 27b1
00000300: 1b09 ebaf bfde 86ae 1b1b a1af f524 0f31
00000310: c370 03ad b212 a01c d788 df99 959f 712d
00000320: 3615 5eaf 4fa3 c5ae aa56 f2b0 30b5 b52f
00000330: 70b9 9530 17eb c22c d6d3 8818 adae 2899
00000340: 5513 d82e 1c4c b3b1 b6b3 63b1 ce09 b3b0
00000350: 4ce8 a3b0 48f3 8831 0a5f 062f 2abb 4f99
00000360: d8f1 6f1a 37fb f7ae 51ee 9732 ec8e 0db1
00000370: 3751 97b2 04b7 30b2 69ad 0ab3 08fe 952d
00000380: cc61 bb17 9365 691e 9209 1334 a96e 0cb5
00000390: ca0d fd35 b84a 8fb6 416b 27b6 8e98 9534
000003a0: 53c2 d02c 668d 0419 4098 d82d 3584 a638
000003b0: 9f99 85b9 b6fc 2eb7 fc1c 52b9 5b40 5539
000003c0: f102 6638 5bfc 0ab6 63cd 2319 3295 943d
000003d0: f5cc 5b3d be89 c33c 3167 323d 4a5c 0c3d
000003e0: 0109 393d 76f2 ec3c bb6c f63c 636d 7a3d
000003f0: 2284 5e3d ef4e cb3b 375b 083d ed33 8b3c

act_fc1.bias f4 [81]
0.14006108 -0.023689615 -0.20399761 0.13839307 0.14581497 0.13704117 -0.12998666 -0.025558371
0.11021691 -0.018376993 -0.071668826 0.11071025 0.05180518 0.26289392 0.0740837 0.08634024
-0.17857113 -0.038074106 -0.17440629 0.14855526 0.014544594 0.23443185 -0.08897949 0.19590005
0.025811609 0.15599781 -0.12900177 0.088935696 0.03682831 0.12945771 0.13978161 0.19877852
0.103481166 0.19558267 0.04936892 0.11745585 0.12052106 0.21243116 -0.039342277 0.2577887
-0.041038446 0.2873138 -0.089844115 0.23833558 0.10356124 0.09160613 0.059523657 0.15866908
0.11559596 0.24914013 0.082113616 0.21202356 0.0065338016 0.09321805 -0.17682005 0.13958347
0.1016903 0.24721928 -0.10021147 0.14331795 -0.0026294042 0.15465258 -0.1402832 -0.079146236
-0.12426096 0.14475249 0.05292766 0.17503388 0.036512718 0.13826713 -0.15342139 -0.03075046
0.050785795 -0.08426091 -0.17991363 0.105077006 0.07711431 0.09183823 -0.16059361 -0.028428284
0.115834415
00000000: 2c6c 0f3e b910 c2bc c0e4 50be eab6 0d3e
00000010: 8550 153e 8554 0c3e 391b 05be ca5f d1bc
00000020: 67b9 e13d 598b 96bc 1bc7 92bd 0ebc e23d
00000030: ab31 543d 089a 863e 32b9 973d 27d3 b03d
00000040: 5adb 36be 98f3 1bbd 9097 32be df1e 183e
00000050: 734c 6e3c e70e 703e e13a b6bd 069a 483e
00000060: de72 d33c e4bd 1f3e 0a19 04be eb23 b63d
00000070: 48d9 163d 9090 043e e922 0f3e 998c 4b3e
00000080: efed d33d d346 483e 1137 4a3d b18c f03d
00000090: bfd3 f63d 8e87 593e 5e25 21bd e1fc 833e
000000a0: ee17 28bd cb1a 933e 3100 b8bd 3e0e 743e
000000b0: ea17 d43d ff9b bb3d 14cf 733d 267a 223e
000000c0: 93bd ec3d 971e 7f3e 2f2b a83d b41c 593e
000000d0: 8019 d63b 1be9 be3d 5110 35be f8ee 0e3e
000000e0: 0143 d03d 0d27 7d3e ac3b cdbd f1c1 123e
000000f0: 1552 2cbb 3f5d 1e3e 66a6 0fbe 6c17 a2bd
00000100: 887c febd ff39 143e adca 583d 153c 333e
00000110: 5c8e 153d e695 0d3e 7f1a 1dbe 64e8 fbbc
00000120: c404 503d fc90 acbd 473b 38be 9d32 d73d
00000130: 1bee 9d3d af15 bc3d a772 24be 6fe2 e8bc
00000140: 983a ed3d

val_conv1.weight f4 [2, 128, 1, 1]
0.044009175 0.024105083 -0.04263362 0.016273102 0.0779887 -0.05263543 4.3985306e-20 -2.4976335e-23
-0.006642355 0.04972539 -0.09455096 0.0062654214 -0.10833358 0.02005442 -0.05234885 0.08639331
-0.028809 -0.03683696 0.0017255173 -0.008762578 -0.11506933 -0.06268291 0.016325159 0.017183285
0.016204564 0.0311592 0.00011102628 -0.0060636727 0.042120434 0.07367857 -0.0043089446 -0.07583342
0.06666097 0.020177249 0.05850666 -0.066201076 -0.041642006 -0.016373647 0.015455189 -0.019099103
-0.005813809 0.04987154 0.044419944 -0.056811627 0.033421163 -0.0079745 -0.08471273 7.887744e-23
0.021588469 -0.04792919 0.07586846 -0.0048063337 0.016398048 0.045397718 -0.0072341952 0.06014526
0.04455401 -0.049286332 3.028426e-08 -0.03211307 -0.09042215 0.023103056 0.07102818 1.5183999e-15
0.020353597 -0.02114285 0.07834253 -0.040060155 -0.017857501 -0.060485814 -0.014587779 0.0067563397
0.04513286 -0.07943346 0.06585149 0.0764605 0.024474481 -0.021842333 0.06564392 -0.022344196
-0.051997915 -0.041653104 -0.004901661 0.05683152 -0.05712037 0.015498653 0.0539957 0.039973207
0.06047833 0.03039678 0.020531122 0.01571779 0.039080236 -0.05376135 -0.09027312 -0.0018078294
0.0029111092 -0.07431997 0.013410021 0.00079951354 0.02723718 0.08271447 0.0010940266 -0.121323444
-0.059403572 -0.033714734 -0.062783934 -0.006304892 -1.1111211e-24 0.047937367 0.048829198 0.02358801
-0.07267342 0.03426777 0.0015291289 -6.598814e-10 -0.110928476 -0.066064805 -0.026711443 0.073434666
-0.09330394 0.002528507 -0.034812476 -0.013430473 -0.06891718 -0.027620949 0.021370716 0.008590675
-0.0022274496 -0.007867777 -0.010852182 0.0076951566 0.032026805 0.030351862 -5.8710602e-24 -6.8999647e-25
-0.023680238 0.05860082 -0.052420437 -0.06436163 -0.079330005 -0.0073984233 -7.0217984e-06 0.041153193
8.842994e-05 0.035543244 -3.6888205e-24 7.455527e-24 -0.06481593 0.0017767167 0.045831945 0.0038970192
2.8651369e-24 -0.072770685 4.9797155e-25 -1.2996135e-23 -0.03875054 0.018156568 7.2911677e-09 -0.07691951
-0.012163658 -0.003147405 -0.04145097 -0.025958715 1.1287197e-23 4.9084107e-22 -0.03135581 1.6799459e-18
-5.756786e-06 0.019392373 0.05335119 6.675264e-05 0.034238614 -1.9686016e-24 -0.027715866 -3.0438533e-24
0.0022994631 -0.027531348 0.04304068 1.2083618e-24 0.03075831 -0.007816479 -7.262299e-25 -0.033522286
0.053105574 4.010567e-14 2.1365872e-24 -9.3967166e-05 -0.004898318 0.026910443 -0.033469327 -1.61956e-24
4.137066e-15 -5.529691e-23 0.046877638 -2.9624557e-14 -1.0606745e-13 0.0005621969 0.0018797548 -0.043667894
-0.07525473 -0.078869045 0.015101532 -0.031110605 0.001726347 2.7324142e-24 -0.0743675 -4.5571605e-06
-0.019256402 -0.024428876 -2.2198017e-23 -0.0154572595 -0.062949605 0.022285318 0.0023396828 -0.00960152
-0.06636045 -0.02191549 -0.023785682 -0.009034028 -0.053498268 -0.059755772 -0.03578178 -0.0590013
-2.2377207e-24 0.0016816955 1.0961897e-11 -2.0803676e-05 0.018522233 -0.009918185 -8.8269804e-24 -0.05540465
-0.00036702034 -0.027598947 -0.004659707 2.5526535e-24 6.022328e-23 -5.1119487e-23 0.011289561 -0.05832424
-0.00012426202 -0.007987196 0.025039231 1.2371026e-17 -0.038747378 0.013622718 1.3369973e-24 0.057041828
-0.027081303 -5.4586867e-24 -3.0236304e-06 -2.0829412e-21 -0.022140136 0.021700509 -0.06654885 -0.046609852
00000000: f742 343d 0678 c53c 97a0 2ebd 2b4f 853c
00000010: 8ab8 9f3d 4098 57bd f9b6 4f1f 698e f199
00000020: 1da8 d9bb daac 4b3d efa3 c1bd 2a4e cd3b
00000030: ffdd ddbd 2b49 a43c bf6b 56bd faee b03d
00000040: da00 ecbc 5ae2 16bd c12a e23a ea90 0fbc
00000050: 78a9 ebbd e65f 80bd 57bc 853c f6c3 8c3c
00000060: 6fbf 843c 9441 ff3c c8d6 e838 c6b1 c6bb
00000070: 7a86 2c3d cae4 963d 0c32 8dbb 8d4e 9bbd
00000080: 8c85 883d c24a a53c aea4 6f3d 6e94 87bd
00000090: cf90 2abd 0722 86bc c337 7d3c b975 9cbc
000000a0: c481 bebb 1a46 4c3d b0f1 353d 4fb3 68bd
000000b0: a1e4 083d 7aa7 02bc de7d adbd c5b6 be1a
000000c0: 4dda b03c 6651 44bd ec60 9b3d 737e 9dbb
000000d0: 3355 863c f5f2 393d d40c edbb e05a 763d
000000e0: 447e 363d 77e0 49bd e511 0233 ff88 03bd
000000f0: 402f b9bd 9f42 bd3c 3977 913d 12d3 da26
00000100: 96bc a63c c533 adbc 0c72 a03d 1e16 24bd
00000110: e549 92bc f9bf 77bd 9401 6fbc 4964 dd3b
00000120: 3cdd 383d 03ae a2bd 25dd 863d 5397 9c3d
00000130: b57e c83c b1ee b2bc 5270 863d 2d0b b7bc
00000140: c4fb 54bd 729c 2abd 1d9e a0bb 2bc8 683d
00000150: 0df7 69bd 10ee 7d3c 982a 5d3d f2ba 233d
00000160: 20b8 773d ab02 f93c e230 a83c 98c2 803c
00000170: 9912 203d dd34 5cbd 1de1 b8bd b0f4 ecba
00000180: 4fc8 3e3b 1235 98bd b4b5 5b3c 7296 513a
00000190: 8220 df3c 3466 a93d 7165 8f3a 6d78 f8bd
000001a0: 2951 73bd 7618 0abd dd94 80bd 4499 cebb
000001b0: 0bf0 ab97 f959 443d 2001 483d a43b c13c
000001c0: cdd5 94bd 5c5c 0c3d 0d6d c83a 0763 35b0
000001d0: 782e e3bd fc4c 87bd f5d1 dabc ea64 963d
000001e0: 2316 bfbd 4fb5 253b 8797 0ebd 7d0b 5cbc
000001f0: 7324 8dbd 5445 e2bc a411 af3c e7bf 0c3c
00000200: 67fa 11bb d9e7 00bc 5acd 31bc a727 fc3b
00000210: 8a2e 033d 78a4 f83c 2a20 e398 278b 5597
00000220: 0ffd c1bc 6a07 703d d0b6 56bd 08d0 83bd
00000230: c577 a2bd 796e f2bb ca9c ebb6 4090 283d
00000240: 7673 b938 cb95 113d 4fb4 8e98 fb35 1019
00000250: 37be 84bd b8e0 e83a 47ba 3b3d 2265 7f3b
00000260: e2ad 5d18 cc08 95bd 5f1d 1a17 be61 7b99
00000270: e3b8 1ebd 15bd 943c ca85 fa31 fa87 9dbd
00000280: 144a 47bc b244 4ebb 7ec8 29bd 5fa7 d4bc
00000290: 7e53 5a19 fd58 141c f36e 00bd 90ea f721
000002a0: 6a2a c1b6 c1dc 9e3c c786 5a3d 8dfd 8b38
000002b0: ca3d 0c3d 2c50 1898 620c e3bc ba81 6b98
000002c0: 97b2 163b 6c89 e1bc 6d4b 303d 24fc ba17
000002d0: daf8 fb3c b010 00bc dcc1 6097 aa4e 09bd
000002e0: 3b85 593d b09e 3429 784f 2518 3d10 c5b8
000002f0: 1282 a0bb 4a73 dc3c 2217 09bd 629d fa97
00000300: b30d 9527 21b3 859a c402 403d ca6a 05a9
00000310: b9d7 eea9 6560 133a 1b62 f63a 1bdd 32bd
00000320: 271f 9abd 1886 a1bd 6b6c 773c abdb febc
00000330: 9846 e23a 0a69 5318 fd4d 98bd b6e9 98b6
00000340: 9abf 9dbc 111f c8bc a1af d699 7240 7dbc
00000350: b9eb 80bd b38f b63c 5d55 193b b24f 1dbc
00000360: fde7 87bd 1d88 b3bc 31da c2bc 7603 14bc
00000370: 0021 5bbd 78c2 74bd ea8f 12bd 59ab 71bd
00000380: a022 2d98 566c dc3a ffd7 402d 8e83 aeb7
00000390: f0bb 973c e27f 22bc 17bd 2a99 fcef 62bd
000003a0: a36c c0b9 3017 e2bc 75b0 98bb 8380 4518
000003b0: 689c 911a dc32 779a daf7 383c 66e5 6ebd
000003c0: 554c 02b9 badc 02bc 131f cd3c 8534 6423
000003d0: 92b5 1ebd d231 5f3c ebe3 ce17 b1a4 693d
000003e0: 9cd9 ddbc 372c d398 93e9 4ab6 f161 1d9d
000003f0: 3b5f b5bc 44c5 b13c c34a 88bd f9e9 3ebd

val_conv1.bias f4 [2]
0.05829858 -0.06469071
00000000: 7eca 6e3d 907c 84bd
