课程设计/AlphaZero简单复现/models/policy_batch_700.model (torch, 530617 bytes, 15 tensors)

conv1.weight f4 [32, 4, 3, 3]
0	0x3e3d14b2	0.18464926
1	0xbd1783a0	-0.03699076
2	0x3e7aa876	0.24478325
3	0xbd3cc921	-0.04609025
4	0xbc8b77dd	-0.017024929
5	0xbdd8c6e8	-0.10584813
6	0x3eb560a2	0.35425287
7	0xbe7c4b23	-0.24638037
8	0x3ed4776b	0.4149736
9	0x3dcf6f54	0.10128656
10	0xbca1d37f	-0.01975417
11	0x3e015a90	0.12632203
12	0x3c098b33	0.008395004
13	0xbdd6fddb	-0.10497638
14	0xbd1b6e27	-0.037946846
15	0x3e6a7581	0.22896387
16	0xbd885784	-0.06657317
17	0x3e552845	0.20816143
18	0x3de3d34b	0.11124285
19	0x3ab5a93d	0.0013859641
20	0xbc43397c	-0.011915561
21	0xbc4e0b8c	-0.012575995
22	0x3d01b0e1	0.031662825
23	0xbda8152e	-0.08207165
24	0x3cb42b25	0.02199323
25	0xbdb1499f	-0.0865662
26	0x3df07898	0.117417514
27	0xbb19f9e6	-0.0023494898
28	0x3ac6fbc7	0.0015181237
29	0xbd723ae3	-0.05913819
30	0xbdc04cb7	-0.09389632
31	0x3dfbbbd4	0.12291685
32	0xbcead882	-0.028667692
33	0x3bc49f66	0.006000447
34	0x3d17b8d7	0.03704151
35	0xbd57989f	-0.052635785
36	0x3e9196b7	0.284353
37	0x3e82f321	0.25576118
38	0xbec4954a	-0.3839515
39	0x3e1c6f1c	0.1527676
40	0xbd61b206	-0.055101417
41	0x3e9c89d1	0.30573896
42	0xbe6e4680	-0.23269081
43	0x3e0a0bc2	0.13481048
44	0x3e110d9f	0.14165352
45	0x3e076e88	0.13225758
46	0x3d18b4a2	0.03728164
47	0xbd9cba01	-0.07652665
48	0xbe608d29	-0.21928848
49	0x3c568e46	0.013095444
50	0xbd9bef5c	-0.076140136
51	0x3db34132	0.087526694
52	0xbe003a17	-0.1252216
53	0x3e3238ff	0.17404555
54	0xba5612ca	-0.0008166252
55	0xbb7c11ce	-0.003846276
56	0xbc1e005d	-0.009643641
57	0x3c2f0ec2	0.010684671
58	0xbcc0fb24	-0.023557253
59	0x3d0b5042	0.034012087
60	0x3d13cca2	0.036083825
61	0x3d485593	0.048909735
62	0xbcd20a80	-0.025639772
63	0x3b3057a2	0.0026907702
64	0xbe14737d	-0.1449718
65	0x3d4791e8	0.04872313
66	0xbe2549e0	-0.16141462
67	0x3d885340	0.06656504
68	0xbe243477	-0.16035639
69	0x3e12090b	0.14261262
70	0xbd52fde3	-0.051511656
71	0x3e1f9fe8	0.15588343
72	0x3e3871a0	0.18012094
73	0x3e1ed5c9	0.1551124
74	0xbc9111f1	-0.01770875
75	0xbe90c06c	-0.28271806
76	0xbd92b57b	-0.07163521
77	0xbe89f0b7	-0.26941463
78	0x3d38c2b6	0.045107566
79	0x3e4e870c	0.20168704
80	0xbe62d5b6	-0.22151837
81	0xbdd182d5	-0.10230032
82	0xbe2d0bc7	-0.16899024
83	0xbd2d0da1	-0.042249326
84	0x3e3e07a8	0.18557608
85	0x3e196378	0.1497935
86	0x3dbb23a7	0.091376595
87	0x3dacf9e7	0.084461026
88	0xbe4cf442	-0.20015052
89	0x3c589c25	0.0132208215
90	0xbda0010b	-0.07812699
91	0xbdb1da65	-0.086842336
92	0xbd67b01a	-0.056564428
93	0xbdc41ff9	-0.09576411
94	0xbd10940c	-0.03529744
95	0x3d705d0a	0.05868248
96	0xba0e58f1	-0.00054301234
97	0xbd2967d4	-0.041358784
98	0x3d6fe851	0.058571164
99	0xbdf189fe	-0.11793898
100	0x3e04363a	0.12911311
101	0x3db0c3ae	0.08631073
102	0x3cdc6498	0.026903436
103	0x3d7128fe	0.058876984
104	0x3d824a04	0.063617736
105	0x3d6df38b	0.05809359
106	0x3e0bbf74	0.13647252
107	0xbe2aeb82	-0.16691402
108	0xbc90a98c	-0.017658971
109	0xbefad3b4	-0.48989642
110	0x3e9499ed	0.29023686
111	0xbd8d1edc	-0.068906516
112	0x3eb402da	0.35158426
113	0xbebf6cec	-0.37387788
114	0x3cbd7e19	0.023131417
115	0x3d0f7f4c	0.03503351
116	0x3decc8dd	0.11561749
117	0x3d906f95	0.070525326
118	0x3d9b061e	0.07569526
119	0xbe100958	-0.14066064
120	0x3e170c12	0.14750698
121	0xbd092ad4	-0.03348811
122	0x3dfce02a	0.123474434
123	0xbd543e6c	-0.051817343
124	0x3e004739	0.1252717
125	0x3e43d879	0.19125547
126	0xbd0f65be	-0.03500914
127	0x3ca0a8a0	0.019611657
128	0xbb910127	-0.004425186
129	0xbc8e03b9	-0.01733576
130	0xbd4e87df	-0.050422546
131	0x3d6ab74a	0.057303704
132	0xbcc970c0	-0.024589896
133	0xbca1bb2e	-0.019742575
134	0x3c9e937e	0.01935744
135	0x3d8fdbf7	0.07024377
136	0xbd694f43	-0.056960355
137	0x3dca1f52	0.09869255
138	0x3e09f324	0.13471657
139	0xbbee386b	-0.007269909
140	0xbdb6cfa7	-0.08926325
141	0xbde37a45	-0.111073054
142	0xbdb720a6	-0.08941774
143	0x3e072345	0.13197048
144	0xbe347295	-0.17621835
145	0xbd91421d	-0.07092688
146	0xbd1eef10	-0.038802207
147	0x3d8526bd	0.06501529
148	0x3e018a56	0.12650427
149	0x3d9dba0b	0.077015005
150	0xbdaff1d3	-0.08591046
151	0xbd18c24d	-0.037294675
152	0x3e1db796	0.15402064
153	0xbdf6939d	-0.12039874
154	0xbcab30b4	-0.020897247
155	0xbe1206d8	-0.14260423
156	0x3dccf919	0.10008449
157	0xbc8c62c6	-0.017136943
158	0xbdee9d56	-0.11651103
159	0x3dc35f15	0.0953962
160	0xbd97f1a0	-0.07419133
161	0xbe0e6803	-0.13906865
162	0xbc91f840	-0.01781857
163	0x3c52d9ab	0.012869279
164	0x3e025784	0.12728697
165	0x3dea253f	0.114328854
166	0x3d1cf760	0.038321853
167	0xbd25c7db	-0.0404738
168	0x3c9203b6	0.017824035
169	0xbd8845ce	-0.06653939
170	0x3c53d399	0.012928867
171	0x3d989f1b	0.07452222
172	0x3dacea64	0.08443144
173	0x3e075c9f	0.13218926
174	0x3e0070a3	0.12542967
175	0x3daa722d	0.083225586
176	0x3dd6fb64	0.10497168
177	0x3e168b4d	0.14701577
178	0x3e13f264	0.14447933
179	0x3e0111b2	0.12604406
180	0x3e713897	0.23556744
181	0x3d75d8dc	0.060021266
182	0xbdbfbec7	-0.0936256
183	0xbeb5c303	-0.35500345
184	0x3eb8389d	0.35980693
185	0x3ea03358	0.31289172
186	0x3e9223ab	0.28542838
187	0xbd549132	-0.05189628
188	0x3c14e84e	0.009088589
189	0x3dbf0492	0.093270436
190	0xbd6af97a	-0.057366826
191	0xbe2bebc6	-0.16789159
192	0xbeddbfff	-0.43310544
193	0x3e4dadb7	0.20085798
194	0x3e099677	0.13436304
195	0x3dd50ff3	0.10403433
196	0xbe4f792b	-0.20261066
197	0xbd8faf3b	-0.070158444
198	0x3e100248	0.1406337
199	0x3dbd708a	0.09249981
200	0x3d55c093	0.052185606
201	0x3cbdc5ac	0.023165546
202	0x3e22c8b8	0.1589688
203	0x3d707c44	0.05871226
204	0x3db1585b	0.086594306
205	0x3dc7b84d	0.097519495
206	0x3b772dbe	0.0037716473
207	0x3d1e0cbd	0.038586367
208	0x3d4bc1d9	0.049745414
209	0x3e01bc2c	0.12669438
210	0x3e190e45	0.1494685
211	0xbdff0ef2	-0.124540225
212	0xbd9c27b7	-0.076247625
213	0xbc901305	-0.017587194
214	0xbd6db08c	-0.058029696
215	0x3e2ab533	0.16670685
216	0xbc2b4b54	-0.010454971
217	0xbdc98c0d	-0.09841166
218	0x3cc2a1b9	0.023758756
219	0xbd726fe6	-0.059188746
220	0xbd24c11f	-0.040223237
221	0xbe7add9b	-0.24498598
222	0x3d0e7281	0.03477717
223	0xbd6ee667	-0.058325198
224	0x3e87a1bb	0.26490578
225	0xbd515fcf	-0.05111676
226	0x3d1558f9	0.036461804
227	0x3da624b8	0.08112472
228	0xbd5e3e25	-0.054258484
229	0x3eb1431a	0.34621507
230	0xbeabe6b7	-0.3357446
231	0x3cf34ee2	0.0297007
232	0xbf050002	-0.51953137
233	0x3e7fc53f	0.24977587
234	0x3c6cb06d	0.01444636
235	0x3d7132ba	0.058886267
236	0x3dc3a1e9	0.09552366
237	0x3ce8907a	0.028389204
238	0x3e0b580a	0.13607803
239	0xbe52fee2	-0.20605043
240	0x3e226b56	0.15861258
241	0xbe2116ee	-0.15731403
242	0x3e3b3d5b	0.18285124
243	0x3c960249	0.018311637
244	0x3e062d0b	0.1310312
245	0x3e016aec	0.12638444
246	0xba59a646	-0.000830267
247	0xbd9237d3	-0.07139554
248	0xbb879912	-0.0041381205
249	0xbe0e10e2	-0.13873628
250	0xbd037cd9	-0.032101486
251	0xbd53fc0f	-0.051754054
252	0xbe749218	-0.23883855
253	0x3e0a331d	0.1349606
254	0x3e8cb286	0.27479953
255	0xbe05a158	-0.13049829

conv1.bias f4 [32]
0	0xbd956912	-0.07295431
1	0x3e0149a2	0.12625745
2	0x3dbc28e4	0.09187487
3	0xbc1ec2ec	-0.009690028
4	0xbe0e990c	-0.1392557
5	0xbaddf73a	-0.0016934641
6	0x3ca106ca	0.019656558
7	0x3d9d13b8	0.07669777
8	0x3c3a407e	0.011367915
9	0xbdd320dc	-0.10309002
10	0x3e9afb07	0.30269644
11	0xbd496f07	-0.04917815
12	0xbe0ddf47	-0.13854705
13	0xbd0aacb5	-0.033856113
14	0x3bc01b42	0.0058626244
15	0x3e5d8a68	0.21634829
16	0xbcf2757a	-0.029597033
17	0x3e674189	0.22583593
18	0xbbf1c10a	-0.0073777484
19	0x3be2bc00	0.006919384
20	0x3e8edb8e	0.27901882
21	0xbc9e3521	-0.019312443
22	0xbda0fd85	-0.07860855
23	0xbc956e2b	-0.018241009
24	0xbcdb5d0e	-0.02677777
25	0x3e3d5515	0.18489487
26	0x3e875cce	0.26437992
27	0xbce79595	-0.028269568
28	0xbd48696a	-0.048928656
29	0xbde1f811	-0.11033643
30	0x3d8aa046	0.06768851
31	0xbe104e33	-0.1409233

conv2.weight f4 [64, 32, 3, 3]
0	0x3dd5c4f7	0.10437959
1	0x3e227279	0.1586398
2	0x3e1c6d48	0.15276062
3	0x3e546f18	0.20745504
4	0xbc8b9d4c	-0.017042778
5	0x3e4dbfe9	0.20092739
6	0x3c093df4	0.008376587
7	0x3dff0785	0.12452606
8	0xbd0d8744	-0.034552827
9	0x3e1a9de5	0.15099294
10	0xbdb9c832	-0.09071387
11	0xbd614d45	-0.05500533
12	0x3c7e53d6	0.015522918
13	0xbce6cb08	-0.028172985
14	0xbe290449	-0.16505541
15	0x3cae3dcd	0.021269703
16	0x3d44a052	0.048004456
17	0x3e5d298c	0.2159788
18	0xbd484e3f	-0.048902746
19	0x3ba99533	0.0051752566
20	0x3db39412	0.087684765
21	0xbd4c8775	-0.04993387
22	0x3d7f2411	0.062290255
23	0x3b8726f7	0.004124518
24	0xbcfcf2a8	-0.030877426
25	0xbd8f940e	-0.07010661
26	0xbd12fe60	-0.035887122
27	0x3d6df566	0.05809536
28	0x3deeae69	0.1165436
29	0xbc8c50de	-0.017128404
30	0x3ca96c6e	0.020681586
31	0xbe0c23ae	-0.13685486
32	0x3dafaafe	0.08577536
33	0xbe4ffdab	-0.2031161
34	0x3dc307fb	0.095230065
35	0xbdfe6bcc	-0.12422904
36	0x3c881321	0.016610684
37	0xbbc709a4	-0.0060741473
38	0x3be54ed8	0.0069979243
39	0xbb2a2b9e	-0.002596594
40	0xbbbb01d9	-0.0057070074
41	0x3bf365f0	0.0074279234
42	0xbcb27fcf	-0.02178946
43	0x3c50f2a8	0.012753166
44	0x3d348002	0.04406739
45	0xbd2e12ed	-0.042498518
46	0x3b116486	0.002218516
47	0xbccbebe8	-0.024892762
48	0x3d41e808	0.047340423
49	0x3d8120af	0.06305062
50	0xbdabcf37	-0.083891325
51	0xbd8c5719	-0.0685255
52	0xbce9cf4d	-0.028541232
53	0xbe274602	-0.163353
54	0x3da36fbe	0.079802975
55	0x3bcb305e	0.006200834
56	0x3c805ad0	0.015668303
57	0xbdb17df4	-0.08666602
58	0xbd0a21f0	-0.03372377
59	0x3dd645ba	0.10462518
60	0x3c86a1c7	0.016434563
61	0x3e09f674	0.1347292
62	0x3d809e96	0.06280248
63	0xbb348267	-0.0027543546
64	0xbe3ac079	-0.18237485
65	0x3d54cc68	0.05195275
66	0x3d7fee1d	0.062482942
67	0x3dbd5f36	0.09246676
68	0xbe8e5fc8	-0.2780745
69	0x3e68d5bd	0.22737785
70	0x3c379bbc	0.011206564
71	0xbd8c7cca	-0.06859739
72	0xbcf42034	-0.029800512
73	0x3d7666b6	0.060156547
74	0xbdc12357	-0.09430569
75	0x3dab114a	0.08352907
76	0x3d83c729	0.06434471
77	0xbd67ee70	-0.056623876
78	0xbd223f8d	-0.039611388
79	0x3dc820b0	0.0977186
80	0x3de5d700	0.112226486
81	0xbd56425d	-0.052309383
82	0x3d96e3af	0.07367646
83	0x3c064a19	0.008196377
84	0xbd826bfe	-0.06368254
85	0xbd0c09e3	-0.034189116
86	0x3d00fe06	0.031492256
87	0xbd082a22	-0.033243306
88	0x3d245418	0.04011926
89	0x3d0ec795	0.034858305
90	0x3d111238	0.035417765
91	0xbd91c295	-0.07117192
92	0x3d4ca916	0.04996594
93	0x3d9af5ee	0.075664386
94	0xbd3694f2	-0.04457564
95	0xbd871251	-0.065952905
96	0x3d64cf0b	0.055861514
97	0x3db6ce3b	0.08926054
98	0x3ddd60ba	0.10809465
99	0xbc548b5a	-0.012972677
100	0xbd817579	-0.06321234
101	0x3d53c13a	0.051697947
102	0x3dad58de	0.08464216
103	0x3d96fde8	0.073726475
104	0x3dfb99c5	0.122851886
105	0xbd293553	-0.04131062
106	0x3c9e1f7a	0.019302119
107	0x3bbb9c4d	0.0057254196
108	0x3cccdc2f	0.025007335
109	0x3b572634	0.0032829167
110	0xbd5e261f	-0.054235574
111	0x3d3d4f1b	0.04621802
112	0xbd993bfd	-0.07482145
113	0x3dcd221f	0.10016274
114	0xbd9b08ce	-0.07570039
115	0x3becca81	0.007226289
116	0x3de1a525	0.11017827
117	0xbd71d84d	-0.05904417
118	0x3ba2df18	0.0049704425
119	0x3d98d0d5	0.074617065
120	0x3e4b9009	0.19879164
121	0xbbd65944	-0.006541403
122	0xbd237f6f	-0.039916452
123	0x3e3143e0	0.17311049
124	0xbd69f28a	-0.05711607
125	0x3e06e6c1	0.13173963
126	0xbbbfc753	-0.0058526187
127	0x3e54175c	0.20712036
128	0x3e1d5768	0.15365374
129	0xbd66b0f0	-0.056321084
130	0x3d650cac	0.055920288
131	0x3d838bd0	0.064231515
132	0xbd4d50c6	-0.05012586
133	0xbe5b9e60	-0.21447134
134	0xbd235da1	-0.039884213
135	0xbc8fd740	-0.017558694
136	0x3d26c6e2	0.040717013
137	0xbc2bebfe	-0.010493277
138	0xba520010	-0.00080108736
139	0xbd0828a3	-0.03324188
140	0x3da4c5b1	0.08045519
141	0xbd9132fe	-0.07089804
142	0x3db045a4	0.08607033
143	0x3d67403b	0.05645774
144	0xbd96d1a5	-0.07364205
145	0xbd4488a9	-0.04798189
146	0xbdb76745	-0.08955244
147	0xbd1814d7	-0.03712925
148	0x3d66052b	0.056157272
149	0x3cad7dec	0.021178208
150	0x3dcf6ad5	0.101277985
151	0x3e567e06	0.20946512
152	0x3e1688be	0.147006
153	0x3d65d750	0.05611354
154	0x3d57acaa	0.0526549
155	0xbcf47b94	-0.029844083
156	0xbc796ce3	-0.0152237145
157	0xbc168d35	-0.00918894
158	0xbda3dbe9	-0.08000929
159	0x3d155f2e	0.036467724
160	0xbcc924fd	-0.02455377
161	0x3d548d54	0.051892594
162	0xbc12a404	-0.008950237
163	0x3d6ec817	0.05829629
164	0xbd14cde2	-0.036329158
165	0x3e3173c7	0.17329322
166	0x3e2bda84	0.16782576
167	0xbd8de4f7	-0.06928437
168	0xbcaf2780	-0.02138114
169	0x3bd997f0	0.006640427
170	0xbd9ba117	-0.07599085
171	0xbdc2cd11	-0.095117696
172	0x3d803f71	0.062621005
173	0x3cac2135	0.021011928
174	0x3dd31026	0.103058144
175	0xbc826ab0	-0.015920013
176	0xbc3be7e3	-0.01146886
177	0x3dbabfcd	0.09118614
178	0xbccecb11	-0.025243314
179	0xbe31f29a	-0.17377701
180	0xbda010b7	-0.07815688
181	0xbd2120ba	-0.03933785
182	0xbcd64ac4	-0.026158698
183	0x3d889a92	0.06670107
184	0xbdef5c8a	-0.11687572
185	0xbdeebc0f	-0.11656963
186	0x3d7234a3	0.05913223
187	0xbdac6cca	-0.08419187
188	0x3cad81d5	0.021180073
189	0x3e4974e3	0.19673495
190	0x3e49e499	0.1971611
191	0x3d6583b8	0.05603382
192	0x3d244b74	0.04011102
193	0xbd02a1e7	-0.031892683
194	0xbdc68565	-0.09693412
195	0xbe5cf606	-0.21578225
196	0xbec32547	-0.38114378
197	0x3da32625	0.0796626
198	0x3dc1b322	0.09457995
199	0x3ca0ab8f	0.019613056
200	0x3ace19db	0.0015724258
201	0x3d7b8f41	0.061415914
202	0x3bc8078c	0.0061044153
203	0x3d8476b7	0.064679556
204	0xbdf36356	-0.11884181
205	0xbd217df0	-0.039426744
206	0x3d7fb867	0.06243172
207	0x3d091a9b	0.03347264
208	0x3dc92d28	0.09823066
209	0xbdac8fa5	-0.084258355
210	0x3be77424	0.0070634056
211	0x3d55851c	0.052128896
212	0x3d89a7d1	0.067214616
213	0xbe138685	-0.14406784
214	0x3da2a596	0.07941739
215	0xbe38ffe0	-0.18066359
216	0x3d676da2	0.05650104
217	0x3e2cc550	0.16872144
218	0x3c0d3df7	0.008620731
219	0x3dcbb125	0.09945897
220	0x3d2827e3	0.041053664
221	0xbda7bd5a	-0.08190413
222	0x3d00bbe8	0.0314292
223	0xbdd0c846	-0.10194449
224	0xbb767bb5	-0.0037610356
225	0xbd147155	-0.036240894
226	0x3d07039b	0.032962423
227	0xbd24ca8a	-0.04023222
228	0xbe0a9db7	-0.13536726
229	0x3c2e9850	0.010656431
230	0x3e0f0650	0.13967252
231	0xbe1b7e8b	-0.15184991
232	0x3d2c333b	0.042041045
233	0x3e6fad99	0.23406066
234	0xbdb356eb	-0.08756813
235	0x3d7a4a79	0.06110618
236	0xbc4950ed	-0.012287361
237	0x3d67949c	0.05653821
238	0xbc9c1305	-0.019052038
239	0xbb89e75a	-0.0042084875
240	0xbd78a0d8	-0.060700268
241	0xbe68c3d7	-0.22730957
242	0x3deb247c	0.11481568
243	0xbc9c78ca	-0.019100565
244	0xbd9ac539	-0.075571485
245	0xbd4f457b	-0.05060337
246	0x3d7679bd	0.060174692
247	0xbcd0e937	-0.02550183
248	0x3cfcf3e8	0.030878022
249	0x3dae45f0	0.08509433
250	0x3bdf0d0d	0.0068069757
251	0x3d6aba07	0.057306316
252	0x3bcc6515	0.006237636
253	0x3d629b2b	0.05532376
254	0xbcc2a1a4	-0.023758717
255	0xbd03b6fd	-0.032156933

conv2.bias f4 [64]
0	0xbd61d424	-0.055133954
1	0x3d912e09	0.07088859
2	0xbc0c068e	-0.008546485
3	0xbd402c9e	-0.04691755
4	0x3dd544db	0.10413524
5	0xbd4a8e46	-0.04945209
6	0xbc083f80	-0.008315921
7	0xbc199f67	-0.009376383
8	0xbcbde8ca	-0.023182292
9	0x3b4269c6	0.0029665097
10	0x3d18a43f	0.037266012
11	0x3c221eab	0.009895007
12	0x3d3de321	0.046359185
13	0x3ce359bc	0.02775275
14	0xbd2d8dc5	-0.04237153
15	0x3caf574d	0.021403933
16	0x3cf6855b	0.030092886
17	0x3ba4a656	0.0050247116
18	0x3d20a19c	0.039216623
19	0x3dc4d789	0.096114226
20	0x3b1035cc	0.0022004722
21	0x3d2a5501	0.041584972
22	0x3d7fcdb6	0.06245204
23	0xbd8c56a4	-0.06852463
24	0x3d0e41fa	0.03473089
25	0x3d31ff28	0.043456227
26	0x3bcedbfd	0.0063128457
27	0x3da53977	0.08067601
28	0x3cfcac21	0.030843796
29	0x3d65b00e	0.056076102
30	0x3d575428	0.052570492
31	0xbbd19d99	-0.006396961
32	0x3ca0168a	0.019541997
33	0xbc96f01d	-0.018425042
34	0xbd0a7bc1	-0.033809427
35	0xbd084430	-0.033268154
36	0x3cf0d04b	0.029396197
37	0xbc937d35	-0.01800404
38	0x3d8f9f2d	0.07012782
39	0x3dc7ce33	0.09756126
40	0x3dc90bab	0.098166786
41	0xbcc3769d	-0.02386027
42	0xbd8b9cc2	-0.068170086
43	0xbd9a632e	-0.07538448
44	0x3d53b178	0.05168292
45	0xbc7a4858	-0.015276037
46	0x3c49b6eb	0.012311677
47	0xbb3acb7c	-0.0028502634
48	0x3d020be1	0.03174961
49	0xbbad20ea	-0.0052834647
50	0x3baaefa6	0.0052165566
51	0xbd1a82a6	-0.037722252
52	0x3d171a9c	0.03689061
53	0x3d95d51a	0.073160365
54	0xbb853b5b	-0.0040659136
55	0x3d053704	0.03252317
56	0x3c34ff3c	0.011047181
57	0xbcbfb31a	-0.023400832
58	0x3cec6956	0.028858822
59	0xbce195b4	-0.027537204
60	0x3d1cca96	0.03827914
61	0xbd362b09	-0.044474635
62	0xbd2502bc	-0.04028581
63	0xbb998860	-0.0046854466

conv3.weight f4 [128, 64, 3, 3]
0	0xbc876c8f	-0.016531257
1	0xbd1258e4	-0.035729304
2	0x3c9b5ce8	0.0189652
3	0xbd8b2577	-0.06794255
4	0xbe07dc5d	-0.13267656
5	0x3b8eb425	0.004354971
6	0x3c6d1a47	0.014471597
7	0xbd545896	-0.051842295
8	0x3d846cee	0.06466089
9	0x3d47e237	0.04879972
10	0xbaabf031	-0.0013117847
11	0x3bde0ee5	0.006776678
12	0x3cf6e2fe	0.030137535
13	0x3ca00005	0.01953126
14	0x3c83ba3f	0.01608002
15	0x3b91194d	0.004428065
16	0xbc60e7c5	-0.013727133
17	0x3bda4811	0.006661423
18	0x3c102a48	0.008799143
19	0xbcc6e2db	-0.024278095
20	0xbd79de8a	-0.061003245
21	0x3dab90b3	0.083772086
22	0x3db23d8f	0.087031476
23	0x3d03a59a	0.03214035
24	0xbcfda288	-0.03096129
25	0x3d5a9ef9	0.053374264
26	0xbdadcc20	-0.084861994
27	0x3d7017de	0.05861651
28	0x3d71d8af	0.059044536
29	0x3cd7cb38	0.02634202
30	0x3dd3a12d	0.10333476
31	0x3cd54abd	0.026036615
32	0x3d5cf44f	0.05394393
33	0x3d8f75b2	0.070048705
34	0x3dac199b	0.08403321
35	0x3d1f3448	0.03886822
36	0x3d15fe50	0.036619484
37	0x3d9bb986	0.07603745
38	0x3d137f17	0.036009874
39	0x3c0c2a64	0.008555029
40	0x3d7f801b	0.06237803
41	0x3db7d0af	0.0897535
42	0x3d22d129	0.039750252
43	0x3dbaa0a3	0.0911267
44	0x3d46ef88	0.04856828
45	0x3cdb53a2	0.026773278
46	0x3d251c2a	0.040310062
47	0x3cfd320c	0.030907653
48	0x3ccdbd07	0.02511455
49	0x3c676e76	0.014125457
50	0x3d164535	0.036687095
51	0x3c886c66	0.01665325
52	0xbc7cb839	-0.0154247815
53	0x3c232fa3	0.009960088
54	0x3bbf973c	0.005846886
55	0x3ca66a83	0.02031446
56	0x3945073e	0.00018790082
57	0x3cdae7b5	0.026721815
58	0x3c2bf1b7	0.010494641
59	0xbc1435a8	-0.009045996
60	0x3d63d35d	0.055621494
61	0x3bf302ac	0.00741609
62	0xbc7e7869	-0.015531638
63	0x3cd640fc	0.026154034
64	0xbc8247cd	-0.015903378
65	0xbbab56d2	-0.0052288556
66	0x3cf97118	0.030449435
67	0xbc87bc0f	-0.016569166
68	0x3c808710	0.015689403
69	0xbb550c42	-0.0032508527
70	0x3c6eff69	0.014587262
71	0x3d000dd0	0.031263173
72	0x3d056762	0.032569297
73	0x3ce22cd0	0.027609259
74	0xbc1bca13	-0.0095086275
75	0x3ce8ec83	0.02843309
76	0x3cf0a263	0.029374307
77	0xbc4c2d83	-0.012462023
78	0x3d56ac38	0.052410334
79	0x3d2214b5	0.03957053
80	0xbc7df69f	-0.015500694
81	0x3d7f95c3	0.062398683
82	0x3d2d6239	0.04233
83	0x3d3f224f	0.04666358
84	0x3d683f14	0.05670078
85	0x3cccf1c1	0.025017621
86	0x3866634c	5.492875e-05
87	0x3d2f19fb	0.042749386
88	0xbc8d4667	-0.017245485
89	0xbb9b04ae	-0.0047307825
90	0x3cbd2195	0.023087302
91	0xbd1d14a5	-0.038349766
92	0xbc1546ce	-0.009111119
93	0xbb94396b	-0.0045234463
94	0xbca6898e	-0.020329263
95	0x3d39ef62	0.04539431
96	0x3c74c644	0.014939848
97	0x3c8b2969	0.01698752
98	0xbca325d5	-0.0199155
99	0x3d38794a	0.045037545
100	0xbd0be42e	-0.034153156
101	0x3ca49f42	0.020095471
102	0x3d3b78b3	0.045769405
103	0x3da0809e	0.07837032
104	0xbada4c44	-0.0016654809
105	0xbcbe2ed2	-0.023215685
106	0x3daca022	0.084289804
107	0xba0f2395	-0.0005460319
108	0x3c6a9e31	0.014319942
109	0x3c8a1760	0.01685685
110	0xbcf48311	-0.029847654
111	0x3d8219e1	0.06352592
112	0x3d38d7cb	0.04512767
113	0x3ce641c2	0.028107528
114	0x3d1936f1	0.03740591
115	0x3cf1a9bb	0.02949988
116	0x3c784718	0.015153669
117	0x3c28807f	0.010284542
118	0x3bdd45ab	0.00675269
119	0xbc771aba	-0.015082056
120	0xbb93c613	-0.0045096963
121	0x3ca7a698	0.02046518
122	0x3b98c891	0.0046625813
123	0x3d2c418f	0.04205471
124	0xbc26dff4	-0.0101852305
125	0x3c86bd9f	0.01644784
126	0x3c83ead2	0.016103182
127	0x3ccd0fc1	0.025031926
128	0x3bc5b645	0.006033691
129	0x3d37f79b	0.04491387
130	0x3d0dd21e	0.03462421
131	0x3d08b7ea	0.03337852
132	0x3aac5351	0.0013147389
133	0x3be2d217	0.0069220173
134	0x3d0d11df	0.03444087
135	0x3c7e8e98	0.015536927
136	0x3ca7dc53	0.020490801
137	0x3bc039a7	0.0058662477
138	0x3d860588	0.06544024
139	0x3b011bf4	0.00197005
140	0xbc95b212	-0.018273387
141	0xbb46a9f6	-0.0030313707
142	0x3d61f1c7	0.055162217
143	0xbc04f293	-0.008114475
144	0xbd304758	-0.04303679
145	0x3da836d9	0.08213586
146	0xbb34f6cb	-0.002761292
147	0x3cc9eb02	0.024648193
148	0x3cc6f87a	0.024288405
149	0x3d77b7db	0.060478073
150	0xbd16b51b	-0.03679381
151	0x3d4f2932	0.050576396
152	0xbd5dc5bb	-0.05414365
153	0x3d2ff396	0.04295691
154	0xbcf049b3	-0.029332018
155	0x3d9e5599	0.0773117
156	0x3c93aa3d	0.018025512
157	0x3bd06805	0.0063600563
158	0xbc70653d	-0.014672575
159	0x3dbe0ac0	0.09279394
160	0xbd62e889	-0.055397544
161	0xb8ca36d8	-9.642326e-05
162	0x3a5db922	0.0008458068
163	0x3cebb434	0.028772451
164	0x3aee5e41	0.0018186049
165	0xbd9c8a84	-0.07643607
166	0xbd8a3af5	-0.067495264
167	0x3da97cf6	0.082757875
168	0x3d10220d	0.035188723
169	0x3d31f4e4	0.043446437
170	0x3c98aafc	0.01863622
171	0x3ca4f971	0.020138474
172	0x3c86b75b	0.016444853
173	0x3d054697	0.032538023
174	0x3d2ee653	0.042700123
175	0x3d0d219a	0.034455873
176	0x3cb11ed4	0.021621145
177	0x3ccd56f1	0.025065871
178	0x3d0ace27	0.03388801
179	0x3b8d2d36	0.004308368
180	0x3d0908ec	0.033455774
181	0xbc9b5e1b	-0.018965771
182	0x3cf103d1	0.029420765
183	0x3c987e18	0.018614814
184	0x3c2d419e	0.010574726
185	0xbc0b4577	-0.008500448
186	0xbb1cb3c1	-0.0023910853
187	0x3b40fe92	0.002944861
188	0xbcff7fb5	-0.031188825
189	0x3d82b2c7	0.06381755
190	0x3d95ece9	0.07320578
191	0xbd88e5a2	-0.06684424
192	0xbcc05bd3	-0.023481285
193	0x3bdc0f12	0.0067156637
194	0x3d7d40bc	0.061829314
195	0xbd8f1325	-0.069860734
196	0xbab0d89e	-0.0013492291
197	0x3d20b30f	0.039233264
198	0x3d307fae	0.043090515
199	0x3daf61dc	0.08563587
200	0xbd14e9c2	-0.03635574
201	0x3d0c9d18	0.034329504
202	0x3cc129f3	0.023579573
203	0xbd0631fb	-0.03276251
204	0xbc77f928	-0.015135087
205	0x3de51e2c	0.111873955
206	0xbd9a0d10	-0.07522023
207	0xbcd4a2e0	-0.025956571
208	0x3cc3df8c	0.023910306
209	0x3cc9045a	0.024538208
210	0x3d4c8c1d	0.04993831
211	0x3c0bdeb2	0.008536981
212	0xb7e404f9	-2.7182034e-05
213	0xbd0bc763	-0.034125697
214	0x3c5aaa46	0.01334626
215	0xbd3f9b15	-0.046778757
216	0xbc48a2c5	-0.0122458385
217	0x3d1d45e9	0.03839675
218	0xbc58f70b	-0.013242493
219	0x3ce3699a	0.027760316
220	0xbbf55fac	-0.0074882116
221	0x3c2c13d1	0.0105027715
222	0xbd13f8b5	-0.036125857
223	0xbc0ba3e4	-0.008522961
224	0x3ca1f656	0.019770782
225	0xbc6a2d51	-0.014293031
226	0x3ca8c972	0.02060387
227	0xbbec0730	-0.0072030053
228	0x3d046426	0.03232207
229	0x3d585130	0.0528118
230	0x3cdead64	0.027182288
231	0xbcf685ac	-0.030093037
232	0x3c583f5e	0.013198702
233	0x3c5d3e6b	0.013503651
234	0x3ce19c57	0.027540369
235	0x3d1404a2	0.03613723
236	0x3bf80d7e	0.007569968
237	0x3c56d31f	0.013111859
238	0x3c1d034c	0.009583306
239	0x3cccbdc5	0.024992833
240	0xbc022650	-0.007943705
241	0x3c91ac6b	0.01778241
242	0xbc49b33c	-0.012310799
243	0x3d13a387	0.036044624
244	0x3c118803	0.008882525
245	0x3be5e6b6	0.0070160283
246	0x3d8031f7	0.0625953
247	0x3cf38491	0.029726299
248	0xbcad8d68	-0.021185592
249	0x3c82001a	0.015869189
250	0x3d522f6e	0.051314764
251	0x3c9b0c1f	0.018926678
252	0xbbcc4f5b	-0.006235046
253	0xbc9a1f93	-0.018813884
254	0xbd1d981e	-0.03847515
255	0x3d2a9710	0.04164797

conv3.bias f4 [128]
0	0x3c84c93f	0.016209243
1	0x3d3884ab	0.045048397
2	0xbd15aa6c	-0.03653948
3	0x3b387ec0	0.002815172
4	0x3c822dda	0.015891004
5	0x3d518b69	0.051158343
6	0xb1d9959f	-6.332541e-09
7	0xa6dc48c1	-1.5285287e-15
8	0xbc899ef7	-0.016799433
9	0x3c829ccf	0.015943913
10	0x3d3375de	0.04381358
11	0x3ce7130a	0.02820732
12	0x3d1ba4af	0.03799885
13	0x3a45b9a2	0.0007542615
14	0xbc8bcd8c	-0.017065786
15	0x3c0a5495	0.0084430175
16	0x3c3ec198	0.011642836
17	0x3d038247	0.032106664
18	0x3a58ba41	0.00082675
19	0xbae04668	-0.0017110826
20	0x3d13b176	0.03605791
21	0x3c5d5534	0.013509084
22	0x3c1914bd	0.009343323
23	0xbd2b347e	-0.041798107
24	0xbb2a1555	-0.0025952656
25	0xbcc47ee7	-0.023986293
26	0xa6830df5	-9.093734e-16
27	0xbbb206da	-0.0054329457
28	0xbc8ea24b	-0.017411372
29	0x3c855662	0.016276542
30	0xb513eedb	-5.510935e-07
31	0x3d069581	0.03285742
32	0xbc8a60ef	-0.016891925
33	0xbcb44eab	-0.022010168
34	0x3ca629db	0.02028363
35	0x3d54d893	0.051964354
36	0xbbc90b26	-0.006135362
37	0xbdb0887a	-0.08619781
38	0x3ad97369	0.0016590181
39	0xbbd75c83	-0.0065723076
40	0xbd6953e1	-0.05696476
41	0x3bf825f9	0.007572886
42	0x3c802b60	0.015645683
43	0xbc8be864	-0.017078586
44	0xbce7247c	-0.02821564
45	0x3c29751e	0.010342864
46	0x3d0265a7	0.031835224
47	0xaf08bdc7	-1.243655e-10
48	0xbd030b90	-0.03199345
49	0x3c5b16e4	0.013372157
50	0x3bb5e2cb	0.0055507175
51	0xbc60c806	-0.013719564
52	0x3cad4ac3	0.021153813
53	0xbcd9439d	-0.026521498
54	0xbbac0391	-0.0052494486
55	0xbd061646	-0.032736085
56	0xbbecff4a	-0.0072325813
57	0xbd055f7f	-0.032561775
58	0xb31e68fb	-3.688272e-08
59	0x3c80c318	0.015718028
60	0x3cfb69cf	0.030690102
61	0xbcc67957	-0.024227781
62	0x3c22cffd	0.009937284
63	0xab833907	-9.323938e-13
64	0x3c22bd80	0.009932876
65	0x3ddaf508	0.10691267
66	0x3b6b995c	0.0035949564
67	0x3d15a7a6	0.036536835
68	0xbd37f47f	-0.044910904
69	0xbcc21776	-0.023692828
70	0x3be0ebef	0.006864063
71	0xbc8d13b9	-0.017221319
72	0xbcbc42e9	-0.022981124
73	0x3d36a554	0.044591263
74	0xbce2a011	-0.027664216
75	0x3b5ef44b	0.0034020122
76	0x3b95000a	0.004547124
77	0xbb247616	-0.0025094799
78	0x3bc2de40	0.0059469044
79	0x3cc7366f	0.024317948
80	0x3ce626f4	0.028094746
81	0x3d8e16b6	0.069379255
82	0xb85e253e	-5.296361e-05
83	0xbb61599a	-0.0034385682
84	0x3d81429d	0.063115336
85	0x3d362c8e	0.044476084
86	0xbc1e62d3	-0.009667116
87	0xbd17a70f	-0.037024554
88	0xbcfc1554	-0.030771889
89	0x3b4ab65e	0.0030931453
90	0x3ca3686c	0.019947253
91	0xbd2026b1	-0.0390994
92	0x3c7e558e	0.0155233275
93	0x3d411265	0.047136683
94	0x3c4591db	0.0120587
95	0x3d0da344	0.03457953
96	0xba721300	-0.00092343986
97	0xbc8d763e	-0.017268296
98	0xb99965a0	-0.0002925815
99	0xbd5ac681	-0.053411964
100	0xbd66d335	-0.056353766
101	0x3c1cd07d	0.009571192
102	0xbb0a8006	-0.0021133437
103	0x3d880aaf	0.06642663
104	0x3d5c639d	0.053805936
105	0x3c88afed	0.01668545
106	0x3d8bb277	0.06821149
107	0xbc10c9a6	-0.008837139
108	0xbc0e3ce8	-0.008681513
109	0xbca4502a	-0.020057756
110	0x3cf0aab1	0.029378267
111	0xbc2f2c7f	-0.010691761
112	0x3cb25567	0.021769239
113	0x3d20254d	0.039098073
114	0x3cbb47bb	0.022861352
115	0xb783eb8f	-1.5726107e-05
116	0x3cfc4183	0.030792957
117	0xbd10ae92	-0.035322733
118	0xbc896293	-0.016770637
119	0xbc86def0	-0.016463727
120	0x3baa38a2	0.0051947394
121	0xbba6dc49	-0.005092178
122	0xbd8ab3a1	-0.06772543
123	0xbb066321	-0.0020505863
124	0x3d9134c7	0.070901446
125	0xbcbe0349	-0.023194926
126	0xbc61e2e5	-0.013787006
127	0x3c0d5e2b	0.008628408

act_conv1.weight f4 [4, 128, 1, 1]
0	0x3ca1afd5	0.019737164
1	0x3df5a7ff	0.11994933
2	0xbdc76820	-0.09736657
3	0x3d550123	0.052003037
4	0x3e0e011b	0.13867609
5	0xbdc7a98c	-0.097491354
6	0x3501f949	4.8419e-07
7	0xbb0e74bb	-0.0021737057
8	0xbce1f790	-0.027583867
9	0x3dd5bb19	0.10436077
10	0xbd396019	-0.04525766
11	0x3d9c1e33	0.076229475
12	0x3d7c4df0	0.061597764
13	0xbcc24cc0	-0.023718238
14	0xbd134604	-0.035955444
15	0x3cd2355b	0.025660207
16	0x3d02a311	0.031893793
17	0x3e050b83	0.12992673
18	0x3bcb2463	0.006199406
19	0x800089d2	-4.944e-41
20	0x3da36b3f	0.0797944
21	0x3d8eed88	0.06978899
22	0x3d9873e0	0.074439764
23	0x3e0d9ed9	0.13830127
24	0x80008ac2	-4.9777e-41
25	0xbd168aee	-0.036753587
26	0x8000894a	-4.925e-41
27	0x9c95d13e	-9.914081e-22
28	0xbbe519af	-0.006991587
29	0x3cf1aa59	0.029500173
30	0x35931964	1.0959743e-06
31	0x3ccc65e2	0.024950925
32	0xbd69994c	-0.05703096
33	0x3b18cec2	0.0023316597
34	0x3e1ba6d3	0.15200357
35	0x3d3b5979	0.045739625
36	0x3de70460	0.11280131
37	0xbd94bc54	-0.07262483
38	0xb9de65ba	-0.00042418932
39	0xabb451f4	-1.2812516e-12
40	0x3d8e5ea7	0.06951647
41	0x3d216244	0.039400354
42	0x3d2194c6	0.039448522
43	0xbe287b71	-0.16453339
44	0xbd8dbe2f	-0.0692104
45	0x3cddcaeb	0.027074298
46	0x3d966fe6	0.07345562
47	0x3bd6d261	0.006555841
48	0x3da81dd0	0.08208811
49	0xbda641db	-0.0811803
50	0x3dfe5a78	0.12419599
51	0x3e94c682	0.290577
52	0x3d9bdc94	0.07610431
53	0xbd0e9215	-0.034807283
54	0x000088f0	4.9124e-41
55	0xbd0547da	-0.032539226
56	0xbd7d3a26	-0.061823033
57	0xbd7b65c9	-0.061376367
58	0x00008ad7	4.9806e-41
59	0xbcd0bad4	-0.025479712
60	0xbd8e1e75	-0.06939403
61	0xbb6d3c76	-0.0036199368
62	0xbd629f03	-0.055327427
63	0x000089cc	4.9432e-41
64	0xba6839aa	-0.000885869
65	0x3e80d0fa	0.25159436
66	0x3c6afc2a	0.014342347
67	0x3e0def16	0.13860735
68	0x3ddeaa84	0.10872367
69	0xbdc5f205	-0.09665302
70	0x3d27dfc8	0.0409849
71	0x3d87bac7	0.06627422
72	0xbd054185	-0.032533187
73	0xbccec724	-0.025241442
74	0x3ceb4cb0	0.02872309
75	0x3e141db4	0.14464456
76	0x3c6f9e63	0.014625165
77	0xb987c53a	-0.00025896152
78	0xbd05e17f	-0.032685753
79	0x3e82a312	0.25515038
80	0x3c266c15	0.010157605
81	0x3d8d59de	0.069019064
82	0x8000897b	-4.9319e-41
83	0xbcdf7823	-0.027278965
84	0xbde7f5f9	-0.113262124
85	0x3de7eba0	0.11324239
86	0x3d664c2e	0.056224994
87	0xbd1dd221	-0.038530473
88	0x3d5105e2	0.051031
89	0x3d667def	0.056272443
90	0x3d93d284	0.07217887
91	0xbd95d24e	-0.07315503
92	0xbb50c538	-0.0031855833
93	0x3bc8c611	0.006127127
94	0xbd0d8fae	-0.03456085
95	0x3d96ea3b	0.07368895
96	0x80008a87	-4.9694e-41
97	0x3e0338fd	0.12814708
98	0xbd2cfe79	-0.04223487
99	0xbe350c8c	-0.17680568
100	0x3cf4f900	0.029903889
101	0x3db5035e	0.08838533
102	0xbcb15e3a	-0.021651376
103	0x3c0bcf9d	0.008533386
104	0xbdea1e8f	-0.1143161
105	0xbc7799c6	-0.015112346
106	0x3dec32aa	0.11533101
107	0x80008a20	-4.955e-41
108	0x3c0a7852	0.008451538
109	0x800089f6	-4.9491e-41
110	0x3da410ef	0.08011042
111	0xbd3c3f4c	-0.045958802
112	0x3d036ec7	0.032088067
113	0x3df737f2	0.120712176
114	0x3e1c0bb7	0.15238844
115	0x00008ac3	4.9778e-41
116	0x3db72d6b	0.0894421
117	0xbc9fc54b	-0.019503256
118	0x800088d1	-4.908e-41
119	0xbd5753f8	-0.052570313
120	0xbda514a0	-0.080605745
121	0x3e6fce85	0.23418625
122	0xbd4b5fc4	-0.049651876
123	0x18dd25da	5.716538e-24
124	0xbd509c1c	-0.050930128
125	0xbdaf54c5	-0.085610904
126	0x3dd45e71	0.10369576
127	0xbd0bcf35	-0.034133155
128	0x3c95f724	0.018306322
129	0x3c734190	0.014847174
130	0x3c922dbb	0.017844072
131	0x3b7b6859	0.0038361757
132	0x3cda79b2	0.026669357
133	0xbc84b761	-0.016200723
134	0x000088cf	4.9078e-41
135	0x1058abaa	4.2730734e-29
136	0xbcc1ff38	-0.023681268
137	0x3d3bb5d1	0.04582769
138	0x3aba69a0	0.0014222153
139	0xbc39c612	-0.011338728
140	0xbc81244c	-0.015764378
141	0x3ba06f02	0.0048960457
142	0x3c82e7bc	0.01597964
143	0xbce4e901	-0.027943136
144	0xbcd1adfd	-0.02559566
145	0xbcdaca65	-0.026707837
146	0x000088fa	4.9138e-41
147	0x80009073	-5.1819e-41
148	0xbc9190cc	-0.01776924
149	0xbc50c4ea	-0.0127422605
150	0xbd335be5	-0.04378881
151	0x3cc87d39	0.024473773
152	0x800089f2	-4.9485e-41
153	0x3d156c89	0.03648046
154	0x0000895a	4.9272e-41
155	0x800088b9	-4.9047e-41
156	0xbc122a29	-0.008921185
157	0x3d063889	0.03276876
158	0x00008ad5	4.9804e-41
159	0xbc8351aa	-0.016030151
160	0xbbfa5ce9	-0.0076404703
161	0xbacaa16e	-0.0015459487
162	0x3ceb1a6b	0.02869912
163	0xbbdeaf5e	-0.0067958077
164	0xbcb3b37a	-0.021936167
165	0x3c47ece6	0.012202477
166	0xa787e6ff	-3.7720474e-15
167	0x800089d3	-4.9442e-41
168	0xbb157fb9	-0.0022811724
169	0xbcaa6eb0	-0.020804733
170	0xba816dcd	-0.0009874642
171	0x3c4b4300	0.012406111
172	0xbc4746ef	-0.012162908
173	0x3c2f15c7	0.0106863445
174	0xbc80d830	-0.015728086
175	0x0000896c	4.9298e-41
176	0x3ce9c72f	0.028537361
177	0x3c11497b	0.008867617
178	0x3bfdb961	0.007743046
179	0x3c907dca	0.017638106
180	0xbd0b801b	-0.034057718
181	0x3b1f4aff	0.0024306176
182	0x00008a49	4.9607e-41
183	0xbced3615	-0.028956452
184	0xbb96c25f	-0.0046008076
185	0x3c599223	0.013279471
186	0x80008a3a	-4.9586e-41
187	0xb97b6587	-0.00023975047
188	0x3c6c907b	0.014438744
189	0xbd4e9e0a	-0.050443687
190	0x3c5dc0b0	0.01353471
191	0x80009c35	-5.6037e-41
192	0xb7d64b7a	-2.5545934e-05
193	0xbb994a6b	-0.0046780608
194	0xbd230d52	-0.039807625
195	0xbaafe7e2	-0.0013420547
196	0x3c080b29	0.008303442
197	0x3c559bbe	0.01303762
198	0x3d1afd4e	0.037839226
199	0xbcc07d12	-0.023497138
200	0xbd3f1ac0	-0.04665637
201	0xbbf5a35a	-0.0074962797
202	0xbcd6802c	-0.026184164
203	0xbbde4ff9	-0.006784436
204	0x3c423779	0.011854046
205	0x800088e7	-4.9111e-41
206	0x3d49cffb	0.04927061
207	0xbbaef164	-0.0053388346
208	0x3bd828fd	0.006596683
209	0xbb849a20	-0.0040466934
210	0x80008c22	-5.027e-41
211	0x3d0a4b7e	0.0337634
212	0x3a4791cd	0.00076129736
213	0x3c04bd30	0.008101746
214	0xbcbbb3e8	-0.022912934
215	0xba9e9708	-0.0012099454
216	0xbcce19ee	-0.025158849
217	0x3c8e61c3	0.0173806
218	0xbce90531	-0.028444858
219	0x3cbb8c7c	0.022894137
220	0x3cfed316	0.031106513
221	0xbc5c656e	-0.013451917
222	0x3c2dca8e	0.010607375
223	0xbcd3ff01	-0.025878431
224	0x0000940a	5.3106e-41
225	0x3be051ef	0.0068457047
226	0x392be598	0.00016393361
227	0x3c4df943	0.012571636
228	0xbd31c391	-0.043399397
229	0x3bbc545c	0.005747361
230	0x0ae56729	2.2090702e-32
231	0xbb138857	-0.0022511685
232	0xbbb5b867	-0.005545664
233	0xbb3d221a	-0.0028859437
234	0xbc3dd9e1	-0.011587591
235	0x80008b02	-4.9867e-41
236	0x80008926	-4.92e-41
237	0x0000a90c	6.0643e-41
238	0xbb12737e	-0.002234667
239	0xbb97eb95	-0.004636238
240	0x3ba643ce	0.005074001
241	0x3c0876c8	0.008329101
242	0xbb897c8f	-0.0041957567
243	0x00008afa	4.9855e-41
244	0xbbd08e58	-0.006364625
245	0x3a62863f	0.000864122
246	0x80008a95	-4.9714e-41
247	0x3cda8b4c	0.02667775
248	0x3b5513b2	0.003251296
249	0x3bd2592d	0.006419322
250	0x3cb17fc4	0.021667369
251	0x80008a79	-4.9675e-41
252	0xba635aca	-0.00086728914
253	0x3c584155	0.01319917
254	0xbb87bfe2	-0.0041427473
255	0xbcdd422a	-0.027009089

act_conv1.bias f4 [4]
0	0x3d3a0dec	0.045423433
1	0xbd49cdc5	-0.049268503
2	0xbcd13404	-0.025537498
3	0x3e016bb2	0.12638739

act_fc1.weight f4 [81, 324]
0	0x3d14b3fb	0.036304455
1	0x3c8374fb	0.016046992
2	0x3cef3536	0.029200178
3	0x3c892839	0.016742812
4	0x3b80f2cc	0.0039351936
5	0xbc7db954	-0.01548608
6	0xbc1eb732	-0.009687232
7	0xbcc16271	-0.02360651
8	0xbd058a15	-0.03260239
9	0x3d4665eb	0.04843704
10	0x3cb9725d	0.02263754
11	0xbd64bd8b	-0.055844825
12	0xbd4ade1d	-0.04952823
13	0xbc69dac7	-0.014273352
14	0xbbe55e73	-0.0069997846
15	0xbd39430c	-0.045229957
16	0xbc1ca7e2	-0.009561511
17	0xbd4c7f24	-0.04992594
18	0x3c833877	0.016018135
19	0x3b4f0e23	0.003159412
20	0xbd3492e9	-0.044085417
21	0xbd7731d8	-0.06035027
22	0xbd66938a	-0.056293048
23	0xbd32dd8b	-0.04366831
24	0x3c805c9a	0.015669156
25	0xbbfbd617	-0.0076854336
26	0x3c43db93	0.011954206
27	0x3cd6a72f	0.026202766
28	0xbd5fb305	-0.054614086
29	0xbd54a27a	-0.051912762
30	0xbdaf2d32	-0.08553542
31	0xbdad3196	-0.084567234
32	0xbd3ee481	-0.046604637
33	0xbd69b8f6	-0.057061158
34	0x3c4653c8	0.012104936
35	0xbd402023	-0.046905648
36	0xbcb4c2f0	-0.02206561
37	0xbc88fde1	-0.016722621
38	0xbdb9c8fa	-0.09071536
39	0xbde549a7	-0.11195689
40	0xbd96ccbb	-0.07363268
41	0xbdb0692d	-0.08613811
42	0xbdb0b53c	-0.08628318
43	0xbb12b791	-0.0022387246
44	0xbcb154be	-0.021646854
45	0x3d1692dd	0.036761153
46	0xbd20043a	-0.03906653
47	0xbd3e4477	-0.046452012
48	0xbd4d6ac4	-0.050150648
49	0xbe27662f	-0.16347574
50	0xbdcc7dae	-0.09984909
51	0xbd5789d1	-0.052621666
52	0xbd77d000	-0.0605011
53	0xbb431a68	-0.0029770378
54	0x3dc90aa2	0.09816481
55	0xbab21489	-0.0013586442
56	0xbd52ce92	-0.051466532
57	0xbd52e566	-0.051488303
58	0xbd806a5c	-0.062702864
59	0xbd26b11e	-0.040696256
60	0xbd740804	-0.059577957
61	0xbd8ed9a3	-0.06975105
62	0xbd33d48f	-0.043903884
63	0x3e81c608	0.25346398
64	0xbd38f369	-0.04515401
65	0x3c7b9eec	0.015357714
66	0xbc2f13d2	-0.010685878
67	0xbd9ef652	-0.077618256
68	0xbd166f98	-0.036727518
69	0xbd216831	-0.039406005
70	0x3c9c811d	0.019104535
71	0xbb5e5ba5	-0.0033929136
72	0x3e7eed96	0.2489532
73	0x3e8d6ef7	0.27623722
74	0xbc289e55	-0.010291656
75	0x3cba62dc	0.022752218
76	0x3b5671bb	0.0032721597
77	0xbb227ed7	-0.002479484
78	0xbc148b2d	-0.009066385
79	0x3ca32a5c	0.01991766
80	0x3d5e5e52	0.05428917
81	0xbc1fd9b8	-0.009756498
82	0xbbe42c7c	-0.0069633108
83	0xbb740f1c	-0.0037240451
84	0xbbe64c4e	-0.007028139
85	0xbc0f2ad3	-0.008738237
86	0xbc16f342	-0.009213271
87	0xbc272da9	-0.010203757
88	0xbc4d777f	-0.012540697
89	0xbc4414eb	-0.011967878
90	0xbc0f1b60	-0.008734554
91	0xbbe952b1	-0.0071204533
92	0xbbb3c1ed	-0.0054857642
93	0xbba7ba6a	-0.005118658
94	0xbbf125c7	-0.0073592397
95	0xbc06e553	-0.008233386
96	0xbc26b4c2	-0.010174932
97	0xbc1e059e	-0.009644894
98	0xbc0793f7	-0.008275024
99	0xbbf71404	-0.007540228
100	0xbbd50656	-0.0065009994
101	0xbbc7360c	-0.006079441
102	0xbb012493	-0.0019705638
103	0xbb815e75	-0.0039480277
104	0xbbad403f	-0.0052871997
105	0xbc352cca	-0.011058042
106	0xbc1fe7a1	-0.0097598145
107	0xbbd1330b	-0.0063842586
108	0xbbd4e50a	-0.00649703
109	0xb9fb4da4	-0.00047932297
110	0xba2a1ee1	-0.00064895867
111	0x3a982167	0.0011606634
112	0xba3bad1d	-0.000715928
113	0xbb70ce67	-0.003674412
114	0xbb041ad5	-0.0020157595
115	0xbbbb9904	-0.005725028
116	0xbba2fae4	-0.004973756
117	0xbabb1171	-0.0014272166
118	0x39eda409	0.00045326378
119	0x3ba7801f	0.005111709
120	0x3bbc1abf	0.005740493
121	0x3adb1192	0.001671361
122	0x3b425d98	0.0029657837
123	0x39ed9398	0.00045314129
124	0xbb20eadd	-0.0024554052
125	0xbba8dae6	-0.005153048
126	0x3b20ed11	0.0024555365
127	0x3b1a3331	0.0023529048
128	0x3bc24cc8	0.005929563
129	0x3ba36ff6	0.004987712
130	0x3bbfc674	0.005852515
131	0x3b921b33	0.004458809
132	0x3b97373b	0.0046147383
133	0x3a2cebc2	0.000659641
134	0xbab7cb8e	-0.0014022456
135	0xb9d82260	-0.00041224342
136	0x3b904587	0.0044028196
137	0x3c04d67e	0.00810778
138	0x3c230a17	0.009951136
139	0x3c255683	0.010091427
140	0x3bf342fd	0.007423757
141	0x3b17506b	0.0023088704
142	0xbab53ee5	-0.0013827948
143	0x3a913f75	0.0011081534
144	0xbb997c2a	-0.004683991
145	0x3c2c040a	0.01049901
146	0x3b6e39bb	0.0036350328
147	0x3c295f7f	0.010337709
148	0x3c2120e4	0.009834502
149	0x3bba5dba	0.0056874426
150	0x399bbf2e	0.00029706344
151	0xbbb7ca95	-0.0056088665
152	0xbbbdb454	-0.005789319
153	0xbbb2b5e5	-0.0054538124
154	0x3a22bcb0	0.0006207926
155	0x3c28fbd1	0.010313944
156	0x3ba896d5	0.0051449337
157	0xbad80d7d	-0.0016483512
158	0xbb64fdf2	-0.0034941402
159	0xbb7d1e68	-0.003862286
160	0xbc05e0e5	-0.008171295
161	0xbc00e519	-0.007867121
162	0xb53f3b90	-7.123972e-07
163	0x3a4ee9b9	0.0007893104
164	0x3a47865e	0.000761127
165	0x3aff21aa	0.0019464989
166	0x3ac29607	0.0014845737
167	0x3b1fea9f	0.002440132
168	0x3aad9e8a	0.0013246101
169	0x3b035289	0.0020038208
170	0x3a8b0ae4	0.0010608104
171	0x3a83217a	0.0010004484
172	0x3aecfef7	0.0018081357
173	0x3b1f6d3e	0.0024326588
174	0x3b9bddf3	0.004756683
175	0x3b51501b	0.0031938616
176	0x3b858b4c	0.0040754434
177	0x3b20dda1	0.0024546164
178	0x3b486dc3	0.0030583001
179	0x3afbc2bc	0.0019207816
180	0x39d9a435	0.0004151181
181	0x3b645fcb	0.0034847136
182	0x3ba01267	0.004885006
183	0x3ba0cea5	0.0049074464
184	0x3bb2c4fd	0.0054556117
185	0x3b9ae1ed	0.0047266395
186	0x3bb9e990	0.005673595
187	0x3ba60757	0.005066793
188	0x3b47bd4e	0.0030477825
189	0x3a9e4022	0.0012073556
190	0x3b9fedf2	0.00488066
191	0x3b50f25a	0.0031882734
192	0x3bd301c6	0.0064394204
193	0x3b9d5ebc	0.004802553
194	0x3ba58cd6	0.0050521893
195	0x3b92d778	0.0044812523
196	0x3b43bc10	0.0029866733
197	0x3ad401bd	0.0016174834
198	0x3a051413	0.00050765387
199	0x3b83a187	0.0040170583
200	0x3b810e69	0.0039384854
201	0x3be0fbbc	0.0068659466
202	0x3b426299	0.002966082
203	0x3b7c5d7c	0.003850787
204	0x3a5d95f3	0.0008452825
205	0x3a05051e	0.000507431
206	0x3a0e28ab	0.000542293
207	0x393aa8f9	0.0001780129
208	0x3b5e0112	0.003387515
209	0x3b8abff2	0.0042343074
210	0x3bb80d91	0.0056168516
211	0x3b89952d	0.0041986913
212	0x3ad757f9	0.0016429416
213	0xba07ef0b	-0.00051854615
214	0xb9a3915f	-0.00031198093
215	0xb9c5b9ed	-0.00037713294
216	0xb917650b	-0.00014438124
217	0x3b4a4dca	0.003086912
218	0x3b15bff2	0.0022850004
219	0x3bd05560	0.0063578337
220	0x3a91e26f	0.0011130105
221	0x3a91a722	0.0011112432
222	0xbad673f5	-0.0016361462
223	0xbabda6b2	-0.0014469235
224	0xb9b2edb1	-0.000341279
225	0x3a423f14	0.0007409912
226	0x3aad26c2	0.0013210403
227	0x3b28018b	0.0025635685
228	0x3b333d27	0.0027349682
229	0x3a43b3f1	0.0007465473
230	0xbac7e095	-0.0015249426
231	0xb9c0652b	-0.0003669647
232	0xba8583a5	-0.0010186328
233	0x3a4b64f6	0.000775888
234	0x39edbdd6	0.000453456
235	0x3a36cd51	0.00069733436
236	0x3a48db9c	0.0007662119
237	0x38894fda	6.5475426e-05
238	0xb9b3dd3c	-0.00034306373
239	0xba23f725	-0.0006254784
240	0x39c0c485	0.00036767512
241	0x39693310	0.00022239634
242	0x37da5ac4	2.6029891e-05
243	0x3da83a3d	0.08214233
244	0x3d4222ce	0.047396474
245	0x3b54c33b	0.0032465
246	0x3d23fceb	0.040036123
247	0x3d0f716f	0.035020288
248	0x3ce8e6e7	0.028430415
249	0x3ccc1002	0.024909977
250	0x3c50a98d	0.012735737
251	0x3da1aa2f	0.07893788
252	0x3d6f42b7	0.058413234
253	0x3b47374b	0.0030397947
254	0x3cf58254	0.029969372
255	0x3cd4b2be	0.025964137

act_fc1.bias f4 [81]
0	0x3df8bee6	0.12145786
1	0xbc7d7718	-0.015470289
2	0xbe470863	-0.19436793
3	0x3e06648e	0.13124296
4	0x3e08e719	0.13369407
5	0x3e03da23	0.12876181
6	0xbe018679	-0.12648953
7	0xbc88326e	-0.01662561
8	0x3dc12b76	0.09432118
9	0xbbcea40f	-0.0063061784
10	0xbd978fee	-0.07400499
11	0x3ddd3491	0.10801042
12	0x3d5df725	0.054190774
13	0x3e872f4e	0.26403278
14	0x3d9c4eef	0.07632243
15	0x3da52ed7	0.080655746
16	0xbe32c1f2	-0.17456797
17	0xbce66a5f	-0.028126894
18	0xbe2a9663	-0.1665893
19	0x3e0da8f0	0.13833976
20	0x3c3a357a	0.011365289
21	0x3e63b651	0.22237517
22	0xbd9d921d	-0.076938845
23	0x3e419882	0.18905833
24	0x3cb38b98	0.02191715
25	0x3e1a8f93	0.15093832
26	0xbdfd097b	-0.12355324
27	0x3db02dc6	0.086024806
28	0x3d1eeb8f	0.038798865
29	0x3e005199	0.12531127
30	0x3e03825c	0.12842697
31	0x3e4524f6	0.1925238
32	0x3dc67930	0.096910834
33	0x3e3ae557	0.18251549
34	0x3d4421e6	0.04788389
35	0x3de3f1dc	0.111301154
36	0x3debf7ac	0.11521849
37	0x3e5b4cd7	0.21416031
38	0xbcd4fc3e	-0.025999185
39	0x3e7e1627	0.24813138
40	0xbd4fcb17	-0.05073079
41	0x3e9045ef	0.28178355
42	0xbda3ea70	-0.080037
43	0x3e7142e4	0.23560673
44	0x3dc71669	0.09721071
45	0x3dbc0fb1	0.091826804
46	0x3d6d61b9	0.057954524
47	0x3e1d7fd2	0.15380791
48	0x3ddc190c	0.10746965
49	0x3e76a2e3	0.24085574
50	0x3d92711c	0.0715048
51	0x3e50c083	0.20385937
52	0x3c3434b4	0.0109988935
53	0x3db113f3	0.08646383
54	0xbe2f7a5a	-0.17136517
55	0x3e009bf6	0.12559494
56	0x3dc16910	0.09443867
57	0x3e6f32f9	0.23359288
58	0xbdb1f00f	-0.08688366
59	0x3e0b94cd	0.13630982
60	0xbc0a41b4	-0.008438516
61	0x3e1962c0	0.14979076
62	0xbe0d93e2	-0.13825944
63	0xbd82cc7b	-0.06386658
64	0xbe02f99d	-0.12790532
65	0x3e0916ab	0.13387553
66	0x3d676c1e	0.056499593
67	0x3e35c25d	0.17749925
68	0x3d1a1bdc	0.037624225
69	0x3e04e2a7	0.12977086
70	0xbe1c2453	-0.15248232
71	0xbcc2bafe	-0.023770805
72	0x3d488afb	0.048960667
73	0xbd905dc8	-0.07049137
74	0xbe32c1d5	-0.17456754
75	0x3ddbff9e	0.107421145
76	0x3d9d3568	0.07676202
77	0x3db6806e	0.08911215
78	0xbe220486	-0.15822038
79	0xbcc1db88	-0.023664251
80	0x3dcd325d	0.10019372

val_conv1.weight f4 [2, 128, 1, 1]
0	0x3d2d924e	0.042375855
1	0x3cba1578	0.022715315
2	0xbccc5a49	-0.024945395
3	0x3c8124f4	0.015764691
4	0x3d995e6f	0.07488715
5	0xbd4b11f3	-0.049577665
6	0x000089b0	4.9393e-41
7	0x000089c7	4.9425e-41
8	0xbbaf9018	-0.0053577535
9	0x3d44700d	0.047958422
10	0xbdb6c44c	-0.089241594
11	0x3bc35068	0.005960513
12	0xbdd52610	-0.104076505
13	0x3c981076	0.018562537
14	0xbc2ca969	-0.010538437
15	0x3da8e349	0.08246476
16	0xbb775b33	-0.0037743568
17	0xbd0caf46	-0.03434684
18	0x3685dece	3.9896468e-06
19	0xb5d379c2	-1.5756161e-06
20	0xbde535bc	-0.1119189
21	0xbd72d4c2	-0.059284933
22	0x3c7bd946	0.015371626
23	0x3c3015be	0.010747371
24	0x39a03250	0.00030555064
25	0x3ceee5ab	0.029162249
26	0x2c2535b9	2.3477732e-12
27	0xb7b58cc2	-2.1642427e-05
28	0x3d255ec1	0.040373567
29	0x3d8b178b	0.067916
30	0xbb3bc306	-0.0028650179
31	0xbd951fe9	-0.07281477
32	0x3d7cbc23	0.06170286
33	0x3c918e76	0.017768126
34	0x3d5ac122	0.053406842
35	0xbd81918d	-0.0632659
36	0xbca46352	-0.02006689
37	0xbc58ba40	-0.013227999
38	0x3c5ab6c7	0.013349242
39	0xb88f7ebf	-6.84238e-05
40	0xb7847a58	-1.5792597e-05
41	0x3d4396fb	0.047751408
42	0x3d2dc325	0.042422432
43	0xbd29058c	-0.041265056
44	0x3d04074c	0.03223352
45	0xb67a2fd6	-3.7280747e-06
46	0xbda3daa4	-0.08000687
47	0x80008a93	-4.9711e-41
48	0x3ca88cab	0.020574888
49	0xbd394cfa	-0.045239426
50	0x3d93b05f	0.072113745
51	0xbb26b6e6	-0.0025438606
52	0x3c817cd3	0.015806591
53	0x3d2cb273	0.04216237
54	0xb50a51ec	-5.152822e-07
55	0x3d6cb496	0.057789408
56	0x3d2c863d	0.042120207
57	0xbc87116e	-0.016487803
58	0x86349082	-3.3960405e-35
59	0xbcca5102	-0.02469683
60	0xbdac8bf5	-0.08425132
61	0x3cb66124	0.022263117
62	0x3d581aa1	0.05275977
63	0x80008916	-4.9177e-41
64	0x3c16814a	0.009186098
65	0xbc9f3e83	-0.019438988
66	0x3d99320e	0.0748025
67	0xbc677975	-0.014128079
68	0xbbaa0d82	-0.0051895985
69	0xbd3236a6	-0.043509148
70	0xbc4a383d	-0.01234251
71	0x3bc9272b	0.0061387024
72	0x3d32f54f	0.043690976
73	0xbd9ce990	-0.07661736
74	0x3d7ec35d	0.06219803
75	0x3d93eaad	0.07222495
76	0x3bf5084e	0.0074777966
77	0xb8a0bd26	-7.664626e-05
78	0x3d818f68	0.06326181
79	0xbcab599b	-0.02091675
80	0xbd465e63	-0.048429858
81	0xbd1a7486	-0.03770878
82	0xb6130220	-2.1905944e-06
83	0x3d5a5fc3	0.05331398
84	0xbd5dd4ea	-0.05415813
85	0x3c63cb0f	0.013903393
86	0x3d51ea90	0.051249087
87	0x3d1c330d	0.038134623
88	0x3d6c872a	0.05774609
89	0x3cf21d8a	0.029555101
90	0x3c8de66e	0.017321791
91	0x3c4f0c55	0.0126372175
92	0x3d1949d7	0.037423935
93	0xbd4ff351	-0.050769154
94	0xbdaf1e05	-0.08550648
95	0xbad9ae82	-0.0016607794
96	0x3233ddf1	1.0469635e-08
97	0xbd6de71f	-0.058081742
98	0x3b1cd512	0.002393071
99	0x38761b36	5.8676313e-05
100	0x3cd786b3	0.026309347
101	0x3da17844	0.07884267
102	0x31a6d73b	4.8557047e-09
103	0xbdf054a3	-0.11734893
104	0xbd6580c3	-0.056031
105	0xbd04f978	-0.032464474
106	0xbd772396	-0.06033667
107	0xb4e6b4fc	-4.2972522e-07
108	0x80008f7c	-5.1472e-41
109	0x3c2a778d	0.01040448
110	0x3d411845	0.047142286
111	0x3cae96ce	0.021312144
112	0xbd893fec	-0.06701645
113	0x3d065393	0.032794546
114	0x3aa68b2f	0.0012706275
115	0x000088ed	4.912e-41
116	0xbdda6a7a	-0.1066484
117	0xbd7e175a	-0.06203399
118	0xb9f8fd21	-0.00047490842
119	0x3d9267ff	0.07148742
120	0xbdb82eab	-0.08993276
121	0x31a4fe60	4.8019473e-09
122	0xbc9fc03a	-0.01950084
123	0xbb5ca70a	-0.00336689
124	0xbd8442d8	-0.06458062
125	0xbcccf9e9	-0.02502151
126	0x3ca9caf6	0.020726662
127	0x3c069738	0.008214764
128	0xba68f7cd	-0.0008887023
129	0xbb04e5e2	-0.0020278622
130	0xb8cf1804	-9.8750024e-05
131	0x3b663a91	0.0035130123
132	0x3c7878c4	0.0151655115
133	0x3c2400f0	0.010009989
134	0x00008a3f	4.9593e-41
135	0x80009e26	-5.6733e-41
136	0xbae944af	-0.0017796959
137	0x3cd5a006	0.026077282
138	0xbc21bb0f	-0.009871258
139	0xbc9e7280	-0.019341707
140	0xbcc0f334	-0.023553468
141	0xbadc8376	-0.0016823846
142	0xa8ec1487	-2.6210166e-14
143	0x3c848581	0.01617694
144	0x23b77df0	1.9894236e-17
145	0x3bafb01b	0.0053615696
146	0x800089ff	-4.9504e-41
147	0x00008b49	4.9966e-41
148	0xbcd53ca3	-0.02602989
149	0x39885619	0.0002600409
150	0x3c61d373	0.013783324
151	0x351c985c	5.833624e-07
152	0x80008c5b	-5.035e-41
153	0xbc9f57e6	-0.019451093
154	0x00009292	5.258e-41
155	0x8000895a	-4.9272e-41
156	0xbc834758	-0.01602523
157	0x3ba73913	0.0051032393
158	0x000053e3	3.0093e-41
159	0xbccdc6ff	-0.025119303
160	0xbb68b154	-0.0035506086
161	0xb9586c19	-0.00020639635
162	0xbb9aee63	-0.004728125
163	0xbb8e91b9	-0.0043508676
164	0x800088db	-4.9094e-41
165	0x00008a02	4.9508e-41
166	0xbb26ed52	-0.0025471044
167	0x00008926	4.92e-41
168	0x98961234	-3.879247e-24
169	0x3bf9682d	0.0076112957
170	0x3ca508b2	0.020145748
171	0x25e837c7	4.028338e-16
172	0x3c6eefb7	0.01458352
173	0x000088d8	4.909e-41
174	0xbbbdf006	-0.0057964353
175	0x00008f06	5.1307e-41
176	0x3a586a60	0.0008255597
177	0xbb7788f1	-0.0037770832
178	0x3c7fb73b	0.01560765
179	0x000088bb	4.905e-41
180	0x3c4cfe13	0.012511748
181	0xbb274848	-0.002552526
182	0x00008ad3	4.9801e-41
183	0xbc794f4a	-0.015216658
184	0x3cb104a7	0.021608664
185	0x00008ac3	4.9778e-41
186	0x80008ba6	-5.0096e-41
187	0xa473c6a5	-5.2860484e-17
188	0xba14ff77	-0.0005683819
189	0x3c51fae5	0.012816166
190	0xba19d1b7	-0.0005867737
191	0x00008f11	5.1323e-41
192	0x8000890b	-4.9162e-41
193	0x800088f5	-4.9131e-41
194	0x3cb1110c	0.021614574
195	0x80008a96	-4.9715e-41
196	0x80008a66	-4.9648e-41
197	0x2ab39089	3.189708e-13
198	0x33bf3903	8.904501e-08
199	0xbc11238c	-0.008858573
200	0xbd24906b	-0.04017679
201	0xbccaada9	-0.02474101
202	0x3bbc8a2b	0.0057537756
203	0xbc2de486	-0.010613566
204	0x306e1a3c	8.6621177e-10
205	0x80008aa2	-4.9732e-41
206	0xbd052838	-0.03250906
207	0x9810e73a	-1.8728303e-24
208	0xba752ec2	-0.0009352976
209	0xba939779	-0.0011260352
210	0x000089de	4.9457e-41
211	0xbbaeb6ad	-0.0053318352
212	0xbc932d9e	-0.017966088
213	0x3b1e807f	0.0024185476
214	0x3a48ee6c	0.0007664922
215	0xbb73c1f4	-0.0037194462
216	0xbcf2b82a	-0.029628832
217	0xbc434a13	-0.011919516
218	0xb9fe1b21	-0.00048466868
219	0xb97918c8	-0.00023755722
220	0xbcb00cdf	-0.021490512
221	0xbc0a493d	-0.008440313
222	0xbbd4ca8c	-0.006493872
223	0xbc091875	-0.008367647
224	0x00008999	4.9361e-41
225	0x30ed4423	1.7263385e-09
226	0x80008a33	-4.9577e-41
227	0xa40d665a	-3.0661196e-17
228	0x3c13cfd6	0.00902172
229	0xbb8cd1cf	-0.004297472
230	0x0000898e	4.9345e-41
231	0xbc9996ee	-0.018748727
232	0xb8f37eb4	-0.00011610743
233	0xbb856b80	-0.004071653
234	0xba606ce3	-0.0008561147
235	0x00008bdc	5.0172e-41
236	0x00008a43	4.9599e-41
237	0x00008969	4.9293e-41
238	0x3bb3fac2	0.005492539
239	0xbc2dc75d	-0.010606614
240	0xac2e9ac4	-2.48128e-12
241	0xbb36dfe5	-0.0027904448
242	0x3993168e	0.0002805483
243	0x000089b3	4.9397e-41
244	0xbc53b040	-0.012920439
245	0x3b27a0b8	0.0025577974
246	0x80008c20	-5.0267e-41
247	0x3d056ad8	0.032572597
248	0xbc0be8a4	-0.008539353
249	0x80008b0d	-4.9882e-41
250	0xaab4ded1	-3.2129033e-13
251	0x00008985	4.9333e-41
252	0xbb5bb071	-0.0033521915
253	0x39afc4fb	0.00033525363
254	0xbd0b075f	-0.033942576
255	0xbc93c69e	-0.018039044

val_conv1.bias f4 [2]
0	0x3d6d6d66	0.05796566
1	0xbd10b4cf	-0.035328683
