课程设计/AlphaZero简单复现/models/policy_batch_800.model (torch, 530617 bytes, 15 tensors)

conv1.weight f4 [32, 4, 3, 3]
0.200831 -0.0397913 0.25212076 -0.03547252 -0.0318157 -0.10800853 0.35192412 -0.21698447
0.41744217 0.12200229 -0.010097849 0.15115504 0.00022537487 -0.12591752 -0.053718735 0.23639533
-0.07578434 0.23910077 0.08681121 -0.027306754 0.006643256 -0.0035305168 0.049786758 -0.07268479
0.014041212 -0.078426346 0.108237095 -0.009045263 -0.0034835378 -0.06078526 -0.10078263 0.11775318
-0.030788697 -0.00033693534 0.03254841 -0.053443026 0.29833955 0.26614 -0.3856601 0.15681382
-0.058151215 0.3016651 -0.21897914 0.14754611 0.15855683 0.11602781 0.032653898 -0.06435482
-0.22501947 0.010344896 -0.10370474 0.096399866 -0.13336155 0.16532798 -0.03409345 0.0034705235
-0.006091254 0.0006998341 -0.018425364 0.02110421 0.042495072 0.03469907 -0.019940866 0.0032804431
-0.14758353 0.05246677 -0.16069749 0.064132385 -0.1539451 0.14123242 -0.05512404 0.15966105
0.19030087 0.15615162 -0.014029575 -0.29110506 -0.06937131 -0.2919807 0.061656173 0.1964792
-0.2193699 -0.12587842 -0.19459233 -0.04293007 0.2106284 0.15506461 0.10004327 0.098036684
-0.19294842 0.012753721 -0.07533283 -0.11663357 -0.047183007 -0.068426214 -0.017153291 0.063002825
-0.010586143 -0.05458777 0.040947724 -0.12408611 0.11996276 0.07908219 0.02085372 0.05096169
0.059167497 0.053101134 0.13006225 -0.1678205 -0.00773668 -0.44527903 0.30016983 -0.06925956
0.37167558 -0.3660838 0.011364937 0.043243863 0.10119509 0.07440156 0.0728768 -0.14862539
0.14661205 -0.063938744 0.11675985 -0.037833553 0.117025286 0.1941725 -0.025435759 0.0071361517
-0.008720621 -0.006135576 -0.030556567 0.060604937 -0.025322964 -0.017556785 0.016016314 0.06845083
-0.057982787 0.09447889 0.13133115 -0.009098603 -0.09399052 -0.11464387 -0.09187369 0.12659082
-0.20383325 -0.07679579 -0.038678836 0.055034425 0.14112556 0.09831312 -0.06626061 -0.008943911
0.1812274 -0.14624907 -0.020678295 -0.14249468 0.10037501 -0.019177534 -0.12366933 0.08293915
-0.05847357 -0.11896622 -0.018901318 0.014703119 0.16707496 0.13305867 0.0017598659 -0.042840935
0.03166757 -0.031530138 -0.009667005 0.07181871 0.08072739 0.12759967 0.12417574 0.081564285
0.10219694 0.1452383 0.14255026 0.12290986 0.23443004 0.06379765 -0.092115425 -0.33988836
0.36795548 0.31296402 0.29225054 -0.041849587 0.012515495 0.10114496 -0.061412547 -0.13769272
-0.46949118 0.19948761 0.14198217 0.118814275 -0.19047843 -0.07818008 0.14650899 0.08325374
0.05712825 0.032735586 0.1575863 0.046924166 0.092753865 0.09387044 0.020209372 0.035778645
0.046081766 0.12358576 0.145414 -0.12947477 -0.07956929 -0.020601721 -0.061561342 0.16458955
-0.008246718 -0.07469568 0.0062288726 -0.05108888 -0.015421148 -0.22874446 0.026680497 -0.022107286
0.25879 -0.049527433 0.048135355 0.07855098 -0.027728159 0.35938013 -0.39254686 0.03552429
-0.5567588 0.25818688 0.0031794563 0.070508346 0.054107364 0.0613002 0.1560421 -0.2153371
0.14081955 -0.1321832 0.183926 0.01925021 0.13073063 0.12505014 0.0008047725 -0.07146235
-0.005182297 -0.13450366 -0.02973105 -0.05056732 -0.20835294 0.13812624 0.2932088 -0.15329246
00000000: a4a6 4d3e 34fc 22bd f915 813e a24b 11bd
00000010: 2e51 02bd 9433 ddbd 662f b43e 2d31 5ebe
00000020: fbba d53e 56dc f93d 7371 25bc 63c8 1a3e
00000030: 9b52 6c39 86f0 00be 2d08 5cbd 9e11 723e
00000040: d234 9bbd d5d6 743e 13ca b13d 6ab2 dfbc
00000050: acaf d93b 3e60 67bb 33ed 4b3d c3db 94bd
00000060: 1d0d 663c fe9d a0bd 69ab dd3d 9532 14bc
00000070: 114c 64bb f7f9 78bd 2067 cebd 9428 f13d
00000080: 9438 fcbc b2a6 b0b9 7b51 053d 13e7 5abd
00000090: f6bf 983e 8143 883e 3e75 c5be cd93 203e
000000a0: f82f 6ebd d973 9a3e 113c 60be 5416 173e
000000b0: b95c 223e fd9f ed3d 18c0 053d 76cc 83bd
000000c0: 816b 66be a47d 293c 2763 d4bd 4b6d c53d
000000d0: ee8f 08be bd4b 293e 93a5 0bbd b971 633b
000000e0: 2499 c7bb 1275 373a caf0 96bc bce2 ac3c
000000f0: 500f 2e3d 9d20 0e3d 075b a3bc b4fc 563b
00000100: 2320 17be 65e7 563d e28d 24be d757 833d
00000110: c9a3 1dbe 3b9f 103e bfc9 61bd 307e 233e
00000120: 3bde 423e 36e6 1f3e 4ddc 65bc b90b 95be
00000130: 8c12 8ebd 7f7e 95be 2f8b 7c3d d831 493e
00000140: 81a2 60be 46e6 00be 3643 47be 71d7 2fbd
00000150: f9ae 573e 42c9 1e3e 7ce3 cc3d 75c7 c83d
00000160: 4594 45be fcf4 503c 1948 9abd 95dd eebd
00000170: f842 41bd 0b23 8cbd 0f85 8cbc a007 813d
00000180: 8071 2dbc 6d97 5fbd cdb8 273d dc20 febd
00000190: 09af f53d d8f5 a13d 6cd5 aa3c 34bd 503d
000001a0: 9e59 723d 9380 593d 0a2f 053e 23d9 2bbe
000001b0: fa83 fdbb 9dfb e3be dcaf 993e f5d7 8dbd
000001c0: 434c be3e 566f bbbe 0034 3a3c 7a20 313d
000001d0: 5f3f cf3d d85f 983d 6f40 953d 4131 18be
000001e0: 7821 163e 51f2 82bd ca1f ef3d 5bf7 1abd
000001f0: f4aa ef3d 28d5 463e a75e d0bc 61d6 e93b
00000200: efe0 0ebc f10c c9bb c451 fabc e23c 783d
00000210: 1b72 cfbc 3fd3 8fbc a534 833c f32f 8c3d
00000220: 5c7f 6dbd 267e c13d ac7b 063e 4f12 15bc
00000230: 1a7e c0bd 68ca eabd 4628 bcbd 06a1 013e
00000240: aab9 50be 1c47 9dbd b36d 1ebd c76b 613d
00000250: 3883 103e 6458 c93d a5b3 87bd 7b89 12bc
00000260: ad93 393e 51c2 15be 8765 a9bc 20ea 11be
00000270: 6a91 cd3d 341a 9dbc 5846 fdbd 00dc a93d
00000280: fb81 6fbd 90a4 f3bd f0d6 9abc 5ae5 703c
00000290: b315 2b3e 8840 083e 4dab e63a fa79 2fbd
000002a0: dbb5 013d bf25 01bd 5c62 1ebc b015 933d
000002b0: 6754 a53d 7da9 023e da4f fe3d 2d0b a73d
000002c0: a14c d13d 59b9 143e b2f8 113e 2ab8 fb3d
000002d0: 6e0e 703e 58a8 823d 03a7 bcbd d905 aebe
000002e0: a964 bc3e d23c a03e dda1 953e 796a 2bbd
000002f0: ca0d 4d3c 1725 cf3d b98b 7bbd 52ff 0cbe
00000300: 2661 f0be 7b46 4c3e c663 113e e654 f33d
00000310: c70c 43be e11c a0bd 7406 163e f080 aa3d
00000320: 50ff 693d c015 063d 4e5e 213e 8e33 403d
00000330: bdf5 bd3d 253f c03d 208e a53c a18c 123d
00000340: 3cc0 3c3d 881a fd3d 68e7 143e 0995 04be
00000350: 39f5 a2bd f1c4 a8bc bf27 7cbd 2a8a 283e
00000360: 3e1d 07bc 0cfa 98bd 921b cc3b 9342 51bd
00000370: fca8 7cbc fd3b 6abe 0f91 da3c 571a b5bc
00000380: 1f80 843e 47dd 4abd 9429 453d 56df a03d
00000390: 2a26 e3bc ac00 b83e e7fb c8be eb81 113d
000003a0: bf87 0ebf 1231 843e 6d5e 503b ae66 903d
000003b0: af9f 5d3d eb15 7b3d 80c9 1f3e 5481 5cbe
000003c0: 0033 103e 085b 07be 1957 3c3e 9eb2 9d3c
000003d0: 40de 053e 250d 003e 5ef7 523a da5a 92bd
000003e0: 42d0 a9bb 54bb 09be 888e f3bc ae1f 4fbd
000003f0: 795a 55be f770 0d3e 771f 963e b3f8 1cbe

conv1.bias f4 [32]
-0.06867654 0.12810384 0.09965823 -0.0030308971 -0.14462584 -6.9268746e-05 0.022497531 0.07252748
0.026601907 -0.10600311 0.3113437 -0.04395791 -0.1364833 -0.03361639 0.009304389 0.22546913
-0.033375844 0.23181848 -0.00830137 0.008219427 0.2894036 -0.023241663 -0.0697909 -0.016866501
-0.024904791 0.19105671 0.26794183 -0.02795909 -0.049919084 -0.117851816 0.078794956 -0.14142261
00000000: 49a6 8cbd a72d 033e 9d19 cc3d 04a2 46bb
00000010: cc18 14be 6044 91b8 be4c b83c 4a89 943d
00000020: 3eec d93c 2918 d9bd 7168 9f3e 360d 34bd
00000030: 47c2 0bbe 57b1 09bd 7071 183c 61e1 663e
00000040: 1cb5 08bd d361 6d3e 7802 08bc c7aa 063c
00000050: b52c 943e 4d65 bebc 88ee 8ebd 9e2b 8abc
00000060: 2205 ccbc 5fa4 433e ac2f 893e 760a e5bc
00000070: f477 4cbd 4b5c f1bd 405f a13d 17d1 10be

conv2.weight f4 [64, 32, 3, 3]
0.110602096 0.15643871 0.16716261 0.19571137 -0.0039237547 0.20213783 0.011724127 0.11325412
0.0024058092 0.14128849 -0.09835059 -0.046154127 0.01301487 -0.039323457 -0.16174498 0.007456065
0.06424892 0.20604238 -0.046176717 0.0023554699 0.08651862 -0.050289586 0.0533674 0.002851377
-0.031417266 -0.074618034 -0.037798792 0.047297146 0.09983955 -0.021528108 0.01845128 -0.12424181
0.08817767 -0.1822904 0.08433918 -0.11169243 0.0193832 -0.0049057547 0.0051993616 -0.00082845206
-0.005535139 0.007562216 -0.022275463 0.010486394 0.038933355 -0.038433995 -0.0007760276 -0.019288499
0.049227856 0.07708209 -0.089654334 -0.064758494 -0.027931793 -0.15081261 0.08247337 0.008518359
0.008431827 -0.11327807 -0.010483115 0.1038063 -0.004322006 0.16072223 0.048215903 -0.010426858
-0.16720247 0.06147404 0.06985465 0.0908226 -0.2644382 0.2262013 0.02624115 -0.0654009
-0.031183803 0.05435237 -0.09208609 0.083879806 0.060065147 -0.05790039 -0.04267855 0.09877521
0.120985575 -0.0502049 0.069412015 0.0021392116 -0.06627436 -0.05065107 0.024639867 -0.03120451
0.033879686 0.049249567 0.039388113 -0.07815252 0.04517026 0.08362641 -0.04929836 -0.07208398
0.057244148 0.08790178 0.1100097 -0.008615083 -0.06371455 0.05175502 0.077830754 0.06477736
0.12131736 -0.037085816 0.008289401 0.00620185 0.008550904 -0.012647086 -0.04508108 0.030030433
-0.076407455 0.0976903 -0.08907986 0.0041917427 0.11441694 -0.055834465 0.009335251 0.07552322
0.2036714 -0.0026104306 -0.043135837 0.17747974 -0.06096102 0.13948976 -0.009519049 0.20892699
0.15273347 -0.051157407 0.058302134 0.06616054 -0.03817403 -0.21400858 -0.03619871 -0.018228967
0.03231588 -0.005430745 -0.018273303 -0.042483374 0.07037274 -0.07051034 0.073772445 0.06616884
-0.07936584 -0.053972576 -0.093532845 -0.042078547 0.05484257 0.015856013 0.100503206 0.21465494
0.15009701 0.053187206 0.056338117 -0.035855904 -0.008459707 -0.023016231 -0.07732908 0.04296045
-0.02227431 0.0609933 -0.009773176 0.059727464 -0.034216713 0.17982371 0.16196339 -0.062665686
-0.02534953 -0.00075263204 -0.07385614 -0.096774675 0.059054743 0.03030999 0.09324594 -0.01969002
-0.007812572 0.08631858 -0.02817907 -0.15980819 -0.08231879 -0.044562403 -0.02680648 0.07036769
-0.12221782 -0.1256408 0.05851323 -0.08040305 0.025148524 0.19965899 0.19504914 0.060707383
0.04239288 -0.038049042 -0.07061894 -0.22651933 -0.38436836 0.057312142 0.099574916 0.01853665
0.0007801142 0.061488647 0.0077500897 0.06631535 -0.10626673 -0.037097264 0.05356073 0.02737403
0.094878174 -0.07748433 -0.0073043415 0.06730782 0.06235966 -0.1198877 0.071091756 -0.17801984
0.05421704 0.17479427 0.0060861274 0.101168 0.036705162 -0.07697295 0.041671883 -0.10778291
-0.0004642272 -0.044191904 0.024442296 -0.037679303 -0.14390735 0.003062754 0.13620822 -0.15864639
0.044329587 0.23759061 -0.08738399 0.063125454 -0.015058616 0.060006306 -0.027364528 -0.0037420213
-0.06632478 -0.22557068 0.1144355 -0.013216516 -0.07818385 -0.052588236 0.06063687 -0.02947441
0.02070726 0.09170064 0.007772879 0.06284221 0.0063867476 0.0556197 -0.022195606 -0.038908724
00000000: 5a83 e23d 7831 203e ad2c 2b3e 9068 483e
00000010: d792 80bb 38fd 4e3e 8e16 403c c7f1 e73d
00000020: c8aa 1d3b eead 103e 096c c9bd 1c0c 3dbd
00000030: 523c 553c a211 21bd 7aa0 25be 0252 f43b
00000040: f094 833d c6fc 523e cc23 3dbd 3a5e 1a3b
00000050: ad30 b13d 74fc 4dbd c697 5a3d 2bde 3a3b
00000060: 64af 00bd 57d1 98bd e8d2 1abd a7ba 413d
00000070: ae78 cc3d b75b b0bc 2427 973c 7d72 febd
00000080: 7f96 b43d 56aa 3abe 05ba ac3d 00bf e4bd
00000090: 84c9 9e3c 74c0 a0bb 685f aa3b 7a2c 59ba
000000a0: 1c60 b5bb 77cc f73b 087b b6bc 20cf 2b3c
000000b0: 9578 1f3d f76c 1dbd 556e 4bba ea02 9ebc
000000c0: 26a3 493d 37dd 9d3d b19c b7bd 1aa0 84bd
000000d0: 37d1 e4bc 9f6e 1abe cce7 a83d 9690 0b3c
000000e0: a525 0a3c 55fe e7bd 5fc1 2bbc 6698 d43d
000000f0: 9d9f 8dbb 5e94 243e 0a7e 453d 6ad5 2abc
00000100: 2037 2bbe 34cc 7b3d f40f 8f3d 3301 ba3d
00000110: 7264 87be 50a1 673e aef7 d63c e8f0 85bd
00000120: 2d75 ffbc 97a0 5e3d a297 bcbd 2dc9 ab3d
00000130: df06 763d f628 6dbd b4cf 2ebd a84a ca3d
00000140: 49c7 f73d a7a3 4dbd e327 8e3d 0432 0c3b
00000150: daba 87bd 7f77 4fbd 8cd9 c93c 9aa0 ffbc
00000160: 6dc5 0a3d eab9 493d 6e55 213d 6e0e a0bd
00000170: 7304 393d 5344 ab3d 14ed 49bd c4a0 93bd
00000180: d778 6a3d d905 b43d c44c e13d 4726 0dbc
00000190: c67c 82bd 12fd 533d bb65 9f3d fea9 843d
000001a0: 3c75 f83d 4ce7 17bd 45d0 073c e338 cb3b
000001b0: 1719 0c3c b935 4fbc f0a6 38bd 6202 f63c
000001c0: 837b 9cbd da11 c83d 806f b6bd e35a 893b
000001d0: 6e53 ea3d aeb2 64bd e1f2 183c ebab 9a3d
000001e0: 3c8f 503e c213 2bbb 34af 30bd 40bd 353e
000001f0: 43b2 79bd 67d6 0e3e c9f5 1bbc f5f0 553e
00000200: 2a66 1c3e 6e8a 51bd 38ce 6e3d 2d7f 873d
00000210: 5f5c 1cbd 1125 5bbe 1945 14bd ea54 95bc
00000220: a85d 043d 64f4 b1bb e5b1 95bc 0c03 2ebd
00000230: 951f 903d ba67 90bd 0216 973d 8783 873d
00000240: 8f8a a2bd 5912 5dbd 268e bfbd 8e5a 2cbd
00000250: 9aa2 603d 78e4 813c a0d4 cd3d 81ce 5b3e
00000260: 08b3 193e d4da 593d ccc2 663d a4dd 12bd
00000270: 959a 0abc 898c bcbc b55e 9ebd 4cf7 2f3d
00000280: 9d78 b6bc 1cd4 793d ac1f 20bc c9a4 743d
00000290: d326 0cbd b523 383e bbd9 253e de56 80bd
000002a0: d1a9 cfbc 484c 45ba e341 97bd cd31 c6bd
000002b0: 63e3 713d a84c f83c baf7 be3d f74c a1bc
000002c0: 4d00 00bc ccc7 b03d cbd7 e6bc c2a4 23be
000002d0: c196 a8bd 1187 36bd 4399 dbbc ef1c 903d
000002e0: 564d fabd fba7 00be 92ab 6f3d 5baa a4bd
000002f0: 4704 ce3c 6873 4c3e f6ba 473e 4ea8 783d
00000300: 28a4 2d3d 50d9 1bbd aaa0 90bd aff4 67be
00000310: eecb c4be 23c0 6a3d efed cb3d 2cda 973c
00000320: 9480 4c3a 85db 7b3d 77f4 fd3b 58d0 873d
00000330: 5fa2 d9bd 4df3 17bd 7f62 5b3d 803f e03c
00000340: 7d4f c23d 1bb0 9ebd 4259 efbb afd8 893d
00000350: d86c 7f3d af87 f5bd 8e98 913d d54a 36be
00000360: b012 5e3d 45fd 323e 236e c73b 2b31 cf3d
00000370: 2758 163d fea3 9dbd 23b0 2a3d 49bd dcbd
00000380: 8563 f3b9 9202 35bd 363b c83c 9d55 1abd
00000390: 735c 13be 7cb8 483b 2b7a 0b3e 3374 22be
000003a0: f192 353d f44a 733e 61f6 b2bd eb47 813d
000003b0: 6ab8 76bc 2cc9 753d 932b e0bc b33c 75bb
000003c0: 49d5 87bd 00fc 66be 295d ea3d 168a 58bc
000003d0: db1e a0bd c366 57bd 5e5e 783d 5174 f1bc
000003e0: 46a2 a93c 8ccd bb3d a3b3 fe3b 6bb3 803d
000003f0: ec47 d13b 7cd1 633d 8fd3 b5bc c15e 1fbd

conv2.bias f4 [64]
-0.06140151 0.0701334 -0.01153319 -0.050225724 0.107393354 -0.050172113 -0.011808385 -0.007203166
-0.012657909 -0.0013871104 0.037024327 0.004837621 0.04718252 0.026787385 -0.043299276 0.021335559
0.025476182 0.004713773 0.03726449 0.095264636 0.003550759 0.04683628 0.058798477 -0.07129313
0.033513665 0.040436685 0.006052186 0.07741688 0.0331269 0.052049067 0.045468144 0.008683442
0.020415975 -0.017653182 -0.032720625 -0.031356364 0.034508973 -0.015698126 0.070087455 0.100382924
0.10009705 -0.02742653 -0.07075605 -0.0757559 0.05090996 -0.008824483 0.013877655 -0.0056251846
0.040406242 -0.006714215 0.0080784075 -0.030605791 0.040916465 0.07881541 0.0014381502 0.032627903
0.008587367 -0.026343284 0.01831515 -0.023229169 0.036419347 -0.043549757 -0.042044785 -0.0032701376
00000000: 2680 7bbd 1aa2 8f3d b4f5 3cbc 7db9 4dbd
00000010: 0cf1 db3d 4681 4dbd f577 41bc 8908 ecbb
00000020: 1e63 4fbc b4cf b5ba d2a6 173d e884 9e3b
00000030: 7542 413d 3871 db3c 955a 31bd e9c7 ae3c
00000040: 6db3 d03c fe75 9a3b a6a2 183d 1b1a c33d
00000050: dab3 683b 66d7 3f3d acd6 703d 2202 92bd
00000060: a045 093d f0a0 253d 6a51 c63b be8c 9e3d
00000070: 13b0 073d 6731 553d ce3c 3a3d ff44 0e3c
00000080: 673f a73c 689d 90bc 1006 06bd 886f 00bd
00000090: 4859 0d3d 5b99 80bc 038a 8f3d 9095 cd3d
000000a0: afff cc3d 9aad e0bc 8ce8 90bd e925 9bbd
000000b0: f686 503d 9094 10bc 1b5f 633c 7853 b8bb
000000c0: 0481 253d eb02 dcbb 4c5b 043c ffb8 fabc
000000d0: 0698 273d f969 a13d 5080 bc3a d6a4 053d
000000e0: 07b2 0c3c dfcd d7bc a709 963c 194b bebc
000000f0: 742c 153d 3b61 32bd 2737 2cbd ce4f 56bb

conv3.weight f4 [128, 64, 3, 3]
-0.017163495 -0.034547903 0.018877238 -0.059605334 -0.11778633 0.01321104 0.017942594 -0.04726164
0.06485375 0.045662638 -0.0026780085 0.0067613013 0.03309499 0.025630733 0.021109514 0.009281036
-0.014715449 0.00693535 0.00046448273 -0.026808044 -0.0633176 0.07749621 0.077839956 0.022971464
-0.025229465 0.057757907 -0.07188835 0.053719163 0.05878706 0.030027393 0.10068025 0.025192948
0.054310024 0.07175537 0.085417256 0.04029365 0.040882584 0.069732934 0.034968704 0.00063790096
0.06424159 0.08854677 0.0362535 0.07450731 0.050595623 0.02117946 0.041700933 0.025535531
0.024846813 0.019065859 0.034383807 0.01089715 -0.014440398 0.01418497 0.006415237 0.019313142
0.0046044616 0.028566003 0.010297214 -0.01056904 0.05555689 0.0087924 -0.011855885 0.02254099
-0.014119968 -0.0030942268 0.030478107 -0.0072329156 0.019395417 -0.0048495275 0.018705662 0.034919426
0.034548253 0.029357636 -0.005196919 0.032836374 0.0325915 -0.012191186 0.05479805 0.0420241
-0.013252817 0.06371294 0.039338637 0.044920843 0.059709124 0.026565973 0.0006630969 0.039128408
-0.019890511 -0.0013711855 0.020057397 -0.0369503 -0.008895255 -0.0043377243 -0.015278582 0.04741471
0.014249436 0.016766679 -0.018815003 0.029049933 -0.04078893 0.02814465 0.06021085 0.078644626
0.0019667454 -0.025314672 0.08096551 -0.008152437 0.011283256 0.015595615 -0.02609244 0.064824186
0.037677873 0.028024973 0.03370614 0.025684161 0.014610223 0.008330183 0.0023271032 -0.015960274
-0.0074819634 0.020356113 0.00538007 0.048668284 -0.005916729 0.014160417 0.019516906 0.0281229
0.009456757 0.039937656 0.03618652 0.034303512 -0.0045582587 0.0072591105 0.031553604 0.013633078
0.019373998 0.008947632 0.06568057 0.0029545361 -0.018075911 -0.0028153204 0.05640869 -0.006069038
-0.02457662 0.07666133 -0.00560345 0.011258038 0.02768252 0.050843906 -0.025360672 0.039964117
-0.062492434 0.04405431 -0.034179427 0.05477344 0.009702713 0.004420611 -0.01699426 0.081060536
-0.05257322 0.0038733103 -0.009355626 0.03144839 -0.0025694754 -0.07380915 -0.08545479 0.07860494
0.022068042 0.04764226 0.01851411 0.017814232 0.013536663 0.031348594 0.03913332 0.030687978
0.01803577 0.023666477 0.034048237 0.0049480847 0.03142582 -0.018218033 0.030857828 0.013896736
0.010884683 -0.005029422 -0.0039896164 0.0039262446 -0.028062113 0.060316086 0.069973804 -0.059318434
-0.026904933 0.00073323224 0.06624906 -0.07664832 -0.0008978507 0.034822375 0.030852083 0.08341139
-0.04097843 0.03196488 0.024259405 -0.040947855 -0.021607684 0.096265115 -0.06412089 -0.030150102
0.020537041 0.027440062 0.044442147 0.009170576 0.0043496843 -0.032451183 0.015838109 -0.04378465
-0.014144774 0.039388504 -0.01142035 0.02534116 -0.003565452 0.013522257 -0.035505336 -0.004254875
0.025678797 -0.014357064 0.017205026 -0.0026704888 0.03156237 0.04775513 0.02882797 -0.029338062
0.010840544 0.0154319815 0.023264457 0.030710656 0.006338327 0.011169927 0.008206996 0.021049757
-0.006669631 0.015010611 -0.010212427 0.03357626 0.0073699756 0.009431025 0.05968026 0.0268879
-0.021244442 0.015991287 0.04712567 0.017759353 -0.008741447 -0.026091617 -0.05352416 0.04245055
00000000: 759a 8cbc 1a82 0dbd 70a4 9a3c b924 74bd
00000010: f639 f1bd 1e73 583c 59fc 923c 6c95 41bd
00000020: 0bd2 843d bf08 3b3d 8781 2fbb e88d dd3b
00000030: 9d8e 073d 8bf7 d13c dced ac3c 7d0f 183c
00000040: 1119 71bc ef41 e33b d185 f339 8b9c dbbc
00000050: a8ac 81bd 55b6 9e3d 8e6a 9f3d a72e bc3c
00000060: 06ae cebc 8e93 6c3d 333a 93bd a008 5c3d
00000070: b3ca 703d 02fc f53c 7231 ce3d 7161 ce3c
00000080: 3074 5e3d 7bf4 923d 3eef ae3d f40a 253d
00000090: 7f74 273d 24d0 8e3d 583b 0f3d cf38 273a
000000a0: 1891 833d 0258 b53d 8d7e 143d 4a97 983d
000000b0: 5b3d 4f3d 8c80 ad3c 99ce 2a3d e42f d13c
000000c0: 8b8b cb3c 0130 9c3c 09d6 0c3d f689 323c
000000d0: 6b97 6cbc 1468 683c e936 d23b 9836 9e3c
000000e0: 06e1 963b 4003 ea3c a5b5 283c c429 2dbc
000000f0: 9f8f 633d 000e 103c 303f 42bc e2a7 b83c
00000100: 7057 67bc 83c8 4abb 39ad f93c 1802 edbb
00000110: 23e3 9e3c c9e8 9ebb 9e3c 993c ac07 0f3d
00000120: 7882 0d3d 6d7f f03c eb4a aabb 6f7f 063d
00000130: aa7e 053d 8abd 47bc ec73 603d 7621 2c3d
00000140: 5822 59bc ee7b 823d 8d21 213d ebfe 373d
00000150: 8e91 743d e2a0 d93c aed3 2d3a 1c45 203d
00000160: 6df1 a2bc 5ab9 b3ba 694f a43c 3359 17bd
00000170: 67bd 11bc 7823 8ebb 0553 7abc ed35 423d
00000180: 7776 693c 465a 893c ec21 9abc 20fa ed3c
00000190: 4b12 27bd 9c8f e63c a79f 763d 6f10 a13d
000001a0: 83e4 003b b760 cfbc 3fd1 a53d cd91 05bc
000001b0: 68dd 383c c084 7f3c d0bf d5bc 8bc2 843d
000001c0: 1d54 1a3d a194 e53c 730f 0a3d 9767 d23c
000001d0: b75f 6f3c 527b 083c 5082 183b 1fbf 82bc
000001e0: 422b f5bb ddc1 a63c 4c4b b03b 6558 473d
000001f0: 1fe1 c1bb 1801 683c ebe1 9f3c ff61 e63c
00000200: 84f0 1a3c ab95 233d 5138 143d d781 0c3d
00000210: 725d 95bb d5dd ed3b 5a3e 013d 465d 5f3c
00000220: 38b6 9e3c 1799 123c 8983 863d e4a0 413b
00000230: ef13 94bc 3d81 38bb cc0c 673d c8de c6bb
00000240: e854 c9bc 9e00 9d3d 259d b7bb a273 383c
00000250: 74c6 e23c b341 503d 2fc1 cfbc 6ab1 233d
00000260: 11f8 7fbd 4b72 343d baff 0bbd 1d5a 603d
00000270: 21f8 1e3c c6da 903b 8c37 8bbc 1103 a63d
00000280: 0457 57bd 5dd7 7d3b 5748 19bc 07d0 003d
00000290: a564 28bb 4029 97bd ec02 afbd a0fb a03d
000002a0: 0ac8 b43c 8824 433d e7aa 973c 27ef 913c
000002b0: e1c8 5d3c 6267 003d 434a 203d 5b65 fb3c
000002c0: c0bf 933c 33e0 c13c 2a76 0b3d 8b23 a23b
000002d0: 5cb8 003d fc3d 95bc 8ec9 fc3c 23af 633c
000002e0: ab55 323c dacd a4bb 54bb 82bb baa7 803b
000002f0: 84e2 e5bc 000e 773d 6d4e 8f3d e3f7 72bd
00000300: bc67 dcbc 6236 403a 96ad 873d cbf9 9cbd
00000310: be5d 6bba e8a1 0e3d 82bd fc3c 97d3 aa3d
00000320: 00d9 27bd 9bed 023d a9bb c63c f0b8 27bd
00000330: 9902 b1bc a526 c53d d051 83bd 59fd f6bc
00000340: 4c3d a83c fbc9 e03c f808 363d 2f40 163c
00000350: cc87 8e3b 88eb 04bd ecbe 813c 8857 33bd
00000360: 7bbf 67bc d755 213d 6b1c 3bbc 4498 cf3c
00000370: 5caa 69bb 758c 5d3c 0b6e 11bd 7a6c 8bbb
00000380: 575c d23c e439 6bbc 8ef1 8c3c 5e03 2fbb
00000390: 8b47 013d e29a 433d a328 ec3c 6056 f0bc
000003a0: 899c 313c 6cd6 7c3c 1a95 be3c ea94 fb3c
000003b0: beb1 cf3b 1202 373c a376 063c 8a70 ac3c
000003c0: ec8c dabb 11ef 753c 0652 27bc 4387 093d
000003d0: d67f f13b 9684 1a3c 4a73 743d 0344 dc3c
000003e0: d308 aebc 2900 833c d906 413d 107c 913c
000003f0: 4938 0fbc 16be d5bc 263c 5bbd a1e0 2d3d

conv3.bias f4 [128]
0.013511153 0.04040115 -0.03683215 -0.004322306 0.009494939 0.050677903 -1.5026593e-11 -1.2743251e-21
-0.014543499 0.015117905 0.043344595 0.01779331 0.033945713 -0.0057646562 -0.024671063 0.0058145253
0.004123713 0.02504374 0.00029296856 -0.0004728161 0.034799274 0.00880126 0.008997451 -0.04407964
-0.0018577946 -0.029085979 -7.1037225e-22 -0.0023699373 -0.009258681 0.01571808 -7.0986683e-09 0.031807534
-0.015736286 -0.021252716 0.012116682 0.03425972 -0.01703 -0.0766824 0.0010930555 -0.003711154
-0.05771272 0.000533469 0.014619053 -0.021008495 -0.02508125 0.008540604 0.024600478 -3.8960144e-14
-0.030961988 0.012032504 -0.0051586423 -0.0076083746 0.010702677 -0.024743091 -0.0023595511 -0.030939281
-0.006883404 -0.03154392 -2.4048e-10 0.014658011 0.032003935 -0.027566034 0.021115864 -3.667339e-17
0.026028953 0.09939336 0.0034782998 0.0293258 -0.0440236 -0.024655208 0.019997424 -0.013052867
-0.021223098 0.043220986 -0.025751915 -0.0023774027 0.009740588 -0.0012306876 0.014293822 0.009434876
0.033398453 0.05729486 -8.463864e-06 -0.0032557156 0.06350793 0.039655015 -0.019169366 -0.040204335
-0.031232737 0.00070284144 0.017023094 -0.04387826 0.013567966 0.04236273 0.012545992 0.02224017
-0.00027631622 -0.016618907 -9.034153e-05 -0.05449442 -0.057425726 0.008841364 -0.000855561 0.06377955
0.053564407 0.017308751 0.06290833 -0.0049751657 -0.0068524047 -0.018135604 0.027970947 -0.009516823
0.022206126 0.033647068 0.022809213 -1.0628652e-06 0.02620218 -0.036904726 -0.011768184 -0.015653383
0.0056072185 -0.009953584 -0.081291355 -0.00075985905 0.07007176 -0.017059775 -0.018914467 0.0071671386
00000000: e25d 5d3c ad7b 253d 4fdd 16bd 21a2 8dbb
00000010: a990 1b3c a293 4f3d e12c 84ad 1192 c09c
00000020: db47 6ebc 17b1 773c 1a8a 313d 47c3 913c
00000030: a90a 0b3d 71e5 bcbb f81a cabc c687 be3b
00000040: 3620 873b 8828 cd3c 9399 9939 4de4 f7b9
00000050: af89 0e3d 2933 103c 0b6a 133c da8c 34bd
00000060: 3e81 f3ba b845 eebc 64b2 569c f350 1bbb
00000070: b9b1 17bc 34c3 803c 8ce8 f3b1 9e48 023d
00000080: 62e9 80bc 2d1a aebc 0c85 463c ec53 0c3d
00000090: 8082 8bbc aa0b 9dbd db44 8f3a d536 73bb
000000a0: 2c64 6cbd 80d8 0b3a c184 6f3c 021a acbc
000000b0: 3277 cdbc e4ed 0b3c f186 c93c fd75 2fa9
000000c0: ffa3 fdbc fb23 453c d409 a9bb ac4f f9bb
000000d0: 485a 2f3c 06b2 cabc b3a2 1abb 6074 fdbc
000000e0: 2e8e e1bb 3334 01bd 8d34 84af 2728 703c
000000f0: 8f16 033d 2ad2 e1bc 2dfb ac3c 4c20 29a4
00000100: ac3a d53c bf8e cb3d 30f4 633b a93c f03c
00000110: 1752 34bd b8f9 c9bc a3d1 a33c b1db 55bc
00000120: 10dc adbc 7d08 313d aef5 d2bc 33ce 1bbb
00000130: fd96 1f3c 064f a1ba a330 6a3c bd94 1a3c
00000140: d1cc 083d 04ae 6a3d 0500 0eb7 d85d 55bb
00000150: 7210 823d 4c6d 223d 1309 9dbc 4dad 24bd
00000160: ccdb ffbc e43e 383a 0474 8b3c b1b9 33bd
00000170: 2d4c 5e3c 8b84 2d3d b48d 4d3c 0431 b63c
00000180: 89de 90b9 6024 88bc bd75 bdb8 8a35 5fbd
00000190: 3d37 6bbd 5edb 103c ba47 60ba da9e 823d
000001a0: 5a66 5b3d 15cb 8d3c 15d6 803d b706 a3bb
000001b0: 238a e0bb 1e91 94bc 5423 e53c 73ec 1bbc
000001c0: 9fe9 b53c 82d1 093d 63da ba3c c5a7 8eb5
000001d0: f4a5 d63c 6929 17bd 57cf 40bc 863b 80bc
000001e0: c2bc b73b 5b14 23bc 157c a6bd 4731 47ba
000001f0: c881 8f3d f1c0 8bbc 83f2 9abc 51da ea3b

act_conv1.weight f4 [4, 128, 1, 1]
0.019295614 0.120210834 -0.10021287 0.0516448 0.15343864 -0.09854202 2.5957965e-08 -0.0010269425
-0.028786313 0.108735494 -0.04577815 0.07584573 0.062091686 -0.027169565 -0.036045413 0.027080346
0.035058532 0.12978014 0.0054193605 -4.944e-41 0.081029564 0.07027928 0.081484064 0.155225
-4.9777e-41 -0.039401542 -4.925e-41 1.963796e-32 -0.0046350225 0.029392902 3.44818e-08 0.026753457
-0.056855023 0.0019494087 0.1690108 0.045475613 0.11670745 -0.06936257 0.008386843 -1.116371e-16
0.069016084 0.05185628 0.046505827 -0.16483848 -0.06920309 0.026153388 0.07344007 0.0051446115
0.097957894 -0.08043476 0.14104782 0.29678047 0.07583457 -0.034689326 4.9124e-41 -0.03244538
-0.061616797 -0.06079914 4.9806e-41 -0.026523791 -0.07106624 -0.0031484156 -0.061519414 4.9432e-41
0.04466376 0.25341678 0.014300485 0.1382907 0.1125614 -0.09809549 0.0678828 0.0867122
-0.032453615 -0.025717132 0.03454159 0.16296299 0.023891887 -6.0451952e-05 -0.028975634 0.2685606
0.013606569 0.06869559 -4.9319e-41 -0.027181245 -0.11433578 0.11310304 0.056339465 -0.043206323
0.055995498 0.059207425 0.072925955 -0.08060555 -0.0043030223 0.008036107 -0.035208426 0.073729016
-4.9694e-41 0.13264912 -0.03433327 -0.1766041 0.029051883 0.10695059 -0.017331474 0.008099147
-0.11576724 -0.014509197 0.11553598 -4.955e-41 0.0076218112 -4.9491e-41 0.09098304 -0.049231574
0.033947635 0.12026767 0.16696177 4.9778e-41 0.08945129 -0.0187152 -4.908e-41 -0.052439388
-0.08103566 0.23866497 -0.044739295 -1.265074e-35 -0.051717676 -0.08461201 0.116634265 -0.035361603
-0.0048584067 -0.044901032 0.09455069 -0.03760365 -0.024536641 -0.023016663 4.9078e-41 1.53696e-40
-0.016795594 -0.0067624412 -0.012557338 -0.06368841 -0.030120242 -0.054527838 0.071288295 -0.095426954
-0.08103898 -0.10179777 4.9138e-41 -5.1819e-41 0.004834021 -0.033736296 0.0016830097 0.11638775
-4.9485e-41 0.046608627 4.9272e-41 -4.9047e-41 0.12504703 0.025544921 4.9804e-41 0.019531287
-0.0062879445 -0.02455296 0.068634644 -0.04149918 -0.019504532 0.11466208 -0.0031205672 -4.9442e-41
0.018156169 0.00036553186 0.083181344 0.076502495 0.13305576 0.00054743653 -0.047641624 4.9298e-41
0.074669145 0.061777916 0.0062547787 0.044795897 -0.09128656 0.0018680034 4.9607e-41 -0.023577174
-0.003510281 0.06942365 -4.9586e-41 -0.029955259 0.071153075 -0.09001306 0.17989987 -5.6037e-41
0.14610273 -0.026641954 -0.031966295 -0.031150227 0.06000404 0.08191368 0.12488 0.11734566
-0.038629156 -0.016516933 0.003997075 -0.07676561 0.08099166 -4.9111e-41 0.1827626 0.023092361
0.094740026 -0.050425604 -5.027e-41 0.025641287 0.0022244467 -0.028081834 -0.058236126 0.03542746
0.07464463 0.014191118 -0.014039844 0.076523416 3.7939863e-05 0.03865243 0.0038469143 -0.08498665
5.3106e-41 0.057192974 1.693666e-05 0.053926233 -0.105800845 0.056931596 -4.9128e-41 -0.023993738
-0.012296393 0.06787731 -0.045307998 -4.9867e-41 -4.92e-41 6.0643e-41 -0.012604941 0.03308547
0.06852432 -0.0545658 -0.054286845 4.9855e-41 -0.034958117 0.06966976 -4.9714e-41 0.02212597
-0.005489672 0.016563827 0.08528316 -4.9675e-41 -0.015821762 0.06290203 0.032803927 -0.05337784
00000000: d611 9e3c 1931 f63d 683c cdbd 7f89 533d
00000010: 051f 1d3e 66d0 c9bd 2bfa de32 799a 86ba
00000020: 46d1 ebbc b7b0 de3d df81 3bbd 0255 9b3d
00000030: da53 7e3d b592 debc 5ba4 13bd 9ad7 dd3c
00000040: 8999 0f3d 16e5 043e e494 b13b d289 0080
00000050: d4f2 a53d 95ee 8f3d 1ee1 a63d 4df3 1e3e
00000060: c28a 0080 8363 21bd 4a89 0080 a7ee cb0a
00000070: 63e1 97bb 62c9 f03c 2419 1433 112a db3c
00000080: d0e0 68bd 4d83 ff3a 2b11 2d3e a344 3a3d
00000090: 5104 ef3d f70d 8ebd f868 093c 75b5 00a5
000000a0: 4e58 8d3d 4067 543d e57c 3e3d 6bcb 28be
000000b0: 5aba 8dbd a13f d63c bf67 963d 2194 a83b
000000c0: 269e c83d fbba a4bd d76e 103e 9cf3 973e
000000d0: 284f 9b3d 6516 0ebd f088 0000 72e5 04bd
000000e0: e561 7cbd 8508 79bd d78a 0000 6c48 d9bc
000000f0: 2d8b 91bd a655 4ebb c8fb 7bbd cc89 0000
00000100: 59f1 363d d8bf 813e 954c 6a3c 149c 0d3e
00000110: 9786 e63d 4ae6 c8bd 2306 8b3d 2a96 b13d
00000120: 15ee 04bd bcac d2bc 7b7b 0d3d c5df 263e
00000130: ebb8 c33c ca8d 7db8 4f5e edbc c680 893e
00000140: 16ee 5e3c 46b0 8c3d 7b89 0080 34ab debc
00000150: e128 eabd 91a2 e73d 36c4 663d 1df9 30bd
00000160: 895b 653d 7c83 723d 345a 953d 8614 a5bd
00000170: 5e00 8dbb e0a9 033c b636 10bd 3dff 963d
00000180: 878a 0080 2cd5 073e 0ba1 0cbd b5d7 34be
00000190: 37fe ed3c e908 db3d bcfa 8dbc 49b2 043c
000001a0: 6017 edbd fcb7 6dbc 219e ec3d 208a 0080
000001b0: 63c0 f93b f689 0080 5155 ba3d 0ca7 49bd
000001c0: ad0c 0b3d e54e f63d 07f8 2a3e c38a 0000
000001d0: 3d32 b73d 9e50 99bc d188 0080 afca 56bd
000001e0: 06f6 a5bd 9764 743e 8d40 37bd 9786 8685
000001f0: ead5 53bd 1049 adbd f2dd ee3d 54d7 10bd
00000200: 4533 9fbb 25ea 37bd cba3 c13d 4906 1abd
00000210: 1101 c9bc 718d bcbc cf88 0000 71ac 0100
00000220: ea96 89bc 7897 ddbb 4bbd 4dbc 126f 82bd
00000230: babe f6bc 9558 5fbd 99ff 913d 356f c3bd
00000240: c4f7 a5bd 597b d0bd fa88 0000 7390 0080
00000250: b566 9e3b 122f 0abd 6f98 dc3a b35c ee3d
00000260: f289 0080 b0e8 3e3d 5a89 0000 b988 0080
00000270: 540c 003e 9543 d13c d58a 0000 1400 a03c
00000280: 1a0b cebb 4a23 c9bc 5290 8c3d 0bfb 29bd
00000290: f8c7 9fbc f4d3 ea3d 6e82 4cbb d389 0080
000002a0: 3fbc 943c dba4 bf39 fb5a aa3d 57ad 9c3d
000002b0: c53f 083e d881 0f3a dd23 43bd 6c89 0000
000002c0: 23ec 983d d70a 7d3d e3f4 cc3b e77b 373d
000002d0: 73f4 babd cbd7 f43a 498a 0000 eb24 c1bc
000002e0: be0c 66bb fd2d 8e3d 3a8a 0080 bb64 f5bc
000002f0: b4b8 913d c458 b8bd ac37 383e 359c 0080
00000300: f49b 153e 3a40 dabc 17ef 02bd c32e ffbc
00000310: ccc6 753d 5cc2 a73d 16c1 ff3d ec52 f03d
00000320: 9b39 1ebd 854e 87bc e5f9 823b 4a37 9dbd
00000330: f5de a53d e788 0080 1e26 3b3e 312c bd3c
00000340: 0f07 c23d 148b 4ebd 228c 0080 ad0d d23c
00000350: 06c8 113b e00b e6bc 0189 6ebd 621c 113d
00000360: 49df 983d dd81 683c 6007 66bc 4fb8 9c3d
00000370: 9e21 1f38 0352 1e3d 831c 7c3b 7b0d aebd
00000380: 0a94 0000 2e43 6a3d 3313 8e37 c1e1 5c3d
00000390: 1dae d8bd 1b31 693d f388 0080 848e c4bc
000003a0: cf76 49bc 4203 8b3d e194 39bd 028b 0080
000003b0: 2689 0080 0ca9 0000 f484 4ebc a184 073d
000003c0: 7b56 8c3d 6380 5fbd e25b 5ebd fa8a 0000
000003d0: 3e30 0fbd 05af 8e3d 958a 0080 8641 b53c
000003e0: b5e2 b3bb ddb0 873c f0a8 ae3d 798a 0080
000003f0: a49c 81bc c8d2 803d 695d 063d b9a2 5abd

act_conv1.bias f4 [4]
0.043499004 -0.015256975 -0.024692217 0.12543848
00000000: 032c 323d 64f8 79bc 5547 cabc f272 003e

act_fc1.weight f4 [81, 324]
0.035812806 0.024456041 0.034561187 0.021918159 0.01235436 -0.017485242 -0.009984644 -0.021848843
-0.042408984 0.04345421 0.03762271 -0.05082167 -0.050038625 -0.0141178705 0.001097996 -0.030685294
-0.002964265 -0.046853796 0.01188971 0.0040618596 -0.03152345 -0.06457757 -0.070077024 -0.055404246
0.014041025 -0.00039736272 0.01223085 0.024153685 -0.053499818 -0.05818796 -0.102082305 -0.08718579
-0.04259329 -0.058207326 0.009150249 -0.045240626 -0.027542407 -0.013035333 -0.09734194 -0.110700265
-0.07143424 -0.117208496 -0.09103534 -0.008979407 -0.015098942 0.036730547 -0.041466363 -0.042803753
-0.035570297 -0.16498354 -0.106736995 -0.051792603 -0.06797496 -0.0047916067 0.097230114 0.014904891
-0.05977167 -0.04364751 -0.062438324 -0.03490229 -0.04603545 -0.051667266 -0.035398833 0.25295803
-0.055279195 0.023390027 -0.013525546 -0.08891302 -0.034480475 -0.042060982 0.029100368 -0.0051806797
0.26314402 0.2791355 -0.021680059 0.02203645 0.002530534 -0.0011632538 -0.01855656 0.018340219
0.05121489 -0.0056617605 -0.00857715 -0.09176067 0.025069987 -0.012175105 -0.024271967 0.019326791
-0.015055883 0.066312686 -0.020229444 0.0009822213 -0.023327103 0.0024001214 -0.03734796 -0.027314162
-0.023846477 -0.06740517 0.02099977 0.037459143 0.008321113 -0.055466533 0.0203577 0.023763785
-0.00802676 -0.05067647 -0.027913831 -0.033268925 0.029836338 0.03477461 -0.00045102413 -0.030942895
0.020504061 -0.013926551 -0.008191148 -0.0854067 -0.04338277 0.026847504 -0.009608388 -0.008087994
0.028250229 0.015135256 0.03313749 -0.0020871134 -0.015284637 -0.040131863 -0.07010477 0.04281869
0.016701292 -0.0077456017 -0.037253816 0.032106694 -0.002110665 0.0027081005 0.033980537 0.075252965
-0.021913333 -0.0010427564 -0.018007362 -0.009281753 0.016544936 -0.045396782 -0.06353579 -0.024847358
-0.0938463 -0.0016765167 -0.030439056 0.038078412 0.051466953 0.040197805 0.015398824 -0.02984799
-0.022030149 -0.058828495 -0.041040935 0.030532757 -0.033184458 0.019678505 0.008255002 -0.0081168385
-0.09178624 0.019498087 -9.702107e-11 6.8494206e-05 9.072521e-05 0.00044178413 0.0002456306 0.0005065091
0.00018239752 0.00030607794 8.300237e-05 9.445616e-05 0.00048175926 0.0008783004 0.0021859277 0.0012191329
0.0016687816 0.0007726283 0.00092912564 0.0003044052 3.3930286e-05 0.0013894545 0.002370506 0.0025504443
0.0027668192 0.0022307523 0.0025592966 0.0019346436 0.00063379365 0.00016445274 0.0021791765 0.0014399518
0.0036123074 0.0023237925 0.002408119 0.0018588938 0.00095724047 0.00025163623 4.63943e-05 0.0016090486
0.0018063486 0.003844594 0.0012597479 0.0016009893 0.00022284113 9.586365e-05 4.821978e-05 1.1749971e-05
0.0013929429 0.0019211207 0.0029157216 0.0018718855 0.0005609023 -0.00011889319 -4.9917668e-05 -1.632151e-05
-8.613773e-06 0.0010794244 0.00084611285 0.0033240889 0.0003921797 0.00037041854 -0.00037952315 -0.00019693011
-2.2628561e-05 7.079818e-05 0.00028425068 0.00084299134 0.00095458777 0.0002179868 -0.00035505657 -8.631296e-05
-0.00011417888 6.518102e-05 1.9901348e-05 7.7207165e-05 0.000104866616 7.794296e-06 -3.7724967e-05 -6.540757e-05
4.4886667e-05 1.8314751e-05 1.809577e-07 0.08454485 0.04222533 0.0091981385 0.041655652 0.03813811
0.026175657 0.018145267 0.018928492 0.072454736 0.05146386 0.0019247953 0.035199195 0.031260755
00000000: 73b0 123d 0958 c83c 0890 0d3d b68d b33c
00000010: f169 4a3c 363d 8fbc a296 23bc 58fc b2bc
00000020: 0bb5 2dbd 0bfd 313d 451a 1a3d 622a 50bd
00000030: 4df5 4cbd a44e 67bc a2ea 8f3a ba5f fbbc
00000040: 1d44 42bb c4e9 3fbd 0fcd 423c 5919 853b
00000050: bc1e 01bd 3f41 84bd 8b84 8fbd 90ef 62bd
00000060: 540c 663c 1f55 d0b9 e763 483c f3dd c53c
00000070: a022 5bbd 8056 6ebd 8710 d1bd 778e b2bd
00000080: 4d76 2ebd ce6a 6ebd edea 153c 3c4e 39bd
00000090: 9da0 e1bc 2692 55bc 365b c7bd d2b6 e2bd
000000a0: 1d4c 92bd 020b f0bd bd70 babd 5d1e 13bc
000000b0: 8e61 77bc c572 163d a2d8 29bd fd52 2fbd
000000c0: 29b2 11bd 72f1 28be ed98 dabd 7b24 54bd
000000d0: 7536 8bbd e902 9dbb 9520 c73d a533 743c
000000e0: 23d3 74bd bbc7 32bd 54bf 7fbd b4f5 0ebd
000000f0: ab8f 3cbd 0ea1 53bd 5efe 10bd b783 813e
00000100: 706c 62bd 719c bf3c 409a 5dbc 0818 b6bd
00000110: 663b 0dbd 2348 2cbd e563 ee3c b1c2 a9bb
00000120: d0ba 863e d9ea 8e3e 619a b1bc c985 b43c
00000130: 51d7 253b 5278 98ba ed03 98bc 3a3e 963c
00000140: b4c6 513d 4a86 b9bb 2d87 0cbc 05ed bbbd
00000150: 935f cd3c 177a 47bc 01d6 c6bc 3853 9e3c
00000160: f3ac 76bc f2ce 873d 38b8 a5bc e1bd 803a
00000170: 7b18 bfbc 5b4b 1d3b 2dfa 18bd f3c1 dfbc
00000180: b059 c3bc b90b 8abd b607 ac3c c26e 193d
00000190: 4755 083c e030 63bd 31c5 a63c 45ac c23c
000001a0: ac82 03bc 2192 4fbd 8cab e4bc ff44 08bd
000001b0: 566b f43c d26f 0e3d 6f77 ecb9 f47b fdbc
000001c0: 22f8 a73c 302c 64bc 2a34 06bc b5e9 aebd
000001d0: 22b2 31bd 4cef db3c 806c 1dbc 8183 04bc
000001e0: 066d e73c ddf9 773c 2dbb 073d f4c7 08bb
000001f0: 6a6c 7abc 4f61 24bd 1793 8fbd a762 2f3d
00000200: 26d1 883c d1ce fdbb 7597 18bd 4f82 033d
00000210: 1553 0abb 637a 313b 2d2f 0b3d 3a1e 9a3d
00000220: 9783 b3bc 19ad 88ba 2d84 93bc 7e12 18bc
00000230: 3f89 873c faf1 39bd 0d1f 82bd b08c cbbc
00000240: 7d32 c0bd 91be dbba 545b f9bc 1cf8 1b3d
00000250: 03cf 523d 74a6 243d 594b 7c3c c683 f4bc
00000260: 9278 b4bc 26f6 70bd 8a1a 28bd d51f fa3c
00000270: 6dec 07bd d134 a13c fd3f 073c 7dfc 04bc
00000280: 6dfa bbbd 74ba 9f3c 025a d5ae 8ca4 8f38
00000290: ba43 be38 439f e739 fbc7 8039 40c7 043a
000002a0: f641 3f39 1679 a039 8f11 ae38 c416 c638
000002b0: a294 fc39 be3d 663a c841 0f3b 50cb 9f3a
000002c0: 05bb da3a 358a 4a3a 9190 733a 9398 9f39
000002d0: 5e50 0e38 5b1e b63a 7e5a 1b3b 5b25 273b
000002e0: 8653 353b d031 123b dfb9 273b de93 fd3a
000002f0: 2c25 263a f270 2c39 84d0 0e3b c4bc bc3a
00000300: 76bc 6c3b c54a 183b 88d1 1d3b 20a6 f33a
00000310: 52ef 7a3a 0bee 8339 8097 4238 b6e6 d23a
00000320: 00c3 ec3a 95f5 7b3b 201e a53a 49d8 d13a
00000330: 76aa 6939 680a c938 983f 4a38 be21 4537
00000340: 6893 b63a 1dce fb3a b115 3f3b 0e5a f53a
00000350: 8409 133a 4c56 f9b8 b05e 51b8 2dea 88b7
00000360: e083 10b7 797b 8d3a accd 5d3a f5d8 593b
00000370: 789d cd39 bc34 c239 bcfa c6b9 067f 4eb9
00000380: 77d2 bdb7 7c79 9438 7b07 9539 31fc 5c3a
00000390: 4d3d 7a3a 6393 6439 e326 bab9 eb02 b5b8
000003a0: 5273 efb8 cbb1 8838 d2f1 a637 48ea a138
000003b0: d6eb db38 3fc4 0237 e03a 1eb8 6c2b 89b8
000003c0: b144 3c38 a1a2 9937 464d 4234 da25 ad3d
000003d0: 78f4 2c3d cab3 163c 1e9f 2a3d b536 1c3d
000003e0: 556e d63c 62a5 943c ed0f 9b3c 2663 943d
000003f0: c5cb 523d 6a49 fc3a 082d 103d 470b 003d

act_fc1.bias f4 [81]
0.12062329 -0.015372068 -0.19095568 0.12889647 0.13206328 0.1254774 -0.124119505 -0.015969658
0.092479065 -0.00443475 -0.07442482 0.10612713 0.055274818 0.2632535 0.07390405 0.079065174
-0.17363252 -0.026500154 -0.16518474 0.13705204 0.010267387 0.22043894 -0.07666776 0.18740319
0.020731965 0.14935802 -0.12249262 0.08482556 0.040540423 0.12532862 0.12746787 0.19083343
0.09629216 0.18064196 0.047462277 0.11011084 0.11285112 0.21330737 -0.025477774 0.24514458
-0.05017776 0.2788688 -0.079701416 0.23225318 0.09696912 0.09067299 0.056691166 0.15246488
0.10623225 0.23860623 0.07105812 0.20115085 0.014249634 0.08528149 -0.16917075 0.12396756
0.093936525 0.23127556 -0.08521771 0.13568185 -0.009537786 0.1474729 -0.13683946 -0.06156891
-0.1276145 0.13189276 0.0569527 0.17692488 0.037135586 0.12765965 -0.15176058 -0.02406762
0.049480934 -0.06808737 -0.17303188 0.1063199 0.07486423 0.08826535 -0.1582247 -0.023025267
0.09969992
00000000: 5809 f73d 20db 7bbc e389 43be 70fd 033e
00000010: 993b 073e 267d 003e 5e32 febd cdd2 82bc
00000020: aa65 bd3d 6151 91bb 0a6c 98bd 2e59 d93d
00000030: d967 623d 2ac9 863e 025b 973d ecec a13d
00000040: b9cc 31be da16 d9bc 3026 29be 5f57 0c3e
00000050: 8b38 283c bfba 613e fd03 9dbd 9fe6 3f3e
00000060: 15d6 a93c 4ff1 183e 69dd fabd 06b9 ad3d
00000070: b70d 263d 2556 003e f086 023e d769 433e
00000080: d334 c53d 35fa 383e ce67 423d cb81 e13d
00000090: 7d1e e73d 3f6d 5a3e c4b6 d0bc 2e07 7b3e
000000a0: 3287 4dbd e4c7 8e3e 7f3a a3bd c7d3 6d3e
000000b0: bf97 c63d c3b2 b93d ff34 683d c11f 1c3e
000000c0: 4b90 d93d 3155 743e eb86 913d 7dfa 4d3e
000000d0: 4c77 693c 10a8 ae3d 193b 2dbe b4e2 fd3d
000000e0: cb61 c03d 80d3 6c3e 9f86 aebd 2ff0 0a3e
000000f0: 6044 1cbc 2303 173e a51f 0cbe ae2f 7cbd
00000100: 60ad 02be e50e 073e 3c47 693d cc2b 353e
00000110: 7c1b 183d 36b9 023e 2067 1bbe 7529 c5bc
00000120: 85ac 4a3d 6471 8bbd 452f 31be 3fbe d93d
00000130: 6b52 993d 77c4 b43d a805 22be 7c9f bcbc
00000140: 792f cc3d

val_conv1.weight f4 [2, 128, 1, 1]
0.041643612 0.022101978 -0.019480286 0.015535757 0.07349952 -0.048228722 4.9393e-41 4.9425e-41
-0.0048521385 0.047165286 -0.08689591 0.0058250106 -0.10217123 0.017912703 -0.0050217095 0.08071471
-0.001469486 -0.03325637 2.2647536e-07 -2.544545e-08 -0.11049609 -0.05778138 0.014951049 0.008654125
4.7611084e-05 0.028285338 3.108931e-16 -1.5164734e-06 0.03959298 0.06541381 -0.0023731138 -0.0714642
0.059543334 0.016756434 0.05120814 -0.061957188 -0.0143260015 -0.011988466 0.012477374 -4.8069674e-06
-9.694865e-07 0.046804782 0.04153222 -0.03560927 0.031700414 -9.674625e-08 -0.07792678 -4.9711e-41
0.020123862 -0.04405097 0.07044637 -0.0018960172 0.015541211 0.040749703 -5.228543e-09 0.056734897
0.041043557 -0.009943561 4.9512e-41 -0.021879805 -0.08155077 0.021886336 0.046003494 -4.9177e-41
0.006360111 -0.018700466 0.07322522 -0.008728468 -0.0029288335 -0.03737863 -0.01142699 0.005873311
0.04304201 -0.075353295 0.060583048 0.070352525 0.0043202373 -5.332376e-06 0.06219322 -0.020289825
-0.04686866 -0.036018502 -5.5589258e-08 0.051766783 -0.052845027 0.013224293 0.05003059 0.037315905
0.05652871 0.029175071 0.016015977 0.011427642 0.036684327 -0.049446635 -0.08339513 -0.0015970785
2.2888245e-11 -0.051843673 0.001075885 1.7389157e-05 0.025892412 0.07711965 1.1850564e-11 -0.11556129
-0.054541644 -0.031903926 -0.059241083 -4.2642787e-09 -5.1472e-41 0.005132822 0.046384506 0.020338235
-0.064559415 0.032137 0.0011666174 4.912e-41 -0.1047318 -0.060259826 -7.20166e-05 0.07060743
-0.08842032 7.499795e-12 -0.014923911 -0.0017737214 -0.06267473 -0.023906993 0.020436399 0.008047083
-0.00058103906 -0.0010821216 -1.0860906e-05 0.0024450042 0.01073776 0.005993074 4.9593e-41 -5.6733e-41
-0.0005337275 0.017951535 -0.0045599383 -0.011108868 -0.013467254 -0.00084686175 -1.266636e-18 0.010509943
1.0836531e-24 0.0022305578 -4.9504e-41 4.9966e-41 -0.017093824 0.000106545274 0.007910894 8.594604e-09
-5.035e-41 -0.010589051 5.258e-41 -4.9272e-41 -0.010658215 0.0028357266 -4.9216e-41 -0.015004742
-0.0020077962 -5.8010035e-05 -0.0017268119 -0.0019004046 -4.9094e-41 4.9508e-41 -0.000792713 4.92e-41
9.6933794e-36 0.0049392222 0.012852455 3.0036133e-22 0.009831891 4.909e-41 -0.0028074952 5.1307e-41
0.00051394774 -0.0015024954 0.009768722 4.905e-41 0.008256585 -0.0015206322 4.9801e-41 -0.010565426
0.014270249 4.9778e-41 -5.0096e-41 -6.309784e-24 -0.00020889007 0.009097866 -8.845405e-05 5.1323e-41
-4.9162e-41 -4.9131e-41 0.015120792 -4.9715e-41 -4.9648e-41 4.9246256e-18 7.349783e-10 -0.004233709
-0.030092943 -0.014509331 0.0036825219 -0.0064552496 6.642987e-13 -4.9732e-41 -0.02220867 5.8817783e-36
-0.00022828722 -0.00026822143 4.9457e-41 -0.0032584963 -0.010074362 0.0008618365 0.00045729525 -0.0023988022
-0.020433038 -0.008997393 -7.840363e-05 -4.3344433e-05 -0.014108362 -0.0034124814 -0.0029452045 -0.0033892302
4.9361e-41 1.944272e-12 -4.9577e-41 -7.928286e-24 0.0064707464 -0.002919437 4.9345e-41 -0.011370592
-6.815391e-05 -0.0016756462 -0.00039011546 5.0172e-41 4.9599e-41 4.9293e-41 0.0039371853 -0.00482325
-3.1798596e-16 -0.0017153553 3.4123907e-05 4.9397e-41 -0.0077772844 0.0011775709 -5.0267e-41 0.025156498
-0.0050066924 -4.9882e-41 -1.05449004e-16 4.9333e-41 -0.001396052 4.7525333e-05 -0.024888968 -0.011637548
00000000: 7e92 2a3d 350f b53c 1f95 9fbc b089 7e3c
00000010: eb86 963d 7b8b 45bd b089 0000 c789 0000
00000020: b0fe 9ebb 6330 413d 7cf6 b1bd bbdf be3b
00000030: 263f d1bd a9bd 923c 278d a4bb c14d a53d
00000040: c59b c0ba d537 08bd 132d 7334 2393 dab2
00000050: c64b e2bd 2bac 6cbd 3ff5 743c 08ca 0d3c
00000060: 03b2 4738 a7b6 e73c b937 b325 a189 cbb5
00000070: 402c 223d adf7 853d 3e86 1bbb d35b 92bd
00000080: b6e3 733d ca44 893c a0bf 513d d2c6 7dbd
00000090: 9bb7 6abc 456b 44bc e66d 4c3c 894b a1b6
000000a0: 4d1f 82b5 5fb6 3f3d b01d 2a3d 07db 11bd
000000b0: 4bd8 013d d0c2 cfb3 1398 9fbd 938a 0080
000000c0: ccda a43c ca6e 34bd 3046 903d c883 f8ba
000000d0: 90a0 7e3c 29e9 263d c0a6 b3b1 da62 683d
000000e0: 4a1d 283d 51ea 22bc 058a 0000 473d b3bc
000000f0: 1704 a7bd f94a b33c 296e 3c3d 1689 0080
00000100: 7a68 d03b b831 99bc 1bf7 953d d901 0fbc
00000110: acf1 3fbb 561a 19bd 4538 3bbc e774 c03b
00000120: d24c 303d d452 9abd ee25 783d fc14 903d
00000130: c790 8d3b c3ec b2b6 51be 7e3d d936 a6bc
00000140: 5af9 3fbd 2388 13bd 09c1 6eb3 6809 543d
00000150: 0774 58bd b4aa 583c e0ec 4c3d 90d8 183d
00000160: a68a 673d 8f00 ef3c f033 833c 013b 3b3c
00000170: 4e42 163d 8e88 4abd 11cb aabd 1055 d1ba
00000180: bf53 c92d 085a 54bd b604 8d3a eede 9137
00000190: 531c d43c e8f0 9d3d 327a 502d 66ab ecbd
000001a0: 0f67 5fbd b1ad 02bd c7a6 72bd fe84 92b1
000001b0: 7c8f 0080 3b31 a83b aefd 3d3d 5f9c a63c
000001c0: ba37 84bd 16a2 033d 2fe9 983a ed88 0000
000001d0: a07d d6bd 02d3 76bd 9e07 97b8 a19a 903d
000001e0: b615 b5bd 13f0 032d 6b83 74bc 377c e8ba
000001f0: 9c5b 80bd 99d8 c3bc 3c6a a73c ead7 033c
00000200: df50 18ba fad5 8dba 3c37 36b7 5d3c 203b
00000210: 6eed 2f3c 8c61 c43b 3f8a 0000 269e 0080
00000220: d9e9 0bba 190f 933c 896b 95bb f801 36bc
00000230: c2a5 5cbc eeff 5dba 28ec baa1 e531 2c3c
00000240: ecaf a717 8d2e 123b ff89 0080 498b 0000
00000250: 5908 8cbc 0f71 df38 b29c 013c 78a7 1332
00000260: 5b8c 0080 b37d 2dbc 9292 0000 5a89 0080
00000270: cb9f 2ebc 99d7 393b 3289 0080 73d6 75bc
00000280: 3b95 03bb cd4f 73b8 3156 e2ba ff16 f9ba
00000290: db88 0080 028a 0000 12ce 4fba 2689 0000
000002a0: c727 4e05 33d9 a13b 1a93 523c aa8e b51b
000002b0: f115 213c d888 0000 f4fd 37bb 068f 0000
000002c0: 73ba 063a 61ef c4ba fd0c 203c bb88 0000
000002d0: a146 073c f34f c7ba d38a 0000 9c1a 2dbc
000002e0: c3cd 693c c38a 0000 a68b 0080 1319 f498
000002f0: 8009 5bb9 370f 153c 6880 b9b8 118f 0000
00000300: 0b89 0080 f588 0080 33bd 773c 968a 0080
00000310: 668a 0080 c6af b522 8007 4a30 edba 8abb
00000320: 7a85 f6bc 8cb8 6dbc 7756 713b 8f86 d3bb
00000330: c4fb 3a2b a28a 0080 f5ee b5bc e52e fa04
00000340: 6260 6fb9 12a0 8cb9 de89 0000 7f8c 55bb
00000350: f00e 25bc deec 613a 21c1 ef39 3935 1dbb
00000360: 3063 a7bc cd69 13bc a16c a4b8 bbcc 35b8
00000370: c226 67bc f0a3 5fbb 5504 41bb d91d 5ebb
00000380: 9989 0000 e4d0 082c 338a 0080 f95a 1999
00000390: 8e08 d43b 0654 3fbb 8e89 0000 b84b 3abc
000003a0: daed 8eb8 5ba1 dbba 6988 ccb9 dc8b 0000
000003b0: 438a 0000 6989 0000 8103 813b 5b0c 9ebb
000003c0: 724e b7a5 c6d5 e0ba 4420 0f38 b389 0000
000003d0: 97d8 febb b958 9a3a 208c 0080 0015 ce3c
000003e0: 2e0f a4bb 0d8b 0080 1b26 f3a4 8589 0000
000003f0: bbfb b6ba f055 4738 f3e3 cbbc 6aab 3ebc

val_conv1.bias f4 [2]
0.05781286 -0.026733106
00000000: 2dcd 6c3d 63ff dabc
