课程设计/AlphaZero简单复现/models/policy_batch_1750.model (torch, 530639 bytes, 15 tensors)

conv1.weight f4 [32, 4, 3, 3]
0.25310466 -0.08337068 0.295826 -0.08792261 -0.06965004 -0.10875891 0.3874562 -0.1700819
0.4265643 0.19652757 -0.07213826 0.18339351 -0.07062727 -0.04727827 -0.057778694 0.19971189
-0.07765176 0.1894806 0.057577297 -0.02003588 0.0493571 -0.01844136 -0.18608366 -0.029796537
0.04662608 -0.03189983 0.0702387 0.013530132 0.007257037 -0.017171646 -0.09208849 0.117097154
0.0031807357 0.021120861 0.042447392 -0.011485672 0.35864997 0.3161851 -0.4275489 0.18319605
-0.052391287 0.34074095 -0.35619405 0.16843958 0.1397895 0.007838141 0.020024903 0.071172796
-0.1478294 -0.03341186 -0.073744476 0.2537734 -0.1103691 0.10536559 -0.057203434 -0.05373946
-0.0015862922 -0.040506143 -0.016886953 -0.02848465 0.014073453 0.00084419333 0.021135492 0.0180512
-0.12998241 0.08528765 -0.15578084 0.07883456 -0.11764861 0.137556 -0.043728333 0.18577321
0.2667089 0.20290932 -0.037743095 -0.30728105 -0.058037236 -0.2981056 0.09376227 0.23527755
-0.26691103 -0.1597365 -0.1671934 -0.10590141 0.3553954 0.19026645 0.18584351 0.12833156
-0.34539583 0.099744804 0.009080886 -0.018675836 0.051518284 -0.01421165 0.03539745 0.026443228
-0.022934033 -0.20664437 0.04431686 -0.15377153 0.10629751 0.053531244 -0.005172457 0.052404206
0.045523405 0.028936086 0.13725275 -0.1770475 0.044823505 -0.6575982 0.38421386 -0.042317122
0.42433262 -0.4755499 0.06817937 0.037894674 0.119224414 0.13455527 0.1932427 -0.3135314
0.13263203 -0.23172425 0.14946845 -0.13234828 0.05341566 0.16622232 -0.0051375623 0.07194534
-0.018120347 0.014422119 -0.048887495 0.06564244 -0.10313506 0.024310738 0.060633685 0.06725739
-0.06410994 0.084671505 0.1294529 -0.015951404 -0.10568125 -0.10817316 -0.092957534 0.12158085
-0.21577941 -0.045044873 -0.06184795 0.08589249 0.22434813 0.09480758 -0.07934415 -0.05638331
0.21205808 -0.12525393 -0.015500426 -0.1263974 0.21235888 -0.061793063 -0.06913584 0.052472793
-0.0645799 -0.13245493 -0.11076224 -0.039383095 0.039023966 0.12741046 -0.097446695 -0.05909853
-0.03959455 -0.07253616 -0.16938595 0.05982577 0.07338444 0.108702496 0.12271148 0.08581121
0.09402776 0.1403659 0.1429402 0.10966634 0.24955672 0.056053177 -0.09536017 -0.33143616
0.40006974 0.23769349 0.34900925 0.0397898 -0.035952564 0.12528577 -0.07426419 -0.12186538
-0.52703613 0.23153447 0.1268313 0.0891651 -0.11964194 -0.09079283 0.08200988 0.009369349
0.00872842 -0.09094021 0.08345867 0.01594088 0.0496967 0.022145506 0.009201286 0.025818355
0.03565376 0.10964911 0.15084511 -0.1251413 -0.07894237 -0.013831548 -0.056515574 0.1671655
-0.06775221 0.026020644 -0.10024957 0.041340765 0.0071451524 -0.14277883 0.014223625 0.004672609
0.17673957 -0.049349062 0.07703525 0.14297867 -0.055123724 0.5418943 -0.48138276 0.049382877
-0.62260467 0.37005684 -0.024362383 -0.012585985 0.0020153567 -0.00852599 0.056744147 -0.072685875
0.040012892 0.002036316 0.09809662 0.014302223 0.12484471 0.11804948 0.0034642755 -0.07098695
-0.005303147 -0.12534115 -0.024213925 -0.047925714 -0.26387504 0.14477092 0.26043016 -0.15804027
00000000: ef96 813e 3fbe aabd 8176 973e c510 b4bd
00000010: aea4 8ebd febc debd a960 c63e f329 2ebe
00000020: a366 da3e 863e 493e 39bd 93bd 82cb 3b3e
00000030: 08a5 90bd dca6 41bd 5aa9 6cbd 4681 4c3e
00000040: e307 9fbd 3407 423e 2cd6 6b3d 4922 a4bc
00000050: ac2a 4a3d 5612 97bc b78c 3ebe de17 f4bc
00000060: fdfa 3e3d 65a9 02bd 4fd9 8f3d 7dad 5d3c
00000070: 70cc ed3b 8dab 8cbc e498 bcbd a2d0 ef3d
00000080: e473 503b a805 ad3c 51dd 2d3d 662e 3cbc
00000090: f8a0 b73e 03e3 a13e b0e7 dabe bf97 3b3e
000000a0: 3f98 56bd 9975 ae3e 115f b6be 6d7b 2c3e
000000b0: fb24 0f3e 8c6b 003c 440b a43c 0bc3 913d
000000c0: 9760 17be e0da 08bd 5807 97bd 96ee 813e
000000d0: 3209 e2bd eac9 d73d 264e 6abd e81d 5cbd
000000e0: 22eb cfba c5e9 25bd 8256 8abc a458 e9bc
000000f0: 5794 663c db4c 5d3a 5724 ad3c 1ce0 933c
00000100: 1c1a 05be 4bab ae3d 0385 1fbe 0474 a13d
00000110: c1f1 f0bd 7bdb 0c3e 7b1c 33bd 553b 3e3e
00000120: 128e 883e 76c7 4f3e 8198 1abd f153 9dbe
00000130: 74b8 6dbd 4ca1 98be 6f06 c03d 99ec 703e
00000140: 90a8 88be f791 23be bf34 2bbe d7e2 d8bd
00000150: 63f6 b53e 35d5 423e c34d 3e3e 5969 033e
00000160: b9d7 b0be 0147 cc3d ffc7 143c 11fe 98bc
00000170: d604 533d fbd7 68bc ebfc 103d 789f d83c
00000180: 27e0 bbbc 959a 53be 9985 353d 4976 1dbe
00000190: 82b2 d93d 9443 5b3d b77d a9bb cba5 563d
000001a0: c076 3a3d 5f0b ed3c fc8b 0c3e f14b 35be
000001b0: da98 373d 5b58 28bf aeb7 c43e b854 2dbd
000001c0: 2042 d93e 477b f3be a0a1 8b3d 7237 1b3d
000001d0: ee2b f43d dbc8 093e 6ae1 453e 3087 a0be
000001e0: b1d0 073e 1f49 6dbe 420e 193e 4f86 07be
000001f0: 61ca 5a3d 2f36 2a3e ff58 a8bb 1458 933d
00000200: 1f71 94bc c04a 6c3c 413e 48bd 8b6f 863d
00000210: 7938 d3bd 5027 c73c 075b 783d 3ebe 893d
00000220: 124c 83bd 4168 ad3d 4d8f 043e 85ac 82bc
00000230: 696f d8bd e489 ddbd 8560 bebd 61ff f83d
00000240: 47f5 5cbe f980 38bd 4754 7dbd 67e8 af3d
00000250: 84bb 653e 7a2a c23d 307f a2bd 30f2 66bd
00000260: c125 593e 9142 00be 80f5 7dbc 526e 01be
00000270: 9b74 593e b91a 7dbd 1797 8dbd b6ed 563d
00000280: 7742 84bd 44a2 07be 50d7 e2bd 2b50 21bd
00000290: 98d7 1f3d e377 023e 2292 c7bd 4d11 72bd
000002a0: e52d 22bd d78d 94bd 8373 2dbe de0b 753d
000002b0: 954a 963d 6a9f de3d 2850 fb3d cabd af3d
000002c0: a091 c03d 14bc 0f3e ea5e 123e bf98 e03d
000002d0: cc8b 7f3e 0498 653d 314c c3bd 00b2 a9be
000002e0: f1d5 cc3e ec65 733e 57b1 b23e a1fa 223d
000002f0: ff42 13bd ea4a 003e d317 98bd 8e94 f9bd
00000300: d7eb 06bf 5f17 6d3e 10e0 013e 319c b63d
00000310: d506 f5bd 97f1 b9bd ccf4 a73d e681 193c
00000320: a601 0f3c dc3e babd 61ec aa3d 7396 823c
00000330: c48e 4b3d 7e6a b53c fec0 163c 0481 d33c
00000340: ad09 123d b68f e03d 2477 1a3e 0a25 00be
00000350: 8aac a1bd b89d 62bc e07c 67bd 6f2d 2b3e
00000360: acc1 8abd 3f29 d53c a64f cdbd ef54 293d
00000370: e221 ea3b 9d34 12be 350a 693c af1c 993b
00000380: 38fb 343e 3e22 4abd a8c4 9d3d 0069 123e
00000390: 6ac9 61bd 96b9 0a3f cd77 f6be b345 4a3d
000003a0: 0563 1fbf 1778 bd3e 9f93 c7bc 7235 4ebc
000003b0: 1314 043b 98b0 0bbc 8d6c 683d 55dc 94bd
000003c0: 8fe4 233d b773 053b e1e6 c83d df53 6a3c
000003d0: 95ae ff3d edc3 f13d e608 633b 9b61 91bd
000003e0: 05c6 adbb 6e59 00be 485c c6bc c14d 44bd
000003f0: a11a 87be d43e 143e 1a57 853e 4fd5 21be

conv1.bias f4 [32]
-0.04297159 0.12784587 0.14937155 0.02212869 -0.13339183 0.0076093306 0.0050303093 0.11627504
0.06806249 -0.08232184 0.3164952 0.009969393 -0.10066724 -0.022754872 0.009981886 0.24082577
-0.04188683 0.25547096 0.00035686148 0.04171747 0.2800488 -0.01955073 -0.061936542 0.031304196
-0.016521253 0.19765334 0.2687787 -0.023201833 -0.043453764 -0.090339586 0.1448919 -0.12886909
00000000: fa02 30bd 07ea 023e dbf4 183e 3a47 b53c
00000010: de97 08be b157 f93b 4bd5 a43b 9c21 ee3d
00000020: 5964 8b3d 5a98 a8bd a90b a23e aa56 233c
00000030: a02a cebd 6d68 babc 108b 233c 089b 763e
00000040: 8691 2bbd 17cd 823e 2319 bb39 f0df 2a3d
00000050: 8e62 8f3e da28 a0bc 2cb1 7dbd d438 003d
00000060: 9457 87bc a365 4a3e 5d9d 893e c511 bebc
00000070: 93fc 31bd f603 b9bd 8b5e 143e 42f6 03be

conv2.weight f4 [64, 32, 3, 3]
0.116171315 0.10219405 0.15562458 0.10597852 -0.010452138 0.111224934 0.025138078 0.038549274
0.07422762 0.14361638 -0.1387984 -0.04319774 -0.018765796 -0.0011303744 -0.16630444 0.009749615
0.056981504 0.15962906 -0.009298065 -0.025773928 0.095697865 -0.089663535 0.035739727 -0.034759864
-0.038774822 -0.08280248 -0.044563703 0.05234604 0.06434671 0.009399011 0.012490325 -0.116898134
0.116091006 -0.18469453 0.1221704 -0.11849582 0.03498088 0.019169351 0.0245189 0.023628162
-0.0010741648 0.027987361 -0.03868149 0.018039446 0.036725637 -0.05643951 -0.031455375 0.022526791
0.022827165 0.10692553 -0.106708564 -0.04221303 -0.014497436 -0.11707985 0.1009919 -0.042934168
-0.0068566203 -0.12699544 0.13294882 0.0362955 0.07433457 0.11500485 0.054486066 -0.04214429
-0.15523672 0.08320108 0.07596852 0.11371588 -0.18097366 0.24229747 0.053418443 -0.10226283
-0.048088104 0.083357885 -0.06869761 0.08796525 0.08193401 -0.04278224 -0.06909983 0.1429543
0.11953755 -0.045490038 0.11877092 -0.042792734 -0.011389424 -0.073271915 0.08194102 -0.062182415
0.12422678 0.060976785 0.009432585 -0.09198734 0.030058375 0.10511174 -0.05275936 -0.04128115
0.04571829 0.09108922 0.11297577 -0.013562352 -0.10866205 0.029172013 0.026965827 0.030989142
0.09575931 -0.06182915 -0.017184075 0.014833397 -0.012711353 0.0043464173 -0.021860382 0.07151125
-0.121363655 0.07308321 -0.10409696 0.026797682 0.015887389 -0.06795044 -0.0106036095 0.032608543
0.1674856 -0.034716874 -0.046465255 0.16079752 -0.0761189 0.13068268 -0.043024953 0.21491916
0.13174938 -0.026968472 0.0637186 0.09770468 -0.022674747 -0.17823587 -0.09721193 -0.009204204
0.053463217 -0.014153653 0.023499528 -0.04120788 0.08018295 -0.109308265 0.0751933 0.08651543
-0.07169574 -0.06549858 -0.11395939 -0.021626359 0.04790071 -0.006105359 0.046167456 0.20331044
0.13727427 0.061777286 0.05744164 -0.08615697 0.013577383 0.0024004218 -0.063609526 0.03096163
0.0016468231 0.06473599 -0.04362571 0.027277092 -0.03976876 0.15723576 0.17166236 -0.04394296
-0.06545193 -0.014524652 -0.14468431 -0.12286494 0.042539388 0.0022229024 0.06388452 -0.043734197
-0.020321898 0.042601522 0.008769411 -0.21550675 -0.08549795 -0.03790043 -0.008863396 0.093046986
-0.10639009 -0.105894916 0.052894305 -0.04608429 0.04576939 0.2003773 0.14361866 0.11380012
-0.022911904 0.0013054888 -0.0804595 -0.18466008 -0.36963364 0.08044758 0.11742459 -0.02917716
0.0006687098 0.026818652 -0.01097079 0.02202224 -0.11842096 -0.07640714 0.07554477 -0.025710355
0.08635013 -0.078637496 -0.030717677 0.06513467 0.050292745 -0.07652163 0.056797292 -0.18245767
0.019656673 0.19117245 -0.023368496 0.12070751 0.039089505 -0.05710289 0.050228402 -0.084018655
-0.049873117 -0.038174607 0.020794705 -0.03333304 -0.116998635 -0.0023261178 0.13282181 -0.19535013
0.05436504 0.23268874 -0.08020962 0.061140317 -0.02489438 0.05265679 -0.014381581 -0.0013819424
-0.07960717 -0.2351174 0.09240978 0.008449236 -0.04787664 -0.029014923 0.075156346 -0.02767588
0.016894247 0.078915305 0.014928118 0.07432695 0.014019065 0.03163975 -0.039313134 -0.06610889
00000000: 3aeb ed3d 1d4b d13d 0d5c 1f3e 440b d93d
00000010: 723f 2bbc e6c9 e33d 5fee cd3c d8e5 1d3d
00000020: a704 983d 2c10 133e 2b21 0ebe 1df0 30bd
00000030: baba 99bc 1229 94ba b64b 2abe d9bc 1f3c
00000040: 7065 693d cd75 233e e956 18bc d823 d3bc
00000050: 3efd c33d 84a1 b7bd d263 123d 5c60 0ebd
00000060: 59d2 1ebd 5994 a9bd 6e88 36bd cd68 563d
00000070: 35c8 833d 4ffe 193c 38a4 4c3c 4a68 efbd
00000080: 1fc1 ed3d 9020 3dbe 7a34 fa3d f0ad f2bd
00000090: 1c48 0f3d 0b09 9d3c dcdb c83c d98f c13c
000000a0: fdca 8cba c045 e53c 7b70 1ebd 76c7 933c
000000b0: 9f6d 163d 1e2d 67bd 5ad7 00bd 1b8a b83c
000000c0: 0900 bb3c c6fb da3d 058a dabd 92e7 2cbd
000000d0: a786 6dbc 8fc7 efbd d7d4 ce3d bddb 2fbd
000000e0: 80ad e0bb 180b 02be bc23 083e 97aa 143d
000000f0: b93c 983d aa87 eb3d c82c 5f3d 7e9f 2cbd
00000100: 60f6 1ebe 5465 aa3d 6295 9b3d dfe3 e83d
00000110: 2951 39be d41c 783e 4ccd 5a3d 2d6f d1bd
00000120: 08f8 44bd 8ab7 aa3d 55b1 8cbd 2027 b43d
00000130: 05cd a73d 6e3c 2fbd 3684 8dbd 9d62 123e
00000140: 1ad0 f43d c353 3abd 2b3e f33d 6f47 2fbd
00000150: b59a 3abc 960f 96bd b2d0 a73d fdb2 7ebd
00000160: 9c6a fe3d cbc2 793d 218b 1a3c dc63 bcbd
00000170: fb3c f63c d344 d73d 331a 58bd 6c16 29bd
00000180: 1a43 3b3d fc8c ba3d d75f e73d a134 5ebc
00000190: 358a debd 25fa ee3c 70e7 dc3c f1dc fd3c
000001a0: 751d c43d 9040 7dbd 9ec5 8cbc c707 733c
000001b0: 4743 50bc 646c 8e3b 8b14 b3bc 7e74 923d
000001c0: 828d f8bd a6ac 953d c930 d5bd d086 db3c
000001d0: 4526 823c 9a29 8bbd c3ba 2dbc 8990 053d
000001e0: 5881 2b3e 4833 0ebd 5a52 3ebd 1ba8 243e
000001f0: 3ae4 9bbd aed1 053e ef3a 30bd c513 5c3e
00000200: 4fe9 063e fcec dcbc e67e 823d 6419 c83d
00000210: 64c0 b9bc 7783 36be 0c17 c7bd 3bcd 16bc
00000220: 3ffc 5a3d b9e4 67bc 1582 c03c 98c9 28bd
00000230: f536 a43d 03dd dfbd f2fe 993d 002f b13d
00000240: 37d5 92bd 1f24 86bd 8a63 e9bd c329 b1bc
00000250: 8933 443d 770f c8bb 161a 3d3d 9d30 503e
00000260: a091 0c3e 2e0a 7d3d ed47 6b3d 1173 b0bd
00000270: ac73 5e3c 6550 1d3b b645 82bd 3fa3 fd3c
00000280: 37da d73a 4d94 843d dfb0 32bd 3574 df3c
00000290: 91e4 22bd 6902 213e 42c8 2f3e 89fd 33bd
000002a0: a90b 86bd cef8 6dbc 2028 14be 9da0 fbbd
000002b0: c83d 2e3d 1dae 113b e3d5 823d a122 33bd
000002c0: 1c7a a6bc ef7e 2e3d 93ad 0f3c cdad 5cbe
000002d0: 8d19 afbd 7b3d 1bbd c737 11bc 6b8f be3d
000002e0: 0ce3 d9bd 6fdf d8bd b3a7 583d e1c2 3cbd
000002f0: af78 3b3d b52f 4d3e c510 133e 0a10 e93d
00000300: bfb1 bbbc ef1c ab3a f3c7 a4bd 8817 3dbe
00000310: 9f40 bdbe b3c1 a43d 4e7c f03d f004 efbc
00000320: 5b4c 2f3a cab2 db3c d4be 33bc fc67 b43c
00000330: b086 f2bd 597b 9cbd 37b7 9a3d 869e d2bc
00000340: 56d8 b03d b20c a1bd a3a3 fbbc 5365 853d
00000350: c4ff 4d3d 5fb7 9cbd 47a4 683d 2fd6 3abe
00000360: 0807 a13c b6c2 433e 4a6f bfbc 8035 f73d
00000370: 511c 203d b8e4 69bd 4cbc 4d3d f911 acbd
00000380: c147 4cbd fa5c 1cbd a859 aa3c 3a88 08bd
00000390: fb9c efbd c871 18bb 7102 083e dd09 48be
000003a0: e0ad 5e3d f545 6e3e f144 a4bd 456e 7a3d
000003b0: 4cef cbbc a5ae 573d b9a0 6bbc 4b22 b5ba
000003c0: 1509 a3bd 9ec2 70be 5741 bd3d aa6e 0a3c
000003d0: 4c1a 44bd b4b0 edbc 92eb 993d 87b8 e2bc
000003e0: ce65 8a3c 599e a13d 1195 743c ba38 983d
000003f0: 38b0 653c af98 013d cf06 21bd 1964 87bd

conv2.bias f4 [64]
-0.049337085 0.06537041 -0.027802287 -0.036333717 0.116247796 -0.04457184 0.021196358 -0.011412295
0.002629672 -0.0044769356 0.032515496 -0.014205372 0.055895332 0.035513658 -0.048574015 0.031009158
0.03519407 -0.042434182 0.016025111 0.10817318 0.0025651567 0.059551362 0.03976355 -0.072398685
0.032439385 0.04156102 0.046462134 0.086670734 0.023596564 0.06162422 0.049012218 0.03283122
0.024467822 -0.0018590374 0.016197354 -0.033354785 0.035683073 0.008198919 0.06586499 0.11254022
0.0942298 -0.017421672 -0.07399771 -0.07591222 0.050012402 -0.04921211 0.018268911 -0.006987278
0.05220981 -0.009326062 0.015248008 0.006887488 0.057711143 0.07742523 -0.005676009 0.03858875
0.009574137 -0.027248157 0.023494361 -0.014933822 0.02567999 -0.046253156 -0.056055244 0.0057681124
00000000: af15 4abd ece0 853d 9fc1 e3bc aad2 14bd
00000010: 5313 ee3d f690 36bd fca3 ad3c a2fa 3abc
00000020: 9356 2c3b 42b3 92bb f82e 053d a6bd 68bc
00000030: 81f2 643d c576 113d 8cf5 46bd eb06 fe3c
00000040: a827 103d 77cf 2dbd 1847 833c e689 dd3d
00000050: 301c 283b 21ec 733d 1bdf 223d c345 94bd
00000060: 29df 043d e33b 2a3d 144f 3e3d 6d80 b13d
00000070: 954d c13c ae69 7c3d 09c1 483d 087a 063d
00000080: be70 c83c f2aa f3ba 50b0 843c 079f 08bd
00000090: 6a28 123d c254 063c 39e4 863d 7d7b e63d
000000a0: 8efb c03d e5b7 8ebc 1d8c 97bd de77 9bbd
000000b0: ced9 4c3d a392 49bd afa8 953c 89f5 e4bb
000000c0: f4d9 553d 57cc 18bc c8d2 793c 70b0 e13b
000000d0: 8562 6c3d 1e91 9e3d d1fd b9bb 3d0f 1e3d
000000e0: d7dc 1c3c 8737 dfbc 3f77 c03c fdac 74bc
000000f0: d85e d23c f373 3dbd 2f9a 65bd 6f02 bd3b

conv3.weight f4 [128, 64, 3, 3]
-0.01477775 -0.00088932744 0.010793058 -0.024525018 -0.06398425 0.042561125 0.029219795 -0.024403132
0.061189484 0.035937116 -0.024991607 -0.0022851473 -0.0043228157 0.017581616 0.010641886 -0.026036128
-0.012594905 -0.03114619 -0.047615517 -0.09097953 -0.10092484 -0.010090561 0.08283947 0.003261244
-0.038024757 -0.030329522 -0.044627633 0.015858915 0.0036929103 0.049790457 0.02993267 -0.017981865
0.075159 -0.004227537 0.055590436 0.013464734 0.011711675 0.060844567 0.028558182 -0.036585674
-0.016217373 0.04806928 -0.037692785 0.027403584 0.026702968 0.029759012 0.06188591 0.008783327
0.041717082 0.050658617 0.024337595 0.052304402 0.058267128 0.055918604 -0.015556842 0.030946966
0.0014471386 0.01074797 0.06458831 -0.02421583 0.07182871 0.049850013 0.03372108 0.032488145
0.0032652668 0.016880091 0.055073522 0.008364165 0.006873173 -0.0021643527 0.012623667 0.021160806
0.019134982 -0.0023186433 -0.028643284 0.0008162247 -0.015132204 -0.040872324 0.042461287 0.019172791
-0.018645573 0.06354215 0.048653144 0.025771027 0.012915079 0.024194721 -0.0076543363 0.073841244
0.0049175853 0.020149462 0.04264537 -0.048277084 -0.00065207575 -0.0149943 -0.06395777 0.02006019
0.036835227 0.043982595 0.020649426 0.06228849 0.03678818 0.120106116 0.021228462 0.0672779
-0.00444847 0.034429822 0.06278521 0.023847843 0.0073786527 0.0221204 -0.001536965 0.061013717
0.012327019 0.040148377 0.02835131 0.025214393 0.034732897 -0.013710808 -0.0027082805 -0.021805333
-0.04399786 0.012333972 -0.035331212 0.041359812 0.0039398326 0.036813192 0.07511315 0.026556049
0.040028643 0.07391665 0.09121111 0.04104894 0.06119391 0.033769384 0.03551434 0.037525445
-0.014752218 0.035409193 0.051192798 0.0074858186 -0.05721775 -0.016469194 0.028264478 -0.0028578427
0.009640489 -0.021804696 0.03730937 0.03728653 -0.013297027 0.06983777 -0.036390256 0.10475086
-0.03151556 0.10499658 -0.09081658 0.061842084 0.0018381134 -0.038912375 0.008150716 0.12497448
-0.110820785 0.11307239 -0.05176359 0.029442487 0.05686679 -0.029132163 -0.09837936 0.07547199
0.022768758 0.060055524 0.017032037 0.0067085875 0.066335335 -0.007851779 0.047106437 0.045363277
0.027310902 0.022103429 0.05996761 -0.007085231 0.016033506 -0.038423054 0.03858197 -2.5276365e-06
-0.036083147 0.034251086 -0.014129962 -0.019497124 -0.0044010454 0.051807027 0.058950447 -0.03909199
-0.011109393 -0.01187264 0.06803985 -0.06244674 0.017862702 0.041541062 0.009756881 0.06672593
-0.07320695 -0.010723832 0.02241947 -0.05406351 -0.02251749 0.10924198 -0.07253046 -0.048819933
-0.013974865 0.00046275597 0.050081227 0.040756684 -0.0050284886 -0.002278137 0.027223242 -0.06834963
-0.014251579 0.03010537 -0.004066253 0.02787318 -0.0033208323 0.018729506 0.004181217 -0.0039435932
0.046589203 -0.007870179 0.008952644 0.0014885619 0.04905092 0.02831993 0.019286081 -0.0067130607
0.03279093 0.035113227 0.009781962 0.10531627 0.028716289 -0.010061225 -0.046729486 0.053381786
0.0029886027 0.020457245 -0.011788761 0.033389498 -0.016673205 0.02852548 0.055098936 -0.006794427
-0.020853069 0.018432278 0.04318477 0.03511442 -0.000806106 -0.090519525 -0.017710613 -0.00728873
00000000: 601e 72bc c121 69ba 5ed5 303c b1e8 c8bc
00000010: 2d0a 83bd 9354 2e3d 5a5e ef3c 14e9 c7bc
00000020: d3a1 7a3d cc32 133d 33bb ccbc 69c2 15bb
00000030: 68a6 8dbb 5207 903c 4e5b 2e3c b849 d5bc
00000040: dc5a 4ebc 4b26 ffbc 7d08 43bd 7a53 babd
00000050: afb1 cebd e152 25bc bda7 a93d 98ba 553b
00000060: d9bf 1bbd 9e75 f8bc 77cb 36bd 8eea 813c
00000070: c104 723b 14f1 4b3d 5c35 f53c b44e 93bc
00000080: f6ec 993d 2787 8abb ccb2 633d 309b 5c3c
00000090: 53e2 3f3c 2738 793d d9f2 e93c dcda 15bd
000000a0: 4cda 84bc 4be4 443d c063 1abd 7b7d e03c
000000b0: 2fc0 da3c 2cc9 f33c 147c 7d3d f2e7 0f3c
000000c0: 88df 2a3d 697f 4f3d a35f c73c 243d 563d
000000d0: 83a9 6e3d e80a 653d 20e2 7ebc 7e84 fd3c
000000e0: eaad bd3a 4118 303c e046 843d 4760 c6bc
000000f0: ee1a 933d 872f 4c3d 1d1f 0a3d 4a12 053d
00000100: 16fe 553b 1e48 8a3c c694 613d da09 093c
00000110: 5b38 e13b d0d7 0dbb 7fd3 4e3c 6d59 ad3c
00000120: f7c0 9c3c 61f4 17bb 52a5 eabc eaf7 553a
00000130: 10ed 77bc bd69 27bd e3eb 2d3d 4210 9d3c
00000140: 9abe 98bc 6322 823d 8548 473d c31d d33c
00000150: c499 533c 0234 c63c 3ad1 fabb 143a 973d
00000160: b223 a13b 7c10 a53c e9ac 2e3d 31be 45bd
00000170: 10f0 2aba a7aa 75bc 4bfc 82bd 4555 a43c
00000180: 89e0 163d 1827 343d fc28 a93c 3722 7f3d
00000190: 34af 163d 32fa f53d 50e7 ad3c ffc8 893d
000001a0: 79c4 91bb 4906 0d3d 8895 803d 8d5c c33c
000001b0: a0c8 f13b d735 b53c fd73 c9ba 85e9 793d
000001c0: 44f7 493c a072 243d 0241 e83c 6a8e ce3c
000001d0: 1544 0e3d 4ca3 60bc 687d 31bb 19a1 b2bc
000001e0: 1a37 34bd 6e14 4a3c 76b7 10bd e868 293d
000001f0: b619 813b 6ec9 163d ecd4 993d 128c d93c
00000200: 13f5 233d 9d61 973d e4cc ba3d ef22 283d
00000210: 77a6 7a3d c451 0a3d 7c77 113d 48b4 193d
00000220: 49b3 71bc 3b09 113d 8aaf 513d 994b f53b
00000230: 295d 6abd 67ea 86bc e88a e73c a54a 3bbb
00000240: 24f3 1d3c c39f b2bc b6d1 183d c3b9 183d
00000250: c6db 59bc 1b07 8f3d f30d 15bd 9e87 d63d
00000260: 7616 01bd 7208 d73d 0bfe b9bd 204e 7d3d
00000270: daec f03a 9562 1fbd 958a 053c 9ff2 ff3d
00000280: 02f6 e2bd 7f92 e73d 0f06 54bd 5f31 f13c
00000290: 27ed 683d 93a6 eebc 1e7b c9bd 0f91 9a3d
000002a0: 8c85 ba3c c8fc 753d c586 8b3c b6d3 db3b
000002b0: d2da 873d c0a4 00bc aef2 403d d8ce 393d
000002c0: 1dbb df3c 4012 b53c 99a0 753d 3a2b e8bb
000002d0: b358 833c 7e61 1dbd 2108 1e3d 77a0 29b6
000002e0: eccb 13bd de4a 0c3d 5b81 67bc 6fb8 9fbc
000002f0: a536 90bb 9b33 543d 0676 713d ec1e 20bd
00000300: 2c04 36bc 7685 42bc 7a58 8b3d 27c8 7fbd
00000310: cd54 923c f626 2a3d 53db 1f3c 9ba7 883d
00000320: 87ed 95bd 03b3 2fbc 09a9 b73c b371 5dbd
00000330: 9976 b8bc 42ba df3d da8a 94bd 69f7 47bd
00000340: d5f6 64bc 0e9e f239 f921 4d3d 7bf0 263d
00000350: 05c6 a4bb cc4c 15bb 4703 df3c e4fa 8bbd
00000360: 747f 69bc 899f f63c 343e 85bb 4c56 e43c
00000370: 52a2 59bb 9f6e 993c 9702 893b 4239 81bb
00000380: 52d4 3e3d ecf1 00bc 1cae 123c d91b c33a
00000390: 9ee9 483d 33ff e73c d8fd 9d3c 3cf9 dbbb
000003a0: c84f 063d e3d2 0f3d 8644 203c 0eb0 d73d
000003b0: 6c3e eb3c d6d7 24bc 6b67 3fbd dca6 5a3d
000003c0: 6fdc 433b f495 a73c a625 41bc 6dc3 083d
000003d0: 3f96 88bc 44ae e93c 6caf 613d c9a3 debb
000003e0: 0ed4 aabc 4aff 963c 83e2 303d 23d4 0f3d
000003f0: dc50 53ba 4d62 b9bd d915 91bc 4cd6 eebb

conv3.bias f4 [128]
0.014681229 0.029784882 -0.026495688 -0.011339879 0.011408308 0.0450729 4.5254e-41 -3.626706e-08
-0.034790307 0.0100200195 0.048206497 0.01159996 0.02379589 0.008203973 -0.0080193635 0.012885283
-0.036481846 0.007151834 -6.851941e-21 -2.263875e-26 0.026709 0.002801944 -0.0051716003 -0.04395996
-1.2495177e-08 -0.05082531 2.229095e-39 -7.8968994e-17 0.010837567 -0.014092774 -3.928275e-08 0.023379873
0.01525529 -0.028171727 0.015727134 0.016206145 -0.037638716 -0.023912441 -3.3232757e-07 -3.4302292e-12
-0.060508993 -0.006717052 0.05571777 0.0071523795 -0.00475263 0.0059675868 0.018204214 -0.004077645
-0.01556011 0.029905964 -0.010462133 0.016948385 -0.00820374 -0.0028068565 -2.6706973e-16 -0.006848663
-0.0020259211 -0.023688648 0.017638862 0.020924278 0.03665329 -0.04500317 0.030977873 0.00012157813
0.019684963 0.07898316 0.0022936377 0.016210973 -0.01514655 0.0025261086 0.026019622 -0.030947218
-0.0013618342 0.044081233 -0.0613101 -0.021117583 -0.010870996 -4.6061923e-15 0.015505178 -0.009493857
0.061404843 0.04491649 -0.0019390503 0.007874664 0.07106575 0.036178004 -0.027078414 -0.025162559
-0.040228005 -0.01626261 0.01659768 -0.08525527 -0.0014692481 0.062669314 0.01857641 0.013904958
-6.274927e-25 0.0071841544 -8.97377e-25 -0.039899584 -0.060831793 -0.008324459 -1.2879135e-18 0.06254033
0.057163797 0.0046699164 0.053584393 -4.112024e-12 -1.6056445e-06 -0.0005370586 0.03923917 -0.021141848
0.03130005 0.022704817 0.036188707 -0.0017851653 0.02039256 -0.019315114 -3.8516237e-08 -0.00794476
0.012753975 -0.007455042 -0.09712563 -2.6552934e-20 0.07508779 0.011318168 -0.03987722 0.004742056
00000000: 8a89 703c 6dff f33c 7c0d d9bc e6ca 39bc
00000010: e9e9 3a3c 5c9e 383d 267e 0000 0ec4 1bb3
00000020: 4880 0ebd 022b 243c 2d74 453d c20d 3e3c
00000030: 99ef c23c f569 063c a663 03bc cb1c 533c
00000040: fd6d 15bd ef59 ea3b f46d 019e 0d34 e094
00000050: d5cc da3c d2a0 373b 8776 a9bb 5c0f 34bd
00000060: 5faa 56b2 332e 50bd cf45 1800 1117 b6a4
00000070: 0d90 313c 61e5 66bc d7b7 28b3 2687 bf3c
00000080: 53f1 793c 65c8 e6bc 31d6 803c c0c2 843c
00000090: 0e2b 1abd 06e4 c3bc c16a b2b4 8461 71ac
000000a0: 47d8 77bd b71a dcbb 5138 643d 825e ea3b
000000b0: f3bb 9bbb bf8b c33b 0121 953c c49d 85bb
000000c0: d5ef 7ebc 5afd f43c 5e69 2bbc 57d7 8a3c
000000d0: fb68 06bc 3df3 37bb 89f4 99a5 c06a e0bb
000000e0: 51c5 04bb b20e c2bc 607f 903c 6469 ab3c
000000f0: c321 163d 3e55 38bd 4fc5 fd3c c3f7 fe38
00000100: 5c42 a13c ecc1 a13d db50 163b e0cc 843c
00000110: 3c29 78bc 128d 253b 1a27 d53c 0585 fdbc
00000120: 937f b2ba 868e 343d 4d20 7bbd c8fe acbc
00000130: 431c 32bc a0f4 a5a7 6e09 7e3c 1f8c 1bbc
00000140: a583 7b3d 5afa 373d bb27 feba bc04 013c
00000150: ec8a 913d 632f 143d 8dd3 ddbc b621 cebc
00000160: 1fc6 24bd 2a39 85bc dcf7 873c 519a aebd
00000170: c993 c0ba c558 803d 8e2d 983c 9fd1 633c
00000180: 1833 4297 0e69 eb3b c4dc 8a97 bf6d 23bd
00000190: c22a 79bd 5063 08bc ff0f bea1 2515 803d
000001a0: 9624 6a3d 1906 993b 4f7b 5b3d d2ad 90ac
000001b0: 8681 d7b5 64c9 0cba 40b9 203d ab31 adbc
000001c0: 7b34 003d 74ff b93c 9c3a 143d 35fc e9ba
000001d0: 4c0e a73c bb3a 9ebc 0d6d 25b3 bd2a 02bc
000001e0: 0cf6 503c 6d49 f4bb cde9 c6bd 0ec9 fa9e
000001f0: a1c7 993d d66f 393c 4c56 23bd 4063 9b3b

act_conv1.weight f4 [4, 128, 1, 1]
0.018477067 0.12692992 -0.12141655 0.05146059 0.1276031 -0.10461006 0.0029574267 0.00090585684
-0.0926917 0.12366138 -0.047815334 0.07653889 0.06656144 -0.023932638 -0.04558728 0.009476957
0.07177137 0.13443643 4.8477053e-05 -4.944e-41 0.085453585 0.07513769 0.11098237 0.22198623
-4.9777e-41 -0.0607972 -0.0004257804 4.9317e-41 0.023511944 0.06087154 -1.546331e-05 0.024763132
-0.061975904 0.0054882313 0.28609708 0.04713405 0.11978926 -0.092073604 0.0002642701 4.9058e-41
0.09741348 0.06852095 0.10734568 -0.18102507 -0.15477718 0.032934494 0.07565843 0.0076842983
0.14884584 -0.089851566 0.22274767 0.32337826 0.07780942 -0.030589998 4.9124e-41 -0.029168906
-0.054841805 -0.059144136 -0.07013733 -0.029334081 -0.07944493 -0.030256717 -0.16688167 0.00574157
0.122773536 0.2850882 0.0025818273 0.14314078 0.12616377 -0.11209249 0.13426095 0.16478518
-0.029796544 -0.0274849 0.018117953 0.13157955 0.0770663 -3.3015531e-31 0.03579744 0.31668237
0.01407369 0.07193789 6.290921e-10 -0.04219542 -0.1227554 0.114455156 0.059225716 -0.06235069
0.06387562 0.09323573 0.084601626 -0.09368144 -0.00067029026 0.003334087 -0.03790665 0.076445825
-4.9694e-41 0.1489913 -2.3893786e-05 -0.18609901 -0.025215091 0.11210377 -6.7848646e-06 0.007182213
-0.12502676 -0.03120037 0.118575044 -4.955e-41 0.00020562009 -4.9491e-41 0.09106019 -0.1693818
0.039625995 0.12099403 0.16937758 -0.006894031 0.09167328 -0.020413777 -4.908e-41 -0.07270043
-0.08329403 0.26425123 -0.038554303 -4.9275e-41 -0.05522454 -0.09221849 0.14058243 -0.03967202
0.030867262 -0.040368736 0.097760096 -0.011322689 0.093712345 -0.008156799 -0.00078307715 -8.201376e-11
-0.25755686 0.019283932 0.012291503 -0.038421802 -0.023102159 -0.017369794 0.069971345 -0.18170708
-0.17921267 -0.103525646 4.9483e-41 -5.1819e-41 0.0075581386 -0.03081749 -0.00027638383 0.20625958
-4.9485e-41 -0.004415224 -3.8428447e-09 -4.9047e-41 0.28432748 -0.063502885 4.0751692e-07 0.035279777
0.046415165 0.035896823 0.09070349 -0.024865564 -0.17608199 0.12473658 -7.93965e-08 -4.9442e-41
0.04011479 -0.21956007 0.057887845 0.08684271 0.30656976 0.027442575 -0.03221772 -0.0035155292
0.10558918 0.080592886 -0.007294877 0.040422507 -0.09838328 5.2144373e-05 4.9607e-41 -1.8285806e-05
-2.0258797e-07 0.05335107 -0.071512744 -0.0009126317 0.123121 -0.24616957 0.39261657 0.0041662166
0.49456418 -0.07028154 0.076128244 0.0012595928 0.06796639 0.09473058 0.15689047 0.17573687
-5.1905074e-05 0.005090929 -0.102022596 -0.14259124 0.25457174 -4.9111e-41 0.29231402 0.088149376
0.12628339 -0.023191705 4.735896e-14 0.02106215 0.03264067 0.002417173 -0.048626244 0.044437584
0.22720174 0.07808815 0.0645294 0.07850267 0.11478801 -0.026762255 0.030240098 -0.09371118
5.3106e-41 0.068308234 4.9165e-41 0.06386375 -0.16649729 -0.065145604 -4.9128e-41 -0.0022854721
0.0064387866 0.17795904 -0.03175271 -4.9867e-41 -4.92e-41 6.0643e-41 0.056224037 0.05319473
0.09717958 -0.043721836 -0.14706597 0.0047223675 -0.020764064 0.085338205 -4.9714e-41 -0.02047739
0.020666257 -0.023955163 0.10182173 -4.9675e-41 0.009251337 0.061227113 0.116895184 -0.033685096
00000000: 385d 973c ebf9 013e 3da9 f8bd 57c8 523d
00000010: 63aa 023e cd3d d6bd 63d1 413b 0677 6d3a
00000020: 25d5 bdbd 2d42 fd3d 03da 43bd 6cc0 9c3d
00000030: 5d51 883d 610e c4bc bab9 3abd 3d45 1b3c
00000040: defc 923d b4a9 093e d753 4b38 d289 0080
00000050: 4a02 af3d cae1 993d ba4a e33d 5c50 633e
00000060: c28a 0080 7c06 79bd 473b dfb9 7a89 0000
00000070: 1f9c c03c 7054 793d 35b7 81b7 0ddc ca3c
00000080: 72da 7dbd 9fd6 b33b 517b 923e a20f 413d
00000090: 1254 f53d 1691 bcbd bb8d 8a39 c188 0000
000000a0: b880 c73d b654 8c3d 0dd8 db3d a35e 39be
000000b0: e97d 1ebe 52e6 063d cff2 9a3d 91cc fb3b
000000c0: 0b6b 183e 1904 b8bd f717 643e d691 a53e
000000d0: 8c5a 9f3d e097 fabc f088 0000 a1f3 eebc
000000e0: cda1 60bd 1f41 72bd 29a4 8fbd 074e f0bc
000000f0: 06b4 a2bd efdc f7bc 07e3 2abe c823 bc3b
00000100: b170 fb3d 15f7 913e e033 293b 7f93 123e
00000110: 1331 013e bf90 e5bd b47b 093e 72bd 283e
00000120: e217 f4bc 0328 e1bc 1a6c 943c cabc 063e
00000130: f0d4 9d3d 7648 d68c 56a0 123d 3124 a23e
00000140: 5695 663c 2c54 933d 6cec 2c30 1bd5 2cbd
00000150: 2f67 fbbd 7767 ea3d aa96 723d 7063 7fbd
00000160: 39d1 823d 60f2 be3d 9e43 ad3d 0edc bfbd
00000170: 6bb6 2fba b380 5a3b 0144 1bbd a18f 9c3d
00000180: 878a 0080 2d91 183e 846f c8b7 bd90 3ebe
00000190: e18f cebc a996 e53d 8ba9 e3b6 c558 eb3b
000001a0: 0407 00be eb97 ffbc 79d7 f23d 208a 0080
000001b0: b99b 5739 f689 0080 c47d ba3d 6c72 2dbe
000001c0: de4e 223d b8cb f73d 5171 2d3e 53e7 e1bb
000001d0: 33bf bb3d cb3a a7bc d188 0080 f7e3 94bd
000001e0: 0f96 aabd f04b 873e 1eeb 1dbd 5c89 0080
000001f0: 2133 62bd 0cdd bcbd d7f4 0f3e 217f 22bd
00000200: 57dd fc3c b059 25bd 7236 c83d cd82 39bc
00000210: 42ec bf3d 18a4 05bc 6b47 4dba a459 b4ae
00000220: 7ede 83be 56f9 9d3c 4d62 493c 2e60 1dbd
00000230: bd40 bdbc 194b 8ebc 234d 8f3d 6c11 3abe
00000240: 8783 37be 4105 d4bd f089 0000 7390 0080
00000250: 43aa f73b f674 fcbc 9ce7 90b9 b635 533e
00000260: f289 0080 95ad 90bb 050a 84b1 b988 0080
00000270: 5f93 913e cd0d 82bd b3c8 da34 8781 103d
00000280: d41d 3e3d 8c08 133d c0c2 b93d deb2 cbbc
00000290: d64e 34be e475 ff3d b080 aab3 d389 0080
000002a0: 684f 243d 5bd4 60be ce1b 6d3d 97da b13d
000002b0: b6f6 9c3e 40cf e03c baf6 03bd cb64 66bb
000002c0: 243f d83d e20d a53d dd09 efbb 1292 253d
000002d0: 2c7d c9bd 98b5 5a38 498a 0000 7864 99b7
000002e0: f586 59b4 a786 5a3d 4675 92bd ad3d 6fba
000002f0: dd26 fc3d e013 7cbe 0a05 c93e c284 883b
00000300: 8437 fd3e c5ef 8fbd 20e9 9b3d ec18 a53a
00000310: f631 8b3d 1b02 c23d e5a7 203e 5ef4 333e
00000320: a6b4 59b8 cfd1 a63b 39f1 d0bd 7003 12be
00000330: 3a57 823e e788 0080 2faa 953e a987 b43d
00000340: 6f50 013e 88fc bdbc 2a49 5529 888a ac3c
00000350: 39b2 053d 6f69 1e3b 502c 47bd 2f04 363d
00000360: 93a7 683e aeec 9f3d fd27 843d 02c6 a03d
00000370: fa15 eb3d 843c dbbc 15ba f73c a6eb bfbd
00000380: 0a94 0000 30e5 8b3d 0d89 0000 ffca 823d
00000390: 447e 2abe 0f6b 85bd f388 0080 dcc7 15bb
000003a0: 75fc d23b e53a 363e 210f 02bd 028b 0080
000003b0: 2689 0080 0ca9 0000 2d4b 663d b8e2 593d
000003c0: 1606 c73d ab15 33bd 7698 16be 17be 9a3b
000003d0: 6619 aabc ccc5 ae3d 958a 0080 33c0 a7bc
000003e0: 484c a93c 9e3d c4bc e987 d03d 798a 0080
000003f0: eb92 173c 48c9 7a3d be66 ef3d 62f9 09bd

act_conv1.bias f4 [4]
0.03389889 0.013390427 -0.0076614073 0.12862717
00000000: 90d9 0a3d 8663 5b3c 8b0c fbbb d7b6 033e

act_fc1.weight f4 [81, 324]
0.051776025 0.018392444 0.03773076 -0.014548597 0.032587066 -0.019143336 0.00017150101 0.006222113
-0.038537435 0.04259118 -0.0035493858 -0.038140047 -0.064401045 -0.018902602 -0.0052382313 -0.01835983
-0.010724863 0.0046695336 0.019519055 0.034120794 -0.04651177 -0.055372752 -0.035666954 -0.07044609
0.044432096 0.027614899 -0.00715777 0.028998692 -0.02436888 -0.030245427 -0.09617673 -0.048806548
0.0030807273 -0.07320143 0.013726229 -0.056760587 0.012871474 -0.017795296 -0.08408754 -0.06885012
-0.03219336 -0.061364636 -0.07889754 -0.028741777 -0.014813348 0.059285298 -0.0829416 -0.04742915
-0.045393225 -0.18440413 -0.047361117 -0.05536365 -0.06183796 -0.0018216309 0.1016286 0.010666976
-0.06414146 -0.114483476 -0.031502463 -0.023119884 -0.02711346 -0.041441377 -0.048029408 0.27740058
-0.094914 -0.0327483 -0.026078843 -0.1025332 0.0006766367 -0.020827072 0.00096088764 0.009310088
0.30042517 0.29923454 -0.050575063 0.0021357986 -0.0038753941 -0.018674266 -0.016257536 0.03363155
0.015704075 -0.04822707 -0.024394473 -0.048867658 0.045083098 -0.0031767108 -0.037961543 -0.045189273
-0.043597825 -0.00794546 -0.03797494 -0.03740816 -0.0077703223 -0.013625987 0.007954926 -0.0040111556
-0.05848727 -0.038351703 -0.037355267 0.06106956 0.008823002 -0.034454748 0.032110784 0.030612484
0.0053241025 0.0002257217 -0.017918743 -0.0056582824 0.04935476 -0.06656623 -0.014488453 -0.005299727
-0.011862221 -0.080226064 0.0032669385 -0.021585532 -0.04682542 -0.014152932 -0.002941309 -0.031828277
0.060911395 0.014034205 0.021971483 -0.010384782 0.041148856 0.011191234 -0.06027394 0.03655112
0.14069797 0.004308857 -0.0017343748 0.0163192 0.01878484 0.0154722715 0.08311205 -0.02933617
0.025119036 0.025366396 0.06472091 -0.047821462 -0.028712977 -0.030121496 -0.008621246 0.012280891
-0.22078012 0.0054944977 0.034711435 -0.016920973 0.0038042492 -0.025594456 -0.0068977363 -0.011166226
-0.036530066 -0.18877208 -0.08799819 -0.00463904 0.051725518 0.03225814 0.009206772 -0.006616518
-0.04053577 0.009188451 -4.9289e-41 4.9424e-41 -4.9373e-41 4.1680575e-31 -1.674053e-39 -9.750637e-34
-4.9064e-41 -2.8118e-41 4.918e-41 -4.9345e-41 3.6816566e-27 9.938127e-21 6.0649804e-16 1.524299e-19
4.052406e-18 1.8729057e-23 4.326626e-24 -9.356e-42 4.9052e-41 1.1055165e-18 5.839296e-15 9.425251e-14
3.915125e-14 1.8083334e-15 3.3494552e-16 2.456673e-19 -1.2028232e-33 -4.9153e-41 1.8788988e-16 1.974751e-16
2.5931887e-12 5.103838e-15 2.9031917e-15 7.752657e-18 5.326797e-23 -1.2278e-41 5.8385e-41 1.5525835e-18
4.6224324e-16 2.5752078e-12 1.3946282e-17 7.331719e-18 9.879387e-28 -5.128764e-36 4.9379e-41 4.9312e-41
4.028622e-18 3.1731686e-16 1.0301909e-13 1.5173265e-16 5.3950543e-22 -2.1475233e-31 -1.9653e-41 4.9228e-41
-4.9188e-41 3.0060584e-21 2.866355e-20 1.5557674e-13 1.5268324e-21 1.2218798e-22 -1.4102587e-30 4.9137e-41
-4.93e-41 4.941e-41 4.3376197e-33 1.507331e-22 2.448843e-21 1.5416704e-25 -1.6573515e-30 -7.399311e-31
-4.9158e-41 4.9253e-41 -4.911e-41 4.9047e-41 -4.9085e-41 -4.9135e-41 -4.91e-41 -4.9218e-41
-4.9286e-41 4.9141e-41 -4.9072e-41 0.08814266 0.053580176 0.0032374898 0.017162878 0.035305273
0.032395218 -0.010722329 0.035580207 0.052578785 0.018810676 -0.011482715 0.015212707 0.030861123
00000000: 1913 543d c0ab 963c 928b 1a3d 3d5d 6ebc
00000010: 047a 053d 7cd2 9cbc f4d4 3339 dee2 cb3b
00000020: 6ed9 1dbd 1774 2e3d d09c 68bb bd38 1cbd
00000030: b2e4 83bd a1d9 9abc 78a5 abbb 5b67 96bc
00000040: 56b7 2fbc e302 993b 6de6 9f3c 3fc2 0b3d
00000050: 2083 3ebd 8ace 62bd 8317 12bd 0a46 90bd
00000060: 6efe 353d a438 e23c ba8b eabb aa8e ed3c
00000070: 3fa1 c7bc 42c5 f7bc 4ef8 c4bd 60e9 47bd
00000080: 07e6 493b a2ea 95bd fae3 603c ca7d 68bd
00000090: e0e2 523c 71c7 91bc 1736 acbd 4b01 8dbd
000000a0: 2fdd 03bd 7c59 7bbd 0995 a1bd e073 ebbc
000000b0: afb3 72bc 24d5 723d 49dd a9bd 1245 42bd
000000c0: 3fee 39bd 70d4 3cbe bbfd 41bd ffc4 62bd
000000d0: cd49 7dbd cac3 eeba a822 d03d 8ac4 2e3c
000000e0: 995c 83bd 5076 eabd ba08 01bd e965 bdbc
000000f0: 0c1d debc 6fbe 29bd 7cba 44bd 7307 8e3e
00000100: 4562 c2bd 1523 06bd 4ca3 d5bc edfc d1bd
00000110: 5260 313a 899d aabc 14e4 7b3a 5789 183c
00000120: 54d1 993e 4535 993e cc27 4fbd c1f8 0b3b
00000130: 53fa 7dbb c6fa 98bc 862e 85bc 3cc1 093d
00000140: d5a5 803c c089 45bd ebd6 c7bc 7429 48bd
00000150: 0ea9 383d 5d30 50bb 907d 1bbd 6318 39bd
00000160: a293 32bd ad2d 02bc 9c8b 1bbd 4c39 19bd
00000170: 309e febb 883f 5fbc 6155 023c 0370 83bb
00000180: 5990 6fbd ad16 1dbd d601 19bd 1324 7a3d
00000190: 5a8e 103c 6c20 0dbd 9986 033d 08c7 fa3c
000001a0: cf75 ae3b b5af 6c39 54ca 92bc 1d69 b9bb
000001b0: 3828 4a3d e053 88bd fa60 6dbc 55a9 adbb
000001c0: c359 42bc 904d a4bd 221a 563b 24d4 b0bc
000001d0: 03cc 3fbd b3e1 67bc fac2 40bb 5e5e 02bd
000001e0: 3a7e 793d b9ef 653c 8afd b33c ef24 2abc
000001f0: b48b 283d 705b 373c cfe1 76bd a1b6 153d
00000200: 2113 103e 5031 8d3b f653 e3ba d8af 853c
00000210: aae2 993c 697f 7d3c a736 aa3d 6852 f0bc
00000220: 70c6 cd3c 30cd cf3c 658c 843d 70e0 43bd
00000230: 7a37 ebbc 5bc1 f6bc 2040 0dbc ca35 493c
00000240: 2f14 62be 300b b43b 942d 0e3d da9d 8abc
00000250: b650 793b 77ab d1bc 6806 e2bb 8cf2 36bc
00000260: 8da0 15bd 784d 41be 6538 b4bd 1703 98bb
00000270: 23de 533d 1d21 043d 00d8 163c 60cf d8bb
00000280: d608 26bd 288b 163c 6689 0080 c689 0000
00000290: a289 0080 de42 070d 943a 1280 9f02 a288
000002a0: c588 0080 624e 0080 1889 0000 8e89 0080
000002b0: 6fd8 9113 d5b9 3b1e a8cf 2e26 1cf5 3320
000002c0: e481 9522 e622 b519 d460 a718 151a 0080
000002d0: bd88 0000 3c25 a321 0062 d227 df3c d429
000002e0: 5152 3029 dd4d 0227 3c15 c125 3104 9120
000002f0: 71da c788 0589 0080 4e9f 5825 5dac 6325
00000300: bc7a 362c 99e2 b727 6f32 5127 e302 0f23
00000310: 47cb 801a 3a22 0080 c1a2 0000 f21e e521
00000320: 883b 0526 d236 352c baa1 8023 103f 0723
00000330: 8e8b 9c12 4b27 da84 a689 0000 7689 0000
00000340: 42a1 9422 b4eb b625 76fa e729 93ef 2e25
00000350: 360e 231c da61 8b8c c936 0080 3a89 0000
00000360: 1e89 0080 a021 631d 1b5c 071f f129 2f2a
00000370: 78ba e61c 59b7 131b dbd3 e48d f988 0000
00000380: 6e89 0080 bc89 0000 7c2d b409 a339 361b
00000390: 8307 391d 7cd9 3e16 d875 068e 121f 708d
000003a0: 0889 0080 4c89 0000 e688 0080 b988 0000
000003b0: d488 0080 f888 0080 df88 0080 3389 0080
000003c0: 6489 0080 fc88 0000 cb88 0080 2484 b43d
000003d0: e376 5b3d 112c 543b 2a99 8c3c 439c 103d
000003e0: d9b0 043d b5ac 2fbc 8dbc 113d da5c 573d
000003f0: d918 9a3c ff21 3cbc b83e 793c 77d0 fc3c

act_fc1.bias f4 [81]
0.10504527 -0.011060157 -0.16719198 0.10691514 0.11521975 0.103042476 -0.11242304 -0.016260024
0.07474529 -0.00601291 -0.07310191 0.10230656 0.055115074 0.24241059 0.071616635 0.07845955
-0.16564035 -0.019882724 -0.15230115 0.13328594 0.003744248 0.21074148 -0.07329676 0.17274776
0.009837603 0.13720448 -0.10635144 0.07037419 0.04075544 0.114324436 0.11662111 0.19213895
0.08657375 0.16605689 0.045172583 0.09794021 0.094991274 0.19721118 -0.022714974 0.23949116
-0.0521967 0.2745019 -0.078728564 0.21594994 0.087750115 0.0751869 0.055134222 0.14038429
0.09964303 0.23247355 0.061562628 0.19083844 0.018478537 0.07168798 -0.15583076 0.12212313
0.08313005 0.21588652 -0.079537295 0.12252411 -0.013507783 0.13851175 -0.119583875 -0.05264224
-0.122101806 0.121171124 0.051857915 0.16082692 0.03552188 0.12150209 -0.13629484 -0.021305554
0.04043022 -0.061127186 -0.15246621 0.09629438 0.063835554 0.08165893 -0.13442864 -0.02262004
0.08436764
00000000: f921 d73d a935 35bc 6034 2bbe 53f6 da3d
00000010: 55f8 eb3d ef07 d33d 0d3e e6bd be33 85bc
00000020: 0f14 993d f207 c5bb 74b6 95bd 1a86 d13d
00000030: 58c0 613d 7b3a 783e beab 923d 67af a03d
00000040: a09d 29be 18e1 a2bc d5f4 1bbe 1c7c 083e
00000050: 0f62 753b 9dcc 573e 9d1c 96bd cae4 303e
00000060: e62d 213c 557f 0c3e c9ce d9bd 5820 903d
00000070: 2def 263d ee22 ea3d 0cd7 ee3d 13c0 443e
00000080: 944d b13d d10a 2a3e e306 393d e094 c83d
00000090: c98a c23d baf1 493e c114 babc 2c3d 753e
000000a0: 35cc 55bd 838b 8c3e 713c a1bd fb21 5d3e
000000b0: 55b6 b33d 97fb 993d 6cd4 613d e6c0 0f3e
000000c0: a511 cc3d 8c0d 6e3e 1829 7c3d 276b 433e
000000d0: 4d60 973c 26d1 923d 1992 1fbe b11b fa3d
000000e0: 1640 aa3d 5b11 5d3e 73e4 a2bd eced fa3d
000000f0: c04f 5dbc 06d6 0d3e 64e8 f4bd 649f 57bd
00000100: 8310 fabd 9128 f83d f768 543d d0af 243e
00000110: 647f 113d 16d6 f83d e090 0bbe fc88 aebc
00000120: 299a 253d 8060 7abd 1a20 1cbe fd35 c53d
00000130: 37bc 823d cc3c a73d a9a7 09be aa4d b9bc
00000140: f1c8 ac3d

val_conv1.weight f4 [2, 128, 1, 1]
0.04602118 0.027864197 0.038922645 0.020845033 0.103572264 -0.058321923 4.9393e-41 4.9425e-41
-0.10526551 0.07914951 -0.08004603 0.011273529 -0.09553175 -0.027694581 0.10379861 0.15930067
-0.034148984 -0.02741107 4.9393e-41 -4.9153e-41 -0.102412924 -0.047891907 0.019589363 0.0993271
-2.8172e-41 0.2654178 4.9275e-41 4.9265e-41 0.0411906 0.004228635 -0.0010734188 -0.3089415
0.08703441 0.009495223 0.10627912 -0.05613254 -0.0034185979 -0.01992079 0.0011842633 4.9089e-41
-9.428686e-06 0.065602064 -0.017115265 0.04589098 0.051825806 -0.03827337 -0.06493838 -0.00517698
0.06991954 -0.02697887 -0.08991522 -0.044346523 0.018471735 0.012470051 4.9274e-41 0.029935641
0.016697371 0.14377627 -0.049004983 -0.0013394668 -0.15490676 0.05110019 0.07575841 0.0054905033
0.1516273 -0.038240712 0.093391046 0.040830184 0.023141196 0.032600217 0.019496027 0.047011692
0.025599567 -0.07709006 0.10777277 0.11372767 -0.24359973 4.919e-41 0.1069036 -0.048866954
-0.026587632 -0.016586784 -4.0697304e-14 0.101014055 -0.06269255 0.025195558 0.052979097 -0.1078111
0.079882205 0.03568432 0.03567873 0.075520016 0.039733518 -0.012789582 -0.08122551 0.0041874717
4.9236e-41 0.009393278 1.2252087e-16 0.06528891 0.1269934 0.09760711 4.9347e-41 -0.10599629
-0.07749244 -0.13384318 -0.04742398 4.9118e-41 -5.1472e-41 2.4564787e-14 0.008965058 0.048884492
-0.04279508 0.034113515 -0.011541157 -0.015029538 -0.09578374 -0.080243975 3.7101e-41 0.09862376
-0.09195528 0.1377992 -0.11883017 -1.1132566e-13 -0.062262654 0.040080655 0.02533858 -0.0045306743
0.0019619633 0.008002265 0.011757009 0.0020991883 -0.12021451 0.00787928 4.9593e-41 -5.6733e-41
-0.080073126 -0.05562944 0.0006619634 0.011044761 -0.00018614609 0.09793353 0.010110471 -0.024479289
-0.021330854 0.0017795134 -4.9504e-41 4.9966e-41 -0.010294575 0.0009772965 -0.058059044 -0.04439082
-5.035e-41 0.02872963 5.2701e-41 -4.9272e-41 -0.03705777 -0.08089741 -0.0016791184 -0.08655978
0.058211464 0.0010991702 0.09914253 -0.0017763374 0.17222205 0.13627309 -1.1378379e-23 4.92e-41
0.10088058 -0.03657793 -0.088667944 0.0041618105 0.056288972 -0.0038523432 0.0024331703 0.001730296
0.1396413 -0.0077139074 0.017464112 0.018963497 0.0054751653 -1.0844199e-11 4.9801e-41 -1.2472876e-07
-2.0531274e-05 0.0015870681 -0.19482754 0.004378428 -0.018200012 0.10255764 0.13032764 -0.016015708
0.1874663 0.10833634 0.076718874 -0.0029660044 0.03131613 0.010612632 -0.029833376 -0.040036753
-1.0996396e-06 -0.0022112727 0.14183442 -0.07615802 -0.063036315 -4.9732e-41 -0.10667696 0.11214252
0.056694068 0.0056034443 -0.002072035 0.072231516 0.004642889 0.018807957 0.004892455 -0.2040629
-0.028676229 -0.06238863 0.035266 -0.13782701 0.015066941 0.09434329 -0.001166637 0.0134357475
4.9361e-41 0.034657855 -4.9577e-41 -0.00826388 0.02641025 -0.130505 4.9345e-41 0.0007590725
0.011840413 0.07641599 0.0011644851 5.0172e-41 4.9599e-41 4.9293e-41 -0.119237974 -0.07392143
0.03356242 0.0078012645 0.08828586 -0.003131949 0.0011976759 0.015549748 -5.0267e-41 0.10952746
0.00040666282 0.021969551 0.056351744 4.9333e-41 0.0016529313 0.0010075769 -0.07108562 -0.009581443
00000000: b480 3c3d 7543 e43c 5a6d 1f3d 34c3 aa3c
00000010: b21d d43d f8e2 6ebd b089 0000 c789 0000
00000020: 7295 d7bd 2319 a23d 2cef a3bd 9cb4 383c
00000030: 26a6 c3bd bfdf e2bc 5e94 d43d b71f 233e
00000040: cedf 0bbd 2e8d e0bc b089 0000 0589 0080
00000050: debd d1bd 4e2a 44bd df79 a03c 026c cb3d
00000060: 884e 0080 d8e4 873e 5c89 0000 5589 0000
00000070: 79b7 283d 5d90 8a3b f5b1 8cba 952d 9ebe
00000080: 193f b23d da91 1b3c dea8 d93d 3ceb 65bd
00000090: 8e0a 60bb ed30 a3bc 4839 9b3a d788 0000
000000a0: e62f 1eb7 605a 863d 5035 8cbc 2ef8 3b3d
000000b0: 4c47 543d 8ac4 1cbd 6afe 84bd a8a3 a9bb
000000c0: fa31 8f3d cb02 ddbc 7925 b8bd b3a4 35bd
000000d0: 0952 973c 2f4f 4c3c 5b89 0000 973b f53c
000000e0: edc8 883c 163a 133e 73b9 48bd 0c91 afba
000000f0: e19f 1ebe 6f4e 513d 3a27 9b3d aee9 b33b
00000100: 3044 1b3e 4ba2 1cbd ce43 bf3d 8d3d 273d
00000110: 9b92 bd3c ce87 053d 22b6 9f3c 558f 403d
00000120: 2fb6 d13c 65e1 9dbd f8b7 dc3d 0dea e83d
00000130: 3572 79be 1f89 0000 46f0 da3d b728 48bd
00000140: 4ece d9bc 02e1 87bc cc48 37a9 75e0 ce3d
00000150: f464 80bd ea66 ce3c 9c00 593d 11cc dcbd
00000160: 4899 a33d b929 123d dc23 123d 3daa 9a3d
00000170: 9dbf 223d 658b 51bc 8f59 a6bd 0f37 893b
00000180: 4089 0000 43e6 193c c741 0d25 31b6 853d
00000190: 8f0a 023e 3de6 c73d 8f89 0000 9514 d9bd
000001a0: 5bb4 9ebd 300e 09be a63f 42bd ec88 0000
000001b0: 7c8f 0080 8b42 dd28 2ee2 123c 1b3b 483d
000001c0: e549 2fbd 9dba 0b3d 1f17 3dbc 743e 76bc
000001d0: 442a c4bd f456 a4bd 6c67 0000 41fb c93d
000001e0: 0d53 bcbd 3c1b 0d3e 3b5d f3bd e0ae faa9
000001f0: 2007 7fbd 9d2b 243d db92 cf3c 0d76 94bb
00000200: 4894 003b ef1b 033c 78a0 403c 8992 093b
00000210: 0633 f6bd 1818 013c 3f8a 0000 269e 0080
00000220: 61fd a3bd b2db 63bd 9d87 2d3a 16f5 343c
00000230: 3630 43b9 6091 c83d 64a6 253c ca88 c8bc
00000240: 0bbe aebc 903e e93a ff89 0080 498b 0000
00000250: 94aa 28bc a118 803a 52cf 6dbd 26d3 35bd
00000260: 5b8c 0080 675a eb3c e992 0000 5a89 0080
00000270: e3c9 17bd 8bad a5bd dd15 dcba 4146 b1bd
00000280: 256f 6e3d 0812 903a 3d0b cb3d fed3 e8ba
00000290: fa5a 303e 2c8b 0b3e 0117 5c99 2689 0000
000002a0: 7a9a ce3d bdd2 15bd 8a97 b5bd cc5f 883b
000002b0: 448f 663d 9877 7cbb d375 1f3b 19cb e23a
000002c0: 21fe 0e3e f2c4 fcbb e610 8f3c 5659 9b3c
000002d0: 0469 b33b eec5 3ead d38a 0000 2eed 05b4
000002e0: 933a acb7 2b05 d03a df80 47be eb78 8f3b
000002f0: 3118 95bc bd09 d23d 9c74 053e 6033 83bc
00000300: 2af7 3f3e 71df dd3d c91e 9d3d 4c61 42bb
00000310: 5845 003d 9be0 2d3c 2065 f4bc 94fd 23bd
00000320: 5497 93b5 00eb 10bb 0b3d 113e bcf8 9bbd
00000330: 2f19 81bd a28a 0080 7379 dabd faaa e53d
00000340: 0a38 683d 199d b73b fbca 07bb 1eee 933d
00000350: 6023 983b 2513 9a3c e350 a03b ddf5 50be
00000360: 69ea eabc 388b 7fbd 1573 103d 8622 0dbe
00000370: 55db 763c 0e37 c13d d8e9 98ba 9c21 5c3c
00000380: 9989 0000 65f5 0d3d 338a 0080 3a65 07bc
00000390: 4f5a d83c 1aa3 05be 8e89 0000 7efc 463a
000003a0: 4bfe 413c fd7f 9c3d a3a1 983a dc8b 0000
000003b0: 438a 0000 6989 0000 0a33 f4bd 1e64 97bd
000003c0: c078 093d c0a1 ff3b 38cf b43d 6341 4dbb
000003d0: 56fb 9c3a 5fc4 7e3c 208c 0080 ef4f e03d
000003e0: 5c35 d539 7df9 b33c 16d1 663d 8589 0000
000003f0: 2ca7 d83a ac10 843a 5695 91bd 7cfb 1cbc

val_conv1.bias f4 [2]
0.061246637 0.017643495
00000000: c1dd 7a3d 1789 903c
