课程设计/AlphaZero简单复现/models/policy_batch_50.model (torch, 530595 bytes, 15 tensors)

conv1.weight f4 [32, 4, 3, 3]
0.19165917 -0.056827106 0.15083398 0.0029508334 0.101814784 -0.016466763 0.23490804 -0.009337361
0.13174134 -0.11455944 0.019502537 0.13323474 0.023125965 -0.11194645 0.03790638 0.15657306
-0.13274543 0.022963112 0.042365983 0.026128134 -0.120115586 0.077096224 -0.056227777 -0.024532137
0.056795467 0.10424889 -0.049499307 0.0088977795 0.011341295 -0.07182914 -0.09169535 0.13511434
-0.045314677 0.0112491045 0.0500052 -0.06877698 0.20932004 0.056299213 -0.07875882 0.009468807
0.05675649 0.05867273 -0.18701506 -0.10972703 0.088805825 0.015147031 0.083150364 -0.1636937
-0.13624533 0.031763446 0.09620901 -0.045611482 -0.14180253 0.16544147 0.14929304 -0.024302032
0.0035015282 0.06460966 0.033064067 0.021957627 0.033781964 -0.039840896 -0.049248252 0.016982296
-0.122764654 0.06853437 -0.1370796 0.09698304 -0.14607821 0.17614129 -0.023419367 0.17362292
-0.046636883 0.07139234 0.027735848 -0.17987417 0.028003473 -0.04774722 0.05382395 0.0951629
-0.09304283 0.0987472 -0.019379873 -0.05406753 0.12511714 0.055329937 -0.010527842 0.1021079
-0.100530796 -0.13575305 0.040791854 0.0041157496 -0.12730092 -0.13831063 -0.11304598 -0.092625864
0.022745173 -0.030721141 -0.09560736 -0.09057987 0.15774517 0.1196845 0.04087275 0.07183206
0.0823915 0.07880614 0.15408449 -0.14790092 -0.009447235 -0.2251573 0.0890684 -0.15299031
0.12747774 -0.16670516 0.068707936 0.15643837 0.18887942 -0.024691427 0.05022635 -0.1788694
0.09302664 0.05302708 0.036753375 0.011874028 0.12061042 0.18668328 0.04665975 -0.072842754
-0.054443225 -0.026511999 -0.03590696 -0.019290552 0.01547588 0.012219934 0.06667519 0.07846069
-0.050707024 0.12565668 0.13341103 -0.0124337785 -0.07358638 -0.115728974 -0.098390564 0.14430386
-0.12884453 -0.07694243 -0.008974171 0.10184338 0.03152954 0.07692228 -0.092650466 -0.08948029
0.056257322 -0.11167365 -0.023077125 -0.12296401 0.115255035 0.027625188 -0.058218736 0.1414992
-0.037979063 -0.11712119 0.033779476 0.028991412 0.13734181 0.11509801 0.040058553 -0.0726091
-0.008814524 -0.021151353 0.022554902 0.0909191 0.09642175 0.14658444 0.13174653 0.08285122
0.10651196 0.15028647 0.13997908 0.12432142 0.010698571 -0.0163581 0.022776973 -0.17552553
0.16488679 0.1485275 0.10160393 -0.016242998 0.0036650894 -6.481351e-05 -0.01762683 -0.07600053
-0.16155457 0.1406243 -0.05002255 0.1040034 -0.010510487 -0.045151286 0.055607162 0.09053998
-0.07670125 -0.0017818289 0.059231088 0.02150705 -0.0543582 0.107403755 -0.10112682 0.04854347
0.08762963 0.16551092 0.13815139 -0.10715057 -0.06973162 -0.05359589 -0.06386524 0.15645294
-0.004653586 -0.16117671 0.0020731273 -0.07455913 -0.039387327 -0.17885303 -0.021343766 -0.19651023
0.14503083 -0.02171729 -0.15836826 0.065392464 -0.09828105 0.09383501 -0.18557192 0.059985645
-0.13362162 0.14328255 0.10886347 -0.07082519 0.1195956 -0.08441023 0.036971327 -0.14286159
0.15741594 -0.09597429 0.07706981 0.01757603 0.14289996 0.14214504 -0.011160675 -0.05714141
0.015065133 -0.15445462 -0.023369726 -0.034402877 -0.26222217 0.14710799 0.1216753 -0.21383794
00000000: 4d42 443e 8ac3 68bd 3974 1a3e c562 413b
00000010: 4584 d03d 4ee5 86bc bc8b 703e bbfb 18bc
00000020: 34e7 063e 249e eabd c9c3 9f3c b06e 083e
00000030: aa72 bd3c 2e44 e5bd b843 1b3d b054 203e
00000040: 6bee 07be 231d bc3c f487 2d3d ab0a d63c
00000050: 29ff f5bd a0e4 9d3d 194f 66bd 9ff7 c8bc
00000060: 5da2 683d 7180 d53d c9bf 4abd fec7 113c
00000070: d7d0 393c 281b 93bd c6ca bbbd 6a5b 0a3e
00000080: e29b 39bd 2a4e 383c 41d2 4c3d f2da 8cbd
00000090: fe57 563e 019a 663d 4e4c a1bd 0e23 1b3c
000000a0: 7e79 683d d152 703d e080 3fbe 91b8 e0bd
000000b0: d4df b53d 412b 783c bd4a aa3d 529f 27be
000000c0: e583 0bbe 631a 023d 3b09 c53d 1bd3 3abd
000000d0: af34 11be 7d69 293e 46e0 183e 0e15 c7bc
000000e0: e579 653b 1252 843d 306e 073d 7be0 b33c
000000f0: f55e 0a3d 3530 23bd 89b8 49bd 751e 8b3c
00000100: 096c fbbd bf5b 8c3d 985e 0cbe 0b9f c63d
00000110: 8795 15be 625e 343e f9d9 bfbc 35ca 313e
00000120: 5106 3fbd 2636 923d 4a36 e33c ef30 38be
00000130: 8a67 e53c 9792 43bd 8176 5c3d c4e4 c23d
00000140: 3d8d bebd f93b ca3d 8ac2 9ebc ea75 5dbd
00000150: b51e 003e a5a1 623d f87c 2cbc f21d d13d
00000160: 17e3 cdbd d902 0bbe 5c15 273d 69dd 863b
00000170: 2c5b 02be 4da1 0dbe a784 e7bd a1b2 bdbd
00000180: 1654 ba3c e7aa fbbc cbcd c3bd f081 b9bd
00000190: f387 213e 261d f53d 2f6a 273d b01c 933d
000001a0: e0bc a83d 1d65 a13d 53c8 1d3e 5773 17be
000001b0: 93c8 1abc a38f 66be 7e69 b63d 7ea9 1cbe
000001c0: 8689 023e c2b4 2abe bfb6 8c3d 6131 203e
000001d0: 9b69 413e ad45 cabc 25ba 4d3d 8a29 37be
000001e0: c084 be3d ec32 593d b58a 163d 488b 423c
000001f0: 9902 f73d e729 3f3e 4b1e 3f3d 952e 95bd
00000200: dcff 5ebd b12f d9bc 2d13 13bd 3807 9ebc
00000210: 8c8e 7d3c 1e36 483c 018d 883d 00b0 a03d
00000220: 2bb2 4fbd 25ac 003e e79c 083e 0cb7 4bbc
00000230: 75b4 96bd 5003 edbd fe80 c9bd 64c4 133e
00000240: d2ef 03be fe93 9dbd 6708 13bc 4393 d03d
00000250: 1e25 013d 6e89 9d3d 87bf bdbd 7141 b7bd
00000260: 146e 663d 28b5 e4bd 3d0c bdbc 8ed4 fbbd
00000270: d50a ec3d 384e e23c c576 6ebd 2be5 103e
00000280: ef8f 1bbd 3cdd efbd 595c 0a3d 667f ed3c
00000290: 55a3 0c3e 81b8 eb3d 7014 243d 14b4 94bd
000002a0: cb6a 10bc 9a45 adbc 0fc5 b83c cb33 ba3d
000002b0: c478 c53d 3b1a 163e 90e8 063e e7ad a93d
000002c0: f122 da3d b2e4 193e ad56 0f3e 3b9c fe3d
000002d0: 0f49 2f3c 6c01 86bc c696 ba3c f7bc 33be
000002e0: 15d8 283e 9817 183e b915 d03d 0910 85bc
000002f0: ff31 703b 7dec 87b8 2466 90bc 2aa6 9bbd
00000300: 906e 25be d1ff 0f3e 72e4 4cbd bcff d43d
00000310: 2d34 2cbc 8ef0 38bd 56c4 633d 066d b93d
00000320: 8c15 9dbd 428c e9ba 4c9c 723d 8e2f b03c
00000330: b4a6 5ebd 80f6 db3d 941b cfbd 85d5 463d
00000340: 2a77 b33d b27b 293e 8f77 0d3e c271 dbbd
00000350: 74cf 8ebd 5d87 5bbd c7cb 82bd 3335 203e
00000360: 1c7d 98bb 820b 25be 4edd 073b 75b2 98bd
00000370: 9b54 21bd 4025 37be 1fd9 aebc fa39 49be
00000380: f682 143e 75e8 b1bc 4a2b 22be 7cec 853d
00000390: 9347 c9bd 922c c03d 9106 3ebe 82b3 753d
000003a0: 1bd4 08be a9b8 123e d0f3 de3d cc0c 91bd
000003b0: 8aee f43d 45df acbd 3f6f 173d 4f4a 12be
000003c0: a531 213e 2b8e c4bd c7d6 9d3d 9bfb 8f3c
000003d0: 5e54 123e 788e 113e 44db 36bc 1c0d 6abd
000003e0: bfd3 763c 5a29 1ebe de71 bfbc 08ea 0cbd
000003f0: fc41 86be 7aa3 163e e630 f93d 55f8 5abe

conv1.bias f4 [32]
-0.04240788 0.10460198 0.050539605 -0.036896344 -0.138492 -0.11649612 -0.03209869 0.08370228
-0.0083892895 -0.13131995 0.15872484 -0.090292424 -0.14797686 -0.09660957 -0.029102307 0.14401291
0.0065864646 0.13730504 -0.027915021 -0.0016479451 0.1288299 -0.044718605 -0.09501194 -0.11701218
-0.04434365 0.13930915 0.17892274 -0.0154551035 -0.06768798 -0.120950505 0.014928888 -0.14589885
00000000: e3b3 2dbd 9039 d63d 9e02 4f3d 9f20 17bd
00000010: d9d0 0dbe 8595 eebd ea79 03bd 1a6c ab3d
00000020: 3b73 09bc bd78 06be c488 223e 3ceb b8bd
00000030: 3f87 17be 3ddb c5bd f667 eebc 1f78 133e
00000040: 45d3 d73b b199 0c3e 0bae e4bc ddff d7ba
00000050: fceb 033e db2a 37bd 9f95 c2bd 15a4 efbd
00000060: b0a1 35bd 0fa7 0e3e 8637 373e 6737 7dbc
00000070: ff9f 8abd e6b4 f7bd 4b98 743c 8266 15be

conv2.weight f4 [64, 32, 3, 3]
-0.011820896 0.041753966 0.09709013 0.03606685 0.046467118 0.067117505 0.051841147 -0.07841145
-0.029400649 0.07589982 -0.04102569 -0.031118397 0.07510696 -0.020535063 -0.041682705 0.07678409
0.04699367 0.08267109 -0.038842175 0.021444058 0.058908623 -0.0484374 0.057380583 0.017676499
-0.028645236 -0.026786126 -0.010711833 0.08455892 0.11821198 0.04605157 -0.0005230234 0.024128597
0.021885483 -0.04843496 -0.050050482 -0.016838418 0.035374645 -0.009085127 0.008248444 -0.0063343477
-0.011911966 0.0022102792 -0.044505116 -0.0015596868 0.028776081 0.03954552 0.060176857 0.023512837
0.014483264 0.013263816 -0.0020431483 -0.04077675 0.015313334 -0.033616178 0.07874148 0.06126297
-0.02159367 -0.06373419 -0.009605222 -0.007895567 0.0100877425 -0.07275142 0.028972443 0.05568159
-0.06695703 -0.030508164 0.10649228 0.019036533 -0.17640458 0.10470111 0.00864477 -0.13393596
0.060628094 0.038918238 -0.031712256 0.06108791 0.0675617 -0.012820402 0.056766693 0.050944965
0.02785327 -0.09974595 0.055240374 0.0061158724 -0.062261492 -0.0077006477 -0.001990676 -0.09433158
-0.016811796 -0.08633988 -0.010247941 -0.001943185 -0.00923446 0.051126957 -0.011820121 -0.056043178
-0.0041192123 0.035183214 0.021173328 -0.033635046 0.024013625 0.031025706 0.044233475 0.09117245
0.040208176 0.03648058 0.065061174 0.050858915 0.008656074 0.021933386 -0.06635095 0.02787646
0.026716368 0.0084828045 -0.051596306 -0.016629804 0.09157781 0.02501149 -0.01048767 0.020083658
0.06896686 0.004241852 -0.07151586 0.10670482 0.056482818 -0.00973324 0.07174282 0.20605238
0.1281731 0.003448461 -0.018731287 0.016938372 -0.08359234 -0.13721274 -0.08692794 -0.030377854
0.04546974 -0.0028532995 0.017831514 0.017064901 0.030557206 -0.033741497 0.070110634 0.06863828
-0.051855087 -0.0053487825 -0.038012568 -0.0088039115 0.034049522 0.02180002 0.0514286 0.12583895
0.07109541 0.0632511 0.045002457 -0.0024605303 0.014235335 -0.030601634 -0.03241658 0.038059138
0.027618093 -0.01914456 0.039734825 0.048637778 -0.060958408 0.13122474 0.08862652 -0.010151314
0.0444108 -0.01512077 -0.071451254 -0.02176476 0.016043475 -0.0044342135 0.07937387 0.0078050247
-0.02625753 0.111731894 -0.06529865 -0.07416414 0.013899175 -0.007274671 -0.008574335 0.041269615
-0.094012275 -0.0511853 0.0028942376 -0.02838623 -0.043508306 0.01769463 0.107194595 0.0010482713
0.01555429 0.0299718 0.0010128274 -0.06488468 -0.12604874 -0.13733399 0.047957204 0.016413275
0.019405048 0.04046973 0.027683794 0.044741172 0.019852132 0.04233982 0.018328788 0.021590097
0.06325179 -0.014917478 0.018226894 0.09532984 0.0030276591 -0.02931971 -0.0063359514 -0.060524683
0.07175652 0.109349675 0.018878527 0.09405483 0.033570487 -0.1343329 0.06997211 -0.0353944
-0.053508177 -0.066939965 0.024923347 0.008543059 -0.078793995 0.049075767 0.12860295 -0.06354821
0.0014500241 0.1220913 -0.037735447 -0.014316361 -0.02706688 0.047052633 -0.03415486 0.0364506
-0.046499357 -0.10368348 0.023709795 -0.011447498 -0.07403533 -0.034550864 0.06692092 -0.039069794
0.043379653 0.07264342 -0.017993124 0.059368644 0.0029628808 0.033428237 0.0023096725 -0.009118311
00000000: 6eac 41bc 3506 2b3d 31d7 c63d d5ba 133d
00000010: 4e54 3e3d e774 893d 6257 543d 2f96 a0bd
00000020: a1d9 f0bc 5d71 9b3d 8e0a 28bd 02ec febc
00000030: aed1 993d 2639 a8bc 7cbb 2abd fa40 9d3d
00000040: 6f7c 403d 764f a93d f918 1fbd 73ab af3c
00000050: 2b4a 713d 4c66 46bd e707 6b3d 4ece 903c
00000060: 6aa9 eabc 946e dbbc af80 2fbc 3a2d ad3d
00000070: 1f19 f23d 92a0 3c3d 821b 09ba 56a9 c53c
00000080: 2f49 b33c bd63 46bd bc01 4dbd b9f0 89bc
00000090: 01e5 103d c9d9 14bc 7b24 073c 5c90 cfbb
000000a0: 682a 43bc 55da 103b ff4a 36bd 686e ccba
000000b0: d1bb eb3c 7cfa 213d 027c 763d fe9d c03c
000000c0: 364b 6d3c 7a50 593c 57e6 05bb 8505 27bd
000000d0: c7e4 7a3c 1eb1 09bd 3743 a13d e1ee 7a3d
000000e0: 35e5 b0bc 1287 82bd 395f 1dbc 695c 01bc
000000f0: 0f47 253c b2fe 94bd 9e57 ed3c 6112 643d
00000100: c420 89bd 42ec f9bc a018 da3d 81f2 9b3c
00000110: 67a3 34be 896d d63d cba2 0d3c 8226 09be
00000120: 2a55 783d bb68 1f3d b6e4 01bd 5137 7a3d
00000130: ca5d 8a3d aa0c 52bc 3184 683d abab 503d
00000140: 8a2c e43c 9b47 ccbd bb43 623d a867 c83b
00000150: e805 7fbd b755 fcbb 0076 02bb ea30 c1bd
00000160: e4b8 89bc f7d2 b0bd fbe6 27bc 78b2 feba
00000170: 224c 17bc 806a 513d 2ea9 41bc 888d 65bd
00000180: 75fa 86bb 461c 103d b073 ad3c e7c4 09bd
00000190: 39b8 c43c 9f29 fe3c 292e 353d 9fb8 ba3d
000001a0: 54b1 243d a96c 153d cb3e 853d 7051 503d
000001b0: 35d2 0d3c a5ad b33c 02e3 87bd 2d5d e43c
000001c0: 49dc da3c 76fb 0a3c a656 53bd 3a3b 88bc
000001d0: 268d bb3d e5e4 cc3c 7ad4 2bbc 7c86 a43c
000001e0: 7f3e 8d3d 3cff 8a3b e876 92bd 0f88 da3d
000001f0: 875a 673d 2b78 1fbc e6ed 923d 65ff 523e
00000200: cf3f 033e 93ff 613b 5b72 99bc 57c2 8a3c
00000210: 7632 abbd 7f81 0cbe 4707 b2bd fada f8bc
00000220: 7a3e 3a3d 6cfe 3abb 6513 923c b1cb 8b3c
00000230: 1b53 fa3c 8634 0abd 2a96 8f3d 3a92 8c3d
00000240: 0066 54bd d744 afbb 11b3 1bbd 483e 10bc
00000250: 8377 0b3d f595 b23c cca6 523d eddb 003e
00000260: 789a 913d cb89 813d 7f54 383d d940 21bb
00000270: 533b 693c 47b0 fabc 3fc7 04bd e6e3 1b3d
00000280: 573f e23c 0dd5 9cbc fcc0 223d 6838 473d
00000290: 86af 79bd c75f 063e d281 b53d b251 26bc
000002a0: 19e8 353d 1bbd 77bc 0955 92bd 034c b2bc
000002b0: 9b6d 833c e14c 91bb c48e a23d 4bc1 ff3b
000002c0: 081a d7bc b1d3 e43d 4cbb 85bd 5ee3 97bd
000002d0: 5eb9 633c 5d60 eebb 5e7b 0cbc 540a 293d
000002e0: 8289 c0bd ada7 51bd 40ad 3d3b 3d8a e8bc
000002f0: c435 32bd 54f4 903c d788 db3d 2666 893a
00000300: 6cd7 7e3c 6c87 f53c d9c0 843a 42e2 84bd
00000310: ec12 01be 48a1 0cbe c66e 443d 2275 863c
00000320: 56f7 9e3c 96c3 253d 20c9 e23c 8542 373d
00000330: f0a0 a23c 856c 2d3d 4126 963c b7dd b03c
00000340: 288a 813d 7068 74bc 9150 953c 4b3c c33d
00000350: b16b 463b e32f f0bc d09d cfbb bbe8 77bd
00000360: 15f5 923d b9f2 df3d 24a7 9a3c d29f c03d
00000370: 3581 093d 908e 09be 8a4d 8f3d b8f9 10bd
00000380: 642b 5bbd d217 89bd 0c2c cc3c 30f8 0b3c
00000390: bf5e a1bd ac03 493d 7eb0 033e 9025 82bd
000003a0: bc0e be3a 010b fa3d 7c90 1abd 2c8f 6abc
000003b0: 5dbb ddbc 43ba 403d f7e5 0bbd 394d 153d
000003c0: 1c76 3ebd 0158 d4bd 0b3b c23c 498e 3bbc
000003d0: d69f 97bd 3585 0dbd d60d 893d a607 20bd
000003e0: ddae 313d 13c6 943d 5166 93bc 892c 733d
000003f0: e42c 423b 0cec 083d e05d 173b f864 15bc

conv2.bias f4 [64]
-0.033219345 0.057921056 0.00976511 -0.042478774 0.022801388 -0.05524784 -0.004314907 -0.007853826
-0.029122302 -0.0030033772 0.02666067 0.026201798 0.02752343 0.028636433 -0.043176457 0.009642698
0.017345494 -0.017118275 -0.0065239975 0.070191905 -0.012941336 0.014486065 0.07109948 -0.05617254
0.02037549 0.032113373 0.0070027784 0.07548073 0.03430842 0.005347848 0.01579953 -0.0055973073
0.008895849 -0.014990628 -0.008420213 -0.025157258 -0.0019109226 -0.02605482 0.043435402 0.06923306
0.070907556 -0.03434695 -0.050349668 -0.06265482 0.018652007 -0.012468037 0.02065215 -0.00519846
-0.0037594433 0.029673915 -0.017318193 -0.03402895 0.019184863 0.03845578 -0.0052878233 0.021903202
-0.0021923136 -0.022171997 0.027370805 -0.03950682 0.04150446 -0.038747024 -0.031751376 -0.025177995
00000000: 0211 08bd a13e 6d3d d7fd 1f3c 39fe 2dbd
00000010: fac9 ba3c 8f4b 62bd 1064 8dbb 55ad 00bc
00000020: e591 eebc 4fd4 44bb 7a67 da3c 27a5 d63c
00000030: d178 e13c f496 ea3c ccd9 30bd 68fc 1d3c
00000040: 2318 8e3c a03b 8cbc 42c7 d5bb c6c0 8f3d
00000050: e607 54bc f656 6d3c 9b9c 913d 2d15 66bd
00000060: 80ea a63c 5089 033d 9077 e53b a495 9a3d
00000070: fc86 0c3d 003d af3b 046e 813c 9e69 b7bb
00000080: e5bf 113c 409b 75bc eff4 09bc 9816 cebc
00000090: ec77 faba eb70 d5bc 52e9 313d 10ca 8d3d
000000a0: fb37 913d 63af 0cbd 743b 4ebd 2c51 80bd
000000b0: 18cc 983c bd46 4cbc b32e a93c d857 aabb
000000c0: fe60 76bb b616 f33c e2de 8dbc f161 0bbd
000000d0: 9329 9d3c cf83 1d3d 7a45 adbb 586e b33c
000000e0: ebac 0fbb 0ca2 b5bc bd38 e03c e7d1 21bd
000000f0: 9500 2a3d 33b5 1ebd bb0d 02bd 1542 cebc

conv3.weight f4 [128, 64, 3, 3]
0.00855651 -0.0009589576 0.014528072 -0.028060764 -0.05386034 -0.03162419 0.019292325 -0.029072633
-0.0011678806 0.03593048 -0.0074305795 0.02068804 -0.0074948748 -0.022222435 -8.0792255e-05 -0.045198366
-0.03948917 -0.02799425 0.03770125 -0.009763692 -0.0083427215 0.00088426616 0.006154448 -0.026050985
0.024824746 0.04841562 -0.0072687683 0.07036073 0.03710792 0.04202807 0.04114731 -0.004528162
0.05573039 0.030617056 0.022723794 0.03270685 0.01790168 0.05545278 0.038777817 -0.018409163
0.020422004 0.024222942 -0.0015022384 0.012685555 -0.024545684 0.046147298 0.03579145 0.054321367
0.02112567 0.014703105 0.053243134 0.022458933 -0.023874843 0.01762178 0.022588538 0.03335793
-0.005795976 0.006721324 0.013389268 -0.024000663 0.052683324 -0.0071429596 -0.017822398 0.03616542
-0.015959516 -0.019466849 -0.01577685 -0.032666113 -0.00045736716 -0.011858742 -0.011297247 -0.02104184
0.026695313 0.014002472 -0.0019550817 -0.0026375432 0.026773214 -0.016781121 0.04012699 0.039379332
-0.0030003742 0.046439998 0.022478363 0.050186403 0.04876887 0.009126606 0.008431015 0.028479395
-0.023175646 -0.023620607 0.010698907 -0.03699893 -0.0025206322 -0.041745864 -0.03296512 0.003813503
-0.04324429 -0.00046899216 -0.05626716 0.04214742 -0.01968079 0.036096565 0.030890107 0.030288061
0.040883757 0.016851334 0.034390017 0.034942333 -0.0043060402 0.019486412 -0.031263836 0.03637531
0.020836886 0.02124237 -0.0052679265 -0.018370323 -0.045572873 0.023365678 0.009351942 -0.013406723
-0.003906461 0.012486071 0.004684599 0.024315987 -0.01831211 0.022975298 0.024551654 0.034338705
0.016895581 0.046945065 0.036102206 0.03504624 0.005101554 0.0014896648 0.05338037 0.011059853
0.022322766 -0.012803546 0.013011534 -0.011445364 -0.04188478 0.013568305 0.015141927 -0.05211627
0.0009613574 0.04441255 0.031746004 0.035769925 -0.016636487 0.038399816 -0.022160165 0.023288453
0.028770572 -0.018503575 0.01883444 0.014047985 0.048718244 0.034426354 -0.015825009 -0.015991129
0.034459352 0.044036027 0.023639234 0.038476013 -0.01756411 -0.011648256 -0.023556693 0.037316795
0.024383485 0.026825514 -0.010433415 0.037222683 0.023195881 0.03158048 0.04278327 0.036775157
0.0279246 0.02026369 0.034345426 0.0004114081 0.035701904 -0.037008632 -0.01319541 -0.024089186
-0.00036642872 -0.035496067 -0.02952925 -0.012814807 -0.052511316 -0.0068246042 0.021708926 -0.032892205
-0.01775109 0.00604401 0.016053885 -0.03147098 -0.020887075 -0.0016708001 0.039346512 0.016098658
0.007013896 0.0074675283 0.0039795255 0.0014736418 0.026998127 0.04780151 -0.02437755 -0.014426917
0.051778875 0.03345582 -0.011650711 -0.007239616 0.024521736 -0.017065182 0.022472845 -0.02425749
-0.011252575 0.002943465 -0.01944648 -0.0116923535 -0.034156393 -0.024035964 -0.043791704 -0.052220464
-0.013189775 -0.00995959 0.0039059464 -0.024149703 -0.0175316 0.027742935 0.0148335565 -0.065097675
-0.0126953805 -0.0033308074 0.04214113 0.054487076 0.011915023 0.019644992 0.014195935 0.038598735
-0.012348395 0.027257165 -0.019717166 0.031531453 -0.013910466 0.011401987 -0.014872795 0.031796075
-0.037181806 0.00038368057 -0.002510256 0.010718503 0.004130636 -0.0071214032 -0.004576899 0.03977517
00000000: 9b30 0c3c 8e62 7bba 2707 6e3c b0df e5bc
00000010: a99c 5cbd 5e88 01bd f00a 9e3c bb29 eebc
00000020: 9213 99ba d72b 133d 387c f3bb f779 a93c
00000030: 9197 f5bb d30b b6bc 036f a9b8 ec21 39bd
00000040: 65bf 21bd 3354 e5bc a06c 1a3d e4f7 1fbc
00000050: e9af 08bc 19ce 673a 40ab c93b e068 d5bc
00000060: 445d cb3c 754f 463d d92e eebb 4919 903d
00000070: 79fe 173d a025 2c3d 158a 283d fa60 94bb
00000080: 8d45 643d 9fd0 fa3c 4027 ba3c 9ef7 053d
00000090: 8ba6 923c 7422 633d 7dd5 1e3d d0ce 96bc
000000a0: 0c4c a73c 316f c63c c2e6 c4ba 13d7 4f3c
000000b0: 0814 c9bc f304 3d3d 0e9a 123d 1580 5e3d
000000c0: be0f ad3c 4be5 703c 7915 5a3d ccfb b73c
000000d0: 2d95 c3bc 8d5b 903c 990b b93c 53a2 083d
000000e0: 2cec bdbb 8d3e dc3b a95e 5b3c 0a9d c4bc
000000f0: 78ca 573d 7d0f eabb 4700 92bc 3122 143d
00000100: 88bd 82bc f178 9fbc 743e 81bc e7cc 05bd
00000110: c8ca efb9 2b4b 42bc 1718 39bc f05f acbc
00000120: 21b0 da3c a06a 653c d420 00bb a2da 2cbb
00000130: 8053 db3c 9078 89bc 335c 243d 394c 213d
00000140: eda1 44bb de37 3e3d 8b24 b83c 4290 4d3d
00000150: dec1 473d c387 153c 3d22 0a3c 9f4d e93c
00000160: dada bdbc 0180 c1bc 784a 2f3c 318c 17bd
00000170: 3131 25bb b6fd 2abd 6f06 07bd f7eb 793b
00000180: ed20 31bd 10e3 f5b9 6578 66bd c6a2 2c3d
00000190: 9c39 a1bc fed9 133d 400d fd3c ab1e f83c
000001a0: ba75 273d cf0b 8a3c 8cdc 0c3d b11f 0f3d
000001b0: af19 8dbb f8a1 9f3c 820e 00bd 47fe 143d
000001c0: 1eb2 aa3c 7b04 ae3c 929e acbb 5c7d 96bc
000001d0: 9faa 3abd 6169 bf3c e338 193c dfa7 5bbc
000001e0: c501 80bb 6192 4c3c 4481 993b 5232 c73c
000001f0: 4703 96bc b136 bc3c 8d20 c93c bea6 0c3d
00000200: 9a68 8a3c 7849 403d e8df 133d a58c 0f3d
00000210: f02a a73b db40 c33a 60a5 5a3d 6334 353c
00000220: 3cde b63c f7c5 51bc 542e 553c 5685 3bbc
00000230: 608f 2bbd 994d 5e3c d815 783c df77 55bd
00000240: 9a03 7c3a efe9 353d 1908 023d 7c83 123d
00000250: 3e49 88bc 2049 1d3d 3c89 b5bc 6dc7 be3c
00000260: 43b0 eb3c cf94 97bc af4a 9a3c 8529 663c
00000270: c88c 473d a602 0d3d 73a3 81bc d4ff 82bc
00000280: 4025 0d3d 1f5f 343d 11a7 c13c 0699 1d3d
00000290: 9ce2 8fbc 54d8 3ebc f7f9 c0bc 7fd9 183d
000002a0: e0bf c73c 2ec1 db3c eaf0 2abc d076 183d
000002b0: 4a05 be3c 895a 013d 833d 2f3d 8ca1 163d
000002c0: 21c2 e43c 0a00 a63c caad 0c3d 43b2 d739
000002d0: 293c 123d 5d96 17bd 9031 58bc af56 c5bc
000002e0: 3b1d c0b9 5364 11bd 53e7 f1bc 32f5 51bc
000002f0: 1b16 57bd eea0 dfbb ebd6 b13c fab9 06bd
00000300: bc6a 91bc d50c c63b 7083 833c b7e7 00bd
00000310: 5f1b abbc c0fe daba cf29 213d 55e1 833c
00000320: d3d4 e53b 2bb2 f43b ae66 823b 3727 c13a
00000330: 2d2b dd3c 84cb 433d 6eb3 c7bc e05e 6cbc
00000340: 1616 543d f808 093d a0e2 3ebc 4d3a edbb
00000350: cfe1 c83c 48cc 8bbc f918 b83c a5b7 c6bc
00000360: b85c 38bc 26e7 403b 394e 9fbc 4991 3fbc
00000370: 93e7 0bbd 12e7 c4bc ee5e 33bd 20e5 55bd
00000380: ed19 58bc 8c2d 23bc e8fa 7f3b 99d5 c5bc
00000390: 6e9e 8fbc 2745 e33c 7208 733c ee51 85bd
000003a0: 4900 50bc ad49 5abb 2d9c 2c3d d72d 5f3d
000003b0: 3b37 433c 89ee a03c 1196 683c b519 1e3d
000003c0: ec50 4abc 6b4a df3c e585 a1bc 2027 013d
000003d0: b9e8 63bc 66cf 3a3c 06ad 73bc 9a3c 023d
000003e0: f34b 18bd bc28 c939 1b83 24bb a99c 2f3c
000003f0: 495a 873b a95a e9bb d0f9 95bb 4aeb 223d

conv3.bias f4 [128]
0.0036714121 0.041206438 -0.027259331 -0.01143859 0.020663656 0.036182374 -0.010827823 -0.011258737
-0.019670976 0.0211955 0.03558984 0.019303756 0.04023436 -0.0028772813 -0.018529303 0.009108492
0.013393905 0.025633842 0.012515013 -0.042540293 0.043055948 0.012600356 0.015651084 -0.027489495
-0.0060200538 0.00023101272 -0.007434145 -0.04357005 -0.023835538 0.017775722 -0.02068443 0.03945882
-0.019683998 -0.033217736 0.025770267 0.04269316 0.0043983227 -0.07547695 0.0050961506 -0.027580118
-0.045252852 0.00032541945 0.0057285 0.0044719335 -0.03414213 0.0036132326 0.027756622 -0.016308088
-0.023087127 0.022869207 0.011663483 0.0006426795 0.013050115 -0.03159751 -0.039047413 -0.037746638
-0.008194435 -0.020277092 -0.006563471 -0.007642102 0.03957628 -0.027817285 0.006490538 -0.007771271
0.013271572 0.11800614 0.0039070514 0.015249332 -0.044618588 -0.021631194 -0.0047583743 0.00018674046
-0.0280909 0.04136443 -0.033261295 0.009676218 0.013671347 -0.014863635 0.0073198047 0.047152366
0.028117089 0.06554637 -0.0050229356 -0.003946885 0.057102263 0.03746208 -0.019605229 -0.030527906
-0.028555935 0.00779887 0.012910527 -0.02750793 0.01985221 0.042538334 0.0050017224 0.028595854
-0.018801253 -0.017992167 0.008063027 -0.046484075 -0.04160599 0.013693375 -0.028535292 0.06242499
0.042004373 0.030023493 0.066047646 -0.03746494 -0.015756814 -0.025860373 0.020859307 -9.397821e-05
0.026669038 0.032454547 0.030155811 -0.011947729 0.027917508 -0.03123983 -0.040933788 -0.018699843
-0.0046087056 -0.0014235112 -0.027510868 -0.024608467 0.05126488 -0.030294774 -0.0025763712 -0.008991514
00000000: 139c 703b 15c8 283d f64e dfbc ec68 3bbc
00000010: d446 a93c f833 143d 2e67 31bc 9176 38bc
00000020: 0725 a1bc 2fa2 ad3c a7c6 113d e922 9e3c
00000030: c9cc 243d c590 3cbb c4ca 97bc c93b 153c
00000040: 1c72 5b3c 10fe d13c c50b 4d3c bb3e 2ebd
00000050: 6f5b 303d b971 4e3c b436 803c a631 e1bc
00000060: df43 c5bb 013c 7239 219a f3bb 8276 32bd
00000070: bf42 c3bc 649e 913c 6572 a9bc 929f 213d
00000080: 5640 a1bc 520f 08bd 2b1c d33c 06df 2e3d
00000090: ce1f 903b a993 9abd 9cfd a63b b3ef e1bc
000000a0: 0e5b 39bd 0f9d aa39 24b6 bb3b 4c89 923b
000000b0: 9ed8 0bbd fccb 6c3b db61 e33c 8a98 85bc
000000c0: 3721 bdbc 3458 bb3c 3218 3f3c 7e79 283a
000000d0: 26d0 553c 646c 01bd 2ef0 1fbd 389c 1abd
000000e0: f441 06bc 251c a6bc 6312 d7bb 996a fabb
000000f0: bd1a 223d 13e1 e3bc 94ae d43b 25a6 febb
00000100: 0271 593c 34ad f13d b906 803b 56d8 793c
00000110: fbc1 36bd e733 b1bc 23ec 9bbb c3cf 4339
00000120: e31e e6bc c06d 293d ff3c 08bd 0089 1e3c
00000130: c9fd 5f3c 9b86 73bc f9da ef3b d722 413d
00000140: cf55 e63c 2d3d 863d 7097 a4bb df54 81bb
00000150: 10e4 693d d771 193d 259b a0bc a915 fabc
00000160: 23ee e9bc aa8d ff3b ad86 533c 4f58 e1bc
00000170: 1aa1 a23c ad3c 2e3d 7de5 a33b da41 ea3c
00000180: 1605 9abc 4f64 93bc c91a 043c 1666 3ebd
00000190: 0b6b 2abd 2d5a 603c d8c2 e9bc 59b1 7f3d
000001a0: c70c 2c3d d4f3 f53c fd43 873d d674 19bd
000001b0: 6f14 81bc 22d9 d3bc 23e1 aa3c 2b16 c5b8
000001c0: 0779 da3c 0fef 043d 5209 f73c 68c0 43bc
000001d0: 42b3 e43c acea ffbc 30aa 27bd 6a30 99bc
000001e0: a004 97bb 1c95 baba 795e e1bc b297 c9bc
000001f0: 1ffb 513d bf2c f8bc 56d8 28bb 2551 13bc

act_conv1.weight f4 [4, 128, 1, 1]
0.007771861 0.079480745 -0.03683501 0.0367041 0.08360193 -0.07136029 0.0006396125 -0.014249261
-0.028098391 0.08219275 -0.038487293 0.051172726 0.042547468 -0.014113393 -0.015568147 0.014831285
-0.047178358 0.09922929 0.032867998 -3.522978e-06 0.0616621 0.046195824 0.04648712 0.035515647
-4.152467e-06 -0.022619609 2.8350505e-06 -0.002249601 -0.010043992 0.029772697 0.0051203114 0.011581082
-0.057557624 0.00027157614 0.07480217 0.024510687 0.00033090892 -0.035073817 -0.012565189 -6.29365e-07
0.0256168 0.012269678 0.006260018 -0.087750815 -0.067819275 -0.0061397194 0.05229322 0.01207342
0.017299112 -0.055035617 0.063078254 0.09627407 0.049548622 -0.035106823 1.023607e-05 -0.03277738
-0.062346704 -0.041697543 -2.0150564e-07 -0.014050862 -0.033453774 -0.006848932 -0.0541772 -1.5108541e-06
0.04815849 0.10988667 0.014448588 0.08985494 0.05460932 -0.050564002 0.036242284 0.015289226
-0.03273481 -0.020717204 0.016581232 0.080348186 0.0016725784 0.003928076 -0.032638956 0.06330801
-0.001963462 0.042699564 5.8968496e-08 -0.02752722 -0.07958221 0.07889487 0.031724125 -0.032128733
0.021647362 0.037756424 0.045977995 -0.043819882 -0.004984787 0.0010225779 -0.026865358 0.037653722
-2.8241385e-07 0.061921906 -0.073941566 -0.11403177 0.020581638 0.04349686 -0.045002565 0.0018823011
-0.0810491 -0.0061706174 0.09232502 -6.593804e-07 0.010967828 2.5098839e-06 0.036815077 -0.0384688
0.018765377 0.091788135 0.07771251 4.982608e-07 0.070777655 -0.012552063 3.0329493e-06 -0.052902233
-0.067162156 0.0009860711 -0.03172631 0.0029925553 -0.03951462 -0.056642946 0.06082341 -0.022319714
0.037349302 0.05731813 -0.00017820374 0.019533869 0.046979338 -0.0706877 -1.4204237e-06 -0.0012823108
-0.080183946 0.0640367 0.019382216 -0.0013059955 -0.044485096 0.058637258 1.8000337e-05 -0.02693196
1.8372288e-07 -0.044829957 1.9881807e-06 2.4929594e-08 -0.04218247 -0.07534759 -0.087732844 0.04833258
-5.264829e-07 0.02280338 -1.3451821e-06 -3.037175e-06 -0.016071822 0.06142512 1.753554e-07 -0.06170419
-0.016153859 -0.00805095 0.028065374 1.3735337e-07 0.0025393614 6.983934e-08 -0.005338527 3.6485957e-07
-0.038720835 -0.03654839 -0.0027511849 -0.012028509 -0.016528344 1.050526e-06 -0.07257638 -1.4288856e-08
0.05058104 -0.021029416 0.031179292 1.696467e-05 -0.041790504 0.004717176 2.027845e-09 -0.04862271
-0.009093553 -0.004516905 1.9412412e-06 1.2710937e-07 0.04484766 -0.083735585 0.016198453 5.225624e-08
0.0057308637 -0.032766905 -0.069256276 -0.010669718 -0.01436597 -4.7516798e-05 -2.0432427e-07 -0.034386374
-0.07515097 -0.022596931 -0.025830887 -0.008629581 0.047402725 1.0229448e-05 0.038723964 -0.011779254
-0.029268727 0.03892707 -2.1681956e-07 0.06762033 -0.008650357 0.04785957 -0.03506177 -0.031406935
-0.041520685 0.020670459 -0.063546784 -0.027326507 0.051998854 0.014428236 0.03616822 -0.050096992
9.909242e-09 0.01416931 0.045105815 -3.838103e-08 -0.07518351 0.00716508 -0.0002809205 0.010322052
-0.06600499 -0.069461405 -0.013696287 -3.2279726e-07 1.7298204e-06 7.6343785e-09 -0.00013087907 -0.060504917
0.017621396 0.038802937 0.026454756 4.1945145e-07 0.009341777 -0.04151025 7.49251e-07 0.042759135
-4.4299446e-07 -5.357077e-07 1.1145475e-05 -3.857096e-07 -0.0054223714 -3.0941712e-07 0.004552626 -0.06127804
00000000: 18ab fe3b cdc6 a23d 4fe0 16bd 0a57 163d
00000010: 7d37 ab3d 5825 92bd abab 273a bb75 69bc
00000020: 992e e6bc ac54 a83d daa4 1dbd 7e9a 513d
00000030: 4146 2e3d dc3b 67bc 8b11 7fbc ebfe 723c
00000040: 183e 41bd ba38 cb3d 98a0 063d 4d6c 6cb6
00000050: 6691 7c3d d537 3d3d 4769 3e3d db78 113d
00000060: 6c55 8bb6 c24c b9bc cc41 3e36 0b6e 13bb
00000070: 8e8f 24bc dfe5 f33c 49c8 a73b 94be 3d3c
00000080: 8bc1 6bbd 5562 8e39 e131 993d a3ca c83c
00000090: d87d ad39 90a9 0fbd 39de 4dbc a2f1 28b5
000000a0: 53da d13c c206 493c d620 cd3b b3b6 b3bd
000000b0: d5e4 8abd b32f c9bb 6a31 563d 98cf 453c
000000c0: deb6 8d3c 076d 61bd 2c2f 813d 572b c53d
000000d0: 7ff3 4a3d 2ccc 0fbd 96bb 2b37 9341 06bd
000000e0: 425f 7fbd 0bcb 2abd 735d 58b4 9635 66bc
000000f0: d306 09bd 016d e0bb e9e8 5dbd 8dc8 cab5
00000100: d641 453d 430c e13d c5b9 6c3c de05 b83d
00000110: 06ae 5f3d 331c 4fbd ca72 143d a97f 7a3c
00000120: f014 06bd 20b7 a9bc 5dd5 873c 978d a43d
00000130: 6b3a db3a 17b7 803b 6db0 05bd a1a7 813d
00000140: 6dad 00bb bde5 2e3d 8c44 7d33 c480 e1bc
00000150: fffb a2bd a293 a13d 28f1 013d 6b99 03bd
00000160: cf55 b13c 7ba6 1a3d 6c53 3c3d 7a7c 33bd
00000170: 6d57 a3bb 0508 863a bd14 dcbc ca3a 1a3d
00000180: aa9e 97b4 d3a1 7d3d ad6e 97bd 7d89 e9bd
00000190: d39a a83c c329 323d 9c54 38bd 8bb7 f63a
000001a0: 12fd a5bd e432 cabb e614 bd3d 4700 31b5
000001b0: 68b2 333c 7a6f 2836 68cb 163d 7691 1dbd
000001c0: d9b9 993c 6bfb bb3d bd27 9f3d 39c0 0535
000001d0: e0f3 903d 2ba7 4dbc ac89 4b36 03b0 58bd
000001e0: 508c 89bd 0e3f 813a 72f3 01bd bf1e 443b
000001f0: 15da 21bd 6f02 68bd f821 793d d5d7 b6bc
00000200: 95fb 183d 6ac6 6a3d 34dc 3ab9 7e05 a03c
00000210: 686d 403d b6c4 90bd 63a5 beb5 3613 a8ba
00000220: 7b37 a4bd ac25 833d 74c7 9e3c f02d abba
00000230: 0136 36bd 9f2d 703d 6eff 9637 6aa0 dcbc
00000240: 5c45 4534 9e9f 37bd af6c 0536 c224 d632
00000250: 87c7 2cbd d64f 9abd 47ad b3bd 62f8 453d
00000260: a153 0db5 27ce ba3c 1b8c b4b5 45d2 4bb6
00000270: 0ea9 83bc e898 7b3d 5349 3c34 88bd 7cbd
00000280: 1955 84bc 22e8 03bc 5be9 e53c 687b 1334
00000290: 6a6b 263b 95fa 9533 cfee aebb ebe1 c334
000002a0: bd99 1ebd c4b3 15bd 394d 34bb 3913 45bc
000002b0: 7366 87bc ccff 8c35 eda2 94bd 0e7b 75b2
000002c0: 112e 4f3d e245 acbc b76b ff3c 5a4f 8e37
000002d0: 852c 2bbd 8a92 9a3b 3a5a 0b31 9b28 47bd
000002e0: 20fd 14bc 8c02 94bb 4546 0236 8f7b 0834
000002f0: 2eb2 373d 907d abbd 9eb2 843c 5870 6033
00000300: f8c9 bb3b 9736 06bd 3cd6 8dbd 0ad0 2ebc
00000310: 3f5f 6bbc c64c 47b8 3a64 5bb4 bad8 0cbd
00000320: c0e8 99bd 331d b9bc 4c9b d3bc 1663 0dbc
00000330: 5c29 423d 259f 2b37 059d 1e3d c6fd 40bc
00000340: f8c4 efbc fe71 1f3d e8ce 68b4 877c 8a3d
00000350: 3aba 0dbc 6508 443d ee9c 0fbd 8fa4 00bd
00000360: 9811 2abd 1855 a93c d124 82bd d7db dfbc
00000370: c0fc 543d 6864 6c3c 2125 143d 8132 4dbd
00000380: 4f3d 2a32 6526 683c e0c0 383d 64d8 24b3
00000390: d0f9 99bd 0cc9 ea3b 8348 93b9 d31d 293c
000003a0: a02d 87bd c841 8ebd 6466 60bc eb4c adb4
000003b0: 2d2c e835 5a28 0332 953c 09b9 01d4 77bd
000003c0: bf5a 903c d4ef 1e3d a5b7 d83c f830 e134
000003d0: 410e 193c a706 2abd 2320 4935 3424 2f3d
000003e0: b2d4 edb4 8ecd 0fb5 73fd 3a37 8613 cfb4
000003f0: 26ae b1bb f71d a6b4 322e 953b affe 7abd

act_conv1.bias f4 [4]
0.042294428 -0.07566921 -0.04030252 0.11173743
00000000: ec3c 2d3d 75f8 9abd 4114 25bd 98d6 e43d

act_fc1.weight f4 [81, 324]
-0.004862798 0.0034541117 -0.016507357 -0.017068151 -0.02623043 -0.011909226 -0.02605183 -0.0072089243
-0.05188213 0.03170396 0.032416116 -0.03254658 -0.053153563 -0.052444786 -0.008875419 -0.06414562
-0.024746016 -0.056329854 0.0069740247 0.017852323 -0.039364252 -0.008733359 -0.012790532 -0.035481606
0.02287856 -0.011862869 -0.03361302 0.029529838 -0.008048566 0.01300296 0.0049958765 0.03075224
0.052762743 -0.036428425 0.0210716 -0.056332663 -0.016273966 -0.048854522 -0.002250693 -0.018632114
0.02493725 -0.0070614303 -0.05134161 -0.0077046077 -0.097016186 -0.10064452 -0.046120938 0.00087618304
0.041887566 -0.028662503 -0.025816608 -0.0017868861 -0.059742916 -0.052700218 -0.049574245 -0.00853461
-0.071609765 -0.0031525176 0.03353336 0.02990711 -0.012087996 -0.03531852 -0.05638886 0.10349728
0.017637866 0.021714786 -0.040281486 -0.07663853 0.0014453868 -0.0012040508 0.038044 -0.0028686083
0.14065312 0.07691196 -0.038986597 0.00047132515 -0.06457487 0.003315481 0.024625603 0.018056024
0.025136836 -0.011676931 -0.016367767 -0.014983943 -0.035035778 0.009077727 -0.0091251945 0.007828591
0.0052513513 -0.0005726832 -0.011767893 -0.0012674868 -0.030687721 0.0038248505 -0.0037046915 -0.0038254263
-0.004921783 -0.009419522 -0.0070739146 -0.005694519 0.009034867 -0.03946029 -0.014368607 -0.008520064
0.015330785 -0.026835397 -0.0053252093 0.004402187 0.0027523725 0.01976514 -0.027685484 -0.015590691
-0.021679332 -0.045982406 0.02077571 -0.0018222604 -0.0130600035 -0.019355554 0.012374391 0.013110663
-0.0030973041 -0.044160888 -0.038798183 0.015716868 -0.014995101 -0.013473412 -0.030369459 -0.013984996
0.0035156086 -0.046194807 -0.010352212 -0.026224293 0.011248349 0.003522308 -0.006817282 -0.019351376
-0.00635507 -0.03715581 -0.04567277 -0.032333784 -0.014626071 -0.02986578 -0.027924472 0.0048537375
-0.015013178 -0.013575711 -0.00019529797 -0.037685927 -0.044723023 -0.029465625 -0.04102302 -0.00032864217
0.0022903776 0.00048698817 -0.010212057 -0.009448598 -0.0045042546 -0.010323626 -0.019492358 -0.018630065
0.00028417123 -3.6852336e-07 -1.3655651e-07 1.7702617e-07 8.7026535e-08 -2.2567959e-07 -5.9244933e-08 3.7360434e-07
7.984225e-08 -8.2519485e-08 4.115304e-09 7.657781e-08 3.2756571e-07 -2.3582257e-07 -1.4352905e-07 1.4988395e-06
7.887882e-08 -1.577047e-07 1.675071e-07 -2.3010662e-07 9.192444e-08 -3.765128e-07 1.2284262e-05 -3.9087936e-05
4.623365e-06 4.0994073e-05 2.9902352e-05 -1.0624526e-06 1.4186857e-07 -3.2247604e-07 1.42614435e-05 -8.7072556e-05
-1.1409264e-05 -3.2326154e-06 -8.156805e-06 6.083603e-05 -1.5228021e-05 -9.3782705e-07 5.85776e-07 7.3206343e-06
-1.3112575e-05 -5.433804e-06 -5.626659e-05 1.5628164e-05 2.4961388e-05 -3.0568506e-05 -1.4154176e-07 5.0878697e-07
3.114271e-05 -0.00013118297 -7.896687e-05 -5.1102215e-05 -3.5338788e-05 8.362118e-05 1.7725282e-05 2.5805878e-07
3.5069382e-07 -6.0944103e-06 0.00019734082 -2.4997005e-05 -0.00019316284 -0.00013814455 -0.00028662174 2.0713736e-05
1.6174268e-07 3.4870187e-08 0.00031754858 -0.0006959887 0.0010052627 -0.0022384613 -0.0017153508 0.000336799
2.0606859e-07 -1.0620871e-07 3.74552e-05 0.0034968928 -0.008142334 -0.00028212942 -0.005378095 0.0049069757
0.0023674567 -0.0013332542 3.0694545e-07 0.06600471 0.10377062 0.0026705984 0.063015245 0.06342654
0.021800278 0.040605437 0.029231872 0.06538315 0.051502526 -0.04924647 0.049074408 -0.015346967
00000000: 1b58 9fbb 615e 623b 703a 87bc 82d2 8bbc
00000010: 33e1 d6bc ea1e 43bc a66a d5bc d738 ecbb
00000020: 5b82 54bd 03dc 013d c3c6 043d 904f 05bd
00000030: 8db7 59bd 58d0 56bd 356a 11bc c75e 83bd
00000040: 28b8 cabc 22ba 66bd 5c86 e43b 093f 923c
00000050: 693c 21bd 5d16 0fbc 618f 51bc 2955 11bd
00000060: d16b bb3c 7b5c 42bc cead 09bd 8fe8 f13c
00000070: 22de 03bc 5e0a 553c 73b4 a33b 1fec fb3c
00000080: bf1d 583d f935 15bd 599e ac3c 14bd 66bd
00000090: fb50 85bc ae1b 48bd 5d80 13bb 60a2 98bc
000000a0: 3449 cc3c 9263 e7bb 944b 52bd ef76 fcbb
000000b0: 6cb0 c6bd b71e cebd 4fe9 3cbd a6af 653a
000000c0: 4c92 2b3d a0cd eabc 5a7d d3bc f335 eaba
000000d0: fdb4 74bd 2fdc 57bd 5d0e 4bbd c0d4 0bbc
000000e0: 24a8 92bd 789a 4ebb 475a 093d c1ff f43c
000000f0: bb0c 46bc 27aa 10bd 01f8 66bd 62f6 d33d
00000100: 497d 903c 35e3 b13c 33fe 24bd a9f4 9cbd
00000110: 2273 bd3a 3ed1 9dba 06d4 1b3d 43ff 3bbb
00000120: 5f07 103e 0584 9d3d 69b0 1fbd 311c f739
00000130: d43f 84bd 8a48 593b a2bb c93c 3aea 933c
00000140: c4eb cd3c 9950 3fbc b215 86bc 367f 75bc
00000150: ad81 0fbd bfba 143c d781 15bc 7e43 003c
00000160: 8713 ac3b 1e20 16ba 1fce 40bc cd21 a6ba
00000170: d164 fbbc 58aa 7a3b 69ca 72bb 01b4 7abb
00000180: e946 a1bb 5754 1abc 4ccc e7bb 1699 babb
00000190: fb06 143c 1da1 21bd 4e6a 6bbc bd97 0bbc
000001a0: f92d 7b3c e8d5 dbbc 187f aebb 3940 903b
000001b0: 2661 343b 81ea a13c abcc e2bc 1970 7fbc
000001c0: db98 b1bc 0c58 3cbd d231 aa3c ead8 eeba
000001d0: a0f9 55bc 8a8f 9ebc f5bd 4a3c 1bce 563c
000001e0: 24fc 4abb 0ce2 34bd d8ea 1ebd a9c0 803c
000001f0: 03ae 75bc 96bf 5cbc 5fc9 f8bc 5321 65bc
00000200: 2066 663b c436 3dbd 539c 29bc 54d4 d6bc
00000210: ff4a 383c 86d6 663b 8263 dfbb c786 9ebc
00000220: 313e d0bb b130 18bd 5f13 3bbd 6e70 04bd
00000230: 30a2 6fbc 15a9 f4bc ddc1 e4bc 1a0c 9f3b
00000240: d5f9 75bc a96c 5ebc e6c8 4cb9 8f5c 1abd
00000250: 7d2f 37bd e561 f1bc c107 28bd 9b4d acb9
00000260: 291a 163b 7252 ff39 7950 27bc 4bce 1abc
00000270: 6d98 93bb 6d24 29bc 70ae 9fbc 149e 98bc
00000280: d1fc 9439 77d9 c5b4 5ea0 12b4 9514 3e34
00000290: 58e3 ba33 5552 72b4 7e74 7eb3 ca93 c834
000002a0: be75 ab33 9135 b1b3 9966 8d31 1973 a433
000002b0: 4adc af34 6a36 7db4 f71c 1ab4 bc2b c935
000002c0: 1764 a933 8a55 29b4 00dc 3334 3a13 77b4
000002d0: ff67 c533 8623 cab4 8118 4e37 5af2 23b8
000002e0: 6722 9b36 0df1 2b38 d0d6 fa37 9899 8eb5
000002f0: 8954 1834 c520 adb4 6f44 6f37 b99a b6b8
00000300: 6a6a 3fb7 e9ef 58b6 36d9 08b7 312a 7f38
00000310: da7b 7fb7 fcbe 7bb5 383e 1d35 c5a3 f536
00000320: 15fe 5bb7 0554 b6b6 caff 6bb8 3a19 8337
00000330: 2c64 d137 af36 00b8 b4fa 17b4 9393 0835
00000340: 3b9f 0238 298e 09b9 049b a5b8 9656 56b8
00000350: bc38 14b8 c75d af38 c1b0 9437 548b 8a34
00000360: fe46 bc34 967e ccb6 46ed 4e39 a9b0 d1b7
00000370: c18b 4ab9 e5da 10b9 b845 96b9 69c2 ad37
00000380: 7dab 2d34 2dc4 1533 a67c a639 0373 36ba
00000390: 05c3 833a 26b3 12bb 9fd5 e0ba 6694 b039
000003a0: b443 5d34 db14 e4b3 3719 1d38 202c 653b
000003b0: 6d67 05bc c5ea 93b9 bb3a b0bb b2ca a03b
000003c0: 5527 1b3b 96c0 aeba 43ca a434 7a2d 873d
000003d0: b185 d43d 3505 2f3b 230e 813d c6e5 813d
000003e0: 7f96 b23c e351 263d ae77 ef3c 9ae7 853d
000003f0: 50f4 523d abb6 49bd 3f02 493d d871 7bbc

act_fc1.bias f4 [81]
0.1348995 -0.048283767 -0.19127232 0.109032795 0.12019009 0.10562553 -0.11285631 -0.050385408
0.09624081 -0.033901237 -0.06908586 0.11636255 0.028428093 0.20574437 0.059548073 0.085881956
-0.17071798 -0.056106303 -0.15705743 0.13206004 0.029185701 0.22267348 -0.07363966 0.2036775
0.033626974 0.14924513 -0.12131341 0.07486947 0.019887585 0.15311356 0.16861114 0.18909152
0.11915808 0.19825608 0.033120416 0.0859654 0.07962694 0.19758369 -0.043129735 0.24714778
-0.030687016 0.28420773 -0.07583377 0.21499631 0.06368216 0.07291973 0.04389018 0.15649998
0.13031533 0.23279077 0.10551648 0.20807543 -0.015314255 0.07119582 -0.16122386 0.117037244
0.09228972 0.23555712 -0.08093392 0.14805017 0.0210471 0.15388599 -0.124960795 -0.09811455
-0.1149638 0.12855433 0.036459193 0.16496034 0.031139107 0.14012685 -0.14567146 -0.048306074
0.05155846 -0.093755424 -0.15964583 0.099151865 0.06601667 0.07671077 -0.15053079 -0.045201007
0.117959164
00000000: 1823 0a3e 33c5 45bd e4dc 43be 964c df3d
00000010: 3926 f63d 3352 d83d 3621 e7bd ee60 4ebd
00000020: e719 c53d 06dc 0abd e37c 8dbd 7d4f ee3d
00000030: 08e2 e83c a7ae 523e aee8 733d e1e2 af3d
00000040: b2d0 2ebe b9cf 65bd aad3 20be bf3a 073e
00000050: da16 ef3c 8404 643e 64d0 96bd d690 503e
00000060: 70bc 093d b7d3 183e 2a73 f8bd 2a55 993d
00000070: 4aeb a23c cdc9 1c3e 66a8 2c3e 35a1 413e
00000080: 2709 f43d a403 4b3e 46a9 073d a10e b03d
00000090: 7313 a33d 6153 4a3e cea8 30bd 4f14 7d3e
000000a0: 5663 fbbc ad83 913e bc4e 9bbd fe27 5c3e
000000b0: cb6b 823d f056 953d 30c6 333d 8841 203e
000000c0: 6271 053e b460 6e3e 0619 d83d ba11 553e
000000d0: a4e8 7abc 1dcf 913d de17 25be 39b1 ef3d
000000e0: 6502 bd3d e335 713e afc0 a5bd 779a 173e
000000f0: f86a ac3c 4a94 1d3e 72eb ffbd 48f0 c8bd
00000100: 2472 ebbd bfa3 033e 3c56 153d 5deb 283e
00000110: 7117 ff3c 6a7d 0f3e e62a 15be 97dc 45bd
00000120: f72e 533d d802 c0bd 327a 23be 2210 cb3d
00000130: bf33 873d 891a 9d3d be24 1abe b124 39bd
00000140: 9394 f13d

val_conv1.weight f4 [2, 128, 1, 1]
0.044281844 0.024340007 -0.0465334 0.016357692 0.07850734 -0.053152423 -1.3254564e-06 -1.14318546e-07
-0.0068795783 0.050020106 -0.09544767 0.006316682 -0.109045185 0.02030922 -0.06808427 0.087052494
-0.040140454 -0.03726043 0.004598582 -0.0351473 -0.11559227 -0.06325607 0.016486418 0.01855112
0.030896809 0.0314981 0.001790465 -0.015084396 0.042412817 0.07466513 -0.004605748 -0.076338194
0.06750786 0.02060059 0.05938464 -0.066693254 -0.04691552 -0.01695404 0.015829345 -0.047699586
-0.015107913 0.050226614 0.044755008 -0.059857287 0.03361926 -0.027458671 -0.085507214 -3.4203052e-07
0.021758681 -0.04838343 0.07649999 -0.0053320723 0.016496733 0.045949206 -0.033564962 0.060539056
0.04496468 -0.058954205 0.000103891995 -0.033519927 -0.09147212 0.023243228 0.07456377 -1.0788789e-06
0.02317473 -0.021434965 0.078936435 -0.047496244 -0.021844095 -0.063830055 -0.014991381 0.0068629514
0.045372825 -0.07990315 0.06646823 0.0771755 0.029697692 -0.05482131 0.066041395 -0.022586405
-0.052605096 -0.042335328 -0.016976867 0.057427656 -0.057619333 0.015776018 0.054458067 0.04028179
0.060936704 0.030536504 0.021108953 0.016287712 0.03935762 -0.054266527 -0.09107646 -0.0018330507
0.021474775 -0.077374205 0.017756741 0.001222455 0.027391797 0.08336468 0.0078013767 -0.12198528
-0.059973348 -0.033923447 -0.06319296 -0.029432913 2.7246989e-08 0.061561823 0.049110398 0.023982115
-0.07364162 0.03451458 0.0015760739 -4.0857245e-05 -0.111643724 -0.06674762 -0.051553376 0.07375772
-0.09386645 0.020584116 -0.03826717 -0.016827727 -0.06965265 -0.028070405 0.021477792 0.008653679
-0.0025874982 -0.009813051 -0.023250725 0.008745099 0.036183655 0.036376394 4.6654768e-07 -4.7418553e-08
-0.03610863 0.06690049 -0.068933494 -0.07839648 -0.09689073 -0.009417433 -0.00014673328 0.04793467
0.0074159363 0.04841712 -2.6127779e-08 9.004146e-07 -0.0752627 0.0024292003 0.055783223 0.016043311
-1.983199e-07 -0.09041682 -4.3138662e-08 -3.537024e-07 -0.044761896 0.022331068 0.00015085076 -0.09245823
-0.014867545 -0.0049009314 -0.05914573 -0.034739204 5.436708e-07 -3.649145e-07 -0.047248602 2.9196895e-06
-0.0023508805 0.022588618 0.06256605 0.0035433085 0.039357886 7.196904e-07 -0.035777967 -2.6165569e-07
0.0027174281 -0.03806983 0.050800838 3.0403055e-07 0.035622776 -0.009380959 -9.723441e-09 -0.038135927
0.061518867 2.106769e-06 -1.7692317e-07 -0.006948115 -0.006954303 0.030373918 -0.06490235 1.6189554e-07
-3.4608856e-06 6.965316e-07 0.05319919 -8.154822e-06 -3.417484e-06 0.015526222 0.00926827 -0.056692004
-0.08339661 -0.09544601 0.01767537 -0.037080668 0.017236756 -7.179226e-08 -0.08517072 -0.001962459
-0.031508464 -0.040340703 2.3216469e-09 -0.01838725 -0.077328816 0.032005213 0.002806467 -0.011207407
-0.07572615 -0.024205647 -0.044858925 -0.016308654 -0.062104892 -0.0824797 -0.047289196 -0.08137543
1.8340943e-07 0.015040793 3.4191692e-06 -0.0013457253 0.020828987 -0.011367795 2.331338e-07 -0.06615827
-0.00044275337 -0.03771377 -0.006140278 -1.3696261e-07 -7.970961e-07 1.5978515e-07 0.012697695 -0.07717808
-0.0020212515 -0.009481118 0.0520822 4.2647434e-06 -0.046361692 0.017890051 -1.12896885e-07 0.062511764
-0.032693576 -1.9810199e-07 -3.8210703e-05 1.5067919e-06 -0.030118851 0.042788535 -0.07429834 -0.054433394
00000000: e160 353d b264 c73c ce99 3ebd 9100 863c
00000010: 75c8 a03d 5bb6 59bd 56e6 b1b5 497f f5b3
00000020: 166e e1bb e2e1 4c3d 117a c3bd 2bfc ce3b
00000030: 1553 dfbd 855f a63c c46f 8bbd 9448 b23d
00000040: 516a 24bd 659e 18bd b4af 963b 9ef6 0fbd
00000050: a4bb ecbd 668c 81bd 860e 873c 85f8 973c
00000060: 4e1b fd3c 2704 013d 09ae ea3a 8b24 77bc
00000070: 10b9 2d3d 08ea 983d d1eb 96bb 3357 9cbd
00000080: 9041 8a3d 92c2 a83c 4f3d 733d 7996 88bd
00000090: 7d2a 40bd 33e3 8abc 8bac 813c a460 43bd
000000a0: 2e87 77bc 6cba 4d3d 0751 373d ea2c 75bd
000000b0: 59b4 093d 02f1 e0bc 681e afbd 51a0 b7b4
000000c0: 433f b23c b42d 46bd 07ac 9c3d aab8 aebb
000000d0: 2824 873c 3c35 3c3d 6a7b 09bd cdf7 773d
000000e0: e22c 383d f779 71bd 97e0 d938 314c 09bd
000000f0: bc55 bbbd 9568 be3c e4b4 983d ffcd 90b5
00000100: eed8 bd3c 6198 afbc 6da9 a13d 6c8b 42bd
00000110: 63f2 b2bc 55b9 82bd 699e 75bc 9ce2 e03b
00000120: dbd8 393d 43a4 a3bd 7f20 883d 300e 9e3d
00000130: 9348 f33c 4f8c 60bd b640 873d 2007 b9bc
00000140: 7178 57bd cf67 2dbd 1213 8bbc 4339 6b3d
00000150: 4002 6cbd b53c 813c 6c0f 5f3d 85fe 243d
00000160: c498 793d b127 fa3c afec ac3c cf6d 853c
00000170: 7535 213d 9446 5ebd 4c86 babd fa42 f0ba
00000180: deeb af3c 5e76 9ebd 9676 913c c83a a03a
00000190: c364 e03c 1abb aa3d b1a2 ff3b 6bd3 f9bd
000001a0: 9da6 75bd 50f3 0abd 506b 81bd 4b1d f1bc
000001b0: c30c ea32 4028 7c3d fc27 493d 2476 c43c
000001c0: 6bd1 96bd 295f 0d3d 4494 ce3a 225e 2bb8
000001d0: 77a5 e4bd fab2 88bd a229 53bd 4a0e 973d
000001e0: 0e3d c0bd 05a0 a83c 09be 1cbd 4dda 89bc
000001f0: 0ca6 8ebd e8f3 e5bc 32f2 af3c 29c8 0d3c
00000200: 0493 29bb ebc6 20bc 4e78 bebc 9b47 0f3c
00000210: 5035 143d 6aff 143d d379 fa34 40a9 4bb3
00000220: a5e6 13bd 2003 893d 012d 8dbd 558e a0bd
00000230: a66e c6bd 944b 1abc 6adc 19b9 2557 443d
00000240: 6201 f33b 0851 463d 986f e0b2 05b4 7135
00000250: 5523 9abd 3833 1f3b f37c 643d 436d 833c
00000260: c2f1 54b4 742c b9bd 7647 39b3 7de4 bdb4
00000270: 4058 37bd a5ef b63c b12d 1e39 be5a bdbd
00000280: 0197 73bc fe97 a0bb cb42 72bd b24a 0ebd
00000290: c6f0 1135 78e9 c3b4 c087 41bd e2ef 4336
000002a0: 3b11 1abb c40b b93c a122 803d da36 683b
000002b0: bc35 213d bf30 4135 eb8b 12bd af79 8cb4
000002c0: e116 323b 1cef 1bbd 8a14 503d a439 a334
000002d0: 30e9 113d 98b2 19bc 250c 27b2 6b34 1cbd
000002e0: 35fb 7b3d 0462 0d36 45f8 3db4 03ad e3bb
000002f0: ece0 e3bb b9d2 f83c 86eb 84bd 82d5 2d34
00000300: 9041 68b6 49f9 3a35 65e7 593d b2d0 08b7
00000310: ee57 65b6 b261 7e3c f1d9 173c e035 68bd
00000320: d8cb aabd 3379 c3bd f0cb 903c e6e1 17bd
00000330: 1934 8d3c 362c 9ab3 fd6d aebd 999c 00bb
00000340: 050f 01bd 4b3c 25bd d88a 1f31 dca0 96bc
00000350: 925e 9ebd e617 033d b4ec 373b 469f 37bc
00000360: 5016 9bbd ec4a c6bc febd 37bd ba99 85bc
00000370: b361 7ebd 1eeb a8bd 51b2 41bd 29a8 a6bd
00000380: 33ef 4434 a96d 763c e174 6536 0c63 b0ba
00000390: 8da1 aa3c fd3f 3abc 5553 7a34 fd7d 87bd
000003a0: 5a21 e8b9 c179 1abd 6334 c9bb ff0f 13b4
000003b0: 07f8 55b5 6891 2b34 fe09 503c 8b0f 9ebd
000003c0: f976 04bb b156 1bbc 2554 553d de19 8f36
000003d0: c2e5 3dbd 288e 923c b871 f2b3 2b06 803d
000003e0: b3e9 05bd dcb5 54b4 6e44 20b8 fa3c ca35
000003f0: cfbb f6bc 0843 2f3d ba29 98bd 8df5 5ebd

val_conv1.bias f4 [2]
0.0583531 -0.07141738
00000000: a903 6f3d 4643 92bd
