课程设计/AlphaZero简单复现/models/policy_batch_450.model (torch, 530617 bytes, 15 tensors)

conv1.weight f4 [32, 4, 3, 3]
0.17377886 0.004790962 0.2507943 -0.019420886 0.015772302 -0.092739366 0.32894608 -0.23099105
0.3894538 0.04944327 0.00516873 0.14765158 0.040406823 -0.06189809 -0.011019731 0.2577027
-0.1349719 0.20474207 0.065964125 0.059140056 -0.051646836 0.035252675 0.04022607 -0.047065478
-0.014605905 0.012248851 0.08253864 0.010436773 0.014717194 -0.059180506 -0.095369525 0.12426017
-0.043466367 0.0063928557 0.040425763 -0.06623391 0.24320532 0.22597131 -0.36586806 0.12892349
-0.02027432 0.27325663 -0.21845588 0.0982355 0.1168166 0.13034043 0.07110416 -0.1022209
-0.23494565 0.025454 -0.03339882 0.08314459 -0.15396014 0.21437445 0.07600572 0.05534362
-0.019074636 0.019257009 -0.008700061 -0.031848744 0.035709392 0.022348631 -0.029351683 -0.011188342
-0.14752047 0.044917803 -0.17357026 0.06228842 -0.1683218 0.13636507 -0.055447355 0.15230472
0.15377241 0.15024768 0.023260811 -0.23069692 -0.06704757 -0.19126701 0.02028102 0.17063497
-0.23254813 -0.012816266 -0.086061515 -0.05121555 0.13372236 0.08123685 0.04280762 0.06686193
-0.1756579 -0.038263846 -0.099468544 -0.0270716 -0.09840983 -0.16535401 -0.06681179 -0.033252355
0.013283041 0.0052199173 0.05144382 -0.09822075 0.1488396 0.11139614 0.04313804 0.07253169
0.08292915 0.08028963 0.15554494 -0.14487799 -0.031069951 -0.38446313 0.274294 -0.09398179
0.3164988 -0.3189874 0.0327416 0.044462025 0.1264703 -0.018114004 0.064235255 -0.12384748
0.12265332 0.018071847 0.09552679 -0.0016870645 0.13171785 0.20401965 -0.027164191 0.009796872
-0.009698752 0.011175074 -0.018063916 0.07953633 -0.056325793 0.016547292 0.0104312645 0.07009338
-0.063555636 0.1083017 0.12970589 -0.018592583 -0.08327253 -0.1184561 -0.10144028 0.13727343
-0.13597478 -0.07332161 -0.044891883 0.082268015 0.016725603 0.085501686 -0.10512739 -0.06323882
0.10919867 -0.12624545 0.0063493904 -0.12778287 0.12738867 0.03424412 -0.07634548 0.12136533
-0.07367274 -0.13825236 0.005406987 0.06731541 0.16019627 0.102640085 0.07626137 -0.049359992
0.01589407 -0.068026416 0.017488876 0.08545574 0.09347245 0.14297628 0.12944515 0.08392222
0.107189134 0.14905387 0.14254174 0.12610443 0.26298037 0.08573032 -0.06777298 -0.31091863
0.35295776 0.33125988 0.2704232 -0.040998347 0.012431503 0.053368427 -0.08793995 -0.1792375
-0.41477314 0.21845458 0.14817353 0.11923294 -0.18419491 -0.07329315 0.09272819 0.10480173
-0.051520225 -0.029188614 0.13024172 0.07451089 0.03860525 0.039307732 -0.025381003 0.033479616
0.038738426 0.124620005 0.14561334 -0.13556679 -0.0817633 -0.023641273 -0.07154325 0.16024002
-0.01981301 -0.10203008 0.07715648 -0.019544972 -0.065699324 -0.27637264 0.040386498 -0.03972644
0.26320407 0.0045127887 0.0012367007 0.08271497 -0.06978205 0.24896495 -0.23514669 0.035350017
-0.35663277 0.22372915 -0.020772042 -0.021912491 0.081852674 -0.0149451 0.10717488 -0.105750605
0.17668223 -0.15057124 0.12367454 0.018404225 0.1395455 0.1389697 -0.009845633 -0.07082548
0.0011765225 -0.15193598 -0.0344218 -0.048291422 -0.26645854 0.15987608 0.26110625 -0.10018667
00000000: 16f3 313e 81fd 9c3b 1c68 803e 8d18 9fbc
00000010: ea34 813c 23ee bdbd 9f6b a83e eb88 6cbe
00000020: 7d66 c73e 0785 4a3d 735e a93b fa31 173e
00000030: a081 253d da88 7dbd 1a8c 34bc 9cf1 833e
00000040: 1336 0abe e8a7 513e 3318 873d d83c 723d
00000050: a28b 53bd 1c65 103d 17c4 243d bbc7 40bd
00000060: 9b4d 6fbc 68af 483c 050a a93d 00ff 2a3c
00000070: 6320 713c 4267 72bd 1951 c3bd 1e7c fe3d
00000080: ca09 32bd 297b d13b 7c95 253d a5a5 87bd
00000090: d10a 793e 0665 673e 0f53 bbbe 8504 043e
000000a0: 5516 a6bc 4be8 8b3e e6b2 5fbe b22f c93d
000000b0: 8b3d ef3d f677 053e 0f9f 913d 3159 d1bd
000000c0: 9895 70be e884 d03c 33cd 08bd b647 aa3d
000000d0: baa7 1dbe fa84 5b3e e3a8 9b3d feaf 623d
000000e0: 6942 9cbc e0c0 9d3c b38a 0ebc d473 02bd
000000f0: 0344 123d 7a14 b73c f172 f0bc 4f4f 37bc
00000100: 9b0f 17be bbfb 373d 67bc 31be 2422 7f3d
00000110: 8d5c 2cbe 49a3 0b3e c41c 63bd c5f5 1b3e
00000120: 8476 1d3e 87da 193e 758d be3c d03b 6cbe
00000130: 3d50 89bd 80db 43be 6224 a63c efba 2e3e
00000140: 1921 6ebe 51fb 51bc 0541 b0bd 66c7 51bd
00000150: 84ee 083e 815f a63d 0b57 2f3d e8ee 883d
00000160: aadf 33be 8dba 1cbd 2ab6 cbbd 43c5 ddbc
00000170: 188b c9bd 9052 29be 9fd4 88bd 9f33 08bd
00000180: 1da1 593c d70b ab3b c1b6 523d f627 c9bd
00000190: 6869 183e a923 e43d 83b1 303d 7f8b 943d
000001a0: c2d6 a93d e46e a43d 2c47 1f3e e55a 14be
000001b0: 6986 febc 5ad8 c4be 4370 8c3e 8679 c0bd
000001c0: 210c a23e 5152 a3be 0e1c 063d d01d 363d
000001d0: 6e81 013e d263 94bc c68d 833d bfa3 fdbd
000001e0: aa31 fb3d 690b 943c 8da3 c33d 7e20 ddba
000001f0: 0be1 063e 87ea 503e 7087 debc 0f83 203c
00000200: 84e7 1ebc a817 373c c7fa 93bc f2e3 a23d
00000210: e0b5 66bd 308e 873c e5e7 2a3c 1e8d 8f3d
00000220: 7529 82bd 48cd dd3d 9fd1 043e 794f 98bc
00000230: ca8a aabd 1d99 f2bd ecbf cfbd 6891 0c3e
00000240: f93c 0bbe a429 96bd 8de0 37bd 227c a83d
00000250: 2204 893c 821b af3d 074d d7bd 5b83 81bd
00000260: 8da3 df3d 7d46 01be 8c0e d03b 83d9 02be
00000270: 2d72 023e 9043 0c3d 055b 9cbd 638e f83d
00000280: bce1 96bd 0792 0dbe 182d b13b a9dc 893d
00000290: 7e0a 243e f734 d23d ec2e 9c3d b42d 4abd
000002a0: 4834 823c 6f51 8bbd d544 8f3c 6b03 af3d
000002b0: 7c6e bf3d 6068 123e 458d 043e 6adf ab3d
000002c0: fa85 db3d 94a1 183e 76f6 113e 8521 013e
000002d0: 5da5 863e 6193 af3d 8fcc 8abd ba30 9fbe
000002e0: e1b6 b43e e59a a93e e974 8a3e e2ed 27bd
000002f0: 81ad 4b3c da98 5a3d dc19 b4bd 098a 37be
00000300: 255d d4be 8fb2 5f3e cdba 173e 6630 f43d
00000310: 979d 3cbe b81a 96bd 47e8 bd3d 4aa2 d63d
00000320: df06 53bd f61c efbc 165e 053e 2a99 983d
00000330: 8a20 1e3d 2501 213d d2eb cfbc ec21 093d
00000340: 2fac 1e3d c638 ff3d aa1b 153e 05d2 0abe
00000350: 8473 a7bd 58ab c1bc 4485 92bd f615 243e
00000360: e54e a2bc 26f5 d0bd 3704 9e3d c71c a0bc
00000370: 5e8d 86bd b780 8dbe 506c 253d 31b8 22bd
00000380: afc2 863e 04e0 933b ca18 a23a 7766 a93d
00000390: e4e9 8ebd abf0 7e3e 4bca 70be 2ecb 103d
000003a0: 9298 b6be 4119 653e 212a aabc d381 b3bc
000003b0: 60a2 a73d 4bdc 74bc 817e db3d c693 d8bd
000003c0: 30ec 343e 592f 1abe 1449 fd3d 75c4 963c
000003d0: 04e5 0e3e 134e 0e3e 944f 21bc f30c 91bd
000003e0: 8b35 9a3a 1b95 1bbe e0fd 0cbd 3acd 45bd
000003f0: 416d 88be 8eb6 233e b8af 853e ab2e cdbd

conv1.bias f4 [32]
-0.078364275 0.1331039 0.08692378 -0.014081389 -0.13811992 -0.041912876 0.0154725555 0.11206754
0.0019975752 -0.11305903 0.31674546 -0.07062766 -0.15402213 -0.042830788 -0.011670866 0.22712065
-0.020971658 0.21658286 -0.0071015256 0.0079585295 0.27432114 -0.023513898 -0.08972084 -0.05300805
-0.033361483 0.18898422 0.25966325 -0.021864496 -0.053136174 -0.120422706 0.040488753 -0.14084953
00000000: 737d a0bd 644c 083e 1805 b23d a0b5 66bc
00000010: 4f6f 0dbe d6ac 2bbd 9a80 7d3c ab83 e53d
00000020: c0e9 023b 7e8b e7bd 762c a23e 3ca5 90bd
00000030: fab7 1dbe 566f 2fbd 2937 3fbc 5192 683e
00000040: c1cc abbc e6c7 5d3e eab3 e8bb 7e64 023c
00000050: d273 8c3e 38a0 c0bc 8fbf b7bd f81e 59bd
00000060: 0da6 08bd 1485 413e 95f2 843e 2c1d b3bc
00000070: 51a5 59bd 2ea0 f6bd 89d7 253d dc3a 10be

conv2.weight f4 [64, 32, 3, 3]
0.0855616 0.12629117 0.14925542 0.1950815 -0.06592783 0.20091319 -0.026564907 0.09386276
-0.0866849 0.12679243 -0.07997223 -0.047110744 0.051870856 -0.031495742 -0.12602149 0.04258269
0.05384589 0.20605053 -0.05562485 -0.008180988 0.0864207 -0.0508641 0.057089467 0.0029384443
-0.045899015 -0.077044904 -0.02946123 0.085517325 0.12143898 0.010770522 -0.0006832219 -0.1032841
0.064397454 -0.20238593 0.050802205 -0.113082126 0.020190462 -0.01180048 0.008052089 -0.0020056316
-0.009094436 0.012194131 -0.02182463 0.007803634 0.031885605 -0.032238856 0.0016069254 -0.01600209
0.06453685 0.07892487 -0.035309993 -0.08981238 -0.025931941 -0.1366016 0.07057635 0.039888136
0.018737692 -0.063423716 -0.07467021 0.08002266 -0.010554785 0.08760957 0.009099794 0.015933119
-0.16753323 -0.008982213 0.07615661 0.082882635 -0.2902776 0.23812245 0.048570897 -0.052442513
0.00044316254 0.055758636 -0.098140314 0.07904747 0.093157575 -0.04095874 -0.027790377 0.08050797
0.086651556 -0.07539096 0.058913127 0.03287626 -0.07928829 -0.013653183 0.011832769 -0.05485733
0.027557276 -0.015487309 0.057401076 -0.073404275 0.06680716 0.07994644 -0.058913086 -0.050861374
0.052315045 0.09013458 0.11238985 -0.01921093 -0.042392135 0.05352975 0.09230991 0.087144546
0.12024379 -0.039417937 0.043552093 -0.0022433996 0.03639 0.017616717 -0.06909119 0.03090953
-0.042764887 0.027299063 -0.061162796 -0.008221794 0.08245054 -0.07481573 -0.016132109 0.094271876
0.19166511 -0.026770487 -0.047935653 0.15309003 -0.055680376 0.12155685 0.003842486 0.20608272
0.1565299 -0.054640517 0.05113521 0.07950746 -0.07951184 -0.22328356 -0.055323087 -0.018221237
0.050566494 -0.010162317 0.01820529 -0.043179896 0.07789578 -0.03346815 0.09825138 0.05139526
-0.0903 -0.05542946 -0.09660815 -0.045986854 0.0652408 0.025804758 0.09754995 0.19303045
0.14661129 0.0712167 0.05300876 -0.025259579 -0.009010606 -0.023280418 -0.06960891 0.051604077
-0.031131577 0.04740926 -0.0032107509 0.0686828 -0.07709717 0.15132596 0.18173358 -0.07160168
-0.0003389959 0.025001442 -0.039930183 -0.0879061 0.05514217 -0.007970945 0.108359635 -0.006566364
-0.026413577 0.1002458 -0.040039245 -0.13198858 -0.06752881 -0.056958314 -0.026143666 0.06574823
-0.12103697 -0.08657821 0.06017948 -0.09243538 0.025456313 0.17885996 0.21473098 0.06235809
0.065757245 -0.022984507 -0.12825476 -0.21568288 -0.35093024 0.04023013 0.08575002 0.03495238
0.01638201 0.09625669 0.028918622 0.069042884 -0.10094567 -0.0051775877 0.043267462 0.03511579
0.10105431 -0.07615284 0.03171885 0.055628415 0.057398304 -0.13744648 0.053616393 -0.18154946
0.077477135 0.15524086 0.029557055 0.10877137 0.05431707 -0.093649216 0.038652252 -0.076552235
-0.03516417 -0.04185034 0.03677226 -0.0054730936 -0.13186601 0.012059447 0.14884874 -0.13280615
0.040459294 0.21040387 -0.09432963 0.04853897 -0.017815812 0.05770676 -0.025694933 0.008450908
-0.04986721 -0.22762987 0.10784981 -0.023120793 -0.07862834 -0.040526967 0.06865713 -0.025526702
0.043472145 0.08674998 0.0013989346 0.03197253 -0.013930586 0.06588788 -0.025497632 -0.04368778
00000000: ec3a af3d 7952 013e 6ad6 183e 72c3 473e
00000010: 2c05 87bd 30bc 4d3e a69e d9bc 1e3b c03d
00000020: da87 b1bd e0d5 013e 7bc8 a3bd 32f7 40bd
00000030: 8976 543d ae01 01bd c70b 01be 306b 2e3d
00000040: 828d 5c3d e9fe 523e e2d6 63bd 8d09 06bc
00000050: 56fd b03d e056 50bd a5d6 693d ea92 403b
00000060: 9b00 3cbd b8c9 9dbd ad58 f1bc b523 af3d
00000070: 00b5 f83d d876 303c 3f1a 33ba 9d86 d3bd
00000080: d0e2 833d 423e 4fbe f915 503d 9a97 e7bd
00000090: 7866 a53c cd56 41bc e9ec 033c ea70 03bb
000000a0: d400 15bc e4c9 473c 91c9 b2bc a0b5 ff3b
000000b0: 7b9a 023d e40c 04bd 789f d23a d116 83bc
000000c0: e52b 843d 5da3 a13d 36a1 10bd 8eef b7bd
000000d0: 396f d4bc 4ae1 0bbe 558a 903d be61 233d
000000e0: ca7f 993c 4be4 81bd b2ec 98bd ece2 a33d
000000f0: faed 2cbc a56c b33d 4d17 153c 2c86 823c
00000100: d58d 2bbe 222a 13bc fff7 9b3d 5fbe a93d
00000110: 449f 94be 5fd6 733e 47f2 463d f6cd 56bd
00000120: 4558 e839 2b63 643d cafd c8bd a4e3 a13d
00000130: 66c9 be3d 5ac4 27bd a5a8 e3bc 5de1 a43d
00000140: 5f76 b13d 9366 9abd e44e 713d 42a9 063d
00000150: e661 a2bd 9ab1 5fbc 3bde 413c 14b2 60bd
00000160: ccbf e13c 7bbe 7dbc 641d 6b3d fb54 96bd
00000170: 31d2 883d f6ba a33d d94e 71bd 0454 50bd
00000180: 4d48 563d 7b98 b83d a62c e63d 3e60 9dbc
00000190: 60a3 2dbd 0342 5b3d fa0c bd3d d778 b23d
000001a0: 6042 f63d b474 21bd ae63 323d 0006 13bb
000001b0: ae0d 153d ef50 903c af7f 8dbd fc35 fd3c
000001c0: 3c2a 2fbd 49a2 df3c d785 7abd b4b4 06bc
000001d0: d4db a83d fd38 99bd 7c27 84bc 9d11 c13d
000001e0: dc43 443e c84d dbbc 2d58 44bd a2c3 1c3e
000001f0: 1b11 64bd ccf2 f83d 38d2 7b3b 5907 533e
00000200: 6049 203e bcce 5fbd 2773 513d cfd4 a23d
00000210: 1bd7 a2bd 72a4 64be 769a 62bd b444 95bc
00000220: d01e 4f3d d97f 26bc 4323 953c 67dd 30bd
00000230: d387 9f3d e615 09bd 0538 c93d d683 523d
00000240: 35ef b8bd 000a 63bd 7eda c5bd b65c 3cbd
00000250: f89c 853d 8064 d33c 45c8 c73d c6a9 453e
00000260: 4521 163e 10da 913d b71f 593d 2ded cebc
00000270: 39a1 13bc 93b6 bebc 1e8f 8ebd cc5e 533d
00000280: a607 ffbc 3630 423d 766b 52bb 91a9 8c3d
00000290: 1fe5 9dbd 31f5 1a3e 5e18 3a3e e7a3 92bd
000002a0: 42bb b1b9 d3cf cc3c d58d 23bd 1d08 b4bd
000002b0: c2dc 613d 9198 02bc a8eb dd3d a72a d7bb
000002c0: 4961 d8bc ac4d cd3d 3100 24bd 0428 07be
000002d0: 8b4c 8abd 1f4d 69bd 3e2b d6bc 02a7 863d
000002e0: 3be2 f7bd eb4f b1bd c27e 763d c34e bdbd
000002f0: c289 d03c 1127 373e 70e2 5b3e 326b 7f3d
00000300: bcab 863d 014a bcbc 3755 03be f9db 5cbe
00000310: 21ad b3be 59c8 243d b59d af3d 3a2a 0f3d
00000320: 9133 863c 3a22 c53d bfe6 ec3c 5b66 8d3d
00000330: 9abc cebd c1a8 a9bb 3939 313d 93d5 0f3d
00000340: 90f5 ce3d 05f6 9bbd a0eb 013d 9fda 633d
00000350: 7c1a 6b3d c5be 0cbe dd9c 5b3d 1ae8 39be
00000360: 55ac 9e3d 76f7 1e3e a321 f23c 86c3 de3d
00000370: 937b 5e3d 29cb bfbd d351 1e3d 6bc7 9cbd
00000380: 4e08 10bd 436b 2bbd 829e 163d a357 b3bb
00000390: e207 07be fd94 453c ce6b 183e 56fe 07be
000003a0: a5b8 253d 1d74 573e e52f c1bd cdd0 463d
000003b0: 77f2 91bc ec5d 6c3d 2e7e d2bc ad75 0a3c
000003c0: 8f41 4cbd ce17 69be 5ce0 dc3d d167 bdbc
000003d0: e507 a1bd 9bff 25bd 1c9c 8c3d 601d d1bc
000003e0: d90f 323d f9a9 b13d 755c b73a a1f5 023d
000003f0: 1d3d 64bc 3af0 863d 69e0 d0bc f5f1 32bd

conv2.bias f4 [64]
-0.058827087 0.07233755 0.0031393424 -0.048113752 0.111051984 -0.05357621 -0.006463714 -0.011421887
-0.027832935 0.0075800125 0.036497887 0.017713228 0.049559873 0.023940135 -0.046823036 0.019739592
0.02570786 0.005782382 0.030733202 0.097693466 -0.0027585027 0.041537285 0.07124494 -0.06007448
0.03398708 0.048402794 0.006746104 0.08544812 0.028770383 0.052840825 0.05645182 -0.006315818
0.016796911 -0.014656304 -0.04603163 -0.027744206 0.028853377 -0.018556844 0.067690626 0.09526971
0.099220715 -0.026226006 -0.06383337 -0.07359038 0.0664104 0.0056238174 0.027578382 -0.013893785
0.016567364 -0.0017490212 -0.003950586 -0.045024544 0.019170512 0.0540636 0.0012562148 0.033882022
0.012711326 -0.01986843 0.03915585 -0.03816129 0.042148344 -0.04114462 -0.03398426 -0.012735957
00000000: acf4 70bd b625 943d 6dbd 4d3b ed12 45bd
00000010: 396f e33d ba72 5bbd 90cd d3bb de22 3bbc
00000020: e501 e4bc c161 f83b cf7e 153d 551b 913c
00000030: 4bff 4a3d 1a1e c43c 83c9 3fbd edb4 a13c
00000040: 4a99 d23c 237a bd3b 32c4 fb3c 8313 c83d
00000050: ffc7 34bb 0023 2a3d dee8 913d a810 76bd
00000060: 0936 0b3d 0242 463d 6c0e dd3b 6dff ae3d
00000070: deaf eb3c 9f6f 583d 063a 673d ecf4 cebb
00000080: ad99 893c ff20 70bc aa8b 3cbd d147 e3bc
00000090: eb5d ec3c 8604 98bc 62a1 8a3d c41c c33d
000000a0: 3b34 cb3d ecd7 d6bc 12bb 82bd 8eb6 96bd
000000b0: 2d02 883d 0048 b83b 0fec e13c c2a2 63bc
000000c0: 48b8 873c 6a3f e5ba eb73 81bb a86b 38bd
000000d0: 7a0b 9d3c cb71 5d3d 93a7 a43a e0c7 0a3d
000000e0: 2a43 503c 1ec3 a2bc e261 203d 034f 1cbd
000000f0: bea3 2c3d 4387 28bd 1433 0bbd 7aaa 50bc

conv3.weight f4 [128, 64, 3, 3]
-0.013377913 -0.036229204 0.021776024 -0.07430273 -0.14054728 -0.00062849995 0.0062827338 -0.045559954
0.08038298 0.048278093 0.0027023647 0.0138818985 0.030797882 0.018221244 0.015460005 0.0015429521
-0.010620202 0.00506469 0.03313588 -0.00067035714 -0.041262314 0.045431476 0.054377697 0.010434674
0.01045462 0.05942748 -0.044437137 0.07066242 0.063460566 0.034886293 0.10870241 0.019917972
0.06507285 0.066434085 0.07940431 0.044899084 0.039805267 0.09407792 0.035952464 0.014438362
0.11261782 0.09554701 0.04244688 0.11130298 0.051624663 0.042311646 0.04055815 0.04835076
0.02339842 0.022679457 0.04720524 0.025627952 -0.01819712 0.014860219 0.016535135 0.035233628
-0.007939635 0.013901617 0.019342719 -0.0150406 0.056376442 0.00011252379 -0.010529389 0.029595314
-0.015705386 -0.0068802247 0.02727416 -0.031592578 0.013018933 -0.0035163602 0.0063059838 0.018811174
0.026493588 0.026132151 -0.013928368 0.016423598 0.030801786 -0.026526207 0.052616205 0.041234527
-0.018596893 0.055588152 0.036485244 0.0448401 0.05013091 0.021499429 0.0013151244 0.029513413
-0.022263108 -0.022376783 0.022455646 -0.028223958 -0.00622728 -0.008396402 -0.012944866 0.036395267
0.007890178 0.0168753 -0.025699023 0.04370248 -0.050738648 0.02337141 0.041533437 0.061943408
0.024134293 0.0009337659 0.06604824 0.0029319527 0.01741183 0.01875096 -0.02278471 0.063106135
0.061349627 0.03175796 0.04334544 0.034677543 0.0011357092 0.015990676 0.009432506 -0.0136101125
0.00088118855 0.018359097 0.0031197683 0.038047 -0.01127848 0.018154772 0.021842929 0.03518514
0.015762486 0.04986979 0.038567495 0.03497907 0.0117366025 0.0034996446 0.043507982 0.012774237
0.023925541 -0.0020173306 0.052687604 0.00510328 -0.01518819 0.009034093 0.052782156 -0.021137852
-0.0035434272 0.07466782 0.016016882 0.04614554 0.0040458036 0.05103474 -0.024411393 0.043921787
-0.0056151957 0.017710103 -0.00045847165 0.07158373 0.04837346 0.041027267 -0.054737907 0.08909605
-0.088345274 -0.012002919 0.01280324 0.050076492 -0.01421194 -0.050267834 -0.02712389 0.07725679
0.030632697 0.03364626 0.012221161 0.033124957 0.017378034 0.036411118 0.044639148 0.04092567
0.02631257 0.025785483 0.03403603 -0.0007650617 0.030337663 -0.018259794 0.015116189 0.013687174
0.018559705 -0.015363218 0.0021095944 -0.0018572184 -0.027376577 0.049519405 0.057117425 -0.07490343
-0.010894951 0.018214397 0.04371696 -0.033968534 0.0035372677 0.035138395 0.058734912 0.049619377
-0.00662173 0.018716983 0.039402816 -0.016671132 -0.0055060447 0.097159445 -0.06273783 -0.015711682
0.023185171 0.032741606 0.030092632 0.0018623142 -0.0011982307 -0.04722114 0.013639185 -0.05507187
-0.011652705 0.037619434 -0.021751104 0.022089148 -0.01849502 0.004131188 -0.029709406 -0.020061448
0.015920931 -0.010357394 0.018146459 -0.00745232 0.020734036 0.05862619 0.02618034 -0.031671748
0.013636523 0.010359068 0.03600591 0.046807677 0.010075025 0.016916614 0.01227588 0.03286675
-0.010489643 0.023274397 -0.016565293 0.035815857 0.0035002963 0.009548385 0.05510151 0.046678293
-0.020225685 0.02081059 0.04983067 0.016178919 0.0013060203 -0.010241437 -0.014230342 0.040998373
00000000: 092f 5bbc 1365 14bd a263 b23c 082c 98bd
00000010: a0eb 0fbe ebc1 24ba 64df cd3b 139d 3abd
00000020: d59f a43d 40bf 453d 281a 313b e770 633c
00000030: d74b fc3c b844 953c f64b 7d3c e23c ca3a
00000040: 5b00 2ebc b3f5 a53b 7db9 073d e8ba 2fba
00000050: ac02 29bd 5b16 3a3d 26bb 5e3d 32f6 2a3c
00000060: db49 2b3c 3b6a 733d b703 36bd 75b7 903d
00000070: 9df7 813d eee4 0e3d 5e9f de3d 042b a33c
00000080: ea44 853d 980e 883d ba9e a23d 1ae8 373d
00000090: d90a 233d edab c03d e442 133d e18e 6c3c
000000a0: 2ca4 e63d 27ae c33d c8dc 2d3d d1f2 e33d
000000b0: 6274 533d fa4e 2d3d 4d20 263d 720b 463d
000000c0: 0bae bf3c 45ca b93c 485a 413d b6f1 d13c
000000d0: 2012 95bc 4778 733c b174 873c 2351 103d
000000e0: 3e15 02bc 9cc3 633c 9f74 9e3c d96c 76bc
000000f0: fcea 663d c0fa eb38 7583 2cbc df71 f23c
00000100: 95a8 80bc 8273 e1bb 0f6e df3c 3867 01bd
00000110: 5d4d 553c bc72 66bb 6da2 ce3b e419 9a3c
00000120: 1509 d93c 1813 d63c cf33 64bc c88a 863c
00000130: 0754 fc3c 7d4d d9bc 1784 573d 89e5 283d
00000140: 8358 98bc 67b0 633d 8d71 153d 41aa 373d
00000150: 1256 4d3d 921f b03c 4160 ac3a 1dc6 f13c
00000160: 1f61 b6bc 844f b7bc e7f4 b73c ee35 e7bc
00000170: 360e ccbb 1091 09bc b416 54bc 3413 153d
00000180: ce45 013c 123e 8a3c c286 d2bc 5f01 333d
00000190: 54d3 4fbd 6675 bf3c f71e 2a3d 5fb8 7d3d
000001a0: 48b5 c53c f8c7 743a 4d44 873d 0126 403b
000001b0: 41a3 8e3c 9d9b 993c 00a7 babc ca3d 813d
000001c0: bf49 7b3d a214 023d fd8a 313d 0a0a 0e3d
000001d0: 14dc 943a e1fe 823c cc8a 1a3c f3fc 5ebc
000001e0: 90ff 663a d165 963c 0775 4c3b 2cd7 1b3d
000001f0: 60c9 38bc 51b9 943c f1ef b23c 4b1e 103d
00000200: 5420 813c 4444 4c3d f3f8 1d3d 3746 0f3d
00000210: e14a 403c 4b5a 653b 6d35 323d 094b 513c
00000220: 7fff c33c 3135 04bb f5ce 573d 6a39 a73b
00000230: e3d7 78bc bb03 143c 1a32 583d 4a29 adbc
00000240: d838 68bb 71eb 983d d635 833c 1b03 3d3d
00000250: a992 843b ce09 513d 67fa c7bc 55e7 333d
00000260: adff b7bb c714 913c 065f f0b9 7e9a 923d
00000270: 4023 463d 350c 283d db34 60bd fd77 b63d
00000280: 5eee b4bd e4a7 44bc aec4 513c 021d 4d3d
00000290: 32d9 68bc a5e5 4dbd ec32 debc cf38 9e3d
000002a0: 6cf1 fa3c a9d0 093d 443b 483c 09ae 073d
000002b0: 615c 8e3c d323 153d 8ad7 363d ada1 273d
000002c0: 758d d73c 143c d33c 5d69 0b3d 6c8e 48ba
000002d0: b186 f83c 9095 95bc e4a9 773c 2b40 603c
000002e0: 860a 983c 02b6 7bbc 1f41 0a3b e96d f3ba
000002f0: d844 e0bc dcd4 4a3d f6f3 693d f866 99bd
00000300: bd80 32bc 5c36 953c 8e10 333d 9722 0bbd
00000310: 81d1 673b 47ed 0f3d 0594 703d b03d 4b3d
00000320: 19fb d8bb 5c54 993c d964 213d e691 88bc
00000330: 0d6c b4bb 88fb c63d b17c 80bd c9b5 80bc
00000340: d4ee bd3c 101c 063d d384 f63c e518 f43a
00000350: f30d 9dba f46a 41bd e376 5f3c 0b93 61bd
00000360: fdea 3ebc d616 1a3d 5f2f b2bc 4df4 b43c
00000370: de82 97bc eb5e 873b 2461 f3bc e857 a4bc
00000380: 9d6c 823c 0fb2 29bc e2a7 943c 9732 f4bb
00000390: 6dda a93c 0422 703d 2778 d63c 3cba 01bd
000003a0: b96b 5f3c 15b9 293c ef7a 133d 68b9 3f3d
000003b0: b811 253c b694 8a3c c620 493c 499f 063d
000003c0: c0dc 2bbc f3a9 be3c f0b3 87bc a6b3 123d
000003d0: 3a65 653b d470 1c3c 1fb2 613d bd31 3f3d
000003e0: 56b0 a5bc f87a aa3c 3f1b 4c3d a789 843c
000003f0: c52e ab3a b3cb 27bc 6126 69bc e9ed 273d

conv3.bias f4 [128]
0.018266985 0.05242958 -0.032570694 0.005343697 0.020751914 0.048717882 -6.1933184e-05 -3.9863804e-07
-0.018304024 0.019876294 0.041858856 0.034992296 0.04234475 0.0026313055 -0.019910388 0.008713619
0.024877653 0.038684953 0.0041661793 -0.013013765 0.03964796 0.019303614 0.014254467 -0.0332011
-0.004411288 -0.001217496 -2.5446946e-07 -0.020196669 -0.022125358 0.017205548 -0.00045282542 0.03637889
-0.018590664 -0.026824813 0.027487108 0.06878577 0.015086411 -0.08757984 0.0028531794 -0.016259583
-0.048444748 0.005299901 0.00897304 -0.006787878 -0.032974176 0.0040428317 0.037950005 -2.092004e-05
-0.020753805 0.0204148 0.018516572 -0.008881684 0.027343879 -0.029615141 -0.01861303 -0.035809144
-0.007824481 -0.028125256 -8.2954386e-05 0.012364661 0.035467513 -0.026749073 0.006233507 -2.4712392e-06
0.01192543 0.13292336 0.0037885266 0.046596896 -0.042322185 -0.028110502 -0.004239804 -0.0024892387
-0.026079968 0.043976717 -0.031839807 0.008980889 0.011375029 -0.007752833 0.0066489507 0.05992179
0.021220064 0.07955736 -0.0009447436 -0.0037506 0.06126294 0.05164114 -0.0057499735 -0.028656598
-0.027499305 0.007078249 0.031125873 -0.025862848 0.02146643 0.035902005 0.009509325 0.044623762
-0.0061983434 -0.018353315 -0.0018694351 -0.05227751 -0.041485902 0.013614219 -0.008829638 0.06763507
0.052578416 0.020804657 0.0751445 -0.021970974 -0.012640351 -0.023540318 0.025626661 -8.66122e-05
0.021996785 0.045518372 0.028309269 -0.001056925 0.035162132 -0.035988312 -0.029430417 -0.017839128
0.0014156359 0.0056996164 -0.044310383 -0.009845462 0.06847422 -0.023531064 0.0013584762 0.0046871644
00000000: a5a4 953c 66c0 563d d968 05bd 2e1a af3b
00000010: ebff a93c 678c 473d 20e2 81b8 6504 d6b4
00000020: 52f2 95bc 9cd3 a23c 3174 2b3d 1554 0f3d
00000030: b071 2d3d fb71 2c3b 1c1b a3bc 91c3 0e3c
00000040: 38cc cb3c 1d74 1e3d 7284 883b b037 55bc
00000050: e665 223d 9d22 9e3c 918b 693c e0fd 07bd
00000060: 918c 90bb 6394 9fba 049e 88b4 7c73 a5bc
00000070: 3d40 b5bc a6f2 8c3c 3369 edb9 0802 153d
00000080: 734b 98bc b6bf dbbc a52c e13c 8edf 8c3d
00000090: fe2c 773c 0f5d b3bd 68fc 3a3b d132 85bc
000000a0: 006e 46bd cbaa ad3b a803 133c d96c debb
000000b0: ee0f 07bd bb79 843b 7771 1b3d 727d afb7
000000c0: e203 aabc f03c a73c 11b0 973c 7c84 11bc
000000d0: 4500 e03c 749b f2bc 5a7a 98bc 9cac 12bd
000000e0: 4132 00bc f066 e6bc ccf7 adb8 2695 4a3c
000000f0: 6246 113d df20 dbbc 7242 cc3b 91d7 25b6
00000100: e162 433c 101d 083e ee48 783b 63dc 3e3d
00000110: 075a 2dbd ff47 e6bc 0eee 8abb 7f22 23bb
00000120: a8a5 d5bc ee20 343d 756a 02bd 9424 133c
00000130: 545e 3a3c 7a0b febb 71df d93b 8d70 753d
00000140: b3d5 ad3c f8ee a23d aba8 77ba a0cc 75bb
00000150: d9ee 7a3d a985 533d 466a bcbb 3ec1 eabc
00000160: 3946 e1bc a8f0 e73b b0fb fe3c 53de d3bc
00000170: 5eda af3c fb0d 133d 00cd 1b3c 68c7 363d
00000180: 791b cbbb b159 96bc d507 f5ba f120 56bd
00000190: 1fed 29bd 2c0e 5f3c 30aa 10bc 4184 8a3d
000001a0: 775c 573d 876e aa3c 5ce5 993d 79fc b3bc
000001b0: 7a19 4fbc a0d7 c0bc 01ef d13c 92a3 b5b8
000001c0: 9a32 b43c 7971 3a3d d7e8 e73c 8588 8aba
000001d0: 2b06 103d 7b68 13bd 0f18 f1bc 5d23 92bc
000001e0: dc8c b93a d9c3 ba3b ce7e 35bd dc4e 21bc
000001f0: 363c 8c3d 38c4 c0bc e60e b23a c996 993b

act_conv1.weight f4 [4, 128, 1, 1]
0.017186793 0.11026561 -0.07829485 0.048820604 0.09136384 -0.0896285 4.6366124e-05 -0.0071223704
-0.027912492 0.09384276 -0.042755187 0.07017991 0.056840725 -0.01449244 -0.025482886 0.01478971
0.013389165 0.12266127 0.0076760915 -1.323228e-39 0.07507436 0.06341946 0.058793318 0.063103944
-1.8176588e-32 -0.021229709 -4.925e-41 -1.9043607e-09 -0.009680331 0.029671555 0.00023581256 0.02045685
-0.057362176 -0.0015135658 0.106263936 0.040344168 0.0864532 -0.05639319 -0.0009002419 -1.2048707e-06
0.0588433 0.016655296 0.016303051 -0.14397782 -0.06761088 0.02303841 0.0686537 0.009633555
0.03379895 -0.07155052 0.08072464 0.23461749 0.06897104 -0.034995683 -2.4387035e-34 -0.032689
-0.062152393 -0.047792118 4.9806e-41 -0.025552774 -0.054474726 -0.0058301305 -0.053898476 4.9432e-41
0.006018935 0.22152977 0.014409168 0.13016137 0.094743945 -0.07975901 0.010445558 0.024128044
-0.032660052 -0.023019439 0.016535768 0.09138077 0.0014910006 -0.0025617932 -0.032543004 0.19468817
0.0022660317 0.062485293 -4.9319e-41 -0.027435074 -0.10242092 0.106010675 0.049163688 -0.032031424
0.025544925 0.047691777 0.06391588 -0.043317012 -0.0045070895 0.005691367 -0.03144936 0.064168945
-4.9694e-41 0.10476178 -0.058710743 -0.16174826 0.025248688 0.047679927 -0.030833391 0.0071938755
-0.104824685 -0.009894203 0.10964078 -4.955e-41 0.009959828 9.772134e-33 0.04943037 -0.03829896
0.030460963 0.11510191 0.10704671 4.9778e-41 0.08576032 -0.015104398 -5.9902856e-36 -0.052779187
-0.07617162 0.19212146 -0.03796168 6.2325184e-10 -0.04752821 -0.074224286 0.07334927 -0.029879661
0.030234596 0.043124545 -7.4708946e-13 0.016046643 0.039052457 -0.041067086 4.9078e-41 -2.5426947e-11
-0.051084656 0.05305619 0.008166626 -0.00096643274 -0.024402488 0.042271387 1.5447207e-18 -0.021928439
4.9284e-41 -0.026340619 4.9138e-41 -5.1819e-41 -0.027913446 -0.024917347 -0.06761782 0.03201287
-4.9485e-41 0.018305397 4.9272e-41 -4.9047e-41 -0.012763261 0.04868281 4.9804e-41 -0.0347067
-0.012248821 -0.005181794 0.020210862 -5.0098e-41 3.2563548e-06 4.929e-41 -3.1877715e-07 -4.9442e-41
-0.0029370545 -0.029054403 -0.0021566637 -1.27527355e-05 -0.013664044 4.0467e-41 -0.029368607 4.9298e-41
0.042351287 -0.0065420414 0.023939675 1.6220034e-25 -0.033514287 0.0036917645 4.9607e-41 -0.040139895
-0.007068948 -5.5395826e-06 -4.9586e-41 -4.932e-41 0.019356713 -0.0696719 0.011404396 -5.6037e-41
2.3778243e-08 -0.00046113806 -0.05642328 -6.11449e-07 -0.0019179918 2.8495277e-20 4.9148e-41 -0.024595153
-0.062996134 -0.014345428 -0.02106621 -0.006877972 0.019442301 1.1753374e-17 0.03150275 -6.740305e-06
-0.010361699 0.01807834 -5.027e-41 0.052293003 -0.0049058883 0.03266979 -0.026222618 -0.025797294
-0.03414582 0.017541654 -0.03028201 -0.014969327 0.041124243 0.007824297 0.02283139 -0.030686736
5.3106e-41 0.0069014123 0.005741249 -4.9142e-41 -0.06327148 0.0058841165 -1.7726438e-12 0.005878255
-0.027371395 -0.03374572 -0.005920206 -4.9867e-41 -4.92e-41 6.0643e-41 -0.00010722428 -0.044652555
0.001625586 0.031072678 0.016276585 4.9855e-41 0.00527119 -0.021642597 -4.9714e-41 0.035912715
4.9125e-41 -4.9239e-41 -3.384601e-34 -4.9675e-41 -0.001963248 -6.2645e-41 0.0037438045 -0.045613073
00000000: 51cb 8c3c f0d2 e13d 0d59 a0bd 1df8 473d
00000010: f71c bb3d 268f b7bd 3f79 4238 c662 e9bb
00000020: bda8 e4bc a230 c03d 1020 2fbd 7cba 8f3d
00000030: d2d1 683d b371 6dbc 7cc1 d0bc 8a50 723c
00000040: 3a5e 5b3c d535 fb3d b987 fb3b 9f68 0e80
00000050: 96c0 993d 10e2 813d 43d1 703d a43c 813d
00000060: a9c1 bc8a ede9 adbc 4a89 0080 dedd 02b1
00000070: 409a 1ebc c311 f33c 7444 7739 2095 a73c
00000080: 9af4 6abd d762 c6ba e8a0 d93d ed3f 253d
00000090: 600e b13d 8cfc 66bd 36fe 6bba 0bb7 a1b5
000000a0: ac05 713d b070 883c fa8d 853c ec6e 13be
000000b0: 9377 8abd 0cbb bc3c 509a 8c3d 0fd6 1d3c
000000c0: c570 0a3d 1489 92bd f652 a53d 913f 703e
000000d0: b040 8d3d a257 0fbd 6414 a287 e7e4 05bd
000000e0: 8293 7ebd abc1 43bd d78a 0000 0d54 d1bc
000000f0: e420 5fbd ae0a bfbb a6c4 5cbd cc89 0000
00000100: 7c3a c53b b3d8 623e 6e14 6c3c 0649 053e
00000110: 1d09 c23d b158 a3bd d823 2b3c 2da8 c53c
00000120: 8cc6 05bd 4393 bcbc 0576 873c d725 bb3d
00000130: ae6d c33a c2e3 27bb d04b 05bd 565c 473e
00000140: b481 143b 94f0 7f3d 7b89 0080 85bf e0bc
00000150: 0fc2 d1bd 201c d93d dd5f 493d 6233 03bd
00000160: 9743 d13c 7458 433d 54e6 823d 2e6d 31bd
00000170: 35b0 93bb a67e ba3b 0bd1 00bd 026b 833d
00000180: 878a 0080 588d d63d ad7a 70bd 56a1 25be
00000190: 56d6 ce3c 074c 433d 4f96 fcbc 9aba eb3b
000001a0: 53ae d6bd 4c1b 22bc 588b e03d 208a 0080
000001b0: 8c2e 233c 94f5 4a0a 8077 4a3d 5fdf 1cbd
000001c0: 4589 f93c 8dba eb3d 4e3b db3d c38a 0000
000001d0: 1ba3 af3d 7078 77bc 6fcc fe84 fd2e 58bd
000001e0: deff 9bbd 7dbb 443e b57d 1bbd 7351 2b30
000001f0: f1ac 42bd e702 98bd 2438 963d 31c6 f4bc
00000200: 8bae f73c 5da3 303d 7849 52ab 4074 833c
00000210: 78f5 1f3d f635 28bd cf88 0000 65a8 dfad
00000220: 253e 51bd 7351 593d 50cd 053c 3458 7dba
00000230: bae7 c7bc c324 2d3d e6f5 e321 45a3 b3bc
00000240: 6289 0000 48c8 d7bc fa88 0000 7390 0080
00000250: bdaa e4bc 771f ccbc 367b 8abd ed1f 033d
00000260: f289 0080 33f5 953c 5a89 0000 b988 0080
00000270: ff1c 51bc a067 473d d58a 0000 9d28 0ebd
00000280: 47af 48bc 0acc a9bb 4091 a53c a78b 0080
00000290: c087 5a36 6789 0000 6624 abb4 d389 0080
000002a0: 997b 40bb 8003 eebc d056 0dbb 95f4 55b7
000002b0: 28df 5fbc ce70 0000 6f96 f0bc 6c89 0000
000002c0: 8b78 2d3d 9f5e d6bb 231d c43c 57cb 4816
000002d0: 4746 09bd 88f1 713b 498a 0000 bb69 24bd
000002e0: a2a2 e7bb a7e0 b9b6 3a8a 0080 7c89 0080
000002f0: f891 9e3c 24b0 8ebd 81d9 3a3c 359c 0080
00000300: e940 cc32 e7c4 f1b9 191c 67bd 7522 24b5
00000310: 2065 fbba ad90 061f 0189 0000 c67b c9bc
00000320: 1e04 81bd 1609 6bbc 0b93 acbc 9c60 e1bb
00000330: 7645 9f3c bdcf 5823 0709 013d c72a e2b6
00000340: 1ec4 29bc 0719 943c 228c 0080 3031 563d
00000350: 93c1 a0bb c2d0 053d d1d0 d6bc d954 d3bc
00000360: 7ddc 0bbd 84b3 8f3c fa11 f8bc e841 75bc
00000370: e571 283d 7b31 003c e508 bb3c c062 fbbc
00000380: 0a94 0000 3e25 e23b 1621 bc3b fd88 0080
00000390: 7a94 81bd 8ccf c03b 397a f9ab 609e c03b
000003a0: fa39 e0bc f438 0abd 4afe c1bb 028b 0080
000003b0: 2689 0080 0ca9 0000 99dd e0b8 99e5 36bd
000003c0: 9d11 d53a 218c fe3c 7956 853c fa8a 0000
000003d0: f2b9 ac3b d14b b1bc 958a 0080 3619 133d
000003e0: f188 0000 4289 0080 01f2 e087 798a 0080
000003f0: d6a9 00bb a1ae 0080 9e5a 753b c6d4 3abd

act_conv1.bias f4 [4]
0.050127324 -0.059809573 -0.02431593 0.12555261
00000000: 4f52 4d3d e2fa 74bd 3432 c7bc dd90 003e

act_fc1.weight f4 [81, 324]
0.025124978 0.016595915 0.017140826 -0.008115288 -0.01523487 -0.004719196 -0.011966427 -0.0052170516
-0.034129262 0.045522567 0.03063867 -0.048801746 -0.04622443 -0.023280019 0.0023995806 -0.031413797
0.012510325 -0.020693913 0.016638564 0.010880566 -0.03755472 -0.051036403 -0.02503708 -0.052513264
-0.0018249166 -0.017756883 0.013282311 0.0333509 -0.035159614 -0.026212206 -0.0321306 -0.044302236
-0.038328204 -0.043876156 0.025725741 -0.04208832 -0.021146309 -0.029713327 -0.056282382 -0.032227684
-0.029384922 -0.048149843 -0.062790275 -0.013649255 -0.024401538 0.008088096 -0.04777731 -0.019021215
-0.03949311 -0.060067616 -0.06811565 -0.03249137 -0.057136998 -0.034714762 0.06600399 -0.0017242876
-0.04848091 -0.037515864 -0.05068629 -0.006551303 -0.04704197 -0.04988244 -0.048337232 0.2653145
-0.012895596 -0.001720982 0.0072032064 -0.07811145 -0.025564488 -0.018205564 0.042136837 0.016292144
0.26341322 0.24985775 -0.025262976 0.026508555 -0.012295441 -0.007105393 -0.01046846 0.014385027
0.043528747 -1.7177933e-06 -0.00033659535 -0.0007173579 -0.0017671937 0.00047375064 -0.00045685327 0.00029808635
5.240644e-05 -6.78852e-11 -4.9297687e-05 -9.59554e-05 -0.0040748655 0.00055905007 -0.0005317338 -0.00054624514
-0.0005911548 -0.0005258545 -3.1803568e-06 -8.8285284e-05 0.000988652 -0.006480908 -0.0025688135 -0.0015199682
0.0027125604 -0.003974198 -0.00041553873 2.39766e-06 5.8135076e-05 0.0023777925 -0.004865016 -0.0029051518
-0.004093005 -0.00860452 0.003354693 -0.00014439979 -8.756852e-06 -0.00039248142 0.0014747065 0.0023041903
-0.0005785874 -0.0082174335 -0.007271358 0.0025683402 -0.0012432527 -7.0325627e-06 -0.00061261974 -0.0016465001
0.00063051557 -0.008654902 -0.0019373477 -0.0049059787 0.0018538535 0.0002962644 -5.3462636e-06 -0.0003286995
-0.0006831454 -0.0059060245 -0.007933221 -0.0055569834 -0.0025000533 -0.004299149 -0.002021144 1.3647568e-06
-6.88228e-05 -0.0007892524 -1.9498537e-05 -0.0041700117 -0.0049592005 -0.003209644 -0.0036065802 -1.0690629e-05
1.8648961e-08 9.991926e-11 -3.4943755e-06 -1.9344689e-05 -1.8744911e-05 -4.1964915e-05 -6.846596e-05 -3.1407188e-05
7.6235125e-09 -4.9135e-41 -4.9401e-41 -5.2553e-41 5.3056e-41 4.9086e-41 5.3223e-41 -5.9254e-41
-4.9141e-41 -5.339e-41 -4.9606e-41 5.277e-41 -4.9624e-41 4.9598e-41 4.944e-41 -4.916e-41
-5.0311e-41 -4.9435e-41 -4.9239e-41 4.9523e-41 4.9481e-41 2.7874023e-28 -2.3275811e-23 2.7695364e-21
-9.2630824e-23 -5.392266e-22 -4.547701e-22 -6.608386e-28 -5.033e-41 4.9861e-41 1.579782e-17 -5.4977436e-16
-1.3396224e-16 -9.132047e-18 -8.750314e-17 5.8894307e-16 -6.2155036e-20 -4.9065e-41 -4.9704e-41 2.365278e-19
-2.4478205e-17 -1.1662908e-17 -4.5111625e-16 5.512223e-17 4.0720892e-16 1.7704426e-20 -5.0479e-41 4.9641e-41
2.473535e-18 -1.7515904e-15 -1.1831671e-15 -2.6529628e-16 -3.3167926e-16 1.651938e-15 5.76737e-18 4.9612e-41
-4.9598e-41 -1.6369894e-17 1.5754157e-14 -1.6533496e-15 -1.6033075e-14 -7.287037e-15 -3.831472e-14 1.7945916e-19
-5.0443e-41 4.959e-41 9.55369e-13 -7.884584e-12 1.0490197e-10 -2.4356425e-10 -9.609743e-11 4.80584e-12
3.999126e-19 -4.9348e-41 2.3229948e-19 1.881902e-07 -9.947158e-07 -5.2791627e-08 -1.0268085e-06 1.2311979e-06
1.3405077e-07 -8.772122e-11 4.9843e-41 0.065425016 0.047295548 0.015784381 0.027232775 0.01792276
0.0380711 0.019993672 0.03063903 0.063671716 0.039163616 0.004463167 0.031200385 0.016570905
00000000: e6d2 cd3c 28f4 873c eb6a 8c3c fcf5 04bc
00000010: ad9b 79bc 7ca3 9abb d50e 44bc cdf3 aabb
00000020: 20cb 0bbd df75 3a3d f3fd fa3c 57e4 47bd
00000030: d455 3dbd bdb5 bebc 4842 1d3b c1ab 00bd
00000040: 1bf8 4c3c 4886 a9bc 994d 883c 6744 323c
00000050: fad2 19bd 8c0b 51bd 901a cdbc 2618 57bd
00000060: 0a32 efba e276 91bc 0d9e 593c f49a 083d
00000070: 8703 10bd fbba d6bc 609b 03bd 4376 35bd
00000080: 09fe 1cbd 7cb7 33bd cabe d23c cd64 2cbd
00000090: 063b adbc 5d69 f3bc 5b88 66bd 2d01 04bd
000000a0: a6b8 f0bc c538 45bd 3098 80bd 20a1 5fbc
000000b0: bce5 c7bc ef83 043c 24b2 43bd 61d2 9bbc
000000c0: 87c3 21bd 7609 76bd 3880 8bbd ac15 05bd
000000d0: 7c08 6abd 1131 0ebd 1a2d 873d 7e01 e2ba
000000e0: eb93 46bd 3caa 19bd 6d9c 4fbd 50ac d6bb
000000f0: 15af 40bd 8851 4cbd 43fd 45bd 4dd7 873e
00000100: 0d48 53bc 9392 e1ba e008 ec3b e5f8 9fbd
00000110: 9e6c d1bc d623 95bc ad97 2c3d 1a77 853c
00000120: 19de 863e b6da 7f3e 4df4 cebc 7828 d93c
00000130: d172 49bc 5bd4 e8bb e783 2bbc 2daf 6b3c
00000140: 334b 323d ee8e e6b5 1079 b0b9 130d 3cba
00000150: 2ea1 e7ba bc61 f839 cf85 efb9 7948 9c39
00000160: fdce 5b38 f847 95ae fdc4 4eb8 aa3b c9b8
00000170: 7386 85bb 378d 123a 0d64 0bba e431 0fba
00000180: baf7 1aba 80d9 09ba 1d6e 55b6 cd25 b9b8
00000190: a895 813a cc5d d4bb 8a59 28bb ab39 c7ba
000001a0: 36c5 313b fd39 82bb aadc d9b9 7ce7 2036
000001b0: 10d6 7338 bdd4 1b3b b66a 9fbb 5c64 3ebb
000001c0: 9d1e 86bb f9f9 0cbc 69da 5b3b 066a 17b9
000001d0: 65ea 12b7 f7c5 cdb9 f04a c13a e601 173b
000001e0: 58ac 17ba 6aa2 06bc 9244 eebb 9951 283b
000001f0: a3f4 a2ba 41f9 ebb6 3798 20ba 60cf d7ba
00000200: 2f49 253a 4acd 0dbc 9aee fdba 55c2 a0bb
00000210: 00fd f23a ef53 9b39 0e64 b3b6 4d55 acb9
00000220: 1d15 33ba 5387 c1bb 57fa 01bc 5b17 b6bb
00000230: efd7 23bb e0df 8cbb 2b75 04bb b02c b735
00000240: f654 90b8 d5e5 4eba ca90 a3b7 98a4 88bb
00000250: ca80 a2bb e458 52bb 605c 6cbb e75b 33b7
00000260: 8031 a032 8bb9 db2e ea80 6ab6 6746 a2b7
00000270: 643e 9db7 7c03 30b8 6295 8fb8 36bb 03b8
00000280: 90f8 0232 f888 0080 b689 0080 7f92 0080
00000290: e693 0000 d588 0000 5d94 0000 2da5 0080
000002a0: fc88 0080 d494 0080 488a 0080 1a93 0000
000002b0: 558a 0080 428a 0000 d289 0000 0a89 0080
000002c0: 3f8c 0080 ce89 0080 4289 0080 0d8a 0000
000002d0: ef89 0000 30ac b011 1e1c e199 a042 511d
000002e0: b4f7 df9a a3f8 229c 2272 099c 996d 5192
000002f0: 4d8c 0080 fe8a 0000 8cb5 9123 3076 1ea6
00000300: ad72 1aa5 df74 28a3 bdc4 c9a4 54c0 2926
00000310: 6ac2 929f c688 0080 8e8a 0080 129f 8b20
00000320: 87c5 e1a3 8724 57a3 8106 02a6 d834 7e24
00000330: 6ebd ea25 ad36 a71e b78c 0080 618a 0000
00000340: c183 3622 486e fca6 2983 aaa6 d2ee 98a5
00000350: 3833 bfa5 c111 ee26 45c7 d422 4c8a 0000
00000360: 428a 0080 52fc 96a3 9de6 8d28 d545 eea6
00000370: c169 90a8 8745 03a8 dd8d 2ca9 34de 5320
00000380: 9d8c 0080 3d8a 0000 cc74 862b 02b5 0aad
00000390: 8fae e62e 9fe6 85af 0b52 d3ae 2917 a92c
000003a0: 1511 ec20 9089 0080 1b20 8920 5411 4a34
000003b0: 2d82 85b5 02bd 62b3 dfd0 89b5 a33f a535
000003c0: 98ef 0f34 a8e6 c0ae f18a 0000 8dfd 853d
000003d0: fab8 413d 3f4e 813c 4517 df3c c1d2 923c
000003e0: 71f0 1b3d c5c9 a33c b4fe fa3c 5166 823d
000003f0: 076a 203d c23f 923b f397 ff3c b5bf 873c

act_fc1.bias f4 [81]
0.12906255 -0.022198617 -0.20112765 0.1369377 0.14201489 0.13447933 -0.13044685 -0.022718024
0.1029474 -0.013804883 -0.07317771 0.108973116 0.051412806 0.2608503 0.073222846 0.08396141
-0.1772733 -0.0348718 -0.17187761 0.14509991 0.01609737 0.22996773 -0.08320076 0.19205867
0.026397694 0.15442115 -0.12876362 0.08678001 0.036272872 0.12605408 0.13479693 0.19885075
0.10218094 0.19132634 0.04753752 0.11513651 0.11630766 0.2123908 -0.03452653 0.25597423
-0.044840526 0.28490353 -0.08553472 0.23634186 0.10087385 0.0907701 0.05878828 0.15452449
0.11401339 0.24686474 0.07960466 0.20786463 0.0065801376 0.09291369 -0.17512378 0.1341209
0.101569735 0.24276513 -0.09536044 0.13889547 -0.0019530983 0.15140572 -0.13952972 -0.07481998
-0.1236065 0.13962443 0.054410975 0.17510378 0.03679988 0.13366042 -0.15267625 -0.029082743
0.048533566 -0.07991302 -0.17640264 0.10464964 0.07531427 0.09032172 -0.16051006 -0.026869414
0.107975245
00000000: f928 043e e0d9 b5bc 68f4 4dbe 6539 0c3e
00000010: 5a6c 113e f3b4 093e dc93 05be 261b babc
00000020: 16d6 d23d e02d 62bc 32de 95bd 4c2d df3d
00000030: 3c96 523d 2c8e 853e dcf5 953d f6f3 ab3d
00000040: 2287 35be bcd5 0ebd af00 30be 1295 143e
00000050: a2de 833c a97c 6b3e 2965 aabd 07ab 443e
00000060: fa3f d83c 9420 1e3e 9cda 03be b8b9 b13d
00000070: dd92 143d 5214 013e 3508 0a3e 889f 4b3e
00000080: 3e44 d13d 0deb 433e b4b6 423d b1cc eb3d
00000090: b632 ee3d f97c 593e b16b 0dbd 0e0f 833e
000000a0: b3aa 37bd e0de 913e d42c afbd 9a03 723e
000000b0: f396 ce3d ade5 b93d fbcb 703d ab3b 1e3e
000000c0: da7f e93d 1cca 7c3e c507 a33d 77da 543e
000000d0: 329e d73b 8849 be3d a653 33be fd56 093e
000000e0: cb03 d03d 6c97 783e 564c c3bd 9d3a 0e3e
000000f0: 1bff ffba 1a0a 1b3e e1e0 0ebe 383b 99bd
00000100: 6825 fdbd b5f9 0e3e 0bde 5e3d 684e 333e
00000110: 79bb 163d 47de 083e 2a57 1cbe ef3e eebc
00000120: 22cb 463d 70a9 a3bd e5a2 34be 8d52 d63d
00000130: 5e3e 9a3d 98fa b83d c05c 24be 3f1d dcbc
00000140: 2022 dd3d

val_conv1.weight f4 [2, 128, 1, 1]
0.043566737 0.023725681 -0.036949974 0.01613568 0.0771477 -0.05180054 4.9393e-41 4.9425e-41
-0.006271859 0.04924704 -0.093102306 0.0061824676 -0.10717946 0.019644517 -0.034125343 0.085325755
-0.016774694 -0.036154583 0.00035012062 -0.00092400564 -0.11421905 -0.061756484 0.016064778 0.01516053
0.005668697 0.030612705 1.2663598e-06 -0.0013763435 0.04164645 0.07209284 -0.0038642308 -0.07501487
0.06529871 0.019503476 0.057098445 -0.06540378 -0.034269787 -0.015466888 0.014862183 -0.004334395
-0.0012296604 0.049296055 0.04387724 -0.05216178 0.03309965 -0.001072822 -0.08342903 -4.9711e-41
0.021312889 -0.04719533 0.07484659 -0.0040560686 0.016237902 0.04450984 -0.00060344563 0.05950661
0.043890372 -0.036794305 1.2426032e-13 -0.029938463 -0.08873061 0.022875601 0.06560492 7.187041e-39
0.016462484 -0.020673588 0.077380665 -0.03033606 -0.012848277 -0.055391118 -0.013950937 0.0065855156
0.044743054 -0.07867111 0.0648549 0.07530514 0.01784356 -0.004928459 0.064998806 -0.021953585
-0.05101976 -0.04056073 -0.0006520018 0.055869665 -0.056313477 0.015055433 0.05324782 0.039473493
0.059735965 0.030169593 0.01961991 0.014828306 0.038630687 -0.05294514 -0.08897421 -0.001767318
0.000115199226 -0.06958322 0.008478195 0.00039978823 0.026986137 0.08166183 4.5607267e-05 -0.120248556
-0.05848318 -0.03337607 -0.062120527 -0.00052014546 -5.1472e-41 0.031889576 0.04837269 0.022957291
-0.071117 0.03386783 0.0014553425 -8.3743686e-17 -0.10976837 -0.064963005 -0.00919188 0.072909266
-0.0923911 8.548466e-05 -0.029823711 -0.009291768 -0.06773091 -0.026901234 0.021196702 0.008488593
-0.0017435737 -0.005483717 -0.0031400064 0.0062432503 0.026235832 0.022581032 4.9593e-41 -5.6733e-41
-0.011907241 0.0472037 -0.03356882 -0.046670992 -0.057303544 -0.0049881022 -5.326011e-08 0.032077577
7.780248e-08 0.021476993 -4.9504e-41 4.9966e-41 -0.050791632 0.0010659923 0.033260114 0.00039237805
-5.035e-41 -0.051119458 5.258e-41 -4.9272e-41 -0.030616857 0.0129480595 3.0718692e-15 -0.057007395
-0.008762376 -0.00152783 -0.023247698 -0.01613648 -4.9094e-41 4.9508e-41 -0.016085835 4.92e-41
-4.7262205e-10 0.015112764 0.04113412 1.18534906e-07 0.027266841 4.909e-41 -0.01826988 5.1307e-41
0.0017501595 -0.01622857 0.03283414 4.905e-41 0.024197465 -0.0058012144 4.9801e-41 -0.027153064
0.041769877 6.1816495e-29 -5.0096e-41 -1.0023729e-07 -0.002763916 0.022078963 -0.01146423 5.1323e-41
3.0834964e-28 -4.9131e-41 0.03812531 -1.3310931e-27 -6.101715e-25 2.7582223e-06 0.00014151912 -0.02853679
-0.063632086 -0.057820044 0.011676543 -0.023354732 4.2141743e-05 -4.9732e-41 -0.059604138 -3.461617e-10
-0.008632838 -0.010798029 4.9457e-41 -0.011639733 -0.045023594 0.012348917 0.0017379626 -0.007456926
-0.05349573 -0.018628629 -0.008485573 -0.00344917 -0.041934326 -0.035421133 -0.022708843 -0.035014182
4.9361e-41 4.8890433e-05 2.7171529e-19 -2.724111e-08 0.0152884945 -0.007935773 4.9345e-41 -0.041482825
-0.0002701107 -0.01658453 -0.0029690685 5.0172e-41 4.9599e-41 4.9293e-41 0.009315882 -0.036989886
-1.3981995e-06 -0.006035199 0.007638136 4.9397e-41 -0.02890786 0.0087294085 -5.0267e-41 0.04911387
-0.019909604 -4.9882e-41 -5.070428e-08 4.9333e-41 -0.013398661 0.0072021997 -0.055591844 -0.036177613
00000000: 0973 323d 5c5c c23c db58 17bd f92e 843c
00000010: 9dff 9d3d ce2c 54bd b089 0000 c789 0000
00000020: 2b84 cdbb 44b7 493d 6cac bebd 4c96 ca3b
00000030: e880 dbbd 8aed a03c 04c7 0bbd 45bf ae3d
00000040: 156b 89bc d416 14bd 6590 b739 f838 72ba
00000050: adeb e9bd 5ef4 7cbd 489a 833c df63 783c
00000060: 7ac0 b93b 7fc7 fa3c cbf7 a935 6d66 b4ba
00000070: 7895 2a3d 69a5 933d 093f 7dbb 65a1 99bd
00000080: 54bb 853d c1c5 9f3c 0fe0 693d 6bf2 85bd
00000090: 7a5e 0cbd d568 7dbc 8380 733c 8a07 8ebb
000000a0: 8e2c a1ba a9ea 493d 9fb8 333d 97a7 55bd
000000b0: 8093 073d ef9d 8cba d7dc aabd 938a 0080
000000c0: 5e98 ae3c e44f 41bd 2b49 993d c5e8 84bb
000000d0: 5905 853c f34f 363d 8d30 1eba 34bd 733d
000000e0: 64c6 333d a0b5 16bd 99e7 0b2a 8241 f5bc
000000f0: 65b8 b5bd 9d65 bb3c df5b 863d 8c42 4e00
00000100: 55dc 863c a85b a9bc c179 9e3d 5483 f8bc
00000110: 9481 52bc cce1 62bd 7992 64bc 4fcb d73b
00000120: 7e44 373d 521e a1bd a5d2 843d 9539 9a3d
00000130: a82c 923c e97e a1bb 181e 853d 01d8 b3bc
00000140: 19fa 50bd 0223 26bd 1aeb 2aba 97d7 643d
00000150: f6a8 66bd 10ab 763c 631a 5a3d f5ae 213d
00000160: b3ad 743d 3926 f73c efb9 a03c 6cf2 723c
00000170: 363b 1e3d 01dd 58bd 1c38 b6bd 5aa5 e7ba
00000180: 1d97 f138 a681 8ebd 21e8 0a3c ab9a d139
00000190: 0812 dd3c 513e a73d 6e4a 3f38 e044 f6bd
000001a0: 0f8c 6fbd 59b5 08bd 1872 7ebd 5f5a 08ba
000001b0: 7c8f 0080 a59e 023d 7122 463d ee10 bc3c
000001c0: caa5 91bd feb8 0a3d 31c1 be3a 8c19 c1a4
000001d0: 3dce e0bd 530b 85bd 8a99 16bc 7451 953d
000001e0: 8c37 bdbd 3a46 b338 db50 f4bc 803c 18bc
000001f0: 81b6 8abd fa5f dcbc b5a4 ad3c bd13 0b3c
00000200: a088 e4ba c1b0 b3bb 91c8 4dbb 2e94 cc3b
00000210: 87ec d63c dbfb b83c 3f8a 0000 269e 0080
00000220: 9716 43bc ab58 413d 767f 09bd 152a 3fbd
00000230: 1fb7 6abd 3c73 a3bb 1cc0 64b3 c763 033d
00000240: 5e14 a733 85f0 af3c ff89 0080 498b 0000
00000250: e30a 50bd c4b8 8b3a c23b 083d 17b8 cd39
00000260: 5b8c 0080 a362 51bd 9292 0000 5a89 0080
00000270: 34d0 fabc 1924 543c fc59 5d27 9680 69bd
00000280: 1290 0fbc 7841 c8ba f571 bebc a730 84bc
00000290: db88 0080 028a 0000 71c6 83bc 2689 0000
000002a0: d2e9 01b0 879b 773c 407c 283d 418d fe33
000002b0: b65e df3c d888 0000 b7aa 95bc 068f 0000
000002c0: 9c65 e53a c7f1 84bc 177d 063d bb88 0000
000002d0: c339 c63c 1d18 bebb d38a 0000 1a70 debc
000002e0: e416 2b3d 33b9 9c10 a68b 0080 0842 d7b3
000002f0: d122 35bb f1de b43c 77d4 3bbc 118f 0000
00000300: 9770 c311 f588 0080 4929 1c3d 8deb d292
00000310: c4d6 3c97 e619 3936 c064 1439 fcc5 e9bc
00000320: 8a51 82bd b6d4 6cbd f94e 3f3c 6c52 bfbc
00000330: 5ac1 3038 a28a 0080 7823 74bd ee4d beaf
00000340: bf70 0dbc 37ea 30bc de89 0000 94b4 3ebc
00000350: a96a 38bd 1d53 4a3c 59cc e33a 3b59 f4bb
00000360: 571e 5bbd 119b 98bc 1307 0bbc 780b 62bb
00000370: 54c3 2bbd c015 11bd e507 babc 086b 0fbd
00000380: 9989 0000 b40f 4d38 7464 a020 d6ff e9b2
00000390: 987c 7a3c 0b05 02bc 8e89 0000 e5e9 29bd
000003a0: a59d 8db9 48dc 87bc b494 42bb dc8b 0000
000003b0: 438a 0000 6989 0000 a4a1 183c b582 17bd
000003c0: c5a9 bbb5 ebc2 c5bb 5449 fa3b b389 0000
000003d0: 2dd0 ecbc cb05 0f3c 208c 0080 a02b 493d
000003e0: 7719 a3bc 0d8b 0080 f2c5 59b3 8589 0000
000003f0: 0f86 5bbc 6e00 ec3b 46b4 63bd fa2e 14bd

val_conv1.bias f4 [2]
0.05820944 -0.055037115
00000000: 066d 6e3d 996e 61bd
