课程设计/AlphaZero简单复现/models/policy_batch_2000.model (torch, 530639 bytes, 15 tensors)

conv1.weight f4 [32, 4, 3, 3]
000000 2f cc 88 3e 22 f0 a3 bd 19 6f a2 3e 71 86 ca bd
       0.2671828 -0.08004786 0.31725386 -0.09888924
000010 bc 56 f3 bd 74 03 06 be 92 ab c4 3e eb 2b 17 be
       -0.11881778 -0.13087255 0.38412148 -0.14762847
000020 a9 9e e0 3e 01 85 3f 3e 2b d6 9d bd 49 2c 1a 3e
       0.43871048 0.1870308 -0.07706865 0.15055956
000030 6a 0e a2 bd af e0 b7 bc 12 34 c1 bd 0e 79 35 3e
       -0.079129055 -0.022446005 -0.0943376 0.1772196
000040 28 1a a3 bd bc a4 2b 3e c7 bc 7c 3d 11 e8 de bb
       -0.07963973 0.1676206 0.06170347 -0.006802567
000050 24 7a 21 3d dc 15 3f bb 6d 23 26 be 1f 8f a0 bc
       0.039423123 -0.0029157316 -0.16224451 -0.019599495
000060 07 f8 4a 3c c5 9f 04 bb 4f 30 9d 3d 7b 96 1b 3c
       0.012388236 -0.0020236832 0.0767523 0.009496327
000070 3d 2a c4 3a 66 5c c1 bc 0f 73 c1 bd 11 1b e7 3d
       0.0014966201 -0.02360363 -0.09445774 0.112844594
000080 11 e7 0f bb 2b 18 91 3c 21 f4 18 3d 21 c9 93 bc
       -0.0021957795 0.01771172 0.037342194 -0.018040242
000090 3b c5 cb 3e 8d f4 90 3e 96 c6 ed be be 1b 3c 3e
       0.39798912 0.28311577 -0.46440572 0.18369958
0000a0 41 5a de bc 0f d1 a6 3e f2 4e ad be 15 d2 46 3e
       -0.027142646 0.32581374 -0.33849293 0.19416077
0000b0 ca 27 38 3e ee bf ad bc 1f f8 7d 3c 33 9c 5b 3d
       0.17983928 -0.021209683 0.015501051 0.05361576
0000c0 12 cb 06 be 7d 91 39 bc 6e ab b5 bd b3 fa 87 3e
       -0.13163403 -0.011326191 -0.08870588 0.26558456
0000d0 bc bb ee bd 4d 8d cd 3d ff 1b 9d bd a8 0f ef bc
       -0.11656901 0.100367166 -0.076713555 -0.02918227
0000e0 14 4a cd bc 6c 52 69 bc 40 85 9b 3c df 55 c0 bb
       -0.025059737 -0.014240842 0.018984437 -0.0058696116
0000f0 41 9a d7 3c c0 69 a1 3b 6e bf 86 3c 39 88 38 3c
       0.026318671 0.0049259365 0.016448703 0.011262947
000100 c6 03 09 be da 0c a3 3d 88 33 26 be 6c ff 98 3d
       -0.13380346 0.079614356 -0.16230595 0.07470593
000110 8e f8 fc bd 38 15 00 3e 03 27 5a bd 69 03 34 3e
       -0.123520955 0.12508094 -0.05325986 0.17579426
000120 0b 90 8a 3e f3 9e 4e 3e 79 4b 8b bc 3d a9 aa be
       0.2706302 0.20177822 -0.017003762 -0.33332244
000130 e7 4c 75 bd f5 af b3 be f5 f9 c3 3d 39 83 69 3e
       -0.059887793 -0.35095182 0.0956916 0.22803964
000140 89 98 81 be 7b bb 72 be bd 66 3f be d0 e4 14 be
       -0.25311688 -0.2370433 -0.18691535 -0.1454041
000150 e9 7c b5 3e bb 57 4f 3e a7 8d 3c 3e 16 6d e2 3d
       0.3544686 0.2024831 0.18413411 0.11055963
000160 dd 7d b5 be a5 20 dc 3d e2 48 c8 39 11 79 f0 bc
       -0.3544759 0.10748414 0.00038201275 -0.029354604
000170 e6 1d 38 3d 1b 61 b6 bc 50 2e 4d 3c 77 ed af ba
       0.04495039 -0.0222631 0.012523249 -0.001342221
000180 8a ef 40 bd 19 4e 2f be 9f 60 d1 3c 13 d4 1a be
       -0.047103442 -0.17119636 0.025558768 -0.15119962
000190 bf 18 da 3d f8 99 5e 3d e8 03 1b bb fb 06 55 3d
       0.10649251 0.054346055 -0.0023653451 0.05200861
0001a0 08 b5 3b 3d 56 fe 16 3d 1b 2d 12 3e 82 d2 2f be
       0.04582694 0.036863647 0.14275019 -0.17170146
0001b0 f1 70 b6 3c 34 66 2d bf 0e de c7 3e f6 1d 69 bd
       0.022270652 -0.67734075 0.39036602 -0.05691334
0001c0 20 0e e5 3e 1a 85 ed be 25 62 90 3d f8 49 1e 3d
       0.4473734 -0.4639061 0.070499696 0.03864476
0001d0 ab 73 a0 3d 75 15 0c 3e fb 91 68 3e 0a 03 d7 be
       0.07834562 0.1368006 0.22711937 -0.41994506
0001e0 c0 14 04 3e df 10 85 be ca 26 34 3e 11 4f 2e be
       0.1289854 -0.25989434 0.17592922 -0.17022349
0001f0 3c 77 37 3d fa f4 1c 3e 31 78 43 bc c4 f9 9c 3d
       0.044791445 0.15327826 -0.011930511 0.076648265
000200 01 56 5e bd 47 b3 a0 bc c8 e6 41 bc 90 66 16 3d
       -0.05428124 -0.019616736 -0.011834808 0.036718905
000210 35 0f cd bd 2c 4d 58 3c 77 87 0e 3d 2d 10 91 3d
       -0.10012666 0.013201993 0.034797158 0.070831634
000220 09 56 79 bd b9 f6 ba 3d 76 3b 0b 3e 8c 50 2d bc
       -0.060873065 0.0912909 0.13596901 -0.010578286
000230 95 43 c7 bd 0f b6 d6 bd 2f de ba bd 01 90 01 3e
       -0.09729687 -0.10483944 -0.091244094 0.1265259
000240 dc 6b 7d be e8 1d 84 bd 2c 62 b3 bd bf e8 59 3d
       -0.24748176 -0.06451017 -0.08758959 0.05320048
000250 4b 93 6a 3e d9 23 a8 3d ed 13 c6 bd bb 76 31 bd
       0.2290775 0.082099624 -0.09671769 -0.04332612
000260 b4 8a 42 3e a5 f4 1f be 74 87 68 3b 4b ec b2 bd
       0.18998224 -0.15620668 0.0035481127 -0.087364756
000270 6e 2a 60 3e c3 8d 5d bd de 5a 91 bd bc a1 a1 3d
       0.21891186 -0.054090273 -0.0709741 0.078921765
000280 74 6c 75 bd bd f7 fe bd cd 3c cf bd 37 be 23 3b
       -0.059917882 -0.12449596 -0.10119019 0.0024985203
000290 84 00 64 3d 7b 54 d4 3d dd 43 a8 bd 24 ea ab bd
       0.055664554 0.10367676 -0.08216069 -0.08394268
0002a0 f8 9e 6b bd d2 53 75 bd f8 47 54 be 2b 14 59 3d
       -0.05752465 -0.05989439 -0.20730579 0.05299775
0002b0 b0 88 86 3d ec ef d0 3d 24 37 f7 3d a3 98 a9 3d
       0.0656904 0.102020115 0.12071064 0.08281066
0002c0 76 19 bd 3d 04 1f 0b 3e 3b 74 0c 3e be 07 d7 3d
       0.09233372 0.1358605 0.13716213 0.104995236
0002d0 e1 b2 90 3e da 75 60 3d c4 bf c6 bd b0 62 ab be
       0.28261474 0.054799892 -0.09704545 -0.3347373
0002e0 e9 53 d6 3e 0b a2 67 3e 04 72 c1 3e 1b c4 cc 3c
       0.41860893 0.22620408 0.377823 0.024995854
0002f0 9d 59 0b bd 8e 33 1a 3e 11 49 98 bd 8e 4b 9d bd
       -0.03402101 0.15058729 -0.07435811 -0.076804265
000300 dc 15 f2 be 73 af 80 3e 5a be db 3d b9 55 cd 3d
       -0.47282302 0.25133857 0.10729666 0.10026116
000310 44 75 f3 bd 02 fd b8 bd ca 41 57 3d cb 32 4b 3d
       -0.11887601 -0.090326324 0.052552976 0.049608987
000320 e3 bf ce 3c 25 d3 77 3c 70 d8 b1 3d d2 9d 5a 3d
       0.025237983 0.015126024 0.0868386 0.053373165
000330 aa a0 84 3d 46 c5 88 3d 73 4d 09 3c c0 0f 05 3d
       0.06475957 0.06678252 0.008380282 0.032485723
000340 f4 b2 29 3d 67 dc ef 3d bd 37 20 3e a3 bd f4 bd
       0.04143043 0.1171196 0.15646262 -0.11950233
000350 d8 8b 94 bd 56 5f 16 bc 0a ca 4f bd fc 03 32 3e
       -0.072532356 -0.009178003 -0.05072979 0.17384332
000360 e3 37 ea bc b3 dd 50 bc c0 69 c0 bd 6a cf 7f 3d
       -0.028591102 -0.01274817 -0.0939517 0.062453665
000370 a6 2c cf bc 75 ba d6 bd e1 59 c4 3c 6b 76 b7 39
       -0.025289845 -0.104847826 0.023968639 0.00034992708
000380 2d e5 47 3e 5d 80 ae bd 55 ce d0 3d c8 cf 19 3e
       0.19521017 -0.08520577 0.10195605 0.15020669
000390 6d 05 8f bd c1 14 13 3f 28 e8 02 bf c1 01 8d 3d
       -0.06983457 0.5745354 -0.5113549 0.068851
0003a0 62 a1 20 bf 37 f1 c5 3e 51 7b f3 bc 8f 59 9c 3c
       -0.6274625 0.38660595 -0.029721888 0.019085674
0003b0 1e 42 19 3c 19 6e f8 bc b9 70 a6 3d 1b b8 0b be
       0.0093541425 -0.030325936 0.08126969 -0.1364445
0003c0 ae 3f 12 3d e7 39 db bc 2e 85 fe 3d 57 b9 7e 3c
       0.03570526 -0.026761008 0.12427746 0.015547118
0003d0 68 89 f6 3d 1f 48 e8 3d ea bb 0e 3c e1 dd 94 bd
       0.12037927 0.11341881 0.008711794 -0.072688825
0003e0 39 7e e5 bb 47 5d f0 bd e2 6b c6 bc 84 b5 44 bd
       -0.0070035723 -0.11736541 -0.024221364 -0.04802467
0003f0 72 31 4b be c3 33 05 3e 0b 10 82 3e 8a e7 42 be
       -0.1984308 0.13008027 0.25402865 -0.19033638

conv1.bias f4 [32]
000000 b9 3d 34 bd 75 0b 0c 3e 85 60 1c 3e bb f4 45 3c
       -0.044004176 0.13676246 0.15271194 0.012082274
000010 ab 76 09 be 49 ab eb 3b 9f a0 4b 3b 9f f7 00 3e
       -0.13424174 0.0071920496 0.003107108 0.1259446
000020 b2 84 87 3d 75 a1 a2 bd d8 db 94 3e 97 f2 0f 3c
       0.066171065 -0.07940952 0.29073977 0.008785865
000030 0a 8e b8 bd 4f 7e 07 bd c2 ea e3 3c c8 54 6e 3e
       -0.09011467 -0.03307944 0.027821902 0.23274529
000040 c8 32 71 bd 8b 52 7e 3e 75 74 aa bb 05 8e d6 3c
       -0.05888632 0.24836175 -0.005201871 0.026190767
000050 45 62 8d 3e 1c 11 6a bb be 44 7c bd 82 04 35 3d
       0.27614036 -0.0035715764 -0.061588995 0.044193752
000060 19 b5 97 3b f5 40 44 3e e8 ec 86 3e c7 d8 3a bd
       0.004629743 0.19165404 0.2635262 -0.04561689
000070 82 d8 2d bd eb 80 cf bd 74 08 13 3e 6b 13 07 be
       -0.042442806 -0.10132011 0.14358693 -0.13191001

conv2.weight f4 [64, 32, 3, 3]
000000 51 83 e2 3d 53 60 ae 3d 1c 0d 2f 3e e2 f8 b5 3d
       0.11060203 0.08514466 0.17094845 0.08885361
000010 5e c3 12 bd 06 6e ad 3d ba 79 3e 3d eb a6 05 3d
       -0.035830848 0.08468251 0.046502806 0.03262989
000020 f4 7a be 3d e5 29 e4 3d 03 0b 0e be 37 5e f5 bc
       0.09300795 0.11140803 -0.13871388 -0.029952152
000030 b7 4c 1e bd 5b db 9c 3c dd ae 26 be cd 3a 47 3c
       -0.03864738 0.019147566 -0.16277643 0.012160015
000040 61 5a f8 3c d9 c8 09 3e de 5e d6 3b 17 20 6f bc
       0.030316534 0.13455524 0.006542071 -0.014595053
000050 84 5e ec 3d 1b ab bc bd da 6c 8f 3d 9e 8e 8d bc
       0.11541465 -0.09212323 0.07003184 -0.01727992
000060 d6 26 82 bc ef ec 8b bd 4e b0 01 bd 4c 9e 06 3d
       -0.015887659 -0.06832301 -0.031662278 0.032865807
000070 fd 1d 3d 3d 1a 37 11 3c ec 44 0e 3c d6 24 0b be
       0.046171177 0.008863235 0.008683424 -0.1358827
000080 07 20 df 3d 91 66 43 be 25 f8 10 3e d5 1a f6 bd
       0.108947806 -0.19082095 0.1415716 -0.120168366
000090 d2 23 f5 3c 9f 63 9c 3c 1b 9a b8 3c 20 72 bb 3c
       0.029924307 0.019090472 0.02253442 0.022881567
0000a0 3b 40 d9 3b 3a ae 1b 3d bc 0d 38 bd 22 a4 89 3c
       0.0066299713 0.038007952 -0.044934973 0.016801897
0000b0 ea e3 03 3d 48 44 90 bd 52 ef 42 bd bc 06 90 3c
       0.032199778 -0.070442736 -0.047591515 0.017581336
0000c0 18 ce 5b 3c 34 2c d9 3d bd ad f9 bd 4a 00 4b bd
       0.013415836 0.10604134 -0.12191341 -0.049560823
0000d0 09 9d a7 bc a4 c9 02 be a4 17 a9 3d 97 7e b9 bd
       -0.020460622 -0.12772232 0.08256462 -0.09057348
0000e0 bd bc ac bc 65 cb 15 be 42 b0 23 3e a1 a1 58 3c
       -0.021086091 -0.1462837 0.15985206 0.013222129
0000f0 5e b0 ae 3d 5f b6 01 3e f1 20 44 3d 86 d2 1d bd
       0.08529733 0.12667225 0.047882978 -0.03853085
000100 b5 41 22 be aa 7a 98 3d 70 09 a7 3d 29 b9 f9 3d
       -0.15845378 0.07445271 0.08156097 0.121935196
000110 c0 5a 15 be 00 92 72 3e ad 69 93 3c 1d 99 bf bd
       -0.145854 0.23688507 0.017994726 -0.09355376
000120 d4 b1 6b bd 18 72 78 3d 47 8d 87 bd b0 03 c9 3d
       -0.057542637 0.060655683 -0.066187434 0.098151565
000130 1e fb 98 3d ca af 09 bd 57 d0 86 bd fd b3 1c 3e
       0.07469772 -0.03361491 -0.065827064 0.15303035
000140 77 22 03 3e 15 22 2d bd 83 d4 09 3e 9a 82 2c bd
       0.12806116 -0.04226883 0.13459973 -0.04211674
000150 c2 59 d7 bc e5 28 40 bd 94 59 c1 3d a0 8e 69 bd
       -0.026287917 -0.046914 0.09440914 -0.057020783
000160 67 27 17 3e 78 8b ad 3d 7f e6 a0 3c 4d d7 ba bd
       0.14761125 0.08473867 0.01964116 -0.091230966
000170 14 a7 0c 3d c5 d5 e0 3d 4c 60 30 bd ca 80 d0 bc
       0.034339026 0.10978273 -0.043060586 -0.025452036
000180 c0 a0 67 3d 8f 35 97 3d 2f 53 c7 3d b4 32 b6 bc
       0.056549788 0.07383262 0.09732663 -0.022240974
000190 e9 f7 ae bd a3 81 cd 3c 97 b4 db 3a de d7 3c 3d
       -0.08543379 0.02508623 0.0016762194 0.046104304
0001a0 75 ca b1 3d cd 1b 7c bd c5 2d a9 bc 4d b3 6a 3c
       0.08681194 -0.06154995 -0.020651707 0.014324975
0001b0 9d b8 d8 bc 40 01 62 3c 83 86 e4 3a ea 71 a0 3d
       -0.026455218 0.013794243 0.0017435107 0.078342274
0001c0 2b d6 d6 bd 09 bf af 3d 15 a9 c5 bd 0d 54 64 3d
       -0.10490068 0.08581359 -0.096513905 0.05574422
0001d0 9d a2 a8 3c 35 90 9e bd f5 e8 cb bb d4 be c1 3c
       0.020585353 -0.07742349 -0.006222839 0.023650564
0001e0 6d 09 27 3e dc 8d eb bc 4d 3b 55 bd 37 c5 2d 3e
       0.1631219 -0.028754167 -0.052058507 0.16969763
0001f0 9a c3 83 bd 7e a7 10 3e c0 95 80 bd 33 b2 5b 3e
       -0.064337924 0.14126393 -0.062785625 0.21454696
000200 7c 40 00 3e 49 fa 08 bd 84 97 63 3d 5c 43 cf 3d
       0.12524599 -0.033441816 0.05556442 0.1012027
000210 08 9c 05 bd 84 8e 39 be d1 cd d0 bd 3f 55 ad bb
       -0.032619506 -0.18120772 -0.10195506 -0.005289703
000220 32 27 91 3d 9d cb 15 bd b5 14 af 3c b9 ef 1b bd
       0.07087554 -0.036571134 0.021372179 -0.038070414
000230 0b 1b b7 3d 2f 02 04 be 10 3a a8 3d 08 11 ad 3d
       0.08940705 -0.12891458 0.082141995 0.08450514
000240 f1 b0 e0 bd 5d 7b 74 bd b3 64 05 be c4 0d 53 bc
       -0.10971249 -0.05968796 -0.13026695 -0.0128817
000250 04 3c a5 3d 75 9d 1f bc 7a a8 06 3d d5 c8 49 3e
       0.08068088 -0.0097421305 0.032875516 0.19705518
000260 f1 60 e9 3d 5d a4 84 3d 9c 17 88 3d a4 6a cb bd
       0.11395443 0.06476662 0.06645128 -0.099324495
000270 f5 e7 d9 3c 76 e4 84 3c eb c5 51 bd 2f 3f e9 3c
       0.026599864 0.01622222 -0.05121414 0.028472511
000280 bb 5b e2 bb 8e bb 69 3d 3b 48 02 bd 3d c2 36 3d
       -0.006907908 0.05706363 -0.031807166 0.044618834
000290 ef 9c 16 bd 3b 5c 25 3e 4c 5b 43 3e a3 9d 25 bd
       -0.036770757 0.16148464 0.19077796 -0.040433537
0002a0 00 37 92 bd e9 18 cb bc 23 ce 2f be e0 6b ed bd
       -0.07139397 -0.024792152 -0.17168479 -0.11592841
0002b0 aa 58 5a 3d 4c 02 3d bb 13 2d 71 3d d7 c7 42 bd
       0.053307213 -0.002884048 0.058880877 -0.047553863
0002c0 9c 15 46 bb d0 df 3b 3d 5b 7f 13 3c 4d d8 58 be
       -0.0030225283 0.04586774 0.009002532 -0.21176262
0002d0 54 6c b8 bd ba 95 29 bd d2 c5 0d bc 91 d1 d5 3d
       -0.09005037 -0.041402556 -0.008653121 0.10440362
0002e0 ea 75 c4 bd 97 48 b8 bd 40 4f 79 3d 59 0e 34 bd
       -0.09592803 -0.089982204 0.060866594 -0.043958995
0002f0 e4 1b 46 3d a4 47 24 3e 99 90 0e 3e 73 e2 0f 3e
       0.048366442 0.16042954 0.13922347 0.14051227
000300 f6 2e 66 bd 5d 73 45 3c 89 d7 d1 bd bb b8 3a be
       -0.05619713 0.0120514305 -0.10246188 -0.18234532
000310 15 52 c2 be c4 0b d2 3d e1 17 d4 3d 63 05 9c bc
       -0.3795325 0.1025615 0.10356117 -0.019045537
000320 19 87 15 3a 48 a3 ad 3b ba 86 8f bc cb cf ba 3a
       0.000570403 0.0052990057 -0.017520297 0.0014252601
000330 4b c9 fe bd fd 1d ad bd 46 a6 91 3d 8d 48 f2 bc
       -0.12440737 -0.084529854 0.07111792 -0.02957561
000340 83 4b c1 3d d6 50 6c bd 68 c8 30 bd 8c 51 82 3d
       0.09438231 -0.05769428 -0.043159872 0.0636321
000350 1f 80 d7 3c 37 1b ae bd fe d5 57 3d 88 e0 3c be
       0.02630621 -0.085012846 0.052694313 -0.18445027
000360 cc 39 64 3c a2 46 55 3e 38 c0 a6 bc d5 e2 07 3e
       0.0139297955 0.20827726 -0.020355329 0.13270123
000370 e4 a1 3e 3d 3a 92 39 bd 5d 98 3f 3d e3 54 77 bd
       0.04654111 -0.04530547 0.046776164 -0.06038369
000380 4f cc 06 bd 8d d1 85 bd e8 9f 0f 3d 66 ef ed bc
       -0.032909688 -0.06534109 0.035064608 -0.029044818
000390 99 c0 fa bd 0d 8e 59 ba 93 d3 19 3e c6 5f 52 be
       -0.12243766 -0.000829906 0.15022115 -0.20544347
0003a0 e7 b6 56 3d 0c 33 70 3e a6 2b b8 bd 91 67 68 3d
       0.052420523 0.23456973 -0.089927 0.056739394
0003b0 59 7a 7d bc df 1e 72 3d 16 f1 f9 bb 7e 2a 51 3c
       -0.0154710645 0.059111472 -0.0076276166 0.012766479
0003c0 c7 19 97 bd b7 2c 75 be 16 12 c5 3d d9 05 0f bb
       -0.073779635 -0.23942839 0.0962259 -0.0021823554
0003d0 ce 19 23 bd 82 4c 10 bd b6 9a 98 3d 9d c5 ba bc
       -0.03981953 -0.035229214 0.07451384 -0.022799307
0003e0 f3 7d b0 3c 31 2d 86 3d 1f 6b 55 3c ad 66 82 3d
       0.021544432 0.06551588 0.013026028 0.0636724
0003f0 49 70 09 3a 55 d7 f7 3c 67 c2 da bc 55 46 89 bd
       0.0005242867 0.030254046 -0.026704026 -0.06702868

conv2.bias f4 [64]
000000 df 32 07 bd be 40 89 3d 64 a0 4a bd 30 84 48 bd
       -0.0330075 0.06701802 -0.049469367 -0.04895419
000010 78 9e eb 3d 85 0a 41 bd 34 53 dd 3c 27 23 71 bc
       0.11504835 -0.047129173 0.027017213 -0.014717854
000020 ed 84 3b 3b 32 2a 07 bc 60 cf fb 3c d0 d9 93 bc
       0.0028613165 -0.008249806 0.030738533 -0.018048197
000030 2c ab 51 3d 8e e8 01 3d dc 61 65 bd 76 29 06 3d
       0.051188633 0.031715922 -0.05600153 0.032754384
000040 03 93 cf 3c 5b 80 42 bd d8 b3 a0 3c a1 bb ce 3d
       0.025338655 -0.04748569 0.019617006 0.10094381
000050 10 97 0f 3c 1c 37 5e 3d 5a ff 14 3d 2f 4b 8b bd
       0.008764043 0.054251775 0.036376335 -0.068014495
000060 77 14 f7 3c f0 f5 30 3d 46 7f 43 3d 35 a8 a2 3d
       0.030161126 0.043203294 0.0477288 0.07942239
000070 d1 02 d9 3c e3 c0 9e 3d 68 76 65 3d ee 73 07 3d
       0.0264906 0.07751634 0.056021124 0.033069544
000080 6c 63 d6 3c 6a a1 04 39 b2 32 2f 3c 74 df 35 bd
       0.026170455 0.00012648632 0.010693239 -0.044402555
000090 b8 b0 0e 3d 4a 78 3e 3a d0 8c 92 3d 06 a6 d9 3d
       0.0348365 0.0007265849 0.07155764 0.106273696
0000a0 dc d8 c3 3d 84 bf 25 bc 9d f3 a1 bd 64 bb 98 bd
       0.09562847 -0.010116462 -0.07907794 -0.07457617
0000b0 89 f6 42 3d fb 3d 74 bd 3b ee 70 3c f2 fa 3d bc
       0.047598395 -0.05962942 0.014705236 -0.011595475
0000c0 12 0b 56 3d 72 c1 5d bc ed 52 66 3c ef b8 0c bb
       0.05225665 -0.0135348905 0.014057857 -0.0021472534
0000d0 9a 5b 68 3d 5c 5c aa 3d f1 1e f3 bb bc 85 04 3d
       0.056727983 0.083183974 -0.00741946 0.0323541
0000e0 96 fb 55 3b a3 a5 5d bc c7 9f c6 3b 65 e2 df bc
       0.0032651178 -0.01352826 0.0060615274 -0.027329633
0000f0 67 d9 d4 3c 86 87 46 bd 2f 43 74 bd 16 aa d7 3b
       0.025982572 -0.04846909 -0.059634384 0.006581555

conv3.weight f4 [128, 64, 3, 3]
000000 99 2e 9c bc 0a dd 43 bc 2c 31 60 3b 42 23 e7 bc
       -0.019065188 -0.011954555 0.0034208996 -0.028215054
000010 c7 ea 0d bd 6a 04 c7 3c 43 b9 69 3d 7b ab bc bc
       -0.03464773 0.024294097 0.057061445 -0.023030987
000020 06 45 56 3d 24 6c 94 3c 91 05 83 bd ad 4c c2 bc
       0.05231192 0.018117972 -0.06397546 -0.023718202
000030 4b 67 6d bd da f8 a7 3c e5 fd 04 bd b4 9f b1 3c
       -0.057959836 0.020504404 -0.032468695 0.021682598
000040 ee a7 33 bd ef a0 38 3c 7f ad 1a 3c 62 c6 8e bd
       -0.043861322 0.011268838 0.009440779 -0.06971432
000050 6f 4e cc bd f4 0a ab bc de 2b c3 3d 9d 38 9d bc
       -0.099758975 -0.020879246 0.095298514 -0.019192034
000060 7d cd a5 3c 68 e9 4e bd 4f ca 6d bd 07 27 17 bc
       0.020239586 -0.050515562 -0.058054265 -0.009225613
000070 f6 dd 86 bc 83 dd 4b 3d f3 a0 9d bc 66 70 78 bc
       -0.016463261 0.049771797 -0.019241786 -0.015163517
000080 26 74 63 3d ff 36 b9 bc af aa 59 3d e7 a8 b8 bc
       0.05553069 -0.022609232 0.053141292 -0.022541476
000090 6f 03 05 bd b7 ae 25 3c ab c7 21 bc 43 5c 85 bd
       -0.032473978 0.010112456 -0.009874265 -0.06511738
0000a0 3d b1 48 bd fa df f5 3c c6 d8 40 bd d5 f8 d6 3c
       -0.048997153 0.030014027 -0.04708173 0.0262417
0000b0 4a c0 34 3d 88 23 48 3d 94 06 a0 3d de 3b cd 3c
       0.044128694 0.04886201 0.07813755 0.025052961
0000c0 4e 3f 2a 3d 09 5b 65 3d fa df 0d 3d 84 d8 77 3d
       0.04156428 0.05599502 0.03463743 0.06050922
0000d0 99 3c 5e 3d 48 4f 62 3d 1a c7 9b 3c ed c4 02 3d
       0.05425701 0.05525139 0.019015837 0.031926084
0000e0 00 57 b9 38 bc b2 a3 bb b6 04 96 3d 28 ae 9e bc
       8.8376924e-05 -0.004995672 0.07325117 -0.019370154
0000f0 01 e3 a2 3d 5c 53 26 3d 79 58 9a 3d f4 65 c6 bc
       0.07953454 0.04060684 0.07536406 -0.024218537
000100 8d b0 13 bd b9 2e 24 bd 26 ca 2b 3c e4 f2 c0 bc
       -0.036057044 -0.04008362 0.010485208 -0.02355332
000110 25 9e 21 bd d2 a9 99 bc fb 88 06 bb b4 b4 a0 ba
       -0.03945746 -0.018757734 -0.0020528424 -0.0012260885
000120 78 fa 85 3d f6 bb 0f bd a0 1e ce bc 85 b0 05 bc
       0.06541914 -0.035091363 -0.025161088 -0.008159761
000130 ff cf d3 bc 20 fc 0d bd a6 bb fb 3d c0 78 d6 3b
       -0.025856016 -0.034664273 0.122916505 0.0065451562
000140 3b d5 38 3c 12 90 91 3d fe 63 64 3d 84 21 49 3d
       0.011281307 0.07107557 0.055759422 0.04910423
000150 b8 15 cf 3c 29 29 21 3d 54 c0 07 bc 21 c9 bb 3d
       0.025278911 0.039345894 -0.008285601 0.09169222
000160 48 9a 6d 3c 53 df 20 3d b7 38 d4 3c f4 7b 6e bd
       0.014502116 0.03927548 0.02590595 -0.05822368
000170 3c b0 b4 bc 5c 12 f8 bc 6e 17 ba bd 27 36 d0 3c
       -0.022056691 -0.030282192 -0.090865 0.025416447
000180 b7 57 e7 3c c6 01 05 3d 22 71 73 3d f0 3b 88 3c
       0.028240068 0.032472394 0.059434064 0.016630143
000190 a3 de 10 3d 18 8f 00 3e d5 7f 20 3d 20 35 47 3d
       0.035368573 0.12554586 0.03918441 0.04863465
0001a0 21 3b d4 bc d6 7d 9b 3c 0c 1d 96 3d 6f df 2e 3d
       -0.025907101 0.018980902 0.07329759 0.04269355
0001b0 bf 0e 8b 3c 96 82 0c 3d f9 69 30 3c 74 e7 93 3d
       0.016974805 0.034304224 0.010767453 0.072218806
0001c0 ba 6c 9f 3c 82 4b 31 3d 8d 5b cd 3c 45 b5 3a 3c
       0.019461025 0.0432849 0.025068069 0.011395757
0001d0 ab 10 1c 3d 63 0e dd bc ec 5e 99 bc 23 95 3b bd
       0.038101833 -0.0269844 -0.01872202 -0.045796525
0001e0 1e 77 28 bd de 5d 71 3c b4 5e 12 bd 78 fb 0e 3d
       -0.041129224 0.014731852 -0.035734847 0.034907788
0001f0 6b a5 a7 bb 1c 94 e7 3c e0 ac a4 3d d6 5f d8 3c
       -0.005116155 0.028268866 0.08040786 0.026412886
000200 6f 87 22 3d 78 b8 9a 3d 30 45 c0 3d 62 f5 37 3d
       0.03967994 0.07554716 0.093881965 0.04491175
000210 9d ae 6b 3d 57 98 db 3c 5a ac e7 3c b5 34 16 3d
       0.05753957 0.02680604 0.028280426 0.03667136
000220 c4 b7 1e bd 5d 46 0e 3d 12 6b 4f 3b 88 1c c1 bb
       -0.03874947 0.034735072 0.0031649512 -0.005893294
000230 76 61 a2 bd 0d 97 a3 b9 6b 38 e3 3c 3c 4c e3 3b
       -0.079287454 -0.00031202324 0.027736863 0.006936578
000240 46 89 8d 3a e9 30 4a bd 95 83 83 3d 8c c0 cb 3d
       0.0010798357 -0.04936305 0.06421582 0.09948835
000250 9b bd 1e 3c 0b 60 80 3c 21 21 ed bc 33 88 b6 3d
       0.00968876 0.015670797 -0.028946461 0.08912697
000260 07 4f 67 bd 03 5e d3 3d 3a be 4e bd ea 8d ad bc
       -0.05647185 0.10320666 -0.050474383 -0.021185834
000270 bf 48 27 3c 2f 72 ad bb 27 fe 3e bc b7 88 ca 3d
       0.010210215 -0.0052931528 -0.011657274 0.098893575
000280 66 07 3c bd 7e 97 32 3c 3f 9b 9d bd dd e1 92 3c
       -0.045905493 0.010900376 -0.076956265 0.017929966
000290 b9 5d 88 3d e8 1c 8e bc da c7 ae bd 08 0b 9f 3d
       0.06658501 -0.017347768 -0.085342124 0.07765776
0002a0 5f 09 81 3b 6f 3c 86 3d 54 1e 0d 3d 39 ea c8 bc
       0.0039378847 0.065544955 0.03445275 -0.024525749
0002b0 f7 f1 67 3d 34 60 c9 bb 94 09 88 3d 0e 3a 61 3d
       0.05662724 -0.0061455015 0.06642452 0.054987006
0002c0 59 ef 55 3d f5 c6 68 3d 43 69 66 3d bf 6d 9e bc
       0.052230213 0.056830365 0.05625273 -0.01933944
0002d0 14 6b 82 bc 6e 02 f2 bc d4 ca 01 3d d9 13 b6 bc
       -0.0159202 -0.029542174 0.031687573 -0.022226261
0002e0 81 b1 14 bd f2 ae 01 3d bb 6c 40 bc 26 cd 24 bc
       -0.036302093 0.03166098 -0.011744673 -0.010058677
0002f0 c3 c6 2f bc 87 2a 6c 3d fc a3 67 3d cf ad 1c bd
       -0.010728541 0.057657745 0.056552872 -0.038251694
000300 52 ba 91 bc 39 a6 5e bc 84 d7 b6 3d a6 e7 4a bd
       -0.01778904 -0.013589435 0.08927825 -0.049537323
000310 7f 57 99 3c 65 44 2d 3d ec 2e a2 bc ba 69 94 3d
       0.01871848 0.042301554 -0.019797765 0.07246728
000320 d3 5c b4 bd 05 d6 96 3c b4 bd cd 3c ec b7 72 bc
       -0.08806767 0.0184126 0.025114872 -0.014814358
000330 06 47 f5 bc 8d 6d c1 3d f9 18 90 bd d9 d5 18 bd
       -0.029941093 0.09444723 -0.07036013 -0.037313316
000340 8e 23 31 bd c2 26 a7 3c e8 4e 8a 3d f0 b3 60 3d
       -0.0432468 0.020404223 0.067533314 0.0548591
000350 ee 8c a3 bc 26 9c 29 bc a7 d9 fd 3c 21 01 9e bd
       -0.019964661 -0.01035217 0.030987574 -0.07715059
000360 28 d6 7e bc b7 ab 93 3c 39 9b 94 3c 0a df b7 3c
       -0.0155539885 0.018026216 0.018140422 0.02244522
000370 41 85 89 bc 42 d8 28 3c ad 7c e7 3b a1 5f 43 bc
       -0.016787173 0.010305466 0.007064423 -0.011924655
000380 28 54 2e 3d f8 3d 1e bc b8 63 53 3c 66 f3 0a 3c
       0.042560726 -0.009658329 0.012902193 0.008480882
000390 8c 52 3a 3d e6 d9 2b 3d d5 f9 4b 3c e8 6d 74 bc
       0.04548888 0.04195585 0.012449701 -0.014918782
0003a0 6d 3a 03 3d 28 73 27 3d f2 32 17 3d a7 b4 b7 3d
       0.03203814 0.040881306 0.03691382 0.089700036
0003b0 a8 50 83 3d a3 89 2c 3d 6e 73 02 bd 6a f9 b5 3d
       0.06411868 0.042123448 -0.031848364 0.088854626
0003c0 6a e3 c8 bb 5f f5 3d bc 90 92 9c bc fd bb 6f 3d
       -0.0061306255 -0.011594146 -0.019112855 0.05852889
0003d0 ac 6f a8 bc 9a ee 16 3d cc 0d 8e 3d 21 5f 5b bc
       -0.020561062 0.036848642 0.06936225 -0.01338938
0003e0 27 34 fb bb a0 53 d3 3c f9 fc 45 3d 60 57 2d 3d
       -0.007666129 0.025796711 0.048336957 0.042319655
0003f0 8b 97 f5 3a 7f a6 eb bd 2e e5 0c bd 3a ad 27 bd
       0.001873718 -0.11506366 -0.03439825 -0.040936686

conv3.bias f4 [128]
000000 6d 5e 71 3c 0a 53 eb 3c 5c 8e ce bc d5 bc 70 bc
       0.0147319855 0.02872612 -0.025214367 -0.014693459
000010 0b 18 23 3c 87 bc 48 3d 2e 25 29 1a 1e 84 00 a7
       0.009954463 0.04900792 3.4978414e-23 -1.783519e-15
000020 67 11 21 bd 3a 33 c2 3b 44 99 40 3d 46 83 e6 3b
       -0.039323237 0.005926517 0.047021165 0.007034692
000030 e3 3f ae 3c a9 1d ca 3b 92 7d 98 bb 61 1e 7d 3c
       0.021270698 0.0061680865 -0.004653641 0.015449137
000040 eb c6 31 bd 1d d7 dc bb cd da 7a bb a3 a9 bd 3b
       -0.043402594 -0.0067395107 -0.0038277388 0.0057880445
000050 7a bf a0 3c 27 5a 8b ba d5 af 1b bc 87 66 2b bd
       0.019622553 -0.0010631726 -0.009502371 -0.041845825
000060 51 7a 6d a7 8b b0 50 bd 42 d8 77 3a 0e 84 98 3c
       -3.2956665e-15 -0.050949614 0.0009454527 0.018617656
000070 9a 61 5c 3c 35 7b f8 bb b5 14 44 bb 17 a8 f8 3c
       0.013451004 -0.007583047 -0.002991957 0.030353589
000080 ed 32 af 3c ac 59 07 bd 58 9c 33 3c f0 44 39 3c
       0.021386588 -0.033044502 0.010962568 0.01130794
000090 c7 f2 29 bd 57 54 28 bd fb f8 dc aa 13 ec 84 96
       -0.041491296 -0.041096058 -3.9252615e-13 -2.1474734e-25
0000a0 0e 82 86 bd 5f cb 47 bc a7 1c 63 3d 90 e5 7f 3c
       -0.06567775 -0.012194484 0.055447247 0.015618697
0000b0 76 3c 60 3b ef db 88 3b 77 b2 71 3c 4d ca f9 b8
       0.0034215725 0.0041766088 0.014752022 -0.00011910927
0000c0 4b 6d 76 bc 4c de 18 3d 76 d6 a9 ba b1 85 5b 3c
       -0.015040706 0.037321374 -0.0012957591 0.013398574
0000d0 5a 35 59 bc 8e 8b 40 b9 08 f8 40 bc 82 ab 90 ba
       -0.013257349 -0.00018362535 -0.011777885 -0.0011037441
0000e0 79 f9 9c b9 d0 fe d5 bc 7b d1 67 3c 3b 24 a6 3c
       -0.0002994051 -0.02612248 0.014149065 0.020280948
0000f0 2d 9c 1c 3d 4b f2 4a bd 5c 20 ed 3c d9 e0 b2 33
       0.03823488 -0.049547475 0.028946094 8.3296705e-08
000100 4c e0 b1 3c 56 bd aa 3d e6 2f 17 bb cb 26 77 3c
       0.021713398 0.08336894 -0.0023069321 0.015084933
000110 f8 4a 53 bc 80 46 56 3c 51 4e f4 3c c5 fa 09 bd
       -0.012896292 0.013078332 0.0298225 -0.033686418
000120 29 a1 5b b8 19 90 2d 3d bd b2 85 bd 02 c0 a7 bc
       -5.236376e-05 0.04237375 -0.06528232 -0.020477299
000130 ce de 29 bb ea ee a8 b9 ca 4b 8b 3c 91 7a 6e bb
       -0.0025920155 -0.00032221462 0.017003912 -0.0036388973
000140 3e 8b 82 3d c4 8d 1b 3d 6b 33 a0 b3 fd b0 d9 3c
       0.063742146 0.037976995 -7.4599335e-08 0.026573652
000150 47 df 97 3d 07 6f 13 3d d0 04 eb bc 96 44 da bc
       0.07415634 0.035994556 -0.028688818 -0.026644032
000160 83 2d 15 bd 02 e6 a2 bb 97 e2 b7 3c 67 62 b0 bd
       -0.036420356 -0.0049712667 0.022446914 -0.08612519
000170 67 07 f4 ba 64 f3 7a 3d 27 cd 91 3c 46 f8 f7 3b
       -0.0018617929 0.06126727 0.01779802 0.0075674383
000180 57 8e 1d 3b 05 f3 53 3c 6c e0 e0 b9 10 48 10 bd
       0.002404114 0.012936358 -0.00042891817 -0.035224974
000190 c3 54 65 bd a6 60 02 bb 4c 37 0a bc 80 d1 76 3d
       -0.05598904 -0.0019894033 -0.008436035 0.06025839
0001a0 47 d8 6c 3d 6a 64 f5 3c 79 28 45 3d 48 ac 77 96
       0.057823446 0.029955108 0.0481343 -2.0006863e-25
0001b0 c1 7a 74 ae ab aa 0c b7 0d bf 16 3d a8 86 62 bc
       -5.5588204e-11 -8.384387e-06 0.036803294 -0.01382605
0001c0 17 3a 28 3d 7d d9 a3 3c da 25 16 3d 21 3a 31 b9
       0.041071024 0.020001167 0.03665719 -0.0001690169
0001d0 59 53 89 3c dc 4a 69 bc f6 0f 81 a7 e5 47 5e bc
       0.016763376 -0.014239039 -3.5821997e-15 -0.013566946
0001e0 51 59 63 3c 74 09 0b ba 9e 1c d4 bd d9 f7 89 bb
       0.013876275 -0.0005303838 -0.10357021 -0.004210454
0001f0 f1 66 97 3d 20 d5 8b 3c f6 d1 38 bd 31 ce e5 3a
       0.073926814 0.0170694 -0.04512211 0.0017532763

act_conv1.weight f4 [4, 128, 1, 1]
000000 65 51 97 3c e5 94 02 3e 34 bf 00 be cc c0 56 3d
       0.01847143 0.12752111 -0.12572938 0.05242996
000010 ab 1e 0d 3e fe a1 d9 bd 8d 24 ae 3a 5b 67 ac 39
       0.1378123 -0.10626601 0.001328604 0.00032883402
000020 a9 01 d0 bd 0d 91 02 3e 68 14 4b bd 12 53 9c 3d
       -0.10156567 0.12750645 -0.049580008 0.07633032
000030 d5 1f 87 3d 6f 42 d7 bc ce 5a 49 bd 6a ca 0e 3d
       0.06597868 -0.026276795 -0.049158864 0.034861006
000040 bb 2d be 3d d1 db 12 3e 86 95 75 3b f8 67 6c bb
       0.09286066 0.14341666 0.0037473156 -0.0036072712
000050 86 ce ab 3d fd ed a0 3d 7d ee e3 3d f8 f2 86 3e
       0.083890006 0.07857893 0.111294724 0.26357245
000060 c2 8a 00 80 c9 92 86 bd 53 82 be bb 86 62 33 bd
       -4.9777e-41 -0.06570966 -0.0058138757 -0.04379513
000070 58 2e f9 3c b7 f3 84 3d b4 0e 77 3b ce 76 7d bb
       0.030417606 0.064917974 0.0037697973 -0.003867555
000080 40 6b 8a bd fa a1 68 3c b5 52 8a 3e 8a b7 43 3d
       -0.067587376 0.0141987745 0.27016225 0.04778246
000090 4f 51 fd 3d b4 d9 86 bd c1 06 b3 36 c1 88 00 00
       0.12369024 -0.06584492 5.335402e-06 4.9058e-41
0000a0 00 f2 02 3e 56 34 8a 3d cd 97 d3 3d 8a c2 43 be
       0.12787628 0.067482635 0.10331688 -0.1911718
0000b0 45 12 0c be 98 f2 0a 3d 1b 0e 9a 3d 75 71 03 3b
       -0.13678844 0.03392276 0.07522222 0.002005664
0000c0 1a 57 1b 3e 52 1d c5 bd 17 82 88 3e 3c 4f a8 3e
       0.15169945 -0.09624733 0.2666175 0.3287295
0000d0 c4 d2 a0 3d 5e b9 da bc 7a c6 b6 3b 62 d7 d4 bc
       0.078527 -0.026699718 0.0055778595 -0.025981609
0000e0 d2 7a 44 bd 34 cc 79 bd 11 0d 8a bd a4 04 fb bc
       -0.047968693 -0.06098576 -0.067407735 -0.030641861
0000f0 84 4c bd bd 4f 2d 0f bd ad de 10 be 2e 93 9b 3b
       -0.0924311 -0.03495532 -0.14147444 0.00474777
000100 f9 5e 4b 3e 60 6c 9a 3e ec 75 1f 3b 68 1b 15 3e
       0.19860448 0.3016081 0.0024331762 0.14561236
000110 d0 50 f9 3d cc f5 f4 bd 4e 7d 0c 3e 1c 1f 3d 3e
       0.12173617 -0.119609445 0.13719675 0.18468899
000120 c8 47 dd bc f9 3d f0 bc 9f 9c 6c 3c be 3f 04 3e
       -0.027011767 -0.029326426 0.014441638 0.1291494
000130 cd 2e 70 3d 06 2b 06 bb ab 90 0b 3d 21 d5 a7 3e
       0.058638383 -0.0020472421 0.034073513 0.32779792
000140 9c 4b a0 3a 9d d4 94 3d ac 9c 29 00 88 15 1f bd
       0.0012229565 0.07267115 3.821459e-39 -0.038838893
000150 ea 31 02 be 12 30 ed 3d 26 b3 75 3d 89 f4 51 bd
       -0.12714353 0.11581434 0.059985302 -0.051258598
000160 de 8f b0 3d c4 80 cc 3d 5a 39 b6 3d 12 41 8f bd
       0.086211905 0.099854976 0.08897658 -0.06994833
000170 cf 33 af 3c 7f 37 cf bb a7 99 25 bd 9c f3 9b 3d
       0.021387009 -0.0063237543 -0.040429737 0.07614824
000180 5a 62 15 bc dd 62 13 3e be c2 7f 3c 99 3d 47 be
       -0.009117687 0.14393182 0.015610395 -0.19457091
000190 2d 2a 93 bc a8 33 e5 3d e8 ef cf 3b fb 42 bf 3b
       -0.017964447 0.11191493 0.0063457377 0.005836842
0001a0 bf f4 03 be 34 01 11 bd a6 95 f5 3d 20 8a 00 80
       -0.12886332 -0.035401538 0.11991434 -4.955e-41
0001b0 37 47 40 36 f6 89 00 80 d9 24 dc 3d 5d 21 2d be
       2.8651682e-06 -4.9491e-41 0.10749216 -0.16907258
0001c0 45 5c 06 3d c1 23 fd 3d 87 6c 29 3e 09 65 57 bb
       0.03280284 0.12360335 0.16545306 -0.0032866618
0001d0 e1 e9 bb 3d df 6b f5 bc d1 88 00 80 48 0a 96 bd
       0.09175468 -0.029958664 -4.908e-41 -0.0732618
0001e0 a5 36 af bd fb f0 86 3e 25 94 34 bd e4 6a b1 3c
       -0.085553445 0.26355729 -0.044086594 0.021657415
0001f0 36 e5 68 bd 62 29 cf bd ef 49 1e 3e c3 76 21 bd
       -0.056859218 -0.10115315 0.15457891 -0.0394199
000200 c0 5a 03 3d 83 ce 36 bd 55 45 dc 3d ed 3c 30 bc
       0.032068968 -0.04463054 0.107554115 -0.010756713
000210 01 7e ad 3d 78 b1 99 bc 2b 0c 6f b8 81 8d 8a 9b
       0.08471299 -0.018761382 -5.6993373e-05 -2.292163e-22
000220 38 b8 79 be 1f 09 95 3c 67 68 00 3c c3 32 2c bd
       -0.2438668 0.018192826 0.007837391 -0.042040598
000230 21 08 ec bc 0b dc 96 bc 03 23 91 3d af 57 31 be
       -0.02881247 -0.018415472 0.07086756 -0.17318605
000240 89 79 52 be 09 30 de bd 6c be 4e bc e2 9c a3 3b
       -0.20554174 -0.10849006 -0.012618642 0.004993067
000250 62 53 87 3c 9a a0 0c bd 55 a3 37 3a b6 e7 55 3e
       0.016519252 -0.03433285 0.00070052344 0.20889172
000260 f2 89 00 80 d5 ad 8e bb d1 1b 27 bd 6f 72 f9 3a
       -4.9485e-41 -0.0043542185 -0.040798012 0.0019031296
000270 63 aa 96 3e 1c 40 9d bd 3e d7 3f bb 8a 79 bf 3c
       0.2942687 -0.076782435 -0.0029272581 0.023373384
000280 75 e9 3c 3d c5 d9 38 3d 30 70 bb 3d 41 bb e2 bc
       0.04612108 0.045129556 0.091522574 -0.02767718
000290 5f c2 25 be 87 84 04 3e 73 0e 30 aa d3 89 00 80
       -0.16187428 0.1294118 -1.5636953e-13 -4.9442e-41
0002a0 7c b8 1b 3c b2 70 66 be 48 73 e5 3c e3 a5 b4 3d
       0.009504434 -0.22503927 0.028009072 0.08820703
0002b0 31 bb a4 3e f6 5e fd 3c de a7 19 bd 12 5a c3 ba
       0.32174066 0.03092907 -0.037513606 -0.0014904162
0002c0 59 12 dc 3d e6 86 ab 3d 91 40 28 bc 6f 01 0c 3d
       0.10745687 0.08375339 -0.0102693 0.034181055
0002d0 31 cd dc bd 5c 81 e0 32 6e 79 8c bc df c1 bc b1
       -0.10781325 2.6135858e-08 -0.017147746 -5.4935607e-09
0002e0 33 72 bf ab 44 08 47 3d 3f 9a 6a bd 24 49 ca ba
       -1.3603063e-12 0.048591867 -0.057276007 -0.0015433175
0002f0 20 30 06 3e e8 38 82 be 56 64 e3 3e 5e 0c d1 3a
       0.13104296 -0.2543404 0.44412488 0.001594912
000300 a6 01 0c 3f 52 4e 82 bd 6d e5 d4 3d 47 0a 2a 3b
       0.54690015 -0.06362595 0.10395322 0.0025946067
000310 fa 83 80 3d 74 12 c0 3d b1 99 22 3e 42 ad 3f 3e
       0.062751725 0.0937852 0.15878941 0.18718436
000320 6a 69 95 b2 b0 73 f5 38 38 93 93 bd b6 37 0d be
       -1.739382e-08 0.00011704059 -0.07205814 -0.13790783
000330 20 63 a0 3e a9 4d 16 bd 58 21 99 3e 33 bc b4 3d
       0.31325626 -0.036695156 0.29908252 0.08824959
000340 66 bd fd 3d 48 06 c8 bc 56 8c 00 00 7e ec db 3c
       0.123896405 -0.024417058 5.0343e-41 0.026846167
000350 f1 c1 d8 3c 58 b9 74 b7 04 11 4f bd f1 61 73 3b
       0.026459666 -1.4586687e-05 -0.050553337 0.0037137235
000360 15 4d 82 3e b5 ba 91 3d be e6 84 3d 07 a0 ac 3d
       0.25449434 0.0711569 0.06489323 0.0842896
000370 c6 4c 09 3e 11 89 f6 bc 1c a1 d4 3c 2e 0b d6 bd
       0.13408193 -0.030094655 0.02595573 -0.10451351
000380 fa d4 91 3a 02 af 84 3d cd b3 b0 3b be 92 7d 3d
       0.0011126094 0.064786926 0.0053925277 0.061907522
000390 1f 3d 32 be f0 13 8a bd 5a 59 02 bc 42 5c 04 bc
       -0.17406128 -0.06742084 -0.007955873 -0.008078637
0003a0 68 f5 a9 bb 93 a2 62 3e a4 b5 16 bd 02 8b 00 80
       -0.0051867254 0.2213233 -0.03679432 -4.9867e-41
0003b0 26 89 00 80 0c a9 00 00 6a 0d 56 3d 16 6c 0d 3d
       -4.92e-41 6.0643e-41 0.052258886 0.034526907
0003c0 67 6a d8 3d 9c 3c 42 bd 9a 1d 17 be 45 70 c2 39
       0.1056717 -0.047421083 -0.14757386 0.0003708621
0003d0 86 a5 cf bc 45 d5 b5 3d 95 8a 00 80 90 6b 2f bc
       -0.025347482 0.088785686 -4.9714e-41 -0.010706797
0003e0 71 d9 73 3c e0 e5 28 bd 13 fa 2c 3d 3a ac 80 bd
       0.014883385 -0.04123485 0.042230677 -0.062828496
0003f0 36 3f a7 3b f0 a1 68 3d 54 48 ec 3d a0 a0 1d bd
       0.005103971 0.05679506 0.11537233 -0.038483262

act_conv1.bias f4 [4]
000000 86 25 ec 3c 22 31 a1 3c c4 d4 00 bb 91 18 01 3e
       0.028826486 0.019676749 -0.0019658068 0.12607028

act_fc1.weight f4 [81, 324]
000000 88 e3 42 3d be a4 be 3b fe 6d 11 3d 86 98 9d bc
       0.047580272 0.0058179786 0.035505287 -0.019237768
000010 f3 d6 00 3d b3 bb a6 3b 5e fa 09 3c 77 0d 62 3b
       0.03145499 0.0050882935 0.008421509 0.003449289
000020 86 e3 de bc d5 63 26 3d 06 b9 e9 ba 60 68 07 bd
       -0.027208101 0.04062255 -0.001783163 -0.033058524
000030 84 d4 55 bd 6b aa 00 bc 5e 3b 1e 39 50 e3 b6 bc
       -0.052204624 -0.007853131 0.0001509017 -0.022325188
000040 4c 07 fd bc 95 19 f1 bc e3 67 be 3c eb e6 df 3c
       -0.030887268 -0.029431144 0.023242896 0.02733179
000050 5c 8a d3 bc e7 0f 91 bd 74 0f 5e bc b8 0f 8d bd
       -0.02582281 -0.07083111 -0.013553489 -0.06887764
000060 48 eb 59 3d d4 22 62 3c 4f 46 bb bc cf e3 b3 3c
       0.053202897 0.013802249 -0.022860674 0.021959214
000070 f3 eb e9 bc 0f 9f ce bc 80 3c cc bd 5e c6 03 bd
       -0.028554892 -0.02522233 -0.09972477 -0.0321716
000080 d0 d4 8a bc 83 20 2e bd ad 03 d4 3c 5c f8 68 bd
       -0.01694718 -0.042511474 0.025880659 -0.05687748
000090 86 5c f9 ba 73 0f cc bb 56 b0 a2 bd 1c 9e b6 bd
       -0.0019024767 -0.0062274276 -0.0794379 -0.08916876
0000a0 0a 8e 49 bd 16 95 f9 bc 52 89 bc bd fe 24 13 bd
       -0.049207725 -0.030466598 -0.09205879 -0.03592395
0000b0 c0 24 97 bc 4b d3 48 3d 76 33 bc bd 5c 7d 16 bd
       -0.018450141 0.04902963 -0.09189503 -0.036740646
0000c0 a6 b6 aa bc 55 70 3b be 26 6d 1c bc 81 ce 3d bd
       -0.020839047 -0.1830457 -0.009547507 -0.046339516
0000d0 c4 e7 38 bd 19 48 79 bc 60 ba ba 3d fc d1 f2 bb
       -0.045142904 -0.015214943 0.091175795 -0.007410286
0000e0 d9 b8 5f bd 2b d4 fa bd 87 55 62 bc d4 0e a0 bc
       -0.054619644 -0.12247499 -0.013814337 -0.01953832
0000f0 9d 6d 8a bc 94 1f 6c bd 5c 99 71 bd c3 76 9c 3e
       -0.01689797 -0.057647303 -0.058984146 0.30559358
000100 e2 23 d3 bd 7b 36 6d bd 59 bf 30 bd e8 12 d0 bd
       -0.103095785 -0.057913285 -0.043151233 -0.10159856
000110 05 5f b7 bc d9 86 fe bc f9 dc d6 3b fe 52 fd 3b
       -0.022384176 -0.03107016 0.0065571037 0.0077308407
000120 88 67 ae 3e 5f 10 99 3e 65 76 7f bd c9 ef 30 bc
       0.34063363 0.29895303 -0.06236877 -0.010799357
000130 4e 0d 8c bc 0d ac c6 bb d1 ee b2 bc 93 56 df 3c
       -0.017096188 -0.0060629905 -0.021842392 0.027262961
000140 85 e2 9e 3c f3 1f 10 bd 78 9e 96 bc 18 a3 14 bd
       0.019395122 -0.03518672 -0.01838611 -0.03628835
000150 39 87 39 bb 84 03 58 bb ed ee 8b bd 8e 62 75 bd
       -0.0028309359 -0.003296108 -0.06832681 -0.059908442
000160 db a4 a7 3b c6 c0 e8 b9 38 8f 46 bd 96 19 37 bd
       0.005116088 -0.00044394116 -0.048476428 -0.044702135
000170 d7 1b c5 bc 67 ff 0f 3c a6 2b 1a 3d 0f 7c 30 bc
       -0.024061127 0.00878892 0.037639283 -0.010771765
000180 f8 8a 25 bd 1e 13 81 3c 9f 19 66 3d 14 09 78 3d
       -0.040415734 0.015756186 0.056176778 0.060555533
000190 5f 24 ce 3c bd 35 21 bd 55 5d ea bb 82 f2 8d 3d
       0.025163827 -0.03935789 -0.0071522393 0.0693102
0001a0 99 d5 c3 3c f9 a9 f0 bc 51 af 02 bc a3 79 a9 3c
       0.023905562 -0.029377924 -0.007976369 0.020687884
0001b0 3c a2 40 3d d1 37 90 bc ff 3a d2 bc 22 52 bc bc
       0.04702972 -0.01760474 -0.025662897 -0.022988383
0001c0 d4 52 1f bd 19 64 a1 bc 47 f4 f0 3c 53 e8 fe bc
       -0.03889735 -0.01970105 0.029413356 -0.03111664
0001d0 d8 1f c5 bd 83 ef 28 bd 82 86 40 3c df 63 0e bd
       -0.09625214 -0.04124404 0.011750819 -0.034763213
0001e0 6e 2c 3f 3d 01 bc 45 bb c5 8f 97 3b cd 99 17 3d
       0.04667323 -0.0030171874 0.004625293 0.03701191
0001f0 71 a9 db 3c 6e bf ed bc 4c d9 5f bd 36 2e 98 3c
       0.026814194 -0.029021945 -0.05465059 0.018576723
000200 66 11 12 3e 6a b2 6b bc 71 98 74 3b 98 88 a3 bc
       0.1426445 -0.014385799 0.0037322307 -0.019962594
000210 61 cd 03 bd f7 81 21 ba 6e df cc 3c 5a 6f 9a bc
       -0.032178286 -0.0006161029 0.025008883 -0.018851925
000220 fe f7 8e 3d d4 75 13 3d 4c 20 a1 3d 10 c0 6c bd
       0.069808945 0.03600104 0.07867488 -0.057800353
000230 1f 38 88 bc ba 2f 79 bd 89 2b 25 bd 08 85 c0 bb
       -0.016628323 -0.06083653 -0.04032472 -0.0058752336
000240 85 0c 74 be 4c 8c 9f 3c 44 39 be 3d f2 09 06 bd
       -0.23832901 0.019476078 0.09288266 -0.03272433
000250 d5 25 c2 b9 88 3d d9 3c 24 d6 7b bc 37 f9 10 bd
       -0.0003703075 0.026518598 -0.015370879 -0.03539392
000260 d3 9d 91 bc 50 3a aa be 54 ad 3e bd 28 ad 01 3c
       -0.017775452 -0.33247614 -0.046552017 0.007914819
000270 bb 15 7c 3d 67 7c 67 bc 66 8d 29 bc 0e d2 78 3b
       0.06154416 -0.014128781 -0.010348653 0.0037967
000280 d5 7d 86 bd 0a 2f 8c 3a 66 89 00 80 c6 89 00 00
       -0.06566969 0.0010695171 -4.9289e-41 4.9424e-41
000290 a2 89 00 80 98 89 00 00 0d 89 00 00 36 8a 00 80
       -4.9373e-41 4.936e-41 4.9165e-41 -4.9581e-41
0002a0 c5 88 00 80 45 89 00 80 18 89 00 00 8e 89 00 80
       -4.9064e-41 -4.9243e-41 4.918e-41 -4.9345e-41
0002b0 5c 8a 00 00 1b 89 00 80 87 53 8d 82 fa 89 00 80
       4.9634e-41 -4.9184e-41 -2.076603e-37 -4.9497e-41
0002c0 27 8e 00 00 11 89 00 80 22 89 00 80 6a 89 00 80
       5.0995e-41 -4.917e-41 -4.9194e-41 -4.9295e-41
0002d0 bd 88 00 00 97 89 00 00 d6 dc 9a 07 b7 4d 88 8d
       4.9052e-41 4.9358e-41 2.330114e-34 -8.400356e-31
0002e0 f1 ca 89 8b d1 d1 1f 85 c6 74 13 02 fa 89 00 80
       -5.307583e-32 -7.514681e-36 1.0833367e-37 -4.9497e-41
0002f0 1c 8a 00 80 05 89 00 80 e6 3e 4e 01 80 e7 af 01
       -4.9544e-41 -4.9153e-41 3.7881352e-38 6.4617034e-38
000300 57 31 e2 15 e4 0c 45 07 09 a0 4b 84 ca 9c 00 00
       9.135852e-26 1.4824421e-34 -2.393602e-36 5.6245e-41
000310 d1 89 00 80 66 89 00 80 c1 a2 00 00 a5 89 00 00
       -4.9439e-41 -4.9289e-41 5.8385e-41 4.9378e-41
000320 72 5b d0 81 f6 47 bf 15 19 38 02 80 28 89 00 00
       -7.653835e-38 7.725782e-26 -2.03795e-40 4.9202e-41
000330 d5 89 00 80 d2 89 00 00 a6 89 00 00 76 89 00 00
       -4.9445e-41 4.944e-41 4.9379e-41 4.9312e-41
000340 9d 89 00 00 08 02 03 02 8f 00 91 8d 94 56 13 01
       4.9366e-41 9.624943e-38 -8.936449e-31 2.7061753e-38
000350 c7 89 00 80 21 89 00 80 37 89 00 80 3a 89 00 00
       -4.9425e-41 -4.9193e-41 -4.9223e-41 4.9228e-41
000360 1e 89 00 80 a9 89 00 80 5c 89 00 80 83 ad c7 8d
       -4.9188e-41 -4.9383e-41 -4.9275e-41 -1.2306093e-30
000370 75 89 00 80 23 8a 00 80 cd 89 00 80 f9 88 00 00
       -4.931e-41 -4.9554e-41 -4.9434e-41 4.9137e-41
000380 6e 89 00 80 bc 89 00 00 e4 89 00 00 e4 89 00 80
       -4.93e-41 4.941e-41 4.9466e-41 -4.9466e-41
000390 2d 89 00 80 93 89 00 00 57 89 00 80 53 8a 00 80
       -4.921e-41 4.9352e-41 -4.9268e-41 -4.9621e-41
0003a0 08 89 00 80 4c 89 00 00 e6 88 00 80 b9 88 00 00
       -4.9158e-41 4.9253e-41 -4.911e-41 4.9047e-41
0003b0 d4 88 00 80 f8 88 00 80 df 88 00 80 33 89 00 80
       -4.9085e-41 -4.9135e-41 -4.91e-41 -4.9218e-41
0003c0 64 89 00 80 fc 88 00 00 cb 88 00 80 d2 83 a4 3d
       -4.9286e-41 4.9141e-41 -4.9072e-41 0.08032955
0003d0 00 8a 4d 3d 04 21 5d bc ec f9 bd 3c 77 16 89 3c
       0.050180435 -0.013496641 0.023190461 0.016734345
0003e0 68 42 1f 3d 20 e6 dd b9 2c 31 f9 3c 26 c3 60 3d
       0.03888169 -0.0004232386 0.030418955 0.054873608
0003f0 bb db e8 3c da a1 45 bc f4 58 22 3a 89 06 29 3d
       0.028425088 -0.012062514 0.00061930646 0.041265998

act_fc1.bias f4 [81]
000000 b0 93 c5 3d 89 d5 2d bc 29 2d 1f be 49 77 c8 3d
       0.0964731 -0.010609993 -0.15544571 0.09788377
000010 b4 a4 dc 3d f7 33 c4 3d cc d3 d0 bd 55 03 91 bc
       0.10773602 0.09580224 -0.10196647 -0.017701784
000020 6f 26 9c 3d ae bf 2d bc d3 88 93 bd e3 1c dc 3d
       0.07624518 -0.010604782 -0.072038315 0.10747697
000030 49 86 57 3d b4 d5 73 3e 1e 48 86 3d c7 23 ad 3d
       0.0526183 0.2381199 0.06556724 0.084540896
000040 4d dd 26 be a9 ef a5 bc 71 ae 0f be be 11 0e 3e
       -0.16295357 -0.02025588 -0.14031388 0.13873956
000050 6e 0b d1 bb 20 b1 58 3e b7 01 9c bd aa 32 34 3e
       -0.0063795364 0.21161318 -0.076175146 0.17597452
000060 7e 52 0c ba a1 0a 11 3e c6 8d c4 bd 40 c6 82 3d
       -0.00053528685 0.14164211 -0.09597354 0.063854694
000070 6c fc 17 3d 60 8f f3 3d 7f 50 ec 3d 90 24 4a 3e
       0.037105963 0.11892581 0.11538791 0.1974051
000080 72 7b b1 3d 84 f3 2c 3e 4b c1 20 3d cf 29 b8 3d
       0.086661234 0.16889769 0.03924684 0.08992349
000090 4d 5c ad 3d 35 69 43 3e d2 a9 d0 bc 80 cc 71 3e
       0.084648706 0.19083102 -0.025471602 0.23613167
0000a0 82 4c 60 bd 97 8e 8c 3e 30 67 9d bd 82 8a 5a 3e
       -0.054760464 0.27452537 -0.07685697 0.21341899
0000b0 1b 27 a0 3d cb 51 86 3d 7b a4 3f 3d ae e1 12 3e
       0.07819959 0.065585695 0.04678772 0.14343902
0000c0 32 45 c0 3d b2 d5 68 3e c4 61 6e 3d 7c f1 49 3e
       0.09388198 0.22737768 0.058198705 0.19721025
0000d0 40 63 33 3c db ea 79 3d 81 9e 0e be e3 d8 07 3e
       0.010948956 0.06101499 -0.13927652 0.1326633
0000e0 ba 51 8b 3d b2 3e 60 3e ca 74 ab bd 07 b8 04 3e
       0.068026975 0.21898916 -0.08371885 0.12960826
0000f0 45 8e cf bc 88 a1 1a 3e c9 0c d7 bd d8 d3 5f bd
       -0.025336394 0.15100682 -0.105004855 -0.05464539
000100 50 f1 fb bd 73 cb 05 3e 7e 4b 28 3d f5 c6 1b 3e
       -0.12301886 0.13065891 0.04108762 0.15212615
000110 57 ae cd 3c f7 8f 05 3e 4a 56 09 be d8 a3 a1 bc
       0.025107546 0.130432 -0.13411823 -0.019731447
000120 2d cc 13 3d 85 26 78 bd 57 80 0b be 3a c3 b8 3d
       0.03608339 -0.06058361 -0.13623177 0.090216115
000130 89 6e 60 3d 75 de 97 3d a1 e3 f6 bd 06 bc b3 bc
       0.054792915 0.07415477 -0.120551355 -0.021940242
000140 75 9d a6 3d
       0.08135501
