课程设计/AlphaZero简单复现/models/policy_batch_1850.model (torch, 530639 bytes, 15 tensors)

conv1.weight f4 [32, 4, 3, 3]
000000 c0 81 88 3e f2 dd ca bd e1 28 a1 3e ac c0 e3 bd
       0.2666149 -0.09905614 0.314765 -0.111207336
000010 3f 96 e0 bd ec 43 0f be 0b 8f c5 3e df 30 27 be
       -0.10966157 -0.13990754 0.38585696 -0.16327237
000020 d7 32 db 3e 2a 07 44 3e 19 02 7c bd 4b 7d 24 3e
       0.42812225 0.19143358 -0.061525438 0.1606342
000030 56 74 59 bd dd 6e 6e bd cd fc 6c bd 08 0d 46 3e
       -0.053089462 -0.058211196 -0.057858277 0.19340909
000040 46 ec ae bd 50 77 31 3e be 50 4d 3d 45 08 b9 3c
       -0.08541159 0.1733067 0.05012583 0.022586951
000050 33 81 14 3d 98 f4 0a 3d 27 83 27 be 98 3a cd 3b
       0.036256026 0.03392467 -0.16358624 0.0062630884
000060 93 f3 bc 3c f7 ad eb 3c 9e 27 4b 3d 6d f5 45 3c
       0.023065364 0.028769476 0.04959833 0.01208244
000070 df b5 f2 3b 3a d4 90 bc 4b 80 be bd 97 c3 f0 3d
       0.0074069346 -0.017679323 -0.09301814 0.11756056
000080 57 74 3a 3b 0e ed a4 3c 01 69 2e 3d 9d 9d 46 bc
       0.0028450692 0.020132568 0.04258061 -0.012122539
000090 9d 33 c2 3e 30 6b a0 3e ea d5 e3 be 5e 27 4c 3e
       0.37930003 0.31331778 -0.4449914 0.19936892
0000a0 87 81 2a bd 2c e2 ab 3e 64 2d af be f5 f0 3e 3e
       -0.041627433 0.33570993 -0.34214318 0.18646605
0000b0 93 16 1f 3e e5 b5 d8 bb 24 12 7e 3c bb 66 64 3d
       0.15535955 -0.0066134804 0.015507255 0.055762034
0000c0 bf 44 17 be 76 11 3a bd ae 94 a3 bd 4a 86 8b 3e
       -0.14772318 -0.04542681 -0.07987343 0.27250892
0000d0 9c 57 c9 bd e1 d8 bf 3d e3 6f a6 bd ff 54 85 bd
       -0.09831163 0.09367538 -0.081268094 -0.06510352
0000e0 5d 51 57 3b 75 4e b7 bb 89 a7 e8 bb 21 13 22 bd
       0.0032854893 -0.0055940696 -0.00710005 -0.039569024
0000f0 0d 4c 97 3c 41 cf 43 bc 8c 0d 6e 3c 77 d3 34 3c
       0.018468881 -0.011951269 0.014529597 0.011036745
000100 99 ca 09 be 5a e2 a2 3d 51 74 27 be 7f de 97 3d
       -0.13456191 0.079533294 -0.16352965 0.07415485
000110 64 68 fc bd c6 34 02 3e ac b7 52 bd 9e 96 35 3e
       -0.123245984 0.12715444 -0.051444694 0.17733237
000120 90 93 84 3e 8f 31 58 3e 0d 85 1c bd 3f e7 a6 be
       0.2589383 0.21112655 -0.038212825 -0.32598302
000130 f5 0d 84 bd 8b 87 9d be f0 98 ac 3d cc b4 70 3e
       -0.064479746 -0.30767474 0.08427608 0.23506469
000140 41 56 77 be d7 c6 33 be 1e 56 3c be 9f a7 00 be
       -0.24153997 -0.1755632 -0.18392226 -0.12563942
000150 65 20 b6 3e 0d d2 38 3e aa 09 44 3e a9 8f 01 3e
       0.3557159 0.18048878 0.19144312 0.12652458
000160 fc 29 a4 be eb 81 c5 3d b0 0a a2 3c 4e a5 f7 bc
       -0.32063282 0.096439205 0.019780487 -0.03023019
000170 4f f0 1c 3d a2 16 f3 bc 2e b7 e1 3c 89 a8 6e 3c
       0.038315114 -0.029673878 0.027553167 0.014566549
000180 ea 53 ce bc fd 0b 72 be e2 16 0b 3d 5e 45 1c be
       -0.025186498 -0.23637386 0.03395737 -0.15260836
000190 4a 13 dc 3d 67 d1 60 3d a7 41 41 bb 3b 51 5f 3d
       0.107458666 0.0548872 -0.0029488595 0.054520827
0001a0 fa 3f 43 3d 9b b1 0c 3d 2c 26 12 3e 68 1d 30 be
       0.047668435 0.034349065 0.14272374 -0.17198718
0001b0 19 80 81 3d 7b 34 2d bf be 02 ca 3e bc 9b 2d bd
       0.06323261 -0.67658204 0.39455217 -0.042384848
0001c0 a1 9b db 3e 8d 11 f8 be 32 92 92 3d 15 b3 f8 3c
       0.42892173 -0.4845089 0.07156791 0.03035883
0001d0 be 9e cc 3d fa 07 08 3e 4a f2 5b 3e ab 62 b3 be
       0.09991215 0.13284293 0.21479145 -0.35036215
0001e0 4f 7d 06 3e f6 2f 85 be 34 f3 2f 3e 8d 97 1a be
       0.13133739 -0.26013154 0.17182618 -0.15096875
0001f0 9a df 42 3d 29 e8 20 3e c5 83 83 3a 10 25 b7 3d
       0.047576524 0.15713562 0.0010033777 0.08942616
000200 fa 92 86 bc 97 cc 00 3d fc 7c 3c bd 0c 67 a9 3d
       -0.016427506 0.031445112 -0.046017632 0.08271608
000210 6a 6f b6 bd 82 90 10 3d 75 4e 38 3d 05 e6 92 3d
       -0.08907969 0.035294063 0.044996697 0.07172779
000220 ce 67 72 bd da fe b6 3d 76 b1 0a 3e bd 9f 26 bc
       -0.059181027 0.08935328 0.13544258 -0.0101699205
000230 71 35 cd bd f0 17 d2 bd 2c 27 b4 bd bb 6b 01 3e
       -0.10019959 -0.10258472 -0.08796534 0.12638752
000240 dc c6 71 be d5 2b 20 bd a4 35 8b bd 7e ed a7 3d
       -0.23611015 -0.0391043 -0.067973405 0.08199595
000250 4f fb 7f 3e 4b 50 dc 3d 78 74 c3 bd d2 55 45 bd
       0.2499821 0.10757502 -0.09543699 -0.048177548
000260 fd 15 57 3e db aa e6 bd 0a 7e 8c bc c0 d8 ab bd
       0.21004482 -0.11263057 -0.017149944 -0.08390951
000270 08 74 66 3e 5b 5a 1f bd d4 ca 9e bd b5 0c ae 3d
       0.225052 -0.03890453 -0.0775353 0.084985174
000280 f3 9d 2a bd a3 f6 f8 bd 96 05 0e be 21 e0 f6 bc
       -0.04165454 -0.12156417 -0.13869318 -0.03013617
000290 45 0a 8e 3d 4e 55 fe 3d 9d 8b a3 bd da 52 93 bd
       0.069355525 0.12418614 -0.079856135 -0.07193537
0002a0 17 e9 32 bd 01 c1 66 bd 3d e6 39 be e5 c5 6c 3d
       -0.043679323 -0.056336407 -0.18154235 0.057805914
0002b0 51 13 92 3d 85 a1 de 3d 54 68 fc 3d 43 b5 b0 3d
       0.071325906 0.10870651 0.123245865 0.08628323
0002c0 44 97 c5 3d e1 74 0f 3e 3e 01 12 3e 6a 3a e3 3d
       0.09647992 0.1400943 0.14258286 0.11095126
0002d0 a8 b1 85 3e 15 8f 37 3d 6c ab e5 bd 02 f1 b0 be
       0.26112103 0.044814188 -0.11214337 -0.34558874
0002e0 a2 4f cc 3e 93 b6 68 3e 9b 64 b9 3e ce ed cf 3c
       0.39904505 0.22725897 0.36209568 0.025381949
0002f0 54 72 46 bd ae 0f 03 3e 63 cd a9 bd 2f c6 e1 bd
       -0.048448876 0.1279895 -0.082911275 -0.11024129
000300 ce 4c 04 bf 2b 1f 79 3e f7 40 ea 3d f3 14 b0 3d
       -0.51679695 0.24328296 0.11438172 0.08597746
000310 ff 03 f2 bd b5 06 b0 bd a5 97 98 3d a9 2f aa 3c
       -0.118171684 -0.08595029 0.07450799 0.02077468
000320 5c db c9 3b 76 e9 a4 bd 91 1e b1 3d 0d 64 28 3d
       0.006160183 -0.08052342 0.08648408 0.04111104
000330 b9 19 67 3d 7f a4 3e 3d 71 a1 ea 3b cb d2 17 3d
       0.056421015 0.046543594 0.0071603586 0.037066262
000340 16 46 3c 3d 12 c4 f3 3d f2 8a 25 3e d4 00 ec bd
       0.045965277 0.11902632 0.16166285 -0.115235955
000350 fe 0b 8f bd a2 fe b5 bb a4 46 48 bd b1 fb 31 3e
       -0.06984709 -0.0055540362 -0.048895493 0.17381169
000360 09 99 77 bd dc 89 05 3c e4 56 ac bd 61 9f 31 3d
       -0.06044868 0.008150544 -0.084150106 0.043364886
000370 1c 57 fd 3b 97 5b 09 be e9 b6 5d 3c f5 ff 7d 39
       0.0077313315 -0.13413845 0.013532379 0.00024223312
000380 32 0d 3b 3e c3 0e 00 bd 58 aa 98 3d 37 1b 13 3e
       0.18266752 -0.031264078 0.074543655 0.1436585
000390 0d 18 85 bd 48 cd 0b 3f 1a be fc be 37 75 6a 3d
       -0.06498728 0.5461011 -0.49363786 0.05724069
0003a0 84 02 1d bf 08 e6 c2 3e 02 87 b9 bc 27 0c 0c 3a
       -0.61331964 0.38066125 -0.022647385 0.0005342387
0003b0 15 8c 64 3c b2 2f 75 bc ca ee 85 3d 71 c9 b7 bd
       0.013949414 -0.014964985 0.06539686 -0.08973969
0003c0 80 2e 4a 3d 30 e0 e5 3a a9 d0 d6 3d db 66 11 3c
       0.049360752 0.0017538127 0.104890175 0.00887462
0003d0 51 e8 f5 3d 1b 42 e9 3d 21 e5 e6 38 25 c0 98 bd
       0.120072015 0.11389562 0.00011009933 -0.07458524
0003e0 15 8e 09 bc 3a a8 02 be a6 30 e3 bc 4f a6 52 bd
       -0.008395691 -0.12759486 -0.027733158 -0.051428135
0003f0 13 c6 45 be dd d9 0f 3e d0 f7 77 3e 15 e7 2d be
       -0.1931384 0.14047952 0.24215627 -0.16982682

conv1.bias f4 [32]
000000 ca 10 4f bd a9 8c 04 3e ff 4e 1a 3e 6b fe c4 3c
       -0.05055312 0.12944283 0.15069197 0.024047097
000010 0f f7 06 be c1 3b 4c 3c c1 58 a1 3a 10 94 03 3e
       -0.13180183 0.012465418 0.0012309776 0.1284945
000020 4e 0b 90 3d 3d 03 a8 bd 67 b4 a0 3e 43 b8 1a 3c
       0.07033406 -0.08203743 0.31387636 0.0094433455
000030 67 88 b2 bd e9 92 d7 bc ee b0 6a 3c 06 ea 73 3e
       -0.08717423 -0.02631517 0.01432441 0.23819742
000040 ae 3b 35 bd 20 86 83 3e 3c e9 8d 3b b2 60 1e 3d
       -0.044246368 0.25688267 0.004330782 0.038666435
000050 de ef 8d 3e 6b 40 87 bc 51 87 82 bd 8e ea 32 3d
       0.27722067 -0.016510209 -0.06373466 0.04368072
000060 ff f5 f6 bb 32 ea 47 3e af 2d 88 3e 1b 91 11 bd
       -0.0075366492 0.19522932 0.26597354 -0.035538774
000070 3d d1 3e bd 4d cc bc bd 33 c2 14 3e 0c 88 08 be
       -0.046586264 -0.09218655 0.14527206 -0.13333148

conv2.weight f4 [64, 32, 3, 3]
000000 34 01 f8 3d 5e 6a d9 3d 40 f3 29 3e b3 64 d8 3d
       0.121096045 0.10615991 0.16596699 0.10566082
000010 7f 89 3d bd f8 83 e4 3d c1 91 30 3d 24 b3 4d 3d
       -0.046273705 0.111579835 0.04310775 0.05021967
000020 66 06 b8 3d bd a9 05 3e 4d f0 14 be 9b 52 d6 bc
       0.089855954 0.13053031 -0.14544792 -0.026162436
000030 8f 99 12 bd 64 37 6c 3c ca 3e 2b be b3 ec a7 3c
       -0.035790976 0.014417503 -0.16723171 0.02049861
000040 7b 1c 2b 3d fc f2 1d 3e e5 fb 97 38 28 e8 01 bd
       0.041775208 0.15424722 7.24716e-05 -0.031715542
000050 ea 25 c6 3d c5 c5 c0 bd 99 f6 23 3d 3c 3a bc bc
       0.096752 -0.094127215 0.040030096 -0.022976987
000060 3a 4f b5 bc a3 f2 a8 bd a1 27 2a bd 22 50 16 3d
       -0.022132505 -0.08249404 -0.0415417 0.036697514
000070 80 82 82 3d 4d be 6d 3c 32 1a 90 3c cc 92 0a be
       0.06372547 0.014510703 0.017590616 -0.13532561
000080 5e 15 01 3e ec 2e 4d be b6 a0 14 3e 80 b1 e5 bd
       0.12605807 -0.2003743 0.14514431 -0.11215496
000090 bf e6 fd 3c c5 e6 8e 3c bb cd c8 3c ca e0 b5 3c
       0.030993817 0.017444024 0.024512162 0.022201914
0000a0 3e 41 9e 3a b4 4d f9 3c 4e 65 3a bd 11 8c 5d 3c
       0.0012073887 0.03043256 -0.045506768 0.013522164
0000b0 f0 1c 06 3d d5 5b 85 bd 9b 7d 09 bd 2c 0c 67 3c
       0.03274244 -0.06511656 -0.033567052 0.014102023
0000c0 b9 31 65 3c 68 b8 c2 3d 99 61 cb bd c1 99 43 bd
       0.013988906 0.09507829 -0.09930725 -0.047754053
0000d0 a2 a6 5a bc bd 52 04 be 28 89 cf 3d 0f 2b 15 bd
       -0.013345392 -0.12922187 0.10133582 -0.036418017
0000e0 b0 16 bb bb 6b 62 e0 bd 8e 01 11 3e 6d 49 3c 3d
       -0.0057094917 -0.10956272 0.1416075 0.04596846
0000f0 82 42 a2 3d a4 2d fc 3d 4b d6 3a 3d b4 85 0e bd
       0.079228416 0.12313393 0.045614522 -0.034795478
000100 49 d5 23 be 11 a0 b1 3d 00 b8 98 3d 53 e3 e4 3d
       -0.1599933 0.08673108 0.0745697 0.11176171
000110 77 b8 20 be 3f ca 77 3e 0e c5 35 3d bc 02 c3 bd
       -0.15695368 0.24198245 0.04437738 -0.09522006
000120 5b 74 63 bd ef 97 9e 3d 61 3d 8a bd 5d 25 b5 3d
       -0.055530887 0.07743823 -0.06749988 0.08845017
000130 a2 0e a9 3d 8c c6 32 bd 98 f9 9f bd fe 71 15 3e
       0.08254744 -0.04364638 -0.07811278 0.14594266
000140 6d 84 ec 3d 9a ac 02 bd d7 24 fa 3d 79 20 1c bd
       0.11548696 -0.031902887 0.12214058 -0.038116906
000150 fc 9b 60 bc 52 87 70 bd be 31 a9 3d 47 dc 49 bd
       -0.013709065 -0.0587228 0.08261441 -0.04928234
000160 1a b4 0a 3e 89 26 a5 3d fd 53 10 3c 4b 5c c2 bd
       0.13545266 0.080639906 0.008809087 -0.0949026
000170 34 5f df 3c a4 e9 c9 3d 37 ad 60 bd 0d d9 07 bd
       0.027267076 0.098590165 -0.05485269 -0.03316598
000180 4e e8 50 3d 17 27 9d 3d 59 4e da 3d 76 55 73 bc
       0.051002793 0.076734714 0.10659475 -0.014851918
000190 0d 6a d7 bd 95 2e e2 3c a5 0d 37 3c ac 87 0c 3d
       -0.105182745 0.027610103 0.011172687 0.034309074
0001a0 88 ce bf 3d 6b cf 6b bd 7e 07 b8 bc cf c4 c2 3c
       0.093655646 -0.057570856 -0.02246451 0.023775486
0001b0 7f 65 a0 bb 19 08 39 3c 33 d0 d2 bb d3 15 9d 3d
       -0.004894912 0.011293435 -0.0064335107 0.07670178
0001c0 a7 3d e4 bd 89 91 90 3d e8 09 d5 bd 18 25 21 3d
       -0.11144572 0.07059009 -0.1040228 0.039342016
0001d0 09 1f 1d 3c f8 72 83 bd c0 15 95 bb a5 c9 e2 3c
       0.009589919 -0.06418413 -0.004549712 0.027684042
0001e0 e3 47 2b 3e 7b f5 ea bc 15 3e 14 bd 8b a8 31 3e
       0.16726641 -0.028681507 -0.03619202 0.1734945
0001f0 90 1e 90 bd d5 20 13 3e 6e 5b 32 bd 3a c3 58 3e
       -0.07037079 0.14367993 -0.043544225 0.21168223
000200 3c 7e 0d 3e be 9e fe bc c5 5f 81 3d 06 34 ca 3d
       0.13817686 -0.031081554 0.06317095 0.09873204
000210 ec 65 e4 bc 8f 10 35 be 9c 05 d5 bd c9 f1 ab bc
       -0.027880631 -0.17682098 -0.104014605 -0.020989316
000220 f5 06 85 3d 9f b8 12 bd 8c c1 a2 3c f1 95 3c bd
       0.064954676 -0.0358206 0.019867681 -0.046041433
000230 12 28 98 3d 09 ed ff bd d2 36 99 3d a0 55 b6 3d
       0.07429518 -0.12496383 0.07481159 0.089030504
000240 08 91 c2 bd dc f4 47 bd b3 ae f7 bd 9a 78 8d bb
       -0.09500319 -0.0488175 -0.12093868 -0.0043173553
000250 25 e5 8c 3d 68 a3 99 3b 8b 58 22 3d 60 2b 4d 3e
       0.06879643 0.004688669 0.039635222 0.20036077
000260 c9 0f 0d 3e ff 3c 79 3d a7 a3 55 3d 10 33 b4 bd
       0.13775553 0.060849186 0.052158024 -0.08798802
000270 98 25 d3 3c 0c bf 78 3b 16 2c 7e bd 17 24 de 3c
       0.025774762 0.003795567 -0.062053762 0.027116818
000280 48 f2 e7 39 fc df 77 3d 05 19 10 bd 81 09 ee 3c
       0.00044240267 0.060516343 -0.03518011 0.029057266
000290 64 b7 ed bc 57 59 25 3e 24 f8 33 3e c4 09 b3 bc
       -0.029018112 0.16147362 0.17575127 -0.021855243
0002a0 92 b1 8c bd 87 38 c1 bb 19 f2 23 be ee 30 e5 bd
       -0.06869806 -0.005896631 -0.16010322 -0.11190973
0002b0 b4 be 41 3d 2e a9 62 3c cf e4 84 3d 8e 0d 31 bd
       0.04730101 0.013834281 0.06488954 -0.043225817
0002c0 4f f0 b5 bb 6f c7 55 3d 5f 67 dc 3c 06 a6 4e be
       -0.0055523287 0.052192148 0.02690476 -0.2018052
0002d0 00 b6 af bd 8c d4 34 bd 3f bb 27 bc 03 3b bc 3d
       -0.085796356 -0.044148013 -0.010237514 0.09190943
0002e0 42 40 d7 bd 01 45 c9 bd e9 a6 64 3d 1a 18 44 bd
       -0.10510303 -0.098276146 0.05582324 -0.047874548
0002f0 d7 9e 37 3d e7 72 4a 3e 1c b7 13 3e 98 64 09 3e
       0.044829216 0.19770394 0.1442532 0.1341728
000300 de d4 03 bd 9f 06 8d 3c 52 94 a2 bd 56 16 3a be
       -0.032185428 0.017215071 -0.07938446 -0.18172583
000310 bc f6 bb be 70 7b cb 3d 24 72 e3 3d 9d 0b fb bc
       -0.3671168 0.09935653 0.11105755 -0.030645186
000320 9a ac 8b ba 1a 7b 94 3c 74 c2 97 bc bb 95 2f 3c
       -0.0010656298 0.018125106 -0.01852534 0.010716851
000330 57 5a fa bd 79 9a b4 bd 28 dc 93 3d 8e c9 0e bd
       -0.12224262 -0.08818526 0.07219726 -0.034860186
000340 17 13 ca 3d 64 3a a0 bd 64 19 26 bd 9b 01 43 3d
       0.09866922 -0.07823637 -0.040551558 0.047608953
000350 36 7b 41 3d b4 d3 a5 bd 38 ba 81 3d 9a 99 3b be
       0.047236644 -0.0809702 0.063343465 -0.18320313
000360 2e d3 f2 3c 0c 0e 4f 3e 3d d3 91 bc 05 43 0a 3e
       0.029641714 0.20220202 -0.017800922 0.13502128
000370 12 22 39 3d c3 34 6a bd 9e c1 52 3d 70 e1 8a bd
       0.045198508 -0.057179224 0.05145418 -0.0678128
000380 12 ac 05 bd cf 60 59 bd 63 5e c0 3c b1 4f 10 bd
       -0.032634802 -0.05307084 0.023482507 -0.03523225
000390 cf 00 00 be 64 8c d2 bb b4 f3 0b 3e 71 cf 4a be
       -0.12500308 -0.0064254273 0.13667184 -0.19805695
0003a0 c4 be 57 3d 36 a7 6e 3e d0 1b 9f bd 41 14 54 3d
       0.052672163 0.23305973 -0.07768977 0.051777128
0003b0 ba 8c 6f bc 43 38 45 3d 87 63 06 bc 07 ba 3c 3b
       -0.014620954 0.04814936 -0.00820244 0.0028797404
0003c0 32 fa 9d bd 4e 1a 72 be 5e ee b6 3d dd 42 5d b8
       -0.077137366 -0.23642847 0.08932184 -5.2752777e-05
0003d0 77 90 4f bd 8c 21 13 bd 60 b4 92 3d 87 53 d6 bc
       -0.05067488 -0.035920665 0.0716331 -0.026162876
0003e0 54 0d 57 3c c5 d2 92 3d 89 18 11 3c 0f 6d 8f 3d
       0.013125736 0.07169107 0.008855947 0.07003223
0003f0 0e d6 28 3c b7 77 07 3d a8 39 cb bc 60 7e 75 bd
       0.010304941 0.033073153 -0.024807766 -0.059934974

conv2.bias f4 [64]
000000 94 bd 42 bd 97 da 8b 3d d7 f2 29 bd 71 c0 31 bd
       -0.047544077 0.06828802 -0.041491356 -0.043396417
000010 b5 ce ee 3d 0f 4d 45 bd 5c d6 d0 3c 66 22 2b bc
       0.1166052 -0.048169192 0.02549284 -0.010445213
000020 9b 06 41 ba 5b f0 b9 bb 34 85 01 3d d6 3a b5 bc
       -0.000736335 -0.0056744046 0.031621173 -0.022122782
000030 59 f0 58 3d 84 dd 16 3d 32 25 4b bd d6 6a 0a 3d
       0.05296359 0.036832348 -0.04959602 0.033793293
000040 82 ae 03 3d 6d dd 3c bd c7 2d 4f 3c f2 5b c8 3d
       0.032148845 -0.046109606 0.0126451915 0.09783162
000050 a5 5b 2e 3c c2 c0 7a 3d a4 45 17 3d 4a 83 8e bd
       0.010641967 0.061218984 0.03693165 -0.06958635
000060 18 80 08 3d 86 da 19 3d 7e 99 39 3d c9 c6 a9 3d
       0.033325285 0.037561916 0.045312397 0.082898684
000070 61 ed d9 3c 84 4e 92 3d f4 2b 4f 3d 1e f8 05 3d
       0.026602449 0.07143882 0.050579026 0.032707326
000080 2d 7b d1 3c 97 c7 cd bb 16 75 40 3c 5a 23 30 bd
       0.02557143 -0.0062798965 0.011746665 -0.043002464
000090 75 8e ca 3c b8 f8 4d 3b 91 bf 8b 3d 3e 51 d9 3d
       0.024726132 0.0031428766 0.06823648 0.10611199
0000a0 ea 85 b0 3d cb 5d 36 bc b9 66 a0 bd aa 92 9e bd
       0.08619292 -0.01113076 -0.07832093 -0.07742818
0000b0 44 2c 43 3d 95 03 40 bd a1 6e 97 3c df ac 63 bb
       0.047649637 -0.046878416 0.01848537 -0.003474049
0000c0 75 10 54 3d 18 28 4a bc b6 b6 3b 3c 8b 7b f7 3a
       0.051773507 -0.012338661 0.011457136 0.0018881423
0000d0 b4 65 7e 3d a0 09 b0 3d 9c 38 1d bb 93 5d 1a 3d
       0.06210871 0.08595586 -0.002399004 0.037686896
0000e0 d1 7e 17 3b 49 1d 9b bc c0 73 9e 3c ca 90 dc bc
       0.002311636 -0.018934863 0.019342303 -0.02692451
0000f0 95 91 f6 3c 5a a1 52 bd a8 da 5b bd 48 cb 18 3c
       0.030098716 -0.051423408 -0.053675324 0.00932581

conv3.weight f4 [128, 64, 3, 3]
000000 6a 92 52 bc b1 39 48 3c 44 83 91 3b bb 4f 64 bb
       -0.012852291 0.012220786 0.004440697 -0.0034837562
000010 81 bc 61 bd 34 f2 34 3d 7f f6 05 3d 46 1a 49 bc
       -0.055111412 0.044176295 0.03270578 -0.0122743305
000020 48 2f 60 3d d5 e3 c7 3c 0e 0b 55 bd 22 00 d0 bc
       0.05473259 0.024400631 -0.052012496 -0.025390688
000030 ca 21 2b bd 6c 88 82 ba cc 77 61 bc 73 6f a7 bc
       -0.04178027 -0.000995887 -0.013761472 -0.020438885
000040 2e f8 fe bc e2 bb 93 bc 27 98 2f bd b8 4c 98 bd
       -0.0311242 -0.018033925 -0.042869713 -0.07436508
000050 b5 fa f8 bd 9b e2 bd bc 39 49 b5 3d b6 b7 83 bc
       -0.121571936 -0.023179343 0.08851857 -0.016078811
000060 a0 43 bb bc 1c 8c 72 bc 4f 72 31 bd 21 36 58 3b
       -0.022859395 -0.0148039125 -0.043321904 0.0032991248
000070 9d 1c 81 bc 82 f8 58 3d 96 f5 94 bb b5 23 bb bc
       -0.015760714 0.05297137 -0.0045458777 -0.022844175
000080 b1 80 91 3d be cf 12 bd 3d 5d 15 3d d8 68 f7 3b
       0.07104624 -0.03584265 0.036465872 0.00755034
000090 6e 96 bf bc 11 9b 58 3c 1a 5e 19 bb 97 d8 96 bd
       -0.02338716 0.013220564 -0.0023402036 -0.0736553
0000a0 1a 61 37 bd f3 d1 c6 3c 38 8f 3f bd 9b 7c bf 3c
       -0.044770338 0.024270033 -0.046767443 0.023374846
0000b0 9b a3 ec 3c 89 6b 2d 3d 2e 65 9a 3d 42 06 6f 3c
       0.028886607 0.04233888 0.0753883 0.014588894
0000c0 8b ca 3c 3d 73 df 6b 3d c1 22 0d 3d 03 06 74 3d
       0.046091598 0.057586145 0.034456972 0.059576046
0000d0 99 23 5f 3d 29 04 79 3d e8 83 77 bc 1d d4 a0 3c
       0.054477308 0.060794983 -0.0151071325 0.019632393
0000e0 04 6a 56 3b ac 71 7d 3b 75 f6 85 3d 22 af a1 bc
       0.0032716999 0.003867249 0.065411486 -0.01973683
0000f0 14 83 b0 3d 22 03 33 3d 77 9d 79 3d bd 07 13 3c
       0.08618751 0.04370416 0.060941186 0.008974013
000100 87 36 f5 bb ed c9 86 bc db a1 01 3d 46 0b 89 bc
       -0.007483307 -0.016453708 0.031648498 -0.016729008
000110 66 2d f7 bb 6b 06 89 bc 39 58 e7 ba f1 77 8c 39
       -0.0075432537 -0.016726693 -0.0017650194 0.00026792244
000120 a9 a6 20 3d 0f bf 62 bb 87 49 07 bd 96 08 52 bb
       0.03922144 -0.0034598743 -0.033029106 -0.0032048575
000130 49 62 3e bc b3 58 65 bd 2d 02 5c 3d 73 83 ea 3c
       -0.011620113 -0.055992793 0.053713012 0.028627133
000140 6f 3f 04 bc 65 d7 98 3d e0 8b 41 3d dd 23 4a 3d
       -0.008071764 0.07462958 0.047252536 0.04935061
000150 4a 50 84 3c 84 77 1e 3d a6 18 42 bc 79 50 a6 3d
       0.016151566 0.038688198 -0.011846697 0.08120818
000160 33 8d 17 ba cd 7a c8 3c 31 c5 2c 3d eb ec 14 bd
       -0.0005781233 0.024472618 0.042180244 -0.036358755
000170 03 9e ec 3a fd 6a 0d bd e4 38 b6 bd f9 75 f9 3c
       0.0018052462 -0.03452586 -0.0889757 0.030451762
000180 f8 59 08 3d d1 09 1a 3d 97 5a 25 3d 7d 84 3b 3d
       0.033288926 0.037607018 0.040369596 0.045780648
000190 ff d8 ff 3c 6b e6 f1 3d 85 16 b2 3c e1 a3 a0 3d
       0.031231401 0.11811527 0.021739254 0.078437574
0001a0 8b a7 d2 bb b4 e8 17 3d 34 b8 aa 3d 04 07 2b 3d
       -0.006428664 0.037087157 0.08335915 0.041754737
0001b0 10 2e f8 3b d3 8d d8 3c 2b f0 08 3b a0 f7 77 3d
       0.0075738505 0.026434815 0.0020895104 0.060538888
0001c0 2c b1 04 3c 02 9c 3e 3d 95 95 dc 3c de 1e a7 3c
       0.008098882 0.0465355 0.026926795 0.02040046
0001d0 85 ff 3a 3d 0c 5a 88 bc aa 8a 66 bc d8 f1 f2 bc
       0.04565384 -0.0166445 -0.014071146 -0.029656336
0001e0 3a 6a 31 bd 6f 75 49 3c 6c a1 0f bd 05 8f 1f 3d
       -0.043314196 0.012296065 -0.035066053 0.038954753
0001f0 b4 80 8e ba ab 2b 0b 3d da 12 a8 3d 36 9c ee 3c
       -0.0010872097 0.033977192 0.08206721 0.029127222
000200 c3 d3 24 3d b5 61 9a 3d 68 e1 c3 3d 90 ec 32 3d
       0.040241014 0.075381674 0.09564477 0.043682635
000210 f9 0e 67 3d 6b 13 f3 3c df 56 22 3d 62 a2 08 3d
       0.056410763 0.029672345 0.039633628 0.033357985
000220 d9 6e 30 bd fa d2 15 3d 60 3b 67 3c 21 7a f0 bb
       -0.043074463 0.036578156 0.014113277 -0.0073387777
000230 16 69 9b bd 78 d8 a0 bb a3 db d3 3c d9 70 c4 3b
       -0.07588403 -0.0049086176 0.025861567 0.005994898
000240 29 e9 f8 3a c9 3e 63 bd cc 8f 7e 3d aa cd 0e 3d
       0.0018990386 -0.0554798 0.062148854 0.034864105
000250 69 4e d9 3c 70 0d 41 3d 58 4a b5 bc 94 d7 d4 3d
       0.026526647 0.047131956 -0.022130176 0.10392681
000260 c3 53 75 bd 95 b7 ad 3d ac 08 b7 bd f0 93 2b 3d
       -0.059894335 0.08482281 -0.08937201 0.04188913
000270 29 6c 47 bc d3 82 99 bc ea 47 3b 3c 77 7b e9 3d
       -0.0121717835 -0.01873914 0.01143072 0.11400502
000280 77 07 ad bd 6f 60 a4 3d b0 81 70 bd aa 0d 8a 3c
       -0.084486894 0.08026206 -0.05871743 0.016852219
000290 9f 3e 57 3d d2 de 82 bc 78 38 dc bd e7 c5 a1 3d
       0.052549955 -0.01597539 -0.10752958 0.07899075
0002a0 e9 be 78 3c 4a b3 94 3d 00 5f 99 3c 71 9a 16 bc
       0.015182235 0.07260759 0.018722057 -0.009192095
0002b0 8d ea 92 3d 5e 4d 67 bc d5 60 63 3d 9c 58 57 3d
       0.07173643 -0.014117567 0.055512268 0.05257474
0002c0 6a b6 1f 3d 7d 8e 1e 3d 97 90 61 3d 03 27 03 3c
       0.038992323 0.038710106 0.055069532 0.008004907
0002d0 f4 fb 61 bc 35 10 29 bd 1f 54 05 3d 3d 6c 25 bc
       -0.01379298 -0.04127522 0.032550927 -0.010096607
0002e0 3b b6 6d bd d9 48 21 3d 3a 7a 97 39 37 6b e5 bb
       -0.058035117 0.039376114 0.0002889203 -0.0070013064
0002f0 b3 95 b7 ba a6 a4 4f 3d 84 1a 7f 3d 1c 3c 1c bd
       -0.0014006406 0.05069413 0.062281147 -0.038143262
000300 4c 32 b5 bc 82 18 db bb 93 12 98 3d 28 17 6e bd
       -0.02211871 -0.006686271 0.07425418 -0.058127552
000310 c1 3d 95 3c 25 54 64 3d 11 30 f1 3a f4 0a 85 3d
       0.018217923 0.05574431 0.0018401166 0.0649623
000320 22 e3 9e bd af 62 ea bb 0f 75 1c 3d 05 41 6a bd
       -0.07758166 -0.0071528773 0.038197573 -0.057190914
000330 d1 3d 00 bd d3 92 c8 3d f4 eb 90 bd 3c e1 00 bd
       -0.031308953 0.097936295 -0.070762545 -0.0314648
000340 41 ac 96 bc 7a 99 5f 3c 50 0a 90 3d b1 1c 57 3d
       -0.018392684 0.0136474315 0.07033217 0.052517597
000350 39 56 22 bc 15 7a 29 bc 72 73 99 3c 7c a0 9c bd
       -0.009908252 -0.010344048 0.018731806 -0.076477975
000360 e8 1e 4a bc c3 32 cc 3c 03 5f 02 3a 3d 1c c3 3c
       -0.01233647 0.024926549 0.00049732643 0.023817176
000370 44 cc b3 bb cc cc 6a 3c 91 81 60 3c 1a fd 4c bb
       -0.005486997 0.014331054 0.013702766 -0.003127879
000380 58 9a 39 3d b3 ad 1a bc 95 e1 b6 3b 00 78 1a 3b
       0.04531321 -0.009440827 0.0055810907 0.002357006
000390 2e 8c 47 3d ea 13 e6 3c ba eb 94 3c 39 f8 4d bb
       0.04871767 0.028085668 0.01817881 -0.003142847
0003a0 da 65 15 3d 30 27 29 3d c3 c1 8a 3c 23 95 d7 3d
       0.036474086 0.041297138 0.016938096 0.105264924
0003b0 88 88 2d 3d 90 f2 db 3c 67 eb d3 bc 72 13 8e 3d
       0.042366534 0.026849061 -0.025869085 0.06937303
0003c0 fa 81 8c 3b 73 72 dd 3b 73 b4 08 bc 32 ac 2e 3d
       0.0042879554 0.006758028 -0.008343804 0.042644687
0003d0 7d 34 b4 bc 8c fd 22 3d 27 19 62 3d 7d 94 6b bc
       -0.021997685 0.039792582 0.05519977 -0.014378664
0003e0 cb c7 83 bc d6 b0 f4 3c 6f 49 5e 3d b7 80 3b 3d
       -0.01608648 0.029869478 0.05426925 0.04577705
0003f0 53 e8 e1 3b 7e f4 df bd c8 23 92 bc f7 28 a6 bc
       0.0068941503 -0.10935305 -0.017839327 -0.020283205

conv3.bias f4 [128]
000000 e1 43 20 3c 7c ac ce 3c 02 f0 ca bc 40 19 93 bc
       0.009781809 0.025228731 -0.024772648 -0.017956376
000010 ae 62 d4 3b ea 48 4f 3d e0 c8 09 36 33 21 d2 af
       0.00648149 0.050606646 2.0531515e-06 -3.8222367e-10
000020 ff ad 05 bd 3c 42 02 3c 4b 3a 53 3d c5 49 b3 3b
       -0.03263664 0.007950362 0.051569264 0.0054714405
000030 61 c8 de 3c cb cd 06 3c 0a 25 43 bc ae e9 4b 3c
       0.027195157 0.008227776 -0.011910686 0.01244585
000040 49 3e 2a bd bf 17 b4 ba 83 c6 d3 bb b1 23 22 3c
       -0.041563306 -0.0013739987 -0.0064628734 0.009896205
000050 50 c9 d9 3c 6d da 69 3b a1 f8 be bb f8 66 27 bd
       0.026585251 0.003568317 -0.0058279787 -0.040869683
000060 e4 e2 5d af c2 b9 6d bd 13 89 00 80 bf 71 95 9b
       -2.018044e-10 -0.05803848 -4.9173e-41 -2.472349e-22
000070 24 8f e9 3b 0c ba 22 bb 69 9a a9 a8 ae 88 d3 3c
       0.0071276594 -0.002483013 -1.8829734e-14 0.02582201
000080 f4 62 6d 3c 95 b2 0f bd 9e 2d da 3c 6a eb 98 3c
       0.014488924 -0.03508242 0.02663308 0.018666942
000090 8a 6e 38 bd 9e ba 0a bd 8d d4 07 b2 82 d6 f4 a6
       -0.045027293 -0.03386938 -7.906363e-09 -1.6989044e-15
0000a0 1b 93 7b bd 5c 84 60 bc ea 52 66 3d de c4 f3 3b
       -0.061419588 -0.013703432 0.056231417 0.00743924
0000b0 c6 15 a6 39 a3 7a cc 3b 31 fa ab 3c f1 eb c4 ba
       0.0003167821 0.0062402054 0.020993324 -0.0015023929
0000c0 2f f0 ae bc 83 6e 19 3d 32 29 af bb 1b cc 9c 3c
       -0.021354763 0.037458908 -0.005345487 0.019140294
0000d0 aa 4e 6c bc a4 f8 a9 ba ba 51 03 9d ec ac 85 bb
       -0.014423052 -0.0012967777 -1.7379957e-21 -0.004079452
0000e0 cd 5a 9a ba 0d b7 e1 bc 4a 79 71 3c 1c 71 a0 3c
       -0.0011776328 -0.027553106 0.01473839 0.019585185
0000f0 48 17 2c 3d 6d b4 42 bd a7 fd f7 3c 3a ef 84 37
       0.04201439 -0.04753535 0.030272318 1.5847025e-05
000100 3e 15 9c 3c ba 3f a3 3d 62 20 a3 3b 02 22 27 3c
       0.019053098 0.07971139 0.0049782256 0.010200979
000110 cd d6 6b bc 59 a8 d3 3b 72 21 ee 3c 72 7c 06 bd
       -0.014394474 0.0064592776 0.029068682 -0.032833524
000120 1d 12 0e ba 5a 53 43 3d 34 fd 72 bd bb 05 be bc
       -0.0005419569 0.047686912 -0.059323505 -0.023196092
000130 d8 ed cc ba 6f 6b 5f a0 21 ca 68 3c f4 fa 19 bc
       -0.0015634848 -1.8924382e-19 0.014208348 -0.009398211
000140 f4 5d 8a 3d 49 cc 2f 3d 37 e7 f2 b8 b0 60 6c 3c
       0.067562014 0.04291943 -0.00011582526 0.014427349
000150 49 27 9b 3d 57 97 01 3d be dd 09 bd a9 2e a1 bc
       0.075758524 0.03163847 -0.033658735 -0.01967557
000160 6b 6c 39 bd 80 22 20 bc 71 12 6e 3c e0 ae ae bd
       -0.04526941 -0.00977385 0.014530764 -0.085294485
000170 52 ee cc bb 1e 0a 89 3d d4 12 b9 3c 44 4a 0b 3c
       -0.006253996 0.06691383 0.022591986 0.008501593
000180 38 90 48 3b 6e e7 2c 3c 41 9b 0c ba b1 af 2b bd
       0.003060354 0.010553224 -0.0005363711 -0.0419156
000190 f5 b5 7c bd 90 c1 f5 bb 6f 71 f2 96 d8 25 87 3d
       -0.061696965 -0.007499881 -3.9168795e-25 0.06599015
0001a0 e7 b6 7f 3d 93 32 42 3c d7 c5 61 3d af fa 0b a7
       0.06243029 0.011852878 0.055120315 -1.942602e-15
0001b0 7a 3b c8 b3 87 2b 2e b9 7d 22 10 3d a9 90 41 bc
       -9.3240445e-08 -0.00016610148 0.03518914 -0.011814275
0001c0 2c a7 09 3d d0 39 88 3c 16 82 0e 3d 12 ea 6f ba
       0.033606693 0.01662913 0.03479203 -0.00091520057
0001d0 ac f0 c0 3c 88 5e 34 bc 4f 13 03 b0 97 09 3d bc
       0.023552261 -0.011008866 -4.768496e-10 -0.011537931
0001e0 70 97 8b 3c 30 26 07 bc e4 12 b1 bd 99 ef 70 bb
       0.017039984 -0.008248851 -0.08646181 -0.0036763905
0001f0 29 70 9f 3d 43 fc 3f 3c 72 ee 31 bd e6 1d 3c 3b
       0.07785065 0.011717859 -0.04344029 0.0028704344

act_conv1.weight f4 [4, 128, 1, 1]
000000 27 09 8f 3c c8 e1 00 3e b6 01 00 be e0 82 50 3d
       0.017460419 0.12586129 -0.12500653 0.050906062
000010 4d 8a 08 3e 70 6d d7 bd 36 f1 16 3b 76 03 32 3a
       0.13334008 -0.105189204 0.0023031957 0.0006790677
000020 52 79 cf bd e4 0b 00 3e 4b 22 47 bd be 45 9b 3d
       -0.10130562 0.12504536 -0.04861669 0.07581662
000030 88 64 86 3d c0 84 d1 bc 2e 52 44 bd 50 f9 9a 3c
       0.065621436 -0.025575995 -0.047929935 0.01891771
000040 4d dd a0 3d d6 75 0b 3e a4 83 9f 3b d3 db 82 bb
       0.0785471 0.1361917 0.0048679877 -0.0039934902
000050 73 d3 b0 3d 39 be 9c 3d 42 1a e6 3d 6c 45 7c 3e
       0.08634081 0.076534696 0.11235477 0.24635857
000060 c2 8a 00 80 65 36 88 bd e0 a1 14 b9 7a 89 00 00
       -4.9777e-41 -0.06651 -0.00014174683 4.9317e-41
000070 5c e8 d4 3c 61 36 86 3d 3f ec 5d b4 40 91 69 3c
       0.025989704 0.06553341 -2.0668175e-07 0.014255822
000080 c1 1a 85 bd de 4d d3 3b 79 56 90 3e fe 36 3f 3d
       -0.064992435 0.0064484915 0.28190973 0.046683304
000090 d0 b1 01 3e e9 d1 96 bd 44 2a b8 38 c1 88 00 00
       0.12665486 -0.07364256 8.781676e-05 4.9058e-41
0000a0 fe f4 de 3d a6 b4 88 3d 02 8a e1 3d a7 49 3d be
       0.10886572 0.06675081 0.11012651 -0.18485127
0000b0 d6 e9 1a be 78 22 02 3d df d2 99 3d 7b e7 ab 3b
       -0.15128264 0.031771153 0.075109236 0.0052461005
0000c0 68 c4 1b 3e 2f 05 bd bd be 47 86 3e 7b ae a6 3e
       0.15211642 -0.09229504 0.2622661 0.32554993
0000d0 cb 2f 9d 3d c4 10 f1 bc f0 88 00 00 42 33 e7 bc
       0.076751314 -0.02942694 4.9124e-41 -0.028222684
0000e0 94 38 58 bd 24 c1 82 bd 73 f0 69 bd f0 5a fa bc
       -0.052788332 -0.06384495 -0.057114076 -0.03056094
0000f0 a4 26 a6 bd 66 25 1d bd 11 29 28 be ea 38 b2 3b
       -0.08112839 -0.038365744 -0.16421916 0.0054389136
000100 ba 68 13 3e 46 7e 92 3e 04 52 21 3b a4 45 12 3e
       0.14395419 0.28611964 0.0024615536 0.14284378
000110 45 8a fd 3d dd c9 e9 bd d5 8d 07 3e e7 ca 37 3e
       0.123798884 -0.114154555 0.13237698 0.17948495
000120 a8 5c ed bc d1 56 e7 bc ec d5 79 3c 9d 26 06 3e
       -0.028974846 -0.02823964 0.015248757 0.13100667
000130 ff b7 83 3d 38 e0 00 00 62 46 fb 3c 5a 29 a8 3e
       0.06431579 8.0435e-41 0.03067321 0.3284405
000140 48 ea 1f 3c 2f ff 91 3d bb a4 ee 1c 3a 2a 1c bd
       0.009760447 0.071287505 1.5792101e-21 -0.038126208
000150 bb 7c fe bd 45 c3 e9 3d a1 2b 6d 3d 25 32 72 bd
       -0.12426134 0.11414198 0.057902936 -0.059129853
000160 4f a7 86 3d 42 bf cb 3d e9 94 bb 3d 92 e3 b4 bd
       0.0657488 0.09948589 0.09159262 -0.08832468
000170 29 3a a0 3b 50 e6 83 ba 88 9e 1e bd 57 99 99 3d
       0.0048897457 -0.0010063145 -0.038725406 0.074999504
000180 95 af 1c bc 42 2a 16 3e ce 61 94 3c 2b bd 41 be
       -0.009563346 0.14664558 0.018113043 -0.18919818
000190 4f c2 de bc 28 e7 e6 3d 32 8e fd b4 ff 7b da 3b
       -0.027192263 0.11274558 -4.7228383e-07 0.0066676135
0001a0 ca f1 00 be 71 0b e2 bc 74 18 f2 3d 20 8a 00 80
       -0.12592235 -0.027593346 0.1182107 -4.955e-41
0001b0 74 34 81 38 f6 89 00 80 00 8f cd 3d 1c 8b 34 be
       6.1609695e-05 -4.9491e-41 0.10037041 -0.17631191
0001c0 54 ec 2f 3d 6a d9 f7 3d d1 bd 2b 3e 93 f7 b6 bb
       0.04294999 0.12102015 0.16771628 -0.0055837124
0001d0 b1 d0 ba 3d 73 ad c0 bc d1 88 00 80 e0 b9 9a bd
       0.09121836 -0.023520207 -4.908e-41 -0.07554984
0001e0 07 cc ac bd 8a 00 88 3e 8c 7c 0b bd 27 fe 07 bc
       -0.08437353 0.2656291 -0.034054324 -0.008300341
0001f0 bb 2a 65 bd f2 9a c4 bd c3 6c 18 3e f6 a7 26 bd
       -0.055948954 -0.09599866 0.1488524 -0.040687524
000200 a7 fb 01 3d 0d a7 21 bd 3d 8b c9 3d ef 03 1b bc
       0.031734135 -0.039465953 0.09841011 -0.009461387
000210 2d 75 d2 3d 70 40 3e bc c1 5c 3e ba 2f a7 c4 a9
       0.10276256 -0.011612043 -0.0007261746 -8.73315e-14
000220 a9 5d 89 be 1a b8 bc 3c 47 cf 4a 3c 50 21 18 bd
       -0.2682927 0.023037005 0.01237852 -0.037141144
000230 e1 f8 b3 bc 79 4b 56 bc 3b 08 8e 3d 48 b9 3d be
       -0.02196926 -0.0130795175 0.069351636 -0.1852771
000240 5a bc 44 be 6e e3 d5 bd 04 1b 61 bc fb 8f aa 3b
       -0.19212475 -0.104437694 -0.013739351 0.005205152
000250 fe 0a 13 3c 3e c0 f4 bc 33 e6 5d ba 99 fc 54 3e
       0.008974789 -0.029876824 -0.00084647833 0.20799483
000260 f2 89 00 80 de ca 1f bc 58 2f 62 ad b9 88 00 80
       -4.9485e-41 -0.009752957 -1.2857125e-11 -4.9047e-41
000270 d5 84 96 3e 52 5d a1 bd 31 85 02 2d a6 39 16 3d
       0.29398218 -0.078791276 7.419219e-12 0.03667607
000280 03 c3 52 3d 44 7a 26 3d 94 60 b2 3d a9 1b c0 bc
       0.05145551 0.040643945 0.08709827 -0.02345069
000290 73 93 2e be c1 ef d1 3d 86 53 14 b1 d3 89 00 80
       -0.17048435 0.102508076 -2.1584312e-09 -4.9442e-41
0002a0 7c 59 84 3c 29 da 62 be ee f8 83 3d fb 93 b0 3d
       0.01615595 -0.22153534 0.06443964 0.08621975
0002b0 38 6c a3 3e e9 21 e1 3c ee e4 fb bc 15 7d 34 bb
       0.31918502 0.02748199 -0.03074881 -0.0027540375
0002c0 c2 a9 e1 3d 09 20 a6 3d 4e b2 79 bb dc e5 17 3d
       0.11018707 0.08111579 -0.0038100663 0.037084445
0002d0 c4 08 cd bd 7e 61 d1 36 49 8a 00 00 3f 72 ff b5
       -0.100114375 6.240035e-06 4.9607e-41 -1.903223e-06
0002e0 b8 9f 02 b2 2f 88 33 3d 6c 4e 6e bd 05 d7 45 b9
       -7.603312e-09 0.043831047 -0.058180258 -0.00018867485
0002f0 53 9d 04 3e ef c7 88 be 3d 88 d1 3e c3 c9 4f 3b
       0.1295064 -0.26715037 0.40924254 0.0031705953
000300 84 3c 07 3f 6f fc 81 bd 65 ed b6 3d 9e e3 51 3b
       0.52826715 -0.06346976 0.08931998 0.003202654
000310 fb ae 85 3d ad 15 c0 3d bc f7 2a 3e 0f 1b 3d 3e
       0.065275155 0.09379134 0.16696066 0.18467353
000320 1f bf ba b6 3c 3b 8c 3b 7b e8 b5 bd 28 36 10 be
       -5.5654814e-06 0.004279522 -0.08882233 -0.14083159
000330 d3 98 96 3e e7 88 00 80 b7 80 9b 3e bf 5a bd 3d
       0.2941347 -4.9111e-41 0.3037164 0.09245824
000340 26 9e 04 3e 94 95 ac bc 80 f9 43 14 7f 69 c0 3c
       0.12950954 -0.021067418 9.894189e-27 0.023487804
000350 93 9d fa 3c 67 63 86 3b ca 72 47 bd 1a 82 ab 3c
       0.030592715 0.004101205 -0.048693456 0.02093606
000360 65 7b 77 3e 2d 23 b3 3d af 10 87 3d fc 6a 9d 3d
       0.24168165 0.087469436 0.06594979 0.07686421
000370 03 a5 f6 3d fe 2b ac bc b2 db f5 3c 3e c6 c2 bd
       0.12043192 -0.02101707 0.030011985 -0.09510468
000380 a9 d3 a8 3a 51 1d 8a 3d 78 df c3 3b e7 19 7a 3d
       0.0012880462 0.06743873 0.0059775673 0.06105986
000390 0a f1 35 be 20 14 8a bd f3 88 00 80 22 c5 20 bb
       -0.1776773 -0.0674212 -4.9128e-41 -0.0024531563
0003a0 80 9c 20 3b 74 fb 5f 3e 13 a3 f4 bc 02 8b 00 80
       0.0024507344 0.21873266 -0.029862916 -4.9867e-41
0003b0 26 89 00 80 0c a9 00 00 b3 73 85 3d fb 69 48 3d
       -4.92e-41 6.0643e-41 0.065162085 0.048929196
0003c0 c1 32 d9 3d 78 08 2e bd bf 28 13 be 30 85 16 3b
       0.10605384 -0.042488545 -0.14371012 0.002296757
0003d0 82 ee 9b bc 6e d4 b5 3d 95 8a 00 80 e6 3c 6d bc
       -0.019034628 0.08878408 -4.9714e-41 -0.014479851
0003e0 09 14 a1 3c 58 1d 0c bd c5 fc 53 3d 44 b1 64 bc
       0.019662874 -0.034207672 0.05175473 -0.013958279
0003f0 0f 5b 10 3c a0 71 6c 3d 21 da ed 3d 97 5a 13 bd
       0.008810773 0.05772555 0.116138704 -0.035975065

act_conv1.bias f4 [4]
000000 ea 36 04 3d 47 ed 96 3c 8c 90 aa bb a2 c7 01 3e
       0.032278933 0.01842369 -0.0052052196 0.1267381

act_fc1.weight f4 [81, 324]
000000 5b 85 51 3d b7 9e 28 3c 45 1d 14 3d 85 3f 88 bc
       0.05115257 0.010291747 0.036160726 -0.016631851
000010 d0 83 09 3d 29 4b 95 bc 67 e9 71 3b 99 1e be 3a
       0.03357297 -0.018224316 0.00369128 0.0014504968
000020 e9 74 86 bc 2f 38 39 3d 2d d0 8f bb 6c dc 1c bd
       -0.016413169 0.045219596 -0.00438883 -0.03829615
000030 98 3e 80 bd 15 27 b0 bc 67 71 38 bb 2c fc b8 bc
       -0.06261939 -0.02150301 -0.0028143765 -0.022581182
000040 83 50 93 bc 8d 0b e3 bb 7f a0 a2 3c d7 0c e3 3c
       -0.017982727 -0.006928867 0.019851921 0.027716083
000050 08 ac 3d bd b7 42 6e bd 08 d0 23 bd c0 84 80 bd
       -0.04630664 -0.058169093 -0.039993316 -0.0627532
000060 1f 22 1a 3d 28 ac 04 3d ab 53 cb bb 09 9f b9 3c
       0.037630197 0.032390743 -0.0062050424 0.022658842
000070 2e 18 e0 bc d1 e1 03 bd 9a 32 ba bd 29 20 44 bd
       -0.02735528 -0.032197777 -0.09091683 -0.047882233
000080 c1 2b 73 bb 70 61 80 bd db 64 75 3c a8 b7 8a bd
       -0.0037104937 -0.06268585 0.014977659 -0.06773311
000090 36 6c ae 3b e9 54 2c bc ac 52 ab bd b8 db a7 bd
       0.0053229583 -0.010518291 -0.08365378 -0.08196205
0000a0 48 60 a1 bc 99 83 5c bd b6 3a c6 bd 7a b5 a5 bc
       -0.01969923 -0.05383644 -0.09679167 -0.020228136
0000b0 09 8f 67 bc 47 23 73 3d f5 da a5 bd 84 1c 20 bd
       -0.014133223 0.059359815 -0.08098403 -0.039089695
0000c0 e3 91 d9 bc a7 82 41 be 9e e5 0b bd d3 9f 57 bd
       -0.026558822 -0.18897496 -0.034154527 -0.052642655
0000d0 9e d4 80 bd 0b a0 a5 bb 16 84 d8 3d 4f 05 35 3c
       -0.062905535 -0.005054479 0.105720684 0.011048629
0000e0 95 fd 84 bd af a5 02 be 88 c8 bd bc a7 82 01 bd
       -0.064936794 -0.12758516 -0.02316691 -0.03161874
0000f0 e8 5f d3 bc c2 de 3e bd 8e f9 56 bd 86 85 8f 3e
       -0.025802568 -0.046599157 -0.052484088 0.28031558
000100 00 52 c8 bd 32 b4 d0 bc 5f e0 f2 bc ed 2a d5 bd
       -0.09781265 -0.025476549 -0.029648004 -0.10408578
000110 bd 5f f2 bb d5 ba c3 bc e3 75 c4 3a 8a 2c 96 3b
       -0.007396667 -0.0238928 0.0014988746 0.004582946
000120 2d d2 9e 3e 6e 3e 99 3e 83 1a 5a bd 58 f1 dd bb
       0.31019726 0.29930443 -0.05324794 -0.006773155
000130 19 6e 16 bc bb 7b 8e bc 63 5f 7a bc f9 6a 0c 3d
       -0.009181523 -0.017392984 -0.015281531 0.034281705
000140 f2 51 aa 3c ed fb 1b bd c3 cf b8 bc 5f a3 2f bd
       0.020791028 -0.038082052 -0.022560006 -0.042880412
000150 7e 53 2e 3d aa 22 3a bc 66 3a 15 bd 2b af 58 bd
       0.042560093 -0.011360804 -0.036432646 -0.05290143
000160 90 18 05 bc 7e 06 e3 bb 16 91 3c bd e2 a6 01 bd
       -0.008123532 -0.006928264 -0.046036802 -0.031653292
000170 04 36 4c bb 76 d0 34 3c d0 78 ad 3b 08 48 bd bb
       -0.0031160126 0.011036029 0.005293943 -0.005776409
000180 aa c7 1c bd 72 6d f0 3b 70 f6 ab ba 6a 39 7e 3d
       -0.038276352 0.0073372656 -0.0013119709 0.062066473
000190 da de 2f 3d ac 7e df bc 57 5d dc 3c 0e 2c 4d 3d
       0.042937137 -0.027282082 0.026899977 0.050090842
0001a0 a9 ec db bb cb a7 89 3c 5c b8 43 bc 3c 66 0e 3b
       -0.0067115617 0.016803643 -0.01194581 0.0021728417
0001b0 4a 3e 55 3d db 66 4a bd b6 56 ab bc bc 65 b3 bb
       0.052061357 -0.049414497 -0.02091537 -0.005474774
0001c0 b7 1c c4 bc 71 d3 87 bd 53 ee eb bb fa 3f 8d bc
       -0.023939474 -0.06632126 -0.0072000413 -0.01724242
0001d0 0f 2d 48 bd e8 fe 27 bc 75 f2 87 bb 13 c9 0b bd
       -0.048871096 -0.0102536455 -0.004148776 -0.034127306
0001e0 99 d3 73 3d 81 18 8f 3c ea f2 20 3c 0c 11 36 3c
       0.059527967 0.017467739 0.00982354 0.011112463
0001f0 10 01 9b 3c e8 fb 82 bb f9 e7 89 bd b7 f9 96 3c
       0.018921405 -0.0039973147 -0.067336984 0.01842962
000200 08 e6 18 3e de de 4c bb 01 47 ac 38 1d b5 96 3b
       0.149315 -0.003126077 8.2148246e-05 0.004599227
000210 cb 3e f7 3b 82 bc d6 3c ea 55 99 3d 11 e0 3a bd
       0.0075453273 0.026212934 0.0748709 -0.045623843
000220 d0 d3 fe 3c 84 dc 0d 3d 41 0d 8a 3d ac e3 58 bd
       0.03110686 0.03463413 0.06740809 -0.0529515
000230 4f 63 cb bc 00 c1 04 bd 1f c6 13 bc ad 8a fa 3c
       -0.024827627 -0.03241062 -0.009019404 0.030583704
000240 81 84 68 be 8a d8 ae ba 77 4a d6 3c e1 6d 08 bd
       -0.22706796 -0.001333968 0.026158554 -0.033307914
000250 de 39 48 39 16 3e f4 bb ae 03 be bb d0 f0 89 bc
       0.00019095044 -0.0074536903 -0.0057987785 -0.016838461
000260 48 4b 9f bc 8b 8e 44 be 9c aa a3 bd 36 90 cb bc
       -0.019445077 -0.19195001 -0.079915255 -0.024849039
000270 36 ae 12 3d b7 3c bf 3c 4f 23 8b 3c 58 58 a0 bb
       0.03581067 0.02334438 0.01698461 -0.004893344
000280 d3 98 67 bd c3 f0 19 3c 66 89 00 80 c6 89 00 00
       -0.05654223 0.009395781 -4.9289e-41 4.9424e-41
000290 a2 89 00 80 11 d6 00 80 0d 89 00 00 36 8a 00 80
       -4.9373e-41 -7.6793e-41 4.9165e-41 -4.9581e-41
0002a0 c5 88 00 80 45 89 00 80 18 89 00 00 8e 89 00 80
       -4.9064e-41 -4.9243e-41 4.918e-41 -4.9345e-41
0002b0 38 5a 1f 03 be 57 bd 91 6c 4c f6 1d 8d d5 81 93
       4.6829466e-37 -2.9873018e-28 6.5194676e-21 -3.2774755e-27
0002c0 ac 11 14 18 c1 0e 0b 0c 23 e2 e0 0a 6a 89 00 80
       1.9137474e-24 1.071261e-31 2.1655479e-32 -4.9295e-41
0002d0 bd 88 00 00 2c 43 50 16 ad 78 66 20 52 43 52 23
       4.9052e-41 1.6823302e-25 1.9521686e-19 1.13983784e-17
0002e0 bd 3d 60 22 9d 6a 22 1f 16 f4 32 1d 1a 63 cc 93
       3.0390345e-18 3.4393023e-20 2.3684293e-21 -5.159456e-27
0002f0 1c 8a 00 80 05 89 00 80 3e d4 9d 1c 23 b1 d8 1c
       -4.9544e-41 -4.9153e-41 1.0444252e-21 1.433947e-21
000300 b3 4f a6 26 68 44 3e 20 da ee 9f 1f e4 97 dd 18
       1.1540166e-15 1.611626e-19 6.7734266e-20 5.728053e-24
000310 81 4c b4 0c 66 89 00 80 c1 a2 00 00 8c 73 b7 16
       2.7779435e-31 -4.9289e-41 5.8385e-41 2.9638165e-25
000320 51 96 b3 1d e2 5e a0 26 5d b5 cc 19 38 7d e1 18
       4.753633e-21 1.1127948e-15 2.1166358e-23 5.8287575e-24
000330 0c 6e 03 81 d2 89 00 00 a6 89 00 00 76 89 00 00
       -2.4139855e-38 4.944e-41 4.9379e-41 4.9312e-41
000340 f1 f1 2a 18 82 61 41 1d bc 29 61 23 5a dd 75 1c
       2.2094134e-24 2.5593748e-21 1.2206112e-17 8.134979e-22
000350 85 36 83 8e 46 8e 00 00 37 89 00 80 3a 89 00 00
       -3.2346494e-30 5.1038e-41 -4.9223e-41 4.9228e-41
000360 1e 89 00 80 36 70 69 90 1c cb a9 92 2f 31 c1 23
       -4.9188e-41 -4.6037592e-29 -1.071547e-27 2.0945932e-17
000370 22 36 11 90 6b 4b 7f 0b db 45 03 00 f9 88 00 00
       -2.863791e-29 4.9167952e-32 3.00566e-40 4.9137e-41
000380 6e 89 00 80 bc 89 00 00 e4 89 00 00 a8 c5 07 0d
       -4.93e-41 4.941e-41 4.9466e-41 4.1838007e-31
000390 ba 0f 34 90 73 64 22 08 2c 22 04 00 fa 0c 02 00
       -3.5510856e-29 4.886818e-34 3.796e-40 1.88326e-40
0003a0 08 89 00 80 4c 89 00 00 e6 88 00 80 b9 88 00 00
       -4.9158e-41 4.9253e-41 -4.911e-41 4.9047e-41
0003b0 d4 88 00 80 f8 88 00 80 df 88 00 80 33 89 00 80
       -4.9085e-41 -4.9135e-41 -4.91e-41 -4.9218e-41
0003c0 64 89 00 80 fc 88 00 00 cb 88 00 80 bc 78 ab 3d
       -4.9286e-41 4.9141e-41 -4.9072e-41 0.08372638
0003d0 6c c5 53 3d 5c d2 af 38 2f f9 68 3c db ea 0f 3d
       0.051701948 8.383833e-05 0.014219566 0.035136085
0003e0 5a bf e0 3c 49 a4 12 bb c4 6f c8 3c 55 4e 7e 3d
       0.027434994 -0.0022375754 0.024467357 0.062086422
0003f0 62 79 f1 3c ed ac 39 bc 86 7c 49 3c 33 93 c7 3c
       0.029476825 -0.011332733 0.012297755 0.024362182

act_fc1.bias f4 [81]
000000 52 bb cf 3d fd 42 22 bc 8a 30 25 be 90 f1 d5 3d
       0.101431504 -0.009903667 -0.16131797 0.10446465
000010 d5 f0 e3 3d 38 92 d0 3d 47 e3 da bd 70 a5 93 bc
       0.111299194 0.10184139 -0.10687881 -0.018023223
000020 16 72 99 3d ac 82 1a bc 05 02 93 bd 8f f7 dd 3d
       0.07492463 -0.009430569 -0.071781196 0.10838234
000030 18 34 59 3d 77 30 77 3e 1c fb 86 3d 5f 61 aa 3d
       0.053028196 0.24139582 0.06590864 0.08319353
000040 e9 b2 28 be d3 33 9b bc 15 f0 16 be f8 b8 0d 3e
       -0.16474499 -0.01894561 -0.14740022 0.13840091
000050 b6 59 27 3a 58 f1 58 3e 1e d3 9d bd 16 2b 32 3e
       0.00063839124 0.21185815 -0.07706283 0.17399248
000060 2e 1f c9 3b 23 a8 12 3e 0c dc ce bd bf eb 8b 3d
       0.00613775 0.14321952 -0.10100564 0.068320744
000070 cf 9e 16 3d 52 47 ef 3d e3 7e eb 3d c1 cf 48 3e
       0.036772545 0.11683525 0.11498811 0.19610502
000080 d1 e0 af 3d 33 83 2a 3e c3 da 29 3d d1 22 c5 3d
       0.08587802 0.16651611 0.041468393 0.09625781
000090 99 9f b8 3d 6d 4d 46 3e 39 5c dc bc 34 f7 75 3e
       0.09014816 0.19365473 -0.026899444 0.24020082
0000a0 8c 80 51 bd 54 fa 8d 3e 93 90 a3 bd f1 aa 5c 3e
       -0.051147982 0.27730048 -0.0798656 0.21549584
0000b0 55 3d a9 3d f0 05 95 3d 1d b3 3f 3d f4 85 10 3e
       0.08263651 0.07276523 0.046801675 0.14113599
0000c0 14 84 c9 3d 0e 6f 6e 3e 6e d1 74 3d b2 8b 47 3e
       0.09839645 0.23284552 0.05977004 0.19486883
0000d0 fa d2 47 3c 35 f8 89 3d f0 ee 18 be 4d ea 03 3e
       0.012196297 0.06736795 -0.14934897 0.12882347
0000e0 4e 5d 9d 3d a3 f7 5c 3e 2d e3 ab bd f0 d5 ff 3d
       0.07683812 0.21578841 -0.0839294 0.12491977
0000f0 32 86 89 bc 1b d5 15 3e 9d b9 e8 bd af b8 61 bd
       -0.016787622 0.14632075 -0.11363528 -0.05510777
000100 01 17 f9 bd 68 8f 03 3e c7 7a 30 3d 15 2f 20 3e
       -0.12162591 0.12847674 0.04308584 0.1564296
000110 bb 32 e8 3c 72 47 02 3e f8 09 0b be c8 59 ab bc
       0.028344503 0.12722567 -0.13578022 -0.020916834
000120 2d 96 1c 3d 12 ba 7b bd e7 2f 16 be e4 9d c4 3d
       0.038229156 -0.061456747 -0.14666711 0.09600428
000130 ce 27 6d 3d 7a 23 a6 3d 18 d4 02 be 4e 47 b0 bc
       0.05789929 0.08112235 -0.1277622 -0.021518376
000140 d2 2e ae 3d
       0.08505024
