课程设计/AlphaZero简单复现/models/policy_batch_1950.model (torch, 530639 bytes, 15 tensors)

conv1.weight f4 [32, 4, 3, 3]
000000 19 52 84 3e 09 bd cf bd ac c3 a0 3e 17 18 d2 bd
       0.25843886 -0.101434775 0.31399286 -0.10258501
000010 eb 1b 0c be 7a 9b 0e be 7d 80 c4 3e b6 19 28 be
       -0.13682525 -0.13926497 0.3837928 -0.16416058
000020 32 b5 e0 3e bd d9 33 3e 98 1e 9d bd 10 19 12 3e
       0.4388824 0.1756353 -0.07671851 0.14267373
000030 8f 75 af bd c3 dc 2b bd 4b 89 cf bd 7e 8e 2f 3e
       -0.085673444 -0.04195858 -0.101336084 0.171442
000040 1a 1a ac bd e0 b0 2a 3e be 91 1b 3d 34 0a 48 bc
       -0.08403416 0.16669035 0.037980787 -0.012209464
000050 0c 97 bf 3c 9e 4f 6c bb 09 c9 15 be be f9 d1 bc
       0.023387454 -0.0036058198 -0.1462747 -0.025631782
000060 62 7c 87 3c f3 e4 26 39 0d bd 8a 3d 1f 36 2b 3c
       0.016538803 0.00015916284 0.0677434 0.010449915
000070 53 92 86 3b ce cf ab bc e5 d0 c1 bd e9 4f ea 3d
       0.0041067987 -0.020973112 -0.094636716 0.11441023
000080 17 7a eb b9 ca af 95 3c 6e eb 21 3d 07 e2 78 bc
       -0.00044913657 0.0182723 0.039531164 -0.015190608
000090 ea 20 cb 3e a3 5a 94 3e 61 6f ec be f6 d9 46 3e
       0.3967355 0.289754 -0.46178725 0.19419083
0000a0 4e 4f 06 bd 46 76 a7 3e 85 c7 bb be 54 6b 3f 3e
       -0.032790475 0.32707423 -0.3667566 0.18693286
0000b0 10 0e 34 3e 14 32 82 bc 55 41 b2 3c 27 cd 43 3d
       0.1758349 -0.01589302 0.021759668 0.04780307
0000c0 3c 18 07 be be 43 d8 bc f2 d4 9f bd 0e 71 85 3e
       -0.13192838 -0.02639949 -0.07804288 0.26062816
0000d0 98 d9 de bd 5c bf c9 3d a6 c8 a4 bd 1d ee b8 bc
       -0.108813465 0.09850952 -0.08046083 -0.022574479
0000e0 c3 c5 f9 bb b0 40 cd bb d2 2e c7 bb 55 ac 51 ba
       -0.007622452 -0.006263815 -0.0060785795 -0.0007998397
0000f0 1b 2c 19 3d ee aa b2 3b e3 dc 40 3c fc 26 51 3c
       0.037395578 0.0054525053 0.0117714135 0.012765642
000100 67 29 07 be 1c 08 a8 3d d4 e6 26 be 10 c8 99 3d
       -0.13199387 0.08204672 -0.16298991 0.07508862
000110 d1 7f fa bd 15 e5 00 3e 0a ed 56 bd b1 69 35 3e
       -0.1223141 0.12587388 -0.05247215 0.177161
000120 90 64 8a 3e 2c 0b 50 3e fd d6 4f bc af 46 ad be
       0.27029848 0.20316762 -0.012685535 -0.3384299
000130 d3 22 7a bd d4 01 a6 be 24 7d bc 3d ef 0e 6e 3e
       -0.061068367 -0.3242327 0.09203556 0.23247884
000140 ae 27 84 be 12 16 5d be 0d b6 29 be d5 46 12 be
       -0.25811523 -0.2159045 -0.16573353 -0.14284833
000150 07 64 b3 3e 1e 91 49 3e b0 22 3b 3e bf 0e ed 3d
       0.35037252 0.19684264 0.18274951 0.11575078
000160 5f 72 ac be 32 5e e7 3d 7d a1 9a 3c 6d 01 e0 bc
       -0.33681008 0.11297263 0.018875832 -0.02734443
000170 b8 95 22 3d 09 76 48 bc 5c b9 07 3d 08 ed d9 3b
       0.039693564 -0.012235173 0.033135757 0.006650571
000180 ae 82 24 bd 11 52 46 be 4e 83 38 3d 04 27 1a be
       -0.04016369 -0.19367243 0.045047097 -0.15053946
000190 6e 61 e0 3d 45 fe 63 3d ee 6c 44 bb d1 db 5a 3d
       0.10956083 0.055662412 -0.0029972154 0.05343229
0001a0 b1 89 3b 3d a4 f6 11 3d 64 b0 12 3e 23 8e 30 be
       0.04578561 0.035635605 0.143251 -0.17241721
0001b0 45 2d f7 3c ee fa 29 bf c6 15 c8 3e a4 8a 72 bd
       0.030172953 -0.66398513 0.39079112 -0.05921425
0001c0 9a 7b e5 3e 70 65 e9 be 15 d2 9f 3d df 42 28 3d
       0.44820863 -0.45585203 0.07803742 0.0410794
0001d0 04 db bc 3d dd 6b 0b 3e 21 d8 66 3e 5c e6 c5 be
       0.092214614 0.13615365 0.22543384 -0.38652313
0001e0 7c 67 0e 3e 8e 85 7e be 35 93 33 3e e1 b5 27 be
       0.13906664 -0.24855635 0.17536624 -0.16377975
0001f0 18 1f 53 3d 00 b6 15 3e 7c 47 b4 bc 72 43 ba 3d
       0.051543325 0.14620209 -0.022006743 0.090948954
000200 8a b8 fc bc 0b a3 d1 ba 60 36 ca bc ab 20 19 3d
       -0.030849714 -0.0015994025 -0.024684131 0.03738467
000210 b6 4f de bd f8 10 8e 3c 7c ef f2 3c ab d0 9a 3d
       -0.108550474 0.017342076 0.02965521 0.075593315
000220 bb 67 64 bd b7 6e bf 3d ee 84 0f 3e a3 1a bb bb
       -0.055762988 0.09347289 0.14015552 -0.0057099625
000230 d5 f9 c2 bd 76 40 ce bd e2 1d b1 bd 45 1a 04 3e
       -0.09520308 -0.10070889 -0.08648278 0.12900646
000240 00 76 7b be f8 ab 84 bd bf 31 da bd bb 6a 8e 3d
       -0.24556732 -0.06478113 -0.106540196 0.06953951
000250 7e 3a 75 3e 9a 58 ab 3d 54 90 c0 bd 04 64 40 bd
       0.23948094 0.08366509 -0.094025284 -0.046970382
000260 5a 3b 45 3e 0a 42 03 be 70 de 9e 3c 1b de 82 bd
       0.19260922 -0.1281816 0.019393176 -0.063900195
000270 21 ca 5d 3e 86 40 1f bd 6f 4c 79 bd ca a1 a4 3d
       0.21659137 -0.038879894 -0.06086391 0.08038671
000280 d0 72 4a bd 00 bb ff bd 40 e4 d9 bd 4d 6a 87 bb
       -0.0494259 -0.12486839 -0.10639238 -0.004132545
000290 d7 4d 9b 3d 31 60 f3 3d 86 40 aa bd 25 2c ba bd
       0.07583206 0.118835814 -0.08313088 -0.09090451
0002a0 b1 82 3a bd ba a3 8a bd ee 67 4e be f8 aa 62 3d
       -0.045534793 -0.067695096 -0.20156834 0.05533883
0002b0 ae d4 89 3d 80 12 d5 3d ef 01 fb 3d b1 78 ab 3d
       0.067300186 0.10403919 0.12256228 0.083726294
0002c0 f0 3b c0 3d 46 4a 0c 3e ee f6 0c 3e 72 f8 d8 3d
       0.09386432 0.13700208 0.13766071 0.10594262
0002d0 f4 81 8a 3e 6f 55 33 3d fa 72 d1 bd 8b 16 ae be
       0.2705227 0.043782648 -0.10227008 -0.34001574
0002e0 2c c7 d2 3e cc 13 6a 3e 52 d7 c1 3e 24 84 cb 3c
       0.4116758 0.22859114 0.3785959 0.024843283
0002f0 7a 6c fc bc 1a 01 0c 3e 94 12 a9 bd cf d5 b1 bd
       -0.030813444 0.13672295 -0.082554966 -0.08683359
000300 88 59 00 bf a6 c7 81 3e 3d 08 e0 3d f3 3b b7 3d
       -0.50136614 0.25347632 0.10939071 0.08946981
000310 96 77 ee bd 4f 8d ca bd 52 b9 84 3d 08 0d fc 3c
       -0.11643903 -0.09890234 0.064806595 0.030767933
000320 b8 98 57 3c 03 c2 59 bd 82 36 b0 3d 24 43 2e 3d
       0.01315897 -0.05316354 0.086041465 0.0425445
000330 80 b0 94 3d 0f 85 3c 3d e3 20 73 bc 83 cf 09 3d
       0.07260227 0.046025332 -0.014839384 0.033645164
000340 c4 98 2c 3d 94 00 ee 3d 2d 4a 21 3e 2b 68 f4 bd
       0.042137876 0.11621204 0.15750952 -0.11933931
000350 7e 7d 95 bd 04 fe 04 bc e4 89 4f bd 13 52 31 3e
       -0.07299326 -0.008117203 -0.050668612 0.17316465
000360 41 5c 23 bd 6f 73 a3 bc 67 4f a9 bd 18 b6 63 3d
       -0.039882902 -0.019952504 -0.08267098 0.05559358
000370 11 22 8c bc a6 13 f5 bd f3 0d 87 3c a9 5d 0d ba
       -0.017106088 -0.11966638 0.016486144 -0.00053926796
000380 93 ba 40 3e a1 7c 78 bd 89 34 ba 3d 2b ac 1e 3e
       0.18821172 -0.06066573 0.090920515 0.15495364
000390 be e9 86 bd 9f d9 0f 3f cc 0b 02 bf 2a 3a 68 3d
       -0.065875515 0.5619144 -0.5079925 0.056696095
0003a0 c8 c1 21 bf ff d7 c3 3e 30 d1 06 bd 0e 76 d3 3c
       -0.6318631 0.3825073 -0.03291434 0.025813129
0003b0 67 fe b9 3c e3 96 00 bd a8 e2 bc 3d ae 23 e5 bd
       0.022704316 -0.031393897 0.09222919 -0.11188446
0003c0 7e c3 26 3d 8b e8 0a bd 9e 3f f7 3d e0 1c 77 3c
       0.04071378 -0.033913177 0.12072681 0.015082568
0003d0 c0 68 f4 3d 51 4a e6 3d 10 dd 03 3c 95 1f 97 bd
       0.11934042 0.112446435 0.008048311 -0.07379071
0003e0 ec c5 07 bc 6b e9 f5 bd 13 c1 dc bc cd b9 50 bd
       -0.008286934 -0.120074116 -0.026947534 -0.050958443
0003f0 2f 25 3c be ec 58 0c 3e 21 1f 81 3e 7b d4 44 be
       -0.1837356 0.13705796 0.25219062 -0.1922168

conv1.bias f4 [32]
000000 9f bb 4a bd c2 5b 0a 3e 47 78 1a 3e 43 e6 97 3c
       -0.049495336 0.13511565 0.15084945 0.018542415
000010 a8 49 09 be 45 29 07 3c 48 6c 83 3a 5c 74 00 3e
       -0.13407004 0.0082495855 0.0010026777 0.12544388
000020 9b 8a 8f 3d 85 9f a8 bd f6 cb 99 3e 48 a0 8e 3b
       0.07008859 -0.08233551 0.30038422 0.004352603
000030 0a 92 b9 bd 79 02 f4 bc 0e aa c5 3c 45 3b 72 3e
       -0.09061058 -0.029786335 0.02412894 0.23655422
000040 3c 31 63 bd 39 47 82 3e 9c 42 0b 3b 71 21 f1 3c
       -0.055466875 0.25444964 0.002124942 0.029434891
000050 cd be 8c 3e a8 82 d9 bb 0b eb 81 bd 67 12 36 3d
       0.2748932 -0.00663789 -0.06343659 0.044451144
000060 1f 40 97 39 f1 b0 42 3e df 92 86 3e e3 b4 3a bd
       0.00028848738 0.1901281 0.2628393 -0.045582663
000070 05 6e 2a bd ee 05 d0 bd 6f 00 0f 3e 4e 16 08 be
       -0.04160883 -0.10157381 0.13965009 -0.13289759

conv2.weight f4 [64, 32, 3, 3]
000000 f4 ff df 3d da fb cb 3d ba 2e 29 3e 01 d5 ce 3d
       0.10937491 0.09960146 0.16521731 0.10099221
000010 14 4f 2e bd 54 00 b9 3d 75 86 09 3d b7 f4 2f 3d
       -0.042555884 0.09033266 0.033575494 0.042957988
000020 c5 31 ac 3d ad c3 f5 3d 82 6f 08 be e0 f1 da bc
       0.0840793 0.12000213 -0.13323787 -0.026726663
000030 7b fa 19 bd 72 ad 91 3c fc 92 2f be 22 a7 b6 3c
       -0.037592392 0.0177829 -0.17145914 0.022296492
000040 01 81 0a 3d 3c bd 14 3e e1 48 03 3b 00 dc 60 bc
       0.033814434 0.14525312 0.0020032453 -0.013724327
000050 a6 1c e1 3d ae c8 ba bd a9 70 83 3d 45 ca cb bc
       0.109917924 -0.09120308 0.064179726 -0.024876723
000060 11 7c c8 bc 6b e1 92 bd c3 ae 0e bd ac 7f 1f 3d
       -0.024473222 -0.07171901 -0.034834635 0.038940117
000070 51 ed 48 3d 9a 59 97 3c 43 32 08 3c 55 f6 04 be
       0.049054448 0.018475343 0.008312765 -0.12984593
000080 d0 38 f1 3d 85 b1 4a be c4 98 19 3e 91 6c 03 be
       0.11778414 -0.19794281 0.14999682 -0.12834384
000090 d9 cf 06 3d 86 b3 9e 3c 22 2a bf 3c 83 c2 c2 3c
       0.032913063 0.019372713 0.02333552 0.023774391
0000a0 90 bc cb 3b c0 c0 17 3d e1 ef 2e bd f0 22 85 3c
       0.0062175468 0.037049055 -0.042709235 0.016252011
0000b0 4f c5 f9 3c 1a e4 8f bd 74 70 18 bd 4c c4 af 3c
       0.030489592 -0.07025929 -0.03721662 0.021455906
0000c0 e8 99 c6 3c 32 44 d2 3d 05 76 ec bd a3 6f 5a bd
       0.02424331 0.102669135 -0.11545948 -0.05332912
0000d0 94 65 99 bc ed 3e 03 be 93 ad b4 3d 22 6a a1 bd
       -0.018725194 -0.12816973 0.08822169 -0.07881571
0000e0 a1 4d 9b bc c0 20 02 be 4c 9b 1c 3e 03 04 a7 3c
       -0.018957915 -0.12707806 0.15293616 0.020387655
0000f0 c0 26 a1 3d c8 8b df 3d c8 e1 4c 3d 4a 9a 0f bd
       0.07868719 0.10915333 0.05002001 -0.03505925
000100 4f 67 1c be 9d df a0 3d 01 29 96 3d 6f ce 01 3e
       -0.15273784 0.07855151 0.073320396 0.12676404
000110 8e 8d 1f be 34 79 7f 3e f9 da eb 3c 5f a5 b9 bd
       -0.15581343 0.24948579 0.028790938 -0.09064745
000120 79 22 5a bd 9b 7e 8f 3d fe c3 82 bd ac 4f ce 3d
       -0.053255532 0.0700657 -0.06385039 0.1007379
000130 9f 2e a5 3d 8b ab 1e bd de ef 92 bd 10 e2 1a 3e
       0.08065533 -0.038737815 -0.07174657 0.15125299
000140 e0 e2 dd 3d 89 0a 21 bd 3e 73 04 3e d4 1c 1d bd
       0.108342886 -0.039316688 0.12934586 -0.03835757
000150 c2 05 a0 bc f9 09 66 bd b9 40 b8 3d d6 76 88 bd
       -0.019533996 -0.056161854 0.0899672 -0.06663291
000160 6f c4 12 3e 68 1c 9c 3d ec 44 97 3c 0c 6f b8 bd
       0.14332746 0.076226056 0.018465482 -0.090055555
000170 ba 65 fa 3c 84 6d df 3d 8e 69 32 bd 97 3c b8 bc
       0.030566085 0.1090956 -0.043557696 -0.022489829
000180 7b d6 6f 3d fc 99 9c 3d fc 54 ce 3d 68 c0 a4 bc
       0.058554154 0.07646558 0.10074803 -0.020111278
000190 58 ed b8 bd d2 c0 e1 3c b5 b7 07 3c 0e 0d 38 3d
       -0.09029645 0.027557764 0.008283545 0.044934325
0001a0 ad 61 ba 3d 76 35 87 bd db c3 61 bc 35 7b 79 3c
       0.091006614 -0.06601994 -0.013779606 0.015227129
0001b0 44 bb 7f bc 09 df 2f 3b c2 06 24 bb 05 56 9d 3d
       -0.015608612 0.002683582 -0.0025028442 0.076824225
0001c0 f3 a5 fd bd 43 57 a3 3d aa 7b c7 bd f4 15 4f 3d
       -0.12385168 0.07975628 -0.09740384 0.050558046
0001d0 23 13 9d 3c 67 fa 97 bd c8 7b ed bb 78 92 c8 3c
       0.019174164 -0.07420807 -0.007247422 0.024483904
0001e0 20 87 27 3e 6a 53 0d bd bc 83 4b bd 1d 48 21 3e
       0.1636014 -0.034503378 -0.04968618 0.15750165
0001f0 3f 11 90 bd ed a4 0a 3e b5 3f 65 bd 80 7d 59 3e
       -0.070345394 0.13539477 -0.05596896 0.2123928
000200 50 85 03 3e 36 cb e7 bc 0b 19 7f 3d c7 05 d2 3d
       0.12843823 -0.02829514 0.062279742 0.10255008
000210 9e 1e 11 bd fe 61 3e be 59 1e d6 bd 87 ce 1b bc
       -0.03542959 -0.18592069 -0.10455007 -0.009509689
000220 63 4e 91 3d 7d 36 12 bd a0 21 dc 3c 3d 14 30 bd
       0.07095029 -0.035696495 0.026871502 -0.04298805
000230 16 5b b8 3d 09 0f 01 be 2b ca b3 3d e9 59 a6 3d
       0.09001748 -0.12603392 0.08778795 0.08122618
000240 53 36 cf bd 28 96 73 bd 7f 3d fd bd 7e 5f 3e bc
       -0.101177834 -0.059469372 -0.12365245 -0.011619447
000250 31 6f 95 3d fa 05 8c bb f6 f4 0a 3d 8e 50 47 3e
       0.07296599 -0.0042731734 0.03392502 0.19464323
000260 83 2b eb 3d 61 59 82 3d 75 b9 8a 3d d0 76 bf bd
       0.114829086 0.06364704 0.06773654 -0.093488336
000270 64 21 db 3c 69 36 40 3c 3a c2 58 bd 03 cc 01 3d
       0.02674932 0.011731722 -0.052919604 0.0316887
000280 3d 9a 5c 39 91 ed 6c 3d 12 5a 12 bd c6 b4 2b 3d
       0.00021038293 0.05784375 -0.03573043 0.041920446
000290 7c 1c f2 bc d1 c7 24 3e 51 c1 3f 3e 0d 9f 1e bd
       -0.029554598 0.16091849 0.18726088 -0.0387259
0002a0 32 54 8c bd 65 9e 91 bc 80 ab 27 be be bf f2 bd
       -0.068519965 -0.017775724 -0.16374016 -0.11852978
0002b0 87 a1 5a 3d be b0 11 3b 68 ff 81 3d 18 98 49 bd
       0.0533767 0.002223059 0.06347543 -0.049217314
0002c0 42 07 d0 bb 8f e5 46 3d ef a1 6c 3c a6 2e 5d be
       -0.0063485214 0.048558768 0.014442905 -0.21599826
0002d0 4b 58 b0 bd 62 6e 19 bd df 36 cd bb 26 44 d7 3d
       -0.086105905 -0.037458785 -0.0062626447 0.10511045
0002e0 83 f8 c4 bd 47 52 bc bd 12 26 71 3d 91 5a 37 bd
       -0.09617712 -0.09195381 0.058874197 -0.044764105
0002f0 60 91 3e 3d fd e5 33 3e 2c 60 10 3e 62 0d 0c 3e
       0.04652536 0.17568202 0.14099187 0.1367698
000300 ae 38 41 bd f0 92 05 3c ec dc dd bd 33 92 2c be
       -0.047173195 0.008152708 -0.10833153 -0.16852646
000310 5e 26 c1 be e7 0c c3 3d 5e a8 e8 3d 85 c0 a5 bc
       -0.37724584 0.09523945 0.113602385 -0.020233402
000320 85 6e 02 3a 14 a1 35 3c de 03 9b bc 41 a5 c0 3a
       0.0004975575 0.011085767 -0.018922742 0.0014697687
000330 39 80 f6 bd 5d 99 a8 bd 3f 2b 92 3d 7d 82 0f bd
       -0.12036175 -0.08232377 0.07137155 -0.035036553
000340 d1 dc cb 3d bd d9 77 bd e4 3f 18 bd 81 6a 56 3d
       0.09954227 -0.060510386 -0.037170306 0.052347664
000350 b7 84 26 3d f2 fb b7 bd 00 e0 64 3d f1 6d 3b be
       0.04065391 -0.08983602 0.055877686 -0.18303658
000360 0c 74 97 3c 08 23 52 3e 20 fc aa bc 83 ea 05 3e
       0.018487953 0.20521176 -0.020872176 0.1307774
000370 0c 4d 21 3d d2 25 53 bd 8a 68 27 3d 89 62 84 bd
       0.03938012 -0.05154974 0.04087118 -0.064641066
000380 08 90 34 bd 2a c3 5d bd 2c dd 0a 3d ca db 12 bd
       -0.04408267 -0.0541412 0.033902332 -0.03585414
000390 3f b9 f0 bd 32 14 85 bb d5 92 13 3e 27 36 4c be
       -0.11754083 -0.0040612454 0.1441148 -0.19942532
0003a0 00 cc 64 3d 7b 7a 6f 3e 1b 76 a9 bd 3e df 74 3d
       0.055858612 0.23386566 -0.0827448 0.059783213
0003b0 1b 77 7d bc fb 9e 76 3d 21 08 80 bb 70 87 03 3c
       -0.0154702915 0.06021021 -0.003907219 0.008027896
0003c0 b4 a2 99 bd 01 48 74 be fb c8 c4 3d 78 c0 97 b9
       -0.07501736 -0.23855592 0.096086465 -0.00028944365
0003d0 01 21 2b bd b4 17 04 bd 15 75 97 3d a0 b9 cd bc
       -0.04177952 -0.032249168 0.073953785 -0.025112927
0003e0 39 ff 95 3c f6 c4 8d 3d 6e 34 65 3c 0a e1 82 3d
       0.018310176 0.06922333 0.013989551 0.06390579
0003f0 30 60 0f 3c ff e0 f2 3c 39 6e ea bc 69 40 87 bd
       0.00875096 0.029648302 -0.028617011 -0.06604082

conv2.bias f4 [64]
000000 65 0a 0d bd 0a 21 87 3d 92 bc 38 bd 1f 1a 37 bd
       -0.03443374 0.065980986 -0.04510171 -0.044702645
000010 51 d3 f0 3d 12 0a 45 bd 3d b6 c6 3c cc e4 08 bc
       0.117590554 -0.048105307 0.02425682 -0.008355331
000020 1e 1a d0 bb 9a ff 0b bc 35 a8 09 3d ba 8c 88 bc
       -0.0063507697 -0.008544827 0.03360768 -0.016668666
000030 05 0e 5a 3d 9e f2 02 3d 1a 20 5f bd 17 e5 0b 3d
       0.053236026 0.03196966 -0.054473974 0.034154024
000040 70 ca f7 3c 09 f3 36 bd 73 42 96 3c 6d 5e d8 3d
       0.030247897 -0.04466537 0.018342232 0.10564885
000050 71 3b 17 3c 83 bd 79 3d ec 67 1e 3d 0e 12 94 bd
       0.0092304805 0.060971748 0.038673326 -0.07230006
000060 67 48 f7 3c 65 27 1c 3d d3 0e 27 3d 67 53 a3 3d
       0.030185891 0.038123507 0.04078562 0.07974892
000070 fa b5 e6 3c 2b 90 9b 3d 25 81 5c 3d 60 eb f5 3c
       0.028162945 0.07595857 0.0538341 0.030019462
000080 ae 46 d7 3c 85 da 74 bb 6d 52 32 3c 2b 38 24 bd
       0.02627882 -0.0037361693 0.01088391 -0.04009263
000090 39 29 07 3d a8 57 cc 38 9f 2e 8c 3d b3 36 d8 3d
       0.032998297 9.743805e-05 0.0684483 0.10557308
0000a0 0d 32 bd 3d 2b bb 60 bc 6a 9c 9e bd 27 b0 9c bd
       0.09238062 -0.013716499 -0.07744677 -0.07650786
0000b0 e7 7f 40 3d 05 d2 60 bd b3 98 55 3c 5b 6d b4 bb
       0.046996977 -0.05488779 0.013036895 -0.0055062003
0000c0 20 32 5b 3d 99 44 42 bc 04 a9 28 3c 3c 6b 84 39
       0.0535146 -0.011857175 0.010294203 0.00025256898
0000d0 5d 41 66 3d 60 58 b5 3d 27 be a5 bb 33 71 07 3d
       0.05621468 0.08854747 -0.0050580683 0.03306694
0000e0 bc 61 aa 3b b9 4b 80 bc b0 78 08 3c 3c 2e ce bc
       0.005199639 -0.015661107 0.008329555 -0.02516853
0000f0 38 6a c7 3c 46 a1 5a bd 34 e3 73 bd d2 db 2f 3c
       0.024342641 -0.05337646 -0.05954285 0.010733562

conv3.weight f4 [128, 64, 3, 3]
000000 22 df 75 bc 5e 8c 0d bc d9 30 7c 3c 0d 90 bc bc
       -0.015006812 -0.008639423 0.015392506 -0.023017908
000010 77 6b 36 bd d8 3e f2 3c 2c eb 36 3d a9 88 ca bc
       -0.04453608 0.029570982 0.04465787 -0.024723368
000020 dc cf 73 3d 36 62 1f 3c 09 35 86 bd c2 51 0a bd
       0.059524402 0.009728005 -0.065530844 -0.033769377
000030 61 40 24 bd 7f 33 d8 3b f5 76 a2 bc eb 74 1b 3c
       -0.04010046 0.0065979357 -0.019832114 0.009488325
000040 27 46 14 bd e7 c2 c1 b8 54 1a 44 3c 33 1c a6 bd
       -0.036199715 -9.2392605e-05 0.011969168 -0.08110847
000050 88 ea b9 bd 90 6e ea bc a3 58 d8 3d 6a 07 ba bc
       -0.090779364 -0.028617173 0.10563781 -0.022708613
000060 03 a0 30 3c d7 22 1a bd 40 c2 30 bd 10 b7 1a bb
       0.010780337 -0.037630882 -0.043154 -0.002360765
000070 18 11 d3 bc c0 fd 70 3d d6 f7 56 bc 7f 89 99 bc
       -0.025764987 0.058835745 -0.013120612 -0.018742321
000080 e5 5a 6b 3d de de b4 bc 19 b6 fb 3c 62 b3 78 bc
       0.05745973 -0.022078928 0.03072648 -0.015179487
000090 8b 12 0a bd 80 c0 87 ba bb 00 84 bc 0d ab 95 bd
       -0.03370909 -0.0010357052 -0.01611363 -0.07308016
0000a0 71 fe 52 bd 85 19 da 3c 81 ed 4f bd b1 3c d5 3c
       -0.051512185 0.026623497 -0.05076361 0.026029916
0000b0 07 1d 32 3d c5 e8 3b 3d c9 ab aa 3d d5 27 b4 3c
       0.043484714 0.045876283 0.08333547 0.02199165
0000c0 8a d3 31 3d 05 c9 72 3d e8 64 0a 3d 7d 47 75 3d
       0.04341463 0.05927374 0.033787638 0.05988263
0000d0 1a b9 5f 3d ab 3a 7b 3d 2d d2 10 3c 3e 2f 0d 3d
       0.054619886 0.061335247 0.008839172 0.03446888
0000e0 d3 ec 35 3b ad 18 b8 3b 40 37 9c 3d 6a 14 f8 bc
       0.0027759566 0.005618176 0.076277256 -0.030283172
0000f0 54 3f 94 3d 5d 79 35 3d 28 dd 65 3d d1 35 70 bc
       0.072386414 0.044305194 0.056119114 -0.014661268
000100 e7 a9 96 bc fa 97 b5 bc f2 28 9e 3c 3f e5 6f bc
       -0.018391563 -0.022167195 0.019306634 -0.014642059
000110 f0 4d 61 bc 03 0b 7b bc a2 06 31 3c 69 b7 59 3c
       -0.013751492 -0.01532245 0.010804804 0.013288357
000120 69 1b 77 3d 07 62 cd bc 9e d1 b5 bc ea dd 5d bc
       0.060328875 -0.025071157 -0.02219468 -0.013541678
000130 a3 88 4b bc a2 82 2d bd d8 07 bb 3d b2 13 42 3c
       -0.012422713 -0.04236091 0.091323555 0.011845516
000140 f1 18 03 3d e4 0c 88 3d 69 03 57 3d da 45 42 3d
       0.032006208 0.06643084 0.052493487 0.047429897
000150 89 d9 75 3c a3 cf 1f 3d 99 0a 35 bc fc 69 b7 3d
       0.015005478 0.039016377 -0.01104989 0.08955762
000160 6d 4f 5f 3c f8 ef f8 3c bd e9 00 3d b8 01 46 bd
       0.013629776 0.030387864 0.03147291 -0.048341483
000170 0d 19 5c bc 94 06 b9 bc d8 66 c2 bd ae 94 c3 3c
       -0.013433707 -0.022586145 -0.09492272 0.023874607
000180 cb e6 06 3d 23 fa 01 3d 40 b3 4b 3d e6 39 d3 3c
       0.032934945 0.03173269 0.049731493 0.025784444
000190 57 0c 3d 3d b6 0a fe 3d 0e ac db 3c 1c fa 68 3d
       0.046154346 0.12404387 0.02681544 0.056879148
0001a0 9b 76 23 bc 2c 2c 9a 3c 06 db 88 3d e7 1d 2d 3d
       -0.009977008 0.01881989 0.066824004 0.042264845
0001b0 47 c5 55 3c 74 ed f3 3c eb 50 57 3b d7 8c 8d 3d
       0.013047523 0.029776312 0.0032854627 0.06911629
0001c0 55 75 45 3c e3 4e 30 3d 79 16 c1 3c e0 a3 33 3c
       0.0120519 0.043043982 0.023570286 0.010964364
0001d0 80 44 2c 3d 36 3c ba bc 34 2f 40 bc 46 5d 20 bd
       0.042057514 -0.022733789 -0.011730004 -0.039151452
0001e0 4c 40 22 bd 32 a0 92 3c 1f f5 04 bd bd 11 0b 3d
       -0.0396121 0.017898653 -0.03246033 0.033952463
0001f0 95 7b 19 bb ca 73 07 3d da b4 a1 3d d0 6a fc 3c
       -0.0023419608 0.03306941 0.07895823 0.03081265
000200 c0 60 1b 3d 98 2e 97 3d b3 1a c0 3d a8 9d 3a 3d
       0.037934065 0.07381934 0.093800925 0.04556051
000210 1c 8c 6c 3d 5a 96 e6 3c 46 a4 08 3d d0 e2 0d 3d
       0.057750806 0.028147865 0.03335979 0.034640133
000220 f2 59 39 bd 91 49 0c 3d bf f1 09 3c 3a d4 3b bb
       -0.045251794 0.034249846 0.008419453 -0.0028660432
000230 1c 85 94 bd 84 ac 0a 3b 82 cf ce 3c 05 3c 9f 3b
       -0.07251951 0.0021159956 0.025245432 0.00485945
000240 9d 8c 32 3b 5e e7 84 bd 1a 37 67 3d 12 94 a9 3d
       0.0027244457 -0.06489442 0.056449033 0.08280195
000250 08 08 c7 3c 26 8d 93 3c e2 de 90 bc b3 05 b0 3d
       0.024295822 0.01801164 -0.017684404 0.08594837
000260 04 79 6c bd c9 a0 9a 3d 96 c0 6e bd 96 24 82 3c
       -0.057732597 0.075501986 -0.058289133 0.015886586
000270 b6 b1 3a bc 73 c9 e4 bc ac f0 12 bc 2b 9e a7 3d
       -0.011394909 -0.02792809 -0.008968513 0.08184465
000280 71 8f 35 bd 41 a3 23 3d 44 a9 48 bd e6 34 6b 3c
       -0.04432625 0.039950613 -0.04898955 0.014355874
000290 a7 7c 91 3d 9a 6f fb b9 2c 75 ca bd 6d 0b 8f 3d
       0.07103854 -0.000479576 -0.0988563 0.06984601
0002a0 df 49 92 3c 56 01 84 3d 82 ec 04 3d 64 6d e0 bc
       0.01785749 0.06445567 0.032452114 -0.027395912
0002b0 ed 58 80 3d 85 ea 8a bc ee dd 82 3d c2 72 73 3d
       0.06266961 -0.01695753 0.06389986 0.059435613
0002c0 d2 23 3a 3d 17 d9 55 3d 4f cb 64 3d c8 70 3d bc
       0.045444317 0.052208986 0.055857953 -0.011562534
0002d0 1e d8 41 bc 85 42 16 bd f5 c5 fa 3c c5 91 ba bc
       -0.0118313115 -0.03668453 0.030611971 -0.022774586
0002e0 f4 1f 4a bd 24 79 05 3d 7c 15 a2 ba 29 80 16 bc
       -0.04934688 0.03258623 -0.0012366022 -0.009185829
0002f0 1a a1 71 bc 70 ee 59 3d 2a b6 63 3d 65 f9 16 bd
       -0.014747882 0.053205907 0.055593647 -0.036858935
000300 03 d5 b1 bc 55 99 38 bc 32 91 b2 3d dc 15 54 bd
       -0.021708017 -0.011267026 0.087191 -0.05177866
000310 87 ee 7a 3c bd da 45 3d 24 11 3b bc 91 f3 6f 3d
       0.015315658 0.04830431 -0.011417661 0.058581892
000320 82 f9 c6 bd 6e 6a 35 3c 0a cb 99 3c a0 57 fb bc
       -0.097155586 0.011072738 0.018773574 -0.030681431
000330 6f b3 fd bc e4 7d af 3d 21 5d 88 bd 6d 54 1d bd
       -0.03096935 0.085689336 -0.06658388 -0.038410593
000340 6c ae 24 bd 32 d9 5c 3c 04 32 8a 3d 26 31 67 3d
       -0.040205404 0.013479518 0.06747821 0.056443356
000350 7d 92 70 bc 73 f8 fc bb 95 52 13 3d 6f 8d aa bd
       -0.014683363 -0.007720047 0.03596743 -0.083277576
000360 4f b9 69 bc 6d 86 79 3c 1c 4b 3e 3c 35 04 b6 3c
       -0.014265372 0.0152298035 0.011614587 0.022218803
000370 72 05 37 bc ab f7 7a 3c 5a 8b 31 3c e1 6a 09 bc
       -0.011170732 0.015317838 0.010836447 -0.008387298
000380 c6 d7 32 3d 3d 07 09 bc 55 31 20 3c a6 a9 16 3b
       0.04366281 -0.008363542 0.009777387 0.0022989302
000390 4c 1c 55 3d 32 e1 1c 3d cb da 78 3c 69 85 73 bc
       0.05202894 0.0383007 0.015188883 -0.01486335
0003a0 89 2f 09 3d de 80 09 3d 1a a8 f6 3c fd 2f c6 3d
       0.0334926 0.033570163 0.030109454 0.09677122
0003b0 3b 05 5b 3d c0 36 47 3d 49 b7 b3 bc 9b 8d bd 3d
       0.053471785 0.048636198 -0.021937983 0.09255525
0003c0 b5 e7 d9 ba d9 6a 2c bb 8d 7a 2c bc 21 87 4f 3d
       -0.001662484 -0.0026308803 -0.010527265 0.05066598
0003d0 30 ef d4 bc 59 a6 1b 3d 42 91 83 3d 8b 7c 8a bc
       -0.02599296 0.03800044 0.0642419 -0.01690509
0003e0 5a 25 5b bc 33 45 c8 3c ea c5 3e 3d 29 63 35 3d
       -0.0133756045 0.02444706 0.046575464 0.04428402
0003f0 bf 37 6d 3b 2f 3e c9 bd bd 32 02 bd b3 e6 1c bd
       0.0036196557 -0.09826314 -0.03178667 -0.03830595

conv3.bias f4 [128]
000000 bc e7 3c 3c 29 69 cc 3c a7 18 dd bc 2c f1 93 bc
       0.011529859 0.024952488 -0.026989294 -0.018059336
000010 74 d7 3f 3c 71 e7 4f 3d ff 5f 7f a3 7f 4d 6b aa
       0.011709083 0.05075783 -1.3843906e-17 -2.089908e-13
000020 71 d7 12 bd 77 21 fa 3b 92 4c 47 3d 08 fb 58 3b
       -0.035849992 0.007633384 0.048657008 0.003310861
000030 dc 57 ba 3c ca 77 e0 3b 36 32 1b bc 4c 51 a6 3c
       0.022746973 0.0068502175 -0.00947242 0.020302437
000040 b4 72 27 bd 3d 96 e6 bb c4 06 99 bb 4a 4f e8 3b
       -0.040880874 -0.007036953 -0.004669996 0.00708953
000050 19 86 c8 3c 3f 59 99 ba 5a 7c 2a bc 92 3f 2a bd
       0.024478005 -0.0011699571 -0.010405624 -0.04156453
000060 70 8c 83 aa 21 36 68 bd 15 97 e4 38 d6 2f a0 3c
       -2.3367723e-13 -0.056692246 0.000109000284 0.01955406
000070 b6 2d d8 3b 22 d9 4a bc 5b 70 be bb 34 b1 e9 3c
       0.006597246 -0.01238087 -0.0058117337 0.02852688
000080 9b 70 98 3c f1 e9 04 bd 04 76 a7 3c f9 72 53 3c
       0.018608382 -0.032449666 0.020442016 0.01290583
000090 18 17 34 bd 93 7b 12 bd 35 66 9d ad a1 78 3a 9d
       -0.043967336 -0.03576238 -1.7894223e-11 -2.4679259e-21
0000a0 04 4e 82 bd 5b af 57 bc b7 b8 62 3d a8 ef 56 3c
       -0.063625365 -0.013164367 0.05535194 0.013118662
0000b0 76 51 3b 39 17 f5 b8 3b 79 01 85 3c 75 5d a3 b9
       0.00017864056 0.0056444514 0.016236054 -0.00031159414
0000c0 c2 fb 90 bc b5 22 1e 3d 04 fb 56 bb 79 d4 86 3c
       -0.017698172 0.038607318 -0.0032803426 0.016458737
0000d0 8c 60 82 bc aa f5 c9 b9 88 0e 78 bc 5c 51 ed ba
       -0.015915178 -0.00038520742 -0.015140183 -0.0018105912
0000e0 ff d3 03 ba 4d 4d ee bc a0 ca 66 3c 7b 45 99 3c
       -0.00050288433 -0.029089594 0.0140863955 0.018709889
0000f0 1f 11 27 3d 9a c2 5f bd 34 53 f3 3c c5 66 25 35
       0.040787812 -0.054628946 0.02970276 6.161684e-07
000100 71 dc b5 3c cf 86 a3 3d 93 c6 f2 ba ec c8 37 3c
       0.022199841 0.07984697 -0.0018522314 0.011217337
000110 30 41 61 bc 12 db 1b 3c 82 49 10 3d eb 43 11 bd
       -0.013748452 0.00951268 0.035226353 -0.035465162
000120 42 37 05 b9 80 07 36 3d 05 e9 7e bd cb f2 ac bc
       -0.00012704454 0.044440746 -0.062233943 -0.021111866
000130 38 8a a2 39 cb af 75 91 04 97 1a 3c 00 d7 82 bb
       0.0003100203 -1.9381263e-28 0.009435419 -0.003992915
000140 e6 93 81 3d 74 3a 16 3d 65 fc a6 b5 01 27 d9 3c
       0.063270375 0.03667684 -1.244142e-06 0.026507856
000150 b7 bf 99 3d 28 9e 02 3d 73 37 01 bd 8d ea 9f bc
       0.0750727 0.03188911 -0.03154702 -0.019521022
000160 ff 30 14 bd d4 d6 a6 ba 02 7a 97 3c 36 72 aa bd
       -0.03617954 -0.0012728819 0.018490795 -0.08322565
000170 f4 95 7a ba 76 6f 82 3d 1a 7e a1 3c 6d 03 ad 3b
       -0.0009559088 0.06368916 0.01971345 0.0052799494
000180 02 9a 2c 3b ad 08 41 3c c0 57 f6 b9 09 cf 16 bd
       0.0026336913 0.011781854 -0.00046986155 -0.036818538
000190 1e 3f 6a bd 9e c1 51 bb 9f 08 cf 02 ba fc 7e 3d
       -0.0571891 -0.0032006274 3.0420865e-37 0.062252738
0001a0 7f da 6c 3d a9 53 db 3c 1d 5f 4a 3d ab 42 40 9d
       0.05782556 0.02677329 0.049407113 -2.5445455e-21
0001b0 10 4f 83 b0 b7 8f da b7 c2 d9 26 3d b8 3e 25 bc
       -9.553975e-10 -2.6054548e-05 0.040735014 -0.010085754
0001c0 dc 54 26 3d 52 87 84 3c 66 cd 0f 3d 50 0b a8 b9
       0.040608272 0.016177807 0.035107993 -0.00032051886
0001d0 8b 7e 97 3c 1a 46 2d bc 04 1a c3 aa f7 b0 31 bc
       0.018492958 -0.010575796 -3.465701e-13 -0.010845414
0001e0 e4 92 78 3c 8e 9b a1 bb f5 80 cb bd a7 b3 6d ba
       0.01517174 -0.0049318736 -0.09936706 -0.0009067603
0001f0 fa f2 99 3d 34 7b 8b 3c f7 62 34 bd ec 73 b1 3a
       0.07517047 0.017026521 -0.044039693 0.0013538576

act_conv1.weight f4 [4, 128, 1, 1]
000000 ba 82 91 3c dc 00 01 3e 98 9a 01 be dc e4 51 3d
       0.01776253 0.12597984 -0.12656629 0.051243648
000010 48 43 0b 3e 21 b6 d9 bd 7f 6b d6 3a cd d1 e2 39
       0.13599885 -0.106304415 0.0016358941 0.00043262393
000020 8f db cc bd 84 a3 01 3e f9 1d 4b bd da d2 9a 3d
       -0.10002815 0.12660033 -0.04958913 0.07559748
000030 0e 94 84 3d 25 21 cd bc 78 f9 4c bd 4d d8 13 3d
       0.06473552 -0.025040219 -0.0500426 0.036094952
000040 ad 2c b4 3d ce 29 0f 3e 2c b5 87 3b a1 ab 75 bb
       0.08797584 0.13980791 0.0041414704 -0.0037486332
000050 3b ca ab 3d cd 51 9f 3d 06 89 e5 3d 2b d3 82 3e
       0.08388182 0.07779274 0.11207776 0.25551733
000060 c2 8a 00 80 ca 8a 86 bd ab b3 9d ba 6c 05 91 bc
       -4.9777e-41 -0.06569441 -0.0012031695 -0.01770278
000070 22 5d e9 3c 17 62 82 3d 30 68 7e 3b 2d 74 c0 bb
       0.028486792 0.063663654 0.0038819425 -0.005873224
000080 1a 02 89 bd 4b a3 35 3c 14 4c 8c 3e 85 c4 3e 3d
       -0.06689854 0.011086295 0.27401793 0.046574134
000090 0e 10 fa 3d 10 e1 9f bd 1a 96 81 37 c1 88 00 00
       0.122100934 -0.07806599 1.5447895e-05 4.9058e-41
0000a0 61 e9 e7 3d 92 b0 87 3d 56 fb da 3d 9f ce 41 be
       0.1132381 0.06625475 0.1069247 -0.18926476
0000b0 9c 5d 0f be 8c 01 03 3d 1b 98 98 3d 5c 20 3d 3b
       -0.14000553 0.031983897 0.07450887 0.00288584
0000c0 6f cc 19 3e 3b 87 c3 bd 09 3a 8b 3e 18 01 a7 3e
       0.15019391 -0.095472775 0.27192715 0.32618022
0000d0 4b 89 9e 3d b1 e9 e2 bc 57 46 cb 3b ed 99 db bc
       0.0774103 -0.027699323 0.0062034535 -0.026806796
0000e0 f0 b7 4b bd fa e8 82 bd bc 16 83 bd a3 10 ff bc
       -0.049735963 -0.06392093 -0.064008206 -0.031135863
0000f0 c5 d4 b4 bd c0 79 0f bd 3b 70 1f be 4d c6 a3 3b
       -0.08829645 -0.03502822 -0.15570156 0.0049980045
000100 33 71 2a 3e 5c f3 96 3e 96 c1 2b 3b f1 40 13 3e
       0.16644745 0.29482543 0.0026207916 0.14380242
000110 0d 50 f7 3d a9 fc f2 bd c2 36 09 3e 10 08 3f 3e
       0.12075815 -0.11864597 0.13399795 0.1865542
000120 b2 39 e3 bc ff 8c ee bc 2d 31 8a 3c 89 ab 04 3e
       -0.027737472 -0.029119967 0.016869152 0.1295606
000130 eb 81 59 3d b2 89 00 80 09 d8 dd 3c bd 3f a4 3e
       0.053102415 -4.9396e-41 0.027080553 0.32079878
000140 12 c9 72 3b a6 92 92 3d c4 8c 1d 8a 4e 45 1d bd
       0.0037046117 0.07156877 -7.58575e-33 -0.038396172
000150 32 1c 01 be b2 7e ea 3d 4e cc 70 3d 77 3b 64 bd
       -0.12608412 0.114499465 0.05878859 -0.055720773
000160 cb de 98 3d 56 35 ca 3d 06 b4 b6 3d a7 61 8a bd
       0.074643694 0.09873454 0.089210555 -0.06756907
000170 bd 5e 39 3c bb f3 80 bb 4b 56 24 bd 44 4f 9a 3d
       0.011314091 -0.003935305 -0.040121358 0.0753465
000180 6e 1a 18 bc 0f 39 12 3e 37 46 87 3c 6d 53 45 be
       -0.009283645 0.14279579 0.016512973 -0.19270106
000190 a7 06 a7 bc 56 19 e4 3d 8d cd e0 b1 e6 75 b8 3b
       -0.020388914 0.11137645 -6.5426264e-09 0.005629289
0001a0 97 1b 03 be cc d7 03 bd df d6 f2 3d 20 8a 00 80
       -0.12803493 -0.03218822 0.1185739 -4.955e-41
0001b0 b9 1f 1a 37 f6 89 00 80 15 09 d4 3d db 3d 2e be
       9.186501e-06 -4.9491e-41 0.10353295 -0.17015783
0001c0 98 57 15 3d 5d a3 f9 3d 06 df 29 3e cc 98 83 bb
       0.03646049 0.12189362 0.16588983 -0.0040160175
0001d0 15 ee b9 3d 87 28 f2 bc d1 88 00 80 38 74 9a bd
       0.09078614 -0.02956034 -4.908e-41 -0.07541698
0001e0 3e c2 ae bd 68 5d 87 3e 6c 3c 18 bd e1 84 4e 3c
       -0.085331425 0.2643845 -0.037166998 0.012604923
0001f0 77 bb 68 bd 69 07 cc bd 3c 03 1c 3e 96 3f 23 bd
       -0.056819405 -0.09962351 0.15235609 -0.039855562
000200 13 e0 fc 3c 10 97 32 bd f5 67 d7 3d b2 65 2c bc
       0.030868566 -0.043601096 0.10517875 -0.010522293
000210 48 20 ba 3d 9b bd 54 bc f9 f0 1c b9 9a 37 3b a1
       0.090881884 -0.012984659 -0.00014967089 -6.343165e-19
000220 f3 2e 82 be d3 ef 98 3c 7f a3 1f 3c 75 dc 25 bd
       -0.25426444 0.018669045 0.00974357 -0.040493447
000230 6c 9b e6 bc d8 b6 98 bc c9 92 91 3d 2d b3 39 be
       -0.028150283 -0.018641874 0.07108075 -0.18134756
000240 b6 d9 58 be 4a bb dd bd 8e a6 55 bc 8b 34 a6 3b
       -0.211768 -0.10826738 -0.013040198 0.0050721816
000250 cd 12 35 3c ea c8 0c bd 4d 9e 91 3a 86 55 51 3e
       0.011051846 -0.034371294 0.0011109799 0.20442781
000260 f2 89 00 80 71 c6 01 bc 4b 88 45 bc 23 53 da 3b
       -4.9485e-41 -0.007920847 -0.012056421 0.0066627427
000270 99 7f 95 3e db a3 9d bd d0 d5 43 bb 87 c5 f4 3c
       0.29198912 -0.076972686 -0.002988208 0.029879345
000280 0a 5d 41 3d 45 34 38 3d cd 09 d4 3d 73 b3 dc bc
       0.04720787 0.044971723 0.10353432 -0.026941037
000290 3e b2 2f be 36 ab f6 3d b7 05 d8 ac d3 89 00 80
       -0.17157838 0.12044375 -6.1397237e-12 -4.9442e-41
0002a0 e2 7b 69 3c 68 a5 67 be 44 66 30 3d c6 96 b2 3d
       0.014250727 -0.22621691 0.043066278 0.08720164
0002b0 07 66 a6 3e 3e b5 f3 3c 6c 7b 14 bd 05 6b f6 ba
       0.32499716 0.029749509 -0.036250517 -0.0018800205
0002c0 ac 3e da 3d 7e 09 a7 3d 43 ca 8c bc e9 f1 0a 3d
       0.10656485 0.08156107 -0.01718629 0.03392211
0002d0 46 15 d7 bd 18 95 62 34 fe 4f 9b bc 02 f2 5b b3
       -0.105021045 2.110213e-07 -0.018959042 -5.1210016e-08
0002e0 2f 99 24 ae 4c d6 41 3d 17 3c 4c bd c3 f5 80 ba
       -3.7425337e-11 0.04732351 -0.049861994 -0.0009838868
0002f0 85 64 05 3e e9 7b 84 be fc 29 db 3e f5 8b 07 3b
       0.13026626 -0.25875786 0.4280547 0.0020682786
000300 24 b2 0d 3f 01 19 8d bd 56 e4 ce 3d 0e c0 0a 3b
       0.55349946 -0.06889535 0.101021454 0.0021171602
000310 37 26 7b 3d 24 78 c0 3d 45 49 26 3e 40 5d 3e 3e
       0.06131574 0.09397915 0.16238888 0.1859026
000320 61 d5 28 b4 8b 88 a6 3a 8c f4 9a bd 82 ed 0d be
       -1.5723846e-07 0.0012705488 -0.07566175 -0.13860133
000330 ed a4 9b 3e e7 88 00 80 a7 8e 99 3e cc 18 c0 3d
       0.30399266 -4.9111e-41 0.29991648 0.0937973
000340 26 1c ff 3d 42 70 c1 bc 9c 21 7e 83 81 d8 cf 3c
       0.12456541 -0.023613099 -7.4682473e-37 0.025371792
000350 38 c4 e6 3c 77 8a 68 3a af 11 50 bd 05 1d 13 3b
       0.028169736 0.00088707305 -0.050798114 0.0022447717
000360 a5 2c 82 3e 4a 11 9a 3d 8b a3 84 3d 16 bf 9b 3d
       0.25424686 0.07522829 0.06476506 0.07604806
000370 f8 ea 03 3e f2 fe e6 bc 65 14 e0 3c cf 19 d0 bd
       0.12882602 -0.02819774 0.027353475 -0.101611726
000380 31 21 9a 3a 18 a6 81 3d 59 b7 b7 3b c3 ff 7a 3d
       0.0011759159 0.06330508 0.0056065735 0.06127907
000390 a5 09 39 be 45 ca 8c bd f3 88 00 80 ae 73 db bb
       -0.18070085 -0.06874517 -4.9128e-41 -0.0066971397
0003a0 be 23 06 b9 a6 85 64 3e 4a 20 11 bd 02 8b 00 80
       -0.00012792551 0.22316608 -0.035431184 -4.9867e-41
0003b0 26 89 00 80 0c a9 00 00 99 05 75 3d 0b 86 29 3d
       -4.92e-41 6.0643e-41 0.05981979 0.0413876
0003c0 87 b4 d3 3d 0f a2 3c bd 61 27 17 be 73 03 42 3a
       0.10337167 -0.04605299 -0.14761116 0.00074010267
0003d0 a7 d5 c5 bc 8e b7 b4 3d 95 8a 00 80 74 83 64 bc
       -0.024149729 0.08824073 -4.9714e-41 -0.0139473565
0003e0 50 ea 88 3c c2 3b 26 bd f0 77 14 3d d5 fb 5a bd
       0.016713291 -0.040584333 0.036247194 -0.053462822
0003f0 c4 f6 d9 3b 35 dd 62 3d 57 52 e7 3d 1e 7e 17 bd
       0.006651731 0.05538674 0.11295002 -0.03698551

act_conv1.bias f4 [4]
000000 9c 71 ed 3c 96 ca a2 3c 0c 3b 3a bb e2 5e ff 3d
       0.028984837 0.019871991 -0.0028416542 0.12469269

act_fc1.weight f4 [81, 324]
000000 38 51 4c 3d bf dd 2b 3c 58 42 05 3d 6c 4e 72 bc
       0.049882144 0.01048988 0.032533973 -0.014789205
000010 25 3a d5 3c c4 eb ec b5 a5 2c 19 3c 95 da 18 3c
       0.026028702 -1.7651987e-06 0.009349023 0.009329458
000020 87 b4 a2 bc 47 9e 34 3d 11 6f a6 bb 84 89 10 bd
       -0.019861473 0.044096258 -0.005079158 -0.035287395
000030 2e a1 59 bd c5 96 8a bc bf 3f e2 3a c7 e9 f3 bc
       -0.05313223 -0.016917596 0.001726143 -0.02977456
000040 ed 41 f9 bc c8 d2 85 bc ec d5 dc 3c 9f 28 cb 3c
       -0.030426944 -0.01633586 0.026957475 0.024799643
000050 c9 e9 09 bd bb 1a 85 bd da 35 d5 bc 42 24 95 bd
       -0.03367022 -0.06499239 -0.026026655 -0.07282306
000060 6a 9e 3a 3d 48 be 4a 3c 32 ba cd bc 63 2b ba 3c
       0.04556123 0.012374468 -0.025113199 0.022725767
000070 1a 68 df bc a2 7c fa bc 21 64 d2 bd 3e 97 f8 bc
       -0.02727132 -0.030577008 -0.10273004 -0.030345555
000080 d0 fe 70 bc 5c 9e 88 bd a1 75 c4 3c fc 82 88 bd
       -0.0147091895 -0.0667083 0.023981871 -0.06665608
000090 34 df 94 bb 41 b3 14 bc ce 6b 9a bd 74 e7 a4 bd
       -0.0045432094 -0.009075941 -0.07540093 -0.08051959
0000a0 50 45 14 bd 01 0e 2b bd dd 67 b6 bd b7 37 13 bd
       -0.036198914 -0.041761402 -0.08906529 -0.035941806
0000b0 af 06 9d bc 0a 8f 59 3d 82 2e b7 bd 28 c1 1c bd
       -0.019168226 0.05311493 -0.089444175 -0.038270146
0000c0 79 8a 80 bc f7 16 36 be 12 e3 9a bc 35 79 3b bd
       -0.015691029 -0.17782198 -0.018907104 -0.04576989
0000d0 03 66 4f bd 39 61 7b bc 03 3d cc 3d 97 d0 3b 3b
       -0.050634395 -0.015343004 0.099725746 0.0028658265
0000e0 be 4c 70 bd 42 e5 ff bd f3 3f e6 bc 56 fc ec bc
       -0.058666937 -0.12494899 -0.028106665 -0.028928917
0000f0 37 97 8d bc 33 b6 69 bd 10 ed 71 bd d4 78 97 3e
       -0.017284019 -0.057058524 -0.05906397 0.29584372
000100 5d e9 cc bd ca 45 47 bd c6 ff 33 bd 7f 2e d9 bd
       -0.10005448 -0.04865054 -0.043945096 -0.106045716
000110 7e c6 88 bc dd a2 ed bc e6 60 8b 3b 76 13 02 3c
       -0.016696211 -0.029008323 0.0042534946 0.00793921
000120 d5 35 a7 3e 0f 79 98 3e b9 34 72 bd bc 33 12 bb
       0.32658258 0.2977986 -0.05913231 -0.0022308668
000130 e5 b7 90 bc 35 67 90 bb 13 1a 8c bc 5e a2 e1 3c
       -0.017665813 -0.0044068345 -0.017102277 0.027543243
000140 13 18 6d 3c 6d df 2a bd dc 2c 16 bd 1f 1e 21 bd
       0.014471072 -0.04171698 -0.036663875 -0.039335366
000150 7b f5 32 3c e8 02 81 bc 46 63 85 bd 5a 05 80 bd
       0.010922785 -0.015748456 -0.065130755 -0.06251021
000160 41 36 ac bb 31 d1 37 bb 20 be 40 bd 4e a9 52 bd
       -0.005255491 -0.0028048272 -0.047056317 -0.051430993
000170 57 e1 63 bc a0 af 5c bb 4f 61 06 3d cf f2 36 bc
       -0.013908706 -0.0033674017 0.032807644 -0.0111662885
000180 bb 3a ea bc 1e f3 f2 3c 35 d7 e9 3c 0d 01 50 3d
       -0.028592458 0.029656943 0.028545002 0.050782252
000190 d9 15 17 3d de 96 08 bd 8a 19 58 3a 98 38 71 3d
       0.03688607 -0.033347003 0.0008243552 0.058891863
0001a0 d5 9f 84 3c ee 30 8f ba ac 8c 10 3b 4f a1 fb 3c
       0.016189495 -0.0010924616 0.0022056503 0.030716566
0001b0 2d e6 3f 3d 3c 5b 06 bd f2 9a 88 bc 18 26 bc bc
       0.046850372 -0.03280185 -0.016675446 -0.022967383
0001c0 69 49 16 bd fc 64 41 bd 55 ec bd 3c 62 6f f1 bc
       -0.036691103 -0.047215447 0.023183981 -0.029472057
0001d0 99 a2 97 bd 20 17 d2 bc 38 24 4f bb 02 81 20 bd
       -0.0740406 -0.025645792 -0.0031607281 -0.03918553
0001e0 37 28 5c 3d fb c1 8b bb 57 26 98 3b 2e 89 d7 3c
       0.05374929 -0.0042650676 0.0046432423 0.02631053
0001f0 00 9d 16 3d 17 0d 94 bc d3 23 68 bd 99 f5 a4 3c
       0.03677082 -0.018072648 -0.05667479 0.020136641
000200 d3 8a 16 3e 3b 38 3d bc e9 1f b8 ba 99 ab 8f bc
       0.14701395 -0.011549051 -0.0014047596 -0.017537879
000210 ff 03 85 bc dd fc 75 bb 95 f6 4d 3d ca 6b 26 bd
       -0.016237257 -0.0037534751 0.050283987 -0.04063014
000220 cb 71 61 3d 19 c5 2a 3d fd 9b a3 3d 60 f6 45 bd
       0.055040162 0.041691873 0.07988737 -0.048330665
000230 03 a6 70 bb 6a 30 3d bd 3f 28 04 bd 4c e3 1d 3c
       -0.0036720044 -0.04618875 -0.032264944 0.009636711
000240 c0 91 6a be 67 88 34 3c 9c 49 8d 3d 60 29 98 bc
       -0.22907162 0.011018849 0.068988055 -0.018574417
000250 04 dd 6d 3c b8 e7 8f 3c e9 69 90 bb 4c 0f 12 bd
       0.014518026 0.017566547 -0.0044071567 -0.03565912
000260 f8 04 f8 bc e5 6d 8a be 4f ae 62 bd fe 41 5a ba
       -0.030275807 -0.27036968 -0.055342015 -0.00083258736
000270 f0 d3 64 3d 13 65 d9 3b 48 c8 9c 3b 74 4d 84 3a
       0.05586618 0.0066343634 0.0047846176 0.0010093884
000280 2e 82 4a bd f6 87 a2 3c 66 89 00 80 c6 89 00 00
       -0.049440555 0.019840222 -4.9289e-41 4.9424e-41
000290 a2 89 00 80 98 89 00 00 0d 89 00 00 36 8a 00 80
       -4.9373e-41 4.936e-41 4.9165e-41 -4.9581e-41
0002a0 c5 88 00 80 45 89 00 80 18 89 00 00 8e 89 00 80
       -4.9064e-41 -4.9243e-41 4.918e-41 -4.9345e-41
0002b0 5c 8a 00 00 15 99 0a 00 9b 62 91 8c 74 9c 12 81
       4.9634e-41 9.7327e-40 -2.2400133e-31 -2.6928214e-38
0002c0 a4 82 16 85 11 89 00 80 22 89 00 80 6a 89 00 80
       -7.076961e-36 -4.917e-41 -4.9194e-41 -4.9295e-41
0002d0 bd 88 00 00 07 a9 12 03 45 8d 6d 10 40 fd 27 17
       4.9052e-41 4.3099578e-37 4.684884e-29 5.4280257e-25
0002e0 46 32 40 15 65 b2 d8 8e 88 6b 0c 0b ad ed 6a 81
       3.881375e-26 -5.34199e-30 2.7043917e-32 -4.3149536e-38
0002f0 1c 8a 00 80 05 89 00 80 9b 11 c4 0a a4 6a 94 0a
       -4.9544e-41 -4.9153e-41 1.8880736e-32 1.4291995e-32
000300 e9 3e c8 1c 4a cc c1 0f 8c 9f 50 8f ed 19 40 86
       1.3251152e-21 1.9109959e-29 -1.02859194e-29 -3.6130234e-35
000310 d1 89 00 80 66 89 00 80 c1 a2 00 00 d4 a1 2b 03
       -4.9439e-41 -4.9289e-41 5.8385e-41 5.0438153e-37
000320 a9 7c 26 8c 85 e9 b4 1c 55 9b 0e 87 a4 3f 4c 86
       -1.2825688e-31 1.1971764e-21 -1.0728541e-34 -3.841489e-35
000330 d5 89 00 80 d2 89 00 00 a6 89 00 00 76 89 00 00
       -4.9445e-41 4.944e-41 4.9379e-41 4.9312e-41
000340 b3 e6 5b 85 af 12 05 0a 58 f3 29 17 f4 42 9a 0a
       -1.0339703e-35 6.407231e-33 5.491399e-25 1.4854846e-32
000350 87 47 00 80 21 89 00 80 37 89 00 80 3a 89 00 00
       -2.5659e-41 -4.9193e-41 -4.9223e-41 4.9228e-41
000360 1e 89 00 80 2b ea 01 00 f3 6d 09 80 87 f3 ce 17
       -4.9188e-41 1.75839e-40 -8.65962e-40 1.3373913e-24
000370 a8 4f 01 00 23 8a 00 80 cd 89 00 80 f9 88 00 00
       1.20411e-40 -4.9554e-41 -4.9434e-41 4.9137e-41
000380 6e 89 00 80 bc 89 00 00 e4 89 00 00 e4 89 00 80
       -4.93e-41 4.941e-41 4.9466e-41 -4.9466e-41
000390 22 8d 01 00 93 89 00 00 57 89 00 80 53 8a 00 80
       1.42464e-40 4.9352e-41 -4.9268e-41 -4.9621e-41
0003a0 08 89 00 80 4c 89 00 00 e6 88 00 80 b9 88 00 00
       -4.9158e-41 4.9253e-41 -4.911e-41 4.9047e-41
0003b0 d4 88 00 80 f8 88 00 80 df 88 00 80 33 89 00 80
       -4.9085e-41 -4.9135e-41 -4.91e-41 -4.9218e-41
0003c0 64 89 00 80 fc 88 00 00 cb 88 00 80 bd 2c a1 3d
       -4.9286e-41 4.9141e-41 -4.9072e-41 0.07869861
0003d0 b6 4e 52 3d f8 2c 4a bc bf 0d 8d 3c 5a 85 b3 3c
       0.051344596 -0.012339823 0.017218469 0.021914173
0003e0 6e 91 02 3d ec d2 1c b8 d1 f3 f9 3c be 03 73 3d
       0.031876974 -3.7389735e-05 0.030511769 0.05932974
0003f0 7e cc ce 3c b8 9c 4a bc 54 a8 87 3b dd 3f 1b 3d
       0.025243994 -0.012366466 0.0041399393 0.0379027

act_fc1.bias f4 [81]
000000 d9 b3 c4 3d 94 ce 39 bc 9d 80 21 be 04 a4 cb 3d
       0.09604616 -0.011340756 -0.15771718 0.09943393
000010 59 2d e0 3d 27 3a c5 3d 97 7f d3 bd f5 01 8f bc
       0.109461494 0.09630232 -0.1032707 -0.017456988
000020 03 16 97 3d 70 8b 30 bc 53 33 92 bd 25 f7 e0 3d
       0.07377245 -0.010775432 -0.071386956 0.10984639
000030 15 e5 4b 3d c3 90 74 3e e0 f7 80 3d fa b8 b1 3d
       0.049779017 0.23883347 0.062972784 0.086778596
000040 a8 5c 27 be f5 b9 b0 bc f6 33 12 be 85 56 10 3e
       -0.1634394 -0.021573046 -0.14277634 0.14095505
000050 49 b8 a1 bb 6a a6 59 3e a1 5b 9a bd 45 eb 32 3e
       -0.0049352986 0.21254888 -0.07537008 0.1747256
000060 7c eb 18 3b 41 1c 14 3e 22 27 c6 bd 6a 2d 84 3d
       0.002333372 0.14463903 -0.09675433 0.064539745
000070 96 ce 08 3d f5 15 f0 3d 77 3a eb 3d 54 c3 4c 3e
       0.03340014 0.11722938 0.11485761 0.19996387
000080 a0 20 af 3d 70 5c 2b 3e a9 45 18 3d 14 28 bc 3d
       0.085511446 0.16734481 0.037175808 0.09187332
000090 e5 05 af 3d 65 e5 44 3e af 23 dd bc c5 01 75 3e
       0.08546046 0.19228132 -0.026994554 0.23926456
0000a0 a9 a2 5b bd 69 ff 8d 3e 9b 0f 9d bd 6c b5 5b 3e
       -0.05362192 0.27733925 -0.07668992 0.21455926
0000b0 2a 28 a2 3d 2d fb 88 3d 1d 1b 32 3d 27 cf 11 3e
       0.07917817 0.06688533 0.04348289 0.14239179
0000c0 b0 9d c4 3d 45 4f 6c 3e 40 3e 70 3d a7 0d 48 3e
       0.09600389 0.23077114 0.058653116 0.19536458
0000d0 1d 23 10 3c 42 9d 81 3d 8b ea 12 be 92 7f 09 3e
       0.008797434 0.06328823 -0.14347284 0.1342757
0000e0 fc a2 8d 3d b5 7a 60 3e 86 31 aa bd ec e0 01 3e
       0.069158524 0.21921809 -0.08310227 0.12683457
0000f0 e6 12 c0 bc 2c 6a 1b 3e af f9 da bd 58 ad 62 bd
       -0.023446511 0.1517722 -0.106921546 -0.055341095
000100 aa 84 fc bd 33 b5 08 3e bc 7a 1f 3d e2 a3 1e 3e
       -0.12329991 0.13350372 0.038935408 0.15492204
000110 53 bf bb 3c c2 d9 07 3e 28 9a 0a be 3b c9 98 bc
       0.022918379 0.13266662 -0.13535368 -0.018650642
000120 9f 1d 0c 3d 8e 40 78 bd 22 e9 10 be 09 a0 bc 3d
       0.034207936 -0.06060844 -0.14151433 0.09210212
000130 75 79 64 3d d9 c0 9c 3d 13 ed fc bd d6 2e a6 bc
       0.055779893 0.0765397 -0.12349906 -0.020286005
000140 c1 7b a6 3d
       0.08129073
