课程设计/AlphaZero简单复现/models/policy_batch_1350.model (torch, 530639 bytes, 15 tensors)

conv1.weight f4 [32, 4, 3, 3]
00000000: e9c8 543e 993f 93bd 89d6 863e 9f11 29bd
00000010: b2d7 74bd 875d 94bd e2ff b43e 0041 40be
00000020: 993d da3e bc0c 4a3e dc63 a0bd 5863 4d3e
00000030: 1a87 2bbd 48f6 b6bd 815f aabd 28c0 6b3e
00000040: a484 fcbd 2b80 6a3e 6b2e 113d 4417 35bd
00000050: c398 243d 15d8 29bd 62b9 dbbc d948 53bd
00000060: 7c52 d23c 8b42 43bd 121a 8e3d 4310 ee3b
00000070: e3cd 933b 022a cfbc 3564 c2bd a995 ec3d
00000080: d939 8ebb cb7d 5a3c 81cf 203d 59a7 a3bc
00000090: da65 ac3e b32f 913e dbd8 dabe 6c2a 353e
000000a0: 46bb 8cbd 3c43 a13e bdb9 88be 8fe6 0c3e
000000b0: a7a7 3f3e 093d 563d 8792 ba3c 56b0 203b
000000c0: 4759 28be 6962 5dbd 937c 91bd e43b 413e
000000d0: 2429 b3bd f594 0b3e b547 0fbd d94d 2cbd
000000e0: e09d 563c d181 56bc 1a63 a2bd a5c7 ad3c
000000f0: 3941 933d aa43 413c 438b 033b ee74 823b
00000100: bf7f 15be f975 863d 8d21 21be cae2 963d
00000110: 72ae 03be 1746 113e 3240 36bd e096 373e
00000120: c5b6 743e c75e 4a3e 635d 23bd 3666 abbe
00000130: fa62 87bd 3b1c 80be fb85 da3d 114d 6b3e
00000140: d339 8cbe fc93 f2bd 5f80 44be 22f3 59bd
00000150: b2a4 9c3e 9085 493e eadd 063e 3233 103e
00000160: 307a 78be 7fc3 c03d b82a eb3c b6d1 6abd
00000170: 3d49 103d 8f90 103c 909e 313d fc5e 5c3d
00000180: f615 62bb fe6a ebbd 069f 5a3d 287f 16be
00000190: de88 de3d 3b4e 6d3d 589c 7f3b 7db4 653d
000001a0: 75ee 553d 89a1 173d a314 0b3e 7e1b 31be
000001b0: cfa5 303d 4d11 f2be 35a5 b93e 5904 bfbd
000001c0: 398a db3e 74be c9be 1ba3 883d ae2e 83bb
000001d0: b1db cb3d 3d69 e33d f3df 083e 0df7 83be
000001e0: 030e 133e 243b 51be 0a17 123e ed21 c9bd
000001f0: 0532 a73d 2b07 193e 7baa ce3c 3bb4 2f3d
00000200: ebe8 57bd b46c 88bc 28d6 e0ba c4e5 393d
00000210: 95f9 8dbd 9f89 f6ba d45f c13d 236d a43d
00000220: 1b85 57bd 49c9 c53d b29b 153e 096d caba
00000230: 69e4 babd 3613 c1bd e310 a4bd 2ca3 073e
00000240: 51a6 55be bc95 a1bd e182 6abd 48ef 8b3d
00000250: 6588 5f3e e341 dc3d 1a9f 27bd 1f39 38bd
00000260: 3b56 6b3e ff3a 02be b756 f4bb 1fd8 25be
00000270: 41b4 353e aad1 63bd 1996 b3bd 46b5 873c
00000280: 4e06 20bd 3e99 0fbe 1238 cbbc fec5 9b3d
00000290: 55e0 eb3d 76bd 5c3e 6059 74bd 7ef9 91ba
000002a0: 0148 f4bb c103 71bc 6a54 00be 8b4d 893d
000002b0: 320d a23d 3062 ea3d 2bd1 033e 3c27 ba3d
000002c0: 22e8 cc3d 04e5 143e 8ead 163e c130 ec3d
000002d0: 7379 823e aea5 403d d31c 9fbd cd92 9ebe
000002e0: 6d97 cd3e 8f73 923e c79d a93e 2dd3 f33a
000002f0: 36dc b9bb a204 003e a2cb 66bd 1935 06be
00000300: c08e febe 579b 673e f68b e63d df50 0a3e
00000310: f592 12be d1c3 d0bd b71f c83d d55c 9b3d
00000320: f379 6dbb b0bf 04bc acc3 013e 0fd1 843d
00000330: 663e 8a3d c4ef a73d 11a6 8cbb 1dfc a53c
00000340: 5248 043d 8551 da3d 45df 113e 2263 06be
00000350: 59f3 acbd 103d a2bc 79a6 79bd 595c 263e
00000360: bf76 47bd d5bc 3dbd bae2 8ebd d398 88bc
00000370: 938a 38bd a7c9 33be 6600 2a3c a624 b6bc
00000380: 090d 733e 08d9 7dbc 2395 293d 5214 cf3d
00000390: 7e3a 56bd f85a f33e b8ea e7be 03a4 553d
000003a0: 3c1c 0abf afe5 943e 3142 1b3d fb5a 583d
000003b0: 5e7b 6a3d d35b 9d3d df42 263e feb0 2fbe
000003c0: d682 b73d 9bb1 eebd e474 3d3e 0ef2 593c
000003d0: a1c2 fd3d 199f ec3d 0962 0e3b fd6d 95bd
000003e0: 63b5 12bc 9416 06be df84 f3bc be6f 5dbd
000003f0: 59f6 44be 2aa4 e73d 9ba8 8f3e a105 57be
0.20779766 -0.07189865 0.26335552 -0.04127657 -0.059776016 -0.072444014 0.35351473 -0.18774796
0.4262512 0.1973142 -0.07831547 0.20057428 -0.04187689 -0.08933693 -0.08318997 0.2302252
-0.12329987 0.22900455 0.03544466 -0.04421164 0.040184747 -0.041465838 -0.026821796 -0.051583145
0.025674097 -0.047670882 0.06938566 0.007265122 0.0045106276 -0.025288586 -0.09491769 0.11551983
-0.004340392 0.013335655 0.03926039 -0.019977259 0.33671457 0.28356704 -0.42743573 0.17691964
-0.06871657 0.31496608 -0.26704207 0.13759826 0.18716298 0.0523043 0.022774948 0.0024519167
-0.16440307 -0.05404893 -0.07103839 0.18870503 -0.08748081 0.13631041 -0.034980495 -0.04206643
0.013099164 -0.013092474 -0.079290584 0.021213362 0.071901746 0.0117959175 0.002007202 0.0039812243
-0.14599513 0.0656547 -0.15735455 0.07367475 -0.12859514 0.14186893 -0.044494815 0.17928648
0.23897846 0.19762717 -0.039883982 -0.33476418 -0.06610675 -0.25021538 0.10670086 0.22978617
-0.27387866 -0.11844632 -0.19189595 -0.053210385 0.30594403 0.19679856 0.13170591 0.1408203
-0.24265361 0.09412288 0.028706893 -0.057328902 0.035226095 0.008823528 0.043364108 0.05380152
-0.0034497953 -0.114950165 0.053374313 -0.14696944 0.10865949 0.057935935 0.00390031 0.05608033
0.052229363 0.037019286 0.13582091 -0.17295644 0.043126877 -0.47278824 0.36258855 -0.09327001
0.42878893 -0.39403117 0.06671735 -0.0040033674 0.09954012 0.11104057 0.1336668 -0.25774422
0.14360814 -0.20432717 0.14266601 -0.09820924 0.08163837 0.1494414 0.025227776 0.04289649
-0.052712362 -0.016653396 -0.0017153667 0.045385137 -0.069323696 -0.0018809325 0.09442106 0.08028629
-0.052617174 0.09657533 0.14610174 -0.0015443872 -0.09125597 -0.09427492 -0.080110334 0.13245839
-0.20864226 -0.07889888 -0.057253722 0.06832749 0.21829374 0.107547544 -0.040923215 -0.04497635
0.22982113 -0.12717818 -0.0074566263 -0.16195725 0.17744543 -0.055619873 -0.08768863 0.01656593
-0.039068513 -0.14023301 -0.02480701 0.076061234 0.11517397 0.21556649 -0.059655547 -0.0011136977
-0.0074548726 -0.014710368 -0.12532201 0.06704243 0.07912673 0.11444509 0.1287276 0.090895146
0.10005213 0.14540488 0.14714643 0.115327366 0.25483283 0.047033004 -0.0776917 -0.30971375
0.4015459 0.2860379 0.33128187 0.0018602364 -0.005672003 0.12501767 -0.056346543 -0.13106193
-0.49718285 0.22617851 0.11257164 0.13507412 -0.14313872 -0.10193599 0.09771674 0.07586066
-0.0036236017 -0.0081023425 0.12672299 0.06485187 0.06750183 0.082000285 -0.0042922576 0.020261819
0.032295533 0.1066008 0.14245327 -0.13123754 -0.084448524 -0.019804507 -0.060949776 0.16246165
-0.04869723 -0.046322662 -0.069768384 -0.016674435 -0.04505403 -0.17557393 0.010376072 -0.022234272
0.23735441 -0.015493639 0.041401993 0.10111298 -0.052301876 0.4753034 -0.45296264 0.052158367
-0.5394933 0.29081485 0.037904922 0.05282114 0.05724656 0.0768353 0.16236447 -0.17157361
0.08960502 -0.11654969 0.18501621 0.013302339 0.12390638 0.11553783 0.0021725914 -0.07296369
-0.008954379 -0.1309455 -0.029726444 -0.054061644 -0.19234599 0.11310609 0.28058323 -0.20998241

conv1.bias f4 [32]
00000000: 19d4 b4bd 7b20 093e 400b 1a3e a668 a33c
00000010: fb4a 03be cade 853c 13ae 493c b976 f13d
00000020: 880a 963d 6b4f abbd d88b a53e d74b 77bc
00000030: ed5f 05be fc36 54bc 92c9 373c b885 843e
00000040: c430 20bd b6e1 833e 3db3 0cbc 3028 da3c
00000050: 3c13 933e 397f a3bc 6609 6bbd 45e8 dc3c
00000060: 86f3 85bc aec4 4a3e 8ccd 8b3e e7c3 80bb
00000070: 9e07 12bd d66f c0bd 57d6 043e a36d 08be
-0.08829517 0.13391297 0.15043354 0.019947361 -0.12821572 0.016341586 0.012309569 0.11790223
0.073262274 -0.08364757 0.32333255 -0.015093765 -0.13024874 -0.012952562 0.011217492 0.2588327
-0.039109007 0.2575814 -0.008587656 0.026630491 0.28725612 -0.019958125 -0.05738201 0.026966223
-0.016351473 0.1980159 0.27305257 -0.0039296034 -0.035651796 -0.09396331 0.12972389 -0.13323073

conv2.weight f4 [64, 32, 3, 3]
00000000: b391 db3d 8b09 0c3e f9cd 1d3e c7ae 093e
00000010: f1d5 88bc bb71 1b3e 7b6b 3ebc e279 8f3d
00000020: eafb 2c3d 7263 093e ace7 f6bd 8a95 2dbd
00000030: c02f 04bc 75dd aebc 2f05 2abe 5f3c 473b
00000040: 8771 853d d19c 223e 9d35 8ebb 9247 133c
00000050: 1e18 e23d 3e93 7fbd 9efc fb3c b122 68bc
00000060: f7c2 26bd 2822 b7bd 7008 40bd c4f1 5c3d
00000070: 2e95 a43d 62fd 303b 08ac 103d cf0e d7bd
00000080: 2b91 cd3d 39c2 1abe 3c18 f63d 5432 18be
00000090: 8220 043d 7866 673c 540c e03c f9bc 8a3c
000000a0: c9d3 913b 276a fa3c b0db dbbc 42bf 493c
000000b0: 34b6 413d 1fd5 77bd 499b f6bb 84da e8bb
000000c0: 792d 493d 91ae d03d 0d85 adbd f42e 6dbd
000000d0: 49a1 88bc e89c 21be f6dd 9e3d 0d94 e63b
000000e0: 1bf6 97bc 8caf 0abe 6a2f 253d 4aad 803d
000000f0: a74b 8dbc 51de 0a3e 598d f73c d4e7 98bc
00000100: 6dca 07be a4ea 873d 1ae2 c13d 343a cf3d
00000110: 09d5 4dbe 8f1a 713e 4809 123d 16c4 f0bd
00000120: 6f64 28bd 011b 9b3d 0eab 81bd f827 ae3d
00000130: e69c 913d 9745 3dbd c853 abbd afee db3d
00000140: 1e52 f53d 4b05 17bd 8e1d a93d ea75 e83b
00000150: f210 74bd db2b 7abd bef4 ec3c 2a0c 44bd
00000160: ca2a 033d f1fd 733d 2708 c73c cc0b a6bd
00000170: 70c9 083d fd03 c33d 52db 4cbd e221 82bd
00000180: e712 563d 093a b73d 9c0e df3d 583e 21bc
00000190: 6167 a2bd d373 713d 66d3 733d dfbb 1e3d
000001a0: 4791 d83d c1fe 35bd 7075 9cbc 385b 483c
000001b0: 5381 c6bc 4d4a 3abd c677 c8bc 8373 0c3c
000001c0: ccff d2bd 96e7 823d df22 efbd 49e4 863c
000001d0: 80f5 a03d 4a7b 77bd 12b4 42bb 101d 583d
000001e0: 93df 443e 6f90 23bc 480d 3fbd d410 263e
000001f0: 1262 aebd 1450 f53d 55bf 01bd 6711 563e
00000200: b1ca 1b3e d1a6 08bd deef b13d 7b7e 9d3d
00000210: 3eb2 f5bc 5b6a 46be e479 b1bd 51af 83bc
00000220: 9e45 693d 838c 633c 1d99 a938 379e 05bd
00000230: 56c1 dd3d 994f abbd 6e09 703d b3c3 b43d
00000240: 698d a6bd f110 92bd 2118 e3bd 25dc 13bd
00000250: 18da 4f3d 017a 2e3c 729b 473d 4f06 5a3e
00000260: f80e 143e 1e82 793d 1250 7d3d a0bb 5cbd
00000270: 98a9 8f3c a4bd 17bc 2f05 75bd cc3a 3d3d
00000280: 12fb c6bb aa3e 313d ac46 a8bc e564 753d
00000290: 97ee 0ebd 9914 303e fde5 283e b54c 51bd
000002a0: 324a 21bd abaf 1aba 9187 00be 1c36 dcbd
000002b0: 9a6b 233d bf34 2e3d 3d45 653d e2a7 01bd
000002c0: 62f7 17bc 3890 833d 799a 38bc a632 48be
000002d0: 1fd0 9fbd 3c5f 1ebd b49a 32bc 7ba6 b73d
000002e0: b9b9 d2bd 965f dbbd f6e5 6d3d 3f99 75bd
000002f0: 8ad8 ef3c 2225 4f3e 6078 2a3e 9775 f13d
00000300: da11 7d3c 69a8 7bbd e8da a1bd 8e4a 53be
00000310: 0e28 d5be bf45 8c3d b6e7 e53d 1e73 65bb
00000320: 8266 1c3c c77b 4c3d 60f6 9fbc df7d 253d
00000330: 9351 c0bd 0815 4dbd 6fae 873d 8b40 e9bb
00000340: b057 d93d cf4e 8ebd 47d3 57bd b988 b33d
00000350: e565 5a3d 9e06 c7bd 8225 613d 41e9 38be
00000360: cd37 233d 5a14 3a3e 4128 1fbb 7a1e fa3d
00000370: c8e3 183d 5a16 9dbd b92b 7b3d 59a6 e6bd
00000380: 5bc2 f6bc c31d 77bd 9e27 313c 5915 05bd
00000390: 5ab3 13be 6738 5c3b 9390 0f3e 0053 3bbe
000003a0: cf7b 693d 9b02 773e edc6 9fbd edc6 793d
000003b0: 8aee 38bc b260 4d3d 5787 bfbc 5b79 0dbc
000003c0: 25db a8bd 0a22 6abe 3f16 bf3d 05da d13b
000003d0: 373e 3bbd fddf 2dbd 9e58 963d 52c4 e0bc
000003e0: 0ffc 163d f56d c53d 7af5 8f3c d451 a73d
000003f0: f8de b13b e0fb 253d c17e 9dbc 0885 80bd
0.10721149 0.13675515 0.15410604 0.13445579 -0.016703578 0.15180103 -0.011622305 0.07005669
0.04223243 0.13416842 -0.12055907 -0.04237894 -0.008068025 -0.021345833 -0.1660354 0.0030400974
0.06515794 0.15880133 -0.0043398873 0.008989232 0.11039756 -0.06239628 0.030760106 -0.014168427
-0.040713277 -0.08942062 -0.046883047 0.053941503 0.08036266 0.0027006497 0.03532031 -0.105008714
0.10037454 -0.15113153 0.12016341 -0.14862949 0.032257564 0.014123552 0.027349629 0.016935812
0.0044502956 0.030568196 -0.026838154 0.012313666 0.047292903 -0.060505982 -0.0075258357 -0.007106127
0.04911563 0.10189546 -0.08472643 -0.057906106 -0.01667847 -0.15782511 0.077571794 0.007036692
-0.01854997 -0.13543528 0.04032842 0.06283052 -0.017247988 0.1356137 0.030218767 -0.018665232
-0.13260813 0.06636551 0.094669536 0.10118523 -0.20100798 0.23545288 0.035653383 -0.117561504
-0.041111406 0.0757351 -0.06331454 0.08503717 0.07110004 -0.046208944 -0.083655894 0.10738885
0.11978553 -0.036870282 0.0825759 0.0070941346 -0.059586473 -0.06107698 0.028925296 -0.047863163
0.03202323 0.05956835 0.02429588 -0.08107719 0.03339523 0.09522245 -0.050013848 -0.06354119
0.05226412 0.08946616 0.108914584 -0.009841524 -0.07929874 0.05894835 0.059527777 0.038753387
0.105745845 -0.044432405 -0.019098967 0.0122287795 -0.024231588 -0.045481015 -0.024471175 0.008572462
-0.10302696 0.06391828 -0.11676573 0.016466277 0.078593254 -0.060420312 -0.002970938 0.05276209
0.19225912 -0.009983166 -0.046643525 0.16217357 -0.08514799 0.11978164 -0.03167661 0.20905076
0.1521404 -0.033362214 0.08688329 0.0769014 -0.029992219 -0.19376509 -0.08665827 -0.016074808
0.056951158 0.013888481 8.0870675e-05 -0.03262159 0.108278915 -0.083647914 0.058602743 0.08826389
-0.081324406 -0.071321376 -0.110885866 -0.036098618 0.0507451 0.010649205 0.04873223 0.21291469
0.14458835 0.060915105 0.06184394 -0.05388987 0.017536923 -0.009261522 -0.059819397 0.04619865
-0.0060724104 0.04327265 -0.020541511 0.059910674 -0.034895506 0.17195357 0.16493984 -0.051098544
-0.0393774 -0.00059008104 -0.12551714 -0.10752508 0.03989754 0.04253077 0.055974234 -0.031654246
-0.009275289 0.06423992 -0.011267298 -0.19550571 -0.07803368 -0.03866504 -0.010901142 0.089673005
-0.1028933 -0.10711591 0.058080636 -0.0599606 0.029278059 0.20229009 0.16647482 0.117900066
0.015446151 -0.061439905 -0.07903081 -0.20633909 -0.41632122 0.068492405 0.11225836 -0.0035011242
0.009545924 0.04992273 -0.01952666 0.040403243 -0.09390559 -0.050068885 0.066250674 -0.00711829
0.10612428 -0.06948625 -0.052691724 0.08766312 0.05331983 -0.09718059 0.05496741 -0.1805773
0.039848138 0.18171826 -0.0024285468 0.12212844 0.037326604 -0.07670279 0.061320994 -0.11262197
-0.030121973 -0.060331117 0.010812668 -0.03249106 -0.14423886 0.0033602954 0.14019994 -0.1829338
0.05700284 0.24122088 -0.07801614 0.060980726 -0.011287341 0.050141044 -0.023379965 -0.00863489
-0.082449235 -0.22864547 0.09330415 0.006404164 -0.04571363 -0.04244994 0.07341121 -0.027437363
0.036861476 0.09640113 0.017573107 0.08169904 0.0054281913 0.04052341 -0.01922548 -0.06275374

conv2.bias f4 [64]
00000000: 636e 65bd 7b75 983d 94ac aabc 8e08 3fbd
00000010: ef69 e63d ad6c 3bbd 95a0 1b3c b9bb cdbb
00000020: 034b 813c 36bf 58bb 082b 133d 2026 a0ba
00000030: da95 713d e2c7 173d ad25 2ebd cad3 fa3c
00000040: e798 053d 2a2a f9bc 2518 d03c 8ff7 c23d
00000050: ad27 983b 3ad9 3f3d cfa8 583d 63e6 83bd
00000060: 8e69 0c3d 4ad4 2d3d 7a3c a03c 0cf3 b13d
00000070: 187f cc3c 552a 3d3d 11a0 483d 7870 153d
00000080: 4b53 d03c 6e3e f3bb 334c fabb 3404 f1bc
00000090: d640 0c3d ce23 de3b 2a26 8c3d f440 e73d
000000a0: f072 cd3d 3308 cdbc 9dba 96bd 8a1d 8ebd
000000b0: cb09 3c3d 464c e1bc ae8d d8ba adc1 6dbb
000000c0: d12f 7b3d a921 27bc e6d9 a23c 05ed e1bb
000000d0: 7070 733d 958c a53d 0433 8c3b c734 183d
000000e0: 2dde 3d3c f9ec b8bc 1757 be3c f891 68bc
000000f0: 4965 2d3d d6a4 1ebd 2500 39bd dc05 733b
-0.056013476 0.074442826 -0.020834245 -0.046639018 0.11250674 -0.04575794 0.009498735 -0.006278482
0.015782839 -0.0033072955 0.03592971 -0.0012218393 0.0589808 0.037055857 -0.0425164 0.030618567
0.032616522 -0.030415613 0.025402138 0.09519874 0.0046434016 0.046838023 0.052895363 -0.06440427
0.034280352 0.042438783 0.019560087 0.08688936 0.024962947 0.04618295 0.048980776 0.03648421
0.025430342 -0.0074232137 -0.007638478 -0.02942095 0.03424152 0.0067791706 0.06843217 0.11291686
0.10031688 -0.025028324 -0.073598124 -0.06939228 0.045907777 -0.02750219 -0.0016521716 -0.003627877
0.0613249 -0.010200896 0.019879293 -0.00689471 0.0594334 0.080834545 0.0042785425 0.037159707
0.011588615 -0.022573935 0.023234887 -0.014194958 0.04233292 -0.03873142 -0.045166153 0.003708235

conv3.weight f4 [128, 64, 3, 3]
00000000: 25b3 f8ba d484 20bd 3080 593c 7475 61bd
00000010: 539f 59bd 3b1a df3b a8ad 373c d827 42bd
00000020: caff 993d e925 153d 5098 9abc 8a8a 6a3a
00000030: dcbe fb3b f4d0 063a 8b4b b93c 2d69 8e3c
00000040: 0579 c1bc 9ea7 773c 435c 533b dd4e 89bd
00000050: 113b 28bd e51e c0bc 7bf7 693d 93d4 753c
00000060: bd58 c6bc 82fa 3bba df54 46bd 817a 713d
00000070: 3bcf 053d c7f4 cb3c 89a0 8d3d 52d1 b83b
00000080: 920e 1e3d fda7 073d 881b 633d 4ed1 893c
00000090: 4a38 e83c ab6a 683d 9083 643c 4d82 babc
000000a0: 58d5 f2ba 8a00 393d 07ac 9c39 bcc4 0e3d
000000b0: 2ae6 8d3c ad2c 243d 475f a13d a384 5b3c
000000c0: 4998 503d 63f3 3c3d ac35 e93c f5fe 383d
000000d0: cbda 123d 76f6 4d3d ea5e 99bc bca6 d23c
000000e0: 060b 80bb f0ef f83c 5b11 613d e381 4a3c
000000f0: 712e 6c3d a9b1 7a3d c671 983c 8411 3d3c
00000100: 2a4c 8dbc 9ef0 20bc 6578 8e3c 94d8 95bc
00000110: b397 9f3b 6ffe 4abc 22ae 133c 5564 da3c
00000120: a624 9f3c 9b7d 6bbb 1dd6 273b 67d6 d93c
00000130: 392a 63bc 168c fabc 0db2 ad3d 57ff 2a3c
00000140: 456f fbbc b555 593d e15f 783d 07c5 4b3c
00000150: 8736 5e3d 70c4 a93c af69 573b 38e9 933d
00000160: 6db9 9dbb 6992 e23b bd78 a73c ca04 13bd
00000170: 3430 5f3b f337 94bc 85e4 f3bc 9d5d 603d
00000180: 5ead bc3c 4d4c e93b c24e 1cba e572 333d
00000190: e571 efbc 3e82 373d f205 273d ea9a b73d
000001a0: b5a8 083a e079 e13b a02f 6d3d 39c1 003d
000001b0: 5794 313c a60c 473c f3fe 0cbc 5e1d 7b3d
000001c0: 7ade d93c 8456 153d dc5e 1a3d 7c65 b33c
000001d0: 265b 123d 712c feba 66fd ee3b 5887 a8bc
000001e0: d22c 1ebd 8690 8a3b bd98 b1bc e511 1b3d
000001f0: 9d40 d83a a82e 133d 6206 a63d d901 163d
00000200: 28e9 193d 475d a33d 65cc b03d fc71 2d3d
00000210: 6a39 643d 67b3 e43c d2be 303d 036b 9f3c
00000220: 9a7b 4f3b 5c6f 233c 418f 5a3d fb04 13bc
00000230: c9ea e5bc 7811 07bd e00a 603d 294d d4bb
00000240: 6f23 f6bc a7d9 cd3c bdc9 503d 5cfd d63c
00000250: 0311 343d f8ff 933d b05b e53c 3cf5 523d
00000260: 1c44 b6bd 2be3 9a3c 3f56 3dbd fc08 5c3d
00000270: aac5 55bd 0464 bebc 364e 003c c1b8 2b3d
00000280: 205c 7bbd f410 873d e79a ebbc 8e52 a43c
00000290: cb0a 03bb 3ef9 1abd 1349 cebd 48f1 683d
000002a0: e8f9 8c3c 4c02 043d cccd 1c3d b769 413c
000002b0: 3023 1a3d 3d33 103d 5f93 5b3d 19de 0e3d
000002c0: 029a 893c b42a 163d 4ec7 473d 5ddc 703c
000002d0: 0573 de3c 750b 6abc d316 343d 4cef 8bb9
000002e0: 10e6 9fbb da30 1fbc f764 85bc 490a bf3b
000002f0: 2d73 00bd ec28 3d3d 2350 6a3d 0aed 4fbd
00000300: 708a 813b fcaf 75bb 2cae 9c3d 0e43 74bd
00000310: 8ffa 7a3c 2b59 503d d450 a63c f15b 593d
00000320: 2be7 33bd f111 2a3c 0925 fd3c 43d9 a7bc
00000330: 297e adbc 2b82 8c3d 78ba 20bd 64e0 0cbd
00000340: 888b 703c f2e0 ff3c f1f5 683d f4f0 933c
00000350: 90e6 9e3a f406 8cbc ab16 db3c c13f 90bd
00000360: 4735 88bc bae0 373d a748 66bc 3fea f93c
00000370: 498d 0dbc 9028 7a3c 845d 0ebd dce6 133b
00000380: dbdd 1a3d 4d9f 29bc b48c 9d3c 784a b33b
00000390: 1d30 4d3d 5f5f cc3c 2820 ec3c 850d 58bc
000003a0: 6d3f f83c 6358 fe3c 50b5 d7bc fe34 b53d
000003b0: e4f3 93bb d329 1cbc abf9 3cbd 8c10 09bc
000003c0: 6f85 c2bc a9b4 383d a926 9a3b 875c 0a3d
000003d0: f4b6 96bb c036 393c f7dc 6c3d a7af ebbb
000003e0: ca5a 8fbc 9a9f 703c 0377 623d 7bbc 063d
000003f0: 3193 b4bb 0c86 64bd 3780 41bd a98e 4ebb
-0.0018974288 -0.039189175 0.013275191 -0.055043653 -0.05313046 0.006808547 0.0112108365 -0.04740128
0.07519491 0.036413107 -0.018871456 0.00089470355 0.0076826643 0.0005142831 0.02261903 0.017384136
-0.023617277 0.015115647 0.0032251037 -0.06704495 -0.041071955 -0.023452232 0.05712078 0.015004295
-0.024212236 -0.00071708125 -0.048420783 0.05895472 0.032668334 0.024896992 0.06915385 0.0056401873
0.038588114 0.03311919 0.055446178 0.016823437 0.028347153 0.05674235 0.013947383 -0.02276721
-0.0018526716 0.04516653 0.0002988281 0.03485559 0.017321665 0.04008167 0.07879501 0.013398322
0.05092648 0.04613055 0.028467976 0.04516502 0.03585319 0.05028387 -0.018722016 0.02571427
-0.003907564 0.030387849 0.054948192 0.012360069 0.057661477 0.061204586 0.018608939 0.011539821
-0.017248232 -0.009822993 0.017391393 -0.018291749 0.004870379 -0.012389763 0.0090136845 0.02665917
0.019426655 -0.003593302 0.00256098 0.026591493 -0.013865047 -0.030584376 0.08481226 0.010436854
-0.030692706 0.053060252 0.060638312 0.012437112 0.05425122 0.020723552 0.0032869389 0.07222217
-0.0048133642 0.006914426 0.020443315 -0.03589324 0.003405583 -0.018093085 -0.029772053 0.054776777
0.023031887 0.0071196915 -0.00059626636 0.043810744 -0.029229114 0.044801943 0.040777154 0.089650944
0.00052131276 0.0068809837 0.057906747 0.03143427 0.01083859 0.012149012 -0.0086057065 0.061307304
0.026595343 0.03645946 0.03768812 0.021898977 0.035731457 -0.0019391907 0.007293391 -0.02057235
-0.038616963 0.0042286543 -0.021679277 0.037858862 0.0016498748 0.035933167 0.08106686 0.036622856
0.03757587 0.079767756 0.08632735 0.042345032 0.055718817 0.027917577 0.04315073 0.019460207
0.0031659366 0.009975281 0.053359274 -0.008973355 -0.028066056 -0.032975644 0.05469787 -0.006478925
-0.030046193 0.025128199 0.050973643 0.026243858 0.043961536 0.072265565 0.027997822 0.051503405
-0.088997096 0.01890715 -0.04622483 0.053719506 -0.05219046 -0.02324105 0.007831147 0.041924242
-0.061367154 0.065950304 -0.028760387 0.020058896 -0.0019995447 -0.037835352 -0.100725316 0.05687073
0.017209008 0.032228753 0.0382822 0.01180499 0.037631214 0.035205115 0.05360734 0.034879778
0.01679707 0.03666182 0.048774056 0.014700976 0.027154455 -0.014284958 0.04396708 -0.00026690436
-0.0048797205 -0.009716237 -0.016283495 0.0058300835 -0.03135984 0.046181604 0.05720533 -0.050763167
0.0039532706 -0.0037488928 0.07650408 -0.05963426 0.015318527 0.050866287 0.020302214 0.053066198
-0.04392163 0.010380254 0.030901449 -0.02048934 -0.021178322 0.06860765 -0.03924033 -0.034393683
0.014681704 0.031235192 0.056875173 0.018059231 0.0012123156 -0.01709316 0.026744207 -0.0704341
-0.016626967 0.04489205 -0.014055408 0.030507205 -0.008639642 0.01526846 -0.034757152 0.0022568023
0.037809234 -0.010352922 0.019232132 0.005471524 0.050094713 0.02494782 0.028823927 -0.013186817
0.030303681 0.031048005 -0.026331574 0.08847998 -0.004515158 -0.009531456 -0.04613654 -0.0083657615
-0.023745267 0.045094166 0.0047043157 0.033779647 -0.0045994464 0.011304557 0.057827916 -0.0071925703
-0.017499346 0.0146864895 0.05528928 0.032894593 -0.0055107106 -0.0557919 -0.047241416 -0.0031518138

conv3.bias f4 [128]
00000000: 6ed5 a33c a0e1 113d cf83 18bd 71b2 96ba
00000010: 76b9 21bb fac9 4b3d 9cf9 42b1 32ba 7cb9
00000020: 2634 0ebd 9aae 903c 2405 323d b40a 843c
00000030: 81db bb3c 0c3f d7ba f130 43bc 799e a23c
00000040: 381e d8bc 9575 a03c 6557 5cb1 41f8 c8ae
00000050: 8f44 cc3c 5637 943b e28f c43c b862 3ebd
00000060: 7814 1fb8 a2e3 44bd 43e8 86b6 4dcc 0bb4
00000070: 725b 8b3c d757 c13c 0f42 77b9 ff37 a43c
00000080: cdf1 bf3b 1f9e a5bc f305 623c 9bfd 693c
00000090: 5046 34bd 3610 cdbc 60cc 00ba d92d 99b6
000000a0: b792 85bd 0c09 7e3b 0093 723d 6f4d 78bb
000000b0: aca6 5e3a 0763 ca3a fb05 823c cf3c 98b5
000000c0: 7038 e7bc ce1e 6d3c ae22 f7b8 c8ab db3b
000000d0: 277b 723a af06 5abc 1940 48b4 b7d6 9fbc
000000e0: 218c c6bb 96f3 11bd d8e9 0b3b f3d3 933c
000000f0: ff95 e53c 1400 ecbc 9046 d03c 9487 e53b
00000100: 5afd 863c ba30 893d f78e c43c 7b74 e43c
00000110: c592 08bd 1acb 50bc 95ac a13c bd68 1fbc
00000120: a878 0ebc 1a13 233d 52b8 c2bc ef82 5cbc
00000130: a688 cdbb d7ab 95b4 50e8 e33c 1140 3cbc
00000140: 0d2a 333d 69d6 423d e99f c5a6 0407 a83c
00000150: 2a90 803d 10e3 1a3d 07ec a5bc ba8f c2bb
00000160: 9614 3dbd 1dad a23b ea75 703b d0ea 82bd
00000170: 8839 84bb 8af6 6f3d 2bcd 5c3c f0a8 653c
00000180: 94a3 1faf 636a 91bb f19b 9aae 6f32 39bd
00000190: d77a 61bd 64c7 073c d260 a2b2 0870 6f3d
000001a0: 8709 603d 6aa7 e03b 2401 653d 2355 c6b6
000001b0: 8fa7 e6b9 e980 b9bb 81c1 df3c 5df4 983b
000001c0: 9495 aa3c ed38 f73c 756f 4e3c 9ba7 8e9c
000001d0: e31d 943c ddcd 00bd f4ef 47b9 efb4 883c
000001e0: ea7b ef3b 5317 0e3a 669f cdbd e3e6 c2b1
000001f0: 46af 8f3d 0f00 2bbb 6f3e dabc f7f5 d53b
0.019999232 0.035615563 -0.037235077 -0.0011497271 -0.0024677194 0.049753167 -2.8372602e-09 -0.00024101956
-0.0347177 0.017661382 0.043461934 0.016118385 0.022931816 -0.0016421988 -0.011913524 0.019850956
-0.026381597 0.019587317 -3.2063892e-09 -9.139046e-11 0.024935035 0.004523198 0.02399439 -0.046480864
-3.7927617e-05 -0.04806865 -4.02055e-06 -1.3019708e-07 0.017011378 0.023601456 -0.00023580364 0.020046232
0.0058576823 -0.020217 0.013795364 0.014281656 -0.044012368 -0.025032144 -0.0004913267 -4.5650927e-06
-0.06522124 0.0038762717 0.05922222 -0.003788795 0.0008493464 0.0015440889 0.015871992 -1.134258e-06
-0.028225154 0.014472676 -0.000117843374 0.0067038275 0.00092499185 -0.013307258 -1.864977e-07 -0.019511564
-0.006059185 -0.035632692 0.0021349099 0.018045401 0.028025625 -0.028808631 0.025424272 0.0070046876
0.01647823 0.06698747 0.023993952 0.027887573 -0.033343095 -0.012743736 0.019735614 -0.009729561
-0.008695759 0.03981314 -0.023769531 -0.013458951 -0.0062723933 -2.7878443e-07 0.027820736 -0.011489884
0.043741275 0.04756776 -1.3712965e-15 0.020511158 0.06277497 0.0378142 -0.020254148 -0.0059375437
-0.04616221 0.0049644844 0.0036691376 -0.06392443 -0.0040351786 0.058584727 0.01347665 0.014017329
-1.451908e-10 -0.004437731 -7.03081e-11 -0.045214113 -0.05504879 0.0082872845 -1.8903311e-08 0.05845645
0.054696586 0.006855895 0.05590929 -5.910771e-06 -0.0004399386 -0.0056611192 0.02731395 0.0046678022
0.020823278 0.030178512 0.012599816 -9.440097e-22 0.018080657 -0.031446327 -0.00019067508 0.016687838
0.007308473 0.00054203457 -0.100401685 -5.672392e-09 0.07015853 -0.0026092564 -0.026641099 0.0065295654

act_conv1.weight f4 [4, 128, 1, 1]
00000000: a848 a53c d64a 013e af3d e5bd 97b7 5a3d
00000010: 0fdf 223e da31 cdbd a3f3 963b 8dc1 d43a
00000020: 7ef8 b6bd a178 f03d 1b32 39bd ba59 a13d
00000030: 7167 863d 6fb5 b2bc 740c 2ebd 134d 9f3c
00000040: 99dc 593d 2e49 093e d84c 953a d289 0080
00000050: e435 a83d 6372 983d 4972 cc3d cc1e 483e
00000060: c28a 0080 4efc 46bd 461f 7ebb 7a89 0000
00000070: d596 8b3c 9f82 423d 1090 543b d1e5 0f3d
00000080: 783e 60bd a98a d23b e480 7e3e 424e 463d
00000090: e286 0c3e 0e24 86bd 6c4c 1e3b c188 0000
000000a0: 4c0f b03d 9a00 903d f17c a53d 99bd 34be
000000b0: 5b61 04be ed6a 083d 49c9 9c3d 186e 14ba
000000c0: 7979 233e be74 b2bd 2189 563e f46c a13e
000000d0: fc4f a23d 618c 07bd f088 0000 b27c ffbc
000000e0: b8b7 72bd 7474 86bd 05cb bfbc bf58 d1bc
000000f0: a082 a5bd 4fe7 89bc b936 0abe 2afc d13b
00000100: e78d d93d 3af9 8f3e f247 f73b 6bf0 123e
00000110: 57ec fd3d 8d80 ddbd df51 db3d 4fc9 043e
00000120: 002c 01bd 3b23 cfbc 2982 ea3c fe44 273e
00000130: 5a31 753d 6210 c1ab 9c6b 87bc aee7 a03e
00000140: c77b 753c 5614 953d 7b89 0080 f140 fabc
00000150: 7c02 f1bd 5a70 ef3d 12e6 743d 7f69 5abd
00000160: b033 863d 0a88 9d3d 5ef6 a63d 8edf f4bd
00000170: e8f0 e63a fb47 243c 421a 10bd 1cfe a03d
00000180: 878a 0080 2344 153e 0770 4dbb a41b 3cbe
00000190: 3330 3fbb 473f e63d 923a acba 25ce 1a3c
000001a0: 12e9 f3bd 3deb 9abc b621 f33d 208a 0080
000001b0: 713f 173b f689 0080 3692 e53d 56fd 1fbe
000001c0: 8dc9 043d 6d7e fb3d ceaf 3e3e c38a 0000
000001d0: c0ca bc3d c801 a1bc d188 0080 e44c 8fbd
000001e0: 8198 a5bd c835 823e cf4c 20bd 5c89 0080
000001f0: 7f0d 52bd 9252 b9bd 177e 093e db21 12bd
00000200: 5f6e 773c 5319 21bd 3023 c33d 7e11 9fbc
00000210: 63bf 8cbd bdb5 3bbb 6da1 c1bb dc81 00b8
00000220: 0da5 5dbe 926e 68bb fa52 b53b 6017 2abd
00000230: cdaf debc 732a b8bc afce 903d 86c3 6fbe
00000240: 3cf5 18be ab6a b9bd f089 0000 7390 0080
00000250: ea33 62bb 7d90 f5bc 8e98 1fbc 801e 0d3e
00000260: f289 0080 f656 de3c db59 51b9 b988 0080
00000270: 10aa 573e b9c0 3bbd fefd 2a36 8de2 a03c
00000280: 1ca5 d53c b9ee 313c 2d1a e43d 96da fcbc
00000290: c01f d3bd 3b77 f23d e1d1 bfb8 d389 0080
000002a0: 65c1 0b3d 33d9 52be cfa8 963d 5fd7 a83d
000002b0: f191 633e f770 4f3c b6eb 12bd 47af 58bb
000002c0: 03c3 9c3d afae 873d 006b 47bc 0fa6 383d
000002d0: aa00 aabd 1a73 683b 498a 0000 49b6 d5ba
000002e0: 7465 05b9 d4da 883d 8faa e1bb f9f2 03bc
000002f0: c6a0 ac3d b5c1 3bbe 8d0b 8f3e 544d ed3b
00000300: 9747 a13e b939 57bd ae54 093d d952 6fbc
00000310: 19ce 783d 0b06 b83d 9e8f 0c3e e927 103e
00000320: 3d2d 8fbb 7c7d 0ebb 32a6 03be c76a 73be
00000330: a963 193e e788 0080 29a3 6f3e cccb ba3d
00000340: 1852 d83d 8647 f0bc 228c 0080 f1d9 293c
00000350: c431 cb3c 1165 d1bb a48b 4bbd 4a79 9b3d
00000360: f832 053e 5b9b 243d b8e5 2c3d 80b0 9f3d
00000370: f8ec 213d a270 2ebd 9d31 a83c 65a9 9bbd
00000380: 0a94 0000 3791 833d 6e2a 0323 58ba 7c3d
00000390: e80a 15be 8a98 a7bd f388 0080 ec84 ffbb
000003a0: 5a80 073c 1770 af3d 938c 04bd 028b 0080
000003b0: 2689 0080 0ca9 0000 1318 483c 77a3 473d
000003c0: 142a 8e3d 3b6b 31bd 7215 f2bd fa8a 0000
000003d0: a801 c1bc ed94 973d 958a 0080 6271 12bd
000003e0: 9c18 5c3c 8d0d f3bb 1189 ba3d 798a 0080
000003f0: 32bb 393b c226 743d 821b a63d 0cf5 1cbd
0.020176247 0.12626204 -0.11193406 0.05339774 0.15905403 -0.10019274 0.0046066805 0.0016231999
-0.08934115 0.11741758 -0.0452138 0.07878442 0.06562699 -0.02181503 -0.042492345 0.019445932
0.053188894 0.13406822 0.0011390699 -4.944e-41 0.08213404 0.074436925 0.09982736 0.19542998
-4.9777e-41 -0.04858046 -0.0038775965 4.9317e-41 0.017039696 0.04748785 0.00324345 0.03513128
-0.054747075 0.006425221 0.24853855 0.048414476 0.13723329 -0.06549846 0.0024154438 4.9058e-41
0.08596668 0.07031365 0.08080471 -0.17650451 -0.12927763 0.033305097 0.076555796 -0.0005662157
0.15964307 -0.08713673 0.20950748 0.31528437 0.07925412 -0.03309286 4.9124e-41 -0.031187389
-0.05925724 -0.065651804 -0.023412237 -0.025555013 -0.08081555 -0.01683393 -0.13497438 0.006408234
0.10622769 0.28119832 0.0075464183 0.14349525 0.12398594 -0.10815535 0.10708975 0.12967418
-0.031536102 -0.025285354 0.028626518 0.16334912 0.05986152 -1.3718022e-12 -0.016530804 0.31426758
0.014983124 0.072792694 -4.9319e-41 -0.030548545 -0.11768052 0.11691351 0.059789725 -0.053323265
0.06552827 0.07691963 0.081524596 -0.11956702 0.0017619403 0.010026927 -0.03518129 0.078609675
-4.9694e-41 0.14576773 -0.003134729 -0.18369919 -0.0029173016 0.11242538 -0.0013140014 0.009448563
-0.11909689 -0.018910998 0.11871664 -4.955e-41 0.0023078586 -4.9491e-41 0.11209528 -0.15623984
0.032418776 0.12279973 0.18621752 4.9778e-41 0.09218359 -0.01965417 -4.908e-41 -0.069970876
-0.080857284 0.25431657 -0.03913575 -4.9275e-41 -0.051282402 -0.09048952 0.13427006 -0.03567682
0.015101998 -0.03933079 0.09528196 -0.01941752 -0.068724416 -0.002864226 -0.005909136 -3.063852e-05
-0.21644993 -0.0035466296 0.005533573 -0.0415262 -0.027183438 -0.022481179 0.07070672 -0.2341443
-0.149373 -0.090535484 4.9483e-41 -5.1819e-41 -0.0034515806 -0.029976124 -0.009740962 0.13781166
-4.9485e-41 0.027141076 -0.00019965267 -4.9047e-41 0.21060967 -0.04583809 2.5479817e-06 0.019639278
0.026079707 0.010860139 0.11137805 -0.030865949 -0.1030879 0.11839148 -9.146683e-05 -4.9442e-41
0.034119982 -0.20590667 0.073564164 0.08244204 0.22223641 0.01266121 -0.035869323 -0.0033063458
0.07654383 0.06625115 -0.012171507 0.04508024 -0.08300908 0.0035468997 4.9607e-41 -0.0016304936
-0.00012721663 0.06682363 -0.0068867872 -0.008053535 0.084291026 -0.18335612 0.279385 0.0072418842
0.3149993 -0.052545283 0.033528022 -0.014607155 0.060743425 0.089855276 0.1372666 0.14077725
-0.0043694065 -0.0021742275 -0.12856367 -0.23771201 0.14979424 -4.9111e-41 0.23402084 0.091209024
0.10562533 -0.02933098 -5.027e-41 0.010366903 0.024804004 -0.006390222 -0.04969372 0.075914934
0.13007724 0.04018722 0.042211264 0.077973366 0.03953263 -0.042587884 0.02053147 -0.07600669
5.3106e-41 0.06424182 7.110509e-18 0.06170115 -0.14554942 -0.081833914 -4.9128e-41 -0.007797828
0.0082703475 0.08566301 -0.032360625 -4.9867e-41 -4.92e-41 6.0643e-41 0.012212771 0.048739877
0.069416195 -0.043315154 -0.118204966 4.9855e-41 -0.02356036 0.07401452 -4.9714e-41 -0.03575266
0.013433602 -0.007417387 0.091081746 -4.9675e-41 0.0028340337 0.059607275 0.081107154 -0.038319632

act_conv1.bias f4 [4]
00000000: c94e 263d 3943 363c 7e2d 89bc 1683 043e
0.04060248 0.011124426 -0.016745325 0.1294063

act_fc1.weight f4 [81, 324]
00000000: 6968 383d 21f7 bb3c bd52 103d 32ac 88bb
00000010: 81cf 8d3c e224 853b c539 7ebb 33f5 fc3b
00000020: 7fd9 84bd 8728 2f3d 0b41 bdba ed51 41bd
00000030: 8186 88bd a1db eebc 3ad2 86bc cb6e 8cbc
00000040: 039f 18bb 5f63 9a3b 5a65 b83c d977 ca3c
00000050: dac9 23bd c41e 64bd 6b87 5fbd cef3 96bd
00000060: 5a5e 323d 5903 1f3c 7048 3c3c 9608 f93c
00000070: faea 38bd e906 dabc 252c 9dbd ae48 66bd
00000080: 5c9a f53b bdec a9bd 3958 f33b 258c ffbc
00000090: 006a eebb 9e4e b6bc 6d16 a0bd a577 f5bd
000000a0: e5f8 d5bc b7c4 a1bd f644 a7bd c452 e4bc
000000b0: 44dd 6fbc 8512 773d cf55 85bd fd0e 93bd
000000c0: 4fd0 abbd d688 30be d7be 20bd c4b6 40bd
000000d0: 58bc 58bd 5935 87ba 4a4f df3d 0116 5a3b
000000e0: 9b7a abbd 9a30 a5bd 5aee 52bd 2bf6 21bd
000000f0: 4a61 c6bc ef60 7bbd eeaa 3ebd 374b 893e
00000100: c7c4 e5bd ec42 70bb 044b b9bc 4ba1 c4bd
00000110: 9c8f a9bb 0b00 92bc 75e5 1d3c ed8d ab3c
00000120: 0469 8e3e 3a01 973e 8a85 17bd af70 04bb
00000130: 1bc9 883b 7baa 20bc de96 0bbd 65af ca3c
00000140: 2141 453c 34ce 09bc c7f6 7cbc a839 49bc
00000150: 522b 503d 0938 0b3d 7b11 77bd 9770 c6bc
00000160: 8722 a8bc d27d 3e3d 4288 ccbb 8099 dbbb
00000170: 9954 38bc 155b 153d 5c97 d73b 6bd0 153d
00000180: fa56 f5bc f78e 8abd 703b aab9 794a 433d
00000190: d150 5e3c ab06 56bd 68fe f83b c6d7 3bbb
000001a0: 380c 483c e40e a43c 5f10 fc3c 710f 193a
000001b0: 22f0 6f3d 4101 02bd ae36 20bd c549 9dbd
000001c0: 5c3e a93b 02b0 7abd 3e55 fabb 2257 8dbc
000001d0: a508 89bd c002 bdbb 5406 74bc 4332 1fbd
000001e0: dad8 4f3d dd93 53bc 72af e03c 02da 17bd
000001f0: da5b 733c be6d 8b3c 384a eabd 184d 0b3d
00000200: 1320 d63d 1d26 2b3c a6a2 d0bc 0563 f4bc
00000210: 0635 1dbc 4604 913c 1acc e63d e8f7 46bc
00000220: 47ca f2bb 596d 6e3b 4669 033d 1a87 e4bb
00000230: 50f8 b2bc e4d9 39bd 4947 293c 8534 273d
00000240: 8e38 5cbe fffb 3039 a8aa 92bc a3cc e1bc
00000250: 0fd5 2a3d 3ef4 2c3b f33e 62bc 3184 a03c
00000260: 328b 07bd 5fb0 12be 6a23 19be c8ac 693c
00000270: 9177 803c 4fc5 583d dfff bb3d b935 1e3d
00000280: 1ca7 433c 1c2d 653d 6689 0080 808b 3122
00000290: 2575 a025 94fe f52c 7b27 8e29 9e7f 322c
000002a0: 1185 9027 cba2 f428 9b46 3f21 0ec9 4c23
000002b0: 5046 812e 898d a331 1f92 7234 8830 6132
000002c0: 9316 3633 691f 5230 4d5b 2230 91de 4629
000002d0: c8e7 1321 150a db32 6ef3 fd34 e5e7 9b35
000002e0: 1d2f 7c35 cad2 aa34 e3d2 6234 7f78 b332
000002f0: f6b8 642c 6de7 6027 2687 2a34 6f6a 0134
00000300: 3fd8 8936 5b72 f034 1dda cf34 26a3 6d33
00000310: 2d0c a330 556f 0029 c0e0 7c22 8824 0633
00000320: 71a6 4334 5496 8f36 cd97 5633 715c 5233
00000330: 8b1f d12d 8dc9 1e2a d178 3122 0f04 0a1e
00000340: f1f6 1f33 1887 3634 cccb af35 26d0 0f34
00000350: de3c d130 7acf 16ac b819 14a8 7076 7699
00000360: 6b13 ad9c 1872 8731 bf1d d731 2276 da35
00000370: 523e d830 3578 4d30 47b0 0bad af3f 85a7
00000380: d546 8e9e 43cd 3523 a255 1f2c 2f8a c530
00000390: e41d 6a31 4f5d b92e 191b 09ad 11cb 17ac
000003a0: d28e 2ca5 c384 d321 cfb1 bd19 0da1 c424
000003b0: 1f07 1927 8c96 d823 06bf 2ea4 3d14 16a4
000003c0: 2494 5c25 d712 b220 2447 0080 7bae a73d
000003d0: 9c71 7a3d 657c 4bba 8aad dc3c 85f8 ff3c
000003e0: 0fe4 1a3d 207d 88bb 9742 213d 0bfb 233d
000003f0: f8d4 ef3b 4364 1c3c 31a8 b23c 0939 5f3c
0.04502145 0.022944989 0.035235155 -0.004170918 0.01731086 0.0040632347 -0.0038791758 0.0077196597
-0.064867966 0.04276326 -0.001443894 -0.04719727 -0.066662796 -0.029157462 -0.016457666 -0.017142674
-0.0023288138 0.004711553 0.022509266 0.024715351 -0.039987423 -0.055693403 -0.054572504 -0.07370721
0.043547012 0.009705388 0.01149188 0.030399602 -0.045145966 -0.026614623 -0.076744355 -0.056221657
0.0074952077 -0.08297107 0.0074262884 -0.031194756 -0.00727582 -0.022254284 -0.078167774 -0.11985711
-0.026119659 -0.078988485 -0.0816745 -0.027871497 -0.014640156 0.060320396 -0.06510507 -0.07180593
-0.08389341 -0.17239699 -0.0392445 -0.0470493 -0.052913994 -0.0010315581 0.10903795 0.0033277276
-0.083729945 -0.08065911 -0.05149684 -0.039541405 -0.024216313 -0.06137174 -0.04654973 0.26815197
-0.11219173 -0.0036660982 -0.022618778 -0.09601077 -0.0051745903 -0.017822286 0.009637226 0.020941699
0.27814496 0.29493123 -0.036992587 -0.0020208766 0.0041743643 -0.009806271 -0.034079425 0.024741838
0.012039454 -0.008410979 -0.015439696 -0.012281813 0.050822563 0.033988986 -0.060319405 -0.024223609
-0.020524276 0.04650671 -0.006241829 -0.0067016482 -0.011250638 0.036463816 0.0065793227 0.036575716
-0.0299487 -0.0676555 -0.0003246921 0.047678445 0.013569073 -0.052252453 0.007598687 -0.0028662547
0.012209944 0.020026632 0.030769525 0.0005838788 0.058578618 -0.031739477 -0.039114647 -0.07680086
0.0051649045 -0.06120301 -0.007639556 -0.017253462 -0.06691102 -0.00576815 -0.014894087 -0.038866293
0.050743915 -0.012913671 0.027427409 -0.037073143 0.014853442 0.017020103 -0.11439937 0.03400907
0.104553364 0.010446099 -0.025468182 -0.029832372 -0.009595161 0.017702233 0.11269398 -0.012144066
-0.0074093672 0.0036381094 0.03208282 -0.006974113 -0.02184692 -0.045373812 0.010331937 0.04082157
-0.21505949 0.00016878544 -0.01790364 -0.027563399 0.041707095 0.0026390697 -0.013808954 0.019594284
-0.03309173 -0.14325093 -0.14954916 0.014262386 0.015682014 0.052922543 0.09179663 0.038625453
0.011941697 0.055951223 -4.9289e-41 2.4061824e-18 2.7834956e-16 6.9915827e-12 6.3129155e-14 2.5366163e-12
4.01123e-15 2.7160042e-14 6.4806763e-19 1.1101437e-17 5.878731e-11 4.760015e-09 2.2591165e-07 1.3107758e-08
4.239571e-08 7.644219e-10 5.9065003e-10 4.4157877e-14 5.0112297e-19 2.549954e-08 4.730204e-07 1.161589e-06
9.3945874e-07 3.1818337e-07 2.112461e-07 2.0893138e-08 3.2503423e-12 3.12117e-15 1.588165e-07 1.2052782e-07
4.1080925e-06 4.4786688e-07 3.8715453e-07 5.5329245e-08 1.1863271e-09 2.8518275e-14 3.427135e-18 3.123253e-08
1.8221341e-07 4.2792326e-06 4.996382e-08 4.897851e-08 2.3774557e-11 1.4103146e-13 2.4051933e-18 7.3064985e-21
3.7244664e-08 1.6999218e-07 1.3097829e-06 1.3393637e-07 1.5224051e-09 -2.1431455e-12 -8.221227e-15 -1.274182e-23
-1.1453199e-21 3.941988e-09 6.2607053e-09 1.6276647e-06 1.5733781e-09 7.474939e-10 -7.940377e-12 -3.698396e-15
-1.506413e-20 9.8554955e-18 2.2642795e-12 1.4372911e-09 3.4068472e-09 8.429401e-11 -7.793565e-12 -2.1571115e-12
-1.4967011e-16 1.4333058e-18 1.9613958e-23 8.527428e-17 2.1236876e-15 2.3482526e-17 -3.789204e-17 -3.2543208e-17
1.913215e-16 3.016684e-19 -2.552e-41 0.081875764 0.061143503 -0.00077623717 0.026938219 0.031246433
0.03781515 -0.0041653067 0.039370146 0.040034335 0.007319089 0.009545389 0.021808716 0.013624438

act_fc1.bias f4 [81]
00000000: 32a7 eb3d 9b1f 7cbc 056d 2fbe cea6 f13d
00000010: c097 003e 12e0 e23d 2b78 e7bd 693a 82bc
00000020: b768 a73d e24c 9cbb 0bc7 96bd 731e d23d
00000030: 8619 593d 09c8 803e b494 8c3d 1998 a03d
00000040: ccc2 2abe 3371 bdbc 7c8b 1fbe 6e44 063e
00000050: 0466 033b 7b79 5a3e dcfd 9dbd 5a8c 373e
00000060: b664 253c ff03 0f3e c7df debd 5a4f 9c3d
00000070: 62bb 163d 1df7 f73d 6db8 fc3d 84ea 433e
00000080: be46 c03d 5b65 2e3e 92db 293d 5991 da3d
00000090: 0403 d53d 3d60 513e 8776 d4bc 409c 753e
000000a0: 786f 5fbd 8e5a 8e3e 8a2e a7bd ef26 653e
000000b0: 6e9e c03d 0b12 a13d 103b 5d3d f648 163e
000000c0: 766b d93d 991d 703e d318 8e3d 1046 463e
000000d0: a9ac 6e3c 25ab 9a3d e163 23be 9dc9 fa3d
000000e0: 31a2 ac3d 8955 623e 8c22 a9bd 36cf 043e
000000f0: 2666 91bc 9180 0f3e 181d f9bd 41f4 67bd
00000100: ea2c 00be 6fbf 013e 9885 4e3d 3de9 2c3e
00000110: ced1 083d 395f fb3d a0fd 11be 3678 bbbc
00000120: de3a 3c3d 00f0 83bd 7327 22be 3d2c cd3d
00000130: a665 8a3d 60c5 aa3d 4a1d 0fbe ee80 d0bc
00000140: 6b4f bb3d
0.11506499 -0.015388395 -0.17131431 0.117993936 0.12557888 0.11077894 -0.11302217 -0.015896993
0.0817427 -0.0047699073 -0.07362183 0.10259714 0.053002857 0.25152615 0.068643 0.0784151
-0.16675872 -0.023125267 -0.15580553 0.13112041 0.002004982 0.21335404 -0.077144355 0.17924634
0.010094812 0.13966368 -0.10882526 0.076323226 0.036799796 0.1210768 0.12339864 0.1913243
0.09388493 0.17030852 0.041469164 0.10672254 0.10400966 0.20446868 -0.025935424 0.23985386
-0.054549664 0.27803463 -0.081631735 0.22378133 0.09405218 0.078647695 0.054011405 0.1467627
0.106162 0.2344879 0.069383286 0.19362664 0.014567533 0.075521745 -0.1595607 0.12245486
0.08429373 0.22102942 -0.082585424 0.1296967 -0.017748903 0.14013888 -0.12163752 -0.056629423
-0.12517133 0.12670682 0.050420374 0.16885848 0.03340321 0.12274022 -0.14256907 -0.02288447
0.045954578 -0.06442261 -0.15835361 0.100182034 0.06757669 0.083384275 -0.13976017 -0.025452103
0.09146007

val_conv1.weight f4 [2, 128, 1, 1]
00000000: 0c47 2d3d 703d c43c 1b2a 093d 2078 953c
00000010: 6910 c13d 46e6 89bd b089 0000 c789 0000
00000020: 16ef c7bd b8a9 8e3d d668 abbd af0a 1c3c
00000030: f92a bdbd b3fb 29bd 0280 cc3d d6cd 153e
00000040: be92 2bbd 25a8 a9bc 72c3 8619 1413 b406
00000050: aa9c b2bd d3ef 39bd f517 763c 9434 ae3d
00000060: 258a c627 0300 ad3d 0399 b9a0 9bcb 2e9d
00000070: 6ce8 3d3d f831 fb3b 0396 0539 6974 fcbd
00000080: 860f b13d 461e 84bb 62af c63d a909 65bd
00000090: efd9 02bd 1ead ecbb fd67 bb3b 350b 109e
000000a0: edcd 223d 583f 873d b654 94bc 00e9 463d
000000b0: 99dc 493d a42e 46bd f8d4 80bd 938a 0080
000000c0: 6946 a23d f3b1 87bc 8703 6cbd 430c 81bd
000000d0: a06a 733c 7d4e e13c 6e25 1180 04e7 3b3d
000000e0: a76a f93c 7b47 e53d e927 bdbc 7cbd e0bb
000000f0: ae1e 01be 9860 383d 10d9 b73c fe6a fe3b
00000100: 3982 ba3d 6e89 5dbd bd2b bf3d ce52 1d3d
00000110: dd70 413c de41 0c3d 4289 c23c f1a0 0d3d
00000120: 935a 143d 42d8 a4bd 7627 ca3d f2e4 cc3d
00000130: 5bcd aebd 0b1c 0a9e caf1 bc3d 6e7e c8bc
00000140: b91f 6dbc 7ee7 76bc 918b 278e defa ce3d
00000150: 3508 92bd 1d91 c33c c70e 4a3d 05f2 7dbd
00000160: db51 863d 4760 1b3d 6342 d23c 86c7 d93c
00000170: 2605 533c 0d58 0cbc 65c9 adbd 0061 0b3b
00000180: 4089 0000 1e1f cc3b f2f3 b633 9b08 803d
00000190: cbf8 e23d 5fed d33d 8f89 0000 af67 ddbd
000001a0: c292 b4bd 9dcb 74bc c057 3cbd e8df 0480
000001b0: 7c8f 0080 6522 a835 b11f cc3b 898e 543d
000001c0: 3872 09bc 0f27 083d 420c 1cbb ed88 0000
000001d0: 21c6 bdbd 1d9b 16bd cae5 d0a7 ffa9 d93d
000001e0: 9535 c6bd 8110 c53d 0aa0 aabd 6221 7fb5
000001f0: e7ab 89bd ab61 1d3d e534 e73c b682 36bc
00000200: 64f5 0a3a 3e08 333c 24ad 4b3c a79d 793b
00000210: 8341 3ebd 0957 4e3c 3f8a 0000 269e 0080
00000220: d55b 7abd 3211 6ebd 30c5 113b 1f8e 4c3c
00000230: 79c6 f83b 414d 993d 3034 2c3c 4d3e 143b
00000240: 0c7e 8dbc c451 4f3c ff89 0080 498b 0000
00000250: 6e61 34bc d653 373c 4ff1 8fbd 8671 31bc
00000260: 5b8c 0080 1a47 f03b e845 e526 5a89 0080
00000270: c304 2fbd efaf c0bd 55d6 90ba 8b05 5abd
00000280: 244b 963d 90db 2b3a bcd0 b23d d6c7 2d3a
00000290: 1e96 ee3d 6705 f43d 6a31 3bb0 2689 0000
000002a0: 8331 a63d 91e2 0cbd b746 bcbc ed0f a93b
000002b0: 55c9 313c 6909 c2bb 4118 333c 2ecb bc21
000002c0: 363b ff3d 76a2 43bc 19e3 fbba 2a1c 693c
000002d0: 7f02 063c 4270 6db6 d38a 0000 d7ab 46ba
000002e0: 1957 45bb 9a71 243b 3f74 d8bd f196 843b
000002f0: 6068 a2bc df9e 5a3d 32ea d73d 7825 8ebc
00000300: 2aeb 083e cf63 9d3d a7bc be3d e3fd 7abb
00000310: 5074 0d3d 5603 753c 89a7 f1bc d886 f7bc
00000320: 0cc1 89ba 2b8b 4db9 e630 b63d eb6e 02bd
00000330: b589 35bd a28a 0080 e749 a1bd e920 653d
00000340: f165 793d 9934 383c de89 0000 4873 d93c
00000350: 81cb 013c a309 903c 89b3 903b fa46 38be
00000360: 2193 57bc c520 71bd 756f 813c 09dd dabd
00000370: 758d 8dba 9fe6 ef3d 95b8 163a 5cf7 623c
00000380: 9989 0000 963f 043d 338a 0080 ed19 f7bb
00000390: f7b1 3fbb a580 c1bd 8e89 0000 5a80 8a3b
000003a0: ce15 963c f89f 08bb d359 5b3c dc8b 0000
000003b0: 438a 0000 6989 0000 131a a6bd c477 69bd
000003c0: 6211 573c 1fa2 4a3c 382f 3b3d b389 0000
000003d0: 2bf7 133c b480 223c 208c 0080 aba8 e83d
000003e0: 368a 463b 9752 0a3c 40c6 183d 8589 0000
000003f0: 6127 933b 6521 3a3b 3b07 4cbd 74b9 27bc
0.042304084 0.023955077 0.03348742 0.018245757 0.09426958 -0.06733374 4.9393e-41 4.9425e-41
-0.09762399 0.06965965 -0.08369605 0.009524032 -0.09236712 -0.041499805 0.09985353 0.14629301
-0.04188799 -0.02071006 1.3934215e-23 6.773651e-35 -0.087212875 -0.04539473 0.01502036 0.08506122
5.5105816e-15 0.08447268 -3.1441474e-19 -2.313397e-21 0.046364233 0.007665869 0.00012739752 -0.12326891
0.08645539 -0.004031929 0.0970142 -0.055917416 -0.03194612 -0.0072227856 0.0057191835 -7.625614e-21
0.039747167 0.06603879 -0.0181068 0.04856205 0.049282644 -0.048384324 -0.062906206 -4.9711e-41
0.07923586 -0.016564345 -0.05762055 -0.06301167 0.014856964 0.027503246 -1.57463e-39 0.04587461
0.030446364 0.111952744 -0.02309032 -0.006858526 -0.1260936 0.045013994 0.02244237 0.0077642193
0.09106869 -0.05408614 0.09334514 0.038409047 0.011806694 0.034242503 0.02374709 0.034577314
0.03621919 -0.080490604 0.09870808 0.10004605 -0.08535262 -7.311458e-21 0.09225805 -0.024474349
-0.014472895 -0.0150698405 -2.0651538e-30 0.10106443 -0.071304716 0.023872906 0.0493305 -0.061998386
0.065585814 0.037933614 0.025666421 0.026584398 0.012879645 -0.008565915 -0.084856786 0.0021267533
4.9236e-41 0.0062292954 8.519409e-08 0.06251641 0.1108261 0.10348009 4.9347e-41 -0.10810792
-0.08817054 -0.014941123 -0.045982122 -4.47664e-40 -5.1472e-41 1.2526986e-06 0.006229364 0.051893745
-0.008389048 0.033240374 -0.0023811017 4.912e-41 -0.09266306 -0.03676902 -5.7980735e-15 0.10628127
-0.09678189 0.096222885 -0.08331306 -9.504348e-07 -0.06722241 0.03842322 0.028223464 -0.011139562
0.0005300848 0.010927258 0.012431417 0.0038088353 -0.046449196 0.012593993 4.9593e-41 -5.6733e-41
-0.061122734 -0.058121867 0.0022242777 0.012485056 0.007592019 0.07485438 0.010510489 0.0022620142
-0.017272018 0.012653772 -4.9504e-41 4.9966e-41 -0.011009557 0.011189422 -0.07028448 -0.010830289
-5.035e-41 0.0073326947 1.5909015e-15 -4.9272e-41 -0.04272915 -0.09408557 -0.0011050204 -0.053227942
0.07338551 0.00065558497 0.08731219 0.0006629204 0.11649726 0.11915093 -6.8100425e-10 4.92e-41
0.08114912 -0.034395758 -0.022982938 0.005159369 0.010851224 -0.005921532 0.010931076 1.2793157e-18
0.124624655 -0.011940589 -0.0019217461 0.014227906 0.008179306 -3.5381095e-06 4.9801e-41 -0.0007578707
-0.0030111729 0.0025092126 -0.10569047 0.004046314 -0.01982516 0.053374168 0.10542716 -0.01735185
0.13370958 0.076850526 0.09313326 -0.00382983 0.034534752 0.014954409 -0.029498832 -0.030215666
-0.0010509803 -0.00019602168 0.088960454 -0.03184406 -0.04432078 -4.9732e-41 -0.07875424 0.05593959
0.060888235 0.011243009 4.9457e-41 0.026544228 0.007922054 0.01758272 0.0044159335 -0.17995825
-0.013157637 -0.058869142 0.015800217 -0.1068669 -0.0010799604 0.11713909 0.0005749551 0.01385292
4.9361e-41 0.032287203 -4.9577e-41 -0.0075409324 -0.0029250362 -0.09448365 4.9345e-41 0.0042267265
0.018320944 -0.0020847302 0.013388115 5.0172e-41 4.9599e-41 4.9293e-41 -0.08110442 -0.056998983
0.013126703 0.012367754 0.04569933 4.9397e-41 0.009031097 0.0099183805 -5.0267e-41 0.11360296
0.0030294782 0.0084425425 0.03729844 4.9333e-41 0.0044907783 0.0028401252 -0.049811583 -0.010237087

val_conv1.bias f4 [2]
00000000: e29f 883d 9c20 ac3b
0.0667112 0.005252911
