课程设计/AlphaZero简单复现/models/policy_batch_1800.model (torch, 530639 bytes, 15 tensors)

conv1.weight f4 [32, 4, 3, 3]
0.25550604 -0.09121952 0.29471278 -0.096859224 -0.07914485 -0.12257014 0.3802141 -0.17020646
0.4287951 0.20058377 -0.07159979 0.18113983 -0.06560447 -0.052017003 -0.051805634 0.19997613
-0.08283331 0.18605806 0.054112133 -0.0028110472 0.044092923 0.010643941 -0.18614472 0.00089142885
0.043876234 -0.007160538 0.06662159 0.010324787 0.0039878795 -0.020591058 -0.09488522 0.11446715
-2.7991147e-05 0.018106494 0.039519344 -0.014718203 0.3742604 0.31953782 -0.4316176 0.19007304
-0.055436414 0.33773956 -0.35996863 0.17583275 0.14668 0.0002667248 0.019525036 0.057703976
-0.14938492 -0.037519198 -0.057003114 0.26158816 -0.10154651 0.09912079 -0.061855 -0.053156335
0.00044297008 -0.024810323 -0.011521119 -0.016984934 0.017299805 0.0111229895 0.021794114 0.014437049
-0.13091704 0.08390461 -0.15916248 0.0785419 -0.11832775 0.13304558 -0.045412242 0.1838911
0.2634854 0.21102431 -0.041181076 -0.3017287 -0.05442286 -0.29155052 0.08916109 0.23366456
-0.25251272 -0.16532351 -0.18122035 -0.11486511 0.3572745 0.18439828 0.19770427 0.13071005
-0.34257638 0.10006346 0.008883314 -0.028977644 0.053793043 -0.014986249 0.0362394 0.02666687
-0.019890606 -0.22696817 0.036429692 -0.15467264 0.10617393 0.05354072 -0.0064571183 0.051565085
0.045106158 0.029380675 0.13825469 -0.17598148 0.05775026 -0.6691668 0.38204646 -0.03474354
0.42583972 -0.47836828 0.060062177 0.039313763 0.10645145 0.13585348 0.19746812 -0.33185807
0.13102369 -0.22840013 0.15803002 -0.13833532 0.05205818 0.17136128 -0.017462617 0.06726627
-0.019251846 0.026782332 -0.03159083 0.06974211 -0.09374267 0.03208674 0.04561966 0.069622755
-0.061508875 0.08763195 0.1323342 -0.0131628895 -0.10250676 -0.10602994 -0.09103571 0.12381525
-0.22772005 -0.038966402 -0.057069995 0.07627577 0.23346636 0.100436814 -0.09618641 -0.053812712
0.20497957 -0.11050027 -0.020622008 -0.103513435 0.22042812 -0.06252 -0.07823407 0.073890224
-0.06867112 -0.12680161 -0.115219 -0.033875093 0.058784273 0.13717192 -0.08629619 -0.06527452
-0.028012833 -0.05340283 -0.16228051 0.059753317 0.07368261 0.109511346 0.12338877 0.08691514
0.0957445 0.14021577 0.14317629 0.11029629 0.2567381 0.04964939 -0.103590846 -0.35558757
0.39742634 0.23240522 0.35663557 0.029899849 -0.044326622 0.13499068 -0.079467215 -0.11124633
-0.5217201 0.2403838 0.12989634 0.09612192 -0.12797083 -0.08901871 0.08453093 0.008130829
0.013382227 -0.08019025 0.08937188 0.026716718 0.06350011 0.020653127 0.014594271 0.029287977
0.038698234 0.111732155 0.15383694 -0.12250507 -0.07727078 -0.011953987 -0.054916795 0.1677394
-0.06919453 0.015395415 -0.087230556 0.034310527 0.008517099 -0.1467475 0.013850652 -0.0040833675
0.18212242 -0.03944545 0.075757764 0.14382243 -0.062337372 0.5470226 -0.48662454 0.04962897
-0.60858417 0.37499085 -0.029834075 -0.0018816217 0.011030041 -0.016152095 0.06917992 -0.07803542
0.05164134 -0.0040097 0.11168589 0.009242593 0.12199995 0.11499935 -0.00080193265 -0.07329088
-0.007883655 -0.1283307 -0.026003063 -0.05016399 -0.23298942 0.14438283 0.25508428 -0.16213524
00000000: b0d1 823e 4dd1 babd 98e4 963e 215e c6bd
00000010: b216 a2bd 0e06 fbbd 6cab c23e 9a4a 2ebe
00000020: 088b db3e d565 4d3e e9a2 92bd b87c 393e
00000030: a35b 86bd c80f 55bd 2532 54bd 8bc6 4c3e
00000040: 83a4 a9bd 0186 3e3e afa4 5d3d 8c39 38bb
00000050: c89a 343d ed63 2e3c b99c 3ebe c7ae 693a
00000060: 91b7 333d f2a2 eabb e670 883d 4c29 293c
00000070: c2ac 823b 94ae a8bc 2f53 c2bd c16d ea3d
00000080: 88ce eab7 1254 943c 09df 213d 9e24 71bc
00000090: 0f9f bf3e 769a a33e fbfc dcbe 82a2 423e
000000a0: 4b11 63bd 33ec ac3e cf4d b8be 800d 343e
000000b0: 4833 163e 32d7 8b39 f8f2 9f3c 015b 6c3d
000000c0: 5cf8 18be bbad 19bd 197c 69bd e2ee 853e
000000d0: 9ef7 cfbd d7ff ca3d ab5b 7dbd 75ba 59bd
000000e0: 703e e839 053f cbbc 13c3 3cbc fd23 8bbc
000000f0: 52b8 8d3c 333d 363c 9289 b23c 5f89 6c3c
00000100: 1e0f 06be 2ed6 ab3d 7dfb 22be 93da a03d
00000110: d255 f2bd 1a3d 083e 3002 3abd f34d 3c3e
00000120: 8fe7 863e c216 583e 7dad 28bd 2f7c 9abe
00000130: 81ea 5ebd 1c46 95be 179a b63d c345 6f3e
00000140: 5949 81be 914a 29be d491 39be 663e ebbd
00000150: afec b63e e7d2 3c3e fd72 4a3e dbd8 053e
00000160: 2c66 afbe 12ee cc3d 528b 113c 8662 edbc
00000170: 1856 5c3d e288 75bc c46f 143d 7b74 da3c
00000180: a0f1 a2bc 586a 68be 4d37 153d 8162 1ebe
00000190: b871 d93d 844d 5b3d 3c96 d3bb e935 533d
000001a0: 3cc1 383d beaf f03c a392 0d3e 7d34 34be
000001b0: 898b 6c3d 844e 2bbf 989b c33e 3e4f 0ebd
000001c0: aa07 da3e b0ec f4be c203 763d 7807 213d
000001d0: 3803 da3d 2d1d 0b3e 1535 4a3e 4de9 a9be
000001e0: 132b 063e b9e1 69be 9fd2 213e c6a7 0dbe
000001f0: f53a 553d 5579 2f3e c30d 8fbc e6c2 893d
00000200: 0cb6 9dbc 9f66 db3c 6365 01bd f4d4 8e3d
00000210: 28fc bfbd 636d 033d aedb 3a3d 6096 8e3d
00000220: bbf0 7bbd 6178 b33d 9e82 073e 29a9 57bc
00000230: 10ef d1bd 3a26 d9bd ee70 babd da92 fd3d
00000240: 722f 69be 3c9b 1fbd 3ac2 69bd 7936 9c3d
00000250: ce11 6f3e d1b1 cd3d 61fd c4bd b86a 5cbd
00000260: 2ae6 513e f74d e2bd 7cef a8bc dafe d3bd
00000270: e9b7 613e 7c0a 80bd 2f39 a0bd c253 973d
00000280: 72a3 8cbd 48d8 01be f0f7 ebbd 9cc0 0abd
00000290: c7c7 703d cc76 0c3e 0fbc b0bd a6ae 85bd
000002a0: 2b7b e5bc edbc 5abd dd2c 26be e5bf 743d
000002b0: e9e6 963d 7c47 e03d 40b3 fc3d 9100 b23d
000002c0: b115 c43d b994 0f3e ce9c 123e 05e3 e13d
000002d0: 2d73 833e 295d 4b3d 7027 d4bd 930f b6be
000002e0: 777b cb3e a2fb 6d3e f098 b63e 87f0 f43c
000002f0: d58f 35bd ff3a 0a3e b5bf a2bd 1ed5 e3bd
00000300: 738f 05bf 2c27 763e 8c03 053e 92db c43d
00000310: c90a 03be 714f b6bd 8d1e ad3d 2b37 053c
00000320: 2141 5b3c c93a a4bd 9b08 b73d 05dd da3c
00000330: 580c 823d bf30 a93c cf1c 6f3c 57ed ef3c
00000340: 0a82 1e3d d4d3 e43d 6e87 1d3e f0e3 fabd
00000350: 2540 9ebd a8da 43bc 6ff0 60bd e1c3 2b3e
00000360: ddb5 8dbd 0d3d 7c3c efa5 b2bd 3289 0c3d
00000370: 4d8b 0b3c fa44 16be d8ed 623c c5cd 85bb
00000380: 4d7e 3a3e 8d91 21bd e326 9b3d 3046 133e
00000390: 7955 7fbd ac09 0c3f da26 f9be bf47 4b3d
000003a0: 2ccc 1bbf cdfe bf3e 9766 f4bc bfa0 f6ba
000003b0: 58b7 343c 6651 84bc 34ae 8d3d 09d1 9fbd
000003c0: df85 533d cd63 83bb 92bb e43d 3f6e 173c
000003d0: 1cdb f93d c784 eb3d ca38 52ba 8719 96bd
000003e0: 722a 01bc 1f69 03be 6004 d5bc c278 4dbd
000003f0: c794 6ebe 18d9 133e 689a 823e c806 26be

conv1.bias f4 [32]
-0.048229016 0.12760961 0.14972545 0.02498504 -0.13155125 0.010250253 0.0036214786 0.12295869
0.067936875 -0.08239918 0.312713 0.013530962 -0.09541154 -0.027350314 0.015099854 0.23877397
-0.043091208 0.25424957 0.004270286 0.040389255 0.27919468 -0.023501147 -0.061902527 0.033148125
-0.012953068 0.19545719 0.26647192 -0.025920019 -0.04383617 -0.08889353 0.14543489 -0.12993868
00000000: ca8b 45bd 18ac 023e a151 193e 6dad cc3c
00000010: 5fb5 06be adf0 273c 5456 6d3b c4d1 fb3d
00000020: 7d22 8b3d e7c0 a8bd eb1b a03e f8b0 5d3c
00000030: 2067 c3bd c40d e0bc 6165 773c 2a81 743e
00000040: 6880 30bd 002d 823e c1ed 8b3b 346f 253d
00000050: 9bf2 8e3e 7a85 c0bc 818d 7dbd 54c6 073d
00000060: 1b39 54bc ee25 483e 026f 883e 3856 d4bc
00000070: 8e8d 33bd d00d b6bd e2ec 143e a50e 05be

conv2.weight f4 [64, 32, 3, 3]
0.1191787 0.106999405 0.15850827 0.104523234 -0.024721036 0.111604944 0.031215545 0.046443153
0.084115095 0.13719289 -0.14324775 -0.031839553 -0.028241461 0.0067899474 -0.16566586 0.011606844
0.04784584 0.15875082 -0.007714391 -0.030744653 0.092744544 -0.08551193 0.037447147 -0.026473304
-0.027574671 -0.08315755 -0.042851273 0.0406445 0.064200945 0.004143493 0.013724081 -0.13052425
0.12380327 -0.18830912 0.12913519 -0.11932707 0.032707214 0.019157762 0.025217127 0.02170181
-0.0011344842 0.029413708 -0.04245984 0.016634295 0.03707572 -0.06019218 -0.035135824 0.017497761
0.014174885 0.10381041 -0.101959 -0.04628634 -0.014404021 -0.12105771 0.1078078 -0.03969178
-0.0069280667 -0.11585399 0.13894765 0.04600901 0.07810326 0.122367084 0.05152401 -0.03737218
-0.15910158 0.090257674 0.07099782 0.11341732 -0.16514976 0.2425888 0.044492524 -0.094120495
-0.049179863 0.08504252 -0.067992315 0.08564189 0.08060662 -0.043635983 -0.07305084 0.14386056
0.12112678 -0.049462456 0.12181998 -0.044334617 -0.008339756 -0.06656236 0.08397705 -0.056656495
0.12837797 0.07243287 0.007923649 -0.09322174 0.028539835 0.103144966 -0.051545467 -0.037997264
0.048101116 0.084010474 0.11030005 -0.021634577 -0.10843052 0.02388501 0.01720742 0.030632995
0.09752825 -0.06027853 -0.022749254 0.02209054 -0.019911138 0.010745282 -0.018760553 0.07841386
-0.10671804 0.06842612 -0.114188135 0.0370884 0.009680081 -0.06606955 -0.008856572 0.028315106
0.16548319 -0.032706268 -0.043030486 0.16844259 -0.07373074 0.139266 -0.042647205 0.21268678
0.13841186 -0.028343633 0.05999847 0.09820748 -0.025522448 -0.1765812 -0.10063002 -0.014547997
0.06246318 -0.016554788 0.020355288 -0.041140758 0.07622227 -0.1209902 0.074338645 0.08946216
-0.080111645 -0.05619179 -0.119747154 -0.010010155 0.053976614 0.0010367939 0.044566315 0.20596796
0.14485453 0.06321039 0.055026505 -0.08525295 0.019635998 0.0031063913 -0.06457113 0.029270919
0.0014292008 0.06353289 -0.04383988 0.022543194 -0.04032429 0.15753792 0.17243186 -0.03267465
-0.06777521 -0.011449302 -0.15161382 -0.122953445 0.044707336 0.0049623847 0.06581132 -0.04306236
-0.013386051 0.04099222 0.01971276 -0.20437318 -0.08469471 -0.040634412 -0.00901849 0.091171734
-0.10296038 -0.10155194 0.05345827 -0.046803985 0.045387894 0.20492661 0.14049456 0.12835072
-0.024946941 0.007901401 -0.07113704 -0.18541418 -0.36930642 0.097681165 0.11202438 -0.03105633
-0.00034868205 0.019007482 -0.014990112 0.016818989 -0.12293722 -0.08477689 0.074643046 -0.036242314
0.09103431 -0.08116576 -0.035212234 0.058904592 0.05061756 -0.07832376 0.06380327 -0.18361172
0.02682309 0.19641355 -0.017184619 0.12533456 0.041518304 -0.056632996 0.051408548 -0.073886916
-0.03838168 -0.04565035 0.021582477 -0.028687844 -0.1195559 -0.004056909 0.13591741 -0.19720626
0.050702088 0.23266874 -0.078989014 0.05537769 -0.01912858 0.049180917 -0.0089319525 0.00094030617
-0.08022192 -0.23373458 0.08957327 0.004390588 -0.04730223 -0.03179074 0.07225154 -0.026796272
0.015592682 0.075050384 0.012543769 0.07537917 0.010420878 0.033004448 -0.033183653 -0.06472011
00000000: f613 f43d 8122 db3d fe4f 223e 4710 d63d
00000010: c583 cabc 2291 e43d beb7 ff3c 2d3b 3e3d
00000020: 8944 ac3d 4b7c 0c3e 8aaf 12be 316a 02bd
00000030: a35a e7bc 357e de3b 50a4 29be a22a 3e3c
00000040: 00fa 433d 938f 223e 01c9 fcbb 36dc fbbc
00000050: daf0 bd3d e120 afbd 2e62 193d 8bde d8bc
00000060: 47e4 e1bc 814e aabd d184 2fbd d97a 263d
00000070: c97b 833d 23c6 873b f8da 603c 26a8 05be
00000080: 928c fd3d 1bd4 40be 043c 043e c061 f4bd
00000090: 00f8 053d bdf0 9c3c 2694 ce3c ffc7 b13c
000000a0: f9b2 94ba 04f5 f03c 5fea 2dbd a544 883c
000000b0: b6dc 173d 138c 76bd 95ea 0fbd 7757 8f3c
000000c0: c73d 683c 8d9a d43d e1cf d0bd bf96 3dbd
000000d0: d8fe 6bbc 1bed f7bd 56ca dc3d d993 22bd
000000e0: d604 e3bb db44 edbd 4b48 0e3e f273 3c3d
000000f0: 9af4 9f3d 989b fa3d d70a 533d 9213 19bd
00000100: 86eb 22be 04d9 b83d 4e67 913d 5747 e83d
00000110: 051d 29be 3369 783e cb3d 363d 3fc2 c0bd
00000120: d370 49bd c62a ae3d 8e3f 8bbd 0465 af3d
00000130: 1515 a53d a5bb 32bd ae9b 95bd 2f50 133e
00000140: 5111 f83d 2599 4abd c17c f93d 3798 35bd
00000150: 79a3 08bc d951 88bd 29fc ab3d a410 68bd
00000160: 8475 033e af57 943d 31d2 013c 0aeb bebd
00000170: 5fcc e93c ab3d d33d 5721 53bd 05a3 1bbd
00000180: ad05 453d af0d ac3d fee4 e13d ff3a b1bc
00000190: d210 debd 7faa c33c 93f6 8c3c 0cf2 fa3c
000001a0: e4bc c73d 9fe6 76bd a55c babc 38f7 b43c
000001b0: af1c a3bc fb0c 303c bbaf 99bc 7297 a03d
000001c0: fd8e dabd fe22 8c3d 78db e9bd 02ea 173d
000001d0: 3499 1e3c 794f 87bd 281b 11bc 15f5 e73c
000001e0: 6d74 293e 02f7 05bd bc40 30bd 377c 2c3e
000001f0: 2400 97bd bf9b 0e3e d6ae 2ebd 90ca 593e
00000200: d7bb 0d3e e830 e8bc f5c0 753d 0121 c93d
00000210: 7414 d1bc b4d1 34be 1d17 cebd b95a 6ebc
00000220: 64d9 7f3d e89d 87bc 22c0 a63c 3683 28bd
00000230: 6c1a 9c3d b6c9 f7bd dc3e 983d f037 b73d
00000240: 9311 a4bd 5d29 66bd ff3d f5bd a201 24bc
00000250: 9516 5d3d 08e5 873a 2b8b 363d 44e9 523e
00000260: bf54 143e 7374 813d 7963 613d 1999 aebd
00000270: acdb a03c 9994 4b3b de3d 84bd 91c9 ef3c
00000280: 0554 bb3a 881d 823d 7291 33bd 81ac b83c
00000290: 152b 25bd 9f51 213e fa91 303e dbd5 05bd
000002a0: bbcd 8abd da95 3bbc a740 1bbe 04cf fbbd
000002b0: 0a1f 373d 809b a23b 16c8 863d 2862 30bd
000002c0: 2b51 5bbc 75e7 273d a77c a13c 3447 51be
000002d0: 6c74 adbd 4570 26bd 4ac2 13bc 3fb8 ba3d
000002e0: e4dc d2bd 77fa cfbd 0ff7 5a3d 89b5 3fbd
000002f0: a8e8 393d 48d8 513e cedd 0f3e 5f6e 033e
00000300: 875d ccbc e174 013c 4cb0 91bd 37dd 3dbe
00000310: bb15 bdbe 100d c83d 0a6d e53d d869 febc
00000320: 50cf b6b9 94b5 9b3c 1699 75bc fac7 893c
00000330: 82c6 fbbd 829f adbd 74de 983d d272 14bd
00000340: 3270 ba3d 3c3a a6bd b43a 10bd f145 713d
00000350: 5c54 4f3d 3568 a0bd 4aab 823d b604 3cbe
00000360: 19bc db3c a220 493e c2c6 8cbc b457 003e
00000370: 190f 2a3d 00f8 67bd c591 523d 0652 97bd
00000380: 1c36 1dbd ddfb 3abd bccd b03c c502 ebbc
00000390: b9d9 f4bd d2ef 84bb ef2d 0b3e 70f0 49be
000003a0: feac 4f3d b740 6e3e fec4 a1bd b7d3 623d
000003b0: 8ab3 9cbc ee71 493d 5357 12bc e17e 763a
000003c0: 644b a4bd 1e58 6fbe 3172 b73d ecde 8f3b
000003d0: fcbf 41bd 0237 02bd 9ef8 933d db83 dbbc
000003e0: 7378 7f3c 04b4 993d 6184 4d3c 6560 9a3d
000003f0: 55bc 2a3c ac2f 073d 95eb 07bd fa8b 84bd

conv2.bias f4 [64]
-0.047316536 0.06564698 -0.03530653 -0.03784852 0.115150735 -0.044971086 0.023398524 -0.011316792
0.0011656566 -0.0024593773 0.031981736 -0.015998768 0.053883594 0.036990512 -0.04898111 0.030732403
0.034934673 -0.04487299 0.014143168 0.103503436 0.006941226 0.055646505 0.039082676 -0.07218469
0.032863647 0.03886034 0.048016317 0.08428685 0.026506916 0.0648751 0.049413864 0.031371333
0.025362313 -0.00455341 0.015856666 -0.035456248 0.028134366 0.006368032 0.0696894 0.10938457
0.09303245 -0.016225688 -0.075553715 -0.0776231 0.04909914 -0.04803304 0.0193519 -0.008881001
0.052746344 -0.012425803 0.014314328 0.0020995836 0.057282083 0.08153408 -0.0045804973 0.038237702
0.008971991 -0.025040073 0.021560665 -0.024376472 0.025413327 -0.05144878 -0.052242205 0.0069653103
00000000: fcce 41bd ed71 863d 949d 10bd 0d07 1bbd
00000010: 26d4 eb3d 9a33 38bd 43ae bf3c 116a 39bc
00000020: f2c8 983a 812d 21bb 48ff 023d d90f 83bc
00000030: 0bb5 5c3d 5d83 173d 6ba0 48bd 85c2 fb3c
00000040: a917 0f3d becc 37bd bfb8 673c 9cf9 d33d
00000050: 3973 e33b 97ed 633d 2815 203d 91d5 93bd
00000060: 089c 063d 052c 1f3d c2ac 443d 969e ac3d
00000070: 0825 d93c 3ddd 843d 3166 4a3d 3a7f 003d
00000080: a0c4 cf3c c634 95bb d7e5 813c 923a 11bd
00000090: 0b7a e63c edaa d03b 51b9 8e3d 0405 e03d
000000a0: cc87 be3d bceb 84bc e8bb 9abd dcf8 9ebd
000000b0: 2e1c 493d 4bbe 44bd e087 9e3c 9e81 11bc
000000c0: 8d0c 583d 9895 4bbc a586 6a3c 2b99 093b
000000d0: 9ea0 6a3d 57fb a63d ff17 96bb 239f 1c3d
000000e0: 42ff 123c d720 cdbc fe9f b03c 2bb1 c7bc
000000f0: 9c2f d03c f5bb 52bd ecfb 55bd 423d e43b

conv3.weight f4 [128, 64, 3, 3]
-0.017284745 0.01125755 0.0036871952 -0.008171137 -0.061661217 0.04082865 0.03141605 -0.016477544
0.060361538 0.029455941 -0.04002696 -0.0101161245 -0.021817647 0.0091587985 -0.0070602843 -0.034881677
-0.018501706 -0.029694542 -0.052477982 -0.086438864 -0.11295683 -0.020815814 0.07743863 -0.0027918983
-0.0411955 -0.022966998 -0.0405156 0.0010624428 0.0005027546 0.047525346 0.007670772 -0.015512756
0.070884585 -0.025150238 0.0439128 0.012732398 -0.002903058 0.04133286 0.014003947 -0.057860065
-0.032852452 0.038826678 -0.0457087 0.021950226 0.021695685 0.035645943 0.068779595 0.012619352
0.04264025 0.05403123 0.030433407 0.05653744 0.057920165 0.058463786 -0.016092282 0.028272165
0.00344021 0.007595711 0.06892917 -0.019332303 0.073927775 0.044013526 0.04548062 0.018497685
-0.0074621565 -0.005504207 0.03691021 -0.008781977 -0.010552954 -0.017673243 -0.0022491652 0.008363119
0.026699778 -0.0052661262 -0.029829413 -0.0017937035 -0.015873298 -0.04739284 0.049905032 0.019900303
-0.016104829 0.071366645 0.04775026 0.036077313 0.016532626 0.02906926 -0.008889712 0.07769823
-0.00018553827 0.021362018 0.041124344 -0.04636453 -0.0011968166 -0.028246226 -0.08266679 0.022048317
0.031303074 0.0370742 0.024101118 0.06461587 0.032265343 0.1159035 0.030409377 0.076624416
-0.01217169 0.043875873 0.069106214 0.036582973 0.007051618 0.025310209 0.0010877699 0.058596615
0.008354484 0.04127734 0.025032276 0.019949628 0.03581344 -0.014408538 -0.0056404765 -0.021504326
-0.04373014 0.014345415 -0.034317356 0.038734265 0.005235201 0.037904736 0.07899222 0.02758004
0.039949223 0.07224057 0.0926616 0.04173622 0.057263233 0.031985328 0.0347109 0.036634743
-0.026411675 0.03530401 0.032223254 -0.0048007783 -0.0659608 -0.016076382 0.020106371 -0.0049351617
-0.004778661 -0.023157155 0.05653334 0.043805588 0.000666646 0.06598515 -0.027492315 0.10498489
-0.040960517 0.099391766 -0.08789023 0.046971984 -0.0026495652 -0.02948119 0.0053532454 0.12015849
-0.10849402 0.10457306 -0.056642782 0.018149037 0.048625786 -0.0163654 -0.09672264 0.0823118
0.02065393 0.06886566 0.018680066 0.0030587176 0.07141776 -0.008361744 0.04565761 0.047845777
0.032936763 0.02856677 0.059104234 -0.0015891602 -0.0019900368 -0.040363617 0.026108999 -0.016703848
-0.053746898 0.035093747 -0.020060748 -0.019859646 -0.008397223 0.054728243 0.060471587 -0.0383961
-0.013543845 -0.0081185745 0.06638451 -0.061117236 0.0215003 0.04632432 0.00031901654 0.07092264
-0.07436445 -0.010848791 0.026142959 -0.056547765 -0.023481492 0.10087884 -0.073732786 -0.041470356
-0.011818649 0.011778421 0.05819738 0.04058468 -0.0058090333 0.0006971564 0.022526432 -0.07079338
-0.01148464 0.02951699 -0.0054934076 0.022537937 -0.005786802 0.016286613 0.0057313936 -0.0062881545
0.044240933 -0.0069018593 0.008145576 0.0033502367 0.046347328 0.026185485 0.019427983 -0.0063083097
0.03285271 0.035453483 0.01043381 0.09874356 0.03868028 0.0070197834 -0.048679184 0.060529448
0.0018022361 0.017606238 -0.017718425 0.03528509 -0.019112209 0.033557996 0.054974146 -0.010804888
-0.0183654 0.022747597 0.04617145 0.035736263 0.0058546206 -0.10202337 -0.019626265 -0.013047377
00000000: bd98 8dbc 9671 383c dfa4 713b 3ce0 05bc
00000010: 7990 7cbd f13b 273d 1eae 003d eafb 86bc
00000020: a93d 773d 964d f13c 4ff3 23bd 1abe 25bc
00000030: ecba b2bc c90e 163c f559 e7bb 17e0 0ebd
00000040: e490 97bc f841 f3bc 27f3 56bd dc06 b1bd
00000050: e955 e7bd ed85 aabc 2598 9e3d 48f8 36bb
00000060: 9dbc 28bd 4925 bcbc b0f3 25bd aa41 8b3a
00000070: 4acb 033a f0a9 423d 195b fb3b 3729 7ebc
00000080: f02b 913d df07 cebc e8dd 333d 8c9b 503c
00000090: 3b41 3ebb a54c 293d d070 653c adfe 6cbd
000000a0: 4b90 06bd b908 1f3d 0c39 3bbd f6d0 b33c
000000b0: 26bb b13c 7b01 123d 51dc 8c3d 66c1 4e3c
000000c0: 8ba7 2e3d da4f 5d3d 7b4f f93c cd93 673d
000000d0: b23d 6d3d b977 6f3d f6d3 83bc 079b e73c
000000e0: 2575 613b 71e5 f83b bd2a 8d3d c75e 9ebc
000000f0: 7267 973d 8747 343d e349 3a3d 7588 973c
00000100: 1b85 f4bb a35c b4bb 292f 173d 48e2 0fbc
00000110: 4ce6 2cbc 7ac7 90bc bb66 13bb 7705 093c
00000120: 7eb9 da3c 788f acbb d05c f4bc b41a ebba
00000130: b808 82bc ff1e 42bd 3869 4c3d f605 a33c
00000140: 46ee 83bc ad28 923d c795 433d cec5 133d
00000150: 6e6f 873c a822 ee3c 28a6 11bc 4020 9f3d
00000160: 0d8d 42b9 66ff ae3c 0072 283d bce8 3dbd
00000170: 80de 9cba a164 e7bc 354d a9bd ac9e b43c
00000180: a737 003d 1edb 173d b56f c53c 5355 843d
00000190: aa28 043d d05e ed3d 161d f93c 43ed 9c3d
000001a0: c56b 47bc 30b7 333d 8f87 8d3d 07d8 153d
000001b0: 4211 e73b 5b57 cf3c 8093 8e3a 0103 703d
000001c0: 3fe1 083c 6e12 293d 7d10 cd3c 676d a33c
000001d0: 1db1 123d ca11 6cbc bfd3 b8bb d729 b0bc
000001e0: 601e 33bd 0809 6b3c 5b90 0cbd d2a7 1e3d
000001f0: 0d8c ab3b ff41 1b3d acc6 a13d 89ef e13c
00000200: cca1 233d ddf2 933d 5dc5 bd3d 99f3 2a3d
00000210: da8c 6a3d 0c03 033d 042d 0e3d 500e 163d
00000220: 4c5d d8bc f09a 103d 88fc 033d d94f 9dbb
00000230: 7516 87bd 9eb2 83bc 1eb6 a43c 23b7 a1bb
00000240: 5096 9cbb 13b4 bdbc 818f 673d 7d6d 333d
00000250: dbc1 2e3a 3923 873d 9037 e1bc 5102 d73d
00000260: 37c6 27bd e98d cb3d cbff b3bd b265 403d
00000270: 54a4 2dbb 8982 f1bc 476a af3b a815 f63d
00000280: 1d32 debd 672a d63d 4302 68bd 4aad 943c
00000290: d52b 473d bb10 86bc 8516 c6bd 1793 a83d
000002a0: 6e32 a93c 7009 8d3d f006 993c c474 483b
000002b0: 7943 923d b2ff 08bc 7903 3b3d eff9 433d
000002c0: b3e8 063d dc04 ea3c 4817 723d 5e4b d0ba
000002d0: 476b 02bb 5254 25bd 8ae2 d53c 82d6 88bc
000002e0: b525 5cbd 76be 0f3d 7056 a4bc b2b0 a2bc
000002f0: 8294 09bc b92a 603d 0eb1 773d 3b45 1dbd
00000300: 01e7 5dbc c503 05bc 9af4 873d 1156 7abd
00000310: 6621 b03c 92be 3d3d ad41 a739 e43f 913d
00000320: 644c 98bd 21bf 31bc c229 d63c a19e 67bd
00000330: 425c c0bc 9199 ce3d 3701 97bd d2dc 29bd
00000340: 02a3 41bc 47fa 403c 6060 6e3d 1f3c 263d
00000350: b459 bebb 60c1 363a 5a89 b83c 1ffc 90bd
00000360: 122a 3cbc 9dcd f13c 0b02 b4bb 7ba1 b83c
00000370: 379f bdbb 816b 853c 6ace bb3b dd0c cebb
00000380: fb35 353d fe28 e2bb 0675 053c a58f 5b3b
00000390: b2d6 3d3d f182 d63c 6f27 9f3c f0b5 cebb
000003a0: 9090 063d ac37 113d 92f2 2a3c 103a ca3d
000003b0: 376f 1e3d 3606 e63b d363 47bd baed 773d
000003c0: 0239 ec3a f53a 903c 3b26 91bc 1987 103d
000003d0: 3591 9cbc 1c74 093d 922c 613d fc06 31bc
000003e0: 0973 96bc 2b59 ba3c 461e 3d3d 3060 123d
000003f0: 1ed8 bf3b a1f1 d0bd 43c7 a0bc aac4 55bc

conv3.bias f4 [128]
0.0135320425 0.02868028 -0.025604498 -0.012930203 0.013123967 0.046152648 4.9212e-41 -6.685911e-09
-0.03725181 0.011558812 0.049033836 0.009539366 0.024447234 0.0071332767 -0.009762003 0.013049092
-0.039812855 0.0065569403 -2.9545627e-23 -1.1270492e-29 0.025871603 0.004180753 -0.007699871 -0.04425831
-2.6849125e-09 -0.05335025 -4.9173e-41 -1.1659006e-18 0.008156138 -0.012935315 -3.9159545e-10 0.024574922
0.014939127 -0.031002903 0.020402584 0.01681729 -0.0433832 -0.026172876 -8.2151224e-08 -2.2065418e-13
-0.062317442 -0.007989997 0.0607781 0.0071148453 -0.00466477 0.0060135764 0.018733455 -0.002787663
-0.019836927 0.032107975 -0.00917669 0.018784886 -0.009390161 -0.0020908064 -4.728737e-18 -0.0056189685
-0.0016467887 -0.02373534 0.0155413505 0.02062728 0.039597146 -0.046143826 0.02984986 5.623607e-05
0.018614309 0.08004621 0.005494151 0.0146609675 -0.0156145105 0.0032821312 0.028634196 -0.03123606
-0.00095860247 0.044985346 -0.061899517 -0.023098372 -0.0039703 -1.3589767e-16 0.012290346 -0.010475231
0.06205022 0.044212807 -0.0006713807 0.014712562 0.071818985 0.034292918 -0.028469361 -0.017516864
-0.038966507 -0.013517061 0.015993206 -0.084222466 -0.0006983746 0.06389145 0.019596033 0.01202195
-6.3708684e-28 0.007179085 -1.1833095e-27 -0.040310606 -0.0605242 -0.007710747 -1.1901795e-20 0.06334219
0.0585197 0.00645205 0.053618014 -2.604318e-13 -5.5020104e-07 -0.00034364685 0.039880954 -0.018647999
0.030165885 0.021111105 0.035587747 -0.0013833803 0.021055052 -0.01875227 -7.521871e-09 -0.008498997
0.01354933 -0.007808688 -0.09207159 -1.3640121e-22 0.075766966 0.012194639 -0.04389627 0.0046950313
00000000: 80b5 5d3c e8f2 ea3c 86c0 d1bc 34d9 53bc
00000010: e805 573c 8f0a 3d3d 2f89 0000 e5b9 e5b1
00000020: 5b95 18bd 2c61 3d3c b4d7 483d 004b 1c3c
00000030: 9145 c83c 43be e93b cff0 1fbc dccb 553c
00000040: ce12 23bd 9adb d63b b7df 0e9a bd97 648f
00000050: aff0 d33c b3fe 883b 334f fcbb 3448 35bd
00000060: 7b81 38b1 cb85 5abd 1389 0080 7b0e aca1
00000070: 52a1 053c a5ee 53bc 2948 d7af 5951 c93c
00000080: 3dc3 743c cdf9 fdbc 5223 a73c 6ac4 893c
00000090: 95b2 31bd 8068 d6bc 1d6b b0b3 3d6f 78aa
000000a0: 9340 7fbd 7ae8 02bc 75f2 783d a623 e93b
000000b0: edda 98bb 890d c53b e776 993c 39b1 36bb
000000c0: 0d81 a2bc a783 033d d459 16bc c3e2 993c
000000d0: 31d9 19bc e905 09bb a975 aea2 531f b8bb
000000e0: 0fd9 d7ba 9e70 c2bc 26a1 7e3c 8bfa a83c
000000f0: 9e30 223d 4f01 3dbd b287 f43c 05df 6b38
00000100: 097d 983c 44ef a33d 4708 b43b 8e34 703c
00000110: 01d4 7fbc 0619 573b 4392 ea3c c4e2 ffbc
00000120: b94a 7bba 8e42 383d 598a 7dbd cc38 bdbc
00000130: 4a19 82bb eaad 1ca5 735d 493c 4ea0 2bbc
00000140: 5f28 7e3d 7d18 353d 99ff 2fba f50c 713c
00000150: d515 933d bb76 0c3d 9438 e9bc 877f 8fbc
00000160: 589b 1fbd aa76 5dbc 2f04 833c d47c acbd
00000170: 2013 37ba 85d9 823d dc87 a03c b7f7 443c
00000180: a0e6 4992 883e eb3b bc80 bb92 bc1c 25bd
00000190: 39e8 77bd 6faa fcbb 8dd1 609e 8db9 813d
000001a0: 5ab2 6f3d b86b d33b 909e 5b3d 2e9c 92aa
000001b0: 87b1 13b5 802b b4b9 365a 233d b0c3 98bc
000001c0: 721e f73c 32f1 ac3c 75c4 113d 8a52 b5ba
000001d0: a57b ac3c 5c9e 99bc 8a39 01b2 613f 0bbc
000001e0: 02fe 5d3c 06e0 ffbb 0890 bcbd 21e6 249b
000001f0: b62b 9b3d 06cc 473c 93cc 33bd c7d8 993b

act_conv1.weight f4 [4, 128, 1, 1]
0.018309588 0.12664005 -0.123184755 0.05141369 0.13281438 -0.10445372 0.0027199034 0.00081132347
-0.09571377 0.12479355 -0.047723364 0.07622642 0.06663546 -0.025101742 -0.046685375 0.012003813
0.07573315 0.13520692 2.6620735e-05 -4.944e-41 0.08606188 0.07585938 0.112892754 0.23024563
-4.9777e-41 -0.06569561 -0.00028013048 4.9317e-41 0.025845159 0.0640416 -3.1039895e-06 0.020768113
-0.062909335 0.006666488 0.28143656 0.047288824 0.12019875 -0.07985842 0.00017374838 4.9058e-41
0.10259961 0.06815562 0.10552639 -0.18223768 -0.1526794 0.032942474 0.07583955 0.006640997
0.1507174 -0.090290405 0.23812887 0.3252011 0.07721454 -0.030139193 4.9124e-41 -0.02880278
-0.054045994 -0.0613393 -0.06300956 -0.029672148 -0.079206385 -0.035001438 -0.16054192 0.005623718
0.14017542 0.2841776 0.0025208485 0.14327176 0.12596932 -0.11290076 0.13483307 0.17157048
-0.029479085 -0.027380975 0.014282413 0.13136144 0.0764379 -2.4623154e-35 0.041211106 0.32274994
0.013024351 0.072052285 -9.638593e-16 -0.041502655 -0.12298338 0.11439947 0.05865599 -0.062818885
0.06628945 0.09797167 0.0887081 -0.090731405 0.00051308237 0.0017058615 -0.03774958 0.07579556
-4.9694e-41 0.14864767 -9.436073e-06 -0.18654309 -0.024787273 0.112817556 -2.485853e-06 0.007265522
-0.12488867 -0.03176282 0.11872418 -4.955e-41 0.00013000389 -4.9491e-41 0.097863846 -0.17053963
0.041932292 0.12107804 0.16903313 -0.006359774 0.0917029 -0.020820934 -4.908e-41 -0.07324322
-0.0832508 0.26608342 -0.03576096 -4.9275e-41 -0.05515786 -0.09345152 0.14431623 -0.04013725
0.031059006 -0.040820103 0.09817025 -0.011008917 0.09749975 -0.010376975 -0.0005339739 -6.8097594e-12
-0.26135108 0.019282412 0.012425697 -0.03838111 -0.02182313 -0.017248945 0.069412254 -0.18525584
-0.18239556 -0.10484921 4.9483e-41 -5.1819e-41 0.009721226 -0.030316858 -0.0010359011 0.20829736
-4.9485e-41 -0.009478548 -4.7254056e-10 -4.9047e-41 0.28997678 -0.070300914 9.515743e-09 0.041070156
0.048197232 0.036519688 0.08244299 -0.024003543 -0.17686161 0.11236291 -2.0601902e-08 -4.9442e-41
0.027901342 -0.22132674 0.06236121 0.086905845 0.3098344 0.027505806 -0.031136863 -0.0032020637
0.1067565 0.0826554 -0.0036260837 0.041671846 -0.100334555 2.3362605e-05 4.9607e-41 -7.777784e-06
-5.91345e-08 0.048178773 -0.071345255 -0.0011348777 0.12759095 -0.26120457 0.4061527 0.0037529736
0.5173359 -0.07040771 0.078679316 0.0016890345 0.068195105 0.09522506 0.16111316 0.17640072
-2.2323316e-05 0.005086447 -0.098022215 -0.14156361 0.27437767 -4.9111e-41 0.30766654 0.08740203
0.12941936 -0.02254852 -1.1640936e-19 0.021483928 0.031686574 0.002909232 -0.049623255 0.03316684
0.23564593 0.08336792 0.0646914 0.080395564 0.11496172 -0.024425926 0.030606002 -0.095492035
5.3106e-41 0.07025309 4.9165e-41 0.06341209 -0.17560433 -0.06609808 -4.9128e-41 -0.0019123948
0.0042162803 0.19884315 -0.030708736 -4.9867e-41 -4.92e-41 6.0643e-41 0.056724243 0.052658223
0.10544379 -0.04388442 -0.14576238 0.0035869314 -0.019381816 0.08968958 -4.9714e-41 -0.019840775
0.020288032 -0.028021872 0.08323426 -4.9675e-41 0.009103419 0.060310617 0.11771715 -0.035229515
00000000: fdfd 953c eead 013e 4a48 fcbd 2997 523d
00000010: 7e00 083e d5eb d5bd 6840 323b ffae 543a
00000020: 9505 c4bd c393 ff3d 9379 43bd 991c 9c3d
00000030: 2c78 883d 2ba2 cdbc 2a39 3fbd a4ab 443c
00000040: fb19 9b3d af73 0a3e 984f df37 d289 0080
00000050: 3641 b03d 2a5c 9b3d 5134 e73d 83c5 6b3e
00000060: c28a 0080 6c8b 86bd 7ade 92b9 7a89 0000
00000070: 3ab9 d33c 3e28 833d 224e 50b6 e421 aa3c
00000080: 9cd6 80bd 8e72 da3b 7418 903e edb1 413d
00000090: c32a f63d d08c a3bd 3a30 3639 c188 0000
000000a0: bf1f d23d 2c95 8b3d 381e d83d 849c 3abe
000000b0: fd57 1cbe b0ee 063d c451 9b3d b89c d93b
000000c0: a955 1a3e 2dea b8bd 0ed8 733e c280 a63e
000000d0: a822 9e3d 78e6 f6bc f088 0000 cff3 ebbc
000000e0: 555f 5dbd eb3e 7bbd 280b 81bd 0113 f3bc
000000f0: f536 a2bd ab5d 0fbd 1a65 24be 2a47 b83b
00000100: 258a 0f3e ba7f 913e d234 253b d5b5 123e
00000110: 1afe 003e 8338 e7bd ae11 0a3e 2cb0 2f3e
00000120: 1f7e f1bc 114e e0bc c800 6a3c 9d83 063e
00000130: 798b 9c3d 4deb 0286 facc 283d 7b3f a53e
00000140: 1664 553c 2690 933d 22e8 8aa6 b0fe 29bd
00000150: b6de fbbd 454a ea3d 4341 703d 30a7 80bd
00000160: c3c2 873d 5fa5 c83d 98ac b53d 63d1 b9bd
00000170: 6080 063a 3797 df3a 4e9f 1abd b43a 9b3d
00000180: 878a 0080 1837 183e a04f 1eb7 2705 3fbe
00000190: ae0e cbbc e40c e73d a1d2 26b6 9e13 ee3b
000001a0: a2c5 ffbd bb19 02bd aa25 f33d 208a 0080
000001b0: a751 0839 f689 0080 d76c c83d f1a1 2ebe
000001c0: 32c1 2b3d c3f7 f73d 0517 2d3e a765 d0bb
000001d0: bbce bb3d aa90 aabc d188 0080 8b00 96bd
000001e0: 657f aabd 163c 883e 167a 12bd 5c89 0080
000001f0: 35ed 61bd 8363 bfbd a2c7 133e f566 24bd
00000200: 756f fe3c fb32 27bd 7c0d c93d bf5e 34bc
00000210: f3ad c73d 3004 2abc 62fa 0bba dc98 efac
00000220: cfcf 85be 26f6 9d3c 2795 4b3c 8335 1dbd
00000230: 6cc6 b2bc a94d 8dbc 0328 8e3d b5b3 3dbe
00000240: e7c5 3abe 2fbb d6bd f089 0000 7390 0080
00000250: c745 1f3c 0f5b f8bc 13c7 87ba e74b 553e
00000260: f289 0080 e94b 1bbc 16e4 01b0 b988 0080
00000270: d677 943e edf9 8fbd ae7a 2332 2e39 283d
00000280: 766a 453d ab95 153d dfd7 a83d 14a3 c4bc
00000290: 361b 35be 861e e63d 10f8 b0b2 d389 0080
000002a0: 5b91 e43c 7aa3 62be 786e 7f3d b1fb b13d
000002b0: 9da2 9e3e db53 e13c bc12 ffbc b7d9 51bb
000002c0: 27a3 da3d 3c47 a93d 97a3 6dbb 19b0 2a3d
000002d0: 347c cdbd d0fa c337 498a 0000 547d 02b7
000002e0: 12fb 7db3 1b57 453d 761d 92bd 2dc0 94ba
000002f0: 34a7 023e 9bbc 85be 3ff3 cf3e 73f4 753b
00000300: 2070 043f eb31 90bd 9f22 a13d 9862 dd3a
00000310: e0a9 8b3d 5b05 c33d d9fa 243e 64a2 343e
00000320: f542 bbb7 36ac a63b dfbf c8bd 0df6 10be
00000330: 3b7b 8c3e e788 0080 7886 9d3e d6ff b23d
00000340: 8286 043e acb7 b8bc 926e 09a0 10ff af3c
00000350: c8c9 013d d0a8 3e3b c141 4bbd f4d9 073d
00000360: 2b4d 713e cdbc aa3d ed7c 843d 6ea6 a43d
00000370: 0d71 eb3d e118 c8bc 70b9 fa3c 5491 c3bd
00000380: 0a94 0000 dae0 8f3d 0d89 0000 33de 813d
00000390: 9fd1 33be 6e5e 87bd f388 0080 52a9 faba
000003a0: b928 8a3b 8a9d 4b3e e390 fbbc 028b 0080
000003b0: 2689 0080 0ca9 0000 ae57 683d 26b0 573d
000003c0: eaf2 d73d 26c0 33bd bc42 15be b912 6b3b
000003d0: 9dc6 9ebc 2caf b73d 958a 0080 1f89 a2bc
000003e0: 1633 a63c 208e e5bc b976 aa3d 798a 0080
000003f0: 8226 153c 4408 773d b015 f13d d34c 10bd

act_conv1.bias f4 [4]
0.03331129 0.014809721 -0.0066090026 0.12825646
00000000: 6b71 083d 79a4 723c 5590 d8bb a955 033e

act_fc1.weight f4 [81, 324]
0.049406953 0.01476502 0.037406605 -0.012172954 0.030611193 -0.023465293 0.0012217464 0.0017176393
-0.024533814 0.043564145 -0.0038656746 -0.039899662 -0.06371934 -0.019803373 0.0009965345 -0.01839349
-0.012835801 -0.0053724404 0.018241446 0.034678027 -0.041259393 -0.05809153 -0.03776183 -0.067192055
0.040503684 0.036463607 -0.0062475847 0.025001753 -0.026298935 -0.035662267 -0.093176454 -0.046577465
0.0036473244 -0.06472341 0.013406499 -0.06489753 0.0111210365 -0.014667254 -0.08600415 -0.07219536
-0.031778537 -0.061478402 -0.08122743 -0.027822375 -0.015747955 0.05671854 -0.08416058 -0.040230464
-0.039216664 -0.1832258 -0.042377677 -0.054924987 -0.06456719 0.0037578326 0.10122637 0.014432049
-0.06398289 -0.121245034 -0.032400716 -0.0266688 -0.022483809 -0.042979453 -0.0491563 0.278377
-0.08520808 -0.030162062 -0.028276403 -0.09961878 -0.0026134613 -0.025814611 0.0022997502 0.0048172306
0.30475864 0.29579526 -0.04958875 0.0014166154 -0.008396398 -0.01410442 -0.01636668 0.035397507
0.017222874 -0.04624913 -0.024545034 -0.051052514 0.04144699 -0.0031884913 -0.02823839 -0.061294466
-0.028421877 -0.01081939 -0.044370282 -0.037855983 -0.007949475 -0.010166245 0.0072903153 -0.010996754
-0.055592675 -0.02753991 -0.021300986 0.057513654 0.023852767 -0.038875688 0.03853484 0.04457628
0.004403337 0.0031982502 -0.03170846 -0.012365237 0.05367674 -0.049826354 -0.010019213 -0.0016208926
-0.016123846 -0.07434054 0.0016497391 -0.022041464 -0.040287994 -0.024493134 0.0007353963 -0.026377566
0.060762614 0.01698496 0.017659465 0.0017675686 0.032734185 0.009072886 -0.06935035 0.031005172
0.13660204 -0.001822465 4.5509532e-05 0.014087132 0.016693145 0.020853633 0.073653914 -0.047474317
0.018270336 0.021811673 0.06257263 -0.04828998 -0.024721945 -0.03899798 -0.006669269 0.012921112
-0.23514497 -0.00904438 0.022198504 -0.027608182 0.0012456715 -0.010420539 -0.0016148876 -0.018347656
-0.03105342 -0.18263566 -0.08633319 -0.02468034 0.04001106 0.022300068 0.008123434 -0.0033072217
-0.04854493 0.008239181 -4.9289e-41 4.9424e-41 -4.9373e-41 2.0641025e-35 4.9165e-41 -8.125836e-39
-4.9064e-41 -4.9243e-41 4.918e-41 -4.9345e-41 1.2840142e-30 4.263064e-23 1.22555774e-17 9.576516e-22
4.029129e-20 2.8848973e-26 4.992187e-27 -4.9295e-41 4.9052e-41 9.2622e-21 1.6218635e-16 3.8578687e-15
1.3978548e-15 4.274572e-17 6.0592055e-18 1.5471797e-21 -1.0542585e-38 -4.9153e-41 3.1954252e-18 3.597082e-18
1.6104616e-13 1.3942749e-16 7.270529e-17 8.369971e-20 9.46707e-26 -4.9289e-41 5.8385e-41 1.3400086e-20
9.230273e-18 1.5839442e-13 1.7453497e-19 8.0287326e-20 3.0928084e-31 3.902e-41 4.9379e-41 4.9312e-41
4.1137178e-20 5.9408777e-18 4.1899086e-15 2.5569913e-18 1.5484706e-24 -1.2389588e-35 -4.9223e-41 4.9228e-41
-4.9188e-41 1.0274354e-23 1.4651877e-22 6.5848447e-15 5.5114158e-24 2.935082e-25 -9.62404e-35 4.9137e-41
-4.93e-41 4.941e-41 8.4430284e-38 3.266683e-25 8.258276e-24 1.2677936e-28 -1.1922131e-34 -6.1179275e-35
-4.9158e-41 4.9253e-41 -4.911e-41 4.9047e-41 -4.9085e-41 -4.9135e-41 -4.91e-41 -4.9218e-41
-4.9286e-41 4.9141e-41 -4.9072e-41 0.08660751 0.05315765 0.001291639 0.016838266 0.035313006
0.02629519 -0.0045142095 0.027004344 0.058789834 0.022343498 -0.013876484 0.012038077 0.03322672
00000000: f25e 4a3d fce8 713c ab37 193d 1271 47bc
00000010: 53c4 fa3c 493a c0bc 0223 a03a 6922 e13a
00000020: 23fb c8bc 5170 323d 4257 7dbb d46d 23bd
00000030: 497f 82bd af3a a2bc 269e 823a f2ad 96bc
00000040: 404d 52bc 4c0b b0bb 166f 953c 8c0a 0e3d
00000050: 9cff 28bd 62f1 6dbd 26ac 1abd fd9b 89bd
00000060: 31e7 253d dd5a 153d 8ab8 ccbb 7ad0 cc3c
00000070: dd70 d7bc 9912 12bd 4cd3 bebd 03c8 3ebd
00000080: f307 6f3b b58d 84bd efa6 5b3c ffe8 84bd
00000090: 0235 363c ec4e 70bc f222 b0bd 29db 93bd
000000a0: 362a 02bd c7d0 7bbd 915a a6bd c0eb e3bc
000000b0: db01 81bc b351 683d 625c acbd b3c8 24bd
000000c0: a7a1 20bd 8b9f 3bbe 3794 2dbd 06f9 60bd
000000d0: ce3b 84bd f845 763b c54f cf3d 6774 6c3c
000000e0: 7609 83bd 514f f8bd 9db6 04bd 8778 dabc
000000f0: f72f b8bc 390b 30bd 1e58 49bd 6e87 8e3e
00000100: 9381 aebd 6e16 f7bc eaa3 e7bc ee04 ccbd
00000110: 9b46 2bbb 2a79 d3bc 68b7 163b dcd9 9d3b
00000120: 5309 9c3e 7a72 973e 931d 4bbd baad b93a
00000130: 0c91 09bc 3a16 67bc 6a13 86bc fafc 103d
00000140: fc16 8d3c ba6f 3dbd ab12 c9bc 711c 51bd
00000150: 52c4 293d 02f6 50bb 3254 e7bc e80f 7bbd
00000160: ffd4 e8bc d043 31bc 9dbd 35bd e00e 1bbd
00000170: 843e 02bc 5290 26bc 99e3 ee3b bb2b 34bc
00000180: 25b5 63bd 619b e1bc 687f aebc 7093 6b3d
00000190: e166 c33c 1d3c 1fbd b5d6 1d3d 9e95 363d
000001a0: de49 903b bc99 513b bbe0 01bd 9097 4abc
000001b0: 24dc 5b3d b816 4cbd a027 24bc 2174 d4ba
000001c0: 2816 84bc da3f 98bd 0f3c d83a 4d90 b4bc
000001d0: 0605 25bd d3a5 c8bc 9cc7 403a c415 d8bc
000001e0: 38e2 783d 0b24 8b3c 95aa 903c c3ad e73a
000001f0: 4814 063d 71a6 143c 8e07 8ebd 8ffe fd3c
00000200: 68e1 0b3e c7df eeba 7de1 3e38 b7cd 663c
00000210: 10c0 883c 3dd5 aa3c ddd7 963d 6e74 42bd
00000220: acab 953c 65ae b23c 1426 803d b7cb 45bd
00000230: ad85 cabc 59bc 1fbd e289 dabb 12b3 533c
00000240: d8c9 70be e12e 14bc a3d9 b53c 8e2a e2bc
00000250: cd45 a33a e9ba 2abc a3aa d3ba d34d 96bc
00000260: be63 febc d804 3bbe 75cf b0bd 6d2e cabc
00000270: a3e2 233d a2ae b63c 2718 053c f9bd 58bb
00000280: 0cd7 46bd a1fd 063c 6689 0080 c689 0000
00000290: a289 0080 377e db05 0d89 0000 867b 5880
000002a0: c588 0080 4589 0080 1889 0000 8e89 0080
000002b0: dd57 d00d 2d26 4e1a 5413 6223 5ab7 901c
000002c0: 2e45 3e1f 6bda 0e15 cac2 c513 6a89 0080
000002d0: bd88 0000 40f5 2e1e f6fc 3a25 8ffe 8a27
000002e0: bd73 c926 3d21 4524 948b df22 9ecd e91c
000002f0: 70cc 7280 0589 0080 e0c7 6b22 7bb5 8422
00000300: 6552 352a bbbf 2025 a1a5 a724 5fa1 c51f
00000310: af64 ea15 6689 0080 c1a2 0000 d71e 7d1e
00000320: bb44 2a23 1556 322a f50d 4e20 b692 bd1f
00000330: 18bc c80c c66c 0000 a689 0000 7689 0000
00000340: cc43 421f 012e db22 16f5 9627 33ac 3c22
00000350: 3d9d ef17 abbf 8385 3789 0080 3a89 0000
00000360: 1e89 0080 23bc 4619 5d21 311b 793e ed27
00000370: 6b36 d518 3bac b516 d2d9 ff86 f988 0000
00000380: 6e89 0080 bc89 0000 52d7 e501 a932 ca16
00000390: 01bd 1f19 41b6 2011 e978 1e87 75a4 a286
000003a0: 0889 0080 4c89 0000 e688 0080 b988 0000
000003b0: d488 0080 f888 0080 df88 0080 3389 0080
000003c0: 6489 0080 fc88 0000 cb88 0080 475f b13d
000003d0: d6bb 593d 374c a93a 67f0 893c 5fa4 103d
000003e0: 0369 d73c efeb 93bb 3738 dd3c 9ccd 703d
000003f0: b609 b73c 315a 63bc 5b3b 453c be18 083d

act_fc1.bias f4 [81]
0.1038009 -0.010429603 -0.1648757 0.1071648 0.11508912 0.10270992 -0.11064275 -0.01627921
0.074283205 -0.006869835 -0.07239936 0.103365034 0.055515967 0.24170788 0.07003633 0.079273775
-0.16499455 -0.020005459 -0.150677 0.13359591 0.003359993 0.21128687 -0.0751078 0.17318496
0.008368593 0.13810433 -0.10463622 0.07049745 0.039857175 0.114806645 0.11544213 0.19374716
0.085639484 0.16668178 0.0453049 0.0979035 0.0934642 0.19524232 -0.02493553 0.23984084
-0.051505808 0.27515492 -0.07934364 0.21505792 0.08532448 0.07527954 0.05311485 0.1407088
0.0993124 0.23249699 0.060976814 0.19215733 0.017134408 0.07089019 -0.1530616 0.12362513
0.08180927 0.21584389 -0.08105241 0.123555064 -0.015009517 0.14065893 -0.116669476 -0.05361385
-0.12158559 0.122556694 0.049534496 0.15951337 0.033706903 0.12191346 -0.13663207 -0.021657595
0.038478374 -0.06131706 -0.14982913 0.097411424 0.06280741 0.08193612 -0.13179657 -0.022012629
0.08370346
00000000: 9195 d43d ede0 2abc 2dd5 28be 3879 db3d
00000010: d8b3 eb3d 9459 d23d ab98 e2bd fa5b 85bc
00000020: cb21 983d 5a1c e1bb 1e46 94bd 0cb1 d33d
00000030: b664 633d 4582 773e 356f 8f3d 4a5a a23d
00000040: 55f4 28be 7de2 a3bc 124b 1abe 5ecd 083e
00000050: 5433 5c3b 965b 583e 1ed2 99bd 6657 313e
00000060: 6c1c 093c 396b 0d3e 844b d6bd f860 903d
00000070: 4741 233d bf1f eb3d ec6c ec3d a865 463e
00000080: c163 af3d a1ae 2a3e a191 393d a181 c83d
00000090: 296a bf3d 9aed 473e 9945 ccbc d698 753e
000000a0: c1f7 52bd 1be1 8c3e eb7e a2bd 2538 5c3e
000000b0: 9abe ae3d 292c 9a3d f58e 593d f815 103e
000000c0: 4d64 cb3d b113 6e3e d3c2 793d e4c4 443e
000000d0: 755d 8c3c e02e 913d 2ebc 1cbe 2c2f fd3d
000000e0: 9e8b a73d 2e06 5d3e cefe a5bd 700a fd3d
000000f0: 7aea 75bc e508 103e 68f0 eebd 329a 5bbd
00000100: de01 f9bd 01ff fa3d afe4 4a3d 7957 233e
00000110: 4010 0a3d c4ad f93d 47e9 0bbe 456b b1bc
00000120: 809b 1d3d 9927 7bbd cf6c 19be a47f c73d
00000130: 2ca1 803d 20ce a73d aef5 06be d453 b4bc
00000140: b86c ab3d

val_conv1.weight f4 [2, 128, 1, 1]
0.047350556 0.026827758 0.036536932 0.021384649 0.10594636 -0.0650738 4.9393e-41 4.9425e-41
-0.10270352 0.08622327 -0.080610014 0.010728162 -0.097752586 -0.02552578 0.1034901 0.16151525
-0.030906267 -0.02877409 4.9393e-41 -4.9153e-41 -0.1035712 -0.050933857 0.026632644 0.10104386
-4.9085e-41 0.2628048 4.9275e-41 4.9265e-41 0.043188296 0.015724042 -0.0006279809 -0.3150619
0.0853616 0.012144792 0.09849347 -0.056732886 0.00021036786 -0.029076863 0.0008790092 4.9089e-41
-0.025928924 0.0663673 -0.016926909 0.044984896 0.051883493 -0.03593921 -0.067127 -0.005076814
0.071158215 -0.027237881 -0.08985398 -0.04611142 0.017547794 0.010739467 4.9274e-41 0.027618824
0.014906805 0.14377384 -0.046954546 -0.00044180648 -0.15364411 0.044964965 0.085180365 0.005142678
0.14882249 -0.039243776 0.092566 0.04272279 0.020727016 0.031781934 0.021244876 0.055667043
0.02397626 -0.07768453 0.11180279 0.11355209 -0.24702065 4.919e-41 0.11797576 -0.04856911
-0.027619263 -0.01710337 1.06030544e-19 0.10424935 -0.06413092 0.024587275 0.053640403 -0.11258478
0.08331695 0.0398828 0.036009822 0.09137145 0.04535239 -0.0152369635 -0.08194507 0.0029362857
4.9236e-41 0.0063411416 2.1713092e-18 0.06471774 0.12471404 0.096897006 4.9347e-41 -0.10714939
-0.08363063 -0.13923992 -0.049124066 4.9118e-41 -5.1472e-41 7.5086787e-16 0.0052571036 0.052839644
-0.04256981 0.033430032 -0.010681192 -0.014634325 -0.097442225 -0.082694404 4.9135e-41 0.09926882
-0.09272932 0.1396834 -0.16825533 -4.911654e-15 -0.06291085 0.038770992 0.025201786 -0.0044316277
0.0016834044 0.007929236 0.012155451 0.0019265963 -0.123516604 0.009458105 4.9593e-41 -5.6733e-41
-0.08213077 -0.059112508 0.0013205289 0.010987562 0.0005269702 0.097140044 0.009575721 -0.020671722
-0.029203596 0.0023947668 -4.9504e-41 4.9966e-41 -0.013057769 0.0010356748 -0.060846474 -0.047700383
-5.035e-41 0.023886355 5.2701e-41 -4.9272e-41 -0.03618723 -0.08484461 -0.0010664869 -0.0889712
0.058441605 8.804777e-06 0.11397617 -0.0011495374 0.16436657 0.1435543 -1.6001176e-26 4.92e-41
0.10428794 -0.03659002 -0.10181796 0.004608294 0.062283725 -0.0036408526 0.0033205224 0.0017090624
0.13636029 -0.0075625586 0.014599098 0.018970137 0.005575117 -9.251429e-13 4.9801e-41 -2.340076e-08
-7.936098e-06 0.0009723898 -0.20257393 0.0048817364 -0.016371865 0.09442184 0.13376975 -0.015775258
0.19522935 0.10589782 0.077624045 -0.0036646426 0.03143917 0.0109874895 -0.028676474 -0.041246805
-2.95874e-07 -0.0015574503 0.14405186 -0.07571271 -0.065229066 -4.9732e-41 -0.1031505 0.11357461
0.058494464 0.0059621013 -0.0014177986 0.07444905 0.005680139 0.018533373 0.0038859749 -0.20276976
-0.029393245 -0.06710907 0.041603103 -0.13223109 0.017673494 0.09492667 -0.00035764903 0.013275912
4.9361e-41 0.03514242 -4.9577e-41 -0.008028728 0.027907874 -0.13108748 4.9345e-41 0.0014725552
0.013970346 0.09204637 0.0022600691 5.0172e-41 4.9599e-41 4.9293e-41 -0.11214875 -0.08351217
0.032069445 0.0076889163 0.08724576 -0.0031135671 0.0017816925 0.015268907 -5.0267e-41 0.109092675
0.0010940615 0.021975996 0.057710625 4.9333e-41 0.002654537 0.0009568821 -0.07178208 -0.009027014
00000000: a8f2 413d e3c5 db3c c0a7 153d dc2e af3c
00000010: 68fa d83d 6a45 85bd b089 0000 c789 0000
00000020: 3956 d2bd d395 b03d dd16 a5bd 2cc5 2f3c
00000030: 8232 c8bd 711b d1bc 9ef2 d33d 4164 253e
00000040: 242f fdbc a4b7 ebbc b089 0000 0589 0080
00000050: 231d d4bd 05a0 50bd b42c da3c 15f0 ce3d
00000060: d488 0080 5a8e 863e 5c89 0000 5589 0000
00000070: 36e6 303d b5cf 803c 169f 24ba cb4f a1be
00000080: 10d2 ae3d f3fa 463c f2b6 c93d be60 68bd
00000090: 3196 5c39 9a32 eebc 4f6d 663a d788 0000
000000a0: e568 d4bc 94eb 873d 4daa 8abc 1542 383d
000000b0: c983 543d fe34 13bd e179 89bd 675b a6bb
000000c0: 66bb 913d fa21 dfbc 5d05 b8bd 54df 3cbd
000000d0: 64c0 8f3c 97f4 2f3c 5b89 0000 df40 e23c
000000e0: ac3b 743c 7339 133e 6953 40bd 43a2 e7b9
000000f0: e254 1dbe 2f2d 383d 0b73 ae3d e983 a83b
00000100: ec64 183e 15be 20bd 3e93 bd3d 18fe 2e3d
00000110: b4cb a93c c62d 023d bc09 ae3c 2003 643d
00000120: dd69 c43c 1119 9fbd dcf8 e43d 008e e83d
00000130: fbf2 7cbe 1f89 0000 469d f13d 67f0 46bd
00000140: cb41 e2bc 5e1c 8cbc 885b fa1f af80 d53d
00000150: 1257 83bd 416b c93c 0ab6 5b3d d992 e6bd
00000160: 14a2 aa3d 265c 233d 097f 133d f420 bb3d
00000170: 6dc3 393d 75a4 79bc d1d2 a7bd b36e 403b
00000180: 4089 0000 5ac9 cf3b df36 2022 bc8a 843d
00000190: 136a ff3d f071 c63d 8f89 0000 2471 dbbd
000001a0: 8946 abbd e994 0ebe 5136 49bd ec88 0000
000001b0: 7c8f 0080 456c 5826 c843 ac3b 626e 583d
000001c0: ae5d 2ebd eeed 083d 2b00 2fbc cfc4 6fbc
000001d0: ca8f c7bd af5b a9bd f888 0000 734d cb3d
000001e0: dfe8 bdbd 2a09 0f3e 204b 2cbe 03f6 b0a7
000001f0: 67d7 80bd 55ce 1e3d fa73 ce3c 3037 91bb
00000200: aea5 dc3a a0e9 013c a827 473c d885 fc3a
00000210: 46f6 fcbd 2bf6 1a3c 3f8a 0000 269e 0080
00000220: 2d34 a8bd f51f 72bd 9915 ad3a 2d05 343c
00000230: 5f24 0a3a 5cf1 c63d 7ce3 1c3c be57 a9bc
00000240: 613c efbc 85f1 1c3b ff89 0080 498b 0000
00000250: 41f0 55bc 7bbf 873a 273a 79bd 7a61 43bd
00000260: 5b8c 0080 51ad c33c e992 0000 5a89 0080
00000270: 1039 14bd 03c3 adbd 5dc9 8bba 8836 b6bd
00000280: 7760 6f3d 3bb8 1337 576c e93d 13ac 96ba
00000290: b64f 283e e6ff 123e cd77 9e94 2689 0000
000002a0: ea94 d53d 6bdf 15bd ef85 d0bd 2c01 973b
000002b0: 381d 7f3d 5f9b 6ebb 1f9d 593b 9e02 e03a
000002c0: 08a2 0b3e 57cf f7bb 0e31 6f3c 4367 9b3c
000002d0: 79af b63b c933 82ab d38a 0000 d102 c9b2
000002e0: 4825 05b7 fae7 7e3a 8a6f 4fbe f9f6 9f3b
000002f0: 4a1e 86bc 3d60 c13d f0fa 083e 1d3b 81bc
00000300: 34ea 473e f5e0 d83d 5bf9 9e3d 802a 70bb
00000310: 5cc6 003d df04 343c edea eabc 69f2 28bd
00000320: 9dd8 9eb4 5c23 ccba 5582 133e 440f 9bbd
00000330: d196 85bd a28a 0080 9240 d3bd ce99 e83d
00000340: e497 6f3d bb5d c33b 6dd5 b9ba be78 983d
00000350: 7620 ba3b 4dd3 973c d7ab 7e3b e0a2 4fbe
00000360: 1aca f0bc 7b70 89bd 0468 2a3d 9667 07be
00000370: 01c8 903c ea68 c23d d782 bbb9 3683 593c
00000380: 9989 0000 80f1 0f3d 338a 0080 ed8a 03bc
00000390: 0e9f e43c cc3b 06be 8e89 0000 c102 c13a
000003a0: e1e3 643c cf82 bc3d ab1d 143b dc8b 0000
000003b0: 438a 0000 6989 0000 3eae e5bd 6e08 abbd
000003c0: 405b 033d 4ef3 fb3b e8ad b23d fd0c 4cbb
000003d0: ae87 e93a 702a 7a3c 208c 0080 fb6b df3d
000003e0: 9d66 8f3a 0107 b43c fa61 6c3d 8589 0000
000003f0: bef7 2d3b 45d7 7a3a 7c02 93bd 0ae6 13bc

val_conv1.bias f4 [2]
0.06021856 0.016918892
00000000: bda7 763d 7d99 8a3c
