课程设计/AlphaZero简单复现/models/policy_batch_1650.model (torch, 530639 bytes, 15 tensors)

conv1.weight f4 [32, 4, 3, 3]
0.24409078 -0.0723322 0.2931712 -0.047336116 -0.053412978 -0.08448293 0.38972765 -0.15369564
0.4199592 0.20938198 -0.08304446 0.18436314 -0.055690885 -0.03807352 -0.078872524 0.20990011
-0.08561867 0.20473908 0.073318146 -0.053946357 0.07181076 -0.021902433 -0.12046721 -0.030007299
0.06399134 -0.025955688 0.10250571 0.005279719 0.0017665969 -0.02817457 -0.09915223 0.11238121
-0.0066952924 0.010164902 0.034732226 -0.023870092 0.35882306 0.3212515 -0.43628895 0.16512169
-0.0713542 0.32933936 -0.35374513 0.14606889 0.14008906 0.02714071 0.009213184 0.06074605
-0.15512471 -0.05688465 -0.0930897 0.22948535 -0.1093274 0.10324518 -0.02287549 -0.04931016
0.032086115 -0.020724358 -0.054689564 -0.012863076 0.02550331 0.021476272 0.008588096 0.010979378
-0.13545422 0.07787667 -0.15950252 0.07557552 -0.12264126 0.13381536 -0.04664149 0.18106095
0.26711228 0.20982382 -0.040697042 -0.32162115 -0.064674154 -0.288729 0.09380401 0.22985525
-0.26384065 -0.17275333 -0.14940913 -0.10227262 0.33878314 0.1819668 0.17846939 0.12831289
-0.34221798 0.1037598 0.030833855 -0.0019533457 0.030671988 -0.016199894 0.018526979 0.020493403
-0.017697481 -0.22261009 0.047466945 -0.15807219 0.10084215 0.049975827 -0.005763167 0.051178228
0.045236394 0.028100615 0.13572928 -0.17761695 0.040498238 -0.6333768 0.37911317 -0.051698703
0.43954742 -0.5040557 0.05174613 0.04196633 0.11430872 0.13296282 0.17280659 -0.2832456
0.13073945 -0.22907916 0.14478233 -0.11714019 0.06465604 0.16354577 0.023375044 0.06153072
-0.035271913 -0.011021625 -0.043947894 0.044317584 -0.07242235 0.005677765 0.08708063 0.06542015
-0.06544738 0.08566097 0.12671097 -0.017918143 -0.105411015 -0.10953025 -0.09343042 0.12270178
-0.19653922 -0.06238875 -0.08820614 0.10103784 0.22285242 0.091351934 -0.068839535 -0.041752756
0.21193366 -0.10249554 0.0086248815 -0.12182591 0.20415789 -0.042046677 -0.06637307 0.049187057
-0.050206676 -0.12732425 -0.060165223 -0.02203373 0.053491 0.13424312 -0.077543266 -0.06634909
-0.018171746 -0.059805322 -0.15041552 0.064511545 0.07707107 0.113456786 0.12783761 0.09018825
0.0994742 0.14393434 0.1459573 0.11374061 0.2559064 0.047619566 -0.09705157 -0.32868138
0.40582147 0.2428926 0.3423405 0.014644045 -0.026989339 0.1351737 -0.06074879 -0.114129364
-0.5047784 0.24577217 0.13019376 0.1003505 -0.13478976 -0.09648143 0.081691176 0.010168771
0.005980951 -0.04952619 0.07465663 0.030778268 0.0502447 0.024941789 0.0016300878 0.020915601
0.029511636 0.104879476 0.14418337 -0.13296069 -0.085370496 -0.019347904 -0.06356976 0.16181903
-0.06442277 0.020832947 -0.09953097 0.037417628 -0.0048456728 -0.14873229 0.024423722 -0.002492521
0.18165515 -0.04142656 0.0837319 0.1326959 -0.034876995 0.5431776 -0.5056475 0.043165907
-0.6518374 0.36690378 -0.02589573 -0.00033653513 -0.009822344 0.0021636793 0.06915322 -0.044352345
0.02441084 -0.013211336 0.0937271 0.012116178 0.12377149 0.116776116 0.002311208 -0.07142803
-0.0059462506 -0.13397335 -0.02928287 -0.053080093 -0.2600081 0.15107475 0.25954363 -0.19003472
00000000: eff2 793e e822 94bd 891a 963e 84e3 41bd
00000010: 91c7 5abd 6305 adbd 628a c73e 6462 1dbe
00000020: e404 d73e 3b68 563e 3713 aabd b1c9 3c3e
00000030: 201c 64bd fbf2 1bbd eb87 a1bd 0ef0 563e
00000040: d758 afbd 1fa7 513e d327 963d dbf6 5cbd
00000050: 8511 933d bb6c b3bc 83b7 f6bd ded1 f5bc
00000060: e40d 833d 06a1 d4bc 84ee d13d 7e01 ad3b
00000070: 288d e73a 5bce e6bc 5310 cbbd 1f28 e63d
00000080: 2f64 dbbb b08a 263c 6143 0e3d 368b c3bc
00000090: a8b7 b73e 147b a43e 4461 dfbe a915 293e
000000a0: 2722 92bd 2b9f a83e 151e b5be 1593 153e
000000b0: 8273 0f3e 3256 de3c e5f2 163c dad0 783d
000000c0: 03d9 1ebe e1ff 68bd d0a5 bebd 35fe 6a3e
000000d0: 0be7 dfbd 3572 d33d 6165 bbbc 73f9 49bd
000000e0: bb6c 033d 21c6 a9bc 2a02 60bd a7bf 52bc
000000f0: 51ec d03c 02ef af3c 16b5 0c3c d9e2 333c
00000100: 83b4 0abe ce7d 9f3d a154 23be 57c7 9a3d
00000110: 572b fbbd e506 093e 260b 3fbd 0b68 393e
00000120: f1c2 883e 0edc 563e f1b1 26bd 87ab a4be
00000130: e273 84bd 4ad4 93be 511c c03d 2d5f 6b3e
00000140: 1f16 87be 40e6 30be b5fe 18be 4f74 d1bd
00000150: fc74 ad3e 8155 3a3e aec0 363e 7464 033e
00000160: 3237 afbe 0580 d43d 4897 fc3c b403 00bb
00000170: d243 fb3c a4b5 84bc e4c5 973c c8e1 a73c
00000180: 4ffa 90bc e6f3 63be b36c 423d addd 21be
00000190: 5486 ce3d 74b3 4c3d f3d8 bcbb 43a0 513d
000001a0: cc49 393d 4333 e63c 9efc 0a3e 38e1 35be
000001b0: 7be1 253d fb24 22bf 1f1b c23e 05c2 53bd
000001c0: 5c0c e13e cb09 01bf c0f3 533d e3e4 2b3d
000001d0: b11a ea3d 6827 083e 36f4 303e 9105 91be
000001e0: 90e0 053e ba93 6abe d241 143e 32e7 efbd
000001f0: 636a 843d 8b78 273e 057d bf3c a307 7c3d
00000200: 4879 10bd 0c94 34bc b502 34bd 5b86 353d
00000210: 2b52 94bd 8b0c ba3b 5457 b23d 00fb 853d
00000220: 4709 86bd 056f af3d 85c0 013e 12c9 92bc
00000230: bbe1 d7bd 6551 e0bd 7358 bfbd 124b fb3d
00000240: 9441 49be 598b 7fbd 6ca5 b4bd edec ce3d
00000250: 6d33 643e b916 bb3d befb 8cbd f004 2bbd
00000260: 2305 593e 2fe9 d1bd 604f 0d3c dd7f f9bd
00000270: c40e 513e 2339 2cbd 9bee 87bd 5e78 493d
00000280: 84a5 4dbd 4a61 02be cf6f 76bd 1580 b4bc
00000290: 6119 5b3d 0777 093e 01cf 9ebd 08e2 87bd
000002a0: eadc 94bc 6df6 74bd 8706 1abe a11e 843d
000002b0: 70d7 9d3d 085c e83d dde7 023e 9eb4 b83d
000002c0: 21b9 cb3d 8663 133e d575 153e d6f0 e83d
000002d0: 2a06 833e bc0c 433d f9c2 c6bd ed48 a8be
000002e0: d5c7 cf3e d6b8 783e 4147 af3e 94ed 6f3c
000002f0: bf18 ddbc f96a 0a3e b9d3 78bd a8bc e9bd
00000300: 2839 01bf b3ab 7b3e 8351 053e 9084 cd3d
00000310: 5406 0abe 0e98 c5bd b44d a73d eb9a 263c
00000320: dafb c33b f9db 4abd 93e5 983d b522 fc3c
00000330: 63cd 4d3d b952 cc3c aca8 d53a 3257 ab3c
00000340: 63c2 f13c 0dcb d63d cea4 133e d926 08be
00000350: bad6 aebd 7f7f 9ebc dd30 82bd e3b3 253e
00000360: 16f0 83bd dba9 aa3c e5d6 cbbd 3a43 193d
00000370: 73c8 9ebb 474d 18be 4214 c83c 9059 23bb
00000380: cf03 3a3e e6ae 29bd a17b ab3d 6fe1 073e
00000390: 2edb 0ebd b00d 0b3f 1d72 01bf bcce 303d
000003a0: d1de 26bf d0da bb3e 4823 d4bc fb70 b0b9
000003b0: e6ed 20bc 84cc 0d3b 34a0 8d3d ceaa 35bd
000003c0: 3ef9 c73c 5c74 58bc fef3 bf3d ef82 463c
000003d0: e87b fd3d 5128 ef3d a377 173b dc48 92bd
000003e0: c4d8 c2bb 4f30 09be a1e2 efbc 836a 59bd
000003f0: c81f 85be 57b3 1a3e e7e2 843e 7698 42be

conv1.bias f4 [32]
-0.047717456 0.13335024 0.15290616 0.019015817 -0.12875661 0.01022132 0.012674625 0.11698079
0.08287981 -0.07938199 0.31478998 0.007560266 -0.09999856 -0.028766708 0.01290032 0.24335937
-0.04603953 0.25843284 -0.0019963384 0.037538756 0.2846293 -0.013618344 -0.06281194 0.033201136
-0.020716777 0.19888388 0.26684594 -0.016637953 -0.04504429 -0.10751907 0.13268498 -0.12409542
00000000: 6173 43bd f78c 083e 6f93 1c3e 0fc7 9b3c
00000010: c6d8 03be 5377 273c 3ba9 4f3c a093 ef3d
00000020: e4bc a93d 0693 a2bd 272c a13e 1cbc f73b
00000030: 0ccc ccbd 29a8 ebbc dd5b 533c 3333 793e
00000040: f293 3cbd 4f51 843e 00d5 02bb 3dc2 193d
00000050: eeba 913e 7a1f 5fbc 8ca3 80bd eafd 073d
00000060: 3bb6 a9bc 37a8 4b3e 08a0 883e 514c 88bc
00000070: 5d80 38bd f532 dcbd 92de 073e bd25 febd

conv2.weight f4 [64, 32, 3, 3]
0.1308958 0.09774085 0.17821606 0.10859717 0.026524981 0.12166453 0.023418607 0.031884648
0.08039015 0.15076785 -0.13408025 -0.049311336 -0.012917131 -0.0021166732 -0.1680976 -0.0035161283
0.058766272 0.16080078 -0.006725243 -0.016652303 0.10197368 -0.08443652 0.028027028 -0.037304256
-0.044300716 -0.09052829 -0.05048042 0.065248065 0.07431701 0.01048026 0.01637453 -0.10662989
0.10990951 -0.17137933 0.10620912 -0.11366037 0.033960488 0.017821332 0.026128579 0.017061712
-0.0072855777 0.026146289 -0.040023822 0.011731879 0.0395344 -0.049272455 -0.02655157 0.027224617
0.025651162 0.10977213 -0.10820787 -0.038436573 -0.012509833 -0.1122462 0.095310144 -0.050510958
-0.0070392527 -0.15049838 0.10947309 0.036908094 0.061485253 0.11993789 0.06652078 -0.04335612
-0.15038815 0.08541161 0.080485255 0.09972132 -0.1891517 0.23963079 0.043772876 -0.11450513
-0.052029118 0.0830548 -0.057888713 0.08470464 0.07035086 -0.036986668 -0.070183426 0.13664098
0.14160164 -0.044178136 0.1204597 -0.035124023 -0.0093607465 -0.07182437 0.0682296 -0.06214065
0.10942844 0.0577282 0.012926121 -0.09847357 0.027315654 0.10244957 -0.053711075 -0.042843957
0.044782586 0.09121426 0.11494419 -0.005984277 -0.103814565 0.029479368 0.034589123 0.024932502
0.09256432 -0.055058267 -0.02071615 0.010260241 -0.021904306 -0.0071934545 -0.028645348 0.05279499
-0.12991536 0.08436165 -0.106283925 0.015867569 0.026947534 -0.060648505 -0.0027773883 0.041508153
0.17784473 -0.024362443 -0.048672024 0.16901177 -0.07421311 0.12595731 -0.04379523 0.21625972
0.12962686 -0.031193804 0.06023918 0.09026367 -0.020728875 -0.18432552 -0.09522875 -0.008934732
0.049408328 -0.009543226 0.02353316 -0.041766148 0.08058205 -0.10420883 0.07269168 0.091101915
-0.061773054 -0.068497345 -0.10375785 -0.028126635 0.042772852 -0.007512874 0.045026343 0.1972918
0.1353594 0.06482201 0.055522703 -0.08372201 0.011899638 -0.0019381652 -0.06229872 0.027978022
-0.0052541033 0.06527564 -0.030592296 0.038952712 -0.033389542 0.16237083 0.16820988 -0.04130974
-0.061305106 -0.011968404 -0.12897697 -0.1113669 0.04081713 0.016958127 0.068663314 -0.034649227
-0.013835533 0.04408069 0.0036601364 -0.21785577 -0.08361036 -0.039238345 -0.0065621175 0.08909789
-0.10840211 -0.1072227 0.05322139 -0.048261043 0.039750647 0.21193492 0.14700623 0.0975964
-0.017622547 -0.0008325748 -0.07534278 -0.19729449 -0.38185474 0.0857564 0.124075875 -0.023536826
-0.00618072 0.030053284 -0.010930388 0.025358673 -0.11700814 -0.07460756 0.07474252 -0.010448959
0.08340149 -0.06946027 -0.035659738 0.0812537 0.04927495 -0.07290447 0.051921025 -0.17286763
0.021794084 0.1829735 -0.026447251 0.11848718 0.032380212 -0.053966377 0.04862754 -0.0945854
-0.046639543 -0.039145127 0.019749932 -0.036378182 -0.1197254 -0.0011837049 0.13040258 -0.19509196
0.052385684 0.23381563 -0.077619955 0.060349844 -0.023392864 0.050547395 -0.021038339 0.00019354941
-0.07876139 -0.23380908 0.09167622 0.007216451 -0.0498078 -0.032566536 0.0732611 -0.033459134
0.014994207 0.08368499 0.012706473 0.07331345 0.025788609 0.035228737 -0.026013205 -0.06130433
00000000: 8c09 063e 5b2c c83d 457e 363e 3168 de3d
00000010: eb4a d93c 412b f93d 61d8 bf3c 7a99 023d
00000020: 97a3 a43d e362 1a3e 554c 09be affa 49bd
00000030: 60a2 53bc e2b7 0abb c721 2cbe d86e 66bb
00000040: e7b4 703d f6a8 243e 6d5f dcbb 696a 88bc
00000050: 94d7 d03d 0eed acbd f098 e53c 59cc 18bd
00000060: ab74 35bd e566 b9bd 8fc4 4ebd c7a0 853d
00000070: 8433 983d 65b5 2b3c e123 863c c660 dabd
00000080: 3d18 e13d 107e 2fbe 2b84 d93d c5c6 e8bd
00000090: 271a 0b3d 0bfe 913c 9a0b d63c 01c5 8b3c
000000a0: dbbb eebb be30 d63c 05f0 23bd 1137 403c
000000b0: d3ee 213d ead1 49bd ae82 d9bc 2906 df3c
000000c0: 6322 d23c 36d0 e03d 169c ddbd ab6f 1dbd
000000d0: 0bf6 4cbc 56e1 e5bd f731 c33d 94e4 4ebd
000000e0: 88a9 e6bb 3f1c 1abe 6d33 e03d f12c 173d
000000f0: f6d7 7b3d ffa1 f53d 0c3c 883d 3096 31bd
00000100: 5aff 19be 48ec ae3d 74d5 a43d b13a cc3d
00000110: fcb0 41be c661 753e 304b 333d aa81 eabd
00000120: 7c1c 55bd a318 aa3d b71c 6dbd a079 ad3d
00000130: 1d14 903d 557f 17bd 54bc 8fbd 9deb 0b3e
00000140: 0500 113e 22f4 34bd 93b3 f63d 35de 0fbd
00000150: d15d 19bc a818 93bd f6bb 8b3d 3287 7ebd
00000160: 051c e03d 6874 6c3d 15c8 533c 83ac c9bd
00000170: 14c5 df3c 15d1 d13d 2500 5cbd 257d 2fbd
00000180: f26d 373d 8bce ba3d dc67 eb3d c117 c4bb
00000190: bb9c d4bd b77e f13c 53ad 0d3d 3f3f cc3c
000001a0: 5d92 bd3d c784 61bd eab4 a9bc 921a 283c
000001b0: a970 b3bc 12b7 ebbb a6a9 eabc 8f3f 583d
000001c0: 8808 05be cdc5 ac3d 63ab d9bd b4fc 813c
000001d0: 13c1 dc3c 916a 78bd d804 36bb 7404 2a3d
000001e0: ee1c 363e bf93 c7bc 515c 47bd 6c11 2d3e
000001f0: 0bfd 97bd f4fa 003e a162 33bd 3073 5d3e
00000200: e7bc 043e 268a ffbc 5cbd 763d 29dc b83d
00000210: 9acf a9bc d4bf 3cbe 4a07 c3bd fb62 12bc
00000220: 6360 4a3d 315b 1cbc 9dc8 c03c fb12 2bbd
00000230: 3408 a53d 706b d5bd 60df 943d a493 ba3d
00000240: be05 7dbd 5648 8cbd ff7e d4bd d469 e6bc
00000250: 9632 2f3d 8e2e f6bb 8b6d 383d dd06 4a3e
00000260: a89b 0a3e 67c1 843d c66b 633d 7276 abbd
00000270: b3f6 423c 080a feba f12c 7fbd 2a32 e53c
00000280: 9d2a acbb 3caf 853d b29c fabc e18c 1f3d
00000290: 79c3 08bd 8a44 263e 363f 2c3e 6734 29bd
000002a0: 101b 7bbd 2017 44bc 8a12 04be 5414 e4bd
000002b0: dd2f 273d c5eb 8a3c 5a9f 8c3d 59ec 0dbd
000002c0: 6eae 62bc f48d 343d e6de 6f3b 9515 5fbe
000002d0: e93b abbd 63b8 20bd 0807 d7bb f478 b63d
000002e0: ed01 debd 9397 dbbd acfe 593d 5fad 45bd
000002f0: 93d1 223d 7805 593e cd88 163e 9fe0 c73d
00000300: 295d 90bc 2641 5aba 514d 9abd 9107 4abe
00000310: 7782 c3be 0da1 af3d 7e1b fe3d 4dd0 c0bc
00000320: a387 cabb 4e32 f63c 5f15 33bc febc cf3c
00000330: f7a1 efbd d9cb 98bd 9b12 993d 1c32 2bbc
00000340: 66ce aa3d 3041 8ebd f20f 12bd 5768 a63d
00000350: 88d4 493d f04e 95bd 24ab 543d 3604 31be
00000360: 8289 b23c 685d 3b3e e8a7 d8bc 68a9 f23d
00000370: 1da1 043d d90b 5dbd ac2d 473d fdb5 c1bd
00000380: 1b09 3fbd a456 20bd 9cca a13c 4a01 15bd
00000390: 9732 f5bd 8c26 9bba 4188 053e 30c6 47be
000003a0: 5f92 563d 5d6d 6f3e 36f7 9ebd 6631 773d
000003b0: 64a2 bfbc c90a 4f3d 9858 acbc 86f3 4a39
000003c0: a74d a1bd a66b 6fbe bec0 bb3d fb77 ec3b
000003d0: 4403 4cbd 7d64 05bd ea09 963d 720c 09bd
000003e0: 43aa 753c 0963 ab3d cf2e 503c 5d25 963d
000003f0: a242 d33c 024c 103d a519 d5bc 401a 7bbd

conv2.bias f4 [64]
-0.05781585 0.06742066 -0.027700748 -0.041390255 0.11590287 -0.0426681 0.018217582 -0.0109259
0.0059602004 0.0003067177 0.03352962 -0.0070520025 0.057559773 0.036345083 -0.045551468 0.030907854
0.03478307 -0.044691868 0.02010931 0.105994634 0.001564325 0.054590303 0.048839312 -0.068253264
0.030844547 0.042058114 0.04232041 0.08713995 0.023167377 0.05761306 0.046413187 0.033257153
0.022228522 0.000948224 0.004989887 -0.0323858 0.03394608 0.014023423 0.06268405 0.1133507
0.102170885 -0.023940781 -0.07070637 -0.074531585 0.05194553 -0.050905682 0.019950854 -0.005435474
0.05533653 -0.006363482 0.018374378 0.0041194092 0.05889637 0.077322364 -0.0026529273 0.037389223
0.014031186 -0.02164616 0.026221894 -0.0133935 0.02753586 -0.03923909 -0.05883617 0.0016600653
00000000: 50d0 6cbd d813 8a3d aeec e2bc d488 29bd
00000010: 7c5e ed3d bfc4 2ebd 0a3d 953c 8c02 33bc
00000020: c94d c33b f4ce a039 5b56 093d 7c14 e7bb
00000030: ccc3 6b3d 95de 143d 2d94 3abd 7832 fd3c
00000040: b178 0e3d d20e 37bd 48bc a43c b713 d93d
00000050: 090a cd3a 159a 5f3d bb0b 483d 5ec8 8bbd
00000060: b4ad fc3c 2145 2c3d 2b58 2d3d 6e76 b23d
00000070: 83c9 bd3c acfb 6b3d c11b 3e3d a738 083d
00000080: 9718 b63c 3c92 783a 3582 a33b f9a6 04bd
00000090: 0b0b 0b3d 80c2 653c 7f60 803d 6924 e83d
000000a0: f83e d13d 751f c4bc 80ce 90bd 04a4 98bd
000000b0: d6c4 543d 7a82 50bd f96f a33c 101c b2bb
000000c0: 8fa8 623d c284 d0bb dd85 963c 1cfc 863b
000000d0: 523d 713d 305b 9e3d bcdc 2dbb 7125 193d
000000e0: 0fe3 653c 4a53 b1bc 4ccf d63c 6970 5bbc
000000f0: e292 e13c 2bb9 20bd 32fe 70bd 8c96 d93a

conv3.weight f4 [128, 64, 3, 3]
0.00715984 -0.023905843 0.0064149825 -0.027354829 -0.06649753 0.020727813 0.026040668 -0.03372658
0.06777358 0.04190023 -0.017980883 -0.0032407008 0.0017511258 0.0066808867 0.019032434 -0.02690837
-0.03115759 -0.022894135 -0.046613656 -0.076638184 -0.07915094 -0.029055133 0.09010413 0.011881599
-0.03401587 -0.037659526 -0.06818182 0.04472455 0.02659341 0.034674134 0.07104577 0.0021364628
0.06742674 0.009387112 0.06380491 0.005663416 0.021784468 0.05191712 0.027169773 -0.027485888
-0.013715334 0.053685278 -0.030009326 0.01706035 0.014115518 0.024307933 0.061169337 0.0065324293
0.038676184 0.047412615 0.028489668 0.05023853 0.06162047 0.05906522 -0.026754633 0.014284871
0.000125726 0.012196914 0.05450839 -0.01667275 0.068029664 0.053837724 0.03975456 0.04608261
-0.0027462211 0.025485197 0.05721065 0.0016377708 0.010775936 0.00051668 0.028580388 0.032712795
0.008600884 0.016138729 -0.027908018 0.005548112 -0.03410047 -0.032543134 0.04289722 0.028585088
-0.010170594 0.050617393 0.04822581 0.012850446 0.017626021 0.017904533 -0.0023822465 0.06670272
0.00028768321 0.020408336 0.04364619 -0.044149596 -0.0015080454 -0.009553905 -0.051553227 0.025867114
0.024563814 0.0453417 0.015031663 0.0679632 0.01238104 0.10820247 0.005908186 0.07905545
-0.033904847 0.04800173 0.048111733 0.044164274 0.0061852303 0.013658177 -0.007189139 0.055161156
0.011499486 0.035917245 0.029191239 0.02511393 0.032445576 -0.013340382 -0.0064283963 -0.026012942
-0.046122957 0.0091159195 -0.032684743 0.046483673 0.0063041556 0.04413785 0.069538906 0.025819931
0.039970357 0.073973395 0.08344056 0.044311292 0.061813913 0.033516362 0.040880263 0.030634388
-0.0132402275 0.031582285 0.06312824 0.0002923875 -0.048012264 -0.017912515 0.038780544 -0.009626383
0.0072196685 -0.02537732 0.04572635 -0.014534565 0.0011318992 0.058747154 -0.020167729 0.06956138
-0.07715169 0.0811439 -0.1019207 0.07407972 0.010927984 -0.04638554 0.048608325 0.12903912
-0.07299759 0.116457984 -0.03865443 0.041226488 0.046495236 -0.018870346 -0.10614993 0.08717095
0.026424883 0.059675377 0.023063125 -0.002560231 0.06296085 -0.0015157013 0.055742603 0.0372933
0.027863909 0.028534912 0.06504939 0.0057348064 0.018299164 -0.035933062 0.044277675 -0.00036165462
-0.0431976 0.02256901 -0.022433868 -0.0257866 -0.029591445 0.04090783 0.052734043 -0.042557996
-0.008855969 -0.016955264 0.058727864 -0.058829583 0.02048514 0.050230432 0.022443032 0.05571229
-0.064695574 -0.0127237635 0.019421594 -0.049677458 -0.010106429 0.1068628 -0.046463456 -0.059424914
-0.010557239 0.012998055 0.055154596 0.048808016 0.004883765 -0.0046117404 0.03949186 -0.06608022
-0.023636868 0.034384523 -0.014095135 0.02460219 -0.0027396781 0.02241765 -0.008827461 -0.008126371
0.03522348 -0.015619733 0.0054290807 0.0028077718 0.045853097 0.030620584 0.02458559 -0.009244972
0.033734567 0.03557776 -0.007669899 0.09973664 0.00664424 -0.014855787 -0.05179036 0.06011271
-0.017212978 0.013983883 -0.017609267 0.030587643 -0.01826382 0.024128873 0.051257662 -0.008282041
-0.018707976 0.017945431 0.04475201 0.034011584 -0.024253543 -0.089238316 -0.02850748 -0.006350676
00000000: 179d ea3b 30d6 c3bc c634 d23b 3c17 e0bc
00000010: db2f 88bd 60cd a93c 3d53 d53c e224 0abd
00000020: e0cc 8a3d 939f 2b3d a54c 93bc f061 54bb
00000030: 0886 e53a 57eb da3b e8e9 9b3c f16e dcbc
00000040: 343e ffbc 7b8c bbbc f6ed 3ebd 7bf4 9cbd
00000050: e319 a2bd 0805 eebc 8488 b83d 0aab 423c
00000060: 3a54 0bbd e040 1abd e9a2 8bbd 1731 373d
00000070: 6cda d93c 7706 0e3d 7280 913d e603 0c3b
00000080: 0817 8a3d 67cc 193c 26ac 823d 2d94 b93b
00000090: 5775 b23c 0ca7 543d 2593 de3c 162a e1bc
000000a0: 48b6 60bc 18e5 5b3d 1ed6 f5bc 26c2 8b3c
000000b0: c644 673c 6e21 c73c b38c 7a3d fd0d d63b
000000c0: eb6a 1e3d bb33 423d 2a63 e93c ebc6 4d3d
000000d0: bf65 7c3d 5fee 713d 882c dbbc 170b 6a3c
000000e0: 51d5 0339 91d5 473c 3144 5f3d 4a95 88bc
000000f0: 2353 8b3d f284 5c3d add5 223d 1ec1 3c3d
00000100: f2f9 33bb 55c6 d03c b755 6a3d 78aa d63a
00000110: 8d8d 303c cf71 073a 6b21 ea3c dafd 053d
00000120: b9ea 0c3c 5e35 843c 5b9f e4bc f0cc b53b
00000130: efac 0bbd f34b 05bd ffb4 2f3d 462b ea3c
00000140: 90a2 26bc 2f54 4f3d 6d88 453d ad8a 523c
00000150: 7264 903c 87ac 923c 771f 1cbb 709b 883d
00000160: 30d4 9639 622f a73c 59c6 323d 35d6 34bd
00000170: 9ba9 c5ba fb87 1cbc 7a29 53bd 45e7 d33c
00000180: 0d3a c93c 38b8 393d 5d47 763c 4a30 8b3d
00000190: d8d9 4a3c 4299 dd3d 7599 c13b d3e7 a13d
000001a0: cfdf 0abd 769d 443d cf10 453d 99e5 343d
000001b0: 79ad ca3b 8cc6 5f3c de92 ebbb aaf0 613d
000001c0: 5768 3c3c f61d 133d 7722 ef3c bbbb cd3c
000001d0: a7e5 043d 9e91 5abc 4ca5 d2bb 1819 d5bc
000001e0: 6deb 3cbd f05a 153c 70e0 05bd aa65 3e3d
000001f0: 1793 ce3b e4c9 343d 6a6a 8e3d 5284 d33c
00000200: f5b7 233d 5d7f 973d e2e2 aa3d c27f 353d
00000210: 9630 7d3d 7448 093d 1072 273d f8f4 fa3c
00000220: 8aed 58bc 6d5c 013d 6149 813d 964b 9939
00000230: 82a8 44bd 44bd 92bc 59d8 1e3d fab7 1dbc
00000240: f892 ec3b 19e4 cfbc 8e4b 3b3d 6222 6ebc
00000250: 3c5c 943a dba0 703d cb36 a5bc 3276 8e3d
00000260: b501 9ebd c62e a63d cdbb d0bd 1cb7 973d
00000270: 490b 333c c4fe 3dbd 8619 473d d522 043e
00000280: c37f 95bd 8681 ee3d 1c54 1ebd 1bdd 283d
00000290: ca71 3e3d fc95 9abc 2265 d9bd af86 b23d
000002a0: ff78 d83c 2b6e 743d e1ee bc3c 8cc9 27bb
000002b0: 9ef1 803d 7faa c6ba 5b52 643d dcc0 183d
000002c0: da42 e43c 0cc2 e93c 9d38 853d 0beb bb3b
000002d0: 21e8 953c 8c2e 13bd 825c 353d 769c bdb9
000002e0: f7ef 30bd a5e2 b83c 3bc7 b7bc 6b3e d3bc
000002f0: c269 f2bc f88e 273d a7ff 573d 4b51 2ebd
00000300: a018 11bc c4e5 8abc a18c 703d 4af7 70bd
00000310: 74d0 a73c 6dbe 4d3d 73da b73c 9232 643d
00000320: 1d7f 84bd 5577 50bc 091a 9f3c 977a 4bbd
00000330: 7095 25bc e2da da3d 7750 3ebd 8a67 73bd
00000340: 45f8 2cbc cbf5 543c c9e9 613d eaea 473d
00000350: fd07 a03b 151e 97bb 37c2 213d 1155 87bd
00000360: 1ba2 c1bc c9d6 0c3d 48ef 66bc 888a c93c
00000370: 2c8c 33bb 38a5 b73c 0ea1 10bc 7824 05bc
00000380: 7f46 103d e9e9 7fbc 6ee6 b13b 9802 383b
00000390: 75d0 3b3d 05d8 fa3c b867 c93c 3978 17bc
000003a0: 422d 0a3d fcb9 113d c753 fbbb b942 cc3d
000003b0: edb7 d93b b065 73bc 2122 54bd bf38 763d
000003c0: 3b02 8dbc a81c 653c 4f41 90bc f092 fa3c
000003d0: 029e 95bc eaa9 c53c 8ef3 513d 66b1 07bc
000003e0: 7841 99bc 4c02 933c e24d 373d bb4f 0b3d
000003f0: 5eaf c6bc 94c2 b6bd 8588 e9bc 5519 d0bb

conv3.bias f4 [128]
0.012798445 0.030752707 -0.02603862 -0.011926137 0.012810603 0.048764173 4.335283e-31 -6.31959e-07
-0.04163626 0.0130911125 0.048007496 0.012074532 0.026994338 0.0037217906 -0.009967425 0.011622438
-0.031768356 0.011251671 -5.2192784e-17 -4.3379864e-21 0.029826261 0.007398133 -0.002362849 -0.04413326
-1.6844827e-07 -0.04284824 -4.6930406e-27 -8.645117e-14 0.012824894 -0.01158702 -8.040204e-05 0.022931542
0.010480101 -0.027547764 0.012954316 0.017379202 -0.040087413 -0.023304552 -3.5412595e-06 -3.4348113e-10
-0.061169058 -0.004084107 0.054522343 0.0010372339 -0.0017082272 0.0041307025 0.019622633 -3.4041987e-16
-0.013263601 0.026936056 -0.0054896013 0.013337978 -0.0065589007 -0.004634935 -2.1845819e-13 -0.009595327
-0.0028835249 -0.02393997 0.022781504 0.018753642 0.036571465 -0.04350775 0.028684523 0.00045048815
0.019192519 0.07817637 0.013967884 0.016550643 -0.018422097 -0.0056231366 0.017707936 -0.024528071
-0.0024758426 0.044426214 -0.041921515 -0.015379933 -0.021529175 -1.6511045e-12 0.008859957 -0.010679813
0.054369166 0.046392046 -0.0031049761 0.013937671 0.070292704 0.035590768 -0.0271623 -0.024255637
-0.03983367 -0.018366953 0.011376193 -0.08697579 -0.0052814106 0.05665442 0.018484442 0.015807068
-4.26566e-20 0.00093249854 -4.1409634e-20 -0.041933503 -0.057799377 -0.0010274791 -2.9722452e-15 0.063105285
0.056680426 -0.0058460734 0.05547585 -4.2242979e-10 -9.875353e-06 -0.0011481013 0.035593472 -0.020665526
0.02703405 0.024171053 0.030407483 -0.0027560676 0.021881318 -0.020622736 -6.0941727e-07 0.004001866
0.012862718 -0.0039200443 -0.09582635 -1.5409395e-16 0.07416052 0.0072486456 -0.03563525 0.0041560545
00000000: 92b0 513c 1aed fb3c f24e d5bc d865 43bc
00000010: 90e3 513c f1bc 473d 1fb0 0c0d e4a3 29b5
00000020: c88a 2abd 1b7c 563c 82a3 443d 42d4 453c
00000030: 3b23 dd3c 49e9 733b 694e 23bc 0a6c 3e3c
00000040: 891f 02bd ee58 383c 5db2 70a4 6ee2 a39d
00000050: 3456 f43c 0a6c f23b 07da 1abb 14c5 34bd
00000060: b5de 34b4 a381 2fbd 16e9 b993 b5ab c2a9
00000070: 811f 523c 7cd7 3dbc 849d a8b8 eeda bb3c
00000080: bbb4 2b3c d9ab e1bc 573e 543c d45e 8e3c
00000090: b332 24bd 30e9 bebc 60a6 6db6 acd4 bcaf
000000a0: 688c 7abd f9d3 85bb d252 5f3d cbf3 873a
000000b0: 98e6 dfba d85a 873b a5bf a03c 1b3d c4a5
000000c0: 934f 59bc 01a9 dc3c 1de2 b3bb 8987 5a3c
000000d0: 0cec d6bb a7e0 97bb 49f6 75aa b835 1dbc
000000e0: 85f9 3cbb c21d c4bc 47a0 ba3c 3da1 993c
000000f0: f6cb 153d 2f35 32bd cefb ea3c 7f2f ec39
00000100: a139 9d3c ef1a a03d 8dd9 643c 3795 873c
00000110: f0e9 96bc 4a42 b8bb 3c10 913c 18ef c8bc
00000120: bf41 22bb 43f8 353d e5b5 2bbd 1dfc 7bbc
00000130: f45d b0bc 4f5f e8ab 5a29 113c 62fa 2ebc
00000140: 34b2 5e3d 9605 3e3d db7c 4bbb d45a 643c
00000150: 9ff5 8f3d a0c7 113d 7983 debc c2b3 c6bc
00000160: a128 23bd 4b76 96bc 3663 3a3c 5d20 b2bd
00000170: af0f adbb 770e 683d af6c 973c d37d 813c
00000180: aa70 499f eb72 743a 2d8d 439f 77c2 2bbd
00000190: 0abf 6cbd 7aac 86ba 3f2c 56a7 583d 813d
000001a0: bc29 683d 6b90 bfbb a53a 633d b53b e8af
000001b0: 51ae 25b7 e37b 96ba 76ca 113d c04a a9bc
000001c0: 8376 dd3c 5f02 c63c 1d19 f93c 249f 34bb
000001d0: 7340 b33c 03f1 a8bc d696 23b5 1622 833b
000001e0: 26be 523c b773 80bb 9b40 c4bd 82a8 31a5
000001f0: 79e1 973d 0c86 ed3b 45f6 11bd 832f 883b

act_conv1.weight f4 [4, 128, 1, 1]
0.019549249 0.12626624 -0.11952373 0.052312747 0.13314521 -0.105363816 0.0034110988 0.0010930541
-0.09247408 0.12255892 -0.04694917 0.07720781 0.0665319 -0.021363238 -0.045280296 0.012623478
0.06600209 0.1333092 0.00013432336 -4.944e-41 0.08576079 0.07504599 0.109988764 0.2106468
-4.9777e-41 -0.07002969 -0.00086820807 4.9317e-41 0.025722519 0.0577173 -0.00023365922 0.04370965
-0.060365837 0.006665059 0.279231 0.047718246 0.11913293 -0.099508025 0.0005395095 4.9058e-41
0.10895039 0.0684115 0.10588193 -0.18019152 -0.14460708 0.03322266 0.07586135 -0.00017017545
0.15026781 -0.08860925 0.21718891 0.32167375 0.07809804 -0.03137431 4.9124e-41 -0.029803995
-0.056225993 -0.060191255 -0.06307995 -0.028375883 -0.07735205 -0.027034285 -0.16005751 0.0059482437
0.1349398 0.28282318 0.0064562736 0.14400932 0.12560602 -0.111782566 0.1265438 0.14507347
-0.03034579 -0.026963985 0.01899923 0.13510942 0.072303936 -8.957712e-25 0.013604257 0.31677395
0.015496329 0.07220244 -0.0007445282 -0.040182777 -0.12257729 0.11550349 0.05975502 -0.06612561
0.06521294 0.08963918 0.08414293 -0.0954236 -0.0010184216 0.005952209 -0.03729716 0.07695439
-4.9694e-41 0.14977454 -0.00011565706 -0.18604718 -0.020885333 0.109037116 -3.7275106e-05 0.0077981576
-0.12572552 -0.021652492 0.11821549 -4.955e-41 0.0004485921 -4.9491e-41 0.08844979 -0.16619404
0.03789945 0.12146514 0.17198314 -0.007910248 0.09183735 -0.019455465 -4.908e-41 -0.072288476
-0.0829938 0.2588597 -0.038586944 -4.9275e-41 -0.054406356 -0.09220118 0.13553165 -0.03840076
0.027144283 -0.043976113 0.10305404 -0.015909437 0.08343628 -0.008346162 -0.0015026118 -5.388531e-09
-0.25084278 0.016767936 0.007448306 -0.043409158 -0.02895585 -0.017777601 0.07582292 -0.16651656
-0.18896271 -0.11353016 4.9483e-41 -5.1819e-41 0.0030407493 -0.03703463 -0.0033687816 0.20102026
-4.9485e-41 0.006626204 -1.3161008e-07 -4.9047e-41 0.2731062 -0.058812812 0.00021339119 0.03786137
0.042320944 0.028537998 0.13847923 -0.03186681 -0.17140414 0.10587925 -7.798524e-07 -4.9442e-41
0.0474475 -0.22217691 0.06287621 0.08926299 0.30218586 0.02308123 -0.039162654 -0.0002204003
0.09254741 0.07925867 0.00031677244 0.049484298 -0.09891443 0.00020391875 4.9607e-41 -7.807853e-05
-1.6324701e-06 0.06874324 -0.07606755 -0.0058501726 0.11637302 -0.22203332 0.39669004 0.0049781483
0.4752971 -0.07847765 0.073485814 -0.0039358754 0.069434404 0.09557864 0.1662247 0.17015919
-0.00021752075 0.0008002441 -0.10050353 -0.14156483 0.21374083 -4.9111e-41 0.26403025 0.08270852
0.12774794 -0.030160459 -0.0006272867 0.023989022 0.029943693 -0.002990199 -0.050772708 0.047864508
0.2126198 0.069265656 0.05894988 0.07039126 0.10993629 -0.025425492 0.025532149 -0.09692524
5.3106e-41 0.07027572 -1.537346e-39 0.06687646 -0.14770928 -0.06598352 -4.9128e-41 -0.007882356
0.0056270557 0.14761059 -0.038275484 -4.9867e-41 -4.92e-41 6.0643e-41 0.06941144 0.05543398
0.087854154 -0.04853848 -0.15639122 0.0075439196 -0.027621385 0.08377959 -4.9714e-41 -0.021769216
0.017351743 -0.0032621177 0.12303537 -4.9675e-41 0.004963644 0.065901786 0.112986974 -0.03585325
00000000: bf25 a03c f04b 013e dbc8 f4bd e445 563d
00000010: 3857 083e fcc8 d7bd be8c 5f3b cf44 8f3a
00000020: 0d63 bdbd 2c00 fb3d c64d 40bd 211f 9e3d
00000030: e041 883d f501 afbc d577 39bd b4d2 4e3c
00000040: 1b2c 873d 3582 083e 27d9 0c39 d289 0080
00000050: 5aa3 af3d b6b1 993d ca41 e13d cbb3 573e
00000060: c28a 0080 ba6b 8fbd 7598 63ba 7a89 0000
00000070: 08b8 d23c fa68 6c3d 6b02 75b9 e408 333d
00000080: 2b42 77bd 9166 da3b 5ef7 8e3e 3574 433d
00000090: f7fb f33d ddca cbbd df6d 0d3a c188 0000
000000a0: 6221 df3d 541b 8c3d a0d8 d83d 2084 38be
000000b0: e113 14be 7c14 083d 325d 9b3d 2071 32b9
000000c0: cedf 193e c478 b5bd c566 5e3e 6cb2 a43e
000000d0: ddf1 9f3d 5982 00bd f088 0000 8227 f4bc
000000e0: 3a4d 66bd 1b8b 76bd 1030 81bd 8a74 e8bc
000000f0: c06a 9ebd 0177 ddbc 1ee6 23be 7ce9 c23b
00000100: a92d 0a3e 33ce 903e 268f d33b 2e77 133e
00000110: dd9e 003e 42ee e4bd b394 013e 248e 143e
00000120: bc97 f8bc 93e3 dcbc 46a4 9b3c 205a 0a3e
00000130: 1614 943d 279d 8a97 64e4 5e3c 3230 a23e
00000140: 51e4 7d3c dfde 933d 712c 43ba b296 24bd
00000150: cd09 fbbd 188d ec3d aec1 743d dd6c 87bd
00000160: 5d8e 853d bf94 b73d 2153 ac3d 736d c3bd
00000170: 8f7c 85ba bf0a c33b e8c4 18bd 439a 9d3d
00000180: 878a 0080 7f5e 193e e98c f2b8 2783 3ebe
00000190: b817 abbc da4e df3d d757 1cb8 b087 ff3b
000001a0: 31be 00be 9160 b1bc f61a f23d 208a 0080
000001b0: 0331 eb39 f689 0080 2a25 b53d c52e 2abe
000001c0: 743c 1b3d b7c2 f83d 591c 303e fc99 01bc
000001d0: 3815 bc3d 1161 9fbc d188 0080 fb0b 94bd
000001e0: a7f8 a9bd 4289 843e 580d 1ebd 5c89 0080
000001f0: 33d9 5ebd f9d3 bcbd cfc8 0a3e 1e4a 1dbd
00000200: b05d de3c 4c20 34bd ff0d d33d 8254 82bc
00000210: a4e0 aa3d 57be 08bc 49f3 c4ba 0526 b9b1
00000220: 776e 80be e95c 893c eb10 f43b cdcd 31bd
00000230: d234 edbc 55a2 91bc 0c49 9b3d 5183 2abe
00000240: 717f 41be 8082 e8bd f089 0000 7390 0080
00000250: 4f47 473b a0b1 17bd c7c6 5cbb 41d8 4d3e
00000260: f289 0080 a120 d93b b450 0db4 b988 0080
00000270: 93d4 8b3e b4e5 70bd c3c1 5f39 8614 1b3d
00000280: ba58 2d3d 85c8 e93c 80cd 0d3e c686 02bd
00000290: 9184 2fbe 38d7 d83d 0d57 51b5 d389 0080
000002a0: 4f58 423d 5882 63be 3ec5 803d 84cf b63d
000002b0: 1bb8 9a3e d914 bd3c 0569 20bd 411b 67b9
000002c0: 7f89 bd3d 5f52 a23d 7a14 a639 0cb0 4a3d
000002d0: a693 cabd 06d3 5539 498a 0000 17be a3b8
000002e0: 3f1b dbb5 41c9 8c3d 4ec9 9bbd ceb2 bfbb
000002f0: fa54 ee3d b45c 63be f51a cb3e bc1f a33b
00000300: 245a f33e e4b8 a0bd bb7f 963d 84f8 80bb
00000310: a033 8e3d bcbe c33d cf36 2a3e 363e 2e3e
00000320: 4816 64b9 79c7 513a cbd4 cdbd 5ff6 10be
00000330: e0de 5a3e e788 0080 f92e 873e 1663 a93d
00000340: 5bd0 023e 1113 f7bc 7f70 24ba a084 c43c
00000350: 7a4c f53c 37f7 43bb 0bf7 4fbd 930d 443d
00000360: 01b9 593e 27db 8d3d 6e75 713d 4b29 903d
00000370: 4726 e13d 1f49 d0bc cc28 d13c bd80 c6bd
00000380: 0a94 0000 b7ec 8f3d 7fbd 1080 87f6 883d
00000390: 1a41 17be 5e22 87bd f388 0080 ff24 01bc
000003a0: 2a63 b83b 3b27 173e c1c6 1cbd 028b 0080
000003b0: 2689 0080 0ca9 0000 9627 8e3d be0e 633d
000003c0: e1ec b33d 49d0 46bd 0525 20be fc32 f73b
000003d0: 3e46 e2bc a294 ab3d 958a 0080 5b55 b2bc
000003e0: 3e25 8e3c 41c9 55bb f8f9 fb3d 798a 0080
000003f0: 10a6 a23b 84f7 863d b765 e73d dcda 12bd

act_conv1.bias f4 [4]
0.036650106 0.0097668925 -0.009855449 0.12682703
00000000: 6c1e 163d 5105 203c c078 21bc f2de 013e

act_fc1.weight f4 [81, 324]
0.05159738 0.022725733 0.036159445 -0.012004257 0.024940776 -0.0043592686 -2.0951842e-05 0.010251217
-0.059866767 0.041712794 -0.004717803 -0.046412505 -0.058868904 -0.02375029 -0.013203954 -0.01439313
0.004369227 0.011215638 0.021500472 0.027939878 -0.043831307 -0.051240206 -0.046707153 -0.0697671
0.041934192 0.0059242244 0.004108977 0.03126647 -0.03896978 -0.023349684 -0.08173084 -0.05223537
-0.0010040372 -0.06752882 0.005557218 -0.04698652 0.0048023504 -0.021348381 -0.08671617 -0.09109331
-0.022450427 -0.06303144 -0.08721973 -0.025264692 -0.008296877 0.056462597 -0.068894885 -0.045917943
-0.05540534 -0.17534176 -0.036781795 -0.0483116 -0.058824755 -0.005608027 0.100807965 0.01583018
-0.069278456 -0.091720685 -0.04144224 -0.03497545 -0.022616219 -0.046806373 -0.04573842 0.27558804
-0.07606476 -0.0057462873 -0.029881809 -0.09662728 -0.0079283565 -0.01706271 -0.0002594623 0.012274423
0.28992382 0.28862184 -0.048108853 -0.0010030073 0.0044850204 -0.018041607 -0.023214567 0.031120231
0.015037698 -0.013397312 -0.0028549081 -0.012631727 0.06528066 0.029178746 -0.027021088 -0.00774652
-0.029011013 0.06854556 -0.0072596623 -0.025295852 -0.0061843093 0.022059033 0.008171517 0.029085573
-0.036251176 -0.056605645 -0.014388148 0.0611857 0.021976467 -0.041074157 0.010408457 0.04217721
0.006510283 0.02064418 0.024503024 0.0077924076 0.052695807 -0.03409475 -0.04495961 -0.03864935
-0.005341717 -0.053935867 -0.02012397 -0.007479434 -0.04703795 -0.0020399073 -0.008472159 -0.018947259
0.053676188 0.012398512 0.029638076 -0.004484106 0.029245025 0.026424298 -0.09097034 0.041815214
0.124595165 0.015862742 -0.030052667 -0.01773546 0.0028974144 0.024647344 0.10680944 -0.0018782031
-0.0013549385 0.023061251 0.032072924 -0.024262784 -0.045833644 -0.05701202 -0.008707844 0.033998936
-0.23245959 -0.01047477 -0.014201127 -0.01592887 0.014085113 -0.01670284 -0.013506469 -0.0038329866
-0.03102269 -0.07362393 -0.094907455 0.013991481 0.017012697 0.029509984 0.045141052 0.0032816667
-0.014241575 0.021423345 -4.9289e-41 4.9424e-41 1.0354083e-36 2.0330541e-24 -8.340745e-30 3.4812586e-26
-2.4015004e-33 -4.7416517e-31 4.4039e-41 -4.8151e-41 1.1709131e-21 7.6314486e-17 4.0106875e-13 6.4590164e-16
8.328763e-15 6.8523513e-19 2.4344944e-19 -2.0610266e-30 4.9052e-41 2.9789382e-15 2.308604e-12 1.9817594e-11
1.0288753e-11 9.283491e-13 2.6468985e-13 1.0370247e-15 4.821674e-26 -1.2068195e-33 1.6396576e-13 1.5433157e-13
2.7514696e-10 2.0728553e-12 1.3574862e-12 1.3981058e-14 1.5721208e-18 -8.20871e-31 5.8385e-41 3.991835e-15
3.1158442e-13 2.776125e-10 1.9881276e-14 1.29268595e-14 3.6592554e-22 -1.547997e-28 4.9379e-41 4.9312e-41
7.937061e-15 2.3728046e-13 2.188761e-11 1.3437264e-13 7.691912e-18 -8.385361e-25 4.880681e-31 4.9228e-41
-4.9188e-41 3.2782663e-17 1.6762602e-16 3.096851e-11 1.5307947e-17 2.2857474e-18 -4.3351117e-24 1.3847502e-33
-4.93e-41 -9.6094e-41 1.214407e-25 3.2966857e-18 2.7262948e-17 1.4282141e-20 -4.7304687e-24 -1.738337e-24
9.166178e-39 4.9253e-41 -4.911e-41 -2.2001073e-38 -9.985649e-34 8.421885e-38 1.2110679e-38 8.85786e-39
1.1346637e-36 4.9141e-41 -4.9072e-41 0.08752615 0.056876086 0.0048098415 0.018707208 0.035438236
0.03633554 -0.011067701 0.045631833 0.036084663 0.012269194 -0.00010913525 0.019634701 0.020449836
00000000: c657 533d 512b ba3c ed1b 143d 81ad 44bc
00000010: 9950 cc3c 32d8 8ebb bdc1 afb7 b8f4 273c
00000020: db36 75bd 09db 2a3d cd97 9abb 0a1b 3ebd
00000030: 8520 71bd f88f c2bc 6655 58bc 2ad1 6bbc
00000040: bc2b 8f3b ccc1 373c c221 b03c 2ce2 e43c
00000050: 7588 33bd 40e1 51bd 0050 3fbd 0ee2 8ebd
00000060: 30c3 2b3d ff1f c23b 99a4 863b 4511 003d
00000070: c79e 1fbd d647 bfbc 8062 a7bd c1f4 55bd
00000080: e699 83ba 8d4c 8abd 5319 b63b f074 40bd
00000090: 095d 9d3b cde2 aebc 3f98 b1bd 218f babd
000000a0: f5e9 b7bc a116 81bd 42a0 b2bd e6f7 cebc
000000b0: a0ef 07bc 5345 673d c318 8dbd 7414 3cbd
000000c0: b6f0 62bd ca8c 33be 82a8 16bd 62e2 45bd
000000d0: 3af2 70bd 8ac3 b7bb 6874 ce3d 4bae 813c
000000e0: dde1 8dbd 0ed8 bbbd 57bf 29bd 6b42 0fbd
000000f0: a645 b9bc 0ab8 3fbd 3658 3bbd e019 8d3e
00000100: d7c7 9bbd 5a4b bcbb b2ca f4bc 86e4 c5bd
00000110: f0e5 01bc 19c7 8bbc 7108 88b9 a91a 493c
00000120: e570 943e 3ec6 933e ca0d 45bd 5777 83ba
00000130: 14f7 923b fecb 93bc 7a2c bebc dbef fe3c
00000140: ad60 763c 6680 5bbc 6919 3bbb 4ef5 4ebc
00000150: deb1 853d 4408 ef3c 545b ddbc 85d6 fdbb
00000160: 81a8 edbc 9d61 8c3d 76e2 edbb 3f39 cfbc
00000170: bfa5 cabb 25b5 b43c d4e1 053c de44 ee3c
00000180: 1d7c 14bd 52db 67bd 44bc 6bbc db9d 7a3d
00000190: fe07 b43c 603d 28bd 3c88 2a3c 03c2 2c3d
000001a0: 3654 d53b fc1d a93c 91ba c83c 7457 ff3b
000001b0: 8fd7 573d f0a6 0bbd 9127 38bd c84e 1ebd
000001c0: 9209 afbb dbeb 5cbd 06db a4bc 0a16 f5bb
000001d0: deaa 40bd f7af 05bb cfce 0abc 4837 9bbc
000001e0: 90db 5b3d 2123 4b3c 8dcb f23c 68ef 92bb
000001f0: 4393 ef3c c577 d83c a84e babd 6e46 2b3d
00000200: c02b ff3d 95f2 813c 0331 f6bc f549 91bc
00000210: 8ce2 3d3b 3ae9 c93c e8be da3d 0a2e f6ba
00000220: 3198 b1ba f3ea bc3c e65e 033d bfc2 c6bc
00000230: 0fbc 3bbd 7085 69bd 58ab 0ebc 7842 0b3d
00000240: e309 6ebe 5f9e 2bbc d8ab 68bc 437d 82bc
00000250: 3fc5 663c 65d4 88bc 3d4a 5dbc d832 7bbb
00000260: 4c23 febc 25c8 96bd d75e c2bd 863c 653c
00000270: 365e 8b3c ecbe f13c d3e5 383d 3b11 573b
00000280: 7f55 69bc 0380 af3c 6689 0080 c689 0000
00000290: 642a b003 c94c 1d18 a02b 298f 3262 2c15
000002a0: 4482 4789 1ae0 198d c37a 0000 3a86 0080
000002b0: 82f1 b01c 1ff8 af24 19c8 e12a 212b 3a26
000002c0: a409 1628 e73e 4a21 0ab5 8f20 d935 278e
000002d0: bd88 0000 b6a7 5627 1d74 222c 4151 ae2d
000002e0: 6d00 352d 4da7 822b d401 952a 7573 9526
000002f0: fbc1 6e15 6d84 c888 ea9b 382a 0cc3 2d2a
00000300: 7e43 972f 3edd 112c 980c bf2b 40dc 7b28
00000310: 0b01 e821 a631 858d c1a2 0000 2ed2 8f27
00000320: 0c68 af2a 7c9e 982f 1a13 b328 9ede 6828
00000330: 3c30 dd1b 603b 4491 a689 0000 7689 0000
00000340: 3cfb 0e28 b893 852a 8486 c02d 474a 172a
00000350: 07e4 0d23 d6c1 8197 1d63 1e0d 3a89 0000
00000360: 1e89 0080 f02e 1724 7842 4125 7133 082e
00000370: de30 8d23 8ca8 2822 deb4 a798 c214 e608
00000380: 6e89 0080 df0b 0180 1856 1616 a240 7322
00000390: d174 fb23 19e4 861e 4b00 b798 507f 0698
000003a0: 93cf 6300 4c89 0000 e688 0080 0a92 ef80
000003b0: 41ea a588 f943 e501 a5df 8300 1c74 6000
000003c0: 930d c103 fc88 0000 cb88 0080 e940 b33d
000003d0: e6f6 683d e09b 9d3b dc3f 993c af27 113d
000003e0: 93d4 143d 4d55 35bc 72e8 3a3d 83cd 133d
000003f0: bb04 493c 8bdf e4b8 f4d8 a03c 6a86 a73c

act_fc1.bias f4 [81]
0.10770856 -0.011947045 -0.17003323 0.108693056 0.11795762 0.1041274 -0.11443905 -0.015967686
0.0758777 -0.004657631 -0.07266475 0.10375346 0.054517444 0.24297605 0.072544746 0.080014005
-0.16507594 -0.020509701 -0.15325196 0.13417587 0.0046893535 0.20999366 -0.07365876 0.17328869
0.010432817 0.13934761 -0.10818232 0.07309799 0.040967513 0.11420996 0.1165698 0.19160046
0.08662847 0.16634198 0.045318034 0.09970353 0.09766276 0.19789124 -0.023073116 0.23910944
-0.052799396 0.27491486 -0.07865023 0.21650434 0.08911261 0.07674274 0.056222618 0.1410806
0.099628285 0.23295005 0.062578954 0.19073707 0.017563995 0.071940206 -0.15644042 0.12315103
0.084963344 0.21614361 -0.07982372 0.12244288 -0.012358038 0.13989832 -0.12128452 -0.05287893
-0.120916426 0.12257672 0.051961012 0.16172487 0.03612437 0.1234872 -0.13605009 -0.02190183
0.042184144 -0.060922123 -0.15396903 0.09743574 0.06560489 0.083569646 -0.13607904 -0.021378797
0.08596854
00000000: 4e96 dc3d 8abd 43bc 311d 2ebe 779a de3d
00000010: c493 f13d bf40 d53d 055f eabd aace 82bc
00000020: c465 9b3d 0a9f 98bb 42d1 94bd b27c d43d
00000030: af4d 5f3d b7ce 783e 5792 943d 62de a33d
00000040: ab09 29be f603 a8bc 15ee 1cbe 6665 093e
00000050: 26a9 993b 9408 573e 67da 96bd 9772 313e
00000060: 68ee 2a3c 24b1 0e3e b18e ddbd 66b4 953d
00000070: 8dcd 273d e9e6 e93d 26bc ee3d e932 443e
00000080: 446a b13d 8d55 2a3e 679f 393d 5d31 cc3d
00000090: 6a03 c83d 00a4 4a3e d503 bdbc 1bd9 743e
000000a0: 2e44 58bd a4c1 8c3e 5f13 a1bd 50b3 5d3e
000000b0: ac80 b63d 4c2b 9d3d b049 663d 6f77 103e
000000c0: ea09 cc3d 758a 6e3e 6529 803d 9450 433e
000000d0: 5ee2 8f3c 6355 933d eb31 20be 9b36 fc3d
000000e0: 4301 ae3d c054 5d3e 9e7a a3bd 55c3 fa3d
000000f0: 5e79 4abc 8141 0f3e 0564 f8bd 9497 58bd
00000100: 08a3 f7bd 8109 fb3d 12d5 543d 349b 253e
00000110: 26f7 133d dbe6 fc3d b750 0bbe 776b b3bc
00000120: 48c9 2c3d 7a89 79bd 0faa 1dbe 648c c73d
00000130: db5b 863d 9026 ab3d 4e58 0bbe 9622 afbc
00000140: 4610 b03d

val_conv1.weight f4 [2, 128, 1, 1]
0.044209182 0.024906503 0.040089846 0.019155791 0.11568469 -0.058406007 4.9393e-41 4.9425e-41
-0.10800316 0.07289341 -0.08285545 0.0095236525 -0.096819006 -0.03264561 0.10272055 0.15620269
-0.0373924 -0.025648434 4.9393e-41 -4.9153e-41 -0.099902876 -0.048224393 0.015155688 0.099534355
-1.6542791e-31 0.24165055 4.9275e-41 4.9265e-41 0.039323874 -0.0018682515 -0.0026716485 -0.28709903
0.089378 0.0071163937 0.11652793 -0.05797643 -0.021839835 -0.0059263348 0.001967407 4.9089e-41
0.0437033 0.0662382 -0.013080527 0.047984615 0.05113231 -0.045808855 -0.066367075 -4.9711e-41
0.07341911 -0.025200455 -0.08945547 -0.06174858 0.016995965 0.016086828 4.9274e-41 0.034344014
0.020259896 0.13948962 -0.03520428 -0.0051393956 -0.15021129 0.05922654 0.001877729 0.006138564
0.08484502 -0.06574664 0.09623569 0.03924078 0.018160852 0.033410616 0.017864466 0.046025906
0.02862505 -0.079694465 0.10194034 0.113453254 -0.23522864 4.919e-41 0.088164546 -0.06212105
-0.025830222 -0.017272802 0.0015254414 0.10418192 -0.06632932 0.024147643 0.05124278 -0.12798437
0.073960975 0.029803647 0.03115087 0.060349915 0.030935727 -0.010759933 -0.08459327 0.002754154
4.9236e-41 0.00021739403 1.00075405e-13 0.06591328 0.12581001 0.102578044 4.9347e-41 -0.108249344
-0.0782235 -0.10982423 -0.048974514 4.9118e-41 -5.1472e-41 8.312927e-12 0.021457363 0.050060082
-0.03721033 0.032272205 -0.008972872 -0.015728187 -0.09698087 -0.0732543 8.247825e-32 0.10255161
-0.095891036 0.113522425 -0.103128694 -2.0704804e-11 -0.065748304 0.039062418 0.027995639 -0.007828124
0.0027285952 0.005732407 0.014546884 0.0025123567 -0.12101971 0.008172279 4.9593e-41 -5.6733e-41
-0.08090591 -0.049688607 -5.6743203e-05 0.010493845 -0.0042235907 0.097274125 0.012973176 -0.012193566
-0.01586461 -0.0030138863 -4.9504e-41 4.9966e-41 -0.013876646 -0.0012728885 -0.05681741 -0.035167992
-5.035e-41 0.029331185 5.2701e-41 -4.9272e-41 -0.037493072 -0.08425037 -0.0036351355 -0.09708013
0.06245953 0.0006297162 0.11217558 -0.0041821166 0.1677533 0.14090267 -4.770159e-19 4.92e-41
0.08648214 -0.035962313 -0.07225838 0.0049785934 0.043916848 -0.003500538 0.0005926469 -5.3077e-41
0.14784169 -0.009001297 0.018586604 0.017875453 0.003957337 -6.8125916e-10 4.9801e-41 -2.1105689e-06
-0.000103046776 0.0026602542 -0.20719576 0.005334646 -0.02226119 0.09369473 0.118965454 -0.016434196
0.18721664 0.11134298 0.07633054 -0.0033096862 0.03285682 0.011613033 -0.024730314 -0.031774767
-1.0162095e-05 -0.003295054 0.14728075 -0.07933947 -0.06119857 -4.9732e-41 -0.10249226 0.104960084
0.05678074 0.004652402 0.004938089 0.06827238 0.0054240283 0.018063178 0.006040098 -0.20359178
-0.028437201 -0.062545806 0.028042996 -0.1397245 0.017264262 0.09337701 -0.0020464216 0.011398965
4.9361e-41 0.0343972 -4.9577e-41 -0.0076166415 0.016701253 -0.1300054 4.9345e-41 -0.00046821608
0.012197778 0.043374356 -0.00051731436 5.0172e-41 4.9599e-41 4.9293e-41 -0.11018456 -0.076953694
0.024649166 0.0069525526 0.08236604 -0.0031635466 -0.0010061428 0.01453234 -5.0267e-41 0.110500164
0.00015874939 0.02599804 0.04809904 4.9333e-41 0.0013196149 0.0034979973 -0.06309183 -0.008754396
00000000: b014 353d b908 cc3c 4035 243d 9bec 9c3c
00000010: 18ec ec3d 233b 6fbd b089 0000 c789 0000
00000020: c330 ddbd 2449 953d 1eb0 a9bd 1809 1c3c
00000030: 0b49 c6bd 67b7 05bd 275f d23d 99f3 1f3e
00000040: c628 19bd aa1c d2bc b089 0000 0589 0080
00000050: e199 ccbd f186 45bd 904f 783c abd8 cb3d
00000060: dabc 568c 3e73 773e 5c89 0000 5589 0000
00000070: 1212 213d 1ee0 f4ba d316 2fbb a5fe 92be
00000080: d00b b73d a330 e93b 32a6 ee3d b178 6dbd
00000090: 74e9 b2bc b331 c2bb 9def 003b d788 0000
000000a0: 3b02 333d e5a7 873d b54f 56bc 848b 443d
000000b0: 1d70 513d 11a2 3bbd 76eb 87bd 938a 0080
000000c0: c25c 963d 2f71 cebc 6e34 b7bd 14ec 7cbd
000000d0: 1f3b 8b3c 86c8 833c 5b89 0000 4fac 0c3d
000000e0: 15f8 a53c 5ed6 0e3e 5d32 10bd 6068 a8bb
000000f0: fdd0 19be 8797 723d 211e f63a 0226 c93b
00000100: 3ac3 ad3d 2da6 86bd 3817 c53d f1ba 203d
00000110: 11c6 943c 92d9 083d 8058 923c a985 3c3d
00000120: 157f ea3c da36 a3bd 19c6 d03d 2e5a e83d
00000130: c7df 70be 1f89 0000 9d8f b43d a472 7ebd
00000140: e799 d3bc b17f 8dbc 52f1 c73a 555d d53d
00000150: abd7 87bd 47d1 c53c f3e3 513d 560e 03be
00000160: da78 973d c726 f43c 1c30 ff3c 7931 773d
00000170: ec6c fd3c 6e4a 30bc 3d3f adbd 097f 343b
00000180: 4089 0000 44f4 6339 8b59 e129 8bfd 863d
00000190: 57d4 003e 7014 d23d 8f89 0000 d5b1 ddbd
000001a0: a433 a0bd 87eb e0bd 8099 48bd ec88 0000
000001b0: 7c8f 0080 183e 122d 5ac7 af3c cd0b 4d3d
000001c0: dc69 18bd dc2f 043d f402 13bc 66d8 80bc
000001d0: e89d c6bd 5a06 96bd 3320 d60b 9406 d23d
000001e0: 8562 c4bd 727e e83d 2335 d3bd 131f b6ad
000001f0: 0ca7 86bd eaff 1f3d 1c57 e53c 8841 00bc
00000200: 3bd2 323b ead6 bb3b 0e56 6e3c 5aa6 243b
00000210: 2fd9 f7bd 06e5 053c 3f8a 0000 269e 0080
00000220: ffb1 a5bd 4886 4bbd 8dff 6db8 60ee 2b3c
00000230: 0c66 8abb a837 c73d 728d 543c 86c7 47bc
00000240: 80f6 81bc 9f84 45bb ff89 0080 498b 0000
00000250: df5a 63bc 0dd7 a6ba 5fb9 68bd 500c 10bd
00000260: 5b8c 0080 f447 f03c e992 0000 5a89 0080
00000270: 5692 19bd 758b acbd 743b 6ebb f2d1 c6bd
00000280: 90d5 7f3d 8a13 253a 4fbc e53d 230a 89bb
00000290: 85c7 2b3e ca48 103e 4dca 0ca1 2689 0000
000002a0: 8c1d b13d 384d 13bd 34fc 93bd 7823 a33b
000002b0: 27e2 333d 4869 65bb dc5b 1b3a f593 0080
000002c0: d063 173e 2d7a 13bc ef42 983c 8b6f 923c
000002d0: 8cac 813b 5a43 3bb0 d38a 0000 4ca3 0db6
000002e0: d11a d8b8 a957 2e3b 202b 54be 41ce ae3b
000002f0: 195d b6bc 06e3 bf3d 29a4 f33d 02a1 86bc
00000300: b8b5 3f3e ca07 e43d 3053 9c3d 52e7 58bb
00000310: df94 063d 9744 3e3c 3a97 cabc 4226 02bd
00000320: de7d 2ab7 d5f1 57bb c4d0 163e bb7c a2bd
00000330: 5aab 7abd a28a 0080 76e7 d1bd 50f5 d63d
00000340: ec92 683d 2d73 983b b1cf a13b 64d2 8b3d
00000350: 0cbc b13b 3bf9 933c 04ec c53b 5d7a 50be
00000360: 22f5 e8bc 0418 80bd 6dba e53c f013 0fbe
00000370: c86d 8d3c 723c bf3d 421d 06bb b9c2 3a3c
00000380: 9989 0000 14e4 0c3d 338a 0080 0595 f9bb
00000390: 11d1 883c 2320 05be 8e89 0000 e67a f5b9
000003a0: 30d9 473c 4fa9 313d 619c 07ba dc8b 0000
000003b0: 438a 0000 6989 0000 71a8 e1bd e699 9dbd
000003c0: 0ced c93c 3dd2 e33b 87af a83d 8153 4fbb
000003d0: 8de0 83ba 0d19 6e3c 208c 0080 e94d e23d
000003e0: f775 2639 d7f9 d43c 8003 453d 8589 0000
000003f0: eef6 ac3a a83e 653b 4a36 81bd 996e 0fbc

val_conv1.bias f4 [2]
0.060445573 0.014499572
00000000: c795 773d 9d8f 6d3c
