课程设计/AlphaZero简单复现/models/policy_batch_250.model (torch, 530617 bytes, 15 tensors)

conv1.weight f4 [32, 4, 3, 3]
000000 9e d1 31 3e d3 3c 27 3b f2 7c 7a 3e 20 e4 29 bd
       0.17365119 0.0025518432 0.24461725 -0.041477323
000010 23 ef 36 3d 73 6b 1d be 9b ef a1 3e 3c e6 6a be
       0.044661652 -0.1537302 0.31628117 -0.2293939
000020 06 17 a3 3e 1d 3b 80 3d 7e d9 ad bb c2 48 22 3e
       0.31853503 0.06261275 -0.005305468 0.15848067
000030 09 ae 4f 3c 3e 2c 23 bd e7 79 0b bd 95 6d 8c 3e
       0.012675771 -0.039837115 -0.034051802 0.27427354
000040 d5 90 23 be 05 5b 2f 3e d9 0d b9 3c ad bd a0 3d
       -0.15973218 0.17124565 0.02258961 0.07848678
000050 96 68 09 be 93 87 45 3d f1 b1 8b 3d 45 99 88 bd
       -0.13418803 0.048224997 0.06821049 -0.06669859
000060 ed ab 2c bc 52 99 34 3d 7f 53 aa 3d b8 82 84 3c
       -0.010539037 0.04409153 0.08316707 0.016175613
000070 de de ae 3c 5c ff 53 bd 06 90 bb bd ac 63 06 3e
       0.021346506 -0.0517572 -0.0915833 0.1312396
000080 e9 3d 17 bd c5 7a 38 3c 33 29 44 3d d7 6f 71 bd
       -0.036924277 0.011259739 0.047890853 -0.05894455
000090 82 db 78 3e 19 cd 56 3e d6 95 a9 be 6b 8c c1 3d
       0.24302486 0.20976676 -0.33122128 0.09450611
0000a0 dd d9 a8 bb 68 2c 4f 3e 51 82 68 be 16 ec 76 3b
       -0.0051529245 0.20231783 -0.22705962 0.003767734
0000b0 f0 55 fb 3d 3c 99 c7 3d c1 10 02 3e 7f c9 d5 bd
       0.12272251 0.09746024 0.12701704 -0.10438823
0000c0 49 4e 67 be 65 81 87 3d 52 10 73 3d 9d e1 58 3d
       -0.22588457 0.06616477 0.059341736 0.052949537
0000d0 b2 87 43 be c4 74 88 3e 25 51 c3 3d 33 8f c2 3d
       -0.19094732 0.26651585 0.095369615 0.09499969
0000e0 f2 49 8f bd ec b7 83 3d c5 37 4e 3c 84 be 87 bd
       -0.06996526 0.06431565 0.012586539 -0.06628135
0000f0 9b 93 53 3c a6 14 1c 3c 63 04 af bd ee 46 56 3b
       0.01291361 0.009526407 -0.085457586 0.0032696086
000100 3e f6 07 be 8c 29 61 3d e0 0a 1f be e5 fc a6 3d
       -0.13277528 0.054971263 -0.15531492 0.081537046
000110 cc 32 21 be 7a cd 1e 3e 19 75 1b bd 31 5b 27 3e
       -0.15742034 0.1550807 -0.03795347 0.1634338
000120 e2 31 b0 3d 1d 91 ed 3d ba 62 e6 3c 91 82 44 be
       0.086032644 0.11599944 0.028123248 -0.19190432
000130 36 95 1a bd c4 b1 fe bd 70 0a 1f 3d 84 81 d4 3d
       -0.037739955 -0.1243625 0.038828313 0.10376266
000140 c1 84 53 be 5a 07 94 3d 77 34 e1 bc 1f 9d 2c bd
       -0.2065611 0.07227965 -0.027490837 -0.04214203
000150 00 84 be 3d 92 56 80 3d d9 02 f8 bb 02 07 ab 3d
       0.09302521 0.06266512 -0.007568699 0.08350946
000160 60 b9 1d be 3d 83 ea bd 13 5f fd bc ae 5e 5a bc
       -0.15402746 -0.11450813 -0.030929124 -0.013328237
000170 e8 0c b3 bd 30 86 44 be fc e5 b0 bd 38 20 9a bd
       -0.08742696 -0.19191813 -0.08637616 -0.075256765
000180 eb 44 cc 3c 7b 98 e1 3b f8 90 de 3b fa fc b5 bd
       0.024935206 0.006884632 0.006792184 -0.08886142
000190 35 03 21 3e 07 57 f2 3d 79 6d 40 3d 21 3f 9a 3d
       0.1572388 0.118330054 0.0469794 0.07531572
0001a0 aa fb ad 3d c5 bd b0 3d 91 50 23 3e bb 4b 11 be
       0.08495267 0.08629946 0.15948702 -0.14189045
0001b0 8e 2e f7 bb c7 63 98 be 0f c6 55 3e f2 f4 d6 bd
       -0.0075433915 -0.29763624 0.20876335 -0.10495938
0001c0 46 ac 64 3e 28 96 89 be 4f 06 02 3b 28 c1 96 3d
       0.22331342 -0.26872373 0.0019840186 0.073610604
0001d0 1f 0c 26 3e 97 f4 8e 3c 00 e1 83 3d fa 75 ea bd
       0.16215561 0.017450614 0.064394 -0.114482835
0001e0 54 2d e5 3d ad dd aa 3d 1d e3 22 3d ac 63 c8 3d
       0.11190286 0.083430625 0.039767373 0.09784636
0001f0 66 09 00 3e 62 3e 7d 3e ed 7f 7c bc 02 fd e7 bc
       0.12503585 0.24730828 -0.015411359 -0.028318886
000200 e4 45 a8 bb e9 55 c9 3b da 82 0c 3d c8 f4 fe 3c
       -0.0051352847 0.0061442745 0.034304477 0.03112258
000210 07 cb 19 bd 50 ef 3d 3b 69 6b 39 3d 1c 49 83 3d
       -0.037547138 0.0028981753 0.04526845 0.06410429
000220 ad 91 79 bd 2d cb e5 3d 27 7b ff 3d 86 d5 85 bc
       -0.060929943 0.11220393 0.12474661 -0.016337167
000230 b1 95 a4 bd fd 4f fb bd 31 b0 ce bd 83 48 0d 3e
       -0.08036364 -0.12271116 -0.100921996 0.13797192
000240 85 89 0c be 12 78 c3 bd cd 25 22 bd 4a 08 ae 3d
       -0.13724335 -0.09544386 -0.03958683 0.08497675
000250 15 29 97 3c 20 0f 67 3d 83 b0 c5 bd f4 c9 cd bd
       0.018452207 0.05641091 -0.096528076 -0.10048285
000260 5a 83 5b 3d a4 eb 0b be 52 d3 a5 bc fa 5d fa bd
       0.053592063 -0.13664109 -0.020242367 -0.12224956
000270 7d ef d7 3d 45 0c 19 3d ea 16 75 bd b8 06 d7 3d
       0.10543726 0.037365217 -0.059836306 0.104993284
000280 7b 4a 91 bd 86 83 0f be d2 6c f7 3b 4f c9 5a 3d
       -0.07094284 -0.14015016 0.007550814 0.05341464
000290 af 2c 10 3e 24 0e be 3d cb 86 93 3d 5d 62 3d bd
       0.14079545 0.09280041 0.07203444 -0.046236385
0002a0 fe b0 91 bc e4 d0 76 bd c2 1d 8c 3c ec fc b9 3d
       -0.017784592 -0.060257807 0.017104033 0.09081444
0002b0 ab a2 c5 3d a6 45 16 3e a9 bf 07 3e 8e 0b ac 3d
       0.09650167 0.14675006 0.13256706 0.084006414
0002c0 a5 08 dd 3d a5 7a 1b 3e 33 9b 11 3e 3f d7 01 3e
       0.107926644 0.15183504 0.1421936 0.12679766
0002d0 2e ba 85 3e cf 7e ba 3d fc 0a 2f bd 3d 03 92 be
       0.26118606 0.09106218 -0.042735085 -0.28518096
0002e0 99 cd af 3e 61 28 af 3e 6e e6 83 3e b1 11 1f bd
       0.34336546 0.34210494 0.2576174 -0.03883523
0002f0 3c a6 94 bb ed 55 58 3d 0c 63 52 bd 3b 1b 0c be
       -0.0045364182 0.05281632 -0.05136399 -0.13682263
000300 f8 e1 b0 be 7a a0 85 3e fd b8 12 3e 34 05 2a 3e
       -0.345474 0.26098996 0.1432838 0.16603547
000310 25 49 f8 bd f6 28 60 bd ac 1e 69 3d eb 82 07 3e
       -0.12123326 -0.054726563 0.056914017 0.13233535
000320 a8 42 09 be 02 65 9e bd b5 fb f9 3d ff 69 ce 3d
       -0.13404334 -0.077341095 0.122062124 0.10078811
000330 79 9f 34 3d 18 9e 2e 3d ac f2 ac bc eb 8c 1f 3d
       0.044097397 0.04263124 -0.021111809 0.03895275
000340 d7 08 8c 3d 9c 72 19 3e 6c 46 13 3e 40 b0 e9 bd
       0.068376236 0.14985126 0.14382333 -0.1141057
000350 26 b3 93 bd de f8 23 bd f1 c2 87 bd 79 b9 21 3e
       -0.07211904 -0.04003226 -0.06628979 0.15793408
000360 9e d7 40 bd 38 a6 c3 bd 80 58 95 3d 67 aa 9e ba
       -0.04708063 -0.09553188 0.07292271 -0.0012105227
000370 ef 8f 65 bd c7 c5 88 be 00 26 76 3c 6c f2 e0 bd
       -0.05604547 -0.26713392 0.015023708 -0.10983738
000380 90 96 4d 3e d6 02 2b 3d 5d c1 b2 bd df 92 d4 3d
       0.20076966 0.04175075 -0.08728287 0.10379576
000390 ce 93 a4 bd 8b 08 1c 3e 4b e2 34 be 63 bf 76 3d
       -0.08036004 0.15237634 -0.17664449 0.060241114
0003a0 b8 2c 6f be af 89 40 3e fc 74 be 3c 69 ef e3 bd
       -0.23356903 0.18802522 0.023249142 -0.11129648
0003b0 5f c5 e4 3d 27 92 cb bd 85 4a db 3c c7 5a 94 bd
       0.11170458 -0.09939986 0.026768932 -0.07243877
0003c0 b9 0d 15 3e e9 22 fb bd f9 b6 a8 3d 96 99 bd 3c
       0.14556016 -0.12262518 0.08238024 0.023144525
0003d0 f5 34 15 3e d6 d9 14 3e 55 fe 00 bc 69 b8 78 bd
       0.14570983 0.14536223 -0.0078731375 -0.060722742
0003e0 1a 26 3e 3c 4a eb 18 be 79 2b c5 bc 3c bb 18 bd
       0.011605764 -0.14933506 -0.024068581 -0.037287936
0003f0 dd ca 91 be 9d 60 2c 3e 25 b4 65 3e 23 7e 4e be
       -0.28475085 0.1683373 0.22432001 -0.20165305

conv1.bias f4 [32]
000000 78 49 b8 bd 90 37 02 3e c3 fe 91 3d 57 ef 9e bc
       -0.08998388 0.12716508 0.0712867 -0.019401236
000010 68 0e 0c be 61 93 73 bd ad 57 07 bc 03 b6 ef 3d
       -0.1367737 -0.059466723 -0.00826065 0.11704638
000020 de 7f ce 3b d2 7c eb bd 99 30 9a 3e 11 63 b1 bd
       0.006301864 -0.11498417 0.30115202 -0.086614735
000030 c2 66 0f be 66 c2 6d bd 66 11 70 bb e7 57 5d 3e
       -0.14004043 -0.05804672 -0.0036631464 0.21615563
000040 dc 90 c3 3a 7f 1b 40 3e 24 98 a8 bc ae 4f 19 3c
       0.0014920491 0.18760489 -0.020580359 0.009357376
000050 ef f2 80 3e 0a 47 f3 bc c3 87 c8 bd 42 d1 b7 bd
       0.25185344 -0.02969696 -0.097915195 -0.0897546
000060 12 5e fa bc d0 d8 34 3e 54 31 75 3e df 58 5e bc
       -0.030562434 0.17660832 0.23944598 -0.013570993
000070 ad 01 7c bd 41 e9 fe bd 1e 6c 01 3d 99 8b 0d be
       -0.061525036 -0.124468334 0.03159725 -0.13822784

conv2.weight f4 [64, 32, 3, 3]
000000 78 c0 ce 3d 12 c0 b4 3d 14 30 1b 3e ff 80 1f 3e
       0.10095304 0.08825697 0.15155059 0.15576552
000010 17 5c 31 bc ac 32 28 3e 2f 58 d5 bc 0c 95 42 3d
       -0.010825179 0.1642558 -0.026043026 0.047505423
000020 97 36 fd bd 23 55 c5 3d 71 d0 b9 bd 79 c8 83 bd
       -0.12363928 0.09635379 -0.0907296 -0.064347215
000030 ef cb 8f 3d 5e 30 51 bd 9d 69 ea bd 8c da f0 3c
       0.07021319 -0.051071517 -0.114459254 0.029401086
000040 e4 0f 91 3d 83 5b 39 3e f2 a8 6e bd 2b 46 b5 3a
       0.07083109 0.18101315 -0.058266588 0.0013830116
000050 49 de 9f 3d 7f cc 4d bd 4a c8 71 3d 6c 50 02 3c
       0.078060694 -0.05024385 0.0590289 0.007953744
000060 04 87 19 bd a0 c3 5d bd 2a 88 ee bc 74 c3 cb 3d
       -0.037482277 -0.05414164 -0.029117662 0.09949389
000070 a5 95 ff 3d 87 02 13 3d 70 90 dd bb 15 94 9d bc
       0.12479714 0.035891082 -0.006761603 -0.01923565
000080 8a 3b d6 3c 37 b6 18 be 62 71 56 bc 85 bc ab bd
       0.026151437 -0.1491326 -0.013088556 -0.083855666
000090 fa c0 d2 3c 74 98 6e bc eb 38 2b 3c a2 99 a4 ba
       0.025726784 -0.014562715 0.010450582 -0.0012557993
0000a0 31 c5 10 bc 4f f6 25 3c 62 30 08 bd 6f 9c 4e 3a
       -0.008836077 0.010129525 -0.033249266 0.0007881587
0000b0 9f a0 8f 3c e9 dd f4 bc 6e c6 53 3c d1 4c 6e 3d
       0.017532645 -0.029890971 0.012925727 0.058178727
0000c0 4b 39 63 3d 6b a9 ca 3d fb a7 3b bd 77 a2 aa bd
       0.05547456 0.09895595 -0.045814496 -0.08331769
0000d0 27 a3 7f bc 5a 38 d5 bd 84 5a ac 3d f6 cb 30 3c
       -0.015602863 -0.10411139 0.08415702 0.010790816
0000e0 2d 7b 3c bd 28 5e bb bd 92 6b e2 bc 2c e0 cc 3c
       -0.046015907 -0.09148818 -0.027639184 0.025009237
0000f0 79 00 57 bc 66 e6 83 bc 7d 2e 31 3c ef bb c7 3b
       -0.013122671 -0.016101073 0.010814306 0.0060954015
000100 3d d2 0e be 90 9b 5a bc 36 08 bb 3d 20 af 57 3d
       -0.13947387 -0.013342753 0.091324255 0.052657247
000110 7c 52 8c be c3 43 52 3e 02 2f e5 3c ff ad 98 bd
       -0.2740668 0.20533662 0.027976517 -0.07455062
000120 e7 9f 80 3c 36 e0 75 3d 5b 28 b8 bd 48 a2 c6 3d
       0.015701247 0.060028277 -0.08992072 0.096989214
000130 fb d3 c1 3d d9 78 c7 bc 42 64 04 3c 4a a3 76 3d
       0.0946426 -0.024349617 0.008080544 0.06021432
000140 b4 e3 84 3d e2 e3 b9 bd f3 4b 61 3d 93 73 5b 3c
       0.064887434 -0.09076668 0.05500407 0.013394254
000150 04 f8 89 bd af 4d 2f bd a2 ec d5 3c 2e 84 97 bd
       -0.06736758 -0.042798694 0.026113812 -0.07398258
000160 1a 5f 34 3b 30 c8 7a bd 79 21 87 3d 87 47 1a bd
       0.0027522505 -0.06122607 0.06598181 -0.03766587
000170 e5 f0 a3 3d c5 58 ab 3d 5b 22 54 bd 81 3d 72 bd
       0.08004931 0.08366541 -0.051790576 -0.059140686
000180 4c 2c fd 3c ce ff 9f 3d 2b da c3 3d d7 a4 17 bd
       0.030904911 0.07812463 0.095630966 -0.037022438
000190 c1 0c 09 bc 4a 86 23 3d a4 47 9b 3d 04 b1 e3 3d
       -0.008364857 0.03992299 0.07582024 0.111177474
0001a0 fc 48 d4 3d 96 0e 7c bb 5f 80 9e 3d ed ae a6 bb
       0.10365483 -0.0038460842 0.077393286 -0.0050867707
0001b0 8c c9 de 3c bf 16 df 3c 93 20 af bd 36 dc a2 3c
       0.027195714 0.027232526 -0.08551135 0.019880395
0001c0 a0 41 1e bd 5d ba 9b 3c d4 9f b4 bd 26 22 01 bd
       -0.038636804 0.019009763 -0.08819547 -0.031526707
0001d0 d0 be ab 3d d2 51 a2 bd 47 aa 9a bc c6 f5 ae 3d
       0.08386004 -0.07925762 -0.018880023 0.08542971
0001e0 b9 e4 46 3e 43 0c f3 bc 96 45 b8 bd 68 a6 1f 3e
       0.19423188 -0.029668933 -0.089976475 0.15590823
0001f0 62 67 f7 bc 76 8f ab 3d 6c bd 1c 3c 5e 36 60 3e
       -0.030200664 0.083769724 0.009566646 0.2189574
000200 d8 b9 17 3e 60 ca b2 3a 35 7a 22 3d 4e af 80 3d
       0.14816988 0.0013640635 0.039667327 0.06283437
000210 6c 23 73 bd e4 77 54 be f7 f1 bd bd 44 60 1d bd
       -0.059359953 -0.2074886 -0.09274667 -0.038421884
000220 37 34 2a 3d 4b 2e bf 3b e6 cc 9e 3c 2d 0c 88 bc
       0.041553702 0.005834376 0.019384813 -0.016607368
000230 12 3c 7c 3d 48 6d 2f bd d0 68 a1 3d 85 2d 5f 3d
       0.061580725 -0.042828828 0.078813195 0.05448677
000240 17 6e b8 bd 21 93 8e bd 0f c4 cf bd b8 47 01 bd
       -0.09005373 -0.06961656 -0.10144817 -0.031562537
000250 09 4f 67 3d a9 98 34 3c 29 db cc 3d 10 29 36 3e
       0.05647186 0.011022725 0.10002739 0.17789102
000260 18 11 02 3e 36 ee 4a 3d ad d8 7c 3d cc 74 24 bd
       0.12701833 0.049543582 0.061730076 -0.04015045
000270 5c 00 ea b9 37 63 9c bc 56 de 62 bd 84 f2 45 3d
       -0.00044632226 -0.019090278 -0.055387817 0.048326984
000280 ae 6c a8 bc 6e 41 99 3c 8b 7b 21 bc 57 5d 9c 3d
       -0.020559635 0.018707957 -0.009856115 0.07634991
000290 81 28 9f bd 7d 75 1b 3e b9 27 27 3e 49 dc 70 bd
       -0.077713974 0.15181537 0.16323747 -0.05880383
0002a0 bd 96 12 3d 54 1b 1e bc 11 48 08 bd 53 15 b9 bd
       0.035788286 -0.00965007 -0.033271853 -0.090372704
0002b0 6e f9 87 3d 72 5c da 3a 31 f9 cf 3d 39 ab 26 3b
       0.06639372 0.0016659631 0.10154951 0.0025431646
0002c0 3c 59 56 bd 03 bd b2 3d 08 07 88 bd f1 40 d0 bd
       -0.052331194 0.087274574 -0.06641966 -0.101686366
0002d0 2b 56 96 bd 4e 22 43 bd c4 55 b1 bc 9a 74 9e 3d
       -0.07340654 -0.047640137 -0.021647342 0.07737084
0002e0 c2 9b ed bd 38 89 be bd f1 f4 48 3d 85 93 84 bd
       -0.11601974 -0.09303516 0.04906172 -0.064734496
0002f0 aa 8e ed 3c b3 1e fc 3d 49 94 5f 3e dc d2 af 3a
       0.028998692 0.12310543 0.2183391 0.0013414281
000300 ea c8 4d 3d 07 e1 c4 bc 81 c9 06 be c6 13 4d be
       0.050240435 -0.024033083 -0.13162805 -0.20027074
000310 c4 6b b6 be 3e 8f 02 bd 48 06 76 3d a5 69 5a 3d
       -0.35629094 -0.031874888 0.060064584 0.053323407
000320 9d 56 c9 3c 3b 01 bb 3d 24 c1 27 3d ab 9e 90 3d
       0.024577433 0.09131094 0.040955678 0.070615135
000330 cb 63 1d bd da 08 86 3c 06 dd 10 3d b3 f6 8a 3d
       -0.038425248 0.016361643 0.035367034 0.067853354
000340 f2 2b 96 3d c6 1b 78 bd fb 94 aa 3c 53 7a d4 3d
       0.07332601 -0.06057336 0.020822993 0.10374894
000350 27 08 53 3d 0b 18 d3 bd 54 70 3c 3d 86 d2 15 be
       0.051521447 -0.1030732 0.046005562 -0.1463109
000360 5a a6 9a 3d 99 e6 13 3e 92 22 ca 3c c5 55 d9 3d
       0.0755126 0.14443435 0.024674688 0.10612062
000370 82 c2 27 3d d8 9c e6 bd 58 8d 5e 3d ae 78 ac bd
       0.04095698 -0.11260384 0.054334015 -0.08421455
000380 62 c3 95 bd 9e eb 69 bd 8c bb 18 3d 18 2e 3f 3c
       -0.07312657 -0.057109468 0.037288234 0.011668704
000390 bc 62 e8 bd 70 76 c8 3c 45 7a 11 3e 6f 43 03 be
       -0.11346957 0.024470538 0.14206798 -0.12818693
0003a0 4d c5 10 3d ec f8 35 3e db ad c6 bd 29 7d 65 3d
       0.03534441 0.17770737 -0.09701129 0.056027565
0003b0 fc 93 0f bd df 7b 92 3d bf 80 fd bc b1 28 6f 3c
       -0.03505324 0.07152533 -0.03094518 0.014597104
0003c0 02 3c 4a bd 97 3a 49 be b2 73 b7 3d 87 c8 da bc
       -0.049373634 -0.19651257 0.08957614 -0.026706947
0003d0 2a a3 b2 bd 35 66 d1 bc 34 49 93 3d 12 1a 1f bd
       -0.08722527 -0.025561431 0.07191697 -0.038843222
0003e0 6a ac 36 3d a0 81 91 3d c3 ff 60 bc b3 2d 42 3d
       0.04459802 0.07104802 -0.013732853 0.047406863
0003f0 22 cb 95 bc a0 a2 98 3d 9e 48 11 bd b8 a8 f8 bc
       -0.018285338 0.07452893 -0.035469644 -0.030353889

conv2.bias f4 [64]
000000 4b a3 43 bd 15 55 8d 3d e5 f6 a1 3c 47 48 2e bd
       -0.04776315 0.06900994 0.019771049 -0.042549398
000010 f3 46 e0 3d 8a 18 64 bd 4c 7e 1d ba 4c 1c 33 bc
       0.109510325 -0.055687465 -0.00060078944 -0.0109320395
000020 56 e4 c5 bc 8a c0 7e 3c 3d 0f 08 3d f5 82 10 3d
       -0.02415673 0.015548835 0.033217657 0.03528114
000030 ed 21 47 3d 8e d5 ea 3c 18 1e 33 bd 40 a8 90 3c
       0.04861634 0.028666284 -0.04372987 0.017658353
000040 72 59 ad 3c d4 b9 8b bb 6d 01 9d 3b 74 56 ca 3d
       0.021160815 -0.004264096 0.0047914297 0.09879771
000050 64 41 b9 bb b9 c5 1c 3d ea 15 a1 3d 80 ea 45 bd
       -0.005653547 0.0382745 0.07865508 -0.04831934
000060 96 7e 01 3d e1 c1 46 3d af 6d e1 3b 48 9c ae 3d
       0.031614862 0.04852474 0.0068795304 0.08525902
000070 9e f7 17 3d da 58 2f 3d da 72 25 3d 39 41 70 3a
       0.03710138 0.042809345 0.040392734 0.00091649924
000080 21 c2 64 3c 5f 8a 44 bc 33 e9 87 bc ce f6 ca bc
       0.0139623 -0.011995881 -0.01659069 -0.024775889
000090 36 15 e0 3c d9 a1 c5 bc 8c 34 87 3d 87 43 c1 3d
       0.027353864 -0.024125027 0.066018194 0.09436708
0000a0 d8 0a cc 3d ee 4c f0 bc 41 84 3e bd 6d a5 8b bd
       0.09963006 -0.029333558 -0.046512846 -0.06818662
0000b0 2a 53 88 3d a8 82 32 3c 99 25 b5 3c e2 0a a1 bb
       0.06656487 0.010895409 0.022112655 -0.0049146274
0000c0 ff 01 e4 3b 56 21 99 3b 4c 99 d3 bb 6d 2b 54 bd
       0.0069582458 0.0046731634 -0.0064574834 -0.051799227
0000d0 41 3f a6 3c aa ed 4a 3d b4 07 a1 bb fe 36 05 3d
       0.020293834 0.04954306 -0.0049142484 0.032523148
0000e0 52 10 1e 3c a7 a7 5e bc 44 ea 1e 3d bb 2e 10 bd
       0.009647446 -0.013589776 0.03879763 -0.035200816
0000f0 77 d0 2e 3d b6 0f 14 bd 72 c3 ed bc 84 73 9f bc
       0.042679276 -0.036147796 -0.02902386 -0.019464262

conv3.weight f4 [128, 64, 3, 3]
000000 fc d4 9a bc 90 ce 80 bc bc 7e 90 3c 2b 22 93 bd
       -0.018900387 -0.015723497 0.017638557 -0.071842514
000010 cb 68 02 be e8 c9 32 bc 71 2f 12 3c 85 f1 c7 bc
       -0.12735288 -0.010912396 0.008922444 -0.024407158
000020 d9 10 8d 3d 41 3a 43 3d 4b 90 75 3b 5b 9d a2 3c
       0.06887979 0.047662977 0.0037470039 0.019850424
000030 9b 78 a3 3c de bd 25 3c 48 08 74 3c dd 88 f3 bb
       0.01995497 0.010116069 0.0148945525 -0.007432087
000040 f5 07 47 bc e4 71 bf b9 cf a0 18 3d 3a 8f f6 ba
       -0.012147893 -0.00036515214 0.037262734 -0.0018810995
000050 3e 3d 72 bc 1c ad 53 3c ef 44 c4 3c 3b 23 51 bc
       -0.014785109 0.01291969 0.023958651 -0.012764747
000060 b1 de 07 3d 45 52 4b 3d 83 1b 54 bc 14 14 9f 3d
       0.03317136 0.049639005 -0.012946012 0.077675015
000070 77 17 81 3d bb 6a 21 3d 82 86 c4 3d 75 0d 2d 3b
       0.06303304 0.039408427 0.09595968 0.0026405726
000080 87 6f 82 3d 00 b7 51 3d c2 53 8a 3d 16 6a 19 3d
       0.063689284 0.051199913 0.06754257 0.037454687
000090 8c bd 34 3d d2 35 d5 3d e2 55 4f 3d 73 ad 9d 3c
       0.04412608 0.10410656 0.050619014 0.019247746
0000a0 9b 1a 09 3e 2d 5f a7 3d 73 60 82 3d 0c 56 e5 3d
       0.13389055 0.0817245 0.063660525 0.11198053
0000b0 41 f9 4a 3d 71 d6 3e 3d ea 23 1d 3d 29 cf 55 3d
       0.049554113 0.046591226 0.03836433 0.052199516
0000c0 fa 51 b9 3c 68 53 9a 3c 1c d7 53 3d c1 07 d4 3c
       0.022622097 0.0188386 0.051718816 0.025882604
0000d0 ce 1e a1 bc 3c 34 8c 3c d0 e2 a2 3c 51 71 10 3d
       -0.01966801 0.017114751 0.019883543 0.035264317
0000e0 ac 2d a2 bb a4 e6 10 3c 27 16 a6 3c fb 26 a0 bc
       -0.004949292 0.0088440515 0.020274235 -0.019549837
0000f0 52 de 5b 3d 5d d9 9b bb 31 18 76 bc 51 48 13 3d
       0.053678818 -0.0047561363 -0.015020416 0.03595764
000100 a0 f9 48 bc 68 bd 2e bc 83 55 90 3c 48 8d 0e bd
       -0.0122665465 -0.010665275 0.0176189 -0.034802705
000110 98 4b 31 3c 78 3c ef ba e3 72 05 3c 91 67 b4 3b
       0.010821246 -0.0018252274 0.008145067 0.00550551
000120 d4 b3 e8 3c f5 4f a2 3c f9 9a 5f bb 72 59 a3 3a
       0.028406061 0.019813517 -0.003411947 0.001246257
000130 80 a0 e9 3c 1d e1 8e bc 99 5f 40 3d 76 97 23 3d
       0.028518915 -0.017441327 0.04696617 0.039939366
000140 cb 66 ca bb f7 61 5e 3d b5 ea fb 3c 78 9b 54 3d
       -0.0061768047 0.054292645 0.030751565 0.05190608
000150 ad 62 5f 3d 85 eb 9b 3c 1e 16 2a 3c 6c 49 11 3d
       0.054537464 0.019033203 0.01038125 0.03547041
000160 96 10 8f bc e4 6e c0 bc b8 c2 9d 3c c6 d5 d3 bc
       -0.017463963 -0.023490377 0.019257888 -0.025858771
000170 00 9b 00 bb 73 37 8f bc 01 13 66 bc 9a 48 ea 3c
       -0.0019623637 -0.017482495 -0.014042617 0.028599072
000180 c2 e6 e7 ba 70 2b 94 3c 9b 22 0f bd aa 95 22 3d
       -0.0017692673 0.018087119 -0.03494511 0.039693512
000190 16 f2 d9 bc f0 bf 0e 3d 44 f9 c4 3c 31 c2 14 3d
       -0.026604693 0.034851015 0.02404464 0.036318008
0001a0 f6 83 10 3d 29 3d 8e 3c d0 99 0f 3d 1a aa f9 3c
       0.035282098 0.017363148 0.035058796 0.030476619
0001b0 26 cd 8d 3c 35 c9 b7 3c ab ee 8f bc d4 d6 5e 3d
       0.017309736 0.02243481 -0.01756986 0.054404095
0001c0 7f 99 65 3d 95 bf 19 3d 13 4c 12 3d 52 a0 c2 3c
       0.05605459 0.037536222 0.03571708 0.023758087
0001d0 8b 23 2c bc c0 ab b6 3c cb 52 4a 3c 5b 5c 3e bc
       -0.010506521 0.022298694 0.012348841 -0.011618699
0001e0 02 1a 73 b9 f7 21 8a 3c 5c 51 8e 3b c3 bf f6 3c
       -0.00023183975 0.016861899 0.004343195 0.030120736
0001f0 35 2d 53 bc 9f ee ac 3c ba c1 c8 3c 0e 78 0f 3d
       -0.012889196 0.021109877 0.024506439 0.035026602
000200 42 e8 8d 3c e6 1d 46 3d 4b 4d 27 3d d4 9a 0b 3d
       0.017322663 0.048368357 0.040845197 0.034083202
000210 47 2b 20 3c 66 ec be 3a 0e a8 48 3d 84 31 80 3c
       0.009775943 0.0014566302 0.048988394 0.01564861
000220 7d e1 d6 3c 4f 08 80 bb 2e c7 2f 3d 42 83 ed 3a
       0.026230568 -0.0039072405 0.042914562 0.0018120783
000230 1b 9b a4 bc 66 f5 8d 3c 4c 3c 49 3d 39 a6 f0 bc
       -0.020093491 0.01732893 0.04912977 -0.029376136
000240 81 fd 2b 3a c5 f2 25 3d 3b 93 ed 3c 07 ff 05 3d
       0.00065609073 0.040514726 0.029000869 0.032713916
000250 25 4a 64 bc 1f a4 11 3d fd 47 9d bc 79 b1 aa 3c
       -0.013933693 0.03555691 -0.019199366 0.020836579
000260 92 6b d0 3c 6e 4b 09 bc 5b 36 28 3d 56 e3 cb 3c
       0.025441919 -0.0083798 0.041067462 0.024888676
000270 86 61 70 3d fc 62 6d 3d 6f 91 84 bd af 88 ea 3b
       0.058686756 0.057955727 -0.06473052 0.0071574072
000280 7b 70 29 bd 90 b7 8b 3c a4 a6 99 3c 29 69 05 3d
       -0.041367035 0.017055303 0.018756218 0.03257099
000290 e7 83 a4 bc 01 23 6b bc d9 97 a0 bc 58 cb 1c 3d
       -0.020082427 -0.014351607 -0.019603657 0.03827986
0002a0 89 2c dd 3c 66 e4 db 3c f3 28 ed bb a4 ef 28 3d
       0.026998775 0.026842307 -0.0072375475 0.041244164
0002b0 4e 17 b8 3c fd 17 1d 3d 66 a5 41 3d 64 bd 4d 3d
       0.02247205 0.038352955 0.047276877 0.050229445
0002c0 84 ac 05 3d f9 49 16 3d cd 04 24 3d 58 6f d3 3b
       0.032635227 0.03669164 0.04004364 0.006452482
0002d0 c7 f2 0b 3d 25 c7 b7 bc 09 d2 da 3b a1 2b 9a 3b
       0.034167077 -0.022433827 0.00667787 0.004704908
0002e0 cc 0a 4d 3c 31 b7 bc bc a5 09 68 3b 06 c4 54 39
       0.012514781 -0.023036571 0.003540614 0.0002029092
0002f0 ab 26 09 bd b8 74 f3 3c 6f 5a 43 3d 75 b5 62 bd
       -0.033484142 0.029718742 0.047693666 -0.055348832
000300 1b e6 01 bc b4 f6 90 3c 6a 38 28 3d 96 ca 33 bc
       -0.007928397 0.017695762 0.041069426 -0.010973593
000310 25 5c 81 bb 88 b3 ef 3c 50 c3 2a 3d d8 ae 00 3d
       -0.003947752 0.029260412 0.04169017 0.031416744
000320 aa 62 2d 3c 1a 03 69 3c 13 65 ab 3c cb 23 9c bb
       0.010582605 0.014221931 0.02092222 -0.004765009
000330 b5 1c 8c 3c e9 26 62 3d 57 19 0b bd a2 db 0d bc
       0.017103532 0.05521289 -0.033959713 -0.008658322
000340 81 b9 fb 3c 54 b8 2d 3d 9f 8c 59 3c f4 6f 5d 3c
       0.030728104 0.042412117 0.013278156 0.013515461
000350 64 64 21 3c 97 d9 eb bc 12 e5 ed 3c ce 72 2b bd
       0.009850595 -0.028790278 0.029039893 -0.041857533
000360 c0 a2 df bb ce a8 ef 3c 82 ed a4 bc b3 4c 8e 3c
       -0.0068248212 0.029255297 -0.020132784 0.017370557
000370 4a 3d e4 bc fa b7 52 ba bf af b3 bc 1e bd b6 bc
       -0.027861256 -0.0008038279 -0.021934388 -0.022306975
000380 56 eb f4 3b ed 9f 41 bb 7c e1 99 3c d5 9d 12 bc
       0.0074743433 -0.0029544786 0.018784277 -0.008948763
000390 63 32 27 3c 9a 6e 71 3d ac 76 e0 3c f7 f6 05 bd
       0.010204884 0.05894337 0.027400337 -0.032706227
0003a0 aa b5 6e 3c db 43 39 3c 38 2a 20 3d 4b 9f 4f 3d
       0.014569679 0.011307682 0.039102763 0.050689023
0003b0 6a 3f 34 3c a1 e2 95 3c 23 0e 59 3c 8f 76 12 3d
       0.011001447 0.018296542 0.013247999 0.035757598
0003c0 97 36 3b bc 78 21 cf 3c a9 ae 94 bc 88 21 21 3d
       -0.011426589 0.025284514 -0.01814969 0.03933862
0003d0 09 62 a4 b9 34 2e 8e 3c dd 33 01 3d e2 10 2a 3d
       -0.0003135356 0.017356016 0.0315436 0.041520007
0003e0 ee d9 9d bc db d3 6c 3c 5c 46 26 3d fc 24 6c 3c
       -0.019268956 0.014454807 0.040594444 0.014413115
0003f0 7e 01 0c 3b a4 f0 ee bb bb 89 fe bb b7 41 14 3d
       0.0021363194 -0.00729187 -0.0077678836 0.036195483

conv3.bias f4 [128]
000000 79 87 a4 3c 4b 93 64 3d 6d 7f 0a bd c2 3b eb 3b
       0.02008413 0.055804532 -0.03381293 0.0071787545
000010 38 c0 a8 3c 7a e4 3c 3d af 6e 71 ba bd 8c ad b8
       0.02059947 0.04611633 -0.00092099136 -8.2754974e-05
000020 e4 8f 9b bc 53 f6 c6 3c 5c 5b 2b 3d 10 fa 1b 3d
       -0.01898951 0.024287378 0.041835174 0.038080275
000030 18 63 33 3d b8 e3 b0 ba 62 fa b9 bc 0a 1f 12 3c
       0.043795675 -0.00134956 -0.0227024 0.008918533
000040 d8 eb e5 3c 65 06 2a 3d 8f a7 00 3c b6 31 c6 bc
       0.02806656 0.041510005 0.007852449 -0.024193626
000050 a4 ea 26 3d 14 17 b2 3c 97 44 95 3c fe ab d3 bc
       0.040751114 0.02173952 0.018221183 -0.025838848
000060 cf 25 aa bb 94 37 7f 3a 7f 4c 61 b8 bd 81 f7 bc
       -0.0051924954 0.000973576 -5.3715423e-05 -0.030213231
000070 a2 02 bf bc eb 60 8f 3c 19 14 5b bb fc 8e 16 3d
       -0.023316685 0.017502269 -0.0033428727 0.036757454
000080 9e ed 9c bc ab 22 b7 bc 93 0a fc 3c f3 28 a0 3d
       -0.019156273 -0.022355398 0.03076676 0.078203104
000090 26 a7 9b 3c f0 bb b6 bd bc 64 90 3b 54 e6 af bc
       0.019000601 -0.08922565 0.0044065397 -0.021472134
0000a0 3a db 3f bd ff 73 09 3b c2 8e dc 3b d7 62 ba bb
       -0.04683993 0.002097368 0.0067308852 -0.005688052
0000b0 62 56 09 bd f9 35 07 3c d7 21 26 3d 89 6e 31 ba
       -0.033529647 0.008252614 0.040559616 -0.0006768485
0000c0 6e 75 a3 bc 42 42 8b 3c a5 a7 9d 3c da 14 41 bb
       -0.019953456 0.016999368 0.019244978 -0.0029461891
0000d0 1a 83 f9 3c 31 fe fa bc 8d cd e0 bc c4 c8 16 bd
       0.030458022 -0.030638786 -0.027441764 -0.03681256
0000e0 1f 57 03 bc 45 6a fb bc 82 f3 55 ba e6 1f 44 3c
       -0.008016377 -0.030690322 -0.00081615907 0.011970496
0000f0 da 76 10 3d 86 5f da bc 5f a2 d0 3b 11 ea 2c b9
       0.035269596 -0.026656877 0.0063670124 -0.00016490395
000100 9f a8 4e 3c d0 06 18 3e 35 54 7c 3b c9 f5 5e 3d
       0.012613445 0.14846349 0.003850234 0.054433618
000110 40 e7 2a bd f4 54 f7 bc 6f d6 91 bb dc 6c 0e 38
       -0.041724443 -0.030191876 -0.0044506113 3.395682e-05
000120 54 22 de bc 26 0e 36 3d 13 70 05 bd 6b 47 1b 3c
       -0.027115978 0.044447087 -0.032577585 0.009477477
000130 cf 42 45 3c f0 7d 33 bc 96 3a e8 3b b3 88 73 3d
       0.012039854 -0.010955319 0.007087062 0.05945654
000140 e3 9c b1 3c 57 4c ac 3d d5 98 14 bb ca 76 7c bb
       0.021681255 0.08412998 -0.0022674103 -0.0038522952
000150 5a 8b 73 3d 56 c5 61 3d d7 b1 63 bb b7 b1 f2 bc
       0.059459068 0.055119835 -0.0034743452 -0.029625757
000160 8b b1 e5 bc be ea 1f 3c bd 17 12 3d 29 d5 da bc
       -0.02803876 0.009760557 0.03566717 -0.02671297
000170 f0 46 a9 3c d3 ea 17 3d 44 c2 13 3c 91 75 4c 3d
       0.020663708 0.03708918 0.0090184845 0.049916808
000180 86 a6 35 bc 18 de 9c bc 5a dd 57 bb e4 03 72 bd
       -0.011087066 -0.019148871 -0.0032938332 -0.05908574
000190 be 72 27 bd cd 4a 5d 3c 9a a4 51 bc 30 54 8c 3d
       -0.04088091 0.013506603 -0.012795592 0.06851995
0001a0 94 c0 4e 3d df af a2 3c 7d ed 9f 3d 57 14 ee bc
       0.050476626 0.019859252 0.07808969 -0.029062433
0001b0 a6 78 68 bc 42 96 ca bc e2 5e d2 3c 8e 55 c1 b8
       -0.014188921 -0.024729852 0.02568001 -9.218893e-05
0001c0 96 82 b4 3c 5e 6b 46 3d 42 04 12 3d 8e a6 76 bb
       0.022034924 0.048442237 0.03564859 -0.0037635895
0001d0 92 fd 16 3d 33 df 16 bd 80 4f 0f bd 70 cb 95 bc
       0.036862917 -0.036833953 -0.034987926 -0.018285483
0001e0 b4 7d 41 3a eb 0f 74 3c 64 08 16 bd 3e 5a 82 bc
       0.0007381097 0.014896373 -0.036629096 -0.015912171
0001f0 1a 51 8c 3d 3d 06 10 bd 3f 4a 01 3c db 4a 13 3b
       0.068514064 -0.0351622 0.007891237 0.0022475037

act_conv1.weight f4 [4, 128, 1, 1]
000000 55 ac 68 3c d4 8f ca 3d cb 68 6c bd b1 bb 35 3d
       0.014201243 0.09890714 -0.057717126 0.04436845
000010 c3 48 ad 3d 8d f4 a8 bd 44 27 40 39 bb e0 27 bc
       0.08461144 -0.08249769 0.00018325174 -0.010246451
000020 5b 74 e5 bc bf 93 ae 3d f5 2d 25 bd 5b 12 81 3d
       -0.028009584 0.08524274 -0.04032703 0.06302329
000030 a4 a7 52 3d b0 1f 6a bc 53 12 8b bc ff ab 72 3c
       0.051429406 -0.014289781 -0.016976511 0.014811515
000040 df 0f d9 bb 84 9b e9 3d c4 a9 17 3c 16 71 3c 20
       -0.0066242064 0.114066154 0.009256784 1.5961636e-19
000050 41 a9 8f 3d 85 d9 68 3d 4a 75 4d 3d d3 0d 13 3d
       0.070147045 0.056848068 0.050160684 0.035901856
000060 64 f0 a2 24 70 7b bb bc 6d c4 a8 19 5a 93 33 b6
       7.066354e-17 -0.022886008 1.7450129e-23 -2.6758848e-06
000070 0b 4f 24 bc ea 80 f3 3c cd d6 9a 3a 9b 87 87 3c
       -0.010028611 0.029724557 0.0011813283 0.016544154
000080 fe 5f 6b bd 64 af 5a ba 4e 14 b4 3d c7 38 0f 3d
       -0.057464592 -0.0008342175 0.08792935 0.034966256
000090 6c 62 51 3d 9d b2 0f bd 38 97 19 bc b3 e7 80 b8
       0.051119253 -0.03508245 -0.009374432 -6.146673e-05
0000a0 dd 0b 2d 3d ab 39 55 3c cb 81 2b 3c b9 8b fe bd
       0.04224764 0.013014237 0.010467957 -0.12428994
0000b0 48 b1 8a bd f4 4e b0 3c 57 f9 80 3d 5e ac 31 3c
       -0.06772095 0.021522023 0.06297558 0.010844318
0000c0 56 fd 96 3c 2e 71 81 bd db fd 98 3d e3 82 46 3e
       0.018431347 -0.063204154 0.07470294 0.19385867
0000d0 7b 80 7b 3d a6 94 0f bd f6 09 8a a4 71 15 06 bd
       0.061401825 -0.03505387 -5.9864834e-17 -0.032735292
0000e0 44 fe 7e bd 78 b2 18 bd 71 6a a2 0e b4 9e c2 bc
       -0.062254205 -0.037279576 4.0038583e-30 -0.023757316
0000f0 c1 2b 2d bd e9 ee df bb bf 5d 5d bd d4 aa 73 95
       -0.042278055 -0.0068339 -0.05404448 -4.920822e-26
000100 fe 3c 92 3c f7 8b 40 3e 23 6b 6c 3c ee f2 fa 3d
       0.017851349 0.18803392 0.01442984 0.122533664
000110 56 c7 a9 3d 3b 62 85 bd fb 62 a4 3c d3 99 7a 3c
       0.082899734 -0.065128766 0.020066729 0.015295464
000120 ab ef 05 bd 4b a9 a9 bc 0f a8 87 3c e3 29 a7 3d
       -0.03269927 -0.020710608 0.016559629 0.08162286
000130 4c 9e d5 3a 22 c8 a8 bb 3a 7e 05 bd d7 07 02 3e
       0.0016297786 -0.005150811 -0.032591082 0.12698303
000140 12 a4 64 b9 8e f2 63 3d 24 3b f0 8e c6 24 e1 bc
       -0.00021804895 0.05565124 -5.922152e-30 -0.027483355
000150 bc f5 bd bd 48 fe c7 3d 57 b6 2a 3d c1 68 03 bd
       -0.09275386 0.09765297 0.0416778 -0.032082323
000160 89 de b0 3c b2 73 26 3d a2 c3 70 3d fd 80 32 bd
       0.021590488 0.04063768 0.05878032 -0.043580044
000170 d3 cc 5e bb 56 d2 58 3b 87 6e e7 bc aa cb 60 3d
       -0.0033996596 0.0033084354 -0.028250946 0.05488173
000180 ef a4 c0 0f 53 ba b3 3d 4b 14 85 bd 6f d8 14 be
       1.8996192e-29 0.08775773 -0.06498011 -0.14535688
000190 08 a9 b0 3c f8 eb 31 3d 47 dd 21 bd 10 ba b7 3b
       0.021564975 0.043437928 -0.039517667 0.005606897
0001a0 cc 62 c4 bd 2a 93 cf bb a3 35 d3 3d ec 3c c4 0f
       -0.095891565 -0.006334682 0.10312965 1.9350558e-29
0001b0 f8 a4 2b 3c f3 26 3b a4 0d 8a 30 3d b6 3c 1d bd
       0.010476343 -4.0582153e-17 0.043100405 -0.038387977
0001c0 bb c0 d7 3c ef e2 db 3d e3 fc c7 3d 0a 38 0e 90
       0.026337018 0.107366435 0.09765031 -2.8047733e-29
0001d0 58 a2 a5 3d 50 f3 4f bc d5 f6 2a a2 a8 72 58 bd
       0.08087605 -0.012692288 -2.3169968e-18 -0.05284372
0001e0 17 2a 93 bd c2 f2 2e 3e 7a 20 bb bc 77 82 ef 35
       -0.071857624 0.17084792 -0.022842634 1.7844858e-06
0001f0 34 46 31 bd 78 7b 83 bd e4 3e 8f 3d 3c 52 d7 bc
       -0.04327984 -0.06420034 0.06994417 -0.02628433
000200 82 5a 0a 3d 2b 0d 4d 3d 9a dd 81 b2 e8 bb 91 3c
       0.03377772 0.050061386 -1.511835e-08 0.017789796
000210 4e 3c 30 3d 60 8a 5f bd a8 6b 0c 96 b4 27 7f b4
       0.04302626 -0.054575324 -1.134308e-25 -2.376317e-07
000220 77 7b 84 bd 2a d8 6f 3d c4 79 52 3c cd 56 94 ba
       -0.064688616 0.05855576 0.012846414 -0.0011317373
000230 83 e9 08 bd 64 8b 4d 3d 06 9d 9b 2c ab 14 c8 bc
       -0.03342582 0.05018176 4.422798e-12 -0.024423918
000240 10 65 59 8e b5 90 0e bd 18 5b cc 14 42 9b aa 8e
       -2.6795975e-30 -0.034805972 2.0634666e-26 -4.2057743e-30
000250 40 f6 0d bd a6 ec 35 bd 72 bb 9e bd 71 ba 22 3d
       -0.03465867 -0.04441514 -0.07750596 0.039728586
000260 e9 4f 8d 17 28 45 a8 3c 73 f6 c7 97 49 a2 8c 1a
       9.132084e-25 0.020540789 -1.2922286e-24 5.816483e-23
000270 f5 fa 6b bc 01 41 61 3d 90 05 5d 0e ab 28 40 bd
       -0.014403095 0.054993633 2.7243031e-30 -0.046913784
000280 8e 06 68 bc 29 ee d5 bb 7c ab c4 3c 0d 7d 41 0f
       -0.014161719 -0.006528635 0.024007551 9.5397186e-30
000290 41 17 dd 38 21 b1 4f 0e 88 d9 53 b8 66 6c 6e 8f
       0.000105424326 2.5600004e-30 -5.0508912e-05 -1.1755183e-29
0002a0 65 64 39 bc 32 39 06 bd 65 96 20 bb c1 e1 ee b9
       -0.01131544 -0.03276939 -0.0024503705 -0.00045563097
0002b0 0f 5e 77 bc 1c f9 4f 9a f6 0d 41 bd c6 d8 6e 0e
       -0.015098109 -4.3007826e-23 -0.047132455 2.9440138e-30
0002c0 60 66 3e 3d 8c a1 45 bc b5 41 e1 3c 4d cc e7 27
       0.04648435 -0.012062442 0.027497152 6.4336883e-15
0002d0 c6 1d 1a bd 8c 90 89 3b 23 1f 25 11 0b cd 35 bd
       -0.03762605 0.0041981395 1.30258e-28 -0.044384997
0002e0 89 2b 04 bc 6b 75 40 b9 cb c4 a6 14 cb 51 95 16
       -0.00806702 -0.00018354288 1.6839338e-26 2.4123867e-25
0002f0 6b 3b f6 3c 97 20 9d bd 04 99 60 3c 7d 13 0a 8f
       0.03005763 -0.07672232 0.013708357 -6.8076786e-30
000300 ad f6 78 37 cf 50 8c bb 76 a9 80 bd fc 7f cf b8
       1.4839386e-05 -0.004282094 -0.06282322 -9.894368e-05
000310 19 71 b4 bb b5 42 35 2b 12 af 29 12 4b 2f f0 bc
       -0.0055066464 6.439669e-13 5.354279e-28 -0.029319426
000320 00 85 8d bd 48 21 95 bc b1 0c c0 bc 0b da fd bb
       -0.06910133 -0.018204346 -0.023443552 -0.00774694
000330 b2 fd fd 3c 71 24 40 2d 96 c8 0f 3d 4f e2 ad b9
       0.03100476 1.0922028e-11 0.035103403 -0.00033165744
000340 de 3f 92 bc f1 57 dd 3c 3d ac 3e 0e c2 16 75 3d
       -0.01785272 0.027019473 2.3502238e-30 0.059836157
000350 50 6d d8 bb 55 77 23 3d 7b 28 fa bc 24 4d ea bc
       -0.006604828 0.039908726 -0.03053688 -0.028601237
000360 d8 f6 1a bd 22 9e 9c 3c 25 d4 36 bd 4d 1d a8 bc
       -0.037833065 0.019118372 -0.04463591 -0.020521784
000370 b6 7e 3e 3d 40 af 30 3c 25 0b ee 3c a1 80 22 bd
       0.04650756 0.01078397 0.029058049 -0.03967345
000380 87 98 94 8e e4 dd 24 3c cb 34 8a 3c a9 0d b4 8f
       -3.6631695e-30 0.0100626685 0.016870877 -1.7754632e-29
000390 8e d8 8d bd 8e ca d5 3b 27 a7 fb b2 6c 61 01 3c
       -0.0692607 0.0065243905 -2.9296258e-08 0.007896762
0003a0 42 ae 31 bd b5 ac 49 bd 96 8e 16 bc fb 9d f6 0f
       -0.043379076 -0.049236972 -0.009189269 2.4318325e-29
0003b0 ea 72 07 94 df 42 0d 89 8e a5 f9 b8 cf 78 56 bd
       -6.838421e-27 -1.70037e-33 -0.00011904082 -0.052361306
0003c0 a7 87 b9 3b b3 ff 0e 3d 3f 01 ac 3c 8b e4 d3 8f
       0.005661923 0.034911823 0.020996688 -2.0894238e-29
0003d0 73 29 e9 3b 21 68 f9 bc c4 ed 7b 0e 7c 31 21 3d
       0.007115537 -0.03044516 3.1052619e-30 0.039353833
0003e0 c4 2b 09 90 7a 2c cc 8f 83 27 8c a4 7b e0 4f 8e
       -2.7052202e-29 -2.0133085e-29 -6.078226e-17 -2.5622803e-30
0003f0 70 24 5b bb ad db b8 17 d0 ed 87 3b 17 1a 5a bd
       -0.0033438466 1.1946175e-24 0.0041482225 -0.053247537

act_conv1.bias f4 [4]
000000 76 58 55 3d 2f 90 8a bd 41 cc 01 bd 51 12 01 3e
       0.052086316 -0.06765782 -0.031688932 0.12604643

act_fc1.weight f4 [81, 324]
000000 85 24 52 3c a3 b7 bd 3b 70 a9 8d 3a a8 12 7f bc
       0.01282609 0.0057897135 0.0010807943 -0.015568413
000010 dd c3 d5 bc 0f df 87 bc 14 08 8e bc 16 0d dd bc
       -0.026094371 -0.016585855 -0.017337836 -0.026983779
000020 3a 39 2f bd 58 1e 31 3d df 88 0a 3d 17 ce 3e bd
       -0.042779185 0.04324183 0.033821937 -0.04658326
000030 3e 69 52 bd b7 c8 fe bc 86 9f 91 ba e1 35 02 bd
       -0.051369898 -0.031101568 -0.0011110164 -0.031789664
000040 85 2f 34 3c 22 33 28 bd be c4 52 3c d9 4d 36 3c
       0.010997658 -0.04106439 0.01286429 0.011126959
000050 bc c1 82 bc 10 ae 0b bd 85 b8 1d bc d1 c8 ec bc
       -0.01596152 -0.034101546 -0.009626512 -0.02890435
000060 77 ca 0c 3c 52 e4 63 bc bc 49 5a 3c db 39 cc 3c
       0.008593193 -0.013909416 0.013323244 0.024929931
000070 45 f8 0c bd e8 32 46 bc 62 04 f5 bb ab 1f 8b bc
       -0.034416456 -0.012097098 -0.007477329 -0.016982874
000080 7e 91 18 bc 9f cb ea bc b6 20 f2 3c c7 43 62 bd
       -0.009312032 -0.028661547 0.029556613 -0.05524042
000090 21 ae 0b bd 21 da 17 bd 66 1f f4 bc b5 7a 60 bc
       -0.03410161 -0.03707326 -0.029800128 -0.013701131
0000a0 3c eb 26 bc eb 9a a7 bc 29 47 6a bd f3 32 8f bc
       -0.01018792 -0.020459613 -0.05719677 -0.01748035
0000b0 56 c7 03 bd 08 a8 54 ba 53 66 68 bd 7d 75 b6 ba
       -0.032172523 -0.0008112197 -0.05673821 -0.0013920512
0000c0 46 58 54 bc 98 e6 0d bd 80 47 28 bd a9 e4 88 bc
       -0.012960499 -0.03464374 -0.041083813 -0.016710596
0000d0 1f a8 6b bd c8 b0 16 bd 68 4f 6c 3d d4 e7 ba 3b
       -0.05753338 -0.036789685 0.057692915 0.0057039056
0000e0 78 4e 30 bd a2 9e 24 bd 82 ca e9 bc 5f 19 b3 3b
       -0.043043584 -0.040190347 -0.028538946 0.005465671
0000f0 60 1e 15 bd 93 a2 1d bd 53 72 89 bd 8a 3f 8c 3e
       -0.03640592 -0.03848512 -0.06711259 0.27392226
000100 4f cd fc bc 1e c5 37 3c f5 bf 8a b8 01 bc c4 bd
       -0.030859618 0.01121643 -6.6161076e-05 -0.096061714
000110 d0 9a b6 bc 05 ba 9d bc ed 08 28 3d 56 90 3c 3c
       -0.022290617 -0.01925374 0.041024137 0.011509022
000120 ff 48 91 3e cf 74 7f 3e b8 78 43 bd 7b ec 0c 3d
       0.28376004 0.24946903 -0.04772255 0.034405213
000130 65 06 ad bc 82 0a 5f bc c3 b1 46 bc e0 9f 0c 3b
       -0.021121213 -0.013613345 -0.012127343 0.0021457598
000140 c7 62 fc 3c ee 19 33 b9 32 4b 28 bb 29 ba 66 bb
       0.03080882 -0.0001708043 -0.0025679586 -0.0035206175
000150 40 15 0a bc 1e b0 11 3b 01 93 0f bb 04 2b d8 3a
       -0.008427918 0.0022230218 -0.002190769 0.0016492312
000160 8d e2 18 3a ef bc 8a b4 73 00 62 ba 60 5f c2 b9
       0.00058320985 -2.584197e-07 -0.0008621283 -0.00037073623
000170 fc 17 40 bc b2 ad c8 3a 8b b2 c0 ba 55 7d c6 ba
       -0.011724468 0.0015310554 -0.0014701647 -0.0015143553
000180 f4 27 eb ba 51 1d 1c bb e2 fa 39 b9 14 b0 4c ba
       -0.0017940984 -0.0023821185 -0.00017736436 -0.000780822
000190 45 72 4e 3b ee 9f 88 bc a6 6e cf bb 49 c6 75 bb
       0.0031501215 -0.016677823 -0.006330329 -0.003750222
0001a0 0f 3a dc 3b 8e fe 30 bc 56 1f cf ba e7 e2 fd 38
       0.0067207883 -0.010802878 -0.0015802186 0.00012106244
0001b0 61 69 e5 39 d8 2e ec 3b 05 1f 46 bc 62 8e e5 bb
       0.00043756797 0.0072077326 -0.012092357 -0.0070054987
0001c0 b0 93 20 bc bb 5f a9 bc 1c d5 0e 3c 4d cd 0e ba
       -0.009800836 -0.02067553 0.008717801 -0.00054474623
0001d0 bd 0f d0 b9 8a a5 45 bb 20 3d 93 3b a2 bd bb 3b
       -0.00039684577 -0.0030158483 0.0044933707 0.005729393
0001e0 8c aa b6 ba 86 3f a2 bc 1a 14 8f bc 97 5f d9 3b
       -0.0013936325 -0.019805681 -0.01746564 0.0066337097
0001f0 79 0d 96 bb 91 44 be b9 69 88 9a bb f4 6e a5 bb
       -0.004579243 -0.0003629071 -0.0047159684 -0.005048627
000200 7a 59 cb 3a 00 41 aa bc ed c0 98 bb 7d 5d 41 bc
       0.0015514337 -0.020782948 -0.0046616704 -0.0118020745
000210 20 38 9c 3b 75 fe 8d 3a 53 45 6a b9 e0 8d 35 bb
       0.004767433 0.001083328 -0.00022341804 -0.0027702972
000220 ec fd 0f bb e6 56 7d bc b8 5a a2 bc 65 e5 64 bc
       -0.0021971418 -0.015462613 -0.019818649 -0.013970708
000230 5b ad ce bb 0d 4d 42 bc 25 db 02 bc 91 91 cb 38
       -0.0063072867 -0.011859191 -0.007986818 9.706908e-05
000240 08 81 96 ba f3 5d 65 bb 26 b4 88 b8 bb 20 58 bc
       -0.0011482546 -0.0034998625 -6.5185406e-05 -0.013191397
000250 da 4b 80 bc 8e d1 27 bc c3 b8 52 bc f9 af 86 b8
       -0.015661169 -0.010242833 -0.012861433 -6.4223954e-05
000260 69 37 0a 37 b8 c2 9a 34 1d 60 6b b9 8f b8 00 ba
       8.238342e-06 2.8826412e-07 -0.00022447151 -0.0004910314
000270 9b 7f ac b9 3b 6f 43 ba e1 ef ab ba a8 16 67 ba
       -0.0003290147 -0.00074552343 -0.0013117754 -0.0008815327
000280 12 e5 f4 35 7c e4 fb 90 ae 2e 97 0e 33 39 57 0e
       1.8246085e-06 -9.935408e-29 3.7269325e-30 2.6528336e-30
000290 fe 3a 23 0e 92 36 d8 89 e0 00 3e 8d 6d df 7e 8f
       2.0119705e-30 -5.2051426e-33 -5.8549324e-31 -1.2566197e-29
0002a0 20 0c ec 0d 9f a8 f8 8d 58 b9 04 0f 65 59 c7 0d
       1.4547542e-30 -1.5324774e-30 6.543798e-30 1.2285843e-30
0002b0 7c 3f 7f 90 cc 3b 2a 8f e4 23 ae 8e c6 45 cb 92
       -5.033879e-29 -8.3931636e-30 -4.2928873e-30 -1.2828302e-27
0002c0 8c 4c 9f 8f 7b 1b 65 0f 94 36 dc 8f 00 ac 4d 8e
       -1.5708095e-29 1.1295864e-29 -2.1714698e-29 -2.5351016e-30
0002d0 8c 6d b8 0f aa 63 e7 24 4a eb 7b a8 07 5e b6 2a
       1.8185997e-29 1.0034912e-16 -1.3984319e-14 3.239494e-13
0002e0 8f d6 bd a8 00 c0 28 aa a2 fd 04 aa 5b b3 c9 a4
       -2.1076265e-14 -1.4988011e-13 -1.1811952e-13 -8.7473695e-17
0002f0 5d c4 2e 0e d4 32 7f 8d 63 ae 82 2d 5c 93 87 af
       2.1541701e-30 -7.8639124e-31 1.4856732e-11 -2.4661062e-10
000300 6a 72 47 ae 0e cf cd ac 46 c5 07 ae 84 63 6f 2f
       -4.534898e-11 -5.849438e-12 -3.087066e-11 2.1772278e-10
000310 de a7 05 ab 10 93 7f 94 8c 17 40 10 d1 f4 87 2b
       -4.7484054e-13 -1.2903213e-26 3.7883463e-29 9.660277e-13
000320 76 8d a4 ad 36 df 13 ad a2 c2 47 af 69 e6 0c 2e
       -1.8707463e-11 -8.405545e-12 -1.8168092e-10 3.203696e-11
000330 29 4f 02 2f ae a8 ad 2a 79 c5 c2 0e d5 c7 41 8f
       1.1851554e-10 3.0848018e-13 4.801485e-30 -9.554121e-30
000340 b9 38 00 2d 40 a8 19 b0 bc e0 c4 af 8a d8 0e af
       7.288553e-12 -5.5900173e-10 -3.5811876e-10 -1.2991755e-10
000350 b8 bb 08 af 7b f1 f1 2f 23 38 2e 2d 6d 5c 7e 0f
       -1.2435819e-10 4.4009227e-10 9.90322e-12 1.25409674e-29
000360 d7 08 c0 91 31 86 3c ad a5 d6 15 31 68 86 89 af
       -3.0297707e-28 -1.0716359e-11 2.1804365e-09 -2.5015656e-10
000370 14 b3 15 b1 b8 9d a8 b0 35 8f 8e b1 a9 96 9d 2b
       -2.1784148e-09 -1.2268435e-09 -4.1490247e-09 1.1197338e-12
000380 29 e4 8c 8c 2f 43 ef 96 a1 a2 c3 32 5f 38 d1 b3
       -2.1707734e-31 -3.8654931e-25 2.2774943e-08 -9.742575e-08
000390 47 a1 e4 34 39 f0 81 b5 66 3d 0f b5 84 57 63 33
       4.2585654e-07 -9.681163e-07 -5.3361e-07 5.293215e-08
0003a0 49 53 0e 2b d6 d0 6e 0f c1 20 e0 2b f8 f5 03 38
       5.0564116e-13 1.1774526e-29 1.5925248e-12 3.146191e-05
0003b0 3b 5d e4 b8 0f 90 9b b6 ba 23 bb b8 66 cd c2 38
       -0.00010889253 -4.6361306e-06 -8.9235094e-05 9.288899e-05
0003c0 ee 21 b7 37 0e 31 f1 b4 f8 b9 7c 8f 59 c1 8c 3d
       2.18311e-05 -4.492544e-07 -1.24603755e-29 0.06872816
0003d0 75 98 58 3d d3 2f ab 3c 9e 4d 1f 3d c0 ed f0 3c
       0.05287977 0.020896828 0.03889238 0.029410243
0003e0 0c 41 2a 3d d7 60 ca 3c 4e 84 f9 3c 23 eb 6f 3d
       0.04156594 0.02470438 0.030458596 0.058573853
0003f0 ac da 4b 3d d4 87 e8 3b cc 9a ff 3c cc 9e 83 3c
       0.04976909 0.00709627 0.031201743 0.016066931

act_fc1.bias f4 [81]
000000 6a a4 0c 3e a6 91 c2 bc 3b 9b 50 be b3 33 0c 3e
       0.13734594 -0.023751091 -0.20371716 0.13691597
000010 f0 2d 14 3e 1c d2 0a 3e 11 54 05 be 5d 91 d0 bc
       0.14470649 0.13556713 -0.1302035 -0.02545994
000020 c1 f3 dd 3d 9d a7 9d bc 04 c9 92 bd f6 20 e3 3d
       0.10837508 -0.019244963 -0.07167247 0.11090271
000030 92 f5 53 3d 83 bd 86 3e 9e 6f 96 3d fd 1b b1 3d
       0.051747866 0.2631646 0.07345508 0.086479165
000040 c4 35 36 be a2 41 1a bd 40 c1 32 be bd 67 19 3e
       -0.17793947 -0.03766025 -0.17456532 0.1498098
000050 40 b8 85 3c f8 a0 6f 3e b5 22 b6 bd 4e 76 47 3e
       0.016323209 0.23401248 -0.088933386 0.19478723
000060 22 b1 da 3c aa 33 20 3e 4f a0 04 be 85 32 b2 3d
       0.026695792 0.15644708 -0.12951778 0.08701042
000070 ee 1a 12 3d f5 77 02 3e 0a e0 0e 3e 6c 1f 4d 3e
       0.035670213 0.12741072 0.13952652 0.20031518
000080 6e 87 d5 3d ac a8 47 3e 0c 3d 48 3d 56 2e ee 3d
       0.10426222 0.19497937 0.048886344 0.11629932
000090 4f c2 f2 3d 89 a9 59 3e 80 61 22 bd 64 c0 84 3e
       0.11853468 0.21256079 -0.039643764 0.25928032
0000a0 82 fe 2f bd a2 59 93 3e 98 0a b7 bd b3 86 74 3e
       -0.042967327 0.28779322 -0.089375675 0.23879509
0000b0 70 d8 d1 3d e9 28 b7 3d fb e6 72 3d bc 78 1f 3e
       0.1024636 0.0894335 0.05930231 0.155734
0000c0 b3 f5 ed 3d e6 42 80 3e 59 e8 a7 3d 69 40 58 3e
       0.11619129 0.2505104 0.08198614 0.2111832
0000d0 e0 ef c9 3b d6 2f bd 3d 63 7c 35 be b5 a0 0e 3e
       0.0061626285 0.092376396 -0.17723231 0.13928492
0000e0 83 60 d3 3d 59 a7 7b 3e 81 de cc bd da 0d 10 3e
       0.103211425 0.24575557 -0.10003377 0.14067784
0000f0 62 25 b4 ba fe 13 1e 3e 72 ef 0f be aa e9 a2 bd
       -0.0013744051 0.15437314 -0.14056185 -0.07954724
000100 d8 08 fd bd 10 e3 12 3e b8 fc 5a 3d bd d4 33 3e
       -0.123552024 0.1434443 0.053463668 0.17561622
000110 02 92 15 3d fc d3 0c 3e de 02 1d be 13 30 fd bc
       0.036516197 0.1375274 -0.15333125 -0.030906713
000120 d2 66 48 3d be 30 ae bd 73 4f 39 be 3e 16 d2 3d
       0.048926182 -0.085053906 -0.18096714 0.102581486
000130 a0 73 9a 3d 2f 58 b9 3d fa 6c 24 be 9a 8c ec bc
       0.07541585 0.09050023 -0.16057196 -0.028875638
000140 4a 69 e8 3d
       0.11348207
